models/regression_models/ML_including_industry_feature/single_dimension/having_finished_successfully/version_best/checkpoints/epoch=79-step=2480.ckpt (torch, 548107 bytes, 15 tensors)

network.0.weight f4 [256, 45]
-0.052023638 -0.1109261 -0.06558371 0.017755792 -0.017842071 -0.058137137 0.02898146 -0.0029029476
-0.019460235 -0.05361096 0.074214146 0.1007974 -0.012780916 -0.005064332 0.12538467 0.089238726
0.08866185 0.000532715 0.0019423246 0.021868786 0.035298686 -0.09762083 -0.07386308 -0.07293044
-0.01952871 0.06534978 0.0066805854 0.017950917 0.023760801 -0.013529021 -0.06196985 -0.09694075
-0.084356576 -0.002842845 -0.12259769 -0.07846018 0.044944905 -0.10649113 0.005722023 -0.07706123
-0.05988675 -0.078853585 -0.07483491 -0.07464382 0.11325242 -0.0021448387 -0.011601601 0.07523441
0.064524926 -0.0236473 -0.004555077 -0.098984204 0.082502864 -0.0054601515 -0.04972989 -0.010262302
-0.06382553 0.018861497 -0.029023306 -0.0064953715 -0.018614607 0.032615367 0.013423573 0.0002723361
-0.016957425 -0.0008920278 -0.037440643 0.012418798 -0.0009946966 -0.034791265 0.056431495 0.005230569
-0.050866332 0.024761992 -0.02649568 0.003277598 0.02416082 0.014915451 -0.022450548 0.07881388
0.097221054 0.055959754 -0.09337668 0.009927711 -0.0054766648 -0.021997739 -0.010306216 -0.024551142
0.13502492 -0.033036947 -0.11967932 -0.040224608 0.082764536 -0.040595576 -0.054949235 0.018244827
-0.05467095 0.0830949 -0.052537933 -0.053047962 -0.03579475 -0.08273728 -0.05754365 0.031232335
-0.0013854603 0.05731685 -0.069556534 0.083480574 -0.018308308 -0.06442973 0.037888393 0.09425074
-0.110703066 -0.03377475 0.075604424 0.07332537 -0.00024874223 -0.046418026 0.0014738542 -0.018095164
-0.045262184 -0.03366536 0.05792392 0.07255354 -0.092840336 0.09228914 -0.0060616583 0.043686546
-0.02356904 0.12024424 0.11359731 0.0794145 -0.045885295 0.05086956 0.066172585 0.08007567
0.1090859 -0.119794585 -0.059978455 0.11291408 0.062407404 -0.066042736 -0.09494593 0.11708689
0.009705234 -0.10445567 -0.10496198 -0.035146836 -0.050206263 -0.02360799 -0.09400789 0.023002116
-0.13853884 0.0036004763 -0.0046936674 0.033936143 -0.07200313 -0.103654616 -0.010001989 0.0055952063
0.0032591033 -0.00017755601 -0.08941776 0.0051005185 -0.013451579 -0.10741119 0.02681698 0.07823262
0.05554094 0.06465508 -0.09572169 0.045133088 0.028573899 0.086078785 -0.08990843 0.10773899
0.02778256 0.058598477 -0.035169393 -0.066671856 -0.06158278 0.009954033 0.0833384 -0.08433975
-0.014088271 0.0063287914 0.018615061 -0.045582894 0.059783228 0.05552261 -0.063269146 -0.099391475
-0.04334714 -0.007404636 0.09556028 -0.0054012965 -0.12469333 0.01399493 0.015251885 -0.041241232
-0.026209805 0.12526098 0.08323217 -0.052044123 -0.044352356 -0.03612868 -0.00011971537 0.027124375
0.056413207 -0.00040015043 -0.013035561 0.085524075 0.12578484 -0.10734908 0.037733953 0.01481686
-0.061620757 -0.004819599 0.08083442 0.09913338 -0.0029524679 0.013205763 0.0061832457 -0.0061613796
-0.09704654 -0.0028894127 0.11897727 -0.07990276 -0.102277465 0.019723682 -0.024302602 0.05430821
0.07667915 -0.07445402 -0.026816862 0.122885406 0.093381286 -0.06510805 0.0042563286 -0.06034204
-0.012904631 -0.04703584 -0.072772525 -0.012924063 0.021002186 0.07508289 0.090227425 0.060092803
-0.057426993 -0.07621771 0.095855914 -0.0021761123 0.00095802284 -0.022786098 -0.0019184643 -0.013792224
00000000: bd16 55bd 392d e3bd c150 86bd 9874 913c
00000010: 8929 92bc 3521 6ebd 876a ed3c 613f 3ebb
00000020: 126b 9fbc 2a97 5bbd 96fd 973d de6e ce3d
00000030: 0c67 51bc b2f2 a5bb d764 003e cbc2 b63d
00000040: 5894 b53d e6a5 0b3a 9995 fe3a 2b26 b33c
00000050: 5b95 103d 6eed c7bd 8745 97bd 8e5c 95bd
00000060: acfa 9fbc 1bd6 853d d0e8 da3b cd0d 933c
00000070: 03a6 c23c d4a8 5dbc 19d4 7dbd df88 c6bd
00000080: 24c3 acbd 064f 3abb 7f14 fbbd bbaf a0bd
00000090: 2618 383d 0618 dabd cf7f bb3b 47d2 9dbd
000000a0: cf4b 75bd fd7d a1bd 0c43 99bd dcde 98bd
000000b0: e3f0 e73d 6c90 0cbb a414 3ebc 8014 9a3d
000000c0: a525 843d fcb7 c1bc c142 95bb 3bb8 cabd
000000d0: 43f7 a83d 12eb b2bb 92b1 4bbd 3723 28bc
000000e0: f6b6 82bd 6d83 9a3c 49c2 edbc 20d7 d4bb
000000f0: a97d 98bc b197 053d 8cee 5b3c 55c8 8e39
00000100: 4cea 8abc f9d6 69ba 5c5b 19bd 3778 4b3c
00000110: 7b60 82ba 4981 0ebd b624 673d 3165 ab3b
00000120: 3759 50bd a9d9 ca3c 780d d9bc f8cc 563b
00000130: e9ec c53c f05f 743c 36ea b7bc 2c69 a13d
00000140: d51b c73d 0e36 653d 463c bfbd d7a7 223c
00000150: 9875 b3bb 9a34 b4bc 67db 28bc 7a1f c9bc
00000160: f943 0a3e c051 07bd 6e1a f5bd 8fc2 24bd
00000170: 7480 a93d 8c47 26bd 7312 61bd 2d76 953c
00000180: a5ee 5fbd a92d aa3d 0432 57bd d248 59bd
00000190: 849d 12bd 2a72 a9bd e4b2 6bbd f4da ff3c
000001a0: 5598 b5ba 13c5 6a3d a873 8ebd ddf7 aa3d
000001b0: 4efb 95bc bcf3 83bd dc30 1b3d 8806 c13d
000001c0: 4ab8 e2bd 6457 0abd 7ed6 9a3d 9d2b 963d
000001d0: 9e69 82b9 d420 3ebd 572e c13a 4f3c 94bc
000001e0: d764 39bd b0e4 09bd a241 6d3d f396 943d
000001f0: 1323 bebd 1702 bd3d e0a0 c6bb aaf0 323d
00000200: dc13 c1bc 9d42 f63d b5a5 e83d 12a4 a23d
00000210: 38f2 3bbd 9a5c 503d 7e85 873d b6fe a33d
00000220: 6e68 df3d dd56 f5bd f8ab 75bd 7f3f e73d
00000230: e89e 7f3d 6a41 87bd 0373 c2bd 40cb ef3d
00000240: b402 1f3c dbec d5bd 4ef6 d6bd 21f6 0fbd
00000250: 15a5 4dbd 8b65 c1bc 3587 c0bd ef6e bc3c
00000260: 20dd 0dbe f8f5 6b3b 56cd 99bb a000 0b3d
00000270: 6176 93bd df48 d4bd 62df 23bc fe57 b73b
00000280: ae96 553b 542e 3ab9 a920 b7bd 4022 a73b
00000290: 0364 5cbc 66fa dbbd 49af db3c 6d38 a03d
000002a0: e67e 633d e269 843d bc09 c4bd 79dd 383d
000002b0: cf13 ea3c 134a b03d e921 b8bd 42a6 dc3d
000002c0: 4098 e33c f504 703d c80d 10bd 418b 88bd
000002d0: 3a3e 7cbd 3e16 233c 53ad aa3d 52ba acbd
000002e0: 7ed2 66bc c061 cf3b 9d7e 983c 21b5 3abd
000002f0: 42df 743d ad6b 633d 4193 81bd c28d cbbd
00000300: c58c 31bd 97a2 f2bb 1cb5 c33d 5cfd b0bb
00000310: 375f ffbd fe4a 653c 0be3 793c 91ec 28bd
00000320: f2b5 d6bc 6a44 003e a175 aa3d 382c 55bd
00000330: d1aa 35bd abfb 13bd b30f fbb8 f033 de3c
00000340: 8911 673d 48cb d1b9 1b93 55bc 3f27 af3d
00000350: becd 003e d6d9 dbbd eb8e 1a3d 6ac2 723c
00000360: 0c66 7cbd baed 9dbb 848c a53d 7106 cb3d
00000370: 317e 41bb fc5c 583c d39c ca3b 66e5 c9bb
00000380: 56c0 c6bd 4d5c 3dbb 5baa f33d 0fa4 a3bd
00000390: d976 d1bd 8f93 a13c 4016 c7bc 4972 5e3d
000003a0: f509 9d3d 597b 98bd 09af dbbc 58ab fb3d
000003b0: b03e bf3d 5f57 85bd ac78 8b3b 3729 77bd
000003c0: f26d 53bc a7a8 40bd c309 95bd 73bf 53bc
000003d0: c70c ac3c 0fc5 993d 28c9 b83d df23 763d
000003e0: 9138 6bbd 0818 9cbd 1b50 c43d 1b9d 0ebb
000003f0: d323 7b3a e9a9 babc fb74 fbba c8f8 61bc

network.0.bias f4 [256]
0.049865045 -0.09983503 0.114825755 0.13398054 0.13961005 0.11976825 -0.005272652 -0.041534655
-0.07949948 0.12346762 -0.006431249 0.004912806 -0.07579981 -0.0194548 0.09594667 -0.026230223
0.12794559 -0.010671462 -0.061984427 -0.13849278 0.04155606 -0.067435466 -0.11246428 -0.041058246
-0.035024446 0.012637932 0.11299541 0.020922938 0.083986916 0.11176133 0.041288476 0.0704654
-0.045998886 -0.108025536 -0.0019189573 -0.089336365 0.015836606 -0.03494286 0.09805394 0.05423248
0.09138045 -0.08921593 -0.045207094 0.11194804 0.1252936 -0.041937042 0.0030935616 -0.075373985
0.12765084 0.10906464 0.101336114 0.07376432 0.08968139 -0.031907167 0.103425674 -0.1308401
0.07568619 -0.084449545 0.022940043 -0.06149636 -0.03438572 0.10111275 0.040183797 -0.041856393
0.036404002 -0.053055454 -0.091721945 0.069104336 0.040358335 -0.10038106 0.12734373 -0.072500564
0.03300066 -0.093631394 -0.043977052 0.028022781 -0.090535656 -0.09053066 -0.056558266 0.1306182
-0.05222059 -0.020109527 -0.07886949 0.028530415 -0.025704945 -0.08454658 -0.09700713 0.07035976
0.017771313 0.08955701 0.0818513 -0.073502086 0.11777682 -0.062782474 0.0038296306 -0.07783448
-0.07997071 -0.07479145 0.13341258 -0.01544082 0.043953504 0.045933116 0.121451 -0.088254824
0.01152123 -0.109009214 -0.0061059506 -0.12650263 -0.09756915 -0.08338751 0.026693363 -0.057976156
0.0802147 -3.178375e-05 -0.032689653 0.004858161 -0.01588908 -0.016122546 0.024128987 0.10462471
0.017800067 0.06110096 0.08574621 0.02666256 0.1304913 0.01847985 -0.059907477 -0.090745814
-0.0038378073 -0.005150712 0.110442944 -0.024582194 0.12927969 0.09799852 0.12110745 -0.049823504
0.12792008 0.0333289 0.03962025 0.028730681 0.10574473 -0.12065703 0.11058201 0.11817122
-0.010218611 0.071697436 0.01457844 -0.06417266 0.0314591 0.03330536 -0.10587164 -0.11417306
-0.048446547 -0.027502654 0.075175054 -0.0940443 -0.017121026 0.06815002 -0.03416443 -0.0524234
0.037482433 -0.06977056 -0.090161756 0.07128706 0.1151793 -0.057743967 -0.10666512 0.0354244
0.04784672 -0.07918714 -0.045744807 -0.08046724 0.12928207 0.06469174 0.04426215 -0.008663508
-0.09269217 0.018929852 -0.052920803 -0.11107577 -0.084555976 -0.13423997 0.01046063 0.123503044
0.106964275 -0.09033677 -0.076405525 0.07683882 0.021026503 0.064826496 -0.060167935 0.11393832
-0.06075089 0.13118656 0.09665695 0.014016518 0.028136088 0.11348454 0.05525865 0.06682547
-0.039077304 0.043407667 0.057426535 0.04310536 -0.028206807 -0.06501243 -0.09542283 0.023734767
0.13189922 0.11657872 -0.06485007 -0.034480028 0.025471948 -0.033835504 0.11259089 -0.12006892
0.013454856 -0.044469867 0.06971461 0.016533406 0.035983015 0.1006549 -0.014526552 -0.034980807
-0.11784734 -0.026072262 0.11472537 -0.029220155 0.07622015 -0.1259787 0.07162503 -0.00438592
-0.07994279 0.003410732 -0.14097029 0.0045786747 -0.06816729 0.109523624 0.040230125 -0.033825476
-0.030292423 -0.09775826 0.10472601 0.018673828 -0.09717901 -0.035476483 0.06921211 0.06376602
-0.10493615 0.055068843 -0.06188456 0.073782355 -0.09921014 0.07502236 0.14111084 -0.0035272506
00000000: 4a3f 4c3d 4f76 ccbd c429 eb3d 3232 093e
00000010: f0f5 0e3e 0e49 f53d 36c6 acbb 3e20 2abd
00000020: a0d0 a2bd 97dc fc3d 3abd d2bb 9bfb a03b
00000030: ee3c 9bbd ac5f 9fbc b07f c43d c4e0 d6bc
00000040: 2b04 033e 5bd7 2ebc 62e3 7dbd 0dd1 0dbe
00000050: b036 2a3d 9b1b 8abd ac53 e6bd b12c 28bd
00000060: cb75 0fbd 540f 4f3c 236a e73d 9566 ab3c
00000070: 5501 ac3d 20e3 e43d 1b1e 293d 2a50 903d
00000080: 5469 3cbd 7e3c ddbd 8685 fbba fcf5 b6bd
00000090: c5bb 813c 3f20 0fbd 81d0 c83d e022 5e3d
000000a0: ac25 bb3d d7b6 b6bd 132b 39bd 0445 e53d
000000b0: f74c 003e 2dc6 2bbd 5abd 4a3b ad5d 9abd
000000c0: e7b6 023e 485d df3d 4f89 cf3d bf11 973d
000000d0: e0aa b73d 17b1 02bd d7d0 d33d f2fa 05be
000000e0: 5c01 9b3d e2f3 acbd c2ec bb3c 9be3 7bbd
000000f0: 0ad8 0cbd 3414 cf3d c497 243d 9c71 2bbd
00000100: 5d1c 153d ad50 59bd b7d8 bbbd 9386 8d3d
00000110: c84e 253d 9694 cdbd 6566 023e 2d7b 94bd
00000120: b32b 073d d1c1 bfbd 4821 34bd 0890 e53c
00000130: c26a b9bd 2368 b9bd a4a9 67bd c7c0 053e
00000140: 42e5 55bd bcbc a4bc 5486 a1bd 9eb8 e93c
00000150: 2d93 d2bc c226 adbd adab c6bd c718 903d
00000160: 2595 913c aa69 b73d a8a1 a73d 4388 96bd
00000170: f934 f13d 1994 80bd 8afa 7a3b af67 9fbd
00000180: afc7 a3bd 422c 99bd 4f9d 083e 7efb 7cbc
00000190: 9708 343d 5d24 3c3d 4dbb f83d f2be b4bd
000001a0: 8bc3 3c3c 3940 dfbd 6d14 c8bb e889 01be
000001b0: 56d2 c7bd 12c7 aabd 0aac da3c 6878 6dbd
000001c0: 9b47 a43d 8b4f 05b8 96e5 05bd 3531 9f3b
000001d0: d129 82bc 6e13 84bc 27aa c53c 7b45 d63d
000001e0: 72d1 913c 0045 7a3d b59b af3d 716b da3c
000001f0: 839f 053e 0e63 973c 8b61 75bd f1d8 b9bd
00000200: b983 7bbb 4ec7 a8bb e92f e23d 9960 c9bc
00000210: e561 043e 73b3 c83d 2f07 f83d bb13 4cbd
00000220: 7bfd 023e e283 083d d848 223d 9b5c eb3c
00000230: b190 d83d 081b f7bd d278 e23d c103 f23d
00000240: f66b 27bc 1bd6 923d 69da 6e3c f56c 83bd
00000250: 42db 003d 336b 083d 3bd3 d8bd 91d3 e9bd
00000260: e36f 46bd 3f4d e1bc 61f5 993d 4c9a c0bd
00000270: 6541 8cbc 3d92 8b3d 00f0 0bbd ebb9 56bd
00000280: 2e87 193d dee3 8ebd baa6 b8bd f3fe 913d
00000290: 20e3 eb3d f084 6cbd 3e73 dabd 2d19 113d
000002a0: ecfa 433d de2c a2bd e85e 3bbd 02cc a4bd
000002b0: 8562 043e 1a7d 843d 3a4c 353d 63f1 0dbc
000002c0: 64d5 bdbd c712 9b3c 7cc3 58bd b17b e3bd
000002d0: af2b adbd 3476 09be 1063 2b3c 2aef fc3d
000002e0: 1610 db3d 7c02 b9bd 807a 9cbd ac5d 9d3d
000002f0: c63f ac3c c1c3 843d a772 76bd 7e58 e93d
00000300: edd5 78bd c555 063e 14f4 c53d 8aa5 653c
00000310: a77d e63c 956a e83d e556 623d cbdb 883d
00000320: 860f 20bd 3dcc 313d 1638 6b3d 3f8f 303d
00000330: f611 e7bc 3d25 85bd 0b6d c3bd 6a6f c23c
00000340: 9710 073e d3c0 ee3d 1dd0 84bd ee3a 0dbd
00000350: 8caa d03c 1997 0abd 0d96 e63d b2e6 f5bd
00000360: c271 5c3c 0926 36bd 89c6 8e3d 1171 873c
00000370: ed62 133d 2824 ce3d c600 6ebc 0948 0fbd
00000380: f259 f1bd 7f95 d5bc 23f5 ea3d 1b5f efbc
00000390: 4f19 9c3d 8f00 01be 25b0 923d c3b7 8fbb
000003a0: 0cb9 a3bd 9686 5f3b 845a 10be b508 963b
000003b0: 4b9b 8bbd ec4d e03d 58c8 243d 958c 0abd
000003c0: d127 f8bc 7c35 c8bd 977a d63d dbf9 983c
000003d0: ca05 c7bd ca4f 11bd 14bf 8d3d c297 823d
000003e0: c4e8 d6bd de8f 613d aa7a 7dbd 341b 973d
000003f0: b02e cbbd 53a5 993d 5c7f 103e 7229 67bb

network.3.weight f4 [128, 256]
0.028106581 0.011201224 0.051503744 0.0021864504 -0.012655452 -0.04257364 -0.01014369 0.0016136526
0.0019067725 -0.029061193 0.016534368 0.031740062 -0.010643886 -0.042281702 0.0048435642 1.680705e-10
-0.017247066 0.04381659 0.029702665 0.045248628 -0.04690433 -0.026630707 -0.0007540002 -0.054467652
-0.030133663 -0.025319465 -0.033145633 0.0018249726 0.042581737 0.039500937 -0.013475285 0.021071767
-0.049335763 0.02693436 0.012346829 0.015652813 0.026207866 0.028142108 0.027917065 -0.018952243
-0.021944476 -0.016370839 0.009342479 0.008705277 -0.04569912 0.02524926 -0.05896682 0.027362755
0.022965636 0.019755246 -0.03600611 -0.060015935 0.02647933 -0.030849874 0.041338917 0.025458515
0.029904746 0.017264035 -0.043603554 -0.00911457 0.022873322 -0.033876434 -0.048443 0.0067263898
0.007915887 -0.018941902 -0.0025640696 -0.050542872 -0.010900009 -0.023205427 -0.020622388 -0.0010335302
-0.009614342 0.0032778948 -0.035743684 0.026630528 0.0030292377 -0.012096047 -0.026719606 -0.035884514
-0.017940313 -0.02652558 -0.025455102 0.013509306 -0.017864522 0.03559972 0.009909262 -0.050106354
0.027167033 0.030926984 0.0027696888 0.057036962 0.03571983 -0.016444717 -0.012293391 0.015235361
0.018944966 -0.019131318 0.04942431 0.016886966 0.0042718593 0.020465652 -0.009576359 -0.007662932
-0.008587812 0.034123067 -0.0110538555 0.01272522 -0.018170275 -0.00020192942 0.005053029 0.01041599
0.008962909 0.014348957 0.030771978 -0.01862663 0.011409946 0.019222384 0.025718533 0.0455535
-0.022391487 0.017349385 -0.042628236 -0.015618238 -0.043078076 -0.05334541 -0.013731715 -0.033072922
0.00022373153 0.03308791 -0.024642078 -0.04008405 0.022367524 0.030720092 -0.048412908 0.00020234702
-0.011171017 -0.004423621 -0.0036602023 0.0043121143 0.020365698 0.021505477 0.044736836 -0.026459724
-0.0013034736 0.028287018 -0.0012258462 0.0045082625 -0.03866682 -0.02498615 0.007795897 0.021839635
0.046462014 0.029071178 -0.0018234539 0.021363223 0.0066979514 0.0026468923 0.027598822 0.007399141
0.04768451 0.033443253 0.015545728 -0.05626538 -0.013078424 0.017809557 0.0052444367 -0.03623118
-0.053658005 0.046890393 -0.025242576 -0.023869464 -0.033731136 -0.013343686 -0.054057907 0.051181562
-0.022935696 -0.03869581 -0.034346234 -0.035442248 -0.021449093 0.0132786315 0.05169839 -0.021120168
0.031142619 -0.00892169 0.025212755 -0.0072291694 0.032718163 0.025661288 0.028997011 0.008499288
-0.01489807 -0.016798567 -0.024527516 0.009688547 0.022459265 0.052325755 0.0003763457 0.032313928
-0.008408584 0.01725826 0.030134572 -0.004589719 0.0024106898 0.04155488 -0.0049477234 0.02972674
-0.013316601 -0.019813221 -0.0068944828 -0.0027455715 0.012711627 -0.049953405 -0.030548664 0.034415472
-0.0149256885 -0.041927017 0.04164686 0.017659144 -0.016473835 -0.051269937 -0.04442456 0.0024277335
-0.013620057 0.0035447255 -0.043277144 -0.0039481013 0.04630459 0.004943892 0.049419954 -0.01284515
0.013574616 -0.010807014 0.009074222 0.036144096 0.030873463 0.038829047 -0.042358354 0.00085125153
0.027859626 0.015944632 -0.037272546 0.019952048 0.047291476 -0.011193272 0.03358497 0.051859844
-0.0033137714 0.008662899 -0.0010112323 -0.0017396118 -0.0042695627 -0.022255583 -0.02510016 0.059405856
00000000: c63f e63c 5785 373c 97f5 523d 8d4a 0f3b
00000010: d058 4fbc b261 2ebd b831 26bc 3281 d33a
00000020: abec f93a bd11 eebc 1573 873c de01 023d
00000030: b263 2ebc 942f 2dbd c3b6 9e3b a4cb 382f
00000040: b849 8dbc 0679 333d 0153 f33c a056 393d
00000050: c11e 40bd a428 dabc 19a8 45ba 7919 5fbd
00000060: dfda f6bc c46a cfbc b7c3 07bd eb33 ef3a
00000070: 306a 2e3d bccb 213d 71c7 5cbc b39e ac3c
00000080: 4c14 4abd 72a5 dc3c 5b4a 4a3c 543a 803c
00000090: e1b1 d63c 478a e63c 54b2 e43c bc41 9bbc
000000a0: e7c4 b3bc 231c 86bc 3211 193c 94a0 0e3c
000000b0: 002f 3bbd 89d7 ce3c 3187 71bd db27 e03c
000000c0: 6e22 bc3c c1d5 a13c 257b 13bd 45d3 75bd
000000d0: 2eeb d83c e0b8 fcbc ff52 293d 608e d03c
000000e0: ccfa f43c 4e6d 8d3c a499 32bd 4755 15bc
000000f0: d560 bb3c 04c2 0abd 2b6c 46bd 0c69 dc3b
00000100: a3b1 013c 0c2c 9bbc f309 28bb 0b06 4fbd
00000110: f495 32bc 4f19 bebc 48f0 a8bc 8577 87ba
00000120: 7985 1dbc f3d1 563b f867 12bd 4428 da3c
00000130: 2d86 463b 802e 46bc 13e3 dabc a4fb 12bd
00000140: 90f7 92bc 2c4c d9bc 3887 d0bc 2356 5d3c
00000150: 9e58 92bc 03d1 113d 755a 223c 523c 4dbd
00000160: 668d de3c 965a fd3c ab83 353b 979f 693d
00000170: f54e 123d 12b7 86bc 386a 49bc bc9d 793c
00000180: 7932 9b3c 48b9 9cbc 2571 4a3d 8956 8a3c
00000190: f4fa 8b3b 95a7 a73c 29e6 1cbc 5519 fbbb
000001a0: e5b3 0cbc a1c4 0b3d 3b1b 35bc 717d 503c
000001b0: d4d9 94bc 04bd 53b9 e193 a53b d4a7 2a3c
000001c0: 2ad9 123c e317 6b3c 8415 fc3c e096 98bc
000001d0: c8f0 3a3c 4378 9d3c acaf d23c 4f96 3a3d
000001e0: 5a6e b7bc 4c20 8e3c f29a 2ebd a3e3 7fbc
000001f0: a372 30bd b780 5abd fdfa 60bc 7977 07bd
00000200: 7a99 6a39 3087 073d 2fde c9bc 2c2f 24bd
00000210: 193c b73c b4a8 fb3c 9d4c 46bd 1d2d 5439
00000220: a406 37bc 06f4 90bb 01e0 6fbb a34c 8d3b
00000230: f7d5 a63c 412c b03c f93d 373d 10c2 d8bc
00000240: 51d9 aaba 2dba e73c 93ac a0ba 0cba 933b
00000250: 1961 1ebd c1af ccbc b974 ff3b 09e9 b23c
00000260: f44e 3e3d ae26 ee3c f600 efba ed01 af3c
00000270: 7d7a db3b 7c77 2d3b ed16 e23c 7e74 f23b
00000280: d550 433d cbfb 083d 82b3 7e3c 8776 66bd
00000290: e346 56bc 59e5 913c 86d9 ab3b 2567 14bd
000002a0: 7fc8 5bbd 2410 403d 85c9 cebc e589 c3bc
000002b0: a929 0abd 7a9f 5abc d36b 5dbd c2a3 513d
000002c0: a4e3 bbbc 7f7f 1ebd a3ae 0cbd e42b 11bd
000002d0: 02b6 afbc 9e8e 593c b1c1 533d 3404 adbc
000002e0: ce1e ff3c 482c 12bc fb8a ce3c abe2 ecbb
000002f0: 7b03 063d 9f37 d23c 248b ed3c 9940 0b3c
00000300: 0917 74bc 269d 89bc eeed c8bc b6bc 1e3c
00000310: 7efc b73c 8853 563d 4450 c539 9c5b 043d
00000320: 28c4 09bc 3261 8d3c c7dc f63c 5b65 96bb
00000330: aafc 1d3b 7335 2a3d 8320 a2bb 7e85 f33c
00000340: df2d 5abc 564f a2bc 1deb e1bb 0cef 33bb
00000350: 6e44 503c f19b 4cbd 3141 fabc 3df7 0c3d
00000360: e08a 74bc aabb 2bbd e695 2a3d e9a9 903c
00000370: 23f4 86bc 6d00 52bd 87f6 35bd 9c1a 1f3b
00000380: a926 5fbc a04e 683b 6043 31bd 135f 81bb
00000390: e2a9 3d3d 5f00 a23b 946c 4a3d 7774 52bc
000003a0: 1168 5e3c e70f 31bc 0cac 143c d50b 143d
000003b0: 58ea fc3c 350b 1f3d f47f 2dbd 8626 5f3a
000003c0: df39 e43c 519e 823c 19ab 18bd 7a72 a33c
000003d0: b5b4 413d fc63 37bc 6590 093d fd6a 543d
000003e0: dc2b 59bb d5ee 0d3c 538b 84ba b003 e4ba
000003f0: b0e7 8bbb 5751 b6bc da9e cdbc 8e53 733d

network.3.bias f4 [128]
0.050456412 -0.05500777 -0.010620874 -0.031997155 0.035960827 -0.02334771 -0.03179666 0.0073297773
-0.025204554 0.053209864 0.016623901 -0.018188903 0.035168316 0.044398464 0.037953902 0.009524445
-0.03964372 -0.024301011 0.0023382173 0.050278332 0.044392876 0.05993803 -0.0038481124 -0.03954319
-0.049205724 -0.0130870985 -0.01384439 0.026821006 0.02708654 -0.00050167483 -0.058281608 0.005999479
-0.012276587 0.0024299566 4.7774935e-05 -0.025077812 -0.020585032 0.0021869512 -0.019869879 0.03601517
0.014388765 0.005204436 0.062412415 -0.0106021175 0.007406328 -0.03229839 -0.03733399 -0.002682833
-0.018795488 0.045860738 0.012685233 -0.062146585 -0.010069505 -0.033726342 -0.0042777075 -0.039826795
-0.008644209 -0.013534404 -0.04676995 0.014619028 0.051877614 -0.02045284 -0.048235517 -0.024799198
-0.017878236 0.028753921 0.034947593 0.050396375 -0.001672351 -0.03382434 -0.015912978 -0.0023720537
0.027393451 -0.04437371 -0.044223953 0.00904813 -0.054293048 -0.047945883 -0.03736113 0.055618856
0.0315838 -0.04013359 -0.053634647 -0.028274417 -0.030627426 0.015105125 -0.04098435 -0.03564543
0.027285356 0.043728836 -0.020132408 -7.222626e-05 -0.01495809 0.035824534 0.049595714 -0.04215477
-0.02308457 -0.053140994 -0.0393657 0.052307025 0.0042321756 -0.017536335 -0.045222163 -0.031073708
0.0017947969 0.015843214 0.0059717004 0.020481005 -0.05253833 -0.033389743 -0.043544523 -0.054943837
-0.019205479 0.045828626 0.046515808 -0.021450182 0.02219488 0.034749545 0.018148467 -0.014097077
0.00089401903 -0.008687703 0.059475254 0.029003523 0.03404201 0.023166632 -0.00092485157 0.015207995
00000000: 62ab 4e3d d44f 61bd 2d03 2ebc 730f 03bd
00000010: a94b 133d b243 bfbc 373d 02bd a12e f03b
00000020: c879 cebc 96f2 593d d92e 883c e500 95bc
00000030: a70c 103d 2adb 353d 8d75 1b3d 6b0c 1c3c
00000040: 7461 22bd ea12 c7bc c73c 193b a7f0 4d3d
00000050: 4ed5 353d 9481 753d 9d30 7cbb 0af8 21bd
00000060: f18b 49bd 456b 56bc 95d3 62bc bab7 db3c
00000070: 97e4 dd3c d482 03ba b2b8 6ebd 4797 c43b
00000080: bd23 49bc e83f 1f3b f261 4838 fc6f cdbc
00000090: f1a1 a8bc f452 0f3b 28c6 a2bc a584 133d
000000a0: dbbe 6b3c f989 aa3b 29a4 7f3d 81b4 2dbc
000000b0: c8b0 f23b 514b 04bd 87eb 18bd 78d2 2fbb
000000c0: fff8 99bc 78d8 3b3d b9d5 4f3c 6b8d 7ebd
000000d0: 91fa 24bc a224 0abd 032c 8cbb 6c21 23bd
000000e0: 71a0 0dbc 68bf 5dbc d991 3fbd a684 6f3c
000000f0: 9f7d 543d b78c a7bc 9b92 45bd b027 cbbc
00000100: 6175 92bc 588d eb3c 3525 0f3d 6e6c 4e3d
00000110: ca32 dbba 648b 0abd ef5b 82bc 7574 1bbb
00000120: 3b68 e03c 35c1 35bd 2d24 35bd 9c3e 143c
00000130: 6362 5ebd e762 44bd fc07 19bd 99d0 633d
00000140: 045e 013d 1f63 24bd 01b0 5bbd c09f e7bc
00000150: 5ee6 fabc 7c7b 773c 35df 27bd f100 12bd
00000160: 8a85 df3c 021d 333d b8ec a4bc 2e78 97b8
00000170: c712 75bc bfbc 123d e024 4b3d 7baa 2cbd
00000180: da1b bdbc 5faa 59bd ee3d 21bd e43f 563d
00000190: 10ae 8a3b 5ca8 8fbc e03a 39bd 4a8e febc
000001a0: 643f eb3a a1c9 813c 41ae c33b c8c7 a73c
000001b0: 6f32 57bd afc3 08bd be5b 32bd ca0c 61bd
000001c0: cf54 9dbc ccb6 3b3d 5c87 3e3d 4bb8 afbc
000001d0: 09d2 b53c 8a55 0e3d 18ac 943c 6df7 66bc
000001e0: 9a5c 6a3a de56 0ebc 539c 733d cc98 ed3c
000001f0: a26f 0b3d f3c7 bd3c bd71 72ba f42a 793c

network.6.weight f4 [1, 128]
0.027286131 0.06535373 -0.07396232 0.07701562 0.04224678 0.0642195 -0.07045411 -0.072196685
-0.067253046 0.020386443 0.070924625 0.009020644 -0.023103666 -0.034189254 -0.010640341 0.027262177
-0.073969446 0.0547045 -0.056438796 0.04121573 0.010710757 -0.04816771 -0.07655175 -0.082730755
-0.012357185 0.048327997 0.06818961 0.025830483 0.06923716 0.07874929 -0.07688509 0.05454945
-0.049521632 -0.071565054 0.065641806 0.05085213 0.045073282 0.06433488 -0.044820867 -0.014003019
0.03546522 -0.027356645 0.044760384 -0.05620452 -0.027065258 0.012989921 0.069962084 -0.07383042
-0.05975158 0.046769578 0.06044849 0.04781672 0.011377343 0.014068634 0.07385638 -0.07285299
-0.04822427 0.07701564 0.035275906 0.046122484 -0.06093097 -0.032788854 -0.04641554 0.040648267
-0.031088514 -0.013449932 0.016011914 0.07372293 -0.087015875 0.014949562 0.0003435753 0.055037387
0.02789498 0.06773997 -0.0647158 0.0821481 -0.030573525 0.015912976 -0.00028855784 -0.054098487
0.018717216 -0.07645448 -0.05250071 -0.06876328 -0.025253866 0.07436139 -0.082379766 0.01118966
-0.033399213 -0.029210854 0.055468444 -0.07932199 -0.07893415 0.06398809 0.028797276 0.041259088
-0.06583964 0.0688027 -0.04135772 0.05583793 -0.029711397 -0.020609813 0.048609905 -0.0130951
0.049175248 0.037641868 0.022691108 -0.03908689 0.06611138 0.031452794 -0.0329717 -0.026041742
0.0771208 -0.068751946 0.06491334 -0.045404527 -0.031715713 0.030875921 0.009738962 0.011630475
0.05812288 -0.0670296 -0.016021693 -0.03412095 0.07511485 0.0067113917 0.072766736 0.033391863
00000000: 2a87 df3c 2dd8 853d 8f79 97bd 5eba 9d3d
00000010: f60a 2d3d 8385 833d 3f4a 90bd dbdb 93bd
00000020: f7bb 89bd 7801 a73c ee40 913d 53cb 133c
00000030: e643 bdbc 080a 0cbd d354 2ebc ee54 df3c
00000040: 4b7d 97bd d311 603d 5e2c 67bd d3d1 283d
00000050: 2c7c 2f3c 814b 45bd 2ac7 9cbd be6e a9bd
00000060: ca75 4abc 94f3 453d ffa6 8b3d 739a d33c
00000070: 36cc 8d3d 4f47 a13d ee75 9dbd 3e6f 5f3d
00000080: 32d7 4abd b390 92bd 366f 863d 534a 503d
00000090: c39e 383d 01c2 833d 1696 37bd eb6c 65bc
000000a0: fb43 113d 0b1b e0bc aa56 373d b636 66bd
000000b0: f6b7 ddbc add3 543c 4848 8f3d 6734 97bd
000000c0: 13be 74bd 7591 3f3d d698 773d 77db 433d
000000d0: 0968 3a3c 2180 663c 0442 973d f333 95bd
000000e0: d086 45bd 60ba 9d3d 787d 103d eeea 3c3d
000000f0: c192 79bd 9b4d 06bd 391e 3ebd cc7e 263d
00000100: 57ad febc 1b5d 5cbc 6b2b 833c 0cfc 963d
00000110: 6135 b2bd 02ef 743c e521 b439 e26e 613d
00000120: 0384 e43c 41bb 8a3d b889 84bd 433d a83d
00000130: 5475 fabc ee5b 823c 9449 97b9 6096 5dbd
00000140: d954 993c 2b94 9cbd fc0a 57bd c3d3 8cbd
00000150: 32e1 cebc c94a 983d b9b6 a8bd d654 373c
00000160: 9dcd 08bd 9a4b efbc e132 633d 9173 a2bd
00000170: 3aa8 a1bd 300c 833d 44e8 eb3c 4aff 283d
00000180: efd6 86bd 6ee8 8c3d b666 29bd 50b6 643d
00000190: 5165 f3bc e9d5 a8bc 2e1b 473d d58c 56bc
000001a0: fc6b 493d 5c2e 1a3d b4e2 b93c 9319 20bd
000001b0: 6765 873d a5d4 003d 550d 07bd 7e55 d5bc
000001c0: 83f1 9d3d d2cd 8cbd 49f1 843d 19fa 39bd
000001d0: 56e8 01bd 80ef fc3c 2b90 1f3c bf8d 3e3c
000001e0: 4212 6e3d d146 89bd ed3f 83bc 69c2 0bbd
000001f0: d1d5 993d 3ceb db3b ba06 953d e8c5 083d

exp_avg f4 [256, 45]
-2.0543788e-05 -5.348112e-05 2.3123539e-05 0.00015628093 -9.742842e-05 -6.5976485e-05 5.2716747e-05 -0.00032589416
-4.6870195e-05 -0.0003491558 -0.00030381625 0.00044141352 -0.00011168959 -3.4962817e-05 9.2106064e-05 0.00017813515
9.876057e-05 -0.0004695467 1.9239685e-06 -4.6921878e-07 0.00012788767 8.168041e-05 -0.00015395286 -0.00027460232
-9.7734715e-05 7.4357915e-05 6.663603e-06 6.620555e-05 3.2870827e-05 -1.3555622e-05 -7.992384e-05 -4.471998e-05
-0.0002998572 -4.4179218e-05 -8.2892126e-05 -0.00024018186 -0.0003434315 0.00012238229 0.00061230356 -0.00010181389
0.00033994744 -0.00055460696 5.361119e-05 -0.00040792872 -0.00069190527 0.00014774154 -3.1404174e-06 0.00013078527
0.00052520493 -6.1775696e-05 -3.149581e-06 -0.00033236365 -0.000115456714 0.0013044043 -0.00036489122 1.0340351e-05
-0.00022576816 -0.00011764343 5.4839093e-06 -5.8110676e-05 2.4525061e-06 0.00082630396 -9.3548326e-05 2.6827365e-06
-8.186699e-05 -0.0003195553 0.0001921113 4.0936393e-05 4.53647e-05 2.801821e-05 0.00015064125 7.643377e-06
6.8742054e-05 6.0683593e-05 -2.409516e-05 9.83317e-05 -3.58642e-05 0.0008113038 -0.0003695244 -0.00046535584
0.00071814616 1.1287773e-05 0.00031754468 0.0008587395 -9.330823e-05 -2.2005595e-05 -2.6293267e-06 -4.613356e-06
0.00043683161 -0.00019609283 -0.00044189522 0.00031339584 0.00022038702 1.2436285e-05 -0.0002280557 4.2461415e-06
-0.0002854613 2.7914586e-05 -0.00035863803 -0.00056244957 0.00013198092 -0.0002229197 -0.0001577787 6.577569e-05
-0.00016969162 -1.9759289e-05 -4.6373752e-06 -0.00022824478 -2.0762609e-05 5.0608633e-05 -0.00023015935 -3.8792194e-05
-0.00025212826 -0.0002222548 -1.2944548e-05 -7.882523e-05 -2.697764e-06 -8.0622005e-05 -0.00020352262 -2.0549423e-05
-0.00014562467 -0.00012560282 -0.00063351874 -0.00027078862 3.2999567e-05 0.00018290908 0.00014365885 -0.00044540074
-0.0004192901 0.0002517893 -0.00040976927 0.00018089903 -0.000765276 -2.6013353e-05 0.00019851197 -3.7654307e-05
-0.00019837674 -0.00021340183 -4.034912e-05 3.128571e-05 -3.5642995e-05 -0.00040346748 -0.00024758602 -0.00013903146
-0.00021651639 -0.00031589204 -7.7048775e-05 -0.0001145402 -0.00012406254 -0.0003823199 -0.00011786897 -0.00020438014
-0.0011288889 -1.0356619e-07 -6.610153e-06 -4.1785846e-05 -0.00041691842 -0.00029443917 -0.00011024662 1.3229997e-05
-0.00013355381 -3.886791e-06 -0.00020640448 -0.00017689847 -1.7163491e-05 -0.0004070587 -0.00013856834 -0.0009525955
-0.00016211062 -0.00025402723 -0.00031900933 0.00013477326 -0.00017616109 -0.00020029745 -0.0005503222 -3.824834e-05
-0.0006106656 -0.00025274084 -1.820552e-05 -0.0006116408 -2.9651577e-05 0.0002448498 0.00034172405 -0.00016889196
0.0001850063 0.0002451679 0.00012985415 -0.00027826347 -8.981569e-05 0.00015506658 9.425138e-05 4.009084e-05
-1.4010366e-05 -2.4274696e-05 0.00031823292 -1.4292888e-05 -0.00026199548 0.0009716943 1.9112775e-05 -3.4013432e-05
-9.874726e-05 0.00028686348 7.285877e-05 0.0002031768 -2.79108e-05 -5.2529565e-05 3.7370046e-06 9.673932e-05
4.3999593e-05 3.4574643e-06 -0.0002178169 0.0004233772 0.00062506204 0.00011167504 0.0005167383 -3.604942e-05
-3.1172826e-06 -0.00011248429 0.00067386596 0.0005787784 0.0004127125 -0.00059933297 0.00028259848 -0.0003099612
0.00028488028 -0.00011493711 -0.00013753961 -0.0003954908 -0.00046008028 0.00030523955 -0.00077552034 -0.0005202391
-0.00014116688 -0.00026945712 -0.00015153064 7.083628e-05 5.581216e-05 -0.00031173526 -4.4217857e-05 -8.823605e-05
-0.00034306364 -0.0013747638 -0.0003673213 -1.471908e-05 -0.00013448557 -0.0004091116 -0.0006632675 -0.00011063105
1.2982614e-05 -7.625345e-05 -3.0041367e-05 -3.9671245e-06 -3.9215593e-06 -0.00013337494 -3.7090704e-06 -8.4484145e-06
00000000: 7355 acb7 ea50 60b8 6cf9 c137 58df 2339
00000010: 7c52 ccb8 db5c 8ab8 2d1c 5d38 c6dc aab9
00000020: 7d96 44b8 e60e b7b9 8749 9fb9 856d e739
00000030: e43a eab8 0aa5 12b8 1129 c138 cac9 3a39
00000040: ad1d cf38 7e2d f6b9 871d 0136 f0e8 fbb4
00000050: 9619 0639 d64b ab38 686e 21b9 80f8 8fb9
00000060: edf6 ccb8 9af0 9b38 ea97 df36 d6d7 8a38
00000070: c8de 0938 f46c 63b7 c99c a7b8 b791 3bb8
00000080: 2736 9db9 134d 39b8 5fd6 adb8 54d9 7bb9
00000090: 980e b4b9 bf53 0039 ff82 203a ea84 d5b8
000000a0: f93a b239 0b63 11ba 94dc 6038 44df d5b9
000000b0: fa60 35ba 11eb 1a39 f6bf 52b6 6723 0939
000000c0: e8ad 093a 938d 81b8 645d 53b6 1841 aeb9
000000d0: 5a21 f2b8 8cf8 aa3a df4e bfb9 787b 2d37
000000e0: 2ebc 6cb9 56b7 f6b8 6c02 b836 ddbb 73b8
000000f0: bc95 2436 529c 583a 602f c4b8 1009 3436
00000100: 01b0 abb8 fd89 a7b9 7c71 4939 1eb3 2b38
00000110: fa45 3e38 a608 eb37 74f5 1d39 0e3c 0037
00000120: 9c29 9038 8386 7e38 f61f cab7 6e37 ce38
00000130: e46c 16b8 adad 543a babc c1b9 01fb f3b9
00000140: f941 3c3a 9e60 3d37 207c a639 081d 613a
00000150: 79ae c3b8 a898 b8b7 7d73 30b6 6dcc 9ab6
00000160: 8c06 e539 459e 4db9 2cae e7b9 474f a439
00000170: b117 6739 70a5 5037 3c22 6fb9 147a 8e36
00000180: f8a9 95b9 1e2a ea37 9507 bcb9 5a71 13ba
00000190: 5c64 0a39 8dbf 69b9 6671 25b9 0ef1 8938
000001a0: 3fef 31b9 c0c0 a5b7 c09a 9bb6 fe54 6fb9
000001b0: 5d2b aeb7 9b44 5438 ee56 71b9 cdb4 22b8
000001c0: 1530 84b9 120d 69b9 692c 59b7 f94e a5b8
000001d0: 3c0b 35b6 9c13 a9b8 b068 55b9 8d61 acb7
000001e0: d3b2 18b9 40b4 03b9 b912 26ba a2f8 8db9
000001f0: 0469 0a38 48cb 3f39 21a3 1639 ad84 e9b9
00000200: 2ad4 dbb9 9602 8439 4dd6 d6b9 b7af 3d39
00000210: ce9c 48ba 4037 dab7 a727 5039 01ef 1db8
00000220: 5a03 50b9 9ec4 5fb9 8a3c 29b8 c638 0338
00000230: 607f 15b8 7d88 d3b9 6fce 81b9 f9c8 11b9
00000240: ad08 63b9 509e a5b9 3f95 a1b8 4d35 f0b8
00000250: c916 02b9 1c72 c8b9 6c30 f7b8 e04e 56b9
00000260: 3af7 93ba 1d68 deb3 c8cc ddb6 3643 2fb8
00000270: d895 dab9 f55e 9ab9 3434 e7b8 68f6 5d37
00000280: 940a 0cb9 486b 82b6 486e 58b9 d27d 39b9
00000290: 51fa 8fb7 7e6a d5b9 a84c 11b9 9ab7 79ba
000002a0: 3dfc 29b9 f52e 85b9 b540 a7b9 ec51 0d39
000002b0: e2b7 38b9 f006 52b9 7f43 10ba d86c 20b8
000002c0: 1315 20ba 4d82 84b9 0eb8 98b7 8556 20ba
000002d0: 47bc f8b7 2f5f 8039 6d29 b339 9718 31b9
000002e0: 40fe 4139 e189 8039 7529 0839 e4e3 91b9
000002f0: 6e5b bcb8 5e99 2239 d3a8 c538 3627 2838
00000300: 100e 6bb7 83a1 cbb7 80d8 a639 7dcb 6fb7
00000310: 705c 89b9 4db9 7e3a 5f54 a037 a5a9 0eb8
00000320: 8816 cfb8 2a66 9639 c1cb 9838 db0b 5539
00000330: fd21 eab7 3153 5cb8 40c9 7a36 87e0 ca38
00000340: 348c 3838 c906 6836 c765 64b9 baf8 dd39
00000350: 34db 233a 1533 ea38 b875 073a c533 17b8
00000360: 8232 51b6 8be5 ebb8 61a6 303a 29b9 173a
00000370: 5661 d839 8e1c 1dba ba29 9439 4a82 a2b9
00000380: fc5b 9539 640a f1b8 8238 10b9 e059 cfb9
00000390: ee36 f1b9 8f08 a039 4a4c 4bba a860 08ba
000003a0: 3206 14b9 ec45 8db9 32e4 1eb9 f08d 9438
000003b0: da17 6a38 6670 a3b9 9076 39b8 5e0b b9b8
000003c0: 39dd b3b9 6b31 b4ba 0895 c0b9 f8f1 76b7
000003d0: b204 0db9 087e d6b9 21df 2dba 9802 e8b8
000003e0: e7cf 5937 42ea 9fb8 5801 fcb7 571d 85b6
000003f0: f095 83b6 90da 0bb9 58e9 78b6 aabd 0db7

exp_avg_sq f4 [256, 45]
4.162316e-07 9.261576e-07 6.5757115e-07 5.260865e-07 1.2378881e-06 2.599636e-07 6.228525e-07 2.7875149e-06
1.8708599e-07 2.5831635e-06 1.6168372e-06 6.5883946e-06 1.7251353e-06 3.4338498e-07 1.1702726e-06 1.125732e-06
1.0632912e-05 1.2759326e-05 1.5016331e-10 5.4379194e-07 7.300066e-07 1.1039426e-06 4.5380798e-07 3.860704e-07
7.998256e-08 1.3717651e-07 6.330089e-10 1.4255382e-07 1.2061334e-07 1.304868e-09 8.0757735e-07 1.3485685e-06
2.5717202e-06 3.3657407e-06 2.293563e-06 3.539986e-06 1.5184589e-06 2.1185062e-06 1.0212542e-05 3.687268e-06
1.3936423e-06 1.0045278e-06 5.197954e-07 2.7127226e-06 3.2418655e-05 2.5395445e-07 2.1546798e-07 3.9488606e-07
1.3503851e-06 1.00562076e-07 4.789149e-09 7.069607e-07 2.3843513e-06 2.803559e-06 2.850371e-07 2.2048643e-07
1.1512184e-06 3.831262e-07 3.0792668e-07 1.1052109e-06 2.112506e-07 5.2550186e-06 5.643352e-06 2.3447436e-10
1.159539e-07 1.9468918e-07 9.297412e-07 3.4422226e-07 3.6129077e-08 5.6110594e-08 9.2300574e-08 5.7798244e-10
1.4093087e-07 9.2742454e-08 2.142465e-09 2.2535603e-07 7.04133e-07 3.6739739e-06 1.0560428e-06 6.618395e-07
3.0560946e-06 2.5311297e-07 1.1536592e-06 1.3808708e-06 7.739595e-07 1.7468815e-09 5.911871e-08 6.28568e-08
2.2695396e-05 2.6062128e-06 1.014729e-06 9.255294e-07 7.650991e-07 7.0815594e-07 8.98958e-07 6.356435e-07
1.1503843e-06 1.7020224e-06 9.926623e-07 2.645878e-06 1.1402876e-06 2.3489542e-06 3.876699e-07 8.7753904e-08
9.368257e-07 4.4407514e-07 5.6849726e-06 9.925907e-06 1.4803313e-09 2.8479974e-07 6.803972e-07 1.1550758e-06
6.513985e-07 2.420457e-07 8.589396e-08 1.4170105e-07 1.5733789e-10 1.5886536e-07 1.3121307e-07 1.4631557e-09
1.0717245e-06 1.1167687e-06 3.680159e-06 2.1353742e-06 1.1688422e-06 2.1051133e-06 8.4705124e-07 2.617014e-06
5.2792493e-06 6.5628697e-06 4.2203383e-06 4.7039484e-06 4.298325e-06 4.8344705e-06 7.3761803e-06 1.1863528e-06
1.1162246e-06 4.6630097e-07 3.9128344e-07 5.872897e-07 7.4885315e-07 8.404935e-07 4.9950216e-07 8.809227e-07
3.166494e-06 3.352613e-07 1.3243398e-06 1.4461973e-07 8.110795e-08 7.057408e-07 1.993309e-07 4.6798996e-06
4.667591e-06 4.5828283e-10 1.5923912e-07 6.98547e-07 1.2829875e-06 8.703342e-07 2.4159124e-07 8.3900396e-08
1.01134034e-07 8.655172e-11 1.549305e-07 8.4382926e-08 1.1154415e-09 2.9138812e-07 5.553608e-07 2.7051635e-06
2.2827692e-06 1.0192673e-06 1.272802e-06 3.6280483e-07 2.1499507e-06 4.7768194e-06 3.1243767e-06 5.9663566e-06
2.2421452e-06 4.327423e-06 3.779858e-06 3.6917352e-06 5.6354713e-07 9.4612835e-07 1.0899397e-06 4.8253645e-07
6.912455e-07 5.865328e-07 1.097661e-06 7.289445e-07 9.585553e-07 2.6249647e-06 8.231852e-07 1.7993954e-06
3.2564304e-07 5.4919525e-08 8.8425827e-07 3.3389108e-07 3.3647373e-06 9.1594065e-06 1.2840284e-09 3.092032e-07
4.7940966e-07 1.2726468e-06 7.385173e-07 1.8759576e-07 4.629031e-08 1.178054e-07 1.8358416e-10 1.3252435e-07
8.974923e-08 9.880882e-11 7.258482e-07 9.1787894e-07 3.2621067e-06 1.6463506e-06 9.729614e-07 1.2560114e-06
6.4539125e-07 2.6302234e-06 4.2675574e-06 6.333388e-06 5.2561977e-06 3.6753183e-06 3.4880543e-06 4.494851e-06
3.5379537e-06 1.1678507e-06 2.4899434e-06 1.3480691e-06 6.597149e-07 2.191199e-06 2.3717319e-06 2.003908e-06
2.2134734e-06 7.319333e-07 3.731185e-06 1.5221449e-06 4.0442696e-06 8.035279e-07 1.232584e-07 2.0978387e-06
8.213855e-07 6.278523e-06 1.932164e-05 1.0438809e-09 2.1796747e-07 1.2956392e-06 2.7333126e-06 1.2382669e-06
4.773494e-07 8.623926e-08 2.8220143e-07 2.2718814e-10 2.4072023e-07 1.9900274e-07 2.7776476e-10 1.1274911e-06
00000000: 6f76 df34 119d 7835 f283 3035 6438 0d35
00000010: 8325 a635 2091 8b34 1932 2735 2411 3b36
00000020: cee1 4834 695a 2d36 1a02 d935 e111 dd36
00000030: 338b e735 795a b834 4312 9d35 db17 9735
00000040: 0264 3237 e310 5637 371b 252f 19f9 1135
00000050: acf5 4335 2e2b 9435 e5a2 f334 1d45 cf34
00000060: e1c2 ab33 cb4a 1334 0b00 2e30 e510 1934
00000070: f181 0134 f656 b330 4bc8 5835 7600 b535
00000080: d195 2c36 fcde 6136 1deb 1936 7f90 6d36
00000090: dacd cb35 a92b 0e36 8956 2b37 c872 7736
000000a0: 2f0d bb35 50d3 8635 1188 0b35 380c 3636
000000b0: 44f9 0738 3c57 8834 635b 6734 ba00 d434
000000c0: e13e b535 96f4 d733 cd8d a431 f8c5 3d35
000000d0: d802 2036 c724 3c36 3307 9934 d9be 6c34
000000e0: 9083 9a35 77b0 cd34 1f51 a534 c256 9435
000000f0: 1fd4 6234 4454 b036 065c bd36 55e7 802f
00000100: 5502 f933 c10b 5134 5493 7935 8ccd b834
00000110: 572c 1b33 40fe 7033 c736 c633 e6df 1e30
00000120: c852 1734 b429 c733 a53a 1331 65f9 7134
00000130: a703 3d35 648e 7636 5bbd 8d35 44a9 3135
00000140: 4e17 4d36 95e3 8734 6ed7 9a35 5c56 b935
00000150: 18c2 4f35 ee16 f030 b6e9 7d33 e4fb 8633
00000160: fe61 be37 65e6 2e36 d331 8835 e571 7835
00000170: 3661 4d35 1b18 3e35 ec4f 7135 17a1 2a35
00000180: e766 9a35 0b71 e435 9e3b 8535 d78f 3136
00000190: fc0b 9935 baa2 1d36 f220 d034 3873 bc33
000001a0: 2c7a 7b35 3969 ee34 8bc1 be36 7287 2637
000001b0: 8774 cb30 94e6 9834 8aa4 3635 1a08 9b35
000001c0: c4db 2e35 82f2 8134 b474 b833 7d26 1834
000001d0: aefe 2c2f 9494 2a34 93e3 0c34 3718 c930
000001e0: 2cd8 8f35 e1e3 9535 a6f8 7636 734d 0f36
000001f0: 1de1 9c35 9245 0d36 eb60 6335 f59f 2f36
00000200: 6824 b136 9f36 dc36 6e9c 8d36 9cd6 9d36
00000210: 553a 9036 c937 a236 e880 f736 c63a 9f35
00000220: 2fd1 9535 eb57 fa34 9611 d234 3ea6 1d35
00000230: cc04 4935 469e 6135 8715 0635 8c78 6c35
00000240: f47f 5436 f6fd b334 f8bf b135 c548 1b34
00000250: 912d ae33 2372 3d35 a907 5634 0808 9d36
00000260: 4d9e 9c36 93f1 fb2f 51fb 2a34 c983 3b35
00000270: 1d33 ac35 e9a0 6935 0cb4 8134 bb2c b433
00000280: 062f d933 4954 be2e f95a 2634 0136 b533
00000290: 1c4e 9930 1470 9c34 1b14 1535 5b8a 3536
000002a0: ad31 1936 c2cd 8835 25d5 aa35 84c7 c234
000002b0: df47 1036 9148 a036 62ac 5136 9d32 c836
000002c0: c377 1636 4834 9136 77a9 7d36 87bf 7736
000002d0: aa46 1735 72f9 7d35 0b4a 9235 a787 0135
000002e0: 078e 3935 3a72 1d35 5853 9335 afac 4335
000002f0: b6a7 8035 8d28 3036 dbf8 5c35 c182 f135
00000300: 0ad4 ae34 a8e0 6b33 c45d 6d35 a441 b334
00000310: bfcd 6136 5aab 1937 bc79 b030 9000 a634
00000320: c8b0 0035 d0cf aa35 863e 4635 ee6d 4934
00000330: bcd0 4633 34fc fc33 59da 492f 044c 0e34
00000340: 29bc c033 6c48 d92e e9d7 4235 2964 7635
00000350: 91ea 5a36 2df8 dc35 b396 8235 3994 a835
00000360: f33e 2d35 e582 3036 0a32 8f36 6383 d436
00000370: 655e b036 7da5 7636 5114 6a36 7ad2 9636
00000380: 956d 6d36 0bbf 9c35 e718 2736 4def b435
00000390: 4317 3135 830c 1336 0b2a 1f36 e17a 0636
000003a0: 2f8b 1436 137a 4435 4565 7a36 804c cc35
000003b0: 03b4 8736 04b2 5735 0359 0434 98c8 0c36
000003c0: 2f7d 5c35 1aac d236 e814 a237 4b78 8f30
000003d0: 710a 6a34 d3e5 ad35 f46d 3736 8732 a635
000003e0: 3323 0035 8932 b933 7881 9734 c7cb 792f
000003f0: 563c 8134 75ad 5534 eab3 982f 4d54 9735

exp_avg f4 [256]
-0.00045421984 0.0008275076 -0.0012351656 -0.00223658 0.0013699526 -0.003242748 0.000906607 -0.0010662825
-0.00073203223 -0.00052938494 0.0021229568 0.00042564707 -0.0002452557 -0.00019275339 0.001190556 -2.6238708e-05
-0.0022681307 0.0001332059 -0.0006280128 -0.00034172478 0.003182902 0.00015280659 0.00026614306 -0.00027715822
0.0005160693 -0.0019461779 0.0011831477 0.0004468297 0.0014067382 0.0028180059 0.00025430857 0.0067869565
0.00198898 -0.00034385186 -0.0012086849 -0.0037330363 0.00011891624 -0.0025981583 0.0004956855 -0.0011609921
-0.0011440805 -0.0013531296 1.6647788e-05 -0.0030556722 0.0022426504 -0.00049578445 0.00035276476 -0.0010556888
0.0001406768 -0.0004511996 -0.00049236626 0.0031775357 -0.0012122211 8.474983e-05 0.00028644144 -0.0002494158
0.00087231485 -0.00027742522 -0.002171454 -0.00020013913 0.000590476 0.0022152145 0.0012974037 -0.0013896354
0.0013569845 -0.002200596 -0.0007505747 -0.00256733 0.0041227266 -0.0064129634 0.0018985681 -0.002553566
-0.0030601476 -0.00057847623 -0.0008858255 -0.0018165524 -0.002688704 -0.0013881414 -0.0001171332 0.0014455157
-0.001790362 -0.0004618795 -0.00027828393 0.00096686935 -0.0020926644 -0.0013795143 -0.00034428117 0.0015107098
-0.003959994 0.00044181533 -0.00039912405 -0.00039649132 0.00389274 3.246231e-05 0.0013264586 2.4273595e-06
0.00095044414 0.00059432234 -0.00053062825 -0.00024434924 1.4864956e-05 -0.0007711407 -6.5180124e-05 0.0036981395
0.003776683 -3.5256504e-05 0.0013395256 2.0593621e-05 -0.00031238628 -8.5033345e-05 -0.0012538978 1.9703672e-05
0.0024126887 0.0006659816 0.0010552922 0.0034930098 -0.002004127 -0.00012808134 0.0009527686 0.0017147132
-0.0003729951 0.0012027132 -3.7483787e-05 0.00010162855 -0.0026790043 -0.0021802564 -0.0031556103 -0.0009548148
-1.0978607e-05 -0.0012107316 -0.00015851157 0.00013061453 0.00044178465 -1.638901e-05 -0.00073904934 -4.999827e-05
-0.0016005483 0.0026115868 -0.0003336361 0.0046496717 -0.0026889169 5.3951324e-05 -0.0007143563 0.00016469503
0.00040471178 7.813843e-05 -0.0002364092 0.0020942672 -0.00033897016 -0.0011557888 8.3519095e-05 -9.8045406e-05
-0.0021887792 -0.0002519014 -0.00062337937 -0.0030283832 0.00012326929 -4.1556807e-05 0.00013043065 -0.000161778
-0.0013685464 0.0010459195 3.938972e-05 0.0010107097 0.0018543531 0.0006725215 -7.942805e-05 -0.0003703058
-0.002616114 -0.0016722598 -0.0018515303 -0.00037875707 0.0009985396 -0.001399186 -0.0010631072 -0.0009883485
-0.00034483956 0.0016546482 0.0034922247 -0.00029220225 0.0013518139 -0.00022253688 0.00086746155 0.002117891
0.002173453 -0.00046987258 -0.00027543967 0.00023546856 -0.0013409705 0.0013262269 0.00021028449 -0.0019145356
-0.003232086 0.0011030006 -0.004332395 -0.0019595376 0.00071741716 -0.001661235 0.0011675953 0.0012250822
0.0009063288 0.0007210215 0.00033055112 0.0008795883 -0.0051548653 -0.0014091772 -0.0002717362 0.0029662994
-0.0002605328 -0.0018492568 0.0018591272 -0.00021234885 0.0040042135 -0.0017446645 -0.0010180994 -0.0010607425
-0.0010649754 0.0023117387 0.0013433095 -0.0026320154 0.0008869632 0.002068697 -0.00018553123 -0.0030446528
0.00030704885 -0.00041166256 -0.0019149857 -0.0048765484 0.0005322299 -2.1912485e-05 -7.389847e-05 -0.0003550805
-0.0004707213 0.00019053167 -0.00048637402 -0.0007197329 0.0001703693 -0.0006721797 -0.00032728596 -0.003169436
0.00089796574 -0.00045940778 -0.0004493258 0.0019484719 -0.0002760224 -0.0034436216 -0.0018988104 -0.0033511296
-0.00066354894 -0.0022135966 -6.196584e-05 0.0020467828 -0.0028161695 -0.0012273367 0.0035747853 -0.0021189102
00000000: 5b24 eeb9 18ed 583a 48e5 a1ba 9693 12bb
00000010: fb8f b33a 4984 54bb 5ea9 6d3a 81c2 8bba
00000020: dae5 3fba 6cc6 0aba 4e21 0b3b 6229 df39
00000030: aa95 80b9 d81d 4ab9 6e0c 9c3a 321b dcb7
00000040: eba4 14bb 30ad 0b39 3aa1 24ba 8629 b3b9
00000050: 3c98 503b b53a 2039 1e89 8b39 8c4f 91b9
00000060: d348 073a e516 ffba d913 9b3a 7844 ea39
00000070: 4d62 b83a 4bae 383b b854 8539 1e65 de3b
00000080: 8c59 023b 0447 b4b9 bc6c 9eba f5a5 74bb
00000090: ac62 f938 dd45 2abb e4f0 013a 6e2c 98ba
000000a0: f9f4 95ba 7f5b b1ba daa6 8b37 ac41 48bb
000000b0: 6ef9 123b 88f7 01ba 49f3 b839 0a5f 8aba
000000c0: a482 1339 fc8e ecb9 2412 01ba 343e 503b
000000d0: 64e3 9eba b8bb b138 852d 9639 06c4 82b9
000000e0: 0fac 643a 6273 91b9 f44e 0ebb 70dc 51b9
000000f0: 2cca 1a3a 222d 113b a50d aa3a 6d24 b6ba
00000100: d8dc b13a e037 10bb 37c2 44ba a640 28bb
00000110: f017 873b d623 d2bb 60d9 f83a ba59 27bb
00000120: c28c 48bb e2a4 17ba be36 68ba 6219 eeba
00000130: f834 30bb 4cf2 b5ba 68a5 f5b8 7577 bd3a
00000140: 94aa eaba 6b28 f2b9 a3e6 91b9 8175 7d3a
00000150: 1525 09bb d2d0 b4ba a380 b4b9 0203 c63a
00000160: d6c2 81bb 73a3 e739 8641 d1b9 2ae0 cfb9
00000170: 571d 7f3b 2428 0838 91dc ad3a b8e5 2236
00000180: 3a27 793a 4ccc 1b3a dc19 0bba 001c 80b9
00000190: 8064 7937 6026 4aba 50b1 88b8 7c5c 723b
000001a0: 3a82 773b 62e0 13b8 0593 af3a 77c0 ac37
000001b0: c7c7 a3b9 ee53 b2b8 d459 a4ba 5049 a537
000001c0: 331e 1e3b 4595 2e3a bb51 8a3a fbea 643b
000001d0: ac57 03bb 934d 06b9 38c3 793a 3ac0 e03a
000001e0: 8e8e c3b9 5ca4 9d3a e937 1db8 6a21 d538
000001f0: 3c92 2fbb a2e2 0ebb 5bce 4ebb 894c 7aba
00000200: c230 38b7 69b1 9eba 2036 26b9 92f5 0839
00000210: 559f e739 227b 89b7 c3bc 41ba 3cb5 51b8
00000220: 7dc9 d1ba 2827 2b3b e1eb aeb9 465c 983b
00000230: 8a38 30bb cb49 6238 a443 3bba fcb1 2c39
00000240: 7f2f d439 40de a338 9de4 77b9 f93f 093b
00000250: ceb7 b1b9 d67d 97ba f926 af38 ba9d cdb8
00000260: 9f71 0fbb a211 84b9 486a 23ba d777 46bb
00000270: d941 0139 484d 2eb8 36c4 0839 f4a2 29b9
00000280: cc60 b3ba 3c17 893a 6436 2538 ca79 843a
00000290: c40d f33a 274c 303a 9c92 a6b8 9a25 c2b9
000002a0: 1c73 2bbb ba2f dbba 0caf f2ba ea93 c6b9
000002b0: 6ee1 823a e464 b7ba f557 8bba 798b 81ba
000002c0: 95cb b4b9 c8e0 d83a cfdd 643b b932 99b9
000002d0: 592f b13a ca58 69b9 5c66 633a 51cc 0a3b
000002e0: 7e70 0e3b 3b59 f6b9 e368 90b9 1ce8 7639
000002f0: 81c3 afba cad4 ad3a d07f 5c39 28f1 faba
00000300: 68d1 53bb 8f92 903a c3f6 8dbb 966b 00bb
00000310: 0d11 3c3a ccbd d9ba ff09 993a f092 a03a
00000320: b296 6d3a ef02 3d3a d24d ad39 2c94 663a
00000330: 25ea a8bb 24b4 b8ba d177 8eb9 3f66 423b
00000340: 1f98 88b9 c362 f2ba f5ad f33a f6a9 5eb9
00000350: c735 833b 3aad e4ba bf71 85ba 9d08 8bba
00000360: a596 8bba 8a80 173b fd11 b03a e47d 2cbb
00000370: 1883 683a fa92 073b 298b 42b9 cc88 47bb
00000380: 66fb a039 6ad4 d7b9 4200 fbba 74cb 9fbb
00000390: 5885 0b3a b4d0 b7b7 f0f9 9ab8 192a bab9
000003a0: 25cb f6b9 75c9 4739 0400 ffb9 75ac 3cba
000003b0: 29a5 3239 3735 30ba 9497 abb9 50b6 4fbb
000003c0: 7665 6b3a abdc f0b9 7d93 ebb9 de63 ff3a
000003d0: 19b7 90b9 62ae 61bb 81e1 f8ba a09e 5bbb
000003e0: 04f2 2dba fd11 11bb a8f3 81b8 5123 063b
000003f0: 7c8f 38bb 96de a0ba f246 6a3b 6add 0abb
