models/regression_models/ML_including_industry_feature/single_dimension/purity/version_best/checkpoints/epoch=59-step=1860.ckpt (torch, 207603 bytes, 21 tensors)

network.0.weight f4 [128, 45]
00000000: 61ce b93d 0de0 bf3b b490 a73d 2abc 6d3c
00000010: 5c24 903d e7e0 46bd bbf6 df3d 2aad e63d
00000020: dba2 34bd ae2d b83d 7c14 a6bd 2b87 343d
00000030: 2d99 d63d dbff 463d 0227 45bc ef3e b13d
00000040: 1341 60bd a4a5 f33d dd70 2e3b 53d0 9ebc
00000050: 45d1 8dbd 5b64 513c e9d5 a2bc bb91 3b3d
00000060: ab6a 00bd 1974 8fbc 74ce e6ba a044 e63c
00000070: 7713 e2bc 6927 a8bb 0ba0 003e b646 1abd
00000080: 0d42 6c3d 4aed 973b 1ec2 efbc 0dad a93d
00000090: d032 bbbd 6e26 41bd c2f7 063e e749 773d
000000a0: fcad 033e 07be 373d a0b2 debb 56a2 ab3d
000000b0: de76 16bd 0dce 3c3d 6993 803b 05d6 d43c
000000c0: 9638 8bbd 7875 683d 749f f63c 36b4 e13c
000000d0: 8e5a fe3d ec5e f33c f9f3 3ebd 1613 a7bd
000000e0: 4c60 9c3d 9cb4 033c ddb0 e1bc 1d9e 663d
000000f0: b430 f7bc 5da1 3c3d 39e9 a6bc e254 f3bb
00000100: 2ea2 31bd ed10 993d cdd0 c5bb 34b6 e53c
00000110: 88c9 48bd 14aa 433c f93e af3b 5af2 063c
00000120: 4cd9 25bd 2376 6dbc e7d7 413c 1c5e e5bc
00000130: d4be 6a3d c583 c3bd ee2f 68bd 10c6 4fbd
00000140: 4c48 923d 2f9d cb3d 8a16 2f3d 416a 62bc
00000150: d6ec 4b3d 5012 14bd cc8e cf3d b857 af3c
00000160: f004 12bc 20d0 20bc 437d 6f3d d42d 76bd
00000170: cb63 3dbd f209 77bd bdbd cd3d d324 8f3c
00000180: 6edb bf3c 2e0b 813d 94a6 dbbc 2d3a b1bd
00000190: c71c 6a3d b8b1 e23d 06b5 30bc b2e7 92bb
000001a0: 2576 b23c a892 8b3c a46a 163d ae09 c2bd
000001b0: f15e a7bc d568 513d 25ab b73d 7fb4 123d
000001c0: 6fa7 da3d dba5 403d 7147 c53c f0f9 663d
000001d0: 8a2c 47bb fd1b 68bc af58 933d 39b7 08bd
000001e0: 9dc1 ef3d 44a0 fb3c eef2 27bd b914 b63d
000001f0: 12dd e8bc 7fed e43c 9410 fd3d b4d7 cdbc
00000200: 807e 98bb ee5a 18bd 6324 57bd a0a5 f6bc
00000210: 81b2 023d 00d5 aebd a5e3 fcbc d4bf cbbd
00000220: 190e 55bd bf74 97bd 6881 dc3b ec19 cfbd
00000230: 2b69 42bc 90e7 b0bd fb89 40bd 39dd 48bd
00000240: 0c3b 72bc f5ed 673d 7496 b2bd 0e45 aabd
00000250: 8b4c 833c 9569 69bd 6fec 653d 1579 b6bd
00000260: 6eee c63c 7fdc 7b3a 394c c6bc ce89 b2bc
00000270: 8713 bc3d f8e8 5d3c baeb 3ebd c8f0 1d3d
00000280: c5ab 723d c67e 843c d6e0 0ebd 6413 88bb
00000290: 58a3 e5bc b1e7 533d 12e4 d63d f0b0 99bd
000002a0: 01ff 9d3c 7159 a2bd f418 883d 839f 66bd
000002b0: aaac 1a3d 5079 f6bc 58bf ab3d 5ebf 723c
000002c0: f534 d5bd 91e5 ea3d c24e a2bd c2ff 76bd
000002d0: 4fe8 ffbc ff7a b93d bf98 36bb 74ec 33bd
000002e0: 4786 3c3d 155e 6d3d 3032 b5bc 55d4 87bd
000002f0: 310c 603d 2672 e43b 0ff7 dc3c f709 c6bd
00000300: adf0 1e3d 3520 40bd c8ce 113d 0a13 cb3d
00000310: 02db eabc f283 c93d 3728 f73c 4ab0 c53d
00000320: d5b0 c3bd 0246 c43d 4501 9abd f882 363d
00000330: 8ab7 94bc ac19 be3c b731 fe3c a371 a9bc
00000340: ce1f d4bc 3563 223a e40d 643d 951e b73d
00000350: 6549 f9bc ce1c 223d 8c94 453d 0978 c03d
00000360: c265 76bd 984f 963d 3ae3 9c3d 2244 813d
00000370: efde 50bd 2dae 9d3c e124 40bd a631 0ebd
00000380: a563 84bc af8f b2bc b542 87bc d0e5 95bc
00000390: e62c 383b cc4a f7ba ab68 e8bc 6d14 91ba
000003a0: b138 b03d 45fb babb 59c9 e53d c672 eb3b
000003b0: 7e18 b3bc c5dd 723d a1a2 ae3c 7364 78bc
000003c0: 482f 6fbd c511 ac3d b545 63bb 419f e239
000003d0: d7c4 d6bc 038a bfbc 9145 953d 5705 ebbc
000003e0: c3d6 5bbc 696e e73c 00cc 3b3d da6f 30ba
000003f0: c93e 673c baac c9bc 7fa5 5dbc bf97 0fbd
0.09072567 0.0058555664 0.08181897 0.014510194 0.07038185 -0.048554327 0.10935732 0.11263497
-0.044100624 0.08993088 -0.08109376 0.04407422 0.10478435 0.048583847 -0.012033226 0.08654582
-0.05474956 0.11896828 0.0026617565 -0.019386446 -0.069246806 0.012780274 -0.019877391 0.045793276
-0.031351727 -0.017511414 -0.0017609135 0.028108895 -0.027597172 -0.005131651 0.12561052 -0.03766509
0.05768018 0.0046364414 -0.029267367 0.0828496 -0.09140551 -0.04715579 0.1318045 0.060373213
0.12859339 0.04485896 -0.006796196 0.083805725 -0.036734454 0.046094943 0.0039238227 0.025980959
-0.06797902 0.056752652 0.03010533 0.027551752 0.12419616 0.029708348 -0.04661939 -0.08157937
0.07635555 0.008038666 -0.027550155 0.056303132 -0.03017459 0.046052326 -0.020374881 -0.0074258903
-0.043367557 0.074739315 -0.006036854 0.028040983 -0.04902032 0.011942405 0.005348083 0.008236492
-0.040490434 -0.014493498 0.01183126 -0.027998976 0.057310894 -0.095466174 -0.056686334 -0.050725996
0.07142696 0.0994209 0.042746104 -0.013819278 0.04978641 -0.036150277 0.10134658 0.021404132
-0.00891231 -0.009815246 0.05846907 -0.0601023 -0.046237748 -0.06031222 0.10045955 0.017473614
0.023420062 0.063009605 -0.02681283 -0.08653674 0.05715635 0.110690534 -0.010785347 -0.0044831866
0.021784851 0.017037705 0.036722794 -0.094745025 -0.020431014 0.051125366 0.0896819 0.035816666
0.10676467 0.047033172 0.024081917 0.056390703 -0.0030391538 -0.014166829 0.071946494 -0.03337786
0.11706851 0.030716069 -0.04100316 0.08890671 -0.028425727 0.027945278 0.12356678 -0.02512727
-0.004653752 -0.037196092 -0.052524935 -0.030108273 0.031908516 -0.0853672 -0.030870268 -0.09948698
-0.052015398 -0.073953144 0.0067292936 -0.10112366 -0.011865894 -0.08637917 -0.04700659 -0.0490391
-0.014784586 0.056623418 -0.08720103 -0.083139524 0.01602771 -0.056985456 0.056133684 -0.08909813
0.024283614 0.00096077466 -0.024206268 -0.021794226 0.09183412 0.013544314 -0.046611525 0.038559705
0.059245843 0.016173732 -0.03488239 -0.004152702 -0.02803199 0.05173463 0.1049272 -0.07504451
0.019286634 -0.07927216 0.066453844 -0.056304466 0.03776232 -0.030087143 0.08386105 0.014816133
-0.104104914 0.114695676 -0.07925178 -0.060302503 -0.031238703 0.09056663 -0.002786204 -0.04392667
0.046026494 0.05795105 -0.022118658 -0.06632296 0.054699127 0.0069716154 0.026973275 -0.096698694
0.038803745 -0.046905715 0.035597593 0.09915741 -0.028668884 0.0983962 0.030170543 0.09652765
-0.095552124 0.095836654 -0.075197734 0.044558495 -0.018153924 0.0232056 0.031029565 -0.020684069
-0.025894072 0.00061945926 0.05567731 0.0894138 -0.030430505 0.03957825 0.04823737 0.09397895
-0.060155638 0.073394 0.076605275 0.063118234 -0.050993856 0.019248093 -0.04691017 -0.034715317
-0.016160795 -0.02179703 -0.0165113 -0.01829806 0.0028102933 -0.0018866896 -0.028370222 -0.001106871
0.08604563 -0.005706223 0.11220045 0.007185313 -0.021862265 0.059293527 0.021317782 -0.015160668
-0.0583947 0.08401827 -0.0034679 0.00043224733 -0.026216907 -0.023381239 0.07288659 -0.02868907
-0.013417902 0.02825089 0.045848846 -0.00067305344 0.01411409 -0.024618495 -0.013528227 -0.035056826

network.0.bias f4 [128]
00000000: 37be 56bd fed8 9cbd adaf a5bc a17f dc3d
00000010: 8769 f1bd e984 02be 2513 b7bd 9b67 8bbd
00000020: fdee c13d d678 9abd 5dc1 42bd f6d7 c7bd
00000030: beb8 f93b 79e7 fd3d 9c60 043e d3d4 afbd
00000040: 7743 b73c 1b3e 75bd ae38 aebd 5efa 523a
00000050: 8ead b3bb 5771 ae3d ce1b 293c 2fc3 d23d
00000060: 29c3 283d 004a ea3d 7626 0fbe 959d 18bd
00000070: 5c23 323d 7477 5dbd 8035 b63d a6b6 a83d
00000080: 7766 77bd ff65 d2bd 01cc 993d f408 b1bd
00000090: 9d48 e9bd 7340 b03b 12b0 033e 2e4e ddbd
000000a0: d558 383d fb6c 34bd 2775 dd3c 3f3f 9d3d
000000b0: ced3 b7bc 2eb9 30bd ee44 653d 8412 a93c
000000c0: c43f 133d e560 d6bd 312e 753d 5293 80bd
000000d0: 2a7f 2e3d b894 bf3c dbf4 15bc 87ad c6bd
000000e0: 0340 27bd 2a29 a73d b4c1 aebd b14d d33d
000000f0: 68d5 bd3d 871d a4bd a073 c8bd 1401 ad3d
00000100: 7a07 2ebd 3546 a63d 29cb bebd fccd 9fbd
00000110: 396b 4dbd 4f7f 2abb b172 b7bd 2179 1dbd
00000120: 6b7c 173d f33a ea3d 32d7 7fbd 6648 27bd
00000130: b36d 82bd bf2c 4f3d ce4a 9dbd 4bbc 24bd
00000140: 4f2c d63c 516d b13d 8610 9e3d 4ecf 463b
00000150: 2750 c5bd 859e 8cbd 5e13 9e3d 7741 f8bd
00000160: 3a9d c83d 82dc 13bc 4976 ed3d 5ec1 9cbd
00000170: e878 fc3c b219 683d d5fb 093e a8f9 a43d
00000180: bc17 d739 761f c83d 4d16 043d 89f3 c5bd
00000190: 405c c13d 670d 013e 4d58 76bd c0b9 88bd
000001a0: f34e f33d d40a d13d a825 303d c51a 153d
000001b0: 471e d63d e2a2 b9bd 961c 9dbd bfa7 dc3d
000001c0: ef81 443d fecd e13c c238 ae3d aaf6 0e3e
000001d0: 75a9 3238 30b7 8f3c de6e f93d 5e01 0ebd
000001e0: fc89 f8bd 6f58 173d f1eb d9bd b6f8 a7bd
000001f0: 1adf 813a 4674 8e3d 39d9 b6bd ed2b de3d
-0.052427497 -0.076585755 -0.02022537 0.10766531 -0.11787706 -0.12746014 -0.089391984 -0.068068705
0.094694115 -0.07542579 -0.047547687 -0.09757988 0.0076209 0.123976655 0.12927479 -0.08585515
0.022371037 -0.05987368 -0.085069045 0.0008048172 -0.005483336 0.085177116 0.010321571 0.102911346
0.041201744 0.11439896 -0.13979515 -0.037259657 0.043490753 -0.054068998 0.08896923 0.082379624
-0.060400452 -0.102733605 0.07509614 -0.08644286 -0.11390803 0.0053787767 0.12860134 -0.10805927
0.04500659 -0.044049244 0.027033402 0.07678079 -0.022439864 -0.04314535 0.05597394 0.020638712
0.035949484 -0.104677 0.059858505 -0.06278099 0.04260174 0.023386344 -0.009152616 -0.097010665
-0.04083253 0.08162148 -0.0853304 0.10317553 0.0926922 -0.080134444 -0.09787679 0.08447471
-0.0424876 0.0811886 -0.093160935 -0.0780296 -0.050151084 -0.0026015823 -0.089574225 -0.038445596
0.03698389 0.11437025 -0.062461086 -0.04084053 -0.0636858 0.050579783 -0.076802835 -0.040218633
0.026144175 0.086634286 0.07717995 0.0030335966 -0.096344285 -0.06866173 0.07718538 -0.121218614
0.097956136 -0.009024741 0.11594827 -0.07654069 0.030819371 0.05666513 0.13474973 0.08055431
0.0004102568 0.09771626 0.03224783 -0.09665591 0.094414234 0.12602769 -0.060142804 -0.06676054
0.11880293 0.102071434 0.04300466 0.036402483 0.10454994 -0.090642706 -0.07671468 0.107741825
0.047975477 0.027564045 0.085069194 0.13961282 4.2596326e-05 0.017543405 0.12179349 -0.034669273
-0.121356934 0.03694957 -0.106407054 -0.08201735 0.0009908408 0.06955771 -0.08928151 0.10848222

network.3.weight f4 [64, 128]
00000000: 4a18 dabc 0c5f 2ebc 75b6 9e3d 0e9e a83b
00000010: 1029 39bd b90c 6f3d d746 8abc 7a3c 8cbb
00000020: 94bc 43bc 30b9 7dbc a76f d93c fcf4 a739
00000030: 8a51 54bc 8100 b2bc 075c 433d c949 643c
00000040: eb8f 903d 170b 39bd 2997 663d ad6b 8abc
00000050: dbae fd3c e10a e13c 374b 4f3c fc41 f1bc
00000060: 1302 1bbb 1ee8 8fbd d8d7 223b 37fe 49bd
00000070: ed60 333d 8a2c 6ebd 9c59 723c 463c 7a3d
00000080: fcf8 adbc 31c0 a63c 82ba b83c dd8f 36bd
00000090: a054 63bc 49fe 3abb 5e03 b43c 9fc2 ac3a
000000a0: 1ab4 c1bc 95b2 8e3c 5d5b 73bc 309e 72bd
000000b0: f276 ad3d 14f7 253d 6a7e 15bd ce4b 13bd
000000c0: 7bed 41bd 24ff 4f3c b921 50bd f36a 723b
000000d0: b377 4abd eb92 33bd 24c7 64bc f587 813d
000000e0: 4f75 0d3d 8666 1c3d 2a59 45bd eab7 7bbd
000000f0: 4697 00bc bad9 e53c d18c 1bbb 70f8 a33d
00000100: bf6a 6e3d 2648 2bbd 42f7 90bc ef58 cd3c
00000110: f0d6 c33b 480d b9bc b513 f2bc 2cd2 823b
00000120: de72 0b3d 2acf 8f3d 0abe c8bb e6a5 393a
00000130: 5262 473c 3fe9 6fbd 634a 823c 43b4 ce3c
00000140: f5b1 273d 9054 933c 3b8c 1a3d fab3 d1bc
00000150: b658 e9bc 5423 1a36 b995 883d bbce 8ebd
00000160: 0f2e 283c 8b41 573c 37f1 833d 07c9 1bbb
00000170: e9c8 e2bc 747b d13c 1d80 3b3d 3d61 883d
00000180: 5aaa 00bd b853 8f3d 741b 843d 3599 d4bc
00000190: 9b36 013d bcaa 053d 8d86 0a3c b4e2 07bb
000001a0: 3962 843d 3ef3 803d 4f04 0ebd 824c 53bd
000001b0: 43c5 4a3d 5322 553c 84d4 2cbd b057 e7bb
000001c0: fd2b 173d c302 463b 8c8a 4fbd 58e3 f63c
000001d0: 08ef 213d d788 4e3d 0abd 1bbd 8820 0f3b
000001e0: ce90 fabb 1619 7d3a b877 803c 8990 9a3c
000001f0: 51cb 433c b52e 373d d115 31bc c160 38bb
00000200: 8d36 8a3d a574 1c3d afc9 c73c 06fe d2bc
00000210: d0b7 9d3c 7b36 a23b 9d2d 09bd ea97 d23a
00000220: de06 6abb 07f6 0d3d 2419 123d 314a 213c
00000230: bb0b 22bc 35a4 793d 4f23 92bc f760 673b
00000240: 22ec f33c a9bf d8bc c918 21bc 842f 4d3d
00000250: b146 863c 76ce c6bc cf46 2fbc 0eee a0bd
00000260: b9d9 823c 2ec4 573d 7a17 2abd d935 79bd
00000270: 96d0 62bd 6e98 223d 0a8b 1f3d 1332 8b3d
00000280: afff 5ebc b30b 94ba 8b07 cc3c 97fd 34bd
00000290: f3ef e0bc 4754 29bd 8eab 303d 9448 10bd
000002a0: c1b8 12bd de64 033d 162e 2bbd 9134 533d
000002b0: 64d3 053d 4c41 3f3d 0eff 6bbd cffb aebc
000002c0: 3e98 e13c 58c5 89bc 81d5 503d d285 2d3a
000002d0: c014 5b3d 0365 1fbd 5da9 ac3c 6d3d e9bc
000002e0: 3f71 473d 3512 683c 2d63 75bd e680 fdbc
000002f0: b7e3 833d bef3 fa3c bc67 aa3b 998b cfbc
00000300: deea bcbc df88 b6bc a408 32bb f20b 13bd
00000310: 7a05 2cbc ba25 c6bc f06c 593c 262d 423d
00000320: 62e5 f83c 825b d93c 9505 523c 99f5 203b
00000330: e399 293d abf0 043d a85f a1bc d4d2 fa3c
00000340: d9f1 9abd a6eb cb3b 34b8 843d 850d 00bd
00000350: ecab c739 ac66 2d3b 0b59 f8bc 4df5 1cbb
00000360: 93d3 9abc a2e8 553c b53a e7bc a082 193c
00000370: fd08 543d be97 b8bc 9d7a ff3c e966 bcbc
00000380: 71fa 9fbc 6e2a 353d bfe1 a63c d486 d93c
00000390: 8e03 d3bc cba1 f8bc 0b69 bb3a a876 a0bc
000003a0: 8cbe 9cbd 2958 4e3d 3f0c 0b3c 0e36 bfbc
000003b0: 1629 283d 0bef 55bc 8602 a13c f83e 9ebd
000003c0: 5250 82bd 4687 be3c bd6c a43b 2e6e 2bbd
000003d0: 89fd 6abc 3c49 823c 9ec7 003d c2ab c13b
000003e0: 0011 90bc 275e 143c 7614 a3bc de5a 143d
000003f0: 318d c0bc 8d42 60bb 07f7 d53c 4d9c b53d
-0.02662291 -0.010642778 0.07749645 0.0051457947 -0.045205176 0.058361743 -0.016879482 -0.0042796703
-0.011946816 -0.015486047 0.026542498 0.0003203525 -0.012958894 -0.021728756 0.047695186 0.013933607
0.070587 -0.04517659 0.0562965 -0.016897047 0.030967167 0.027471008 0.01265221 -0.02945041
-0.002365236 -0.07026695 0.0024847891 -0.049314704 0.043793608 -0.058147945 0.014791872 0.061092637
-0.021236889 0.020355316 0.022549871 -0.044570792 -0.013875157 -0.0028532913 0.021974262 0.001318056
-0.02364545 0.017419139 -0.014853326 -0.05923289 0.08469953 0.040518835 -0.03649751 -0.035960965
-0.04734562 0.012695108 -0.05081341 0.0036990016 -0.04943056 -0.043841284 -0.013963494 0.0632476
0.034535702 0.03818371 -0.048180737 -0.06145469 -0.007848566 0.028057922 -0.0023735056 0.0800637
0.05820727 -0.041816853 -0.017696027 0.02506682 0.0059765503 -0.02258934 -0.029550413 0.0039923396
0.034045093 0.07021935 -0.00612617 0.0007081911 0.0121694375 -0.05857205 0.015904611 0.02523244
0.040941197 0.017984658 0.03773139 -0.025598515 -0.028484683 2.2968352e-06 0.06669182 -0.069730245
0.0102648875 0.013138185 0.064424925 -0.0023770945 -0.027683692 0.025571562 0.045776475 0.06659172
-0.03141246 0.0699839 0.06450549 -0.025951961 0.031546216 0.032633528 0.008454931 -0.002073449
0.06464047 0.06296395 -0.034672078 -0.051586635 0.04950453 0.013008672 -0.04219486 -0.0070600137
0.036907185 0.0030214048 -0.050669238 0.030137703 0.0395346 0.05042347 -0.03802208 0.0021839458
-0.0076466566 0.0009654922 0.015682086 0.018867748 0.01195033 0.044722278 -0.010808424 -0.0028133842
0.06748686 0.03819718 0.024388162 -0.025755893 0.019252688 0.0049503422 -0.033490766 0.0016067002
-0.003570966 0.034658458 0.035668507 0.009844349 -0.009890492 0.060947616 -0.017839102 0.0035305598
0.029775683 -0.026458578 -0.009832569 0.050094143 0.01639113 -0.02426837 -0.010698034 -0.07857905
0.015972959 0.052677326 -0.041526295 -0.06084237 -0.055374704 0.03969615 0.038950957 0.0679666
-0.013610764 -0.001129499 0.02490594 -0.044187155 -0.027458167 -0.04134014 0.043132357 -0.035225466
-0.035820726 0.032078616 -0.041791998 0.051563803 0.0326723 0.04669313 -0.057616286 -0.021360306
0.027538415 -0.016817734 0.050984863 0.0006619367 0.053486586 -0.03891469 0.021076852 -0.028471673
0.048691984 0.014164497 -0.059909035 -0.030945253 0.064399175 0.030633803 0.0052003544 -0.02533512
-0.023061212 -0.022282062 -0.0027165795 -0.035900064 -0.010499353 -0.024187911 0.013270602 0.04740634
0.030382816 0.026532892 0.012818714 0.002456045 0.041406523 0.03245608 -0.019698933 0.030618109
-0.0756566 0.00622316 0.064804465 -0.031262893 0.0003808433 0.0026458902 -0.030315896 -0.0023949922
-0.018899715 0.013055952 -0.028226236 0.009369522 0.051766384 -0.022533294 0.031186396 -0.02299829
-0.0195286 0.044229917 0.020371316 0.026553549 -0.025758531 -0.030350586 0.0014298273 -0.01958783
-0.076535314 0.050377045 0.008486806 -0.023341205 0.041054808 -0.013057481 0.019654524 -0.07726854
-0.06362976 0.023257863 0.0050178454 -0.041853122 -0.014342674 0.015904061 0.03144037 0.0059103677
-0.017586231 0.009055651 -0.019907217 0.03621947 -0.023504825 -0.0034219355 0.026118768 0.08867703

network.3.bias f4 [64]
00000000: 5ec4 8fbc 4be5 0e3d 7caf 123b 8b6d c1bc
00000010: cd9f 2fbd d2ce 613d 3420 a0bd e6b7 9c3c
00000020: 2649 58bc 8dec 423d 909f 06bb 6f19 77bc
00000030: 5b3c 1fbd cf93 93bc 0544 b7bb 8548 c63c
00000040: 3508 993d f080 113d 8559 c03b 8726 403c
00000050: a121 56bd 790e f6bc 02e3 f3bc 3fae de3b
00000060: 29a8 f6bb 50bc d5bc a54f 97bd e825 bb3c
00000070: 6a99 12bd a805 46bd 811b 8f3d e67f 953d
00000080: 099c 37bd 4adc 1bbb 793b 72bc 3996 63bd
00000090: 1aa4 803d 7b49 7bbd 82a3 643c 7472 bb3c
000000a0: 9e32 1b3d 25ba 10bd e95e 573d d40e 8bbd
000000b0: 45f9 223c 2fff 533d e439 333c 6520 7fbd
000000c0: be34 1d3d 0522 11bc 262d 213d 6660 b2bc
000000d0: 7970 5d3d 88ee 9bbc 7dc2 88bd 72ee e1bc
000000e0: e047 9abc b73b 443d 5d75 f73c 7894 313d
000000f0: 7374 9abd 46d2 4abc 8fa2 fbbc b511 0bbd
-0.01754969 0.03488664 0.002238243 -0.023611804 -0.042877007 0.05512888 -0.07818642 0.019130658
-0.013201034 0.047588874 -0.0020541884 -0.015081747 -0.03887592 -0.018014817 -0.0055928254 0.024204502
0.074722685 0.035523355 0.0058700466 0.011727936 -0.052278165 -0.030036198 -0.029771332 0.006795674
-0.0075273705 -0.026090771 -0.07388238 0.022845224 -0.03579084 -0.048345238 0.06987668 0.07299785
-0.04482654 -0.0023782426 -0.014784687 -0.055563185 0.062813 -0.061349373 0.013954999 0.022881724
0.03789007 -0.03533377 0.052580748 -0.067899376 0.009947126 0.051757034 0.010939095 -0.062286753
0.038380377 -0.008858209 0.039349698 -0.021774482 0.05406234 -0.019034639 -0.06677721 -0.02757952
-0.0188331 0.04790851 0.03020733 0.04335448 -0.07541742 -0.012379235 -0.030717162 -0.033952434

network.6.weight f4 [32, 64]
00000000: 721b 8b3d e9dd b2bd 2d13 bf3d 2fb7 933c
00000010: f82f 023c 8b2f 8bbd c9ef b0bc 2d67 48ba
00000020: 3745 a8bc 7a9e 923d e0d1 1e3d dfd7 cc3b
00000030: e960 103d 1891 c53c c29d cabc 1940 0abd
00000040: c107 84bd be2b 973c 4e5a a93d 1c90 07bc
00000050: 1724 c93c 507e 943a af1b 98bc 99e6 86bd
00000060: c359 b0bb aeb5 64bd 92bd af3c 8932 2abc
00000070: d30a 6d3d 2a89 9b3c fe1b f23c 400c 06bd
00000080: 413d 5cbd 18b2 ba3d 70ff 84ba e567 21bd
00000090: b9e3 37bc 30af 2bbc 6faa debb 85ac f13c
000000a0: 1eed 223d f147 0fba 1ee3 a43d 3270 26bc
000000b0: e4ae c33c d6ad 7a3c e1e8 e0bc ed96 323d
000000c0: 9a47 b43d 51d0 8abc 0dc0 d23d 7e81 1ebd
000000d0: 83a7 97bd 257c 44bd 7f2b 303c 5af5 a2bd
000000e0: 7545 ba3d 4381 aa3d 7e4f e53d 1449 83bc
000000f0: 196a 43bb 86be 953b cc57 1dbd 8d8f 4a3d
00000100: 5311 34b5 fa2a 6abb 708d bfbb 9365 3ebb
00000110: 93e7 af34 5b13 d2b9 13ca 813b 6180 3a3c
00000120: cfe5 00bc 1fcc e6bb f7d6 bb34 da1a 02b7
00000130: d4ba 66bc f733 2fbb fe64 8fba 875d 9f39
00000140: a08c 123c 586e 9fb7 2ca6 87bc 41c0 94b9
00000150: 1416 673a d9c7 893b ce1c 4fb9 91c4 b0bc
00000160: 6233 d1ba fd2c 88b7 2551 5e36 1e35 c0bb
00000170: 15b4 06ba 4b6f 96bc b307 9abc d458 08bb
00000180: caf1 b6bb cd82 f13a 3910 4fbc 7cd9 99ba
00000190: f2fe 0b3d 59e7 2739 4228 8ebb e844 b63c
000001a0: c70c b1bb c794 933a 460b de3a ca79 1fbb
000001b0: 12ee 68bb d01f a73c 74de ddb9 febf 053a
000001c0: 225f b33c de87 b3bc 6c41 b43b 212e a83c
000001d0: e65d bcbc 239b 5b92 2f92 88b9 c156 50ba
000001e0: 2701 9737 dbe5 463d 76d7 a9bc 6ca7 263b
000001f0: 7814 81ae ac34 a5bb 379c dabb c7f4 8e3b
00000200: 4666 53bc 4e90 5d3b a02a aa3b 740f 283c
00000210: 21c0 c23b da3e aab8 407c 2307 74f4 5d15
00000220: 22d7 0d3b 69c0 9ab8 73c8 f53b 0d9f 991d
00000230: ddcd 903c c724 43b8 5ba1 2cb5 65f7 03bb
00000240: a8a1 95b2 7106 163c a1c1 b7ae 4dbf d73b
00000250: 3400 0587 e86b 0107 a910 8139 d59f 25b2
00000260: 9a1f 2037 e10f 633c afb5 33bc 8943 d3ba
00000270: b49b 0c0a b5c1 8dbb 87c2 1ebb 3d73 a8b6
00000280: aeca 8c32 6cde abac 5fba 0cbc 5603 3ba9
00000290: 5caa 4fbc 8617 83b9 f1c7 adab 660c 943b
000002a0: f52d cc3b 0c5e 1007 5498 c2b3 ce3b c1b0
000002b0: d7f2 03bb 17e4 1dbc 4a6d 563c 5cf0 80b6
000002c0: 8bc7 e4b8 0b1f 77bb 2ab1 0a33 72cf f6b9
000002d0: 813b 63ba f063 4dbc 3829 d625 8927 b93a
000002e0: 9302 e8bb 3836 21b6 04b1 6a3b 0e9f 2abb
000002f0: d066 953c 123e 5cbc 739e 2d3c 374c 293b
00000300: 8f1e 6fbd 5e50 83bc 59c7 cb3d 97a0 bdbb
00000310: cbf2 913c 9018 6dbd f241 0abd 4138 393d
00000320: 9ff3 673d 301c e73d 2281 0ebd 00ce c9bb
00000330: 077c 993a b8c8 a8bb 57a1 c83a 1c4e bdbd
00000340: 1d8c 03be 4862 72bd 92a3 903c d7ec ae3c
00000350: cb5c e93c 88e9 fe3c f072 9237 1e32 073c
00000360: c7f9 21bd dae5 9dbd f77d 54bd 9f50 adbd
00000370: d0c3 1d3d 6b7a 883b eba3 41bd 120b c13d
00000380: 1f4c d9bd 26bc 0b3d aeb4 803d 2b21 9cbc
00000390: 234b 893d 0ed7 363d e8d3 2f3d 2fe5 eebc
000003a0: ddaa 93bd dfba 66bc 10a3 a7bc c50a 463d
000003b0: e2d3 3ebd c2c1 88bc 009d 983d d7ea 9dba
000003c0: cc35 12bd 55ed bcbd 03cc d8bc 4a06 1f3d
000003d0: b703 9cbc c60f aebd 3099 3ebd 83ca febd
000003e0: 32eb 89bd 134a 9cbd 0853 40bc 16cf 12bd
000003f0: 2cdc 083d 1a16 893d 6ba4 613b 01a3 e33d
0.06792344 -0.08733732 0.09329829 0.018031685 0.007946007 -0.067961775 -0.021598713 -0.0007644769
-0.020540817 0.07159133 0.03877437 0.00625132 0.03524867 0.024117038 -0.024733428 -0.033752535
-0.064467914 0.018453475 0.082691774 -0.008274104 0.024553342 0.0011329148 -0.018567888 -0.06586952
-0.005381794 -0.055837326 0.021452699 -0.010388025 0.05787165 0.018986303 0.029554363 -0.032726526
-0.053769354 0.09116 -0.0010146927 -0.039405722 -0.011223727 -0.01047878 -0.0067952196 0.029501209
0.039776914 -0.0005465737 0.08051132 -0.010158585 0.023887105 0.015300235 -0.027454795 0.043600965
0.088027194 -0.016945036 0.10290537 -0.038697712 -0.07404997 -0.047969956 0.010752558 -0.07956953
0.09095279 0.08325436 0.111968026 -0.016026057 -0.0029817878 0.0045698313 -0.038413808 0.049453307
-6.7080435e-07 -0.0035731182 -0.005845718 -0.0029052242 3.2764783e-07 -0.00040068742 0.0039608567 0.011383147
-0.007867291 -0.007043376 3.4987872e-07 -7.754856e-06 -0.014082629 -0.0026733854 -0.0010940132 0.00030396527
0.00894466 -1.900566e-05 -0.01655873 -0.00028372 0.00088152406 0.004204732 -0.00019751789 -0.021578105
-0.0015960748 -1.6233413e-05 3.312781e-06 -0.005865707 -0.00051385286 -0.018363615 -0.0188025 -0.0020804899
-0.0055830227 0.0018425822 -0.012638145 -0.0011737789 0.03417868 0.00016012545 -0.004338295 0.022249654
-0.0054031345 0.0011259549 0.0016940616 -0.0024334067 -0.0035542292 0.020400912 -0.00042318145 0.00051021564
0.021895949 -0.021915372 0.005500963 0.020529808 -0.022993993 -6.9295436e-28 -0.00026048857 -0.00079474977
1.800114e-05 0.04855905 -0.020732623 0.002542938 -5.869877e-11 -0.0050416794 -0.0066714543 0.004362676
-0.012902802 0.0033807936 0.0051930696 0.010257591 0.0059433137 -8.117939e-05 1.2299271e-34 4.4823434e-26
0.0021643122 -7.3791314e-05 0.007500702 4.0663217e-21 0.017676288 -4.6525874e-05 -6.4309796e-07 -0.0020136472
-1.7419396e-08 0.009156809 -8.356272e-11 0.006584084 -1.0005868e-34 9.736592e-35 0.0002461721 -9.640606e-09
9.544101e-06 0.013858766 -0.01096861 -0.001611815 6.770039e-33 -0.00432607 -0.0024224834 -5.0202057e-06
1.6390313e-08 -4.884806e-12 -0.008589356 -4.1525235e-14 -0.012674894 -0.00025003793 -1.2347884e-12 0.0045180796
0.0062310644 1.0860994e-34 -9.061537e-08 -1.4059596e-09 -0.0020133757 -0.0096369 0.01308758 -3.842679e-06
-0.00010909055 -0.0037707712 3.229176e-08 -0.00047075335 -0.00086682296 -0.012536034 3.7151013e-16 0.0014126162
-0.007080385 -2.402243e-06 0.0035811076 -0.0026034745 0.018237501 -0.013442533 0.010596859 0.002583278
-0.058378752 -0.016029533 0.09950132 -0.005786966 0.017815968 -0.057884753 -0.033754297 0.045219664
0.05662882 0.11284673 -0.03479112 -0.0061585903 0.0011709937 -0.0051508807 0.0015306872 -0.09243414
-0.12846418 -0.05917576 0.017656121 0.021353168 0.02848663 0.031117216 1.7458078e-05 0.008251695
-0.039544847 -0.07709856 -0.051877942 -0.08462643 0.03851682 0.004164984 -0.047275465 0.094259396
-0.10610222 0.03411498 0.06284462 -0.019058784 0.06703784 0.044638686 0.0429267 -0.029162018
-0.07210324 -0.0140826395 -0.020463496 0.048350114 -0.046588786 -0.016693953 0.074518204 -0.0012048137
-0.035695836 -0.09224955 -0.026464468 0.038824357 -0.01904474 -0.08499102 -0.04653281 -0.1244097
-0.06734313 -0.07631316 -0.011738546 -0.035842024 0.033413097 0.06693669 0.0034430276 0.11115075

network.6.bias f4 [32]
00000000: f68a 973d a78c ddbc 4502 58bc 7034 dd3d
00000010: 1dc1 393d e124 dcbc 0add c63d 3515 e53d
00000020: 5939 323d aefa 503c f550 a73d 3262 6d3d
00000030: d160 01bb 531f e83d 8b00 4cbd 4ca3 8bbd
00000040: 584d 5e3d 742d 033d fd4d 88bc 8fb9 da3b
00000050: 9d98 41bd c257 03be 2eaa ca3d cd46 92bc
00000060: e1e8 613d f6fb 9cbd 12d3 e63d 5764 553d
00000070: 2453 c0bc cdf8 963d 89d3 843d 808d 173c
0.073995516 -0.027044607 -0.013184135 0.10801017 0.045350183 -0.026873054 0.097101286 0.111856855
0.043511722 0.012755079 0.08169738 0.057954974 -0.0019741545 0.113340996 -0.049805205 -0.06818256
0.05427298 0.03202577 -0.01663875 0.0066749523 -0.047264684 -0.12826446 0.098957404 -0.017856026
0.05515373 -0.07665245 0.11270727 0.052097645 -0.023477145 0.07371674 0.0648566 0.009250045

network.9.weight f4 [1, 32]
00000000: 11c1 f03c c705 c6bc e583 c7b9 359a cd3d
00000010: d032 bc3d 865c 80bd 1cdb 79bd 61a4 023e
00000020: dd9c 09be e5ed 3c3e 73f2 0abe 02be afbd
00000030: 5fda 64ba 747b b13d b631 393e f796 50bd
00000040: d84c 843c 7abf 9bbd 2e93 0a87 77d8 053e
00000050: 14d1 f93c f6d7 21be b0e5 e53d 1494 f4bc
00000060: 1ab7 11be 69b4 d33c 063a e1bd 7f8e b3bd
00000070: 5b2b f9bc 78a2 eabd 4799 e7bb f3ec bcbd
0.029388936 -0.024172677 -0.00038054507 0.10039178 0.09189379 -0.062676474 -0.060999975 0.12758018
-0.13438745 0.18450125 -0.1356905 -0.08581163 -0.00087300496 0.08666125 0.1808537 -0.05092522
0.016149923 -0.07604881 -1.0425218e-34 0.13070856 0.030495204 -0.15805039 0.1122545 -0.029855765
-0.14230004 0.025842862 -0.10997395 -0.08767413 -0.030416181 -0.1145677 -0.0070678326 -0.09224882

exp_avg f4 [128, 45]
00000000: 4ff7 1639 8e5e 6638 f0ba 093a 4cc7 8638
00000010: 8359 1137 1027 cfb8 d286 d3b8 1ac2 1cb8
00000020: e61f 52b9 2f60 4d3a 8dbb 31b9 0133 62b8
00000030: b742 b5b7 1caa 5838 86d5 c338 308a 66b9
00000040: 6f3e 54b9 7d76 bab8 e41b 8d36 2b78 3bb8
00000050: 71f8 4238 d7c9 1d3a 055c 2738 184d f137
00000060: 73a0 b0b7 50a0 18b9 22ba 7ab4 f3f3 02b8
00000070: 6430 97b8 851f 73b6 5408 8438 9c8a 3039
00000080: f4ae 7d38 a2d0 3bb9 bc1f 8238 7994 7939
00000090: 52e6 a5b7 3c76 3ab9 3401 ca37 ba29 17b9
000000a0: 5bd8 1339 dc2f 05b9 ae85 f539 43bf b5b9
000000b0: a49f 0d3a e222 9f38 1a2f f4b7 3548 0138
000000c0: 27f1 edb8 d0db 89b7 fabd 5938 a157 f237
000000d0: 9e71 46b9 9eb2 6837 9aaa 59b7 bb11 d6b8
000000e0: 8451 15b8 dab0 ec36 5c50 55b8 fc35 8c38
000000f0: 8018 28b7 7f51 7db9 54a5 bcb8 f1c4 0fb7
00000100: 8221 48b8 b083 6f38 f2c4 8237 545d 31b7
00000110: 3417 8bb8 f5b4 88b5 6621 96b7 87ea ef36
00000120: f94a 8ab8 adca 58b8 ac64 3437 a6f5 02b9
00000130: 73fc 0b38 5246 13b9 145c 64b9 c682 14b9
00000140: f7e2 9f38 0001 4638 ad69 00b7 d1d0 92b7
00000150: 8ac2 4bb8 2ab1 17b8 de79 46b8 7382 d838
00000160: 2442 ff36 9b90 c3b9 074b 6e39 2bc9 4fb9
00000170: 6da0 dd38 6f86 4137 b40d edb8 ddcf e9b8
00000180: 3d72 8739 2440 6db9 88c2 9738 fde0 9139
00000190: cf70 e6b8 2e22 6539 a6ae 16b9 56c9 eeb7
000001a0: 57b2 3f38 d13a 2fb9 6c77 d2b9 78f2 5039
000001b0: dae3 b4b7 cade 7eb6 52fb d239 7653 b838
000001c0: 3aa5 51b8 e81c a039 8f7d 2b38 eaff 46b8
000001d0: 67e0 8ab6 6c8e dfb8 d235 8db8 29cd 10b8
000001e0: 0675 cab7 111e da36 363b 63b9 509d 5db8
000001f0: b787 1639 ba1b 1639 030a 4439 3654 5c38
00000200: 06eb 18b9 43b7 6339 b524 82b9 9a25 ecb9
00000210: 9edf 063a 1441 d437 447e 38b9 0634 d7b9
00000220: 592e cbb8 6605 b0b9 08fd 7838 eeda 5a38
00000230: 9c0b bcb9 1ce7 eb38 3a5b 04b8 7803 003a
00000240: 2246 9a39 4610 72b9 457c 3038 4bdc 5038
00000250: 27c9 8037 0434 0038 2c3a a438 40eb 143a
00000260: b940 4d3a 8ed4 fe35 bbad 9db8 9bcd ccb7
00000270: ea43 83ba 6708 33b8 d620 8eb7 72d7 f037
00000280: b67a e538 6af5 8f37 1c74 ae38 d8d3 b5b7
00000290: 05b4 e3b7 4cd6 be39 a2c8 71b8 036b b1b9
000002a0: 9010 4c37 69f0 bbb9 e626 f639 deb7 2539
000002b0: b985 5839 2996 2839 ec91 b2b9 5c1e fc39
000002c0: b3ee 1fb9 55f6 f439 782b 8e3a 322d b4ba
000002d0: 8bc5 e638 98ff fa38 bcd1 3638 98c0 82b8
000002e0: 3af6 6338 305e 0e39 bc75 3eb6 e1f1 1d39
000002f0: 3e4f 6938 d2dc df39 bd96 c638 4a6c 10b8
00000300: 861f a338 6567 91b6 ed58 3e39 4454 6038
00000310: 600b 7939 1cc7 7b3a dbfc 0438 6c00 c336
00000320: c63e fab8 0650 0239 7846 03b8 3d86 0a39
00000330: 9139 9ab7 0e0b f638 0c98 0838 686d 0cb8
00000340: 400a 05b8 3700 0d36 862d 4038 cbf2 8039
00000350: e015 2e39 2a13 a339 880e 9a38 c8c7 7839
00000360: 80fb 8ab8 2c26 103a 7a6f cb39 202a 0a3a
00000370: 63eb 55b8 27b2 0838 3d00 28b8 9af3 76b7
00000380: e61b dd39 463f 07b9 6fef d9b8 a41b d635
00000390: 04dd b2b7 7645 2636 bfd1 20b9 e6f4 65b6
000003a0: 9ed7 8dba f2c3 afb7 359c 02ba cd66 c8b8
000003b0: e4f5 7bb8 598e e737 21d5 d737 086b a4b8
000003c0: 0d69 0cb9 0845 a6ba 1d81 16ba bdf1 89b6
000003d0: c4ce afb7 937d 5a37 32ec 8e38 1c75 18b8
000003e0: 9c57 c2b8 bce8 8fb7 78b6 2ab9 3f10 afb6
000003f0: f2d5 9bb8 7893 f7b8 14da 97b7 a60e a0b9
0.00014397244 5.4924334e-05 0.0005253991 6.42674e-05 8.663515e-06 -9.877805e-05 -0.00010086376 -3.737407e-05
-0.00020039044 0.0007834462 -0.00016949904 -5.39301e-05 -2.1607948e-05 5.165684e-05 9.3380964e-05 -0.00021985988
-0.00020241154 -8.891241e-05 4.2053744e-06 -4.469619e-05 4.6484583e-05 0.0006019151 3.9901603e-05 2.8765338e-05
-2.105555e-05 -0.0001455557 -2.3350779e-07 -3.122161e-05 -7.2092545e-05 -3.6228168e-06 6.295802e-05 0.00016836304
6.048284e-05 -0.00017911431 6.204794e-05 0.00023801801 -1.9776784e-05 -0.00017782388 2.4080837e-05 -0.00014416027
0.00014099611 -0.00012701697 0.0004682964 -0.0003466551 0.00054025115 7.588208e-05 -2.9109e-05 3.0823245e-05
-0.00011345959 -1.643403e-05 5.191376e-05 2.8889453e-05 -0.00018925077 1.3869865e-05 -1.2973929e-05 -0.00010207618
-3.5600286e-05 7.0539363e-06 -5.0857998e-05 6.6857756e-05 -1.0019285e-05 -0.0002415832 -8.995333e-05 -8.569318e-06
-4.7714922e-05 5.7104684e-05 1.5588917e-05 -1.0571752e-05 -6.6323584e-05 -1.0185455e-06 -1.7896946e-05 7.1500576e-06
-6.5943175e-05 -5.168717e-05 1.0752276e-05 -0.00012489277 3.3375294e-05 -0.00014045209 -0.00021778076 -0.00014163097
7.623986e-05 4.720781e-05 -7.653999e-06 -1.7501794e-05 -4.858015e-05 -3.6166202e-05 -4.7320376e-05 0.00010323981
7.607292e-06 -0.00037301038 0.00022725399 -0.00019815999 0.00010567983 1.1534997e-05 -0.00011303593 -0.00011149023
0.0002583432 -0.00022625976 7.236475e-05 0.00027824185 -0.00010988267 0.00021851875 -0.00014370176 -2.8465565e-05
4.570404e-05 -0.00016711211 -0.00040143298 0.00019926752 -2.1563774e-05 -3.797863e-06 0.0004024157 8.7893495e-05
-4.9983362e-05 0.00030539115 4.0886513e-05 -4.7445217e-05 -4.1388444e-06 -0.00010659997 -6.733429e-05 -3.4523346e-05
-2.413477e-05 6.5004065e-06 -0.00021670465 -5.2837015e-05 0.00014355672 0.00014315444 0.00018695746 5.2530515e-05
-0.00014583403 0.00021716677 -0.0002482288 -0.00045041443 0.0005145016 2.5302674e-05 -0.00017594645 -0.00041046756
-9.688427e-05 -0.00033573358 5.936346e-05 5.2179144e-05 -0.00035866804 0.00011248721 -3.1556214e-05 0.00048833294
0.00029425422 -0.00023084981 4.2077405e-05 4.979623e-05 1.5352458e-05 3.056602e-05 7.830965e-05 0.0005680807
0.0007829774 1.8986336e-06 -7.518703e-05 -2.4414438e-05 -0.0010014747 -4.268475e-05 -1.694301e-05 2.8710554e-05
0.000109424276 1.7161208e-05 8.3185936e-05 -2.1675529e-05 -2.7144337e-05 0.00036399288 -5.764573e-05 -0.000338398
1.2163204e-05 -0.0003584654 0.00046949758 0.00015804122 0.00020649181 0.00016077668 -0.00034059526 0.00048087805
-0.00015252344 0.00046722838 0.0010846695 -0.0013746379 0.0001100405 0.00011968537 4.358751e-05 -6.2347564e-05
5.4350334e-05 0.00013577263 -2.8380737e-06 0.00015062794 5.562533e-05 0.00042698398 9.469453e-05 -3.4433127e-05
7.7783174e-05 -4.3333735e-06 0.0001815294 5.348424e-05 0.00023750728 0.000960456 3.1706742e-05 5.811502e-06
-0.000119326214 0.00012427577 -3.1298463e-05 0.00013210713 -1.8385037e-05 0.00011732253 3.256653e-05 -3.3480494e-05
-3.1719217e-05 2.1010762e-06 4.5818764e-05 0.00024594957 0.00016602082 0.0003110406 7.345999e-05 0.00023725547
-6.627198e-05 0.0005498852 0.00038802234 0.00052705593 -5.100238e-05 3.2590844e-05 -4.0054543e-05 -1.47194605e-05
0.0004217319 -0.00012898174 -0.00010391964 1.5952287e-06 -2.1322172e-05 2.477636e-06 -0.00015336926 -3.4266209e-06
-0.0010821705 -2.095287e-05 -0.0004982383 -9.555891e-05 -6.0072067e-05 2.7603632e-05 2.5729243e-05 -7.8400655e-05
-0.00013390575 -0.0012685368 -0.0005741285 -4.11106e-06 -2.0957908e-05 1.302305e-05 6.8150825e-05 -3.634869e-05
-9.2669594e-05 -1.7155304e-05 -0.00016280438 -5.2172977e-06 -7.4308264e-05 -0.00011805346 -1.8102153e-05 -0.00030528492

exp_avg_sq f4 [128, 45]
00000000: fa3f 0c35 a27f 7334 194d dd34 0fb5 5534
00000010: f8a2 e334 0fb0 e834 fd3a ce34 c73b 7e35
00000020: 874a a934 7d4f 6b35 7c89 ed34 e29d 2f35
00000030: eadf 8c34 5752 f033 09f2 c434 e9b9 a934
00000040: e85e f135 2778 a936 2fa6 3a30 b534 3b33
00000050: 66ce bd34 a345 2d35 aa1f aa34 dbcb 9f33
00000060: cf30 db32 2b0b d633 fa07 d42e 2232 2a33
00000070: d518 2f33 3329 3330 5a40 1235 16d8 ca34
00000080: 97cb a735 e858 5535 cf7d f834 452f 5b35
00000090: df80 a534 dd38 9635 0996 4b36 915b 3b36
000000a0: c68b de35 b075 1136 11a0 6535 cafd 3536
000000b0: fb25 2136 2ffc a533 4cff 8633 4b71 b533
000000c0: edc5 4633 76c6 9134 5243 9134 1f75 6632
000000d0: 7467 4a35 1f21 b233 b7d9 be33 883e a433
000000e0: 832a 6534 45b6 0f33 9eaf 0233 b089 0934
000000f0: dfa4 2833 82f5 8235 5b59 8335 92d5 7d30
00000100: 5023 3733 1ff5 ff33 aadb 3034 eb5e b133
00000110: bc0c 2e33 46ac d831 5767 0e33 f7c5 9530
00000120: c561 8f32 c060 ba32 f312 c430 4f02 2f34
00000130: 457b 0334 72e4 fb33 e25b 4934 743b f333
00000140: 0af8 b534 318b 9334 683f cb34 b73f c534
00000150: 5015 2736 7540 9033 7449 4735 6620 c534
00000160: 0294 1c33 08f3 4135 ed97 2135 6dd4 9634
00000170: 7a04 ff33 fa82 e834 f3e8 8435 aa95 0f35
00000180: aa55 9134 99f0 1536 4e9f 7734 fa56 0235
00000190: b051 6435 28a4 cb35 faed 0f34 cf18 e932
000001a0: 1ca5 db34 93e3 c234 0dde 9136 9a1a e235
000001b0: 2255 1d31 07c9 9734 f820 2835 ba3e d035
000001c0: b62a 6435 3932 7434 f1ee 0b33 8c15 2f34
000001d0: b79d 2230 8ac3 3833 ac68 ea33 e6ae 8231
000001e0: b03a 8035 8d59 5635 d141 7b35 895f fa35
000001f0: 4855 1335 44f2 9635 e6b3 5835 d550 1335
00000200: 6282 cf36 7b95 8736 3144 9835 4968 3c36
00000210: 84a1 0736 e5db ab34 4ff0 bb36 76d1 d734
00000220: 75e1 ae34 0718 0435 cb24 aa34 89c9 2435
00000230: 8f6b 6b35 de9f 3f35 531e 5435 b40a d834
00000240: 1758 8c35 674d 7435 a3f8 4335 dd57 aa34
00000250: b591 db33 d07e c534 8818 e934 2a76 3336
00000260: e1e1 c336 88e0 0f2f 523b 3434 24b8 f134
00000270: 407c 8335 c18c 0235 33ff 8033 a641 9932
00000280: 5842 1534 c9d6 ee30 64e3 0133 4873 0233
00000290: 659e 5e31 9478 4f35 0161 3b35 b3a5 8235
000002a0: 6a1b 8535 885b 0e35 04c4 9b35 71d9 0735
000002b0: d4c9 1536 ced8 8a36 0db0 b036 ac06 2e36
000002c0: 8792 2736 1de4 0336 dc1c 9535 7693 3c36
000002d0: 6a46 2e34 0661 5035 06a7 b434 6968 4334
000002e0: 1be3 ba34 8cd9 9e35 72ec b634 34ad d533
000002f0: 6b25 8334 7ab9 2035 e114 ce34 4591 8d34
00000300: d353 bd34 56ee c532 6662 aa34 fd93 c634
00000310: 8096 b035 80b3 ac36 d73c 6531 51d9 2434
00000320: 0fdf 6534 1582 1235 8ee0 c833 a2c7 4133
00000330: 40c0 6a31 92e5 2033 0979 6c31 01c6 8032
00000340: 776e bb31 c28e 132e a2b1 d034 25d1 fc34
00000350: cb58 2335 07c7 2335 7607 df34 d056 0235
00000360: 2602 a634 cad5 c235 de19 8336 276a b336
00000370: 6e7d fb34 a73e c135 35d8 ab33 7174 fc34
00000380: e68a b235 6ac6 a233 257f 8c33 8b19 d433
00000390: 977c 6b32 fcff 0a33 44e7 9d32 d5dd 5931
000003a0: bb2a 7335 b856 d130 c27e 8835 532f 1033
000003b0: a0fa 8333 70c9 0734 c782 7e33 2674 0e33
000003c0: 8356 9b33 4340 d835 7e44 2035 42dd d32e
000003d0: bdf7 b031 f534 8132 b98b 4034 822b 8b33
000003e0: 41ab b332 aebc 8731 b6d7 cb32 9918 b62f
000003f0: 4f84 1932 c535 cf32 8fc1 d730 f964 e633
5.224716e-07 2.2677571e-07 4.1220554e-07 1.990304e-07 4.240062e-07 4.3341467e-07 3.841341e-07 9.470936e-07
3.153293e-07 8.765999e-07 4.4244723e-07 6.542233e-07 2.623995e-07 1.11908484e-07 3.668395e-07 3.161397e-07
1.7983521e-06 5.05058e-06 6.7902567e-10 4.3587267e-08 3.5354168e-07 6.4548857e-07 3.1688006e-07 7.4410956e-08
2.5517151e-08 9.967183e-08 9.642061e-11 3.9626805e-08 4.0767947e-08 6.517837e-10 5.448288e-07 3.7782655e-07
1.2501722e-06 7.947806e-07 4.6285138e-07 8.1652644e-07 3.082741e-07 1.119242e-06 3.033669e-06 2.791847e-06
1.6580968e-06 2.1675187e-06 8.5542075e-07 2.7118826e-06 2.4012977e-06 7.729283e-08 6.2862995e-08 8.449077e-08
4.628048e-08 2.7152754e-07 2.7057337e-07 1.3414392e-08 7.540141e-07 8.2947956e-08 8.8871666e-08 7.6482195e-08
2.1342753e-07 3.3460555e-08 3.0427707e-08 1.280921e-07 3.9265498e-08 9.757207e-07 9.786266e-07 9.2344365e-10
4.2640124e-08 1.191895e-07 1.647119e-07 8.25947e-08 4.0524114e-08 6.3060126e-09 3.315594e-08 1.0897442e-09
1.6691851e-08 2.1697247e-08 1.4266263e-09 1.6298985e-07 1.2245171e-07 1.1729652e-07 1.875301e-07 1.1326384e-07
3.389435e-07 2.748216e-07 3.785783e-07 3.6740468e-07 2.4897345e-06 6.717247e-08 7.4240165e-07 3.6717682e-07
3.6456193e-08 7.225176e-07 6.0198255e-07 2.8094237e-07 1.1875177e-07 4.3308665e-07 9.902564e-07 5.348944e-07
2.7070683e-07 2.2342776e-06 2.3061622e-07 4.855534e-07 8.505549e-07 1.5172454e-06 1.3404488e-07 2.7136052e-08
4.0912062e-07 3.6300898e-07 4.347187e-06 1.6846054e-06 2.28949e-09 2.8272208e-07 6.2632853e-07 1.5515463e-06
8.499877e-07 2.2742542e-07 3.2580775e-08 1.6305984e-07 5.9159383e-10 4.301868e-08 1.0915514e-07 3.8033816e-09
9.553823e-07 7.9851526e-07 9.360056e-07 1.8654256e-06 5.488587e-07 1.124638e-06 8.0728057e-07 5.4879393e-07
6.1842593e-06 4.0407153e-06 1.1344729e-06 2.8074885e-06 2.0210582e-06 3.2011226e-07 5.60101e-06 4.0199274e-07
3.2574067e-07 4.9208796e-07 3.1691738e-07 6.1388033e-07 8.770084e-07 7.138568e-07 7.902028e-07 4.0240923e-07
1.045645e-06 9.100972e-07 7.3004975e-07 3.1728896e-07 1.0224486e-07 3.6786378e-07 4.341748e-07 2.674186e-06
5.8377486e-06 1.3085544e-10 1.6785387e-07 4.5023728e-07 9.796422e-07 4.86336e-07 6.006885e-08 1.7841398e-08
1.3900842e-07 1.7377825e-09 3.0241964e-08 3.037283e-08 3.2395289e-09 7.7288973e-07 6.980409e-07 9.73398e-07
9.917251e-07 5.303232e-07 1.1605448e-06 5.060784e-07 2.232021e-06 4.13796e-06 5.2657037e-06 2.5931904e-06
2.497023e-06 1.96533e-06 1.1109764e-06 2.8100017e-06 1.6230629e-07 7.7627226e-07 3.3649138e-07 1.8198774e-07
3.481044e-07 1.1835232e-06 3.4072178e-07 9.950091e-08 2.4427877e-07 5.987455e-07 3.8385681e-07 2.6368994e-07
3.5264983e-07 2.3042201e-08 3.1736562e-07 3.698805e-07 1.3156823e-06 5.146896e-06 3.335847e-09 1.535275e-07
2.1408435e-07 5.457853e-07 9.354072e-08 4.511788e-08 3.4160763e-09 3.7461696e-08 3.441132e-09 1.4991203e-08
5.4549747e-09 3.3550725e-11 3.8872264e-07 4.709083e-07 6.085144e-07 6.1011855e-07 4.1542415e-07 4.85551e-07
3.0921473e-07 1.4516347e-06 3.9071156e-06 5.3469735e-06 4.6843655e-07 1.4397855e-06 8.002136e-08 4.702338e-07
1.3302458e-06 7.579804e-08 6.5423855e-08 9.8766655e-08 1.3707129e-08 3.2363445e-08 1.8382373e-08 3.1703753e-09
9.0586735e-07 1.5231398e-09 1.0169681e-06 3.3570654e-08 6.145751e-08 1.2646137e-07 5.9257925e-08 3.3167588e-08
7.233486e-08 1.6111957e-06 5.9704314e-07 9.6344724e-11 5.1504387e-09 1.5041659e-08 1.7932224e-07 6.480606e-08
2.091622e-08 3.9504675e-09 2.3730404e-08 3.3123085e-10 8.935856e-09 2.4122423e-08 1.5698322e-09 1.07285764e-07

exp_avg f4 [128]
00000000: 203d cc38 003c 1bba bcf0 9cb8 7176 013a
00000010: 7ed7 943a 6d1e 27bb 210d deb9 efdc 8eb8
00000020: d509 3f3a 5457 48bb d579 a139 fc2f 1739
00000030: 7e4e 1b3a f197 1fba 743d 1a3b f616 6db9
00000040: b5bd 8539 f925 a7b9 0e5a 5838 3fe8 b73a
00000050: f41e c73a b0ca b93a cb56 443a 9a62 0ebb
00000060: 8022 b0b8 8c1f 083b 54b6 52ba c6ae 1139
00000070: 1027 ed3a 0e93 403b cf35 2ebb eaf3 453a
00000080: 1a19 0fba 0ab5 d339 f149 6a38 03cf 153a
00000090: 26f2 31ba 9583 05ba 5753 893a e038 1db9
000000a0: 1cb9 e3b9 3896 783a e290 a93a 96da 153a
000000b0: 402d 1eb9 c5e4 69ba 50a1 9738 10fa f539
000000c0: ac48 2e3a 0261 21b9 bf13 833a 030d 54b9
000000d0: 91df c038 58db 803a a24c a539 74b8 5b39
000000e0: 4276 46b9 2e4a 09ba 0cf5 41bb e666 013b
000000f0: 5eb1 2dba 1280 8fba fabb 1238 9c09 7b39
00000100: 6823 b3b7 4208 723a 5d82 6e3a e196 bab8
00000110: 34eb b639 b7f8 213a 40e0 91ba 97c8 24b9
00000120: 1895 3d3b bc2d 9339 e7c7 c3b9 bb93 2bb8
00000130: 20c0 53ba 4404 b2b9 7ba7 e9b9 3b45 4e3a
00000140: 320d 35b9 26f8 503b 83f9 c6b9 2656 feb9
00000150: 361d 22bb 2a7e adb8 1eee 86ba 62a7 31ba
00000160: c29c 353a 1fee 0c3a 2410 01ba d6de 55b8
00000170: cb24 803a 6c7c 14bb e39b c4ba acea 203a
00000180: 587c a0ba d6af c23a f459 ddba ecf3 8639
00000190: 26f0 83ba a929 c9b8 5911 ecb8 72d7 b3b7
000001a0: 6a81 ccba a719 8339 1337 86ba bcb5 13ba
000001b0: 2027 aab8 e03b 3fb9 92f1 403a 9f69 983a
000001c0: 3d6d 4a3b 60bb 753a 1714 8dba a53d 3b3a
000001d0: dbe9 013b 2137 93b9 d0eb a43a 9f6f bcb8
000001e0: 4b55 fdb9 b9fb f8b8 53a7 5f39 0b18 ac39
000001f0: d856 cdb8 54c3 443a 50e6 e0b8 2289 b7ba
9.7388634e-05 -0.00059217215 -7.4835e-05 0.00049386086 0.0011355726 -0.0025500313 -0.0004235292 -6.81224e-05
0.0007287537 -0.003056963 0.00030799085 0.00014418358 0.0005924477 -0.00060880097 0.0023535164 -0.00022610635
0.0002550908 -0.00031881014 5.1582283e-05 0.0014031007 0.001519172 0.0014174785 0.000748974 -0.0021726252
-8.39876e-05 0.0020770757 -0.0008038033 0.00013893386 0.0018093307 0.0029384526 -0.0026582365 0.00075512996
-0.00054587575 0.0004037994 5.585881e-05 0.0005714746 -0.0006788097 -0.00050931546 0.0010477108 -0.00014993874
-0.0004343473 0.00094828336 0.0012936855 0.0005716471 -0.00015084911 -0.0008922334 7.230288e-05 0.00046916353
0.0006648402 -0.00015390295 0.0010000392 -0.00020222743 9.196916e-05 0.0009830995 0.00031528348 0.00020954182
-0.00018926806 -0.0005237189 -0.0029595522 0.001974517 -0.0006625856 -0.0010948202 3.498418e-05 0.00023940805
-2.135495e-05 0.0009232798 0.0009098405 -8.8972745e-05 0.00034888985 0.0006178724 -0.0011129454 -0.00015714984
0.0028927978 0.000280721 -0.00037342237 -4.090716e-05 -0.000807764 -0.00033953984 -0.00044566006 0.00078685925
-0.00017266421 0.003188619 -0.00037951404 -0.0004851084 -0.002473665 -8.272783e-05 -0.0010294353 -0.0006776956
0.0006927961 0.0005376059 -0.00049233646 -5.099069e-05 0.000977659 -0.002265717 -0.0015000071 0.00061384845
-0.0012244089 0.0014853429 -0.001688777 0.00025740208 -0.0010066077 -9.592187e-05 -0.00011256588 -2.1438787e-05
-0.0015602533 0.0002500538 -0.0010239802 -0.00056346855 -8.113519e-05 -0.00018237485 0.00073602155 0.0011628157
0.0030887865 0.00093739294 -0.0010763434 0.00071426696 0.0019823227 -0.000280791 0.0012582485 -8.9853296e-05
-0.0004831947 -0.000118724485 0.0002132927 0.0003282431 -9.791338e-05 0.0007505913 -0.000107240514 -0.0014002661

exp_avg_sq f4 [128]
00000000: 0961 8b37 5aa5 9e36 35de b137 2b07 a637
00000010: 1780 5b37 88cd ac36 b1ff b736 42d3 b732
00000020: 522f ab37 9e33 2b38 c75c dd35 0941 b736
00000030: 325e 9836 c87c 0437 4540 e338 09c6 9e36
00000040: 98cc 2337 bf55 3b36 bebd 5136 8852 cf37
00000050: 85e3 d836 877a 3737 b9cf ac37 5336 f538
00000060: 986d a836 2538 c437 a5d5 0036 7e73 b837
00000070: 0171 dd37 cf67 fb37 c818 ae38 189b 5c37
00000080: c4cf fc36 dc65 b035 b7ff 8337 8237 2437
00000090: 989e 7737 4fc1 0036 2ef4 6e37 d337 4e34
000000a0: e857 eb36 b289 8637 2072 d736 fa5f da37
000000b0: 45c5 a937 11ae f636 f0be 5e37 808f 7237
000000c0: c0d4 c037 9998 b835 463a 1b38 3326 4735
000000d0: e845 ca36 0cbc 4237 9248 c136 617c da35
000000e0: 8fe2 e536 0901 af38 797f e837 277e 3238
000000f0: 5306 f337 26f6 9036 bf20 1936 7f59 9337
00000100: 51eb 0c37 874a 8637 c015 0537 07cd 0535
00000110: b658 1936 8d29 7137 5347 1a38 f5d0 a736
00000120: 04da 0638 13e5 3637 144c 5735 0087 aa31
00000130: c955 1037 4427 9336 175a 6237 d388 b936
00000140: d0f6 f736 1acd 5338 aeaf ea36 3857 8d37
00000150: 473e 4437 df31 9e32 cc4b 9a37 5723 0d37
00000160: 40a6 1a37 d118 d536 8f6f 6a37 fe03 1434
00000170: 941a e636 0a6e 9337 586d 9437 e74e a336
00000180: 90df 5c36 bd96 b737 9724 8b37 6d72 8835
00000190: 881e 2637 a9ba f436 7672 f635 df35 0034
000001a0: 8841 2f37 0ba4 9237 6ad8 9a36 ab16 9038
000001b0: efb8 6537 a553 d734 7138 9b36 95a2 5e38
000001c0: 88d7 a538 9d26 9437 6ce4 7737 71a8 9f37
000001d0: a2e2 c638 359d 3737 8670 d636 e9d6 3d33
000001e0: 2608 8c36 2e8d 0736 9c8a f235 4050 3b36
000001f0: 6d52 1536 9f4c 1638 53ca 4735 628e 3438
1.6615277e-05 4.7280164e-06 2.1203517e-05 1.979208e-05 1.308324e-05 5.1499264e-06 5.4835914e-06 2.1400073e-08
2.0406824e-05 4.081765e-05 1.6492785e-06 5.461396e-06 4.540919e-06 7.896866e-06 0.000108361746 4.7318213e-06
9.763193e-06 2.7915082e-06 3.1253871e-06 2.4714755e-05 6.4637884e-06 1.0936178e-05 2.0600726e-05 0.00011692629
5.0195486e-06 2.3391165e-05 1.9197844e-06 2.198829e-05 2.6397875e-05 2.9969871e-05 8.3015824e-05 1.3149132e-05
7.5343723e-06 1.3142667e-06 1.5735493e-05 9.788086e-06 1.4759273e-05 1.9186007e-06 1.4242758e-05 1.9205554e-07
7.0137794e-06 1.6038164e-05 6.420785e-06 2.6032318e-05 2.023823e-05 7.3516353e-06 1.3276687e-05 1.4457735e-05
2.2987253e-05 1.375348e-06 3.700915e-05 7.4188864e-07 6.0282073e-06 1.1607084e-05 5.7602965e-06 1.6278465e-06
6.8511067e-06 8.344843e-05 2.7715914e-05 4.2555996e-05 2.8970802e-05 4.32019e-06 2.2817837e-06 1.756544e-05
8.399439e-06 1.600875e-05 7.932482e-06 4.9844715e-07 2.2850413e-06 1.4374394e-05 3.6782887e-05 5.0013136e-06
3.2151132e-05 1.0901381e-05 8.020445e-07 4.962999e-09 8.603042e-06 4.3855125e-06 1.3491625e-05 5.529358e-06
7.3899064e-06 5.0497336e-05 6.9941952e-06 1.6849124e-05 1.169701e-05 1.84163e-08 1.8393526e-05 8.412483e-06
9.217823e-06 6.3507837e-06 1.3973461e-05 1.3785026e-07 6.8576283e-06 1.7575006e-05 1.7693892e-05 4.866964e-06
3.2912685e-06 2.1885493e-05 1.658713e-05 1.0166092e-06 9.90148e-06 7.2934968e-06 1.8361741e-06 1.1940527e-07
1.04460705e-05 1.7480945e-05 4.6147516e-06 6.870677e-05 1.3692522e-05 4.010773e-07 4.6259306e-06 5.308034e-05
7.907959e-05 1.7660956e-05 1.4775531e-05 1.9032714e-05 9.4835894e-05 1.0944253e-05 6.3907964e-06 4.420045e-08
4.1732737e-06 2.0198745e-06 1.8070746e-06 2.7911883e-06 2.2250708e-06 3.5834146e-05 7.44277e-07 4.304795e-05
