models/regression_models/ML_including_industry_feature/single_dimension/positivity/version_best/checkpoints/epoch=59-step=1860.ckpt (torch, 480459 bytes, 15 tensors)

network.0.weight f4 [128, 45]
0	0xbd8c46a7	-0.06849413
1	0xbd30a878	-0.043129414
2	0xbbaabf62	-0.005210803
3	0x3d95c352	0.07312645
4	0xbc8104e0	-0.015749395
5	0xbdcd14dc	-0.10013744
6	0x3d9a7f6c	0.07543835
7	0xbc803433	-0.01564989
8	0x3da775f8	0.08176798
9	0x3c8ffc87	0.01757647
10	0x3c1e79e5	0.009672617
11	0xbda75176	-0.08169834
12	0xbd846774	-0.064650446
13	0xbc726248	-0.01479394
14	0x3b8b1680	0.0042446256
15	0xbd0c1efe	-0.034209244
16	0xbd0fe514	-0.035130575
17	0xbca1885a	-0.019718338
18	0xbd4681b0	-0.048463523
19	0xbda033ef	-0.078224055
20	0xbd9bf049	-0.0761419
21	0x3ae29546	0.0017286919
22	0xbd91bb64	-0.0711582
23	0x3d7fcf1b	0.06245337
24	0x3c9c5c49	0.019086974
25	0xbd3ee32c	-0.046603367
26	0x3a514344	0.00079827406
27	0x3b9997fc	0.0046873074
28	0x3c951c1e	0.018201884
29	0x3a654053	0.0008745242
30	0x3d2679fe	0.040643685
31	0x3dcde880	0.100541115
32	0xbd7d8fe8	-0.061904818
33	0xbd8f6d02	-0.070032135
34	0x3df08b84	0.117453605
35	0xbcf4e69d	-0.029895121
36	0xbd00eb85	-0.03147461
37	0x3e073ea2	0.13207486
38	0xbd5e8875	-0.054329354
39	0x3e06ec87	0.13176166
40	0xbd02c77b	-0.03192852
41	0x3c01bd71	0.0079187015
42	0x3df66d32	0.12032546
43	0x3d59a3bf	0.053134676
44	0xbca1f299	-0.019769
45	0x3dcfd41e	0.1014788
46	0x3dd8fc45	0.105949916
47	0x3cf76d20	0.030203402
48	0x3de906c3	0.11378243
49	0xbd2104ca	-0.039311208
50	0x3dd85b45	0.10564283
51	0xbcd9b0b9	-0.026573526
52	0xbe054c46	-0.13017377
53	0xbe074ac9	-0.13212122
54	0x3c8bc82e	0.017063227
55	0xbd8994ee	-0.06717859
56	0xbd892791	-0.06697
57	0xbd8fe2f5	-0.070257105
58	0xbdaa9bb7	-0.083304815
59	0x3d059be3	0.03261937
60	0x3d0d974b	0.034568112
61	0x3deda28f	0.11603271
62	0x3d2e51a2	0.04255832
63	0xbacc0ea1	-0.0015568325
64	0x3c09525e	0.008381454
65	0x3de38642	0.11109592
66	0x3d0e74e2	0.034779437
67	0x3d674f3a	0.05647204
68	0x3dd95899	0.10612602
69	0x3d454e15	0.048170168
70	0x3d853f20	0.06506181
71	0xbbafae0b	-0.0053613237
72	0xbd16fc69	-0.03686181
73	0xbcb89251	-0.022530707
74	0x3c749e09	0.014930257
75	0xbc9d7d3d	-0.019224757
76	0xbce9b9f9	-0.028531061
77	0x3c75001e	0.014953641
78	0x3dd872c5	0.105687656
79	0xbd19ffa7	-0.037597325
80	0x3c78eb98	0.015192889
81	0x3dc550b2	0.09634532
82	0x3c8c88b6	0.017155033
83	0xbcbe5155	-0.023232142
84	0xbd9eeb78	-0.07759756
85	0xbca61487	-0.02027346
86	0xbb8fb90d	-0.0043860734
87	0x3c22e9b7	0.009943417
88	0xbcd4585b	-0.025921037
89	0x3ded4a1a	0.115863994
90	0xbd9a56bd	-0.07536075
91	0x3d1f9a0a	0.038965262
92	0xbb942cd1	-0.004521944
93	0xbd8045b9	-0.062632985
94	0xbde8f9ec	-0.11375794
95	0xbd284abc	-0.041086897
96	0x3d559766	0.052146338
97	0x3d780178	0.060548276
98	0x3db5e1aa	0.08880933
99	0xbdbcf8f8	-0.092271745
100	0xbdb2e104	-0.087343246
101	0x3d467427	0.048450615
102	0x3d54007d	0.05175828
103	0x3cbe9bf9	0.023267733
104	0x3d218492	0.03943307
105	0xbd0a72a5	-0.03380074
106	0xbd99a7c4	-0.07502702
107	0xbe02cc83	-0.12773328
108	0xba455e86	-0.00075290387
109	0x3ceba6cd	0.02876606
110	0xbdcd7f55	-0.10034052
111	0x3c5dfa23	0.013548407
112	0x3df4bbbc	0.1194987
113	0x3d71fad6	0.059077106
114	0x3c9d4c42	0.019201402
115	0x3dd47eaa	0.10375722
116	0xba43dd6e	-0.0007471655
117	0xbd0e2a4d	-0.03470831
118	0x3aca302f	0.0015425737
119	0xba23d76b	-0.00062500563
120	0xbdf9288a	-0.12165935
121	0x3d9c15f7	0.07621377
122	0xbd0c2c24	-0.034221783
123	0x3d83d6be	0.06437443
124	0x3d90eaa7	0.070760064
125	0xbcea2237	-0.028580768
126	0x3dc1d322	0.094640985
127	0x3d904989	0.07045276
128	0x3e05251f	0.13002442
129	0x3a6476c4	0.0008715207
130	0xbdf1aa19	-0.11800022
131	0xbbb6b9cf	-0.0055763493
132	0xbdc615a9	-0.096721
133	0xbd2709dd	-0.04078089
134	0x3cc04ec4	0.023475058
135	0xbd11d757	-0.035605755
136	0xbe065c7c	-0.13121217
137	0x3b54d1ed	0.0032473758
138	0x3d9da775	0.076979555
139	0xbd431442	-0.04762674
140	0x3d58777c	0.052848324
141	0x3d4bf4d5	0.049794037
142	0xbcc7d078	-0.024391398
143	0x3de2cacf	0.11073839
144	0xbdf8eea2	-0.121548906
145	0x3d8331c9	0.0640598
146	0xbd82ace7	-0.06380635
147	0x3d782909	0.06058601
148	0xbd36338d	-0.044482756
149	0x3de5d4c0	0.112222195
150	0xbb8720bc	-0.0041237753
151	0x3d6fcc51	0.05854446
152	0xbd3c97e7	-0.046043303
153	0xbccd538e	-0.025064256
154	0x3d64192e	0.055688076
155	0xbdf5749e	-0.119851336
156	0x3e11bb07	0.14231502
157	0x3d2a79f7	0.04162022
158	0xbdc53453	-0.09629121
159	0x3d8bb378	0.0682134
160	0xbd521b5f	-0.051295634
161	0xbd481b7d	-0.04885434
162	0xbdd0063d	-0.1015744
163	0x3d542076	0.05178877
164	0x3d085c4b	0.033291142
165	0xbda054b1	-0.078286536
166	0xbc8ce211	-0.01719764
167	0xbcf9aaab	-0.030476889
168	0x3daead80	0.08529186
169	0xbd96a936	-0.07356493
170	0x3c832ad7	0.016011639
171	0xbc8cf32e	-0.0172058
172	0x3d6b86cd	0.057501603
173	0xbdd143e2	-0.10218026
174	0x3dbfbece	0.09362565
175	0xbd559128	-0.052140385
176	0xbdcc4e90	-0.09975922
177	0x3d61baba	0.055109717
178	0x3d3fb171	0.04680008
179	0x3d41dd14	0.047329977
180	0x3b07c285	0.0020715308
181	0xbb590283	-0.003311307
182	0xbd429e53	-0.04751427
183	0x3d84752b	0.064676605
184	0x3d8914ee	0.06693445
185	0xbc913364	-0.0177247
186	0xbcaa9304	-0.020822056
187	0xb9baa67e	-0.0003560073
188	0x3d750e47	0.05982807
189	0xbd3080bc	-0.04309152
190	0xbbf736c8	-0.007544372
191	0x3a55e23d	0.00081590173
192	0xbd0f3473	-0.03496213
193	0xbc3fd1a1	-0.011707694
194	0x3541b020	7.21544e-07
195	0xbbeefa31	-0.0072930087
196	0xbd141e7e	-0.036161892
197	0x3d96fbe4	0.07372263
198	0xb9298a99	-0.00016168728
199	0xbd71d02b	-0.059036415
200	0x3af70563	0.001884621
201	0xba1996df	-0.00058589684
202	0xbd0d9023	-0.034561288
203	0xbbbe122a	-0.005800505
204	0xb88487a3	-6.319515e-05
205	0xbd5df54a	-0.054189004
206	0x3d664683	0.05621959
207	0x3a15080e	0.0005685099
208	0xbcf5daf8	-0.030011639
209	0x3c96abc3	0.01839245
210	0x3c88d9b3	0.01670537
211	0xb3c3e278	-9.1215895e-08
212	0x3b674100	0.0035286546
213	0x3ac97d00	0.0015372336
214	0xbcc417ee	-0.023937192
215	0xbc4391b5	-0.011936595
216	0x3c3a153f	0.0113576045
217	0x3d387f23	0.045043122
218	0xbc4fc277	-0.012680641
219	0xbd1d9f73	-0.03848214
220	0xbcc09ea4	-0.023513146
221	0xbd1e9e06	-0.03872492
222	0xbd3beb72	-0.045878835
223	0xbd70329d	-0.05864202
224	0xbbf83d45	-0.0075756633
225	0xbe036ccc	-0.12834471
226	0x3d90f9dc	0.07078907
227	0xbc82c838	-0.015964612
228	0xbd9e3d8c	-0.07726583
229	0x3de79980	0.11308575
230	0x3b35b71e	0.0027727555
231	0xbe0e24c3	-0.13881211
232	0x3ce2861b	0.027651837
233	0x3dc31b3c	0.09526679
234	0x3e033272	0.12812212
235	0xbd7bba4b	-0.06145696
236	0xbda66bdb	-0.081260405
237	0xbdc888c3	-0.0979171
238	0x3de4f83f	0.11180162
239	0x3d5af55e	0.053456657
240	0xbdfebc05	-0.12438206
241	0x3bc88447	0.0061192843
242	0x3dbd05d5	0.09229628
243	0xbaf75938	-0.0018871194
244	0xbced8c7a	-0.028997649
245	0xbd8829cf	-0.06648599
246	0x3da34b35	0.07973329
247	0x3db5b693	0.08872714
248	0x3ce26801	0.027637484
249	0x3da6c5d0	0.081431985
250	0x3b2463cf	0.0025083905
251	0xbb89f841	-0.0042105024
252	0xbd9544cd	-0.07288513
253	0x3d9c5a2d	0.07634387
254	0xbc9d2442	-0.019182328
255	0x3da363c7	0.079780154

network.0.bias f4 [128]
0	0xbd9ae8df	-0.07563948
1	0x3d8fb574	0.07017031
2	0x3d9a28ab	0.07527288
3	0x3da36899	0.07978935
4	0xbdbf2246	-0.09332709
5	0x3d6b5d29	0.05746189
6	0x3d95205b	0.07281562
7	0xbca36e50	-0.019950062
8	0xbde4bca4	-0.11168793
9	0xbd84afe5	-0.06478862
10	0xbd1f322e	-0.038866214
11	0x3ced15a6	0.028940987
12	0xbd910155	-0.07080332
13	0xbdc8b010	-0.09799206
14	0x3d68b8b6	0.05681678
15	0xbd1b90ba	-0.03797982
16	0x3e0b3306	0.13593683
17	0x3e043c18	0.12913549
18	0x3c4fa70d	0.012674105
19	0xbdd2bdd6	-0.102901146
20	0xbb44774e	-0.0029978338
21	0x3d3f5b57	0.046717968
22	0xbdab3d03	-0.083612464
23	0x3cf33a12	0.029690776
24	0x3d7dcb65	0.06196155
25	0xbd5a8009	-0.05334476
26	0xbd2db4af	-0.04240864
27	0xbcf173e8	-0.029474214
28	0x3d0e47e0	0.034736514
29	0xbd72b36c	-0.05925314
30	0x3d0b27ce	0.033973508
31	0xbdea9f9e	-0.11456226
32	0xbd6ab70c	-0.057303473
33	0xbdb41ce8	-0.08794576
34	0x3defa2ee	0.11700998
35	0xbd0df3fc	-0.03465651
36	0xbdf04ac7	-0.11733013
37	0x3ddfd990	0.10930169
38	0xbbdf788d	-0.0068197907
39	0xbd5e55fa	-0.054281212
40	0xbddd1df2	-0.10796727
41	0xbd97da52	-0.07414688
42	0xbc032d1d	-0.008006361
43	0xbd37e5a7	-0.044896748
44	0xbdd40a0e	-0.1035348
45	0x3e0329fb	0.12808983
46	0x3c910bbe	0.017705794
47	0xbcc2c424	-0.023775168
48	0x3c8a1172	0.016854022
49	0x3c8a7b73	0.016904568
50	0x3dd9bec1	0.106320865
51	0xbd36fa50	-0.04467231
52	0xbc14be9e	-0.00907865
53	0x3c9f2ffb	0.019432059
54	0xbda5f0d3	-0.08102574
55	0x3d9aa208	0.07550436
56	0x3d8c1c66	0.06841354
57	0xbdc2bc38	-0.09508556
58	0x3d2f08cf	0.04273301
59	0xbdb08a9d	-0.086201884
60	0x3d7f4e4e	0.062330537
61	0x3d40feb2	0.047117896
62	0x3b2ebf37	0.0026664266
63	0xbcee014f	-0.029053358
64	0x3da04fd9	0.0782773
65	0xbc63199f	-0.013861089
66	0xbbaa713d	-0.0052014873
67	0x3d2bf648	0.04198292
68	0x3cbae1f0	0.022812814
69	0x3ca634ba	0.020288814
70	0xbd8146e2	-0.06312348
71	0x3da99c59	0.08281774
72	0x3c99c8a7	0.018772436
73	0x3d0bde24	0.034147397
74	0xbde76635	-0.11298791
75	0xbd9409b2	-0.07228412
76	0xbbaa04d0	-0.005188562
77	0x3c0024d7	0.007821283
78	0xbd81624a	-0.06317575
79	0xbbf3e380	-0.0074428916
80	0x3deb273b	0.11482092
81	0x3d842a79	0.064534135
82	0xbe03f5a0	-0.12886667
83	0x3dcfd325	0.101476945
84	0xbcda33f4	-0.026636101
85	0xbc7c6587	-0.015405065
86	0xbdaeed5b	-0.08541366
87	0x3d201329	0.039080773
88	0xbd9b6a39	-0.0758862
89	0xbd878dda	-0.06618853
90	0x3cda0e34	0.0266181
91	0xbd794057	-0.060852375
92	0xbdd084fc	-0.10181615
93	0xbe156bf9	-0.1459197
94	0x3d5d66c4	0.054053083
95	0x3c172e26	0.009227311
96	0xbdbd84ec	-0.092538685
97	0x3def3a4b	0.116810404
98	0xb9fe0c99	-0.0004845604
99	0x3e0611fa	0.13092795
100	0xbdc44a1a	-0.09584446
101	0xbd03b35f	-0.032153483
102	0xbdbc9f7e	-0.09210108
103	0x3dc9533c	0.09830329
104	0x3dfef3dc	0.12448856
105	0x3dc951e2	0.09830071
106	0x3d8dbf89	0.06921298
107	0x3d94c3e7	0.07263928
108	0x3c5bad56	0.013408026
109	0xbd26d80d	-0.040733386
110	0x3d8e07cc	0.06935081
111	0x3e02709b	0.12738268
112	0xbd7ab7f3	-0.061210584
113	0x3dc3fc3e	0.09569596
114	0x3cbaa4b7	0.02278362
115	0x3d9aca80	0.07558155
116	0xbd488a66	-0.048960112
117	0x3dccae2e	0.0999416
118	0x3d4b8b8b	0.049693625
119	0x3c5939a3	0.013258371
120	0xbdeb6023	-0.11492946
121	0x3d3c251a	0.04593382
122	0xbd3ecd7b	-0.04658268
123	0xbd909ace	-0.07060777
124	0xbd8cda2a	-0.06877549
125	0xbd2b7842	-0.041862734
126	0x3d0f5085	0.0349889
127	0xbde62bdf	-0.112388365

network.3.weight f4 [256, 128]
0	0xbcb02f31	-0.021506878
1	0x3c8b8bed	0.017034495
2	0x3c1d24ed	0.009591323
3	0xbb6c659a	-0.0036071301
4	0xb8660e91	-5.484984e-05
5	0xbabc01d4	-0.0014343807
6	0xbd5ec005	-0.054382343
7	0xbcc47e8a	-0.02398612
8	0xbd49e1dc	-0.049287662
9	0x3b20ef6b	0.0024556767
10	0xbc56e009	-0.013114938
11	0x3cc3be34	0.023894407
12	0x3cd1d026	0.025611948
13	0xbc89231b	-0.016740372
14	0x3a9b05cf	0.0011827293
15	0x3d93fc05	0.07225803
16	0x3cc93e9a	0.024565984
17	0xbd65527b	-0.055986863
18	0x3d11b933	0.03557701
19	0xbd49d700	-0.049277306
20	0x3d292a4a	0.041300096
21	0xbc648d8e	-0.013949765
22	0xbcde2a33	-0.027119732
23	0x3c2bafce	0.010478927
24	0x3da7d908	0.08195692
25	0xbd83703e	-0.06417893
26	0x3bb35541	0.0054728095
27	0x3d8baf5c	0.068205565
28	0xbd0a6323	-0.03378595
29	0xbd11ef1d	-0.035628427
30	0xbd67c48a	-0.05658392
31	0x3d3f34b0	0.046681106
32	0xbc5c742b	-0.013455431
33	0xbd745719	-0.059653375
34	0xbcba9394	-0.022775449
35	0xbd008b65	-0.031382937
36	0x3d339556	0.04384359
37	0x3d065c08	0.03280261
38	0xbc207a58	-0.009794794
39	0xbc7c69ad	-0.015406054
40	0x3c8dc1bb	0.017304292
41	0xbd095720	-0.033530354
42	0x3d8a5324	0.06754139
43	0x3cd9a0c0	0.02656591
44	0xbcca2a1e	-0.024678286
45	0x3da83269	0.0821274
46	0xbc25aa5d	-0.010111419
47	0x3ba3c729	0.004998107
48	0x3d1b9544	0.037984148
49	0x3cfecb7c	0.031102888
50	0x3c03db07	0.008047826
51	0x3cd3b8c2	0.025844935
52	0xbc94bd52	-0.018156681
53	0x3d62f7de	0.055412166
54	0x3dabee06	0.08395009
55	0x3d6f8b74	0.058482602
56	0x3bca55d1	0.006174781
57	0xbb984ec2	-0.0046480605
58	0xbd8696ce	-0.065717325
59	0xbd2e7890	-0.042595446
60	0x3d2a70d1	0.041611496
61	0x3cd25d47	0.025679244
62	0x3d9286b8	0.07154602
63	0x3d0585c0	0.032598257
64	0x3d240bf4	0.040050462
65	0xbcaf2e50	-0.021384388
66	0x3c800631	0.015627952
67	0x3d2385ae	0.03992241
68	0xbcef4ce9	-0.029211478
69	0xbd2ce60d	-0.04221158
70	0x3cf35574	0.029703833
71	0x3d02c3a1	0.031924848
72	0xbd16a935	-0.036782462
73	0x3cbd91e6	0.023140859
74	0x3d761d5f	0.060086604
75	0x3d6a1fcd	0.057159234
76	0x3c384575	0.011247029
77	0x3cb43a15	0.022000352
78	0x3d4006ae	0.04688137
79	0x3d1f3a7e	0.038874142
80	0x3cbc7346	0.023004185
81	0xbd188bc3	-0.037242662
82	0x3b98a2bd	0.004658072
83	0x3c24296c	0.010019641
84	0xbd355f59	-0.044280384
85	0xbd7c47ea	-0.06159202
86	0xbcf0e822	-0.029407565
87	0xbb96c3eb	-0.004600992
88	0x3d4bcb03	0.049754154
89	0x3d8d36b6	0.06895201
90	0xb7c96940	-2.4010078e-05
91	0xbd4b8f6b	-0.04969732
92	0x3d48ce7e	0.04902505
93	0x3d2d8f7b	0.04237316
94	0x3c55d896	0.013052126
95	0x3d2a48c5	0.041573305
96	0x3b76d940	0.0037666112
97	0x3d94335d	0.07236359
98	0xbd22193d	-0.03957485
99	0x3cfc4f19	0.030799435
100	0xbc01785d	-0.007902232
101	0xbcbba74c	-0.022906922
102	0xbc69ad84	-0.014262561
103	0xbd35e7c9	-0.0444105
104	0xbd99f244	-0.075169116
105	0xbd9ca77e	-0.07649134
106	0xbc934e7c	-0.01798176
107	0x3dab1f60	0.08355594
108	0xbd2b4f58	-0.041823715
109	0xbd863a15	-0.06554047
110	0x3d84f5be	0.06492184
111	0x3c685c9a	0.014182234
112	0x3c9abc70	0.018888682
113	0x3c7a73e0	0.015286416
114	0x3ca6db88	0.020368353
115	0xbd0ddcb4	-0.034634307
116	0x3d964bf4	0.07338706
117	0x3c509be3	0.012732479
118	0x3b8d37f3	0.004309648
119	0xbd3b46ea	-0.045721926
120	0xbc2888ca	-0.010286519
121	0x3d335ce6	0.043789767
122	0x3c9bffcb	0.01904287
123	0x3c840440	0.016115308
124	0x3d92c416	0.07166307
125	0x3ce29cd2	0.027662668
126	0x3d619975	0.05507799
127	0xbc9db845	-0.019252906
128	0xbbae8927	-0.0053264084
129	0x3c202c7a	0.009776229
130	0xbc7a9ebf	-0.015296637
131	0x3b461451	0.0030224512
132	0xb43a9160	-1.7375487e-07
133	0xbb9fe82f	-0.0048799734
134	0x3b895c93	0.004191944
135	0x3ab5dd48	0.0013875151
136	0x39c8c8a2	0.00038296456
137	0x3bfa5c15	0.0076403716
138	0xbc7bb773	-0.015363562
139	0xbc487a23	-0.012236151
140	0xbbe97ceb	-0.007125487
141	0x3c0249ec	0.007952195
142	0x3c16bca1	0.009200246
143	0x3a9f0da9	0.0012134808
144	0x3c01709c	0.007900383
145	0xbab5b0ec	-0.0013861931
146	0xbb2a63f6	-0.0025999523
147	0xbc17e950	-0.009271935
148	0x39e09fdc	0.00042843714
149	0x3c76c828	0.015062369
150	0x3c26969a	0.010167742
151	0xbb9dbc60	-0.004813716
152	0xbcae8e49	-0.021308081
153	0x3c583736	0.013196757
154	0xbade0800	-0.001693964
155	0xbc27e132	-0.010246562
156	0x3bea8e02	0.007158042
157	0x3c20f309	0.009823569
158	0x3c25c11d	0.010116843
159	0x3aae0259	0.0013275846
160	0x39001e84	0.00012218399
161	0x3acae464	0.0015479443
162	0x3b8312ab	0.004000028
163	0xbc8412e2	-0.016122285
164	0x3a9d7569	0.001201314
165	0x3cc59090	0.024116784
166	0xb98e4078	-0.00027132384
167	0x3c34f39a	0.011044407
168	0x3c204e21	0.009784252
169	0x3a95364b	0.0011383978
170	0x3bc089ac	0.0058757868
171	0xba535cc6	-0.00080628355
172	0xbc337b97	-0.010954759
173	0xbc8067e1	-0.015674533
174	0x3ab05cbf	0.0013455375
175	0x3b3b53c7	0.002858387
176	0xbbccb3d6	-0.006247024
177	0x3a21abf0	0.0006167283
178	0xbb8ccfb8	-0.004297223
179	0x3a6daac7	0.00090662803
180	0x392784a9	0.00015975781
181	0xbc36eba8	-0.011164583
182	0xbb2fde57	-0.0026835406
183	0x3aace434	0.0013190568
184	0xbc04ec98	-0.008113049
185	0xbb791cdc	-0.0038011586
186	0x3bf9304b	0.007604634
187	0x3b4129d7	0.0029474401
188	0x3c475670	0.012166604
189	0xbb76c2f7	-0.003765283
190	0xba88c826	-0.0010435625
191	0x3c61ef76	0.013790002
192	0xb9ce213b	-0.0003931614
193	0xbb0cf0ee	-0.002150591
194	0x39e9dc63	0.00044605424
195	0xbc30cd03	-0.010791066
196	0xbbd5ae9d	-0.0065210597
197	0x3b202f5e	0.0024442296
198	0xbb057c9a	-0.0020368458
199	0xb8bb8179	-8.940971e-05
200	0xbbaaa1b1	-0.0052072634
201	0x3b4125f6	0.002947209
202	0xba827df3	-0.0009955749
203	0x3a5222c1	0.0008016043
204	0x3bae8505	0.0053259158
205	0xbc2327e9	-0.009958246
206	0x3add3665	0.0016877173
207	0xbb323074	-0.0027189525
208	0x39dbe18e	0.00041938986
209	0x3b8de604	0.0043303985
210	0x3a8d1810	0.0010764617
211	0x3ccdbda1	0.025114836
212	0x3a2aa1dc	0.0006509104
213	0xb9ff6dc5	-0.00048719175
214	0xba48f397	-0.0007665692
215	0xbca4db06	-0.02012397
216	0xbae64a2d	-0.0017569714
217	0x3815b984	3.5697143e-05
218	0xbafc16df	-0.001923289
219	0xbc213df6	-0.009841433
220	0x3b975826	0.0046186624
221	0xbc60bade	-0.013716428
222	0xbb8a7420	-0.004225269
223	0x3ce61ac0	0.028088927
224	0x3a65bbc2	0.0008763635
225	0x3c2117f7	0.009832374
226	0x3bbccdb6	0.0057618273
227	0x3cbe9490	0.0232642
228	0xb93481e6	-0.00017214529
229	0xba7d0a64	-0.00096527324
230	0x3c0127e2	0.007883044
231	0x3af54b8c	0.0018714531
232	0xbba46b73	-0.0050176918
233	0x3c848f53	0.016181624
234	0x3cc73e64	0.024321742
235	0x3c9b1c6f	0.018934457
236	0xbc536d23	-0.012904438
237	0x3c11e518	0.008904718
238	0xbb68bbc4	-0.0035512308
239	0x3bf62685	0.007511916
240	0x39a975a4	0.0003232184
241	0xbc8aa95d	-0.016926462
242	0xba6aae0a	-0.00089523254
243	0xbb92962e	-0.004473469
244	0xba1974d1	-0.0005853894
245	0xba5103b2	-0.0007973268
246	0xb9a2e67c	-0.00031070772
247	0x3b364e15	0.0027817537
248	0xb76d50e1	-1.4145132e-05
249	0xb8625c13	-5.396835e-05
250	0x3c1b20de	0.009468285
251	0xbac3ed4f	-0.0014948043
252	0xbb0ee65b	-0.0021804783
253	0x3b1c5731	0.002385568
254	0x3c79fbc7	0.015257782
255	0x3bac01d7	0.0052492428

network.3.bias f4 [256]
0	0xbd013979	-0.03154895
1	0xbd19d37a	-0.037555195
2	0xbb8207b7	-0.003968205
3	0xbd70d1f9	-0.058793996
4	0x3d8cd78c	0.0687705
5	0x3d898d09	0.067163534
6	0xbc9eb8a3	-0.019375151
7	0xbdaf4c38	-0.085594594
8	0xba16c896	-0.00057519355
9	0x3d808277	0.06274884
10	0x3c1c2924	0.009531293
11	0xbc8884ab	-0.016664824
12	0x3d75d73b	0.060019713
13	0xbc9bc84c	-0.019016407
14	0xbd3293de	-0.04359805
15	0x3d8a8f3b	0.067656
16	0xbd495f8f	-0.049163397
17	0xbcd88a4c	-0.026433133
18	0xbc93842f	-0.018007366
19	0x3d795d1b	0.060879808
20	0xbac9cb77	-0.001539572
21	0xbd3aab57	-0.04557356
22	0x3d7d9ba9	0.061916027
23	0x3d6c5628	0.057699353
24	0xbda0dcba	-0.078546
25	0x3c041a08	0.008062847
26	0xbd9dbf1c	-0.07702467
27	0xbd02a1a8	-0.03189245
28	0x3d8c8451	0.06861175
29	0x3c4decdf	0.0125686815
30	0xbcc578c7	-0.024105443
31	0xbcaaecd3	-0.02086488
32	0x3aa6269e	0.0012676304
33	0x3d5e4c99	0.054272268
34	0x3ce82074	0.028335787
35	0x3da2d6f5	0.07951156
36	0xb98827d0	-0.00025969604
37	0x3d003917	0.031304445
38	0x3d457e93	0.048216414
39	0xbc6977dd	-0.014249769
40	0xbcc039d2	-0.02346507
41	0xbc3b13b8	-0.011418276
42	0x3cc13ba5	0.023588011
43	0xbd52a0f4	-0.051423028
44	0xbd4a7762	-0.04943026
45	0xbc01c5d6	-0.007920703
46	0x3d5a8bef	0.053356107
47	0xbd9fd95e	-0.078051314
48	0x3d3cc218	0.04608354
49	0xbd3a407d	-0.045471657
50	0x3d95ff92	0.07324137
51	0xbd7ec9ae	-0.062204055
52	0x3d27078e	0.04077869
53	0x3c8518f9	0.01624726
54	0x3ca0df21	0.019637646
55	0xbc53822a	-0.0129094515
56	0x3c398d4a	0.01132519
57	0x3d095cb8	0.03353569
58	0x3d975d2a	0.073908165
59	0x3d7a231a	0.06106863
60	0x3d8c42cf	0.0684868
61	0x3c06373e	0.008191882
62	0xbce4f0d6	-0.02794687
63	0xbd97645e	-0.073921904
64	0xbd78fa73	-0.060785722
65	0x3c2fd1f2	0.010731207
66	0x3db57556	0.08860271
67	0xbc3f0476	-0.011658778
68	0x3d587cfa	0.052853562
69	0xbce05f3f	-0.027389167
70	0xbd47dd14	-0.04879482
71	0x3d543379	0.0518069
72	0x3d24f514	0.040272787
73	0x3dae42ff	0.08508872
74	0x3d64df25	0.05587687
75	0xbd897593	-0.06711879
76	0x3cc1a685	0.023638973
77	0xbb33ee09	-0.0027455112
78	0xbda85c36	-0.08220713
79	0x3c92425c	0.017853908
80	0x3d46cf5b	0.048537593
81	0xbd941b1a	-0.07231732
82	0x3d8d1518	0.06888789
83	0x3d623850	0.055229485
84	0xbd023512	-0.031788893
85	0xbcff13fe	-0.031137463
86	0x3d9d071f	0.07667374
87	0x3daa36a9	0.08311207
88	0xbd35ed08	-0.044415504
89	0x3d7985cc	0.060918614
90	0xbd34e67a	-0.044165112
91	0x3d479abf	0.04873156
92	0x3ce61ab8	0.028088912
93	0xbd85d314	-0.065344006
94	0xbc93f8cf	-0.018062977
95	0xbc2fec59	-0.010737502
96	0x3d9295da	0.07157488
97	0x3daee39f	0.08539509
98	0xbb99ad35	-0.0046898373
99	0x3cb0ec0e	0.021596935
100	0x3ca5bf91	0.020232948
101	0x3d9464ac	0.07245764
102	0xbc917973	-0.017758107
103	0x3d18e815	0.037330706
104	0x3d7c571b	0.061606508
105	0x3d8af8c8	0.067857325
106	0x3c9cc6a5	0.01913769
107	0x3b4612a0	0.0030223504
108	0x3d9ef62a	0.07761796
109	0x3bd9ef23	0.006650822
110	0xbd57f009	-0.05271915
111	0x3d6cc2bd	0.057802904
112	0xbd8d143d	-0.06888626
113	0xbd5bc901	-0.05365849
114	0x3d562509	0.052281413
115	0xbc5526a2	-0.013009699
116	0xbd789eca	-0.060698308
117	0xbd79d766	-0.060996436
118	0xbd156268	-0.0364708
119	0x3c70dc21	0.01470092
120	0x3c546e77	0.01296579
121	0xbd80f9ab	-0.062976204
122	0xbd58425b	-0.052797657
123	0xbcf6b6a9	-0.030116396
124	0x3cdc268d	0.026873851
125	0xbd880967	-0.06642418
126	0xbd5d781d	-0.054069627
127	0xbd8da6ac	-0.06916556
128	0xbc9bf868	-0.019039348
129	0x3c99ec72	0.018789504
130	0xbcda76a8	-0.026667908
131	0x3d7f355e	0.062306754
132	0x3bbe5bfb	0.005809305
133	0x3d83d2f4	0.064367205
134	0xbd74a863	-0.0597309
135	0x3c2da932	0.010599421
136	0xbd8b2d5c	-0.06795761
137	0x3b501855	0.0031752784
138	0x3db5371b	0.08848401
139	0xbb63a468	-0.0034735445
140	0xbd26f629	-0.0407621
141	0x3d5effd2	0.054443188
142	0x3ce27a57	0.027646227
143	0xbc980495	-0.018556872
144	0x3ba4f0e3	0.0050335987
145	0xbca960f3	-0.020676112
146	0x3b71c86c	0.0036893142
147	0x3c8f714a	0.017510075
148	0x3c9b3822	0.018947665
149	0x3cddd821	0.027080597
150	0x3d8e23d1	0.06940425
151	0xbcc247c4	-0.023715861
152	0x3c880bfb	0.016607275
153	0x3d82972e	0.063764915
154	0xbb8dc6ed	-0.0043266923
155	0xbcc56a15	-0.024098435
156	0x3ce18804	0.027530678
157	0xbd885f20	-0.06658769
158	0xbd9af7c7	-0.07566791
159	0xbd756071	-0.059906427
160	0x3d274f61	0.040847186
161	0xbc560f8d	-0.013065231
162	0x3c59a126	0.01328305
163	0x3d8f4959	0.06996412
164	0x3adfea6d	0.0017083414
165	0xbcf1d303	-0.029519564
166	0xbcf38a71	-0.0297291
167	0x3cf38cc3	0.029730206
168	0x3d7c902a	0.061660923
169	0xbcb832ed	-0.02248522
170	0xbd786e5c	-0.060652122
171	0x3c3fccf7	0.011706582
172	0x3d871bba	0.06597085
173	0x3cc8bbcd	0.024503613
174	0x3da3ebbd	0.08003948
175	0xbcadd9c0	-0.021221995
176	0xbd51cc84	-0.051220432
177	0xbd925de3	-0.07146814
178	0x3cbd771c	0.023128085
179	0x3d657384	0.056018367
180	0xbd76522c	-0.06013696
181	0x3c65083c	0.013979014
182	0xbcfb911e	-0.030708846
183	0xbd035a42	-0.0320685
184	0x3d657863	0.056023013
185	0xbb8c321e	-0.0042784354
186	0xbd5cad9c	-0.053876504
187	0xbd221f62	-0.03958071
188	0xbd0f6393	-0.03500707
189	0xbd0e503a	-0.03474448
190	0xbac874db	-0.0015293615
191	0x3d971d58	0.07378644
192	0xbd8f4319	-0.0699522
193	0xbd7f7fdb	-0.06237779
194	0xbdafe267	-0.08588105
195	0xbd76399e	-0.06011354
196	0xbbcb9afc	-0.006213544
197	0xbc5de946	-0.013544386
198	0xbd74df9f	-0.059783574
199	0xbd733ee9	-0.059386168
200	0x3cf2e148	0.029648438
201	0xbc57f6f1	-0.013181434
202	0xbd073ff5	-0.03301998
203	0xba56602b	-0.00081777823
204	0xbd135dd7	-0.035978165
205	0xbd7b0047	-0.06127956
206	0xbd7c0bda	-0.06153474
207	0xbd40af7b	-0.04704235
208	0xbca50fcf	-0.02014914
209	0xbccb55b1	-0.024821134
210	0x3da380f2	0.07983579
211	0x3d2a577b	0.041587334
212	0x3d1b0438	0.03784582
213	0xbccf2a46	-0.025288712
214	0x3c95b2d0	0.018273741
215	0x3aec61a5	0.0018034471
216	0xbc9d3863	-0.019191926
217	0x3dad7a28	0.08470565
218	0x3cfa5834	0.030559637
219	0xbc1d7827	-0.009611166
220	0x3cd6daac	0.026227318
221	0xbd389ba4	-0.045070305
222	0xbce626bc	-0.028094642
223	0xbd4ab845	-0.04949214
224	0x3d8b80fa	0.0681171
225	0xbd32d5fc	-0.043661103
226	0xbd81a6a8	-0.06330615
227	0x3d6908bf	0.056893107
228	0xbd43fc4c	-0.04784803
229	0xbd3b15ee	-0.04567521
230	0x3d4933a7	0.049121525
231	0x3cc2d7b9	0.023784505
232	0x3d7ea889	0.062172446
233	0xbd450d12	-0.048108168
234	0x3b4eccb8	0.0031555127
235	0xbaa78b72	-0.0012782647
236	0x3d1470ef	0.036240514
237	0x3d9e7b21	0.07738329
238	0x3d8d33ba	0.06894632
239	0xbb54f7a3	-0.0032496236
240	0x3c9c70e4	0.0190968
241	0x3ca28804	0.019840248
242	0x3d536cda	0.05161748
243	0xbd1cfa78	-0.038324803
244	0x3d5aebe3	0.053447615
245	0xbcba3494	-0.02273015
246	0xbdab06d7	-0.08350914
247	0xbd7a928e	-0.06117492
248	0x3d804264	0.06262663
249	0xbd316936	-0.043313228
250	0xbbfcf208	-0.007719282
251	0x3d0b1795	0.033958036
252	0x3d80a445	0.06281332
253	0xbd24e4e9	-0.04025737
254	0xbd781c7a	-0.060574032
255	0xbd21d607	-0.039510753

network.6.weight f4 [1, 256]
0	0xbd0f10bf	-0.03492808
1	0x3b9a667f	0.0047119255
2	0x3d472de7	0.04862776
3	0xbda45e3c	-0.08025786
4	0xbcd85203	-0.026406294
5	0x3c3f4d59	0.011676156
6	0xbd4a016b	-0.04931776
7	0x3d24c947	0.040231016
8	0xbcb1cecd	-0.021705056
9	0x3d44e96a	0.048074163
10	0x3cf16927	0.029469086
11	0x3ce5d5eb	0.028056106
12	0xbca2a09e	-0.019851979
13	0xbd5fcd8c	-0.054639384
14	0x3d467983	0.048455726
15	0x3d1dcd34	0.038525775
16	0xbc8c66b6	-0.01713882
17	0xbd0db3df	-0.034595367
18	0xbca86990	-0.020558149
19	0xbd78e0bb	-0.060761195
20	0x3d277dba	0.040891387
21	0x3d25b0ee	0.040451936
22	0xbc11fbfd	-0.008910176
23	0xbd7d730b	-0.06187729
24	0xbd07e219	-0.033174608
25	0x3c9e53e5	0.019327113
26	0x3d5a4fb6	0.053298675
27	0x3c38c88d	0.011278284
28	0xbd749363	-0.05971087
29	0xbd570c21	-0.0525018
30	0xbd628997	-0.055306997
31	0xbd82700f	-0.0636903
32	0x3ca8a794	0.02058772
33	0x3d30dd62	0.043179877
34	0xbcaccc8f	-0.021093635
35	0x3d2acf30	0.041701496
36	0x3c53e34d	0.012932611
37	0x3d30cd77	0.043164697
38	0xbc3e623e	-0.011620102
39	0x3d5a20a8	0.0532538
40	0x3d88bf96	0.06677167
41	0xb9e7278c	-0.00044089218
42	0x3d4a4ac0	0.049387693
43	0xbc28f5c9	-0.010312506
44	0xbcde23d3	-0.027116692
45	0xbd6d285f	-0.05789983
46	0x3ceece40	0.029151082
47	0x3d001554	0.03127034
48	0xbcacbfc3	-0.021087533
49	0xba81ac1a	-0.0009893209
50	0xbccfeebb	-0.02538239
51	0xbd830e97	-0.06399267
52	0xbca7ef08	-0.020499721
53	0x3d664769	0.056220446
54	0xbd5edaf1	-0.054408018
55	0x3d59c083	0.05316211
56	0xbd4b5612	-0.04964263
57	0x3829f3d6	4.051983e-05
58	0x3ce15936	0.02750836
59	0x3d28277d	0.041053284
60	0xbd659cc3	-0.056057703
61	0x3c9a1376	0.018808108
62	0x3d2ba185	0.041902084
63	0x3d4e9ead	0.050444294
64	0x3ca93665	0.02065582
65	0xbd63767d	-0.05553292
66	0xbd3c19ef	-0.04592317
67	0xbd1a2a5d	-0.037638057
68	0x3c4f2edc	0.0126454495
69	0x3cf103bc	0.029420726
70	0x3bfd6e2b	0.0077340803
71	0x3ce7846b	0.028261384
72	0x3ca3082c	0.019901358
73	0xbd817ef2	-0.06323041
74	0x3d40f353	0.047107052
75	0xbd3899cb	-0.045068543
76	0xbd2b0946	-0.04175689
77	0xbc0d182b	-0.008611719
78	0xbd61b460	-0.05510366
79	0x3d35ce01	0.044385914
80	0x3d145669	0.03621522
81	0xbd5ce1c1	-0.053926233
82	0x3cc602ee	0.024171319
83	0xbc8dad60	-0.017294586
84	0x3c18b377	0.0093201315
85	0xbc459259	-0.012058818
86	0xbd702b8d	-0.058635283
87	0xbd77ee5f	-0.060530063
88	0xbd442819	-0.047889803
89	0xbd71b648	-0.059011728
90	0xbcc06ffd	-0.0234909
91	0xbd698e64	-0.05702056
92	0xbd1c2c8e	-0.03812843
93	0xbd0cf70b	-0.034415286
94	0xba0a7860	-0.00052822195
95	0x3cb3c531	0.021944614
96	0xbccd44a7	-0.02505715
97	0xbc948c38	-0.018133268
98	0xbd8e8ac7	-0.069600634
99	0x3d838619	0.064220615
100	0x3cc81689	0.024424808
101	0xbcc60e45	-0.024176726
102	0x3c82b365	0.015954683
103	0x3d0c58d9	0.03426442
104	0xbd61b3a5	-0.055102963
105	0x3ccd67d3	0.025073921
106	0x3c804d2b	0.015661797
107	0x3d06058d	0.032720137
108	0xbd84907b	-0.0647287
109	0x3d32bd55	0.043637592
110	0xbd2a8757	-0.041632976
111	0xbcc7ae45	-0.02437509
112	0xbc7cb550	-0.015424088
113	0xbd9c4abd	-0.07631443
114	0xbd01ac72	-0.031658597
115	0xba0822b5	-0.000519316
116	0xbd736665	-0.059423823
117	0x3d3f35b5	0.04668208
118	0x38fdd756	0.000121040895
119	0x3cf2aeeb	0.029624423
120	0xbd5545c4	-0.052068487
121	0x3d0dc297	0.034609403
122	0x3d044db6	0.032300673
123	0x3d49ae1e	0.049238317
124	0x3cd286f0	0.025699109
125	0xbcdf3379	-0.027246224
126	0x3c472caa	0.012156645
127	0x3d832d7b	0.06405159
128	0x3bf8cfe5	0.0075931423
129	0x3c4ce6fe	0.012506245
130	0x3ce5e2d1	0.028062256
131	0xbb5852e5	-0.0033008393
132	0xbd85994a	-0.06523378
133	0xbcdde35d	-0.027085954
134	0x3d34f9cc	0.044183537
135	0x3cd120a2	0.025528256
136	0xbbcdcc8b	-0.006280487
137	0xbcf40f60	-0.029792488
138	0xbcf45ee6	-0.029830407
139	0xbd1fcdef	-0.039014753
140	0xbd88d1f9	-0.06680674
141	0x3c62a09b	0.013832237
142	0x39148628	0.00014164357
143	0x3d4f90c5	0.050675172
144	0x3d493d96	0.049131
145	0xbd4ad704	-0.04952146
146	0x3cd0b660	0.025477588
147	0xbd5b9023	-0.053604256
148	0x3d8083b8	0.06275123
149	0xbc224a61	-0.009905429
150	0x3d25afea	0.040450968
151	0xbd709bbc	-0.05874227
152	0xbd5bd6d7	-0.053671684
153	0xbb5e1796	-0.003388857
154	0xbd8786a2	-0.06617476
155	0xbcc9df23	-0.024642533
156	0x3d72cee0	0.059279323
157	0x3d3495ef	0.0440883
158	0x3c7c72e1	0.015408249
159	0xbd0f69c5	-0.03501298
160	0x3d693749	0.05693749
161	0xbcc8ae1c	-0.024497084
162	0x3d0ebba1	0.034846906
163	0xbd78e075	-0.060760934
164	0x3d072a77	0.032999482
165	0xbd132e0b	-0.035932582
166	0x3b799be1	0.0038087296
167	0xbd014b4d	-0.031565953
168	0xbc992259	-0.018693136
169	0xbd5cbee0	-0.05389297
170	0xbd280c0b	-0.04102711
171	0xbd6d75c2	-0.05797363
172	0xbd2fb3fd	-0.04289626
173	0xbbcd6d44	-0.006269129
174	0x3d1880f3	0.03723235
175	0xbac592f1	-0.0015073699
176	0x3c8c9204	0.01715947
177	0xbd512339	-0.05105898
178	0x3d48d461	0.049030665
179	0x3cf63607	0.03005506
180	0xbcc65d92	-0.02421454
181	0x3d71693e	0.058938257
182	0x3d085fa1	0.033294324
183	0x3a66ecab	0.000880907
184	0xbc8642a6	-0.016389202
185	0xbc9cc9e2	-0.019139234
186	0xbcb5ff78	-0.022216544
187	0x3a112c28	0.0005537891
188	0x3c3bc028	0.011459388
189	0xbd188ee3	-0.037245642
190	0x3d383983	0.044976722
191	0xbd139aab	-0.036036175
192	0xbd8cb4de	-0.06870435
193	0x3ccfa971	0.02534935
194	0xbd6fcd09	-0.058545146
195	0xbca03bc1	-0.019559743
196	0x3d605622	0.054769643
197	0x3cb399fe	0.021924015
198	0x3d2c5001	0.042068485
199	0xbcd86550	-0.026415497
200	0x3c0fc6a8	0.008775391
201	0x3d2c3cde	0.042050235
202	0xbd2b5634	-0.041830257
203	0xbd40b670	-0.047048986
204	0xbd2bc37b	-0.04193447
205	0x3d1cb947	0.03826263
206	0xbc677b8b	-0.014128576
207	0x3d12986a	0.035789885
208	0x3d2cbd71	0.042172853
209	0xbbff2b46	-0.007787141
210	0x3d087f64	0.033324614
211	0xbcb36418	-0.021898314
212	0x3d5a23ee	0.05325692
213	0x3caa020c	0.02075293
214	0xbd417502	-0.047230728
215	0xbc799fb4	-0.01523583
216	0xbc0563e1	-0.008141489
217	0x3d3cf04f	0.046127614
218	0xbb032116	-0.0020008734
219	0xbcc5a9f9	-0.0241289
220	0x3d253f30	0.040343463
221	0x3d0f5a4f	0.034998234
222	0xbc831a1a	-0.016003657
223	0xbcc3fe51	-0.023924978
224	0xbc4d265f	-0.012521355
225	0x3d65886c	0.056038305
226	0x3d26e3e2	0.04074467
227	0xbd5622a1	-0.05227912
228	0x3c96d44e	0.018411782
229	0x3c97b8dc	0.018520765
230	0xbc3aadb9	-0.011393958
231	0x3d0788a9	0.033089314
232	0x3cbb0a90	0.022832185
233	0xbcd74739	-0.026279079
234	0x3c48aa85	0.012247686
235	0xbc153db5	-0.00910895
236	0x3d6bce9d	0.05757009
237	0x3cecf4ff	0.028925417
238	0xbd084973	-0.03327317
239	0x3d544021	0.05181897
240	0x3ce6c076	0.028167944
241	0x389e43b9	7.5466414e-05
242	0xbd632923	-0.055459153
243	0xbd3b8e2f	-0.045789894
244	0x3d6a831f	0.057253953
245	0xbd6229d1	-0.05521566
246	0x3d3fdc8f	0.0468412
247	0xbca9fc2f	-0.020750133
248	0xbd010f83	-0.031508934
249	0xbd5d9210	-0.054094374
250	0x3c2d4c38	0.010577254
251	0x3c886bf8	0.016653046
252	0xbd0f4b76	-0.034984075
253	0x3d082535	0.03323861
254	0x3c3a432a	0.011368552
255	0x3d7d2ebb	0.061812144

exp_avg f4 [128, 45]
0	0xb990c8b3	-0.00027615353
1	0xb8d48af8	-0.00010134833
2	0xb728a080	-1.005095e-05
3	0xb758927b	-1.2908708e-05
4	0xb937cfcc	-0.0001752965
5	0xb84d8255	-4.899719e-05
6	0x3900b6ae	0.00012275085
7	0xb925110f	-0.00015741981
8	0xbae8d656	-0.0017764072
9	0xb9bbe961	-0.000358413
10	0xb849cb97	-4.8111742e-05
11	0xb7d1f7a3	-2.5030056e-05
12	0xb883ffdb	-6.2942236e-05
13	0xb864d476	-5.4557306e-05
14	0xba12bf50	-0.0005597966
15	0xba18624a	-0.0005812986
16	0xb9eb45ea	-0.00044874783
17	0xbaae39a4	-0.0013292325
18	0xb861368c	-5.369498e-05
19	0xb8829f45	-6.228549e-05
20	0xbaeb07fd	-0.0017931458
21	0x3912343a	0.00013943101
22	0xb9b60b75	-0.0003472228
23	0xb756def8	-1.2807308e-05
24	0xb79aa3f8	-1.8434584e-05
25	0xb8e98bf1	-0.00011136372
26	0xb6948ebb	-4.4273597e-06
27	0xb632f3b7	-2.6665928e-06
28	0xb92aaa8f	-0.00016276001
29	0xb6920c22	-4.3525515e-06
30	0x38fa1b42	0.00011926006
31	0xba2cdbcb	-0.0006594031
32	0xbae8d308	-0.0017763088
33	0xba90432d	-0.0011006348
34	0xb8872c53	-6.445558e-05
35	0xb890542e	-6.882135e-05
36	0x371bc024	9.283456e-06
37	0xb9578c88	-0.0002055635
38	0xb863ed10	-5.43418e-05
39	0xbb4b03ac	-0.003097753
40	0xb920b079	-0.0001532453
41	0x3704c20a	7.912991e-06
42	0xb8f904cc	-0.00011874139
43	0xb99dced5	-0.00030099475
44	0xb7a5e934	-1.9778126e-05
45	0x399432e5	0.0002826668
46	0xb8efee5a	-0.000114408045
47	0xb90cff28	-0.00013446494
48	0x3833f0fb	4.2901356e-05
49	0xb6c2bfc5	-5.8039755e-06
50	0xb885ef9e	-6.3865664e-05
51	0x39430c7c	0.000186013
52	0xb9d5643b	-0.00040701203
53	0xb9675cbf	-0.00022064427
54	0xb937a772	-0.00017514618
55	0x38cf7e14	9.894013e-05
56	0xbaf4fcc6	-0.0018691055
57	0xb8ced1a6	-9.8618955e-05
58	0xba285f69	-0.00064229086
59	0xb8a976ca	-8.080674e-05
60	0xb9143e47	-0.0001413758
61	0xba27174e	-0.0006374017
62	0xbb130893	-0.002243553
63	0xb6310635	-2.6378668e-06
64	0xb905dd4a	-0.00012766305
65	0xb8512e12	-4.987239e-05
66	0xb904c68d	-0.00012662467
67	0x38695ea6	5.5639677e-05
68	0x39281133	0.00016028136
69	0x385c01a2	5.2453608e-05
70	0x392c70bd	0.00016445197
71	0xb6d83a64	-6.444099e-06
72	0x3743f892	1.16807805e-05
73	0x369e122c	4.7108824e-06
74	0x37688674	1.3859582e-05
75	0xb8f1606e	-0.00011509737
76	0x385f4c65	5.323849e-05
77	0xbad2b8de	-0.0016076823
78	0xb9f5c1af	-0.00046874347
79	0xba1fe260	-0.0006099101
80	0xb9b5e001	-0.00034689906
81	0x398f401c	0.0002732285
82	0xb994278c	-0.00028258224
83	0xb8ef57c9	-0.00011412759
84	0xba0b7ce0	-0.0005321037
85	0xb9b33840	-0.0003418345
86	0xba03fc19	-0.0005034819
87	0x38201de6	3.8174818e-05
88	0xbaf97564	-0.0019032178
89	0x388334cb	6.2564e-05
90	0xb931e076	-0.00016963654
91	0x38ce0d9d	9.825381e-05
92	0x38869ec6	6.419192e-05
93	0xb8046063	-3.156102e-05
94	0xb906f777	-0.00012871424
95	0xb9a37003	-0.00031173238
96	0xb78d4051	-1.683846e-05
97	0xb9010263	-0.00012303288
98	0xba45aaa0	-0.0007540379
99	0xb7ceba02	-2.464373e-05
100	0xb94adbf3	-0.00019346159
101	0xb8dd28de	-0.00010545713
102	0xb7972881	-1.8019464e-05
103	0xb7bc0ca8	-2.241724e-05
104	0xb941cb9d	-0.00018481766
105	0xba0bbb11	-0.0005330304
106	0xba09943d	-0.00052482245
107	0xba92d718	-0.0011203019
108	0xb63f79af	-2.8532047e-06
109	0xb8733cbc	-5.7992278e-05
110	0xba60a549	-0.0008569551
111	0xb75bd95a	-1.3104023e-05
112	0x3923a8b1	0.00015607734
113	0x38256f56	3.9442755e-05
114	0x362e54c2	2.5977356e-06
115	0x38c565a6	9.4126255e-05
116	0xb63f1b8c	-2.8477252e-06
117	0x37ae6f7a	2.0794327e-05
118	0xb89a323f	-7.352651e-05
119	0xb636dd47	-2.7248914e-06
120	0xb9181e2c	-0.0001450709
121	0xb9a15158	-0.0003076892
122	0xba54a490	-0.000811168
123	0xba159a19	-0.0005706861
124	0xb94171d5	-0.0001844832
125	0xb936e6e2	-0.00017442883
126	0x3896391e	7.163196e-05
127	0xb80d36e5	-3.3668144e-05
128	0xb8c8f61f	-9.582587e-05
129	0xbaacc294	-0.0013180547
130	0xb8c26fa0	-9.271433e-05
131	0xb995a7f6	-0.00028544635
132	0xb912d2cc	-0.00014002173
133	0xb953b159	-0.00020188595
134	0xb9a7ee23	-0.00032030148
135	0x3974d5f2	0.00023349354
136	0xb8fb071c	-0.00011969937
137	0xb9298cf2	-0.00016169602
138	0xb83396bb	-4.2817304e-05
139	0x392bca81	0.0001638327
140	0x387dcb90	6.0509483e-05
141	0x390dd376	0.00013525583
142	0xb832de1d	-4.2645366e-05
143	0xb8d1c7c2	-0.000100031044
144	0xb9cdbc85	-0.00039241105
145	0x38eb9dbb	0.00011235053
146	0x3750943f	1.2432282e-05
147	0x37dc2789	2.6244454e-05
148	0x392df1c3	0.00016588629
149	0x391b0642	0.00014784283
150	0xb8bd17ee	-9.0166795e-05
151	0x3931e322	0.00016964649
152	0x37f7b288	2.952783e-05
153	0xb7d08d9e	-2.4861478e-05
154	0x38972aca	7.208211e-05
155	0xb98fe786	-0.00027447584
156	0x395b1e03	0.00020896648
157	0x38da48ae	0.00010408588
158	0xb90c2774	-0.00013366138
159	0x38a5c017	7.9035926e-05
160	0xb8aacc27	-8.144258e-05
161	0xb84c11b9	-4.8653896e-05
162	0xb90eeefe	-0.00013631207
163	0x3783d820	1.5717058e-05
164	0x380c91d2	3.3514407e-05
165	0xb931e3d7	-0.00016964912
166	0x37a177b0	1.924843e-05
167	0x38a3421c	7.7847595e-05
168	0xb8db4ed0	-0.00010457414
169	0xb902f7b1	-0.00012490038
170	0x37bbfcd6	2.2409873e-05
171	0xb839e303	-4.431886e-05
172	0x39a60bb0	0.00031670695
173	0xb894d3e2	-7.096656e-05
174	0xb931c439	-0.00016953134
175	0xb8fadf05	-0.000119624696
176	0xb8326ca3	-4.2539683e-05
177	0x39366d5c	0.00017397612
178	0x39dbbff5	0.00041913954
179	0xb91e4de0	-0.00015097065
180	0x360aa1eb	2.065785e-06
181	0xb65f000b	-3.3229614e-06
182	0xb8475fd3	-4.753454e-05
183	0x38851f2e	6.347742e-05
184	0x388c606b	6.6936795e-05
185	0xb794d3e8	-1.7741651e-05
186	0xb7c4e70c	-2.347261e-05
187	0xb4c3ea9b	-3.6492278e-07
188	0x38768d90	5.878281e-05
189	0xb83531ec	-4.3200256e-05
190	0xb6fd9c27	-7.558166e-06
191	0x3558fff8	8.0838754e-07
192	0xb812b90c	-3.498145e-05
193	0xb747170e	-1.1866692e-05
194	0xb2019670	-7.542994e-09
195	0xb6f52aac	-7.3065366e-06
196	0xb817c22e	-3.618205e-05
197	0x388fdcc9	6.859896e-05
198	0xb437928a	-1.7096514e-07
199	0xb877b50d	-5.9058006e-05
200	0x35fbfe6b	1.8775003e-06
201	0xb51fed50	-5.957745e-07
202	0xb8110b62	-3.4581295e-05
203	0xb6c3152b	-5.813917e-06
204	0xb39b38fc	-7.228115e-08
205	0xb8635ff7	-5.421039e-05
206	0x386bd135	5.6223205e-05
207	0x351674f1	5.6049527e-07
208	0xb7fbeaca	-3.0030864e-05
209	0x379a4956	1.839238e-05
210	0x378c1e3c	1.670338e-05
211	0xb1bfdd0d	-5.583962e-09
212	0x3609ae41	2.051602e-06
213	0xb4dc12da	-4.099191e-07
214	0xb7c8ed94	-2.3952489e-05
215	0xb748783d	-1.1948924e-05
216	0x373e8cb0	1.1357639e-05
217	0x38357008	4.32581e-05
218	0xb754d950	-1.2686782e-05
219	0xb8217427	-3.8493567e-05
220	0xb7c5530b	-2.35229e-05
221	0xb822712b	-3.8729206e-05
222	0xb8407ae0	-4.5890803e-05
223	0xb87603f9	-5.865467e-05
224	0xb757301c	-1.28262e-05
225	0xb993d6a8	-0.00028197956
226	0xb95f8e74	-0.00021320005
227	0xb97a1afb	-0.00023851909
228	0xb960817f	-0.00021410546
229	0x39a4e37c	0.00031450007
230	0xba21248c	-0.00061471085
231	0x38ce2741	9.830157e-05
232	0x383c3e5c	4.488077e-05
233	0x3a4ef758	0.00078951335
234	0x394a9359	0.00019319112
235	0x39145fae	0.00014150023
236	0x39025962	0.00012431064
237	0xb994d934	-0.0002839059
238	0x38e50fba	0.000109225
239	0x398fb830	0.00027412316
240	0x384c1636	4.8658076e-05
241	0xb9a6bc7c	-0.0003180242
242	0x39dce710	0.00042133825
243	0xb59fd98c	-1.1909738e-06
244	0xb8113fcb	-3.4630106e-05
245	0x3a35a5b4	0.0006929294
246	0xb93a9856	-0.00017795092
247	0xb92588d6	-0.00015786602
248	0x380ed340	3.405218e-05
249	0x393ee5fd	0.0001820549
250	0xb784fedd	-1.5854306e-05
251	0xb66bff61	-3.516638e-06
252	0xb817c699	-3.6186164e-05
253	0x38e4053f	0.000108728644
254	0xb79b24f7	-1.8494653e-05
255	0x377ac234	1.4946378e-05

exp_avg_sq f4 [128, 45]
0	0x34bc000f	3.5017771e-07
1	0x3500eeb7	4.803109e-07
2	0x346c1d78	2.1989933e-07
3	0x346288ea	2.1097699e-07
4	0x348f3e37	2.6681093e-07
5	0x33d19bbd	9.7606495e-08
6	0x356e004a	8.866233e-07
7	0x34877720	2.5232384e-07
8	0x3582a4e4	9.733744e-07
9	0x35268a8f	6.204145e-07
10	0x33bccafa	8.7913534e-08
11	0x34d76497	4.012006e-07
12	0x328e1666	1.6541161e-08
13	0x325cd34d	1.285373e-08
14	0x34239f5f	1.5238537e-07
15	0x34263db4	1.5482402e-07
16	0x359aefe0	1.1543707e-06
17	0x36605646	3.3428819e-06
18	0x317b05d4	3.652862e-09
19	0x329e1693	1.8403886e-08
20	0x351d0960	5.85007e-07
21	0x35008cf5	4.7888835e-07
22	0x34795cbb	2.3223667e-07
23	0x33d0d9e3	9.725388e-08
24	0x3235f165	1.0590473e-08
25	0x3374d565	5.700476e-08
26	0x2e7e55ee	5.7829234e-11
27	0x32f1f601	2.8167962e-08
28	0x32a0eaf5	1.8733298e-08
29	0x2e2a9e15	3.879393e-11
30	0x342e8a44	1.6255314e-07
31	0x34dcf3c2	4.115555e-07
32	0x355d12f5	8.23565e-07
33	0x3502866a	4.862437e-07
34	0x3539037c	6.892294e-07
35	0x35291024	6.2980894e-07
36	0x3398f596	7.1227234e-08
37	0x356beaa1	8.788575e-07
38	0x3190f209	4.218468e-09
39	0x37046a34	7.89254e-06
40	0x34c652cf	3.6940625e-07
41	0x32983ba6	1.7722254e-08
42	0x35c4daf1	1.4666858e-06
43	0x35c3c8a8	1.4587031e-06
44	0x308e5b4e	1.035781e-09
45	0x359a550e	1.1498648e-06
46	0x35e0a805	1.6738201e-06
47	0x3572684a	9.0303786e-07
48	0x347246b4	2.2563728e-07
49	0x355fa686	8.3316297e-07
50	0x358c9abd	1.0475848e-06
51	0x355a0a42	8.1226256e-07
52	0x35c26682	1.448396e-06
53	0x353cc6e1	7.0324865e-07
54	0x35fabbcb	1.8681106e-06
55	0x359e4b06	1.1793752e-06
56	0x36379bb8	2.7359765e-06
57	0x3497c480	2.8268914e-07
58	0x34a6ae48	3.1046716e-07
59	0x34d09549	3.8851638e-07
60	0x34d1fdbb	3.9113897e-07
61	0x36a420a5	4.891381e-06
62	0x370f5579	8.543365e-06
63	0x2f016114	1.1766971e-10
64	0x34d84a19	4.0287048e-07
65	0x351de8c9	5.8825805e-07
66	0x35da7804	1.6277195e-06
67	0x351f6603	5.938056e-07
68	0x349af088	2.8859745e-07
69	0x3320b26f	3.7415187e-08
70	0x34219468	1.5048283e-07
71	0x2faf35fb	3.187067e-10
72	0x33d38f5e	9.8515315e-08
73	0x33ea4f3b	1.0910886e-07
74	0x307ff6b3	9.311904e-10
75	0x354b6d95	7.5782856e-07
76	0x3555a098	7.958238e-07
77	0x365c945a	3.2868907e-06
78	0x360a63ca	2.0621687e-06
79	0x35bc6158	1.4035422e-06
80	0x35cc3869	1.5215602e-06
81	0x35772eff	9.208306e-07
82	0x35fb2ace	1.8713415e-06
83	0x367b0d86	3.7409786e-06
84	0x3703d976	7.85884e-06
85	0x3677bbac	3.6915108e-06
86	0x36776b6e	3.68684e-06
87	0x35ce8ebc	1.5389737e-06
88	0x36bc5e81	5.6138383e-06
89	0x370915be	8.170899e-06
90	0x355f1b98	8.311413e-07
91	0x3572ba2a	9.042293e-07
92	0x34f06c1f	4.4782152e-07
93	0x340ae9d7	1.2937322e-07
94	0x34d04fec	3.880117e-07
95	0x34da2144	4.0629868e-07
96	0x3547dafc	7.445194e-07
97	0x360216a1	1.9384681e-06
98	0x353755c7	6.8297635e-07
99	0x34d8d215	4.038599e-07
100	0x353ad7ec	6.960461e-07
101	0x35e91c39	1.7368067e-06
102	0x3470900e	2.2404149e-07
103	0x33e96157	1.0867614e-07
104	0x34ad6055	3.2293852e-07
105	0x348aa883	2.5827111e-07
106	0x36636fe7	3.3890772e-06
107	0x365c08c4	3.2787657e-06
108	0x2f0573eb	1.2137462e-10
109	0x350979e3	5.1213846e-07
110	0x35094c31	5.114735e-07
111	0x35b936f2	1.3799565e-06
112	0x34edd071	4.429635e-07
113	0x349a75c1	2.8770413e-07
114	0x32f5ec6c	2.8629266e-08
115	0x3472f7af	2.2628113e-07
116	0x2ee34822	1.0335578e-10
117	0x33cd980b	9.573713e-08
118	0x33d76bb8	1.00313116e-07
119	0x2f1dc26f	1.4348144e-10
120	0x350c4c96	5.226551e-07
121	0x353d4dcb	7.052119e-07
122	0x3617554b	2.25504e-06
123	0x35b0f6aa	1.318481e-06
124	0x359639a2	1.1192644e-06
125	0x355d79bc	8.250606e-07
126	0x35012e2f	4.812345e-07
127	0x35722366	9.0203537e-07
128	0x3650c00d	3.1106204e-06
129	0x36be2c50	5.6676e-06
130	0x35015bb8	4.8189713e-07
131	0x367581a2	3.6583301e-06
132	0x3485195e	2.4791638e-07
133	0x3674be9c	3.6469783e-06
134	0x36df554a	6.655847e-06
135	0x35970462	1.1251652e-06
136	0x358399bd	9.805004e-07
137	0x354da99c	7.6615265e-07
138	0x345660ac	1.9965472e-07
139	0x34e95b88	4.346623e-07
140	0x34ee5ba7	4.439764e-07
141	0x35ad4c84	1.2911773e-06
142	0x36200742	2.3846083e-06
143	0x35520765	7.8241857e-07
144	0x358aa03c	1.0328436e-06
145	0x351b085c	5.7754164e-07
146	0x35c1fe82	1.4453692e-06
147	0x34b02590	3.2809885e-07
148	0x34990eba	2.8509186e-07
149	0x34d0da75	3.8901968e-07
150	0x34c3b3a4	3.6452286e-07
151	0x36b10f2a	5.2767764e-06
152	0x36c2778d	5.795568e-06
153	0x30d61263	1.5575775e-09
154	0x34ccef50	3.8172084e-07
155	0x34df0f88	4.1548287e-07
156	0x35a66e44	1.2400055e-06
157	0x34f3c015	4.5402035e-07
158	0x348e2046	2.6473043e-07
159	0x3322b3f4	3.788223e-08
160	0x33c8960b	9.3405184e-08
161	0x31828b51	3.7993364e-09
162	0x340e3c51	1.3246724e-07
163	0x33d195c9	9.759567e-08
164	0x310a0dba	2.0089446e-09
165	0x3505d5c7	4.985745e-07
166	0x352f3686	6.527192e-07
167	0x35dda0f0	1.6512622e-06
168	0x3605e471	1.9951515e-06
169	0x358adb31	1.0345594e-06
170	0x36072fa5	2.01443e-06
171	0x35149578	5.53518e-07
172	0x35f8344c	1.849266e-06
173	0x34fb84d6	4.6849044e-07
174	0x36f7f943	7.3901915e-06
175	0x365c9db1	3.2874343e-06
176	0x358f2369	1.0664636e-06
177	0x36049189	1.9754245e-06
178	0x36b7cc25	5.4775905e-06
179	0x370c3bc9	8.35857e-06
180	0x2f2b2fac	1.5569296e-10
181	0x2f5fd11b	2.0356021e-10
182	0x316bc3db	3.4308332e-09
183	0x31eeb49d	6.947245e-09
184	0x32190026	8.905806e-09
185	0x307929bf	9.0644997e-10
186	0x30c6e219	1.4470657e-09
187	0x2e7cdf02	5.7496237e-11
188	0x31c204e2	5.646698e-09
189	0x314bf045	2.9676965e-09
190	0x2fdcdb24	4.0173476e-10
191	0x2fa7de41	3.0535044e-10
192	0x3116491e	2.1869435e-09
193	0x3020f212	5.8551664e-10
194	0x2c8ce747	4.0047163e-12
195	0x2fe37b66	4.137874e-10
196	0x311da3ae	2.2939548e-09
197	0x3292999c	1.706649e-08
198	0x2e65cf82	5.2252876e-11
199	0x31a5327f	4.8078728e-09
200	0x2f82c88d	2.3789362e-10
201	0x2ebdbb28	8.6279706e-11
202	0x3113ece8	2.152598e-09
203	0x2fcb0ee0	3.6936054e-10
204	0x2e4895cd	4.5607785e-11
205	0x318fee57	4.188944e-09
206	0x3198efd5	4.451048e-09
207	0x2eb6ceec	8.3131585e-11
208	0x3100f714	1.87669e-09
209	0x3082abba	9.507553e-10
210	0x31ae3b98	5.0708415e-09
211	0x2d9d2923	1.7867102e-11
212	0x3030533e	6.414672e-10
213	0x2f25dc82	1.5085003e-10
214	0x30b456f0	1.3121433e-09
215	0x3037ee43	6.69136e-10
216	0x3080af57	9.36306e-10
217	0x3179df84	3.6361323e-09
218	0x3081266f	9.396909e-10
219	0x312c6803	2.5088418e-09
220	0x30b06792	1.2835122e-09
221	0x329a3580	1.7952289e-08
222	0x315f9bd0	3.253934e-09
223	0x31a3758d	4.7572883e-09
224	0x318d8df3	4.119778e-09
225	0x352558c5	6.1596467e-07
226	0x35ea27bd	1.7445924e-06
227	0x3565da9a	8.5627255e-07
228	0x3497235d	2.8151672e-07
229	0x35545941	7.9106036e-07
230	0x35870610	1.0060048e-06
231	0x3587bb52	1.0112801e-06
232	0x35e86b60	1.7316597e-06
233	0x359ebdfe	1.1827212e-06
234	0x35eece2b	1.7792385e-06
235	0x359f55ea	1.1871427e-06
236	0x3609e7ab	2.054944e-06
237	0x34df21aa	4.156148e-07
238	0x34b38ac4	3.3442313e-07
239	0x35128c14	5.459308e-07
240	0x34f711dd	4.6020332e-07
241	0x36c38eec	5.828091e-06
242	0x37076d08	8.072013e-06
243	0x2f0685d6	1.2234777e-10
244	0x34d94026	4.0466074e-07
245	0x354e840b	7.693313e-07
246	0x35c76ac4	1.4857728e-06
247	0x3559596a	8.0968914e-07
248	0x3417b2f6	1.4128076e-07
249	0x33a8f3a8	7.8674304e-08
250	0x34129ff9	1.3655507e-07
251	0x2f8db011	2.5772853e-10
252	0x33d69d7b	9.993797e-08
253	0x341c991b	1.4584332e-07
254	0x3086e839	9.815785e-10
255	0x3557d75c	8.040713e-07

exp_avg f4 [128]
0	0xbb83b76c	-0.0040196683
1	0xbb5199b4	-0.0031982483
2	0xbb14ea36	-0.0022722608
3	0x3908d406	0.00013048956
4	0xb8cebe6e	-9.858316e-05
5	0x39f74ee6	0.00047170295
6	0x3a751f23	0.0009350648
7	0xb75f846f	-1.332267e-05
8	0x3b1d6c8e	0.0024021002
9	0x38d3e34d	0.00010103602
10	0xba617110	-0.00085999165
11	0x3b9364e6	0.004498112
12	0x3b396a70	0.0028292201
13	0x3b1d8183	0.0024033494
14	0x3bdb2069	0.006687213
15	0xba3f24a2	-0.00072915305
16	0x3aed5520	0.0018107034
17	0xba5ef144	-0.00085045793
18	0x399050e6	0.00027526094
19	0x3ad4c8ab	0.001623412
20	0xbaad9d5a	-0.0013245747
21	0xbbf1cf24	-0.0073794294
22	0x3a2d19f8	0.0006603296
23	0x3bcd3d69	0.006263424
24	0xba077801	-0.0005167723
25	0x3b30ee80	0.0026997626
26	0x3ba0617a	0.0048944326
27	0xba868843	-0.0010263998
28	0x3b2a3ea3	0.0025977276
29	0xbc05df34	-0.008170892
30	0xbad8c4c8	-0.0016538138
31	0xb9693033	-0.00022238567
32	0xb86535c0	-5.4647913e-05
33	0x3ae68f7e	0.0017590371
34	0xbae2b0fe	-0.001729518
35	0xbac6112a	-0.0015111316
36	0xba27710e	-0.0006387391
37	0x3b236c2e	0.0024936306
38	0xb9d3e038	-0.00040412112
39	0x3a2ac2ab	0.0006513993
40	0x39aa8623	0.00032524866
41	0x39b2303d	0.00033986746
42	0x3b9609eb	0.004578819
43	0xba1fc736	-0.00060950534
44	0x39ebdae8	0.0004498579
45	0x3a5d4c2e	0.00084418326
46	0xba1f1b22	-0.0006069412
47	0x3ab7775e	0.0013997366
48	0xbb094d98	-0.002095079
49	0x39a9f14d	0.00032413975
50	0x3bbf0873	0.0058298646
51	0x3b151909	0.0022750518
52	0xba87f63a	-0.0010373064
53	0x39e3be46	0.0004343858
54	0x38b29f08	8.517323e-05
55	0xbb010d0e	-0.001969162
56	0xbafaa1c4	-0.0019121696
57	0xba37b483	-0.00070077943
58	0x3ad499ef	0.0016220192
59	0xbbeb7693	-0.007185766
60	0x3b866c21	0.0041022454
61	0xb811c1f7	-3.4751338e-05
62	0x3b201506	0.0024426593
63	0x38ec4f7e	0.000112681635
64	0x3ad0ab42	0.001592018
65	0x3b1054b6	0.0022023148
66	0xba94dbc1	-0.0011356996
67	0x3990ade1	0.0002759537
68	0x3c187786	0.00930584
69	0x3c4c2c5c	0.012461748
70	0xbb415c3c	-0.002950444
71	0xba9eec6f	-0.0012124906
72	0x38dd9f1c	0.000105677376
73	0x3bdbdba2	0.006709532
74	0x3b86b45f	0.0041108574
75	0xba90448d	-0.0011006758
76	0xbac134a7	-0.0014740423
77	0x3a82ee17	0.0009989169
78	0xba24e213	-0.0006289791
79	0xba795f11	-0.0009512762
80	0x3b658015	0.003501897
81	0xb990749a	-0.00027552695
82	0xba027419	-0.00049764063
83	0xbb761d41	-0.0037554058
84	0xbb1487ac	-0.0022663875
85	0xbb2f82c3	-0.002678082
86	0xba82b385	-0.0009971714
87	0xbb354f34	-0.0027665617
88	0x3aae5514	0.0013300502
89	0xba85fe01	-0.0010222794
90	0xba9b1690	-0.0011832286
91	0x39aaf919	0.0003261052
92	0xbac62d70	-0.0015119743
93	0xb9cf6f76	-0.00039565162
94	0xbaf0c622	-0.0018369595
95	0x3b3e8ede	0.0029076855
96	0x39de050a	0.00042346894
97	0x3b022e8f	0.0019864177
98	0x3a531768	0.0008052499
99	0xb8906918	-6.88603e-05
100	0xba020c69	-0.00049609557
101	0x3bd7670b	0.006573563
102	0x39064bf4	0.0001280753
103	0xba5ceafe	-0.00084273505
104	0xbb994e1c	-0.004678501
105	0x3abcc98a	0.0014403325
106	0x3af6e0ec	0.0018835342
107	0xb9928081	-0.00027943033
108	0x3b338097	0.0027389878
109	0xb9d56a38	-0.00040705665
110	0xba1482b4	-0.0005665228
111	0xba98d8fa	-0.0011661344
112	0xba73303e	-0.0009276903
113	0x3c5116c4	0.012761775
114	0x3ba08b86	0.004899445
115	0x3abb9705	0.0014311975
116	0x3a02a674	0.000498391
117	0x3a3c9a1c	0.0007194595
118	0xba0ba92c	-0.0005327638
119	0x39642168	0.00021756219
120	0xb8920eee	-6.9646034e-05
121	0x3b3206af	0.0027164628
122	0x39374c2e	0.00017480619
123	0xbafb4e80	-0.0019173175
124	0xbab2dda9	-0.0013646382
125	0x3b42528d	0.0029651255
126	0xbad29a45	-0.0016067704
127	0xb9bcfb64	-0.00036045455
