models/regression_models/ML_including_industry_feature/multi_dimension_status/version_best/checkpoints/epoch=79-step=2480.ckpt (torch, 209779 bytes, 24 tensors)

network.0.weight f4 [128, 45]
000000 5b f0 1e 3d 39 db e3 3c f3 85 84 3c 2e c3 cd 3b
       0.03880344 0.027814494 0.016177153 0.0062793707
000010 8c 49 c0 bb bb 7b a1 3d 94 9e 5c bd 37 9f 0e 3d
       -0.0058681425 0.07884928 -0.05386217 0.034819808
000020 fa 43 55 bc 58 a6 80 bc 20 c4 22 bc 0a 7d 85 3d
       -0.013016695 -0.015704319 -0.009934455 0.0651799
000030 17 37 a9 bc b2 76 8f bb ad d4 85 bc f0 7c 10 3c
       -0.020656152 -0.0043781633 -0.016336763 0.00881885
000040 fd 8a 41 3d 5d 77 88 bb 7c 17 b2 3a 63 20 4a bb
       0.04725169 -0.00416462 0.0013587321 -0.0030842058
000050 63 c5 3f bb 37 f2 02 bc 38 74 88 3c fe ad 33 bb
       -0.0029261939 -0.007992319 0.01665698 -0.002741694
000060 c3 c8 87 3b ad 42 6f 3c ab c7 a8 3c f1 18 37 bc
       0.0041438057 0.014603299 0.020603022 -0.01117538
000070 48 73 5c bc 2b ac d3 3c ca 5d 85 b8 80 46 e1 3b
       -0.01345522 0.025838932 -6.359404e-05 0.0068748593
000080 55 43 4f bc c1 93 83 3d bb 48 38 bd c9 2a 82 3d
       -0.012650331 0.06424666 -0.044991236 0.06355817
000090 dd fd 2f bd ab b3 c3 bb b7 5a 8f bc f8 55 9f bc
       -0.042966712 -0.005972346 -0.01749931 -0.019450173
0000a0 a0 47 89 3d 9e 76 97 bc 58 e4 8c bc be 24 92 3b
       0.067031145 -0.018489178 -0.017198727 0.0044599464
0000b0 cc 7f 40 3d cb 87 04 3d df e6 01 3e 3d d1 a6 bd
       0.046996877 0.032356065 0.12685727 -0.08145378
0000c0 aa 8f 2d 3d 8e 48 d7 3d 10 d0 0c 3c 00 10 64 3d
       0.042373337 0.105118856 0.008594528 0.05567932
0000d0 a2 bb 8c 3d e8 1d 3f 3d 83 70 34 bd 3b 8f b8 3c
       0.068717256 0.04665938 -0.044052612 0.022529235
0000e0 de ff 89 3c 11 7f 5f bd 90 af a0 bd 22 ce c1 3d
       0.01684564 -0.05456454 -0.07845986 0.09463145
0000f0 88 53 21 bd 04 b9 4a 3d 18 33 b6 3d 0d 64 1e bb
       -0.039386302 0.04949285 0.08896464 -0.0024168522
000100 84 ea 67 3d cf ff ef 3d a0 9b 9c 3c cf 35 93 bd
       0.056620136 0.117187135 0.019117177 -0.071879975
000110 90 d3 19 3d d9 8c 50 b7 58 34 1b 3d b0 ef d7 ba
       0.037555277 -1.243056e-05 0.037891716 -0.0016474631
000120 7e ce 8f 3c 28 74 32 bd 3a c2 1e bb 21 6d 31 3d
       0.017554518 -0.043567806 -0.0024224655 0.043316964
000130 ee b4 59 bd 7b 00 d2 3d df 03 96 3d 26 99 1b 3d
       -0.053151064 0.10253998 0.07324957 0.03798785
000140 e5 cc 8d 3d 69 f5 88 3d 7e 9e 9a 3c 4a 26 7e bc
       0.06923846 0.06687433 0.018874403 -0.0155120585
000150 f6 86 f2 3d b0 f5 4e 3d f4 c3 d5 bd a3 6b ae 3d
       0.11842148 0.050527275 -0.10437766 0.08516624
000160 14 3a ad 3c c0 25 31 3d b1 a5 14 3e f3 23 26 be
       0.021145858 0.04324889 0.14516331 -0.16224651
000170 49 52 38 3c 05 cd 75 3d 19 dc 0c bd ac 4a 42 3d
       0.011250087 0.060009975 -0.03438959 0.047434494
000180 a2 34 37 bd a7 83 9a 3b c6 42 92 3d 58 c7 81 bd
       -0.04472793 0.004715401 0.07141642 -0.0633685
000190 f1 32 c3 bd 49 0f 7e 3c 28 c9 25 bc 25 fe 07 bd
       -0.09531201 0.015506574 -0.01011876 -0.033201355
0001a0 41 3e 04 bd 6c 7c 2e 3d 86 58 d8 3d ce 82 e8 bc
       -0.032285932 0.042599127 0.105637595 -0.028382685
0001b0 f0 10 41 3b c8 aa a1 3c 83 0a a0 bd 7d 32 c2 bc
       0.0029459558 0.019734755 -0.07814505 -0.023705715
0001c0 a2 c8 8b bd 8d ae e9 bc 87 52 9d 3a d6 71 df bc
       -0.06825377 -0.028525615 0.0012002744 -0.02727596
0001d0 77 82 41 3b 9b c7 e5 3c 27 38 4e 3d 8f b1 41 3b
       0.0029527226 0.02804928 0.05034652 0.0029555296
0001e0 cf cb 8f 3d a0 50 da 3d a8 14 c4 3d 76 3d 8a bd
       0.07021295 0.10659909 0.09574252 -0.06750004
0001f0 e2 81 36 3d 01 46 fa 3c 56 c4 95 bc 55 0d d8 3d
       0.04455746 0.030550959 -0.018282097 0.10549418
000200 5d 2e 39 3d 9d 1e 33 3d 1c d6 0b 3d ca 8a 72 3d
       0.04521023 0.043730367 0.034139737 0.05921439
000210 7f 39 53 3d 04 ae d0 bd ee 80 df 3d 28 6d 85 3c
       0.051568504 -0.10189441 0.10913263 0.016287401
000220 33 c7 85 3c 03 c1 70 3d 0b 84 ba 3d ca 67 0f 3c
       0.016330337 0.05877782 0.091072164 0.008752773
000230 30 d4 84 3c 2a 1d dc bc ea 3d ac bb ee 6a 29 3c
       0.01621446 -0.026869375 -0.005256404 0.010340435
000240 ea 90 b7 3d 93 88 b8 bd 9a 7d ae 3d 40 49 0f 3d
       0.08963187 -0.090104245 0.0852005 0.034981966
000250 72 f3 65 3a ed 13 c6 3c 1d 76 4a bd 69 33 c9 3c
       0.0008771933 0.024179423 -0.049429048 0.024560647
000260 d6 68 45 3d 4d 23 73 ba a2 95 25 3c 98 14 c9 3d
       0.048195682 -0.00092749746 0.010106476 0.09818381
000270 50 c2 91 bd 8e 6c 56 3d ec 07 11 bc 9d dd f1 bc
       -0.0711714 0.05234962 -0.008851986 -0.029524619
000280 a6 a8 0f bd f8 8c 6c 3c aa 07 8e bd f5 d0 ad bd
       -0.035072945 0.014437906 -0.069350556 -0.08487121
000290 10 65 00 bb f4 7f 3d 3d 7d 0c 8b 3d 64 44 cb 3d
       -0.0019591488 0.046264604 0.06789491 0.09925154
0002a0 50 72 2b 3d 67 f5 5f 3c 97 ec 0a 3c 2b fa 93 bc
       0.041857064 0.013669348 0.008479259 -0.018063625
0002b0 40 fd 87 bb 56 82 ce 3d 6d 5e d9 3d 36 83 d2 bd
       -0.004150063 0.10083453 0.106137134 -0.10278933
0002c0 db 7a ad bd 1c 51 23 3d 51 79 b5 ba 18 d3 0e 3e
       -0.084706984 0.039872274 -0.0013845359 0.13947713
0002d0 4d 0c 8b 3b 8d a0 b5 bd 9b d7 aa bc 01 ee 5c 3d
       0.0042434097 -0.08868513 -0.020854762 0.053937916
0002e0 5e 9e 00 3d ce f4 0e bd 78 82 48 3d 96 fe cc 3d
       0.03140103 -0.034901433 0.04895255 0.10009496
0002f0 c1 73 34 ba 16 8b fb 3d f5 6f 81 bc 9a 85 ab 3d
       -0.0006883704 0.12282388 -0.015800456 0.08375092
000300 db d7 91 38 5a be 4d 3c 11 49 31 bd 3b e5 6b bd
       6.954345e-05 0.01255759 -0.043282572 -0.057591658
000310 c7 19 aa 3d 6d 3c a7 bd 67 2a dd 3b 58 36 a1 bd
       0.08305698 -0.08165822 0.0067494395 -0.078716934
000320 c4 49 a3 3c 7b d1 59 bc e2 17 b2 bc 0a 3d 96 3d
       0.019932635 -0.013294573 -0.021739904 0.07335861
000330 3f 69 b8 3d 82 85 99 bd a2 b3 a3 3b ff 8f 59 bd
       0.09004449 -0.07496168 0.004995779 -0.05311584
000340 a2 bd a0 3d 6e 7f 92 3b 46 83 96 3c 86 7c 8b bd
       0.078486696 0.004470757 0.018373143 -0.0681086
000350 15 a5 cc 3d ec 80 6a bd 04 0e f0 3a c1 1f 4b 3b
       0.099924244 -0.057251856 0.0018314724 0.0030994269
000360 9b af 33 bb cf c6 c1 bd cb cc 72 bc 6a f9 0d 3c
       -0.0027417901 -0.09461748 -0.014819334 0.008665422
000370 72 f4 50 ba 78 47 26 3e f4 19 39 3d 91 77 82 bd
       -0.00079709955 0.162382 0.045190766 -0.06370462
000380 02 30 62 3d fa df dd bc 97 0f 1b bd 73 12 d4 ba
       0.055221565 -0.02708434 -0.037856665 -0.0016179815
000390 52 e0 6c bd 3c 7d 8c 3c 41 2f 07 3e 1d fa 41 bc
       -0.057831116 0.01714956 0.1320162 -0.011839417
0003a0 85 be a7 3d 9d d9 2a bd 60 18 68 3d dc 81 ae 3d
       0.081906356 -0.04171144 0.05666387 0.085208625
0003b0 b3 5e 0d 3b f4 6d 73 3d 5f 7f b3 3c 1e 7a b5 bd
       0.0021571338 0.05943103 0.021911321 -0.08861183
0003c0 2f 1e 68 bd 85 58 bf bd 3d 7a c0 3d 91 13 c8 ba
       -0.05666941 -0.09343056 0.09398315 -0.001526462
0003d0 e5 55 bc 3c db 68 a8 bc d6 26 6f 3d 52 bb ae bc
       0.022990176 -0.020557811 0.058386646 -0.021329556
0003e0 d0 c3 e7 3b 60 c2 0a bd 99 03 5c 3c a8 64 9b 3b
       0.007072903 -0.033876777 0.013428592 0.004742224
0003f0 db d2 38 bd b5 07 ef bc 76 7d c5 ba d5 68 17 3d
       -0.045122962 -0.02917848 -0.0015067297 0.03696521

network.0.bias f4 [128]
000000 2b 13 69 bc 5c 5a e5 bb 8d cc 05 3d b0 31 c7 3d
       -0.014225761 -0.006999297 0.032665778 0.09726274
000010 e7 06 d8 3c be ce e3 3d a1 83 82 3d e6 c7 16 bd
       0.026370479 0.11123417 0.063727625 -0.03681173
000020 b4 29 9f 3d fd 2b 04 bd cb 2e a0 3d e6 56 e4 3c
       0.07771626 -0.032268513 0.07821425 0.027873468
000030 5b 4c ea 3d 8c aa 69 bd e9 9f c5 3d 0d 49 df 3d
       0.11440345 -0.05704741 0.09649641 0.10902605
000040 f8 79 b9 bd 4c 3f 33 bd 14 2d 3c 3d 21 e1 7e 3d
       -0.09056467 -0.043761536 0.045941427 0.06222642
000050 1f 63 2f bd be ff 50 bd 8f 74 86 bd a3 4e 0f 3d
       -0.04281914 -0.051025145 -0.065652005 0.034987103
000060 72 d2 ee 3d 25 86 39 bd 02 93 aa bd a3 16 ae 3d
       0.11661233 -0.045293946 -0.08328821 0.08500411
000070 cd 48 3d bd 45 5b 5f 3c 0c 60 8e bd 9e ab f5 bb
       -0.046212006 0.0136326 -0.06951913 -0.007497265
000080 67 83 6e bd 93 3e 84 bd f1 9b 85 bd 56 ad c6 3d
       -0.058230784 -0.064572476 -0.06523884 0.0970103
000090 89 0a cf bc 5a f3 df 3b b4 9b 0a bd 22 b1 08 3e
       -0.025273578 0.0068344297 -0.033839896 0.13348821
0000a0 d3 a7 a5 bd 7f cd 25 bc a9 80 af 3d 5e 73 aa 3d
       -0.080886506 -0.010119795 0.08569462 0.08322786
0000b0 7c dd eb 3d f8 8f ec bc fb 4a 93 3c d6 71 fe 3d
       0.11516854 -0.028877243 0.01798009 0.12424056
0000c0 a3 cc 7d 3d d0 70 ae 3d 1e f7 3a 3d fd 65 90 3d
       0.061962735 0.08517611 0.045645826 0.07050703
0000d0 41 e3 04 3e d8 55 97 bb 94 2a 60 bd ac 69 28 3c
       0.12977315 -0.0046183877 -0.054728106 0.0102791
0000e0 c6 f9 9a bd d6 42 a5 3d f3 25 b7 ba 15 78 8a bd
       -0.07567172 0.080693886 -0.0013973102 -0.06761185
0000f0 44 c1 45 bd 48 61 d9 bc 14 74 2c bd 50 e6 0e bd
       -0.048280016 -0.026535645 -0.04210289 -0.034887612
000100 15 39 b1 bd f9 4d 9a 3d d4 6f 2d bd 29 55 26 3e
       -0.08653466 0.07534403 -0.042342976 0.16243424
000110 96 ec c0 bc c0 af b9 3d cc 48 8c bd 48 7e 8e 3d
       -0.023550313 0.09066725 -0.068498224 0.0695768
000120 bf c7 71 3d a3 16 04 3e 54 fc fa 3d c3 33 c1 3d
       0.059028383 0.1289926 0.12255159 0.09433701
000130 c7 16 0f 3e f8 c1 0f 3e 58 d1 e8 3b 78 76 68 bd
       0.13973533 0.14038837 0.007105034 -0.056753606
000140 3b 7f 15 3d 12 7f 5f bd a7 3c 7e bd 5c 0a 49 bb
       0.03649829 -0.054564543 -0.06206956 -0.003067634
000150 d8 c1 47 bd 4c 87 36 3d 5e 94 c4 3d 8e 8a 15 bd
       -0.04876885 0.044562623 0.09598611 -0.03650909
000160 51 da 1d bd f1 91 bd bc a2 55 29 bd a5 4b 04 3e
       -0.03853828 -0.02314088 -0.04134143 0.12919481
000170 a8 a2 ad bc c9 9e be bc be b8 dd bd 82 17 0d 3e
       -0.021195725 -0.023269074 -0.108262524 0.13778499
000180 ac 7b 33 bd 07 81 0b 3e 70 00 fb 3d e1 e7 79 bd
       -0.043819115 0.13623439 0.12255943 -0.061012153
000190 87 db 69 bd 8c af 3b bc d2 41 e3 3d 0f ec 4c 3c
       -0.057094123 -0.011455428 0.110965386 0.012507453
0001a0 4e 99 06 bd 65 12 27 bd 41 4f c7 3c e8 e9 c4 3d
       -0.032861046 -0.040789027 0.024329783 0.096149266
0001b0 ca b8 a1 3d 87 00 d4 bc 26 bf 41 3c ca 43 9c bd
       0.07896574 -0.025879158 0.0118253585 -0.07630117
0001c0 e0 60 1b 3d 67 c8 7b bd ed f2 7f 3d 73 33 3a b9
       0.037934184 -0.061470415 0.06248753 -0.00017757509
0001d0 c8 91 86 bd 15 44 f2 bb 5e d0 ae 3d f9 80 97 3d
       -0.06570774 -0.00739337 0.08535837 0.073976465
0001e0 1f aa 9a 3d 56 cb 7c 3d 09 0c 49 bd 6a f2 15 3e
       0.07551979 0.061717354 -0.049083743 0.14643255
0001f0 90 db 51 bd ea 79 2c 3d c1 a5 dd 3c 13 be 90 3d
       -0.05123478 0.042108454 0.027056577 0.07067504

network.2.weight f4 [64, 128]
000000 7e 36 c1 3b 72 86 0b 3b 8a 68 c8 3b 37 5a d6 38
       0.0058963886 0.0021289852 0.0061159777 0.00010221119
000010 94 84 cd bb 38 e7 90 bb d0 76 d2 3b 37 e7 0a 3b
       -0.006271908 -0.0044220947 0.006422855 0.0021194944
000020 6d 4b 26 ba 7d b8 03 39 aa f7 8e 3b e9 67 fb 38
       -0.0006343637 0.00012561861 0.00436302 0.000119879674
000030 b4 f5 86 bb 0b e2 0f 3b ae 3a d7 3b c2 9a 1d 3c
       -0.0041186456 0.00219548 0.0065682745 0.009619417
000040 75 a5 41 3b 3c a6 9c 3a 24 3b 4e 3b 48 33 a4 bb
       0.0029548083 0.0011951397 0.0031468356 -0.005010996
000050 93 d3 d5 3b 61 86 d6 ba 43 1e cc b9 f4 aa 33 3b
       0.0065254658 -0.0016366952 -0.0003893246 0.0027415128
000060 67 49 6a 3a 07 30 09 bb 3e de 0b ba 09 72 99 3a
       0.00089373294 -0.0020933168 -0.0005335546 0.0011706959
000070 d4 e7 5e bb 32 b7 1d bb 85 09 ba bb 8a e3 75 bb
       -0.0034012692 -0.0024065492 -0.0056774043 -0.0037519657
000080 5b 5f 19 3c 93 2a 2c bb af 73 80 bb ba bf 65 3b
       0.009361113 -0.0026270493 -0.0039200406 0.0035056905
000090 e0 b8 19 3c a5 aa 19 3b cb 20 15 ba e8 5a 42 3c
       0.009382457 0.002344766 -0.00056887855 0.011862494
0000a0 09 2b c5 ba 03 37 88 bb bc b9 c3 bb d9 61 53 39
       -0.0015042733 -0.0041569485 -0.005973069 0.00020158979
0000b0 36 40 57 bc c1 a1 31 3b 63 89 fd 39 9f 97 a5 ba
       -0.013137868 0.002710447 0.00048358281 -0.0012633688
0000c0 4b 1c 95 ba 48 76 06 bb 3b c9 1b 3c 10 c7 ff bb
       -0.001137623 -0.0020517278 0.009508426 -0.0078057125
0000d0 1d d4 db 3b cd 08 d5 3b 3d cb 27 3a ab 7d bf bb
       0.0067086355 0.0065012933 0.00064008293 -0.005843838
0000e0 55 11 9a 39 f5 91 26 bb 8c 8d 7b 3a 30 5a 61 bb
       0.00029386082 -0.0025416587 0.0009595982 -0.0034386031
0000f0 3e dc 00 bc 21 47 0c 3c 12 01 85 ba 25 e9 c7 38
       -0.00786501 0.00856188 -0.0010147414 9.532486e-05
000100 e4 d9 8b bb b9 49 05 bc 01 be af bb 5b ae e6 37
       -0.004267918 -0.008135253 -0.0053632264 2.7499327e-05
000110 c6 dc 34 3b 62 b8 23 3c 98 d2 5b 3b f5 a1 3e bb
       0.0027597412 0.009992691 0.0033542272 -0.0029088233
000120 e5 5e 8d 3b a0 ec 33 3a c2 30 db bb 0f 43 e2 3b
       0.004314291 0.0006863568 -0.006689162 0.0069049667
000130 86 86 06 3c bd 64 32 3b f6 50 83 3b 48 c7 df 3a
       0.008210784 0.002722069 0.004007454 0.001707294
000140 59 f5 85 3b 48 b0 c8 b8 5c c8 bb 3a 38 88 b8 39
       0.0040880856 -9.569578e-05 0.001432668 0.00035196706
000150 97 da 3d bb 76 be a1 39 22 00 93 3b 0c 0f 15 bb
       -0.00289694 0.00030850217 0.0044861 -0.0022744564
000160 6c 5d 9c b2 63 84 0a bb ba 94 49 3a e2 d3 50 3b
       -1.8203274e-08 -0.0021136038 0.00076897035 0.0031864573
000170 bf 9d 50 3a 30 a3 39 ba 2e 31 80 bb 6a d0 c3 3b
       0.00079580763 -0.0007081507 -0.0039121127 0.0059757726
000180 51 9f b1 3b e1 a5 98 3b c0 15 3e 3b 98 bf 35 b9
       0.0054206033 0.004658446 0.0029004663 -0.0001733288
000190 00 77 11 ba 0a 5d 78 3b e4 64 4f 3b 33 13 b4 ba
       -0.00055490434 0.0037897252 0.003164583 -0.0013738632
0001a0 ac 4e 75 3b 26 19 8d 3b 54 b1 b8 bb e0 0d 99 3b
       0.0037430925 0.0043059764 -0.0056363735 0.0046708435
0001b0 17 2b f5 3a a8 e3 76 39 00 d2 b7 3a 7c 9c 45 ba
       0.0018704858 0.00023545197 0.0014024377 -0.00075382716
0001c0 dd b3 9a ba db cf 27 ba 31 67 a5 3b f8 01 ce b4
       -0.0011802871 -0.00064015173 0.0050477018 -3.8371923e-07
0001d0 14 d0 a3 ba f4 ca c8 3a b8 f4 fb 39 dd b7 27 3b
       -0.0012497925 0.0015319274 0.0004805678 0.0025591769
0001e0 6b e3 3c ba 58 f5 6a 3c 93 39 5b bb f8 21 74 ba
       -0.0007205519 0.014340721 -0.0033451065 -0.0009312923
0001f0 cd 86 ba 39 ce c8 0d bc 1a 74 10 39 1c 4d 8c 3b
       0.0003557712 -0.008653833 0.00013776161 0.004281653
000200 2b 5a 4f bc 02 31 a7 3c 53 14 fa 3b 17 32 c4 bc
       -0.012655775 0.020409111 0.0076318174 -0.023949666
000210 35 0e 0b 3d d3 47 02 3c 99 64 0a 3d c4 89 61 3c
       0.033949096 0.007951695 0.033787344 0.013765756
000220 04 51 22 3d 77 1f 68 ba d0 51 d2 3a 41 25 5e bb
       0.039628044 -0.0008854786 0.001604611 -0.0033896717
000230 e8 74 f5 bc 45 ec c7 3a e1 9e 4f bc 59 58 13 3d
       -0.029962972 0.0015252909 -0.012672157 0.035972927
000240 99 5c 1b bc 06 ff 08 3d f8 6b c3 bc 34 86 07 3c
       -0.009482526 0.033446334 -0.023855194 0.008271743
000250 b6 f2 c8 bc 71 fe 45 3c bf 29 f8 3b 5a bd 3b bb
       -0.024529796 0.012084589 0.007573336 -0.0028646798
000260 54 8f bc bc 21 7e fb bb 2b 74 fa 3a 1e 0b 0b 3d
       -0.023017563 -0.007674948 0.0019108107 0.03394615
000270 97 d2 31 3c f0 30 c4 bb 73 80 82 3c 8b e5 ff bb
       0.010853431 -0.005987279 0.01593039 -0.007809346
000280 46 0b cc 3c 30 b8 95 ba 85 8a 24 bc a9 6e f4 3a
       0.02490772 -0.001142269 -0.010042791 0.0018648702
000290 cd 5d ab bc 7f fd 5e bc 0d f8 7b 3b 1c 71 7f bc
       -0.020918751 -0.013610243 0.003844741 -0.015590932
0002a0 fc 00 03 3b f6 4f 18 3c 20 7d c6 3c 54 b3 b5 bc
       0.00199896 0.009296408 0.024229586 -0.022180237
0002b0 d3 3b 25 3c ba d0 78 bc 29 c3 84 bb 1c 64 82 bb
       0.010085064 -0.015186483 -0.004051585 -0.003979219
0002c0 eb 1c 2d 3c a8 cb bd ba 39 27 bc 3c 5b fe 24 3b
       0.010565977 -0.001448025 0.022967922 0.0025176022
0002d0 ff ed 7c bc c4 ff 4d bc bc db b3 3b f7 be 1b 3d
       -0.015437602 -0.012573186 0.005488841 0.038023915
0002e0 ce 52 c0 bb ca 08 70 3b 2c d7 95 3c e1 40 12 bc
       -0.005869246 0.0036626332 0.018291079 -0.008926601
0002f0 6e 49 b0 3c bd eb 6b bb c8 f2 3b b9 94 29 1e b9
       0.021519389 -0.0035998665 -0.00017924153 -0.00015083543
000300 76 49 7b 3b ac 83 ca 3b a4 90 98 3c a6 e0 92 3c
       0.0038343347 0.0061802473 0.018623658 0.017929386
000310 17 03 48 3c c1 4e 56 3c e4 55 3b bc 1f 18 1f 3c
       0.012207768 0.0130803 -0.011434052 0.009710341
000320 8e 35 92 ba b1 34 09 bc 7f a3 97 bb bb f5 4e 3c
       -0.0011154877 -0.008374379 -0.0046276446 0.012631829
000330 b5 06 68 3c 32 f1 65 bc 1b 55 d4 3c 15 9f 1e bc
       0.014161755 -0.014034556 0.025919488 -0.009681483
000340 d8 94 a1 bc 36 1c a6 3c d9 9d 49 bc 5b 46 60 3c
       -0.019724295 0.020277124 -0.0123057 0.013688649
000350 7c 23 ad bb 88 8d f8 3b ab 9a e0 bc 76 83 ba bb
       -0.005283771 0.007585231 -0.027417501 -0.005691941
000360 31 7f 23 3a 2e 42 77 3c 1e 03 e2 bb 22 a3 fd bb
       0.00062369095 0.015091462 -0.0068973443 -0.007740394
000370 ad 3b bc 3c 98 09 04 3a 85 88 5d 3c 4a a0 47 3c
       0.022977674 0.000503683 0.013521318 0.012184212
000380 be 61 af 3c 8a 94 25 3d 48 28 da 3b 02 01 c6 ba
       0.021408912 0.04042486 0.006657634 -0.0015106502
000390 32 f7 84 3c c5 33 86 bc 87 d2 82 bc d0 20 80 3c
       0.016231153 -0.016382108 -0.015969528 0.015640646
0003a0 d6 53 03 3d 11 f5 0c bc e4 1a cf 3c bd b0 5d 3c
       0.032062374 -0.00860335 0.025281377 0.013530907
0003b0 92 ad db bc 8d a0 4c 3b 0b d5 87 3a f8 56 c7 bb
       -0.026816163 0.0031223625 0.0010363174 -0.0060833655
0003c0 f5 37 f4 bb 25 58 09 bb 38 80 82 bc ed 1a 2d bb
       -0.0074529597 -0.002095708 -0.01593028 -0.0026413754
0003d0 32 78 0d 3d 67 d9 18 3d 3a 8b 38 bc e9 de 14 3d
       0.034538455 0.037316706 -0.011263663 0.036345396
0003e0 da 88 b4 3c 8a cf 9a 3b 0a b5 b8 3c e7 ec 2f 3b
       0.022037912 0.0047244476 0.022547264 0.0026844086
0003f0 cf 72 e3 3c f0 b6 f1 3c 42 19 aa bc 82 92 f4 3b
       0.027764706 0.029506177 -0.020763997 0.007463754

network.2.bias f4 [64]
000000 d5 65 88 ba 12 f4 e7 3b 85 53 c5 3b 6f 56 b4 3c
       -0.0010406325 0.007078656 0.006021919 0.022013871
000010 65 bd 05 3d 53 89 ac 3d c6 8b 5e 3d 08 d4 a2 bb
       0.032651324 0.0842463 0.054332517 -0.0049691238
000020 5c a8 df a3 36 4f 95 3d 83 75 80 3d f3 8e b3 3d
       -2.4249011e-17 0.07290499 0.062724136 0.087675
000030 3a 57 1b bd ea 6e 46 bb f5 21 95 3d a6 21 95 3d
       -0.037924983 -0.0030278512 0.072818674 0.072818086
000040 5a bc ad 3d 4a d8 89 3d 1e d4 40 3c 0b 90 1d bc
       0.08483191 0.06730707 0.011769323 -0.009616862
000050 2e 1d f5 3c 77 a7 be bb d5 b2 14 bb ef f8 86 bd
       0.02992114 -0.005818303 -0.00226896 -0.06590449
000060 77 f2 d6 bc 4e 29 53 3d fe 93 86 3d 68 60 61 3d
       -0.026238663 0.051553063 0.06571196 0.05502358
000070 65 e0 ba 3b e6 4e a5 3d fc 7d 67 bb c4 a0 7d 3d
       0.0057030194 0.08071689 -0.0035322895 0.061920896
000080 45 f3 a2 3d 2a 4e b3 3d fb 6e 76 bd 4f 4d 39 3d
       0.07956556 0.08755143 -0.060164433 0.045239743
000090 fe 91 50 bc d4 8c 08 bd 8d fe d6 bb 9e 25 05 b2
       -0.01273012 -0.03333743 -0.0065611065 -7.750172e-09
0000a0 dd 9c 9f 3d 2e 57 33 bb 9f e6 c2 3d 45 b8 68 3d
       0.07793591 -0.0027365196 0.09516644 0.056816358
0000b0 b0 b3 15 3b 41 32 07 3d 29 d6 29 bd 9c 5c 44 3c
       0.0022842698 0.03300691 -0.041464005 0.01198497
0000c0 f1 94 8e bb b6 42 c3 3d 93 7c ca 3c 68 49 98 3d
       -0.0043512513 0.095342085 0.024717605 0.07435876
0000d0 e7 04 04 bd 58 67 ac 3c f8 dc 96 bd 68 e3 3e bc
       -0.032231238 0.021045372 -0.07366365 -0.011650898
0000e0 7a a4 ba 3d d7 96 e2 bc e0 eb fd 3c 94 5e 67 3d
       0.09113403 -0.027659817 0.030996263 0.05648668
0000f0 c1 f5 c4 3d b6 fd ef 3c fd 6c 29 3d 59 58 36 bc
       0.09617186 0.029295783 0.041363705 -0.011129462

network.4.weight f4 [32, 64]
000000 d9 ab 4a 3c ec bc 40 3c 86 24 0f 87 bd 6a 9b bc
       0.012370073 0.0117637925 -1.0768858e-34 -0.018971795
000010 b9 4c 54 bb ed 77 b0 3b d3 05 14 3a 10 5d 88 3c
       -0.0032394363 0.00538539 0.000564662 0.016645938
000020 6e 15 07 86 b1 e4 4d b9 31 15 0f 88 9f 63 0a b9
       -2.5406422e-35 -0.00019635518 -4.3057408e-34 -0.00013197817
000030 6b 7d 67 39 78 4f a8 89 e9 41 fb 3b 28 95 c0 bb
       0.00022076599 -4.051926e-33 0.007667769 -0.005877156
000040 15 3f 2b bb 67 92 93 bb a1 6a 2c 29 15 4e c4 b9
       -0.002613013 -0.0045035365 3.8284158e-14 -0.0003744221
000050 6b 6d ad bc aa d5 99 bc f3 41 68 3b e8 d1 e8 2e
       -0.021170339 -0.01877864 0.00354397 1.05874254e-10
000060 05 12 14 22 53 15 07 07 df a2 02 3c d0 89 87 3a
       2.006728e-18 1.0162538e-34 0.007973402 0.0010340754
000070 b8 a8 1a bc b0 cb 9f 3c e8 6f 92 ba b1 7b 5e 3a
       -0.00943964 0.019506305 -0.0011172267 0.00084870594
000080 e1 1e 8f bc 0f f6 b8 3b d3 b8 10 30 b5 3d a3 37
       -0.017470779 0.005644567 5.2649546e-10 1.9459849e-05
000090 d8 c4 6f bb 1e ec 9d 3a 44 9b f6 3b 11 ee b2 bc
       -0.0036585834 0.0012048518 0.0075258333 -0.021842035
0000a0 cb 07 26 bb 78 eb b8 ba b1 7b 9c bc 27 ce 67 37
       -0.0025334235 -0.0014108261 -0.01910195 1.38166715e-05
0000b0 8f fa b8 3b 69 a9 7b 36 13 9b c9 b7 e7 42 42 3b
       0.0056451033 3.7500524e-06 -2.403328e-05 0.0029641928
0000c0 c8 cf 88 3b c3 63 f2 36 13 44 88 38 47 02 44 a6
       0.00417516 7.223776e-06 6.497665e-05 -6.8004247e-16
0000d0 36 f2 84 11 d9 91 38 3c 19 04 0a bc 25 a0 b7 33
       2.0975202e-28 0.011265242 -0.0084238285 8.550732e-08
0000e0 af ac 70 b3 95 55 75 3b 48 0b 84 ba 7c 06 1d 3a
       -5.603641e-08 0.0037435044 -0.0010074163 0.0005990041
0000f0 2b 2c 71 39 fc da 69 bb e1 63 76 3c 32 77 8e 86
       0.00023000005 -0.0035683503 0.015038461 -5.3589605e-35
000100 0a 73 33 3c 7d c6 ee 3a 00 89 97 3d 83 e4 9b 3d
       0.01095272 0.0018217113 0.073991776 0.076119445
000110 93 a1 ad 3d 6d f1 80 3d a3 b4 15 3e f9 bc 16 bd
       0.084780835 0.06296048 0.14619689 -0.036801312
000120 8a d9 92 3c fb bb ea 3d c5 43 97 3d bf fc ce 3c
       0.017925996 0.11461636 0.07385973 0.025267003
000130 94 c3 84 3c 8e ca 5a 3b 55 c9 8e 3d 7e c4 00 be
       0.01620654 0.0033384892 0.06971995 -0.12574956
000140 40 24 88 3b 40 35 c0 3d f6 f0 fb 3c 9a 6a 3f 3d
       0.004154712 0.09385157 0.030754548 0.046732523
000150 c8 0a 83 bd 26 83 66 3d cd ce 3a bc fa db 1b bb
       -0.06398541 0.056277417 -0.011401844 -0.002378224
000160 7e c0 e6 3d 76 68 cf bd a8 c6 ac 3d 32 8e 91 3d
       0.11267184 -0.10127346 0.08436328 0.071072
000170 b4 09 d7 ba bd 2a bb 3d 64 a3 67 bd b8 6b c2 bc
       -0.001640609 0.09139011 -0.056552306 -0.023733005
000180 75 a4 e1 3d 18 c8 e7 3c 6a de 88 bb d3 bd d1 bd
       0.11017696 0.028293654 -0.0041769044 -0.10241284
000190 e2 b7 65 bd e5 1e b2 bc 7e 25 30 3d e7 31 84 bb
       -0.056083567 -0.021743247 0.043004505 -0.004034269
0001a0 92 68 f1 bc 7b 8a b9 3c cf 8d ac bd 93 73 b0 3d
       -0.029468808 0.02264904 -0.08425485 0.08615794
0001b0 da 82 e2 3d df f8 e9 bd 22 bb 62 3c b3 76 f4 bc
       0.11060114 -0.114244215 0.013838561 -0.029841756
0001c0 1c bb 7a bd 69 10 ea bd 62 21 03 3d 84 d4 b9 bd
       -0.061213598 -0.11428911 0.03201426 -0.09073737
0001d0 21 e2 5c bd 97 9b b0 bd 36 f8 e7 3d 3d 06 a1 3d
       -0.05392659 -0.086234264 0.11326639 0.07862518
0001e0 94 d1 5b bb 4d 2f 72 ba 11 5c e2 bc f8 69 9e 3d
       -0.0033541666 -0.0009238616 -0.027631791 0.07735056
0001f0 52 ad 9f bd 0f c6 da bd 75 06 a4 bd 31 3e 41 3d
       -0.0779673 -0.10682308 -0.08009044 0.04717845
000200 6b fd 27 3c 0b 8a a2 3c c2 db 2a 3d 70 a0 c0 bb
       0.010253291 0.019841215 0.041713484 -0.0058785006
000210 70 79 82 3d ff a4 54 3b c2 26 84 3b d6 86 c6 3c
       0.063708186 0.0032446978 0.0040329406 0.024234217
000220 ca 83 0b 07 56 22 11 3d e0 30 1b 3d 65 db b2 bc
       1.0495927e-34 0.035433136 0.037888408 -0.021833131
000230 f9 bc 5a bd a3 de 05 37 0a 39 92 3d 9d fe 4f bd
       -0.053402875 7.979254e-06 0.071397856 -0.050779928
000240 bd 0b 2f bc 17 c9 9f bd e7 90 30 bc aa 6a 57 3c
       -0.010683951 -0.07802027 -0.010776735 0.013147989
000250 97 30 c6 3d 26 ad ea 3d 0c f8 19 bd ed b3 6b bd
       0.096772365 0.11458807 -0.03759007 -0.057544637
000260 88 ca 06 3c 6b 72 03 bd ee 29 c0 bd 91 0b 83 bd
       0.008226998 -0.03209154 -0.093829975 -0.063986905
000270 c5 10 b7 bb 45 dd 78 bd dd e6 0e 3e cd 9e ad bd
       -0.005586716 -0.060757894 0.13955255 -0.084775545
000280 cb 12 6b 3c 17 80 91 bd 94 62 12 bd 1b 57 af bd
       0.014347742 -0.07104509 -0.035738543 -0.08561536
000290 a6 0f 82 3d 2f 09 30 b4 02 9c 71 bd ed 15 28 3c
       0.06350641 -1.6394618e-07 -0.05898667 0.010259134
0002a0 b1 85 72 3d cf 41 24 3c 6b 3b 7f 3d c6 dd d5 bd
       0.05920953 0.010025456 0.062312525 -0.104426906
0002b0 07 42 5d 3d 58 a7 f8 3d b3 d8 27 bd ae c4 97 bd
       0.054018047 0.12141293 -0.040978145 -0.074105605
0002c0 de fd 92 3d 3f 9e 57 3c db 19 e8 3c 40 4c 35 bc
       0.071773276 0.013160287 0.028332641 -0.011065543
0002d0 96 d5 7f 3d e4 38 58 3d 3c d0 92 3c 6e ab 7b bd
       0.06245955 0.05278863 0.01792156 -0.061442785
0002e0 04 e2 87 3d 3f 41 89 b9 1d e1 07 3e 86 5d 9f bc
       0.06634906 -0.00026179288 0.13269468 -0.019453775
0002f0 7e 64 6a bd c4 b5 eb bc aa aa 99 bd 39 5b 63 3d
       -0.057224743 -0.028773196 -0.07503255 0.05550692
000300 75 89 1b 3b 9e 26 24 bd 48 43 87 bd 37 f9 52 3d
       0.0023733054 -0.04007589 -0.0660463 0.0515072
000310 44 ae dc 3c 44 d9 94 bd 02 06 ce bc 34 b2 8f 3d
       0.026938565 -0.07268003 -0.02514935 0.070164114
000320 79 57 07 39 e6 f7 d0 3d 4d 26 3d bb 0c 9b e6 bd
       0.0001290719 0.10203533 -0.002886194 -0.112600416
000330 7f 58 33 bd 6c 50 a4 ba f6 cc d7 3d 7b 83 30 bd
       -0.04378557 -0.0012536175 0.1053714 -0.04309414
000340 46 bb dd 3d ff cb cf 3d 9f 3b 69 3d 95 fa 6b bd
       0.10826735 0.10146331 0.056941625 -0.05761202
000350 e6 07 b7 bd 21 3b 07 bd cd 77 14 3d cf 2b 6f bd
       -0.089370534 -0.033015374 0.036247063 -0.05839139
000360 ca f0 91 bd 41 96 7a bc 1d 89 be 3d 28 54 8f bd
       -0.07126005 -0.015294612 0.09303496 -0.069984734
000370 53 32 9c 3b 4f d2 d3 bc 7f 4e 5f 3d de a6 85 3d
       0.0047667413 -0.025857119 0.05451822 0.06525968
000380 a2 9a 40 3d c5 2a 1b 3d 06 61 23 bd 9d c2 82 3d
       0.04702247 0.037882585 -0.03988745 0.06384776
000390 54 8f 1e bc 1f 09 1b 37 46 3f b1 3d 84 b0 5d b8
       -0.009677727 9.240844e-06 0.086546466 -5.28549e-05
0003a0 47 87 1d bd 0c 57 4e bd 42 a5 4b bd 42 28 75 bc
       -0.03845909 -0.050375983 -0.04971815 -0.0149632115
0003b0 98 3d 69 3d 2f ca 99 bd 63 f1 26 3b 14 f9 37 bd
       0.056943506 -0.075092666 0.0025473468 -0.044915274
0003c0 0d d4 de 3d 6d 03 c3 3d a3 0d 7f bd 7b 6a 9f 3d
       0.10880289 0.09522138 -0.062268864 0.077839814
0003d0 73 9b f2 bb 7a 63 71 3c 21 e7 cc 3c 25 aa aa 3d
       -0.007403785 0.01473319 0.025012555 0.08333234
0003e0 de 57 32 3d 7a cd 71 bb 29 a7 0d bc cc 97 c0 3c
       0.043540828 -0.0036896155 -0.008645811 0.023509882
0003f0 d6 58 3e bc 18 fe ac bc dc b8 74 3d 22 1f ae b9
       -0.01161786 -0.021117255 0.05974661 -0.00033211062

network.4.bias f4 [32]
000000 ff d5 93 bc b3 06 cc 3d 6a e2 83 3d e8 4f e7 bc
       -0.018046377 0.09962215 0.064396694 -0.028236344
000010 f6 d2 da 3c d8 56 22 3c ac f3 87 3d dd 57 3f bc
       0.026711922 0.0099084005 0.066382736 -0.011678663
000020 9f 27 93 bc 17 66 b2 bc b1 1e e0 3d 82 b5 f0 3d
       -0.017963229 -0.021777196 0.10943354 0.1175337
000030 3e 14 09 3d c4 94 b6 bc da 9c 9a ba 24 01 a7 bb
       0.03346657 -0.022287734 -0.0011796013 -0.0050965715
000040 8f 95 42 bc db 36 96 3d 17 89 db 3d a9 7d fd 3c
       -0.011876478 0.073346816 0.10719507 0.030943708
000050 06 c9 eb b7 68 4b 03 3c 45 c6 8a bc 8e 50 1e bd
       -2.8107792e-05 0.008013584 -0.016940245 -0.03865104
000060 a3 a5 7e bc 1f f2 75 3d 47 48 14 bd c6 f0 a0 bc
       -0.015542421 0.060045358 -0.03620174 -0.01964606
000070 fc 7d 0b 3d 8c 82 58 3d a9 8a 8d 3d 69 b3 b0 b8
       0.034055695 0.052858874 0.06911213 -8.425752e-05

network.6.weight f4 [7, 32]
000000 d6 1e 8d bc 81 e1 e4 3d a6 e1 3a be 15 00 99 bd
       -0.017226618 0.11175824 -0.1825014 -0.07470719
000010 eb 7d 6e 3d 52 99 a1 3b ff 12 ab 3b c8 42 fc bd
       0.058225553 0.0049316073 0.0052207704 -0.12317425
000020 2e bc a6 3d 18 93 57 b5 a7 db 2d 3e ce 3b 5c 3c
       0.08141361 -8.030779e-07 0.16978322 0.013441993
000030 a3 d3 d2 bc 7e 88 b4 3c fa ee 79 11 81 70 9c 39
       -0.025735682 0.02203774 1.9716277e-28 0.0002983846
000040 69 18 75 bd ab 7c c8 3c 8f 59 0b be 47 44 3e be
       -0.059837732 0.024473509 -0.13608383 -0.18580733
000050 73 a8 69 38 3f ab 23 be b1 1a 7d 3b 9a ac f3 bd
       5.570841e-05 -0.15983294 0.0038620646 -0.118981555
000060 0a 39 ea 3c fd 4e 5a 3d 92 08 24 3d 37 3e 35 3d
       0.028591651 0.053297985 0.040047236 0.044248786
000070 73 3f d6 bd 21 3f 0f be cd d1 56 bc 54 d2 5d 3d
       -0.10461321 -0.13988926 -0.013111544 0.054155663
000080 f2 98 1e bd 7f 21 06 bd 9e 65 f2 3c 9e de ed bd
       -0.03872008 -0.032746788 0.02958947 -0.116147265
000090 09 a3 ab 3c 96 02 7c bb b2 f8 a0 bd ab 3a cb 3c
       0.020951765 -0.003845369 -0.07859935 0.024808249
0000a0 bd 96 3d 3b 17 6f 0c 07 70 3c 7e bd 5d 17 40 be
       0.0028928958 1.0565076e-34 -0.062069356 -0.18758912
0000b0 17 d6 c1 3d fb 54 57 0b 74 b5 ee bc 38 81 0b 9c
       0.094646625 4.1471426e-32 -0.029139258 -4.6158253e-22
0000c0 4b a6 e6 bc 20 07 73 3d 45 60 f0 bd 4c a2 ff 3d
       -0.028155467 0.059332967 -0.11737112 0.124821275
0000d0 ad 7c 31 bc 0f f8 d7 3d d2 8f a1 9f 16 46 94 bd
       -0.010832948 0.1054536 -6.842408e-20 -0.0723993
0000e0 66 4d 76 3d 45 e9 e1 3d 6e 44 50 3e a4 f1 2c 3b
       0.060132407 0.11030821 0.20338604 0.0026389146
0000f0 54 f9 e8 bb af 52 b6 3d a6 7f f4 3d 60 a2 ab 11
       -0.0071098004 0.089024894 0.119384095 2.7079114e-28
000100 68 31 98 bb 9b 1f db 3d 6a 31 8f 3d bb 48 f0 bd
       -0.0046445616 0.10699388 0.06991847 -0.11732622
000110 8b 8d 91 3c 14 9c 26 be 74 18 11 3e c8 f6 39 3e
       0.017767688 -0.16270477 0.14169484 0.18160546
000120 a8 14 e0 3c 59 aa 1b b9 17 df b5 3d 1e b3 82 3d
       0.0273536 -0.00014845411 0.08880442 0.0638182
000130 e2 25 6e 3d 85 24 85 b5 ac 8b 5a 3d 72 7f 68 bd
       0.058141597 -9.919901e-07 0.053355858 -0.056762166
000140 e1 56 24 b6 cf bb 4e bd ba ee 36 3e 3b f6 6c 3d
       -2.4488475e-06 -0.050472077 0.17864504 0.05785201
000150 95 36 1a bd 32 04 9f bd 76 7a 78 18 02 c9 f1 bd
       -0.03764971 -0.07764472 3.2115076e-24 -0.11805917
000160 69 db c5 bc c0 3f 32 bd 95 69 07 bc c5 13 23 b9
       -0.024152474 -0.043517828 -0.008264919 -0.00015552256
000170 54 85 1d be 1f 2a fd bd f2 06 d9 bd 90 6d 40 3b
       -0.15382892 -0.123615496 -0.10597028 0.002936218
000180 09 58 82 3c a2 df 16 3e 25 5c e5 bd e1 0d d3 bc
       0.015911119 0.14733747 -0.11199216 -0.025763454
000190 7c 60 81 bd 0d 0a 15 3e b3 e4 57 3d f0 8b aa 3d
       -0.06317231 0.14554615 0.05270834 0.08327472
0001a0 93 04 28 bd ec 19 d4 bc ce 40 6e ba a3 06 8c bc
       -0.041019987 -0.025891267 -0.0009088636 -0.017093008
0001b0 74 d7 67 be 40 c5 c1 3c c7 8c 19 3d 6e 07 2f 3d
       -0.22640783 0.023653626 0.03748777 0.042731695
0001c0 15 67 06 ba 34 5d c8 3d dd 85 dc 3b 04 7f a5 bd
       -0.0005127055 0.09783402 0.006729825 -0.08080867
0001d0 a7 28 b9 bb a1 17 a9 3d ea 93 b9 bb 45 d6 b4 bd
       -0.005650598 0.0825646 -0.0056633847 -0.08829931
0001e0 c5 1c d6 3c a1 58 42 3e 2c 8a 03 be d3 b6 b1 bc
       0.026136765 0.18979122 -0.12845677 -0.021693623
0001f0 43 b7 f1 bd ae b9 90 bd e7 e6 db bc ba 8e cc b9
       -0.118025325 -0.070666656 -0.026843501 -0.00039016252
000200 11 f5 5f 3d 99 a1 d0 3d 8f be bb bb e7 df b9 3d
       0.054677073 0.10187072 -0.0057295035 0.09075909
000210 d9 db e5 3c 87 6e 09 be 74 da ff 3d 1d 87 8b 3c
       0.028058933 -0.13421069 0.124928385 0.0170322
000220 26 b2 bf 3c 2c 69 b0 b9 41 35 12 3c 90 9b 49 3d
       0.023400377 -0.00033647695 0.0089238295 0.04922062
000230 2b 09 33 be 7d b4 11 ba e0 53 2c 31 51 d0 51 bc
       -0.17483966 -0.0005558206 2.5076972e-09 -0.012806014
000240 df c1 90 3c 80 66 30 3e a2 0a c2 bd e2 a5 2c 3c
       0.01767057 0.172266 -0.09474684 0.010537596
000250 6b 81 34 bc 1d 9f e0 bd f6 4a f6 3a 1c 84 de 3b
       -0.011017184 -0.109678484 0.0018790651 0.006790651
000260 24 cc 68 3c cf 33 01 3e 6c 20 d1 bd bd 20 a0 32
       0.014208827 0.1261742 -0.10211262 1.864134e-08
000270 b9 c8 c9 bd 48 60 26 be 08 98 0a 3e 4b 66 19 b3
       -0.09852738 -0.16247666 0.13534558 -3.5716123e-08
000280 be 19 4f 3d f3 26 9d 3c aa 2b 0e bd dc 07 19 be
       0.05056166 0.019183611 -0.03470961 -0.14944404
000290 8a 3e 8d 3d eb 2c 24 be 6b e6 18 be 8f 55 17 be
       0.06896694 -0.1603276 -0.14931647 -0.14778732
0002a0 ff 45 a4 3c 7c 42 47 a7 dd e1 74 bd 0e 56 4a bd
       0.020052908 -2.765284e-15 -0.059785713 -0.049398474
0002b0 1c 44 65 3e 2a f7 eb bb 25 a2 4d bd 03 c3 b9 3a
       0.22389263 -0.007201095 -0.05020346 0.0014172498
0002c0 1a d0 07 39 fe d3 b3 bd 86 f1 dd bc 43 98 97 bd
       0.00012952127 -0.08780669 -0.027092706 -0.074020885
0002d0 8b d1 42 88 73 f6 53 bd f6 3a fb bc 08 95 bc bb
       -5.862607e-34 -0.051748704 -0.030667763 -0.0057550706
0002e0 a2 5b 41 bc 96 71 40 be 80 b7 0d be dc 48 51 3a
       -0.011801632 -0.1879333 -0.13839531 0.0007983574
0002f0 79 ce 22 be 21 23 e9 3c 91 e5 69 3d db d1 38 b9
       -0.15899076 0.028459134 0.057103697 -0.00017625785
000300 ba e1 7a 3d 2b 8a b7 3d dc 79 10 3e 9b 82 f0 bc
       0.061250426 0.089619 0.14108986 -0.029359153
000310 a9 21 0a 3a 5c fb 33 be 7c 7c 81 bd 4c 0d 0f 3e
       0.0005269298 -0.17576355 -0.06322572 0.13969916
000320 87 2d 3a 3d 1d 83 0b 87 1d ab d7 bd 20 2b 0c be
       0.045453575 -1.0495728e-34 -0.10530684 -0.13688326
000330 7a f8 98 bd b0 45 1d bd a5 13 0d 87 61 d9 08 3d
       -0.07469268 -0.038396537 -1.0613434e-34 0.033410434
000340 02 f2 20 bc 55 f5 5d bd 4d 1e d6 3d 08 4b 8e 3c
       -0.009823324 -0.054189045 0.10454998 0.017369762
000350 f9 0b 41 bd 31 56 13 3e 6e 5f cd 3c bc 18 b4 3d
       -0.04713056 0.14388348 0.025069918 0.0879378
000360 e0 31 6a 3d c6 33 ef b9 4a a7 e3 bc 86 e9 66 3d
       0.05717647 -0.00045624207 -0.02778973 0.05637505
000370 72 72 e4 bd 79 12 a2 bd 38 ba 77 bd 50 12 d6 1d
       -0.11154641 -0.0791368 -0.060480326 5.6664263e-21

network.6.bias f4 [7]
000000 a2 2d 89 3c 12 d4 13 be 68 f1 d5 bd 18 dc b0 bd
       0.016745392 -0.14436367 -0.10446435 -0.086357296
000010 84 05 a2 bd 94 6c 93 3d f9 b4 29 bd
       -0.07911208 0.07198444 -0.041432355

exp_avg f4 [128, 45]
000000 2a 09 65 37 53 9b 05 b9 b6 89 72 b7 c5 62 23 b7
       1.3651597e-05 -0.00012741731 -1.4456387e-05 -9.738554e-06
000010 7a 8d 50 b8 ae bf a9 36 c0 2b 0c b8 6c a9 93 38
       -4.9722825e-05 5.058907e-06 -3.3419346e-05 7.0410635e-05
000020 1e 60 27 b7 c9 92 89 b8 76 10 de b8 4c d9 e4 36
       -9.976355e-06 -6.56001e-05 -0.00010588851 6.820226e-06
000030 82 31 34 b7 3d 08 61 38 7d 62 6d b8 11 9f df b8
       -1.0740363e-05 5.3651853e-05 -5.6596928e-05 -0.00010663097
000040 76 da 6d b9 80 6b 5b b9 82 18 cf 35 f0 e0 b7 b8
       -0.00022683464 -0.00020925514 1.5429835e-06 -8.768018e-05
000050 59 2d c0 37 e8 05 8d b8 bc 09 48 37 6a 3f 61 37
       2.29093e-05 -6.724504e-05 1.1923195e-05 1.342581e-05
000060 6c 3f 24 38 f2 5f 9d b7 8b 67 ae 37 2f f9 b1 b7
       3.9159713e-05 -1.8760536e-05 2.0790632e-05 -2.121608e-05
000070 b5 0d 2c 36 65 54 da 37 45 f2 29 b7 c6 15 90 b8
       2.5637976e-06 2.6026924e-05 -1.0129593e-05 -6.870511e-05
000080 91 7e cf b8 a6 df ea b8 20 00 90 b8 c9 63 87 b8
       -9.894104e-05 -0.00011199647 -6.866478e-05 -6.455888e-05
000090 f5 46 8d b8 b0 3b 78 b8 3f ad 21 b9 fe 5e 74 38
       -6.736621e-05 -5.9183396e-05 -0.00015418696 5.82626e-05
0000a0 06 d6 5c b9 64 02 12 b8 a7 68 0f b8 10 ac 07 39
       -0.00021060565 -3.481134e-05 -3.4191322e-05 0.00012938702
0000b0 71 ba 95 b9 82 90 8f 36 88 71 a6 b8 38 f2 0f b9
       -0.00028558404 4.278555e-06 -7.936644e-05 -0.00013727776
0000c0 3b 1c ee 37 11 ce 1f b9 05 22 66 b8 13 98 95 38
       2.8384957e-05 -0.00015240187 -5.4867956e-05 7.1332e-05
0000d0 e0 94 ad b7 06 69 a5 37 c8 7d 91 b9 f4 c3 8d b9
       -2.0692532e-05 1.9718438e-05 -0.0002775027 -0.00027039612
0000e0 f5 eb 5e b9 60 db 01 b9 e5 74 93 38 08 e4 3a b9
       -0.0002125947 -0.00012384122 7.0312795e-05 -0.0001782329
0000f0 93 f8 23 b9 80 05 b6 b9 14 f6 03 ba 84 80 ef b5
       -0.00015637492 -0.00034717843 -0.0005033922 -1.7844291e-06
000100 e5 d2 1a b9 e9 4b 48 38 03 fe fe b9 24 b1 be b8
       -0.00014765149 4.7754413e-05 -0.0004863591 -9.092901e-05
000110 a8 df 4c 38 46 9a bb 38 82 a7 c2 b7 9f 26 88 b5
       4.8845686e-05 8.9455905e-05 -2.3204604e-05 -1.014403e-06
000120 56 04 47 b8 c1 4c d0 b7 80 43 f0 b5 e5 59 41 b9
       -4.7449335e-05 -2.4831274e-05 -1.7901039e-06 -0.00018439403
000130 7c a2 fd b9 56 b8 3d b8 ee e8 89 b9 5a 2f 0b b8
       -0.0004837698 -4.5232788e-05 -0.00026304222 -3.3184282e-05
000140 5e b0 26 b9 10 88 33 b8 be 68 68 b9 4e c2 84 b9
       -0.00015896696 -4.2803644e-05 -0.00022164264 -0.0002532177
000150 25 b2 4a 39 38 f2 dc b9 9c 46 b0 b9 68 f8 87 b8
       0.00019330585 -0.00042142137 -0.00033621944 -6.483571e-05
000160 48 d6 5c 39 44 95 71 ba d4 1c 1d 39 ba 9c aa 39
       0.00021060661 -0.0009215663 0.00014983426 0.00032541697
000170 77 91 78 38 40 db d7 38 11 04 5b 39 58 36 38 39
       5.9263282e-05 0.000102928374 0.00020886982 0.00017567852
000180 1c de e9 35 4b a8 b7 38 cd c3 dd 38 98 45 cf 38
       1.7424495e-06 8.757467e-05 0.00010574572 9.883492e-05
000190 c6 45 37 39 a3 91 bd 39 8a 9e 94 38 0b 9a ab b8
       0.00017478233 0.00036157397 7.08672e-05 -8.182608e-05
0001a0 1b 28 2d 39 a1 d5 80 39 ec df 81 3a fa 13 f5 39
       0.00016513506 0.00024573228 0.0009908653 0.00046744925
0001b0 fc e1 1e 36 ba ce ac 39 db 9d c8 b8 aa 38 d3 39
       2.3675375e-06 0.0003296042 -9.566146e-05 0.00040287274
0001c0 37 00 dd 37 0c 8f 02 b8 8e a5 5b b8 22 19 91 38
       2.6345353e-05 -3.1127638e-05 -5.2367854e-05 6.91882e-05
0001d0 94 56 1f 36 5e a4 1f 39 e3 82 be 37 f6 86 1f 36
       2.3743241e-06 0.00015224653 2.2710714e-05 2.3771404e-06
0001e0 ed 0a 9b 39 cc 02 bc 39 9c f6 b3 39 d3 34 fa 39
       0.00029572044 0.00035860238 0.0003432528 0.00047723073
0001f0 15 be cc 38 d0 03 ef 39 6a 48 7b 39 40 fc e0 39
       9.7628836e-05 0.00045588473 0.00023964202 0.0004291255
000200 03 a0 ea 39 fb a7 9b b9 1c f7 2e 3a 5b de b5 39
       0.00044751176 -0.0002968906 0.00066743954 0.00034688678
000210 a2 91 6c 39 bc 1a f0 b8 70 b4 a9 3a e1 50 7b 37
       0.00022560966 -0.000114490715 0.0012947451 1.4979597e-05
000220 04 f5 4f b9 da a9 24 38 ca 4f 64 38 a8 61 2c b9
       -0.00019832334 3.9258834e-05 5.4433745e-05 -0.00016439578
000230 49 6b 66 b8 4a c5 85 38 5b cf 55 b8 bf 06 1e b7
       -5.493619e-05 6.378682e-05 -5.0976272e-05 -9.419105e-06
000240 71 b3 b3 b8 08 ae a2 b9 80 5f b8 b8 3a 31 9d 37
       -8.568809e-05 -0.0003102871 -8.791592e-05 1.8738781e-05
000250 e3 34 da 38 47 7f e2 b8 d4 19 99 b8 a7 9e 49 b9
       0.00010404901 -0.00010800227 -7.3004194e-05 -0.00019227956
000260 7a 99 c9 b9 e4 29 14 b4 32 dd 16 b9 36 df 9e 38
       -0.00038452056 -1.3798814e-07 -0.00014387516 7.5756034e-05
000270 f9 98 b9 b9 77 a5 f6 37 5c f2 95 37 2e ae 06 38
       -0.00035399923 2.9402536e-05 1.7875042e-05 3.2110307e-05
000280 34 6c c7 b8 37 88 7f 37 09 3a df b8 fd 36 9e b8
       -9.509214e-05 1.5230899e-05 -0.000106442785 -7.5442695e-05
000290 8b 15 9d b5 30 8e b9 b8 f7 a6 25 b9 68 70 fa b6
       -1.1703681e-06 -8.847972e-05 -0.00015797825 -7.4636664e-06
0002a0 c4 c8 5a b9 0a 38 31 b8 70 00 8d b8 88 37 04 b9
       -0.00020864891 -4.225228e-05 -6.7234854e-05 -0.00012609188
0002b0 63 da 37 b9 ac 51 b7 b8 23 c5 a2 39 cb 2b ce b9
       -0.00017533595 -8.7413326e-05 0.00031045926 -0.0003932401
0002c0 86 c4 95 b9 4e 6c 25 b8 1c c8 a7 38 85 41 07 ba
       -0.00028565916 -3.9439932e-05 8.000454e-05 -0.00051596045
0002d0 86 78 50 b9 0f dd 4c 3a 62 6b 13 39 e1 30 01 39
       -0.00019881324 0.0007814923 0.00014059016 0.00012320607
0002e0 9c 61 cb 39 1c 22 78 38 eb 2c 90 b9 a6 54 87 39
       0.00038791902 5.9159574e-05 -0.00027499287 0.00025812275
0002f0 cd 53 05 39 b2 6c 75 39 6e 2a 84 39 f1 1d 24 3a
       0.00012715087 0.00023405513 0.00025208615 0.0006260565
000300 ee 5b 74 38 4a d6 d9 b8 f9 8b c5 37 ed f5 d3 39
       5.825975e-05 -0.00010387281 2.354941e-05 0.00040428285
000310 54 b9 8e 3a 38 e3 38 3a 1c 9f 9d 36 c2 a4 dc 39
       0.0010888972 0.0007052901 4.6974874e-06 0.00042084424
000320 6e e8 c0 b8 3e 3b e3 39 00 e0 b1 38 a5 3f 8a 38
       -9.198567e-05 0.00043340953 8.481741e-05 6.5922075e-05
000330 5b f0 3e b7 b0 59 24 38 1b 83 45 36 2e 98 17 37
       -1.1380845e-05 3.9184175e-05 2.94316e-06 9.0357335e-06
000340 6a 47 6f b7 44 43 22 36 7a 55 ad 39 e2 03 4a 39
       -1.42621375e-05 2.4179035e-06 0.00033060816 0.00019265668
000350 02 a5 bd 38 52 62 1c 3a 73 6e 6c 39 58 8b 12 3a
       9.0429574e-05 0.00059655786 0.0002254786 0.0005590222
000360 02 87 e8 39 94 74 2c 39 58 c2 07 3a 91 e6 f0 b9
       0.00044351077 0.00016446627 0.0005178801 -0.00045948153
000370 cc d4 44 3a 31 43 21 3a c1 0c 46 38 91 b5 87 b9
       0.0007508516 0.0006151675 4.7218757e-05 -0.00025884484
000380 16 68 dc 3a f5 5a ea b8 d1 c7 81 b9 6c c4 36 37
       0.0016815688 -0.000111749316 -0.00024753672 1.0893778e-05
000390 e0 5b be b8 6c 70 e0 b8 9c 80 0e 37 28 82 10 39
       -9.077019e-05 -0.000107020925 8.493804e-06 0.00013781397
0003a0 3f 35 3e 38 17 66 71 b8 db ff 6f 38 90 f9 24 b8
       4.534912e-05 -5.7553956e-05 5.7220324e-05 -3.933307e-05
0003b0 ad 34 82 b8 81 1a de 37 de a1 a5 38 a6 36 3f b9
       -6.208695e-05 2.6476804e-05 7.897963e-05 -0.00018235538
0003c0 96 2a a4 b8 3b 17 ea b9 ed de 8e b9 e7 6f 6b b5
       -7.828062e-05 -0.00044649266 -0.00027250443 -8.770716e-07
0003d0 56 d4 b4 b8 8f 98 80 37 fb d5 eb 38 79 9d 6e 37
       -8.6226195e-05 1.532983e-05 0.0001124553 1.422257e-05
0003e0 2a 9f e7 37 94 94 11 38 3e 69 38 b8 2a ff b4 36
       2.7611462e-05 3.4709068e-05 -4.3967033e-05 5.394123e-06
0003f0 1b 66 ac b8 1b ed 8c b8 76 1f 66 b5 89 96 bf b8
       -8.220618e-05 -6.7198845e-05 -8.572746e-07 -9.135629e-05

exp_avg_sq f4 [128, 45]
000000 7d 27 23 34 70 cd 5c 33 28 64 9a 33 42 76 fc 32
       1.5194924e-07 5.1409586e-08 7.189402e-08 2.9390439e-08
000010 12 88 c7 32 43 72 ec 33 9d c6 7d 33 ff 26 58 33
       2.3228527e-08 1.10103905e-07 5.908679e-08 5.0326886e-08
000020 32 33 95 32 71 48 09 34 31 f5 85 33 40 1a 2d 34
       1.7369164e-08 1.2785473e-07 6.237895e-08 1.612143e-07
000030 f0 ea 55 32 31 95 c2 33 ff 93 e0 32 8b 48 3b 33
       1.245165e-08 9.060967e-08 2.6144333e-08 4.3605308e-08
000040 c1 1e fd 34 e8 d0 05 35 7c f0 4a 2f 42 42 81 32
       4.71473e-07 4.985036e-07 1.845723e-10 1.5047707e-08
000050 69 4b dc 32 a3 c6 23 34 84 82 12 33 86 c2 8c 32
       2.5645663e-08 1.5252822e-07 3.4111977e-08 1.6386604e-08
000060 63 22 02 32 50 82 6b 32 e7 ba aa 30 50 39 9f 31
       7.5748146e-09 1.370843e-08 1.2422249e-09 4.6340247e-09
000070 88 f3 68 31 a4 d1 e0 30 74 19 c9 32 62 5d 80 33
       3.3898875e-09 1.6357729e-09 2.3411054e-08 5.977451e-08
000080 70 66 24 34 99 36 36 34 79 b9 8e 33 ca 24 4c 34
       1.5310957e-07 1.6969933e-07 6.6461276e-08 1.9012364e-07
000090 c0 d5 29 33 b7 ee 4a 34 fe 02 8e 34 64 57 9d 34
       3.9542783e-08 1.889956e-07 2.6451738e-07 2.9307114e-07
0000a0 d5 9e cd 34 ec e7 fd 33 ee 92 9e 33 4c 0f f2 34
       3.829979e-07 1.1823417e-07 7.384175e-08 4.5087143e-07
0000b0 73 d3 6b 35 8c ac 3c 35 c4 38 89 34 6c 58 d2 34
       8.785202e-07 7.0286546e-07 2.555954e-07 3.9179884e-07
0000c0 b3 44 62 34 b6 23 b6 34 e7 ad a2 34 70 74 d8 34
       2.1072883e-07 3.3926125e-07 3.0301382e-07 4.0317855e-07
0000d0 50 24 dc 34 62 b4 9f 34 88 57 7a 35 61 23 dd 34
       4.1004614e-07 2.9747304e-07 9.325963e-07 4.11902e-07
0000e0 6f 49 61 35 cf c2 77 34 c6 74 b1 34 59 6d cc 34
       8.392589e-07 2.3074539e-07 3.3053783e-07 3.8077522e-07
0000f0 4b 3d 68 34 ea 44 2a 36 8d 41 7a 36 87 e9 6d 2e
       2.1628982e-07 2.5372087e-06 3.7291059e-06 5.4094975e-11
000100 92 b0 b9 33 54 7e 74 34 99 ef 81 35 2d 77 82 34
       8.646852e-08 2.2770229e-07 9.680981e-07 2.43011e-07
000110 6d d2 fa 33 0d 03 5f 33 29 cc 5b 33 c9 40 20 2f
       1.16798084e-07 5.1924008e-08 5.1175594e-08 1.4574932e-10
000120 68 23 76 33 ea e6 38 33 db 55 39 2e 8d df d5 34
       5.730854e-08 4.3050854e-08 4.2140385e-11 3.9836996e-07
000130 87 e9 cf 34 17 78 be 35 a7 45 75 35 0b a2 e8 34
       3.8726668e-07 1.4191054e-06 9.137097e-07 4.333127e-07
000140 eb 0e 8a 35 81 13 b5 34 58 9c 8a 35 7f ad 05 36
       1.0286143e-06 3.3728068e-07 1.0327303e-06 1.9919532e-06
000150 81 6c 35 36 33 e6 eb 35 07 db 3d 35 5e a5 8b 35
       2.703426e-06 1.7575861e-06 7.0726713e-07 1.0404435e-06
000160 c9 52 40 36 e1 77 8e 36 4e 06 a1 35 32 ae b6 34
       2.8658417e-06 4.2458855e-06 1.199727e-06 3.4026885e-07
000170 0a 8d 34 35 c7 92 c6 34 d3 39 e0 34 9f f8 31 35
       6.7260464e-07 3.6987169e-07 4.1765324e-07 6.629943e-07
000180 fb 9a 0c 35 46 02 23 35 8c 59 dc 34 89 3d b0 35
       5.237959e-07 6.072554e-07 4.1043347e-07 1.3130931e-06
000190 f2 58 36 35 53 bd c3 35 8d b6 50 34 e2 a3 15 33
       6.7929716e-07 1.4583733e-06 1.9437921e-07 3.4840816e-08
0001a0 fb aa 19 35 aa d4 c4 34 e5 f3 69 36 71 5d ad 36
       5.724575e-07 3.6662578e-07 3.486167e-06 5.16668e-06
0001b0 bc 47 a4 2e 9c 27 1f 34 bb 07 c7 34 f7 4d f0 35
       7.470599e-11 1.4822439e-07 3.7072263e-07 1.7904084e-06
0001c0 b7 e6 73 34 e1 4d 3e 34 a2 db 87 33 f6 05 04 34
       2.2715072e-07 1.7723461e-07 6.326378e-08 1.2295627e-07
0001d0 03 76 98 2e 85 19 dc 33 7c aa 84 33 5f 58 93 2e
       6.933123e-11 1.024919e-07 6.17774e-08 6.700484e-11
0001e0 92 41 2a 35 98 e3 35 35 4d 19 17 36 96 d4 a6 35
       6.342535e-07 6.7758947e-07 2.251548e-06 1.2429834e-06
0001f0 4c 24 2e 35 da f7 c1 35 40 95 f5 34 34 4c d7 35
       6.487287e-07 1.4451755e-06 4.57434e-07 1.6040926e-06
000200 f4 d4 60 36 ac f5 91 36 bd 20 47 36 bf 30 02 36
       3.3502556e-06 4.3499367e-06 2.9672367e-06 1.9399884e-06
000210 0e b4 c3 35 be 6c c3 35 fa 1e eb 36 89 4d eb 34
       1.4581035e-06 1.456028e-06 7.007152e-06 4.3828575e-07
000220 d6 4b 7b 34 84 49 9a 34 b9 0d 2d 34 bc 22 2d 34
       2.3403786e-07 2.8738225e-07 1.6116873e-07 1.6124517e-07
000230 4e b9 b3 34 74 7c 77 34 6b 04 8d 34 f6 85 15 34
       3.3476175e-07 2.3048943e-07 2.626651e-07 1.3925441e-07
000240 bc 7b 1f 35 bd fc a9 34 a8 ae 23 35 81 30 1d 34
       5.9412173e-07 3.1662594e-07 6.097639e-07 1.463941e-07
000250 68 db 86 34 f7 bd 84 34 2a e6 12 34 2c f3 cd 35
       2.5119084e-07 2.4725134e-07 1.3681043e-07 1.5344463e-06
000260 55 3e 2f 36 76 69 29 2f 15 a2 77 33 59 1e 28 34
       2.6113314e-06 1.5407928e-10 5.765658e-08 1.565726e-07
000270 94 13 51 35 95 a5 11 34 49 4d 90 33 3e 9c fe 32
       7.788706e-07 1.3564416e-07 6.7195806e-08 2.9640542e-08
000280 df b5 66 33 41 a7 80 30 7a e9 41 33 1b d6 f3 32
       5.371646e-08 9.360762e-10 4.514866e-08 2.8386287e-08
000290 ad d4 82 2e 59 53 7e 34 2f ac ae 34 d4 68 83 35
       5.9494944e-11 2.3685915e-07 3.2535306e-07 9.79077e-07
0002a0 dd 98 23 35 b1 b7 a5 34 b1 7f 1f 35 e8 2f 7a 34
       6.094468e-07 3.0867298e-07 5.941793e-07 2.3300493e-07
0002b0 47 7d 39 35 3a 0a d4 35 6f 79 fd 35 16 8b a1 35
       6.9100173e-07 1.5798207e-06 1.8885311e-06 1.2035914e-06
0002c0 77 c4 39 35 bf 82 1c 35 f9 35 d5 35 48 12 40 36
       6.9203764e-07 5.830479e-07 1.5885445e-06 2.862087e-06
0002d0 32 d2 cf 35 6f 47 25 35 61 b9 9f 35 7b 56 71 35
       1.5483877e-06 6.157124e-07 1.1900376e-06 8.990534e-07
0002e0 12 7a 66 35 08 db 3c 35 a7 76 33 35 a2 9a d4 35
       8.585931e-07 7.035419e-07 6.685536e-07 1.5840235e-06
0002f0 79 f3 01 35 fe e3 48 36 20 e8 c7 35 99 39 52 36
       4.8410544e-07 2.9935031e-06 1.4894213e-06 3.1325965e-06
000300 72 01 01 34 c0 8b a0 33 ff 18 97 35 91 f4 1e 35
       1.2014587e-07 7.476001e-08 1.1257652e-06 5.921548e-07
000310 0f cb f7 36 5d 3b d8 36 57 c9 b7 2f 28 d2 9a 34
       7.3848128e-06 6.4442124e-06 3.3430567e-10 2.8837644e-07
000320 f4 a6 42 35 99 73 8a 36 a8 c0 d9 34 b5 6b d3 34
       7.251358e-07 4.126178e-06 4.0559576e-07 3.938018e-07
000330 d2 9f 1a 34 b4 88 9c 34 a0 d4 82 2f f7 a8 64 34
       1.440051e-07 2.915673e-07 2.3797941e-10 2.1295624e-07
000340 8d af 16 34 58 60 13 2f 17 e5 d7 35 c6 6f c8 35
       1.4033704e-07 1.34038e-10 1.6085422e-06 1.4933692e-06
000350 fe cb a9 36 19 70 0d 36 10 04 96 35 78 89 50 36
       5.0603403e-06 2.1075887e-06 1.1177053e-06 3.1074433e-06
000360 60 36 8e 35 6a 14 e2 35 df 0b c9 36 ce d2 01 37
       1.059565e-06 1.6844253e-06 5.991649e-06 7.738081e-06
000370 d9 8c 89 36 d6 e0 b0 36 85 33 48 36 e2 d2 1a 36
       4.099315e-06 5.271383e-06 2.983231e-06 2.3070538e-06
000380 74 ae 7e 37 39 d2 da 34 8c 5a 4e 34 f8 99 7f 34
       1.5180198e-05 4.075862e-07 1.9218186e-07 2.3804739e-07
000390 c3 e6 26 34 e6 41 e3 33 32 88 d1 34 c6 5d 35 34
       1.5543905e-07 1.0582498e-07 3.902838e-07 1.6891053e-07
0003a0 46 96 88 34 4d d2 f4 33 21 41 fa 34 27 0c 8d 34
       2.5441312e-07 1.1400389e-07 4.6613516e-07 2.627214e-07
0003b0 ff 72 16 35 8f 79 a4 33 0c c9 7a 34 e5 51 69 34
       5.6046696e-07 7.6589565e-08 2.3356205e-07 2.1729609e-07
0003c0 d6 e4 0c 34 af 33 a9 35 91 de 1d 36 2d d0 d3 2d
       1.3121766e-07 1.2606523e-06 2.3524374e-06 2.4080371e-11
0003d0 42 c0 65 33 df 16 09 34 7d 1f 2e 35 3d 32 d9 33
       5.3493075e-08 1.276744e-07 6.486587e-07 1.0113988e-07
0003e0 14 7e 74 33 bd 0d d0 32 1a 05 2b 33 58 8b d3 2f
       5.6925344e-08 2.4220634e-08 3.981868e-08 3.8479686e-10
0003f0 d2 45 41 33 0d a5 af 32 ff e8 38 2e 06 ce 39 34
       4.4999815e-08 2.0447738e-08 4.20437e-11 1.7304419e-07
