models/regression_models/ML_including_industry_feature/single_dimension/progressiveness/version_best/checkpoints/epoch=59-step=1860.ckpt (torch, 480459 bytes, 15 tensors)

network.0.weight f4 [128, 45]
00000000: aec5 ba3d 6948 43bd e2aa 043d 48c1 2d3d
00000010: 445a 6f3c a77f ef3d ad35 d83b 0668 e63b
00000020: b85b b83d 65ad e6bd 2a72 4c3c a189 883d
00000030: fa00 d63d 762d 32bd 4a11 6a3c bc45 cbbd
00000040: c5a2 d13d d619 8abd 365b c2bc a8ff c93d
00000050: b9e7 1e3d 4871 ab3c 1279 03bd 823b afbd
00000060: aa0f d9bc 9c93 803c 5a52 0bbb 653a 7abd
00000070: 2c35 bebd e1e0 6b3c 5bbd fbbd 2c1a 373d
00000080: 67ca b8bd 35dd 3f3d 1f61 453d c769 d03d
00000090: 944a 6abd 2898 e8bc 1071 c73d f082 9f3d
000000a0: 3675 d53d ec3e ecbc 931a 4abd 9f88 093e
000000b0: 1c0f 0abe 775f b43c 24b9 d2bd 4b4f 35bd
000000c0: d68e 51bd ade3 003c 8ccb 82bd b0a2 ba3c
000000d0: c591 043e ed6a eb3d 2e16 f2bd f829 8ebd
000000e0: 1ac4 7ebd 01b6 873d a66a 6c3c 5b12 b83c
000000f0: 5a11 4fbd 56e1 5f3d 635a da3d 1b9d d13c
00000100: 5952 b83d 8e34 7abd f0fe 9c3d 603f 133d
00000110: 00de 67bc 8016 6a3d f0cc 8ebd 08c4 ad3a
00000120: 4bd8 cbbc 181b 9bbd 2b50 8d3a 1151 a83d
00000130: 0f96 863d 88f0 d7bd 07a0 19bd a3f7 4b3d
00000140: 4320 38bc c3df 513d b6eb acbd 328a c03d
00000150: c74d b3bd a205 5a3d ca17 81bc 2754 a2bd
00000160: 73c6 ce3d 2979 7fbd 5069 b6bd b56e 173d
00000170: 5b2b bf3d c8cf 1dbd 150f f5bd 07f0 6abd
00000180: 2d7e 2ebd 2140 5dbd b2b0 1bbc 2cd9 b4bb
00000190: 73ec c6bd c52a 873d bfd9 f13b 18a7 283d
000001a0: e33b 0a3c 3022 5abd 96f3 fb3c 84e9 c1bd
000001b0: ded4 21bb 2197 60bd 7064 a0bd 4851 02be
000001c0: 284a 85bd 61cd a2bd dbd1 11bc f505 23bd
000001d0: 6b44 22bb 3dd9 223c fd1a 5abd e576 2bbb
000001e0: 7266 a5bd b1e9 d0bc 1db5 08bd 1253 c5bd
000001f0: b10d 343c 3289 803d 3625 dc3d 9d84 dd3d
00000200: 66de 29bd c4ec 41bd f931 4abd 8614 99bd
00000210: 20ca a13d 085c ba3d 9759 3f3d 14f7 f5bc
00000220: 15e9 57bd d97d 92bd d651 c3bd 9a4a 8b3d
00000230: 8b71 913c 4300 d2bc 9aee afbd 9875 cabc
00000240: 7e59 0d3d 9da5 983d fc79 dbbd 56af 7dbd
00000250: 4d86 db3d 37bc 0ebd b180 62bc a1e5 abbb
00000260: eb22 0c3d c2f4 5d3b dca2 1cbd d784 543d
00000270: c82f 113d 3e46 b3bd b724 42bd 1594 3fbd
00000280: a2f3 65bd 25dd 6e3b 8013 d33c 99d7 403d
00000290: 2446 8d3b c23c 1c3d 4877 133e 2a16 1cbd
000002a0: d439 973d 7e13 f53c e63c 803c 6326 84bd
000002b0: 5968 b0bd 1146 27bd 3a3f 0abd bc57 ae3d
000002c0: 5104 b33d 09bc 4f3c 043e e43d 534a 5ebb
000002d0: ab4d 673d 65f8 823c ae27 19bc b4c9 553d
000002e0: 4c21 d93d 71e8 053e ea3d bb3c ceaa 9d3d
000002f0: 5498 bdbd 9ae4 8ebc fc05 b1bd 12ad fcbd
00000300: 76f2 bbbc 4a2d 27bb 1cd9 d5bd 2adf 2f3b
00000310: c005 00be 68e7 d33d 97cd 73bb 44b1 993d
00000320: 71dc c5bd 4f67 fdbd bd3a 9c3d 4b7c 8ebb
00000330: b9f1 aabd c8ca c9bb f826 0d3c d811 06bd
00000340: 3949 a43b 1c82 d4bc 6c6e 5dbd 952c a73d
00000350: c6a8 0dbd 1773 863c b546 953d a367 15bd
00000360: ea32 033e d331 29bd 5605 b53d 2138 a03d
00000370: 38bd c23d 46f3 de3d f16c 1dbd 53ad 83bd
00000380: 9e69 253d b3f8 05be 9b28 39bc fa77 98bd
00000390: 90da eb3d a008 9b3d f264 1dba 1f75 043e
000003a0: 27b5 ca3d d99f 023e 5868 723d 77c1 94bc
000003b0: f71a aebd 17d3 1bbd dbc4 e1bd cd00 c5bc
000003c0: cd3c 80bd 076e 71bd 2901 f13d d056 a83c
000003d0: 9089 b93d f698 893d 84a7 793d fc55 503d
000003e0: d545 c2bd 5d26 8d3d 544a cabd 8cef b63b
000003f0: 1539 883c faee 54bd a252 9c3a 96dc bc3b
0.09119736 -0.047676478 0.03238953 0.042420655 0.014608923 0.116942696 0.0065981955 0.0070314435
0.09001869 -0.11263541 0.012478391 0.06666876 0.10449405 -0.043500386 0.014286349 -0.0992541
0.10236124 -0.06743209 -0.023725133 0.09863216 0.038795207 0.02092804 -0.032097884 -0.08556272
-0.026496727 0.015695386 -0.0021258802 -0.061090846 -0.092874855 0.014396877 -0.12291976 0.044702694
-0.0902298 0.04684182 0.048188325 0.101764254 -0.05720003 -0.028392866 0.09738362 0.07788646
0.10422747 -0.028838597 -0.04934175 0.13431023 -0.13482326 0.022018177 -0.10289219 -0.044265073
-0.05116161 0.007866782 -0.0638648 0.022782654 0.12946232 0.11495004 -0.11820637 -0.06941599
-0.062198736 0.06626511 0.014429724 0.02246969 -0.050553657 0.054658256 0.10661771 0.025587609
0.090000816 -0.061085276 0.07665813 0.03594911 -0.01415205 0.057150364 -0.069726825 0.0013257274
-0.02488341 -0.07573527 0.0010781338 0.08218587 0.0657159 -0.105439246 -0.03750613 0.04979671
-0.011238161 0.051238786 -0.08443396 0.09401359 -0.08755069 0.053228028 -0.015758414 -0.07926207
0.10096445 -0.062371407 -0.089068055 0.036970813 0.09334441 -0.038528234 -0.11965767 -0.057357814
-0.0426008 -0.054016236 -0.009502577 -0.005519053 -0.09713068 0.065999545 0.0073806937 0.041174978
0.00843713 -0.05325526 0.0307558 -0.09468368 -0.002469353 -0.054831628 -0.07831657 -0.12726319
-0.06508285 -0.07949329 -0.008900131 -0.039800603 -0.0024760019 0.009939489 -0.053248394 -0.0026163396
-0.080761805 -0.025502058 -0.033375848 -0.09634985 0.010989592 0.06276168 0.10749285 0.108163096
-0.04147186 -0.047344938 -0.049364064 -0.07474618 0.078998804 0.09099585 0.0467163 -0.030025043
-0.05271252 -0.0715291 -0.09537093 0.068013385 0.017754337 -0.02563489 -0.085904315 -0.024714276
0.034509175 0.07453463 -0.10716626 -0.06193479 0.10718975 -0.034847464 -0.013824628 -0.0052458798
0.034212988 0.003386781 -0.038241252 0.0518845 0.03544596 -0.08753632 -0.047398295 -0.04677208
-0.05614055 0.003644773 0.025766134 0.04708061 0.00431134 0.03814388 0.14400971 -0.038107075
0.07384077 0.029916521 0.015654039 -0.06452634 -0.08613653 -0.040838305 -0.033751704 0.08512828
0.08741058 0.012679108 0.11144641 -0.0033918812 0.056470554 0.015987584 -0.009347839 0.052194312
0.10602054 0.1307695 0.022856671 0.07698594 -0.0925757 -0.01744299 -0.086437196 -0.12337698
-0.022942763 -0.0025509172 -0.10441801 0.0026835897 -0.12502193 0.103468716 -0.0037201399 0.07504514
-0.096611865 -0.1237322 0.07628391 -0.004348313 -0.08346886 -0.0061582066 0.008615248 -0.03273186
0.0050136116 -0.025940947 -0.054060385 0.081628 -0.034584783 0.016412301 0.07288877 -0.03647579
0.12812391 -0.04130728 0.088389084 0.07823206 0.09508747 0.108862445 -0.038433973 -0.06429543
0.040383928 -0.13083152 -0.011301185 -0.07444759 0.11516297 0.075700045 -0.0006004117 0.12935303
0.09897833 0.1275629 0.05918154 -0.018158657 -0.08501237 -0.038043108 -0.11023875 -0.024048233
-0.06261597 -0.05894282 0.117677994 0.020549208 0.09059441 0.06718628 0.06095077 0.05086325
-0.09485976 0.06892083 -0.09877458 0.0055827554 0.016628781 -0.05198572 0.0011926482 0.0057636006

network.0.bias f4 [128]
00000000: 285e 033d 074a 94bb fbeb a33c 4644 02bd
00000010: 1805 863d 1f50 cf3d 578c 863d 490a 7ebc
00000020: 01eb bfbd 2e1f b1bd 76d6 d63d 3ccf 903d
00000030: 56b1 54bd 2d9d d0bc 9e8a 2d3a 94a3 8d3d
00000040: 1081 e8bd 53cb eb3c 54ff f43d 89fa ca3d
00000050: 712a 6d3c f829 bebd d21f 853d 3852 20bd
00000060: fd60 efbd dff7 bd3b 39cf f4bd 3a37 b33c
00000070: 3168 ddbd 8d7c d63d 4a23 88bd c562 9e3d
00000080: 3392 9d3c 2907 aa3d b329 6ebd ac19 0bbe
00000090: 4d01 b93c 81f4 16bd bad2 be3d 7abe b9bd
000000a0: 808d ec3c b7dd 513d 5767 7dbc 221e a5bd
000000b0: 664a 86bd 29a5 1b3d 322d a7bd 6683 ddbd
000000c0: b2cb f73d a14a 4b3d 7156 063e b050 ff3d
000000d0: 7c7e b5bd 4d53 f9bd 7645 08be a4c9 a9bd
000000e0: 5f6c fabb 131c ce3d 7da0 0b3e 4c01 f93d
000000f0: 76de f73c bcb4 52bd 14fd d33d 0eeb 023e
00000100: 949d 033d cba2 ffbd 2769 4b3d 15b6 f93d
00000110: 64d3 9bbd d4b1 22bd ae73 193d ce71 c33d
00000120: 028c edbb f463 723d 53e7 053e 6cb8 1cbd
00000130: 10bd cabd 10fb abbc d592 d9bb d936 b83d
00000140: bbfe d7bd e0ba e2bd d700 c63d dd43 b63d
00000150: 0b38 e93d 84c0 fabc 3710 cabb fe00 f13d
00000160: 0e7a a2bd 0f35 5abd 3432 ddbd ffe1 d33c
00000170: c577 093c 2ef1 c6bd 6303 a3bd 267b e7bc
00000180: ee0f 113e 7259 84bc 6da0 8dbd 98d4 d8bd
00000190: 95d4 823d beca 473d e32a 003d a335 cb3d
000001a0: ea02 50bd e2b4 8b3d 362c b0bd fff7 a43d
000001b0: 4489 bbbc 503d a8bd 8011 47bd 3d5f e5bc
000001c0: 4f7f 4cbd d08d d6bd 32a8 8fbd 48b9 db3c
000001d0: 52ac 6b3d 1d45 c63d 26f0 b33d 18ac 4c3d
000001e0: dbe8 f63d 83ec bf3d 835d f93d a996 703d
000001f0: 16bf 303d fe61 94bc c83e 44bd 93e9 e5bd
0.032072216 -0.0045254263 0.020009985 -0.031803392 0.0654394 0.10122704 0.065697365 -0.015505382
-0.09370995 -0.08648525 0.10490124 0.07070777 -0.051926933 -0.025465572 0.0006620082 0.06915966
-0.11352742 0.028783476 0.119627625 0.09911067 0.014475451 -0.09285349 0.0650021 -0.03914091
-0.11688421 0.005797371 -0.11953587 0.02187692 -0.108108886 0.10472975 -0.06647356 0.077336825
0.019234752 0.08302147 -0.058145236 -0.13584012 0.022583628 -0.03685427 0.09317537 -0.09069534
0.028876066 0.051236834 -0.015466533 -0.08062388 -0.06557159 0.037999306 -0.08162917 -0.10816078
0.12099399 0.04963172 0.13118912 0.12466562 -0.088620156 -0.121740915 -0.13307747 -0.08290413
-0.0076423134 0.100639485 0.1363544 0.121584505 0.030257445 -0.051441893 0.10351005 0.12784979
0.0321327 -0.12482222 0.049660828 0.121929325 -0.07608679 -0.03972037 0.037463836 0.09543191
-0.0072493562 0.059177354 0.13076524 -0.038261816 -0.09899342 -0.02099374 -0.006639818 0.08994836
-0.10546633 -0.110708 0.09668129 0.08899663 0.113876425 -0.030609377 -0.0061664837 0.11767767
-0.07933436 -0.053273257 -0.10800591 0.0258646 0.008390372 -0.0971397 -0.0795963 -0.028256964
0.14166233 -0.016155932 -0.069153644 -0.10587424 0.06388203 0.048777334 0.0312909 0.0992234
-0.05078403 0.0682161 -0.086021826 0.08055114 -0.022892602 -0.082148194 -0.048600674 -0.027999515
-0.0499261 -0.10476267 -0.070145026 0.026821747 0.057537384 0.09681151 0.08786039 0.04996881
0.120561324 0.09371283 0.12176039 0.05873743 0.043150984 -0.018113133 -0.047911435 -0.11226191

network.3.weight f4 [256, 128]
00000000: 00f3 90bb 8d32 c63c 25ba 08bd 9965 06bc
00000010: 20c8 a33c a317 733c 67d2 a53c bf40 43ba
00000020: 016c 493a 6554 4ebb 7945 76bd 92da 2c3d
00000030: bb98 5fbc 94b2 0c3d 357b adbb 5674 6e3d
00000040: 3e18 0e3a b2d3 503c 9a5e 32bd 1daa 403d
00000050: cedb 9e3c 5816 b6bb 9079 053d de8a c7bc
00000060: 4b35 1fbc 3e18 ecbb 5cd3 b23c ec53 703c
00000070: 2bc2 cb3c 48f5 f53c 7d53 343c ae1a 393d
00000080: a258 d43c 114d 2dbb 542d 0cbc e327 52bb
00000090: 9e85 63bb be52 9bbb 8910 83bc 019a 003d
000000a0: 249e f7ba 40cf 22ba 571a f4bc 6531 e33c
000000b0: 61fa 433b 0639 30bd bb89 673b d59a aabb
000000c0: 2c2d adbc c08a 8fbb dc75 38bc c177 edbc
000000d0: e41a 63b6 6750 ec3c c30c ffbc dcac ef3b
000000e0: c08d 3fbc 3111 5bbc 1bf6 0fbd 034f 37bd
000000f0: a712 5e3c 44e0 00bd dafc 03bd ba8a f53a
00000100: c78c 74bc 02e8 1bbd 6820 91bc 5020 cd3b
00000110: 6dd3 4c3b 979d 44bc 221a b5bc b630 9db8
00000120: 040f 813c cbff a63c c3dd 3b3b c569 c934
00000130: 2a39 e1bc b735 283b 9e8f a0bc 3ac3 44bd
00000140: c682 9cba ed0a 153c a329 aebc acb8 9a3c
00000150: 7f7b 86bd 1e5b 533c 3618 dabc 2357 5cbd
00000160: 9048 1c3b 06dc 333d 38ff 08bb 0b8d f43c
00000170: 9d06 0fbd 3a9f c939 c995 30b9 1672 fcbc
00000180: a484 4bbd 867b 8bb9 5f4a b2bc 7d57 633b
00000190: 5abf 293d d665 26bd 32f4 a33c 8b97 a7bc
000001a0: 889e 403c 6613 5f3c c8ff 143d 5d2c 28bb
000001b0: 1225 733c 5b7a dcba 6fb0 55bb ac49 8cbb
000001c0: 2dfb f7bc b07c 423b 3e1f 733b 6fdf 96bc
000001d0: e068 b4bc ef97 d73c d237 25bd d6d0 f8bb
000001e0: 583e 1c3b 44e7 c63c ddaa 543d 274a 42bd
000001f0: be38 b73b 4604 cdbb 8f2e 55bc b271 c13a
00000200: 4106 99bc ce38 2dbb 41b2 8438 d692 b03b
00000210: 8939 c83c 1def 523c 42ce 10bc 3a16 d5bb
00000220: 6560 d02b edee 0307 55a7 1dbc 269c c1bc
00000230: 2bcd 9b3c 72ee e33b 0125 4cba 5ecc a2bb
00000240: 03f3 0dba b62f 123a 53b5 78bc 3503 fc3c
00000250: 70e6 84bc 9f6b 463b 8c5a 963b 3a95 eb3c
00000260: 0760 1a07 6b88 093b fe76 7c3b 86c2 12bb
00000270: ba51 0f36 0090 c2bb 960b 5d3b ef81 c73c
00000280: a579 9ebc 97b6 b93c 4a56 9835 d73d 623a
00000290: 01e5 b63a 01d2 1f31 5a51 8cbc 64b0 233b
000002a0: 7c4f fd3c 18cc 0cbb c9e9 08b9 94d4 93bb
000002b0: 3af6 bc86 359e 81bc cd35 b338 6f93 4ebb
000002c0: fa0e 39bc 8b2d 543b 3486 fab9 4acb 46bc
000002d0: ecb9 2eba 71b7 8cb8 daac 953c a5e0 6bba
000002e0: eb52 e91f 0653 0e3d bf4d 213c c474 bbbc
000002f0: ca48 ca3c ef3a d23c d6b0 47ba 6c70 86bc
00000300: 491a 1c3b ca3c 7fbc 9ed7 1638 9f3b 393d
00000310: 449f 48ba 7d95 333c fcf5 1c3c f3e4 6a39
00000320: e61f 9bba eeb2 86bb 8a37 aebc a33e 453a
00000330: d852 293b ed82 983b 15ca 47ba 4db5 85bc
00000340: 08d8 0fb9 3d5d 12ba d2ac 313c 7640 2137
00000350: 8bf7 5cbc 472b 8ab9 51b8 e63c 0123 73bb
00000360: d5f1 5db2 309c 1bba 1c0c 19bb 448f 18ba
00000370: b9df 223b 75a3 07ab 4743 12bb af26 4d39
00000380: 3212 213d 90eb 85b4 e56a 88b6 3e87 0ebb
00000390: cb95 26bc 264e 6bbc 0c3d 8e3c 9ada f43c
000003a0: 424a aab7 af14 bb3b aa29 eeba 958e a5bb
000003b0: 6fda 0ebb eccd fdba d9ea 3137 e224 a03b
000003c0: b4f0 383a 7edf e33a 3c87 30b8 90eb 1fbb
000003d0: 2a1c e438 df43 613c feee a5bc f608 65bc
000003e0: ec23 b8bb 597c 233d e28b c3bb 1b78 92bb
000003f0: 5989 d1b9 794b 82b4 469e a73a a469 0b87
-0.004423499 0.024194026 -0.033380646 -0.008202934 0.019992888 0.014837178 0.02024193 -0.00074483076
0.00076836353 -0.0031483409 -0.060124848 0.042200632 -0.013647254 0.034349993 -0.0052942284 0.058216415
0.00054204825 0.012745785 -0.04354725 0.047037233 0.01939192 -0.005556863 0.032586634 -0.02435821
-0.009717296 -0.0072050383 0.0218293 0.014668446 0.02487286 0.030024186 0.011006233 0.04519146
0.02592117 -0.002644364 -0.008555729 -0.0032067231 -0.0034717093 -0.0047400882 -0.015999096 0.03139687
-0.0018891734 -0.0006210692 -0.029797716 0.027733514 0.0029903876 -0.04302313 0.0035329896 -0.0052064457
-0.021139704 -0.004380554 -0.011258569 -0.028987767 -3.3841288e-06 0.028846933 -0.031134015 0.0073143076
-0.011691511 -0.013370798 -0.035146814 -0.044753086 0.013554252 -0.031463876 -0.03222356 0.001873336
-0.014926142 -0.038063057 -0.017715648 0.0062599555 0.003125395 -0.012000463 -0.022107188 -7.4954165e-05
0.01575423 0.020385643 0.0028666116 3.7516125e-07 -0.027493078 0.0025666782 -0.019599732 -0.048037745
-0.0011940829 0.009096843 -0.021260088 0.018886887 -0.06566524 0.012900142 -0.026622873 -0.053794038
0.0023846962 0.043911003 -0.0020904075 0.02985241 -0.034918416 0.0003845634 -0.00016840467 -0.03081612
-0.049687043 -0.00026604178 -0.021763979 0.0034689598 0.041442253 -0.040624462 0.020013902 -0.020458004
0.011756547 0.013615465 0.036376745 -0.0025661208 0.014840381 -0.0016821133 -0.0032606383 -0.0042812433
-0.030271137 0.002967637 0.003709748 -0.018417088 -0.022022665 0.026317565 -0.040336438 -0.0075932546
0.002384087 0.024280198 0.05192076 -0.047434 0.005591481 -0.006256613 -0.013011589 0.0014758615
-0.01867974 -0.0026431563 6.327453e-05 0.005388598 0.024441497 0.012874392 -0.008838238 -0.0065028938
1.4806044e-12 9.925559e-35 -0.009622415 -0.023634028 0.01901873 0.006955915 -0.00077874964 -0.00496821
-0.0005414935 0.00055765675 -0.01517995 0.030763248 -0.016223162 0.003027655 0.0045884307 0.02875768
1.1613892e-34 0.0020985852 0.0038523073 -0.0022393777 2.1356232e-06 -0.0059375763 0.003372883 0.02435395
-0.019345114 0.022670073 1.1349996e-06 0.00086304307 0.0013953747 2.3256919e-09 -0.017128635 0.0024976963
0.03092169 -0.0021483954 -0.00013057062 -0.0045114253 -7.107954e-35 -0.01582251 8.545406e-05 -0.0031520983
-0.011295075 0.0032375779 -0.00047783705 -0.012133429 -0.0006665278 -6.709889e-05 0.018270899 -0.0008998013
9.8816515e-20 0.034747146 0.009845196 -0.022882827 0.024692912 0.025662867 -0.0007617598 -0.016411029
0.0023819378 -0.015578458 3.5963596e-05 0.045222875 -0.0007653127 0.010960934 0.009580132 0.00022401269
-0.0011835068 -0.0041106855 -0.021266717 0.0007524287 0.0025836732 0.0046542794 -0.000762136 -0.016321803
-0.0001371802 -0.00055833516 0.010844426 9.611356e-06 -0.013486753 -0.00026353655 0.02816406 -0.0037099721
-1.2918879e-08 -0.00059360545 -0.0023353165 -0.0005819688 0.0024852587 -4.8188477e-13 -0.0022317932 0.00019564734
0.039323993 -2.4944575e-07 -4.06556e-06 -0.002174809 -0.010167549 -0.014361894 0.017363094 0.029889394
-2.0300158e-05 0.005709253 -0.0018170376 -0.0050523975 -0.0021797677 -0.0019363738 1.0604702e-05 0.0048872093
0.00070549105 0.0017385331 -4.2087617e-05 -0.002440188 0.00010877133 0.013749092 -0.020255562 -0.013979187
-0.0056195166 0.03991351 -0.005967603 -0.004469884 -0.00039965918 -2.42693e-07 0.0012788258 -1.0488243e-34

network.3.bias f4 [256]
00000000: b188 983d 72ee 96bd 7b89 74ba aea1 88bd
00000010: f1df be3c 9026 bfbc 09cb 913c 29a0 083c
00000020: 475a a6bd 4b12 d2bc 4a9b 96bd f306 243d
00000030: 414e 643d 3edc 31bd da7a 923d 8368 223d
00000040: 9f29 60bb 91e7 4bbd ce81 a2bc 1ad6 4bbd
00000050: ea03 4d3d f42c 3c3c dd61 53bc 71bb babb
00000060: e267 80bd effc a93c e482 f93c 32cb 2e3d
00000070: b0c3 80bc 5553 17bd 2997 0f3d 5dd6 f83c
00000080: 36a0 6e3d e95e abba 0557 6f3b ff74 d23c
00000090: de02 5cbd cc86 a43c 7ec3 08bd 83e8 59bd
000000a0: 402f 65bd 8a37 6bbd 2d2f c2bc 3e8d 963c
000000b0: 2442 3a3d 2098 6a3d 9394 ddbc 486d 993d
000000c0: 6b17 19bd dd63 3e3d 22f0 993c 6087 9e3c
000000d0: 7a06 1d3d 0077 80bd be7f 72bd 9f6a 81bd
000000e0: 181c 12bb 7a7f 563d 06aa b9bb 372b 7e3d
000000f0: 3c5c 6e3d 860c 133d ec45 bebc 3dbf 9d3d
00000100: 0b7b 863b bc99 9dbd 1c3a bb3c 7361 393b
00000110: 52af 7fbd a930 543b de78 94bd 32ee 8fbd
00000120: e6f1 cfb9 7f2c 53bd dae0 18bd 41a3 c63c
00000130: dbd3 8fba dfa3 323d 339b 8b3d 12c1 b1bc
00000140: bf6c cebc 6d89 703d 4c8c 463d 45c4 bfbc
00000150: f50c 923d 2612 69bc b88a 8ebc e01f 56bd
00000160: 1ce3 86bd 8c50 9cbb 3a1a 48bc dd8c cebc
00000170: d7e4 98bd efff acbc b564 9b3d 5ade 0a3d
00000180: 064f 1f3d a83d 3aba 4c26 29bd 9f2f a1bd
00000190: b94f 7abd 92e0 31bc 6a1d d4bc 0cde 72bd
000001a0: bd02 9dbc 7ee9 0ebd c1b2 d1bc 3bc3 e1bc
000001b0: f39b 843d 0fd9 963d 998f 8abd 7278 a3bd
000001c0: e987 f83c face 68bd 0823 0e3d 0cc5 91bd
000001d0: b217 d3bc 3dea 98bd 3e17 223d b0ae 94bd
000001e0: 5eed 213d 629a 423d 3ca4 0d3d e64d 0dbd
000001f0: e790 543d 2f56 8bbd 40de 9f3c 646f 92bd
00000200: 09e1 2bbd 67dd 28bd fc2e 1a3d 098e 663d
00000210: 442c 313d da67 52bd 4245 e23a b138 1d3d
00000220: 17fe 083d 39ce 1cbd b3bd 5f3d 8c99 eb3b
00000230: 6a0b dfbc 5526 22bd a9c7 cb3b bdf4 86bd
00000240: 2224 2bbd 57b1 19bd d912 aa3c 3ba0 ac38
00000250: 6a66 9a3d 2f3c aabc 872a 59bd b855 1f3c
00000260: ff5c eebc 3650 ac3c 2293 0c3d 2724 97bc
00000270: f0a1 67bd 77a3 a03c 7953 80bd 928f c0bb
00000280: 8b7c 08bd a110 4ebd cbba 89b8 e9f6 81bd
00000290: d9d5 703d 1736 9d3d db05 973d 5c6e 08bd
000002a0: 8e3c 2b3d 5b0b 96bd b416 bd3c 6047 6b3d
000002b0: 8d01 76bd a041 573d c9f4 71bd d187 d53c
000002c0: e7bc 353d f259 9dbc 1c7b 47bd cc95 833c
000002d0: 50d2 803c aeef 05bd cbaa 18bc f9e4 4aba
000002e0: f423 a7bd abc3 e03a 117b 6f3d 295f 303d
000002f0: bc5d 89bd 525b 983c 39b1 1dbd 0cc8 933d
00000300: 8703 bc3c ff51 dbbc 8110 f23c c36e a3bc
00000310: fd85 3d3d 793a c5bb f3ed 8d3c e9ff 163c
00000320: b6bd 06bb 9169 823b f0dd 32bd 593a 9bbd
00000330: 5556 0c3d 542e bc3c 24a8 353d 8ef5 55b7
00000340: 8757 48bd 9616 91bc 0afc 89bd 0a1c 8a3c
00000350: 9793 c23c b956 44bd 66f5 663d f1f8 6fbd
00000360: 17c9 94bd e32c 0fbd 1f2b 9ebc 3eda 9bbb
00000370: 2e8c a33d 92b6 73bd 6f9a 5bbd 38d6 033b
00000380: 135a e83c 309c 18bd b3fc 8cbd ffa6 403d
00000390: 426b 79bb e395 893d 402b 99bb 5718 573d
000003a0: b6fc c43c b54f a83c 77e1 3d3d c5d2 d6bb
000003b0: af10 a63d 0828 63bd 5a4c a5bc 939e c1b9
000003c0: 9b0d a0bd 56b4 823c 6e4e a4bd 68ca 063c
000003d0: 4db9 2cbd 727c 71bc 9748 923b f001 993c
000003e0: 8152 a43d 7b11 3fbd b0be 2bbd 9ac5 78bc
000003f0: b52d 4dbd 941e 533b 40b1 803d b068 573d
0.07447947 -0.073696986 -0.00093283475 -0.06671463 0.023300143 -0.023333818 0.01779701 0.008338966
-0.08122688 -0.025643488 -0.07353838 0.04004569 0.05573869 -0.04342293 0.07152338 0.03965045
-0.0034204496 -0.049781386 -0.019837286 -0.04976473 0.05005256 0.011485327 -0.01290175 -0.0056986143
-0.06269814 0.020750491 0.030457921 0.04267425 -0.015718311 -0.036944706 0.035056267 0.030375654
0.058258258 -0.001307455 0.0036520374 0.025690554 -0.053713672 0.020083807 -0.03338956 -0.053200256
-0.055953264 -0.057426013 -0.023704136 0.018377896 0.045473233 0.057273984 -0.027048385 0.07491547
-0.03737585 0.046481956 0.018791262 0.019351661 0.038336255 -0.062726974 -0.059203856 -0.063191645
-0.0022294577 0.052367665 -0.0056660203 0.06205293 0.05819343 0.035900615 -0.0232267 0.077024914
0.0041040233 -0.07695338 0.022854857 0.0028286844 -0.062423058 0.0032377637 -0.07249616 -0.07027854
-0.00039662345 -0.051556107 -0.03732381 0.024247767 -0.0010973172 0.04361331 0.06816711 -0.021698508
-0.025198339 0.05872481 0.04847364 -0.023409018 0.071313776 -0.014225518 -0.01740013 -0.052276492
-0.065862864 -0.004770344 -0.012213284 -0.025213653 -0.07465523 -0.021118132 0.07587568 0.033903457
0.038893722 -0.00071045244 -0.04129629 -0.07870411 -0.061111186 -0.010856764 -0.025892932 -0.05929379
-0.019166345 -0.034890644 -0.025597932 -0.027558913 0.064750575 0.073656194 -0.0676567 -0.079819575
0.030338245 -0.056838013 0.034701377 -0.07117662 -0.025768135 -0.074665524 0.039572947 -0.072598815
0.03953301 0.047510512 0.034580454 -0.034498118 0.051896002 -0.068035476 0.019515157 -0.07150152
-0.041962657 -0.04122677 0.037642464 0.0562878 0.043255106 -0.05136857 0.0017263072 0.038384143
0.033445444 -0.038282607 0.05462427 0.007189935 -0.027227122 -0.039587338 0.0062188697 -0.06589649
-0.041782506 -0.03752264 0.02076094 8.2314444e-05 0.07539065 -0.02078065 -0.053019073 0.009725027
-0.029097078 0.021034341 0.034320004 -0.018449856 -0.05655092 0.019609196 -0.06265921 -0.00587649
-0.0333219 -0.050308827 -6.567462e-05 -0.063459225 0.05879769 0.076763324 0.07374164 -0.033308372
0.041805796 -0.07326385 0.023082115 0.057441115 -0.060060073 0.05255282 -0.059071336 0.026065739
0.044369604 -0.019207928 -0.04870139 0.01606264 0.015725285 -0.03269928 -0.009318064 -0.0007739808
-0.081611544 0.0017148157 0.058466975 0.0430595 -0.067073315 0.018598232 -0.03849909 0.0721589
0.0229509 -0.026772497 0.029548885 -0.019950276 0.04627036 -0.0060189334 0.017325377 0.009216287
-0.0020559854 0.0039798697 -0.043668687 -0.07579488 0.03426202 0.02297131 0.044349805 -1.2752962e-05
-0.048911598 -0.017710965 -0.06737526 0.016859073 0.023752017 -0.047934268 0.056386374 -0.05858702
-0.07264917 -0.034954917 -0.019307671 -0.004756241 0.079857215 -0.059500284 -0.053614076 0.0020116698
0.028363263 -0.037258327 -0.06884136 0.04703426 -0.0038058315 0.06718042 -0.0046743453 0.052513447
0.024046283 0.02054582 0.0463576 -0.0065558874 0.08108651 -0.0554581 -0.020178009 -0.00036929976
-0.07815095 0.015955132 -0.08022772 0.008226968 -0.042168904 -0.014739143 0.00446422 0.018677682
0.08023549 -0.04664753 -0.0419299 -0.015183831 -0.050092418 0.003221427 0.06283808 0.052590072

network.6.weight f4 [1, 256]
00000000: c5ae baba 7d09 0cbd 69d8 fbb9 8edc 59bc
00000010: 21c5 b4bb 29cb 153d 1bac b7b8 544f 243d
00000020: 383e 1cbd 44a3 a1bc a2d2 babc f541 993c
00000030: d9eb bc3c ed7b 78bc 3037 40bd e750 763c
00000040: 60e3 2fba 4a9c 3f3d 8c72 28bd c2b9 7abd
00000050: edb9 013d bace d13c 25b4 50bd cc00 743b
00000060: 9250 d7bb db93 98b9 85a7 09bd 8a01 16bd
00000070: f7f7 cb3c 7a2f c73a 514d 363d a506 28bd
00000080: f8f7 953c 8d63 11bd 227c bbbc 7028 963c
00000090: 9f7b 24bc 4619 dfbc 7b07 a93b 93ce b33c
000000a0: 2088 413d af02 0a3c 02e7 293d a853 74bd
000000b0: ed86 1fbc 7b25 433d b87f 283c df96 f7bc
000000c0: ff54 01bc b5e0 1fbd 22b1 153d e0aa 33bb
000000d0: 92c6 073d 6cfd 37bd d869 4dbd 28cc 003d
000000e0: 109a 9fba c254 4bbd 854e 01bd 02f7 2d3c
000000f0: e258 afbc ba2a 0a3c eb0a 6ebc 7216 1d3d
00000100: c8dc 5f3d bea8 343c 7e25 10bd 8865 7d3c
00000110: b1ac 273d 63a2 fcbc 8ba7 03bd 1d07 133d
00000120: 5da0 e2bc 13d2 adbc 90ed 123d e2b0 033d
00000130: 4e82 693c af64 9a3c 5e74 09bd 40e7 18bb
00000140: 9151 60bd 9720 31bc 0932 80bd e458 91bc
00000150: fe33 1d3d 9c18 72bc 9324 f43c bfa6 4b3d
00000160: d481 3f3d 7bfd 0bbd 83ba 023c 9813 19bd
00000170: c7d1 213d 4290 6a3d b4de 533d 8bb4 a13c
00000180: 7e4a 26bd e338 3fbd d69d fdbb 364a 1a3d
00000190: bd63 1ebd 6cd3 f73a 8fa8 4b3d b6d7 543d
000001a0: e417 c63c 2d9a 62bd b077 113d a0e4 8ebb
000001b0: 4cfb 4f3c bb31 a33c 2868 11bd a89e 143d
000001c0: ff14 5fbd 65eb 3cbd 4019 fc3b 44da 1fbd
000001d0: 91c5 bc3c 10c9 593d 081a 0dbd 532d 303d
000001e0: eced e73c eee5 0d3c 37c2 35bd 3beb b7bb
000001f0: f37d 2d3d 9497 15bd 648d 91bb 8aed 8c3b
00000200: aead 71bc a887 0e3c 6c42 c53c 2811 a5bc
00000210: 0942 943c 2476 233b 161d 643c f5ac 3d3d
00000220: f4af 06bd 7c3c f6ba c799 573d 68ad b33c
00000230: b8cb 00bd 270e 96bc a71a 5f3c 2915 46bd
00000240: 6167 8f3a 5a25 50bd 50ee 013d 06dc 883b
00000250: 104b 05bd 0145 77bc 9c72 c5bc 3f38 50bd
00000260: a7d5 57bd 2aa9 a7bc 29cd efbb d1e0 88bc
00000270: ffd3 41bd f89d 27bd e2eb ca3c 851f e93c
00000280: 10eb 01bd f149 973c 120c c2bc eef9 fcbc
00000290: 6496 223b 20e0 583d a26a 983c b58d 433d
000002a0: e7a3 f03c 0f2e 093d a0b0 d6bb 04a3 acbc
000002b0: 17ea 12bd cc71 093c 9db0 613d c238 ffbc
000002c0: 10ba 1f3d 1b9c 5fbd 8448 00bd 000d 243b
000002d0: af6c 2ebd 0d64 3a3d 6b2b 18bd f52f 58bd
000002e0: e4ce f9bc ea74 30bd efaf 223d 531e 59bd
000002f0: caff f33c 1ab5 4dbc 9b57 5c3d 522f 153d
00000300: 6e20 b6bc 886c 56bd 9202 f13c 3899 b1bb
00000310: 87c1 09bd 22e4 4ebb 333a b73c be58 09bc
00000320: 9d0f 49bc 3705 91bc 9bad 383c e626 25bd
00000330: 6338 3bbd 247a babc 9955 a5bc aa58 dfbb
00000340: efcb 29bd c392 27bc bdf2 3dbd f5f8 b43b
00000350: adc5 f2bc 24c6 3abd a045 b43c 60ed fdbc
00000360: effa fb3c 3ee9 71bc 8a19 19bd ea58 19bd
00000370: 1f0b 313c 82a0 403d 49c5 3f3d 36ec 4ebd
00000380: d220 e9bb 6c49 573d 17e4 86bc 47b8 b7bc
00000390: bddd 78bd 9cbc 2c3d 95ff 1cbd 3b72 df3c
000003a0: 7deb 463d 6715 ec3c 34db 6cbc c33d 2dbd
000003b0: eecd b03c c989 ccbc 8127 b33a c197 31bd
000003c0: bb65 fcbc 5ac1 a8bc 7c01 de3c 6e0c 2c3d
000003d0: f26d a13c e220 0c3d 4ab7 093d 9b3f 28bb
000003e0: dec7 2a3d 2a67 243c 53b2 4cbd 85fc beba
000003f0: bbe6 4ebd 0939 12bc e805 093d b6ac c6bc
-0.0014242759 -0.034188736 -0.0004803569 -0.013297213 -0.0055166637 0.0365707 -8.758177e-05 0.040114716
-0.038145274 -0.019731171 -0.022805516 0.018708209 0.02306168 -0.015166265 -0.04692763 0.015033937
-0.0006709602 0.04677991 -0.041124865 -0.06121231 0.031671453 0.02561127 -0.05095305 0.003723192
-0.006570884 -0.0002910186 -0.033607025 -0.03662256 0.024898512 0.0015196644 0.04450733 -0.04102196
0.018306717 -0.03549533 -0.02288634 0.018329829 -0.010039239 -0.027233731 0.0051583624 0.021949088
0.04724896 0.008423491 0.04148007 -0.059650093 -0.009736759 0.047643166 0.010284357 -0.030223308
-0.0078938 -0.039032657 0.03654588 -0.0027415082 0.033148356 -0.044919416 -0.05014977 0.0314447
-0.0012176652 -0.04964138 -0.031569023 0.010617973 -0.021404687 0.008433038 -0.01452897 0.038351484
0.054653913 0.011026559 -0.035192005 0.0154661015 0.040936176 -0.03083915 -0.032142203 0.035895456
-0.027664358 -0.021218335 0.03587109 0.03215111 0.014252258 0.018846838 -0.033558242 -0.0023331195
-0.054765288 -0.010810993 -0.062595434 -0.017742582 0.03837966 -0.014776375 0.029802596 0.04971957
0.046754673 -0.034177285 0.007979038 -0.0373722 0.0395067 0.05726648 0.051726058 0.01973941
-0.040598385 -0.04668511 -0.007739763 0.03766843 -0.038669337 0.0018907613 0.049721297 0.05196353
0.024181314 -0.055322815 0.035514534 -0.0043607503 0.012694191 0.019921174 -0.03549972 0.03628412
-0.054463383 -0.046122927 0.0076934397 -0.039026514 0.023043426 0.053170264 -0.034448653 0.043011975
0.028311692 0.008660777 -0.04437467 -0.0056127585 0.042356443 -0.03652151 -0.004441904 0.004300778
-0.014750881 0.008699335 0.024079524 -0.020149782 0.018097894 0.0024942243 0.01392295 0.046307523
-0.032882646 -0.0018786336 0.052636888 0.021933272 -0.03144428 -0.018317295 0.013617194 -0.048360024
0.0010940843 -0.05081687 0.031721413 0.0041766195 -0.03254229 -0.015092135 -0.024102502 -0.05083489
-0.05269399 -0.020466406 -0.007318158 -0.016708763 -0.047321316 -0.040922135 0.02477068 0.028457412
-0.031718314 0.018467875 -0.023687396 -0.030880895 0.0024808878 0.052948117 0.018605534 0.047742564
0.02937503 0.03349119 -0.006551817 -0.021073826 -0.035867777 0.008388948 0.055100072 -0.031154994
0.038995802 -0.054592233 -0.031319156 0.0025032163 -0.042584118 0.045505572 -0.03715078 -0.05278011
-0.030494161 -0.043080248 0.039718565 -0.053007435 0.029785056 -0.012555385 0.053794485 0.03642208
-0.02223226 -0.052349597 0.029420171 -0.0054198764 -0.033631828 -0.0031569083 0.022366619 -0.008382974
-0.012271789 -0.017702682 0.0112718595 -0.0403203 -0.04570807 -0.02276332 -0.020182418 -0.0068159895
-0.04145425 -0.010227862 -0.04637407 0.005522842 -0.029635275 -0.045599118 0.022005856 -0.030996978
0.030759303 -0.014765082 -0.03737787 -0.03743831 0.010805874 0.047028072 0.046819005 -0.050518237
-0.007114508 0.052560255 -0.016466184 -0.022426737 -0.06075834 0.04217206 -0.03832968 0.027276149
0.048564423 0.0288188 -0.014456559 -0.04229523 0.02158257 -0.024968045 0.0013668389 -0.043357614
-0.030810228 -0.02060001 0.027100317 0.04200404 0.019705746 0.034211047 0.033622064 -0.0025672677
0.041694514 0.010034362 -0.04997475 -0.0014571106 -0.05051301 -0.008924731 0.0334529 -0.024252277

exp_avg f4 [128, 45]
00000000: 5a42 c239 fc91 1a3a f832 9439 82c0 8739
00000010: 7f70 e139 954c 9239 8b2f 2fb9 0696 a5b9
00000020: a518 7439 a3df ecb9 358e 253a dd22 5e39
00000030: 8742 3739 4dbe 9ab8 2e81 97b8 fceb b9b8
00000040: 8f2e 2238 6aab 5a37 d3b6 96b7 8ef3 e338
00000050: a98e 9d39 ba9b 0cb9 4353 da3a a559 f4b7
00000060: 8c1a 1938 20a1 b836 00f3 7936 0c14 e7b7
00000070: 554e b9b8 3588 aa37 5f9b 1bb9 4ff5 8439
00000080: f4ad 913a 2ea9 193a f6f3 f838 65d4 8e39
00000090: 7a32 3536 6d23 87b9 adba 9cb9 ec19 413b
000000a0: 3130 9a37 cd06 1b39 8cb4 3ab9 057a cdb9
000000b0: 9cc6 44b8 37ee 6639 a57e 03b8 9d3d a039
000000c0: 4423 c4b9 b436 16b9 c299 94b8 10b8 0039
000000d0: 28dc 89b9 63a9 e239 b438 293a a401 88ba
000000e0: fa32 ceb9 26dd d339 babb 3bb8 5ade a239
000000f0: 5d30 1ab9 23b9 e2b9 0321 9d37 0420 cc37
00000100: 2522 eeb8 dcd8 8839 b483 233a 0785 1b39
00000110: d1ef f6b7 bd23 9438 bc9e 23b9 a8e2 08b3
00000120: 9781 aeb7 f6ff c1b8 f70b 9ab4 be97 98ba
00000130: e899 bfb8 1cff 433a f42a 3d39 5e8d dd39
00000140: 678b 33b9 9035 f4b7 cc2d 6039 5393 973a
00000150: ede2 5f37 25ae 293a b8ff 04bb 746e ab39
00000160: 717b 6739 5c2b 75b9 36b6 83b8 a558 71b7
00000170: f809 28b8 bb70 11b8 50c1 1bb5 a1a7 66b8
00000180: 9cfd 6d36 6612 ccb6 44a0 f3b8 dbae 0337
00000190: 80ae bbb8 1148 7f39 aa7d 2536 2077 2c39
000001a0: 4f42 a437 5d69 98b8 cbc7 f439 1843 14b9
000001b0: 06b9 f0b5 ec5e d9b8 affe 9fb8 7fbb c8b8
000001c0: da58 10b9 092e d8b8 fa6f 88b6 1899 1bb8
000001d0: 6a97 f1b5 40b2 97b7 d618 53b8 2fd9 01b6
000001e0: 19e1 86b8 2b84 ecb8 ee18 7fb8 746b 3f39
000001f0: 55ce 1f39 2d2f ea38 7d10 e238 80d7 08b4
00000200: c5db 2db8 0217 20b9 1057 26b9 94bc 9cb8
00000210: 6964 6539 6f7c 7839 5ff8 7939 8502 30b9
00000220: 83bb 5cb8 688c b138 a10d 6fb9 9067 07ba
00000230: f165 8db9 e315 8db9 f029 833a 4c49 a1b9
00000240: 8d31 06bb 189a 0bba 888f 7939 3ce5 5938
00000250: fe6c b3b9 595d 8ab7 86d4 00b9 8100 d0ba
00000260: 9937 73ba bf28 eeb6 ed4b 29b9 fb76 95b9
00000270: 5377 7539 4c79 3eb9 533c 0639 103b 1e39
00000280: 5a06 e2b8 733a e5b6 6b10 ddb9 3b21 c2b8
00000290: ab80 ceb6 9bf4 f4b9 19a9 0e39 6752 2aba
000002a0: 0c36 41ba cfb5 b2b9 2156 78ba 7e87 0ab9
000002b0: e0fb 6538 705a 9fb8 0d18 b2ba ed42 58ba
000002c0: 9d79 ae38 eacd 3d37 3a70 a5b9 8638 02ba
000002d0: f132 e238 6c69 b839 ecd6 4a39 905b 5939
000002e0: 0155 0a39 37d3 5137 48f6 a6b7 294b c939
000002f0: 3e98 6b38 9253 3339 3088 30ba ab27 08ba
00000300: 402c eeb5 3a9e d3b7 a5a5 b3b8 ade8 3b38
00000310: f6ad 36ba b2dd e539 b523 0ab7 1cbe d938
00000320: 6026 0939 c647 7839 70f2 8539 d37e 04b9
00000330: 625d e3b8 0c46 c7b8 af88 8c36 3793 5e38
00000340: c573 7db8 ea01 00b8 785d ceb9 9c8c 5bb9
00000350: 32ed c039 be4a 0538 3b4d fb39 db4e 71b9
00000360: d49a 4d39 82b2 6739 87e0 2039 fe93 a538
00000370: 9434 e038 f85b b439 aabe 0e3a 7150 ee39
00000380: 8acf 88ba 75a1 11b9 123a 7e39 9f9b cf39
00000390: 15ed 9838 968c a7b8 36ea 0f3a 9c90 01b9
000003a0: 73b4 763a e7e0 60b8 35bd 393a 91c7 8439
000003b0: d09a a2b8 decc 4038 fd17 a338 5875 00b9
000003c0: 5bfd 98b8 b55a b539 4424 d93a e25c c237
000003d0: 5696 3239 57d0 9738 2399 413a 7766 ed37
000003e0: d27f 1b37 d5db 8338 8e8e 83b9 5cde 0837
000003f0: 24e1 2237 8a22 f1b8 4ff4 7b36 5a65 ea39
0.00037052 0.0005896387 0.00028266734 0.00025892636 0.0004299916 0.00027904348 -0.00016707012 -0.0003158303
0.00023278834 -0.0004518005 0.0006315441 0.00021184557 0.00017477023 -7.3787385e-05 -7.224303e-05 -8.865443e-05
3.866717e-05 1.3033723e-05 -1.7966528e-05 0.00010869569 0.00030051664 -0.00013409453 0.0016656894 -2.912881e-05
3.6502766e-05 5.5023847e-06 3.7245336e-06 -2.7546681e-05 -8.836078e-05 2.0329006e-05 -0.00014839832 0.0002535977
0.0011114464 0.00058616966 0.00011871003 0.00027242597 2.7000483e-06 -0.000257756 -0.00029893723 0.0029464914
1.8380671e-05 0.00014784485 -0.00017805601 -0.0003919156 -4.691501e-05 0.00022023251 -3.135078e-05 0.00030563484
-0.00037410308 -0.00014325493 -7.0858296e-05 0.000122756 -0.00026294705 0.00043232282 0.0006455288 -0.0010376466
-0.00039329362 0.00040409825 -4.475911e-05 0.00031064713 -0.00014704601 -0.00043244017 1.873123e-05 2.4333604e-05
-0.00011355084 0.00026101514 0.0006237582 0.00014831508 -2.9437158e-05 7.063847e-05 -0.00015604025 -3.187111e-08
-2.0802761e-05 -9.2506336e-05 -2.869344e-07 -0.0011641902 -9.136257e-05 0.0007476674 0.00018040446 0.00042257732
-0.00017122702 -2.9112009e-05 0.00021379365 0.0011564292 1.3344671e-05 0.0006472788 -0.0020294022 0.00032697956
0.00022075862 -0.00023381173 -6.280506e-05 -1.4385359e-05 -4.0063605e-05 -3.4675682e-05 -5.8023306e-07 -5.499239e-05
3.5463372e-06 -6.0818156e-06 -0.00011616995 7.84892e-06 -8.949358e-05 0.00024345542 2.4660062e-06 0.00016447576
1.95812e-05 -7.26755e-05 0.00046688164 -0.00014139374 -1.7935242e-06 -0.00010365047 -7.629149e-05 -9.571667e-05
-0.0001376601 -0.00010308257 -4.0661516e-06 -3.709746e-05 -1.7999967e-06 -1.8083607e-05 -5.032945e-05 -1.9348915e-06
-6.4315456e-05 -0.00011277975 -6.0819955e-05 0.00018255209 0.00015240286 0.00011166777 0.00010779591 -1.2744385e-07
-4.145109e-05 -0.0001526736 -0.00015863427 -7.473785e-05 0.00021876548 0.00023697478 0.00023839016 -0.00016785607
-5.262672e-05 8.4661704e-05 -0.00022797893 -0.00051652733 -0.00026969568 -0.00026909923 0.0010007005 -0.00030762923
-0.0020476312 -0.0005325391 0.0002379996 5.1950323e-05 -0.00034222746 -1.649435e-05 -0.00012286202 -0.0015869291
-0.0009277999 -7.097696e-06 -0.0001614538 -0.00028508142 0.00023409472 -0.00018164999 0.00012801708 0.00015090057
-0.00010777703 -6.831536e-06 -0.00042164637 -9.2568305e-05 -6.1542573e-06 -0.00046721552 0.00013605169 -0.0006497264
-0.00073704193 -0.00034086264 -0.00094732834 -0.0001321118 5.483243e-05 -7.598556e-05 -0.001358749 -0.0008249719
8.319619e-05 1.1313221e-05 -0.00031554868 -0.0004967529 0.00010786008 0.0003517376 0.00019344286 0.00020728842
0.00013192372 1.2506548e-05 -1.9903426e-05 0.00038393706 5.6170153e-05 0.00017101903 -0.00067341607 -0.0005193899
-1.774526e-06 -2.522684e-05 -8.566239e-05 4.480097e-05 -0.0006968671 0.0004384346 -8.233755e-06 0.00010382777
0.00013079634 0.00023677861 0.00025548367 -0.00012635747 -0.000108415974 -9.502107e-05 4.188237e-06 5.306603e-05
-6.042772e-05 -3.051936e-05 -0.00039361021 -0.00020937849 0.00036797818 3.177928e-05 0.00047931992 -0.00023012927
0.00019608001 0.00022096376 0.00015342432 7.895379e-05 0.00010690946 0.00034400797 0.0005445281 0.0004545483
-0.0010437828 -0.00013888425 0.0002424496 0.00039598063 7.292085e-05 -7.989367e-05 0.0005489917 -0.0001235627
0.00094110443 -5.361522e-05 0.0007085384 0.0002532569 -7.753598e-05 4.5967165e-05 7.776914e-05 -0.00012250745
-7.295116e-05 0.00034590592 0.0016566594 2.3169854e-05 0.00017031407 7.2390474e-05 0.0007385185 2.8300316e-05
9.26848e-06 6.287514e-05 -0.0002509248 8.158004e-06 9.708372e-06 -0.00011498209 3.754412e-06 0.0004470747

exp_avg_sq f4 [128, 45]
00000000: 9cd4 d735 6f83 ea35 5a13 cc35 07e8 7035
00000010: c9c9 ec35 ddaf 4c36 1392 ec35 48c3 4436
00000020: bb3f bf35 0058 2936 a828 6535 108a 1836
00000030: 07c6 3535 30b0 4535 d103 1a35 94e9 f034
00000040: 4130 0c37 4f93 6937 6c7e 4831 30ef 3e35
00000050: 85c4 6335 97ac 0236 34e2 6d35 c833 dd34
00000060: 0be0 2033 36b1 4134 9837 c92f 4fdf f033
00000070: f6c6 c633 3511 1831 e7b6 2135 3392 b235
00000080: f15c 8836 9d85 5836 acad 1536 4027 6436
00000090: ab2d c135 1888 2d36 87a9 1737 ec4d 8537
000000a0: ec58 9336 07bd ec36 c777 d235 11a8 6b37
000000b0: 74c5 0836 9f0f 4c35 b88d be34 321b 8b35
000000c0: a623 3435 f83b 0636 19d8 c834 d769 1136
000000d0: 26ee ed36 ca53 4635 8e70 5235 1fe9 4136
000000e0: 4474 dc35 f96f 2235 b945 aa35 e349 1435
000000f0: 3294 e334 8f27 c136 a21b 8e37 d1cb 5e31
00000100: 6d3c eb34 a1d9 0f35 3554 5e35 4ed3 d834
00000110: 5789 9f34 f100 1c33 2d1b fc33 aef9 9a2f
00000120: b133 9234 3873 0c34 dbef 262f 473d 9336
00000130: 6514 4536 dcf9 1b36 db9c 0d36 87f9 fd35
00000140: ba5f 0e36 e315 ce35 56fd 0b36 fe67 3137
00000150: ddc2 9334 146a 2636 8e6d 8c37 63d8 2235
00000160: 50d5 4b37 3280 c936 9260 a834 7801 8735
00000170: 2f4b 3335 edef 9234 b76d 8a34 e8bb f133
00000180: d552 a235 0b8c b935 e465 3c35 8732 2636
00000190: bf4e 9d34 1b25 fa35 6ba9 9534 9c59 4635
000001a0: cb50 0535 3c1c bc34 be5a b036 ef2f e936
000001b0: 8e90 f52e 5331 ae34 2e01 e234 ca89 3535
000001c0: fec9 7d34 62bc 0034 df0b 9533 38e0 d333
000001d0: cea3 f92e 5127 5134 8d94 3233 d360 442f
000001e0: 09ec 5f34 7594 4335 3484 3536 6b6d b335
000001f0: 7a42 8835 9583 2b36 772c 0e35 f43a 0e36
00000200: 0c30 0c33 a634 cc35 0312 8635 f270 aa34
00000210: 6244 5736 0930 3937 1351 4137 2dd5 9535
00000220: efc8 bf35 f9ec 0836 39d8 ac35 4c73 6736
00000230: ee7d a935 b6bf 7b36 9ea4 b036 6fa2 0436
00000240: 54d1 4637 3d13 e536 052d 1f36 cb01 0f35
00000250: 1420 3736 d861 1136 3c5f 1c35 4925 6c37
00000260: 4b82 0838 395a af2f 13ab 3535 dd85 ab35
00000270: 11a3 7236 c518 5935 e3a6 f734 150e e333
00000280: e2e7 0e35 95f7 e92f bd3b 1435 4091 a734
00000290: 652d 1d30 a613 da36 bf40 ac36 225c e536
000002a0: e286 ff36 f894 6036 4952 9636 814e 1736
000002b0: 03a8 aa36 4ab5 d734 af94 3236 c276 6737
000002c0: 7c75 1338 8241 9a36 3953 2238 1f0c 2537
000002d0: c877 bc35 e598 bd35 0345 bb35 e816 4835
000002e0: 52f5 c835 0a8b f235 0231 af35 6a34 8436
000002f0: 4812 1335 9311 5336 f944 0e36 ab84 0136
00000300: 5e87 8e34 2f65 4635 a7e3 4035 8bae a634
00000310: 25d2 b036 1ecf 8337 f104 6030 8ad1 0b35
00000320: 23a1 5535 49f8 9635 e50b 9235 7d14 0035
00000330: 9198 7133 84b8 6a34 464e c530 6686 a734
00000340: 5c6a fa33 f97a 6a31 0bc2 3336 cbed ed35
00000350: 8a67 7836 4103 1436 18ca 1336 9ce1 e335
00000360: 969e c535 3a31 4236 3d28 b136 e42c 2137
00000370: 6658 9636 b08b 4437 1ed6 1136 ede6 8536
00000380: 7e2d 4037 2e0c 7235 bbd1 bb35 faad 0b36
00000390: ad5b ae35 c73e 5b36 823d fd35 144f 7636
000003a0: d1e5 d536 e74c c035 3dc5 a236 dc47 5236
000003b0: 4965 4b36 a665 9735 818f 8935 19cd c235
000003c0: b42c 0c35 280e f336 1dd0 df37 49bc 3731
000003d0: cfae 3835 c3af b035 b796 2636 dd4e 9735
000003e0: 9d3c 0635 2ece a833 1109 d634 93dd 8530
000003f0: 56bb 4235 5b00 2234 56a3 962f a372 9136
1.6080626e-06 1.7472611e-06 1.5204816e-06 8.974461e-07 1.7642097e-06 3.0500735e-06 1.7625883e-06 2.9319945e-06
1.4249157e-06 2.5234185e-06 8.536831e-07 2.2730128e-06 6.771592e-07 7.3644605e-07 5.7375024e-07 4.4873434e-07
8.355885e-06 1.392218e-05 2.9175693e-09 7.112858e-07 8.4850063e-07 1.947197e-06 8.861855e-07 4.1202134e-07
3.745667e-08 1.8038995e-07 3.660119e-10 1.12164905e-07 9.256284e-08 2.2128692e-09 6.024333e-07 1.3304583e-06
4.0639356e-06 3.2264281e-06 2.230382e-06 3.3997494e-06 1.4392912e-06 2.5858226e-06 9.0397725e-06 1.589112e-05
4.3912933e-06 7.0553538e-06 1.5681079e-06 1.40462225e-05 2.0380512e-06 7.6018654e-07 3.5493372e-07 1.0364222e-06
6.71071e-07 2.0002462e-06 3.7410135e-07 2.166829e-06 7.0908745e-06 7.3882677e-07 7.8394885e-07 2.8894935e-06
1.6425115e-06 6.0512644e-07 1.2686279e-06 5.5241816e-07 4.238987e-07 5.7564534e-06 1.6940587e-05 3.2421108e-09
4.3816127e-07 5.3588343e-07 8.282398e-07 4.038688e-07 2.9715986e-07 3.6322437e-08 1.1739608e-07 2.8189845e-10
2.723223e-07 1.3080432e-07 1.5182826e-10 4.388075e-06 2.9367159e-06 2.3242237e-06 2.110194e-06 1.8922591e-06
2.121537e-06 1.5354566e-06 2.0860075e-06 1.0574235e-05 2.7522665e-07 2.4797673e-06 1.6740316e-05 6.0664587e-07
1.2149409e-05 6.0051907e-06 3.1362703e-07 1.0058711e-06 6.6792103e-07 2.7369188e-07 2.578433e-07 1.1256617e-07
1.2094048e-06 1.3824332e-06 7.018373e-07 2.4765338e-06 2.9300824e-07 1.8637251e-06 2.787668e-07 7.3891147e-07
4.966393e-07 3.5038272e-07 5.2557725e-06 6.9495213e-06 1.1166988e-10 3.2445914e-07 4.209664e-07 6.7628264e-07
2.3635945e-07 1.1989462e-07 6.9405125e-08 9.866238e-08 1.13523066e-10 1.9478945e-07 4.157896e-08 1.7860495e-10
2.0854363e-07 7.2859194e-07 2.7048054e-06 1.3368384e-06 1.0152137e-06 2.5557576e-06 5.2963827e-07 2.1193964e-06
3.263999e-08 1.5214507e-06 9.98902e-07 3.1747146e-07 3.20773e-06 1.1038043e-05 1.1522573e-05 1.1163407e-06
1.4289088e-06 2.0403515e-06 1.2877928e-06 3.4488794e-06 1.2628132e-06 3.7513505e-06 5.2643727e-06 1.9764082e-06
1.1850458e-05 6.8269715e-06 2.371905e-06 5.327426e-07 2.7287797e-06 2.1663636e-06 5.8253113e-07 1.4075377e-05
3.254627e-05 3.1896422e-10 6.76767e-07 1.2779452e-06 3.6155727e-06 8.0874844e-07 4.612876e-07 1.0573073e-07
5.3236556e-07 4.255837e-10 5.5221227e-07 3.1211857e-07 5.7180777e-10 6.4991937e-06 5.133537e-06 6.8354575e-06
7.6152946e-06 3.3465312e-06 4.4799276e-06 2.2546449e-06 5.085954e-06 4.0178776e-07 2.6610612e-06 1.3796323e-05
3.5156947e-05 4.5971838e-06 3.8701317e-05 9.837589e-06 1.4041952e-06 1.4126095e-06 1.3952671e-06 7.453914e-07
1.4972559e-06 1.8070871e-06 1.3052779e-06 3.9400084e-06 5.478837e-07 3.145168e-06 2.1199796e-06 1.929972e-06
2.6548054e-07 7.390799e-07 7.185685e-07 3.1046906e-07 5.269673e-06 1.5712863e-05 8.149775e-10 5.2086455e-07
7.958317e-07 1.1248131e-06 1.088131e-06 4.771353e-07 5.6250943e-08 2.1860075e-07 1.4355883e-09 3.1203962e-07
1.1660879e-07 3.4121383e-09 2.6786026e-06 1.7727083e-06 3.7015147e-06 2.2055613e-06 2.202234e-06 1.6978479e-06
1.4723798e-06 2.8936906e-06 5.2796954e-06 9.6068e-06 4.4806393e-06 1.1715034e-05 2.1731316e-06 3.990592e-06
1.1454684e-05 9.016975e-07 1.3993625e-06 2.0813882e-06 1.2990691e-06 3.2670084e-06 1.886787e-06 3.6702886e-06
6.374649e-06 1.4327496e-06 4.850938e-06 3.1334266e-06 3.0308313e-06 1.127996e-06 1.024906e-06 1.4513818e-06
5.2219116e-07 7.2436123e-06 2.6680582e-05 2.6737033e-09 6.879972e-07 1.3164175e-06 2.4823655e-06 1.1273329e-06
5.0007094e-07 7.8606135e-08 3.9867203e-07 9.739999e-10 7.254324e-07 1.5087555e-07 2.7400898e-10 4.334682e-06

exp_avg f4 [128]
00000000: 0ceb 043b 4aa9 c438 cc57 9439 6a8a 53bb
00000010: 947a cf39 52e0 2e3b ae82 2c3b 56cd 023b
00000020: e8c7 26b8 b18d b139 70f2 bdb8 faf2 9fba
00000030: 81dd 5d3a c0d6 b337 8ed6 433a 2bdf 9eba
00000040: be77 f937 cda7 f5ba 04bc 303a fc8c 4938
00000050: 80a6 7139 647b 8ab7 80d4 193a 12cb 023a
00000060: 9479 1abb 3a41 9d3a bd3b c639 440a 773a
00000070: 5ba9 c4b9 80fe 313b d0f9 fd39 80a8 903b
00000080: ba96 78b9 a1b2 79ba bd9f e5b8 0887 1a38
00000090: d445 34bb effc cb39 0d09 36b9 4fc4 a739
000000a0: 6b7d 7db9 3996 b03a 9d48 833a 75e1 1e3a
000000b0: 1514 d63a 5bbb 9e3a 10b7 81ba 63f5 ae37
000000c0: 68bf 04bb 1e2b 0bbb e374 8039 ac94 2a3b
000000d0: 6fa9 b9b8 6a8d 75b9 316e 193b 930f 8db9
000000e0: c0f7 263a 24f1 a13a 142b 643a 78b4 9db9
000000f0: 7758 4eba 43e1 d2b9 055a 2939 4bf0 9b3b
00000100: 4f76 c03a c889 0cbb 6061 f63a 6f50 e43a
00000110: 8434 a5ba e2f7 59ba b006 5d3a 9dbf adb9
00000120: a8ee 5e39 c763 d839 534c ed3a 92eb 20b8
00000130: fc18 61ba 9444 1f3a 27d3 a439 6118 d73a
00000140: b9f9 17b9 36a6 28ba f01f 1c3b cf26 143b
00000150: 65fb 073b 91aa ee3a 19ba 84ba d808 363a
00000160: 5754 3db9 99df 73b8 8c8b a1ba e1d0 8239
00000170: 7167 983a aa2e 9fb8 c1bb d7ba 42e8 d539
00000180: 5003 9db8 4d26 ebb9 8d59 4339 d626 013a
00000190: a2ae 403b e2c6 ee3a d8a9 903b 156a f5ba
000001a0: b869 ddb9 df31 ca3b 602a 933a abac 3cbb
000001b0: a3a9 4f3a 09bc 65b8 1cd8 7939 8db0 79ba
000001c0: a610 463b 7c03 323b 1d5f b939 764d b3b9
000001d0: ac73 bcb9 453e f7ba fa56 0ebb 2c35 3c3b
000001e0: 7517 04ba de7d 0e3a 738f 5cba 254c b939
000001f0: 7548 c7b9 37a1 93b6 9200 43ba 2626 a5b9
0.00202817 9.377541e-05 0.00028294174 -0.0032278546 0.00039573445 0.0026683998 0.0026323008 0.0019958816
-3.976366e-05 0.0003386564 -9.05738e-05 -0.001220315 0.00084634876 2.1438464e-05 0.0007470631 -0.0012120953
2.9738872e-05 -0.0018742025 0.00067418837 4.8053436e-05 0.00023045577 -1.650834e-05 0.0005868152 0.0004989366
-0.0023571001 0.0011997588 0.0003781001 0.0009423832 -0.00037510213 0.002715975 0.00048442045 0.004414618
-0.00023707273 -0.0009525214 -0.000109493245 3.684222e-05 -0.002750744 0.00038907627 -0.00017360244 0.00031998983
-0.00024174682 0.0013472504 0.0010016147 0.00060608174 0.0016332889 0.001211028 -0.0009896476 2.0856683e-05
-0.0020255689 -0.0021235417 0.0002450115 0.0026028557 -8.853047e-05 -0.00023417702 0.0023411626 -0.0002690522
0.0006369315 0.0012355191 0.0008703929 -0.00030079833 -0.00078714587 -0.00040222154 0.00016150631 0.0047588698
0.0014683696 -0.0021444429 0.001879733 0.0017418991 -0.0012604152 -0.00083148305 0.00084314775 -0.00033139894
0.00021260476 0.0004127307 0.0018104411 -3.8366365e-05 -0.0008586792 0.00060755876 0.00031437838 0.0016410464
-0.00014493511 -0.0006433459 0.0023822747 0.002260614 0.0020749208 0.0018208792 -0.0010126262 0.0006944067
-0.00018055864 -5.8143956e-05 -0.0012324913 0.0002495116 0.0011627508 -7.590403e-05 -0.0016459153 0.0004079957
-7.4869604e-05 -0.0004485123 0.0001863001 0.00049267465 0.0029400964 0.0018217231 0.004414778 -0.0018723632
-0.0004223117 0.006170496 0.0011227839 -0.0028789442 0.0007921701 -5.4772976e-05 0.00023826997 -0.00095249043
0.0030222326 0.0027162721 0.00035356815 -0.00034199253 -0.00035944337 -0.0018863162 -0.0021719323 0.0028718216
-0.0005038896 0.0005435626 -0.00084137096 0.00035342682 -0.00038010222 -4.3997093e-06 -0.00074387447 -0.00031499675

exp_avg_sq f4 [128]
00000000: dc6d 6238 8993 4638 161e ee37 b3ca d638
00000010: 8d30 5338 83df a838 19fe 1f38 1f1d 9a38
00000020: d8c4 fe35 f449 1737 ab55 4a38 1672 2438
00000030: 4563 5738 45c3 dc37 de9b 1038 a022 4f38
00000040: 035c c735 1200 8038 26b9 fb37 8aad 0a38
00000050: 2c20 7f38 8998 b537 7614 2e38 af7c 2338
00000060: 6365 8037 d4f7 f537 abde 8238 04fb 1738
00000070: ef71 3637 a153 2038 d44b 7837 0653 ce37
00000080: 30db 9b38 c0ca 3238 e09a 3136 9b73 3236
00000090: 178f a137 67df 5737 06c7 b538 c729 ed37
000000a0: 5743 1438 f31c 8c38 452a e437 afea a838
000000b0: d173 9b38 5e41 e237 c263 1d38 1520 7b37
000000c0: 78fb 8b38 f976 6b38 e10a 4838 5bb6 6a38
000000d0: 6434 3c33 c825 1238 526a 0938 5bb7 1c36
000000e0: 734d 6e38 eb2f 5438 208f 1138 9edc 2b38
000000f0: ab00 5b38 4d71 c937 128a f137 f4c6 8238
00000100: 9bd6 0138 3b0c e237 6061 8d38 c958 9d38
00000110: c9c6 1438 f1b6 8a38 293f 1538 3920 3638
00000120: 1eb4 a537 5baf 3d38 3ae6 7238 27f0 f331
00000130: b56d e237 356a 2738 0131 b537 63f9 0538
00000140: e994 fb33 3260 d938 96b2 5438 30d1 4d38
00000150: 6093 7c38 dfb4 c637 ec2e 5838 a077 3638
00000160: 4d96 b136 a499 7038 b9fd 5937 f0f7 9138
00000170: 67a8 2038 cb21 0c35 7ced 0038 ad9a 3c38
00000180: 8889 f338 6d29 9334 bddc bb37 7622 b538
00000190: e2b0 1638 0497 2438 f0c4 0438 2ed9 6238
000001a0: b415 5a38 7cb3 9338 3e4a 0137 cd87 e337
000001b0: 9941 0d38 de27 5937 d09e 3c37 8fd0 a337
000001c0: e995 3238 b7a5 2a38 6598 4037 761b 2238
000001d0: 4920 3938 0f57 cf38 d93f f937 8db4 e038
000001e0: f641 e437 62c5 4438 bf95 2b38 4702 f437
000001f0: 00f3 8c38 49c8 b636 a4a8 6639 932b 5936
5.3984913e-05 4.734428e-05 2.838582e-05 0.00010242071 5.0351537e-05 8.0524966e-05 3.81452e-05 7.3487165e-05
1.8981764e-06 9.01752e-06 4.8240337e-05 3.9206898e-05 5.1352446e-05 2.6316973e-05 3.4477438e-05 4.9384893e-05
1.4853434e-06 6.103529e-05 3.0007748e-05 3.3063385e-05 6.08267e-05 2.1647911e-05 4.150389e-05 3.897835e-05
1.5306001e-05 2.932168e-05 6.240358e-05 3.6234982e-05 1.0874573e-05 3.8224858e-05 1.4799607e-05 2.4595774e-05
7.431803e-05 4.2627333e-05 2.6465204e-06 2.6591358e-06 1.9259327e-05 1.28670135e-05 8.6678236e-05 2.8272056e-05
3.5348665e-05 6.6811124e-05 2.7199401e-05 8.0545775e-05 7.4125484e-05 2.6971738e-05 3.7524624e-05 1.49682355e-05
6.674876e-05 5.6139168e-05 4.7693848e-05 5.595978e-05 4.381981e-08 3.48443e-05 3.2762364e-05 2.3352538e-06
5.6815752e-05 5.0589366e-05 3.470399e-05 4.0975043e-05 5.221429e-05 2.4013827e-05 2.8793733e-05 6.235941e-05
3.0955864e-05 2.6946995e-05 6.7415414e-05 7.502881e-05 3.5471083e-05 6.614428e-05 3.558319e-05 4.342219e-05
1.9753406e-05 4.5224424e-05 5.791171e-05 7.099533e-09 2.6992386e-05 3.9914816e-05 2.15997e-05 3.194193e-05
1.1715185e-07 0.00010365284 5.071106e-05 4.907063e-05 6.0218736e-05 2.3687664e-05 5.1542112e-05 4.350359e-05
5.2925084e-06 5.7363548e-05 1.2993282e-05 6.960321e-05 3.830381e-05 5.220324e-07 3.0738753e-05 4.4966746e-05
0.0001161276 2.7411025e-07 2.2394926e-05 8.6371714e-05 3.5927522e-05 3.924129e-05 3.1654665e-05 5.4084863e-05
5.1995463e-05 7.042938e-05 7.706285e-06 2.7123746e-05 3.3678112e-05 1.294349e-05 1.124265e-05 1.9528232e-05
4.257812e-05 4.0685492e-05 1.1479574e-05 3.8649385e-05 4.4137505e-05 9.886745e-05 2.9712844e-05 0.000107147825
2.7210433e-05 4.691387e-05 4.090904e-05 2.9088127e-05 6.7209825e-05 5.447339e-06 0.00021997333 3.2360883e-06
