data/models/regression_models/ML_including_industry_feature/single_dimension/being_ready/version_best/checkpoints/epoch=59-step=1860.ckpt (torch, 447835 bytes, 27 tensors)

network.0.weight f4 [64, 45]
00000000: 8f6e afbd a420 a23c 3751 bcbd e715 eebd
00000010: 2259 deb8 66d2 373c a5f7 86bc f5f3 9dbd
00000020: fde4 e03d 38d4 c5bd 86de 17bd c9f5 1a3e
00000030: 0883 d13c 0f2b aa3c d436 d03d adf5 a83c
00000040: 0b9c bfbd fa7f 663d dd92 3fbd 5885 b03b
00000050: 303c 10bd f83a 50bd 9e8c afbd ad83 09bd
00000060: c1e7 47bc 3441 d93d cf1f 133d cc19 30bd
00000070: 7b63 a1bc f939 373d 8f68 c23d 18ac 43bc
00000080: 3621 d43c da7d 54bc b47e 0dbd 8c7e 52bd
00000090: 2d78 3b3d 1f9d f9bd 2e81 4fbd e891 dfbd
000000a0: 82d4 2b3d 085b 67bd 5323 dc3d 504f d53d
000000b0: 5fbb 14be d8cb 89bc 54c2 eabd 2301 44bc
000000c0: a05b 24bd 373d b13c 7208 d6bc 33f1 bd3d
000000d0: bbf6 f7bc be6a 11bd f1ea 9f3c eac3 7f3d
000000e0: 7a18 643d 0ecb 833d c6cf b53d f607 673d
000000f0: b7f5 e13c c21f b53d 6b67 73bd 4b6c 463c
00000100: 7f2c bd3b d878 23bd 2649 d43c a173 f7bc
00000110: efa6 debb ac33 993d 070b 95bd 04c3 873b
00000120: 2954 2c3d 6560 823d 18a2 453c f399 8cbd
00000130: 30b1 88bd 6221 82bd b4e0 b1bc 5f78 3dbd
00000140: 6976 cabd 449f 903d 50f8 bcbd 47fc cd3c
00000150: 4763 84bd c9df 8fbd f998 10bd 8b4c 5dbd
00000160: 1c4c d4bc 0928 5cbc e528 e13d b407 253d
00000170: e2a7 533d 7d9d d1bd 3858 b3bd 5c17 89bd
00000180: 06b4 21bd 56ef 013e ae11 823d a377 4cbd
00000190: 9c74 bf3d e70a f5bd d4d0 d839 031c ca3d
000001a0: 20ee ffbd a974 aabd 647c e03d 73ad edbc
000001b0: 31db 853c 10bc 103d 4456 e13d 3af4 12be
000001c0: 2a8a d6bd 4c4c 18bd af39 763d d54d bf3d
000001d0: 0956 943c 8def bbbc 13a7 cc3d bc47 5c3d
000001e0: 6c66 e63d f5b7 a23d eaba 9d3c 06d7 933d
000001f0: 4d54 95bd 3634 633d 12d8 693c f60c 833c
00000200: c4b2 f6bd f684 fc3d bd2d c93d 8f07 f23d
00000210: f97b 2e3b 187c 59bd cb20 bb3b 0f1e e03d
00000220: 2066 d6bd 33fd 0cbd d996 0fbd e46f c2bd
00000230: af62 3ebd b518 0f3e 3b20 113e 1495 ab3d
00000240: 493c f13c ea66 a83d 1439 7bbd 4ea3 b83d
00000250: d0a2 84bd bf8c 83bc 90d5 eb3c 01e1 fabc
00000260: 08c4 ed3c 3793 4bbd 362b 6ebd 43be adbd
00000270: af25 d6bb e5bf 803d 3fbf 99bc d206 2e3d
00000280: 86e8 7abd e144 d73c ea4f e3bd 808b 50bc
00000290: ebee 68bc 5e2e 29bc 01b1 4a3d 0816 9f3d
000002a0: d9ef af3c 44b8 d7bd a904 c03d 8618 313d
000002b0: f432 973d e904 673d 287b 813d 65f4 c23c
000002c0: b8ec 46bd cd41 b03d 4570 47bc dca5 c5bc
000002d0: 64e1 8cbd d99e 2ebd 81b4 03bb 7cdf 8f3c
000002e0: b791 723c 35bf c63c f3f2 823c 0cb5 503d
000002f0: 7e4c 983d 953a 42bd 5d60 6c3d 80c3 043c
00000300: 5fbb be3c 1ff9 fc3c 26c8 99bd ef94 6b3c
00000310: ef67 753d 064c 5f3d 93e3 b63b 9c68 c9bc
00000320: 32d3 343b e9ea afbd 4ab9 dfbc f7c6 7138
00000330: 8df0 02bd 21a8 e2bc 9603 173d 4713 f7bb
00000340: ba32 a63c 0f34 2cbd e4cf 5c3d bb62 3abc
00000350: ba88 64bd 623d 9ebd a0ac aabd d0c5 aa3d
00000360: aeab 723d 9202 783c 9e14 f0ba f2a5 3cbd
00000370: c5f8 373d 8fa5 263d d681 6f3c eaff 12bd
00000380: bf0a 37bd 9851 a2bd 53b8 af3d a57b 833d
00000390: 628c 2e3d 35c4 bb3d 74bd a03d c110 48bd
000003a0: 4843 c7bd 91b8 82bd 04d7 683d cdd0 6c3d
000003b0: 4315 c0bd d157 2f3d c5f3 823d c9ac 6fbb
000003c0: 1363 283d bdcd d2bc 39a0 ccbd d95b e8bc
000003d0: 68e3 6e3c e1af 863d 49c8 2c3d eb59 b5bd
000003e0: 1615 253d 166d 6d3d 8e1c 0a3d e2cc 5fbd
000003f0: 528d 403c 909f 98bd a9de 4bbd 9dd7 fc3c
-0.08566009 0.019790955 -0.09195178 -0.11625271 -0.00010602387 0.0112195965 -0.016475508 -0.07712547
0.10981176 -0.09659618 -0.03707745 0.15132822 0.025575176 0.020772485 0.10166708 0.02062496
-0.09355935 0.05627439 -0.04677092 0.0053869896 -0.03521365 -0.050837487 -0.085717425 -0.03357284
-0.0122012505 0.1060814 0.035919007 -0.04299335 -0.019700756 0.04473302 0.09492599 -0.011942886
0.025894742 -0.0129694585 -0.03454466 -0.051390216 0.045768905 -0.121881716 -0.050660305 -0.10916501
0.04195071 -0.0564833 0.10748925 0.10415518 -0.14524601 -0.016820833 -0.114628464 -0.011963162
-0.040126443 0.021635635 -0.026127074 0.09274521 -0.030269017 -0.035502188 0.019521208 0.062442698
0.055687405 0.06435214 0.0887752 0.056404077 0.027582986 0.08843948 -0.0594248 0.01211078
0.0057731266 -0.039910167 0.025913786 -0.030206503 -0.0067948024 0.07480559 -0.07277494 0.0041431207
0.04207245 0.06366042 0.012062572 -0.06865301 -0.06674421 -0.063540235 -0.021713592 -0.046257373
-0.09885866 0.070616275 -0.09227049 0.02514471 -0.06464248 -0.070251055 -0.035302136 -0.054028075
-0.025915198 -0.0134372795 0.10994128 0.04029055 0.051673777 -0.10235117 -0.08757061 -0.066939086
-0.039478324 0.12688956 0.063510284 -0.049918782 0.09348413 -0.1196497 0.0004135432 0.09868624
-0.124965906 -0.083230324 0.10961226 -0.029013371 0.01633987 0.0353356 0.11002782 -0.14350978
-0.104755715 -0.037182137 0.060113605 0.09341017 0.018107431 -0.022941375 0.099928044 0.05377935
0.11250004 0.07945243 0.019254167 0.07218747 -0.0729147 0.055469714 0.014272707 0.015997391
-0.120458156 0.12330048 0.09823177 0.11817848 0.0026624186 -0.05309686 0.0057106963 0.10943233
-0.104686975 -0.034421157 -0.03505597 -0.09493998 -0.04648083 0.13974269 0.14172451 0.08378044
0.029447692 0.08222754 -0.06133373 0.09015523 -0.064763665 -0.016058324 0.028788358 -0.030624868
0.029024139 -0.049700942 -0.058146678 -0.08483555 -0.006535254 0.06286601 -0.018767951 0.042486973
-0.061256908 0.026277961 -0.11099227 -0.012728572 -0.014217119 -0.010325996 0.04948521 0.07767874
0.021476673 -0.10533193 0.09375889 0.043236278 0.073827654 0.056401167 0.06322318 0.023798177
-0.048565596 0.086063005 -0.012172763 -0.02412694 -0.06878927 -0.042631958 -0.0020096602 0.01756262
0.014805249 0.024261096 0.015984988 0.05095391 0.07436465 -0.04741915 0.057709087 0.008103251
0.023282705 0.030880509 -0.075088784 0.01437877 0.059913572 0.05451586 0.005581328 -0.024586014
0.0027591703 -0.085897274 -0.027310032 5.7644178e-05 -0.03196769 -0.02766806 0.036868654 -0.00754014
0.02028786 -0.042041834 0.053909197 -0.011376078 -0.055794455 -0.077265516 -0.08333707 0.08338511
0.059245758 0.015137332 -0.0018316691 -0.046056695 0.04491498 0.040685233 0.014618358 -0.03588859
-0.044687983 -0.07925719 0.08580079 0.06420068 0.04261435 0.09168283 0.07848635 -0.048844103
-0.0972963 -0.063828595 0.05684568 0.057816315 -0.09379055 0.042808358 0.063941516 -0.0036571494
0.04111011 -0.02573287 -0.099914975 -0.028364109 0.014580585 0.06576515 0.042183194 -0.08855041
0.040303312 0.05796536 0.033718638 -0.05463875 0.011752443 -0.07452309 -0.049772892 0.030864531

network.0.bias f4 [64]
00000000: f443 683d e496 d23d 4da6 333a a434 cfbc
00000010: eed6 b0bd 1dcb 43bc a840 6cbd 4779 0e3d
00000020: 52b3 9e3d 928d 8bbd 9321 ed3d 4ed3 6fbd
00000030: 18f0 47bd 5ab5 df3c 68e0 003e a52a f93d
00000040: 8466 fa3d 7f67 c53c de43 9cbd 5b45 da3d
00000050: 5768 8bbd 78ca 253d 3ab2 6abd f10e ce3d
00000060: 46f6 9b3d 222e 04bd 9705 f2bc 4f81 f23d
00000070: b4b1 e23d d1be 163d 6bfa 933a f9eb b1bd
00000080: faec 3e3c c4e7 643d c395 debc e8b6 ba3d
00000090: f540 73bd 78c2 723d 0d31 eb3d f9d9 7ebc
000000a0: 0b5f a03d 37db 663d e46c 8ebd 2984 0b3e
000000b0: 62a6 833d 17de afbd c265 c93d 585f 7d3d
000000c0: 505b 7fbb d288 143d 4bc2 8abd 00d2 babd
000000d0: cf67 8bbd 0f64 4a3d 2b91 7cbd a729 843c
000000e0: 6ba2 0f3e f93c 57bd 3de3 7a3d cccb dbbd
000000f0: 45b1 b93c be54 a13c 7201 5f3a 9636 b7bc
0.05670543 0.10282686 0.0006853089 -0.025293656 -0.086347446 -0.011950281 -0.05767885 0.034783628
0.077490464 -0.06814112 0.115786694 -0.058551125 -0.048812956 0.027308155 0.12585604 0.12166337
0.122265846 0.024097202 -0.07630132 0.1065776 -0.068070106 0.040476292 -0.057298876 0.100614436
0.07615332 -0.03227056 -0.029543681 0.1184107 0.110690504 0.03680307 0.001128984 -0.08687586
0.011653179 0.05588509 -0.027171021 0.09116918 -0.05938812 0.05926749 0.11483965 -0.015554898
0.07830628 0.056361403 -0.06954363 0.13624634 0.064282194 -0.08587282 0.09833862 0.061858505
-0.0038964339 0.036263295 -0.0677534 -0.091220856 -0.06806909 0.04941183 -0.06166188 0.016133143
0.14026801 -0.052548382 0.061251868 -0.107322305 0.022667537 0.019693729 0.000850699 -0.022364896

network.2.weight f4 [128, 64]
00000000: 250b 0a3d 0c17 723c 1eca 3abc 8aab db3d
00000010: cbad 563d 10f9 89bd d874 263c d6d4 9e3d
00000020: 1f25 4d3d 6a0f ab3d d4d1 01bd c874 a33d
00000030: 1eac 1e3d be2a e93d a2cd 5bbd e1a7 c9bd
00000040: fe18 783d 2ca3 ad3c fc9e 3abd 6863 823d
00000050: ffbe 003d 0852 cdbd 867e cbbb 0e31 893d
00000060: cbb9 0dbd 7f34 953d c5ce 3ebd c49e 90bc
00000070: 391c 74bd d359 a73c 5af4 a23d 43f9 a23d
00000080: 8b8c 523d 3e1b e63d bd32 f23b 25b9 f3bc
00000090: 018f 81bc 414b 64bd 8d4c bb3d 7be4 7f3c
000000a0: 6ec9 093d 5231 c33d 9050 f4bc 2f14 80bc
000000b0: ae1b 62bd 4165 bbbc d5a2 0bbd 6649 22bd
000000c0: 3751 75bc fc13 823d 4e8b 0d3c caf2 8dbc
000000d0: 35d4 af3b 112c 113d 1ec9 9a3d 0c23 bf3d
000000e0: 07c7 3f3c 30b1 90bc efb4 773d 854c 82bb
000000f0: 4ff0 3dbd 9a02 883d 0f54 783d da01 e7bc
00000100: b2f3 0487 a345 5eba 6423 ff37 fbac c238
00000110: 87ee feb3 5db2 db3c 5a17 debc ca55 ab30
00000120: 3bc1 29bd 9ada 55b7 7c8b f3bb ee1c 0ebc
00000130: 5c5a de2e 1247 15bd 6b13 6f8f 5fa1 abb4
00000140: 3b7e 7886 c6d0 78bc e108 823c f1f0 2dbb
00000150: b517 0c3d c98c 2f3c c3c5 0d87 8cff 0dbd
00000160: ccae 9e3c ed75 fb3c edc8 263b 25cc 12bd
00000170: 7def a8bc 7616 3621 077f 77ba f364 b7ba
00000180: 86da f10d 5e83 17bc 47a5 93bc fa19 663a
00000190: 7b81 71b8 2196 c3bc d75d 23ba 0819 cfbc
000001a0: 50e4 9e38 6afc 4ab9 bfe6 9ebc a0c3 4f3b
000001b0: 9617 cebb c5b0 a739 6a0d ccb1 2e92 06bc
000001c0: 5b83 a03c f22b 273c 9ca4 a099 2b6b c639
000001d0: 3c69 1dbc ad27 a6bb 1530 0eba c895 f4b1
000001e0: 3fce c424 1e37 2fbc 54cb dfbc 3f9e 0cbd
000001f0: a4bb a63b 983b bb3c c4c3 12bb a874 2fbc
00000200: 703a 253c a560 51bb 5927 55bc 7b4b 953c
00000210: 30fd 1ebd d0b8 7a3b 4d05 1ebb 1586 c83a
00000220: 379d 193b a1b7 463b 390a 8dba 9e16 17bd
00000230: ed25 53bb ae26 023c 6ec7 233b 847e 213d
00000240: 6a69 e6bc f9d5 a6bb 0e36 803b b6b2 29bd
00000250: c741 ffbb 1a21 713c 388a b8ba 7c08 c03b
00000260: db72 d2bc 2d40 2bba 8e50 033d 33a2 88bc
00000270: 84a9 d43b 3cbf 04bd 1ce2 08bb 73c4 9d3b
00000280: 47ac 66bc 0ac7 d33c 858e 3bbc ec40 993c
00000290: 1b53 ba38 af3d b73c f0a0 2ebd 2095 a8b8
000002a0: 79d2 073d 0c40 ed3b 0314 d8bb 62eb d53b
000002b0: 068d e0bb f401 073d 7dc8 033d 9557 a03b
000002c0: 9926 053d 2df1 40bc c879 e53c 05b5 823a
000002d0: 5e6b b0ba 59b2 0ebd 3a74 243c c6f5 9c3b
000002e0: 64df 273c d8d8 023c 7a63 0abd c26f 73ba
000002f0: f5e9 a0bb 42fd 00bc 581b 58bc f88e 4f3b
00000300: 1cef 913c b250 59bb 79a3 24bd ebc5 c1bc
00000310: 4825 66bc fe47 473b 3a6c 1e3d a701 4ebc
00000320: 7941 11bd 38db 51bb 1281 41ba e906 61bb
00000330: 3a6a 8fbb 4cba 22bc 143e 7eba 9312 2c3c
00000340: ca21 db3c a2d0 1a3b e29d 7abc 2601 333d
00000350: a61d c63a 5827 3bbd 94a8 a5ba 1362 0f3d
00000360: 40fd 5f3c eae5 f83c d9d6 16bc a98e 863c
00000370: a40d 2e3d 074a 8abb 6806 843a 8e98 3f3c
00000380: 3a52 dfbc 6fd6 28bd 5d3c ebbb a306 a03b
00000390: edf3 763b 5338 0a3c 26cc 15bc 90c7 a63b
000003a0: 37ec b6bc 2cbf 2fbd 7a3c a93b b173 f4bb
000003b0: 0068 5b3d dcbe 6035 4f4a 97bc 91e7 9fbb
000003c0: bf72 babb c831 4e3b b304 e6b9 52a6 48bb
000003d0: ae73 95ba ecb9 d83b 3a7a a23c c4c5 2aba
000003e0: 6356 e03c 6830 903c cd0f 4c3a 6453 323b
000003f0: fe5d 1abc 38e3 803c 0f9c 14bd b6a8 a43b
0.033702035 0.014776003 -0.011400728 0.10726078 0.052411836 -0.06736958 0.010159694 0.07755439
0.05008423 0.083525494 -0.03169425 0.07981259 0.038738362 0.113851056 -0.053662904 -0.098464735
0.06057071 0.02119597 -0.045561776 0.063666165 0.031432148 -0.10025412 -0.006210151 0.066988096
-0.034601014 0.072854035 -0.04658391 -0.01765383 -0.059597228 0.020428574 0.079567626 0.07957699
0.051403563 0.11235665 0.0073913024 -0.02975137 -0.01581526 -0.05573583 0.0914546 0.015618439
0.033639364 0.095308915 -0.029823571 -0.015634624 -0.05520218 -0.02287543 -0.034090836 -0.03962078
-0.014972976 0.06351468 0.00863917 -0.017327685 0.005365873 0.035442416 0.07557891 0.093328565
0.011705167 -0.017662615 0.060475286 -0.003976407 -0.046371754 0.06641121 0.06062704 -0.028199125
-1.0002192e-34 -0.00084790046 3.0414849e-05 9.282861e-05 -1.18711846e-07 0.026818449 -0.027110744 1.246627e-09
-0.041444045 -1.27466865e-05 -0.0074323993 -0.00867389 1.0111442e-10 -0.03644473 -1.17873495e-29 -3.1968645e-07
-4.6736355e-35 -0.015186494 0.015873374 -0.0026541317 0.034202296 0.010714718 -1.0665778e-34 -0.034667537
0.019370459 0.03069588 0.002544935 -0.03583922 -0.02062201 6.1693725e-19 -0.0009441231 -0.0013991877
1.4905379e-30 -0.009247629 -0.018023146 0.00087776745 -5.7579466e-05 -0.023875298 -0.000623194 -0.02528049
7.5765536e-05 -0.00019358253 -0.019397138 0.0031702295 -0.0062894328 0.00031984426 -5.9387064e-09 -0.008213563
0.019593885 0.0102033485 -1.6610097e-23 0.0003784535 -0.009607609 -0.0050706477 -0.0005424035 -7.118363e-09
8.5350845e-17 -0.010694293 -0.027318634 -0.034330603 0.0050882865 0.022855565 -0.0022394517 -0.010708965
0.010084733 -0.0031948474 -0.0130098695 0.018224468 -0.038815677 0.003825713 -0.0024112046 0.0015298749
0.0023439655 0.0030321854 -0.0010760493 -0.036886804 -0.003221865 0.007943792 0.0024990696 0.039427295
-0.028126437 -0.0050914255 0.003912694 -0.041430198 -0.0077898237 0.014717365 -0.0014079278 0.0058603864
-0.025689533 -0.0006532695 0.032059245 -0.016678905 0.0064899344 -0.032408938 -0.0020886725 0.0048146783
-0.01407916 0.025851745 -0.0114475535 0.018707715 8.884651e-05 0.02236828 -0.04263395 -8.038641e-05
0.033159707 0.007240301 -0.0065941825 0.006528304 -0.006852749 0.032960847 0.032173622 0.004893253
0.032507513 -0.011776251 0.028012171 0.0009972161 -0.0013459732 -0.034838054 0.010037476 0.0047900407
0.010246132 0.00798627 -0.033786274 -0.00092863676 -0.0049107024 -0.007872881 -0.013190113 0.003167091
0.017814212 -0.003315967 -0.040194962 -0.023653945 -0.0140469745 0.00304079 0.03867743 -0.012573636
-0.03546283 -0.0032021534 -0.00073815987 -0.0034336394 -0.004376677 -0.009932112 -0.00096985814 0.010502475
0.02674951 0.002362289 -0.015296431 0.043702267 0.0015115037 -0.045691818 -0.0012638741 0.03500564
0.013671219 0.030383069 -0.009206497 0.016425448 0.042493477 -0.0042202505 0.001007271 0.011694087
-0.027260888 -0.041220125 -0.0071788267 0.0048836037 0.0037682012 0.00843628 -0.009142911 0.0050897077
-0.022329433 -0.042906925 0.00516468 -0.0074600806 0.05356598 8.372424e-07 -0.01846805 -0.0048799
-0.0056899483 0.0031462777 -0.0004387252 -0.0030616713 -0.0011402273 0.0066139605 0.019833673 -0.0006514455
0.027384942 0.017601207 0.0007784337 0.002721035 -0.009421824 0.015733346 -0.03628164 0.0050249947

network.2.bias f4 [128]
00000000: ce46 9bbc 37e5 edbc 3d0c 46bc 1186 65bc
00000010: 9f21 263c b129 d3bc 5e36 30bc 0f79 8a3d
00000020: 11a6 7c3b e08b f1bc 5835 76bc 6a81 993c
00000030: 830c f03c 980e ba3d 4174 66bd 70aa 8f3d
00000040: c814 8bbb b9dc a33d f28f bb3d 1c63 a53d
00000050: aeca 2fbc f647 ac3d 6793 943d 6289 c8bc
00000060: 92b8 92bc 4d1b e1bc 5426 a93d 0934 2e3d
00000070: 8379 11bc 1140 d3bc ef19 15bd 7553 cb3d
00000080: b628 b23d 8f30 9bbb f06f a43c 0a5a 843d
00000090: 734a 7fbd 63b1 033d 8ca2 ddbc 3aab d23d
000000a0: f824 0dbd 46ca 51bd beff 4dbc 3de0 36bd
000000b0: 343b 8fbd 350c 693d 0d3c 193c 2407 53bc
000000c0: 7291 7c3a 61b2 2dbb e37f 16bd 846d 973d
000000d0: 7e88 163c d5c0 dfbc ff42 d83d 7c14 013d
000000e0: b65c 593d 5a6a 81bc ba71 9cbc a157 2a3d
000000f0: 4109 67bd b2eb be3c d15a 85bc 70df d13d
00000100: 646e 893b 3af8 943d c424 c43d 4181 803d
00000110: 8176 713d 443e 1abd 36a2 013e 8465 77bd
00000120: a537 f43b 0162 163d 3c0d 323d bd5c 20bb
00000130: ce66 793d a23b 30bd d8e6 b6bd 31f6 7e3d
00000140: 5dc2 18bb 4ce1 853c 6d1b 84bc f738 babd
00000150: 08ff 213d a424 893c 5866 48bd fd83 18bd
00000160: 329e a7bc c3ba 65bd 4b62 cb3c 16b5 b83d
00000170: bfd6 46bd d31d cc3d 1249 b5bc 6675 18bd
00000180: f523 f13b ca7c 8d3d 3b98 e8bc 0b54 dc3d
00000190: 4510 f53d fcee 0fbd a097 64bb 78f9 dbbc
000001a0: fbe3 7cbc d738 693d 41ee 27bd b2e6 debc
000001b0: 60c5 97bd c56c 18bd 829a aabc 54c5 a13d
000001c0: 96c1 558a 3959 acbc b095 8d3d a41f 8fbb
000001d0: f613 9dbd 3017 1a3d 9aaa 6c3c 21c7 42bd
000001e0: 8c9c cf3b 198d d63d 5627 29bd f4e6 4f3d
000001f0: 693d e9bc eeda f73d becd de3d 18b4 14bd
-0.01895466 -0.029039962 -0.012087879 -0.014009015 0.010139852 -0.025776716 -0.01075515 0.06761371
0.0038551132 -0.029485643 -0.015027367 0.018738467 0.029302841 0.09084815 -0.056263212 0.0701493
-0.0042444207 0.08001084 0.09158315 0.08075544 -0.010729475 0.08412163 0.07254677 -0.024479572
-0.017910276 -0.027478838 0.08259264 0.042530093 -0.008879068 -0.025787385 -0.036401685 0.099280275
0.08699171 -0.0047360132 0.020072907 0.06462486 -0.06232686 0.03215159 -0.027055047 0.10286565
-0.034459084 -0.051218294 -0.012573181 -0.044647444 -0.06993714 0.056896407 0.009352696 -0.01288012
0.000963471 -0.0026504027 -0.036743056 0.07393935 0.009187816 -0.02731363 0.105596535 0.031513676
0.05306693 -0.015797783 -0.019097198 0.041587476 -0.05640531 0.023305748 -0.016278656 0.102476954
0.004194068 0.07273908 0.09577325 0.06274653 0.058950905 -0.037657037 0.12659535 -0.060399547
0.0074529224 0.036714558 0.043469653 -0.0024469339 0.060889058 -0.04302562 -0.08930749 0.062246505
-0.002330921 0.016342781 -0.016126359 -0.090928964 0.039549857 0.016741104 -0.048925728 -0.03723525
-0.020461176 -0.056086313 0.024827143 0.090189144 -0.04854464 0.09966626 -0.02212957 -0.037221335
0.0073590227 0.06908567 -0.028392902 0.107582174 0.11965994 -0.035140023 -0.0034880415 -0.026852354
-0.015435214 0.056938972 -0.0409987 -0.027209613 -0.07410693 -0.037213106 -0.020825628 0.078989655
-1.02919864e-32 -0.021038638 0.06913316 -0.0043677855 -0.07669823 0.03761977 0.014444971 -0.047553185
0.0063358005 0.10476131 -0.04129728 0.050757363 -0.028471665 0.121023044 0.10879086 -0.036304563

network.4.weight f4 [128, 128]
00000000: 6555 183d 6966 6b3a 3a00 5dbb 0fef 53bc
00000010: 1563 36bc 0531 0cbd 645d 14bc 71dd 333c
00000020: b6f4 05bd 52dc 153a 4cb2 20bc 9b02 4b3c
00000030: 16ca f0b8 2d57 26bd 1b8f 34bc 45b1 4e3d
00000040: c372 093a 139d 8bbc 2643 1e3c 0a6b 763c
00000050: 0154 0a39 ebd4 d33c d413 003d ad12 8cbb
00000060: 3f5e 94bb a01d 70bc d414 353c 1c2f a63c
00000070: c7ea f8ba e7e5 633c 24ed 41b7 27d4 33bd
00000080: d88a 6b3d 2122 1a3c b184 88bc c7d2 103c
00000090: 045c f4b0 3017 d73c 4b26 fbba 3d4f ee3c
000000a0: c6a4 652e fa72 7bbc 208a d038 77a9 8f3c
000000b0: 0dc0 48bc 4dee 1c3c 15f4 8cbc 22b1 98b8
000000c0: 987f e73c b7ca 1038 a32f 0bbc dda8 653d
000000d0: 5a64 743c 675b 86bb 89b1 683c 40f2 f43b
000000e0: a434 66bc a2bb fd3b a456 0e3a 069a 11bb
000000f0: 57a7 1dbc 1e6b c53c 8f7f ab38 a82a 2ebd
00000100: 5b74 43bd 2b56 3b3c 96f4 30bd a706 3e3b
00000110: ed6b 293c fef2 ca3b 4278 13bd 97bf 73bc
00000120: f89c 82bc 2b70 1fbc 2b26 af3c d681 073d
00000130: 2d44 a33c 9a9d d6b9 e691 333c 3cb6 e1bb
00000140: c332 bcbb 9b81 a5bc cb9e 7e39 b4db 8fb7
00000150: 89f4 09bd 2e8e db3c e736 28bc 06ed 2c3b
00000160: 1f02 84bc 059e 93b8 2c0a 0c3c 4712 dbbb
00000170: f829 5639 d4a2 993c 0a5b d5bc fdad 8b3c
00000180: ab95 6e3a 0218 4d3c 655c 6539 931b 983c
00000190: cb8c 1ebb 4321 0dba 3571 0cbb 95f0 9a35
000001a0: f2a5 f33b e2b9 96bc e5da bd38 daf7 6d3c
000001b0: dfba f8bc 44d5 263a a6be 7d39 5131 313c
000001c0: 6e1f 88ba ed36 acbb 6402 473d ef4d 28bc
000001d0: 9c9e c0bc fba2 7cbc b3c5 d53c 306b 8ab2
000001e0: 8247 563b a4bc e93c bb31 0107 39d9 9a3c
000001f0: a160 533c e0cf 52bc ecd6 d73c 606b c0bb
00000200: 312d 012c bd78 30b1 72bc cfba fc7f 553c
00000210: 974c 593c dc68 6ebb 4e72 9939 db88 ccb1
00000220: 8c89 a9b1 5e50 cdb8 66db 73bc 1bf7 5922
00000230: bcd7 0807 8eb9 5eb0 1c2d 68b3 17f6 133c
00000240: 3392 e1bb 78d5 6135 e072 0b37 f930 b493
00000250: 4160 34ba 5a34 f339 4dd0 c199 988b a8b7
00000260: 8327 7cb6 c705 2fbc e02f 1b3b 7069 422b
00000270: b099 413b 7fec 3b3a 0f1e 0187 90c9 6abc
00000280: e4a3 9e37 6e4e fdb9 53eb 30b3 6ca7 37b9
00000290: c250 178a 0cfb 240e 2342 1abb f58c 552b
000002a0: 068f 8c31 7b42 52b1 570f a2b9 5836 2632
000002b0: 5496 54ae d82c cf3b 5811 b638 c4fd e386
000002c0: f0ea 0607 1d4a c6bb fa51 d337 09f9 263c
000002d0: e4ce c1b9 4a10 0887 470b fbb7 dbc3 b41e
000002e0: 7e1e 3f09 a783 0187 e866 ca31 6480 85ba
000002f0: 976d 6f10 543f 19bc f487 00ad 59b2 c9ba
00000300: ba51 d410 c498 d1b5 e78d 8e39 9d77 16bb
00000310: 2e19 c186 2d53 11bb 6473 15bb 0d81 4ebb
00000320: c561 fcba eddf 85bb d8e9 8e1e 72af 073a
00000330: 122a caba f4f0 a4bb 8125 0237 070a 069a
00000340: dfdd a42c 75ab e0bb c73e 5bba 26a6 6cbb
00000350: c2ac 892e c971 243c 65d2 28b7 8749 c829
00000360: 01bf 7b3c f367 633b ec4a 0707 038c bab6
00000370: 53af 913a d181 3cbc 5ba4 4b31 ee89 4fbc
00000380: d47f 8293 c3a6 3026 8782 9eb9 06f8 baab
00000390: 112c 0d87 1739 61bc 79ad 0a87 25a9 3539
000003a0: aa7e 0b3c 2899 9335 df31 40bc 2e70 0287
000003b0: 591e 888b 3369 5a2b 92a7 3c17 bb0f d5b7
000003c0: 086d 1b87 6331 1e2a d2e7 7aab ba63 62b7
000003d0: 1323 d7b9 9789 84b9 b19c b7ba a31f 0fbc
000003e0: e3ad fb86 79ae 18bb d1b9 36bb 8ffd 8122
000003f0: ef66 0807 8acc 2839 2e64 ba3b f921 5a3b
0.037190814 0.0008979799 -0.003372206 -0.012935414 -0.011132021 -0.034226436 -0.009055469 0.010978089
-0.032704078 0.0005716729 -0.009808134 0.012390758 -0.00011481733 -0.04061048 -0.011020447 0.050462026
0.0005243236 -0.017042672 0.009659564 0.015040169 0.00013192 0.025858363 0.03126891 -0.0042746873
-0.0045278366 -0.014655501 0.011052329 0.020286135 -0.0018990868 0.013909793 -1.155891e-05 -0.043903496
0.05750546 0.009407551 -0.016664835 0.008839316 -1.7779489e-09 0.026256174 -0.0019161192 0.029090518
5.221492e-11 -0.015347237 9.943941e-05 0.017536862 -0.01225282 0.0095783 -0.017206231 -7.280918e-05
0.028259084 3.452107e-05 -0.008495244 0.056069244 0.014916504 -0.0041002515 0.014202484 0.0074751675
-0.014050636 0.007743315 0.00054297806 -0.002221705 -0.009622416 0.024098929 8.177675e-05 -0.04252115
-0.047718387 0.011434118 -0.043202005 0.0028995664 0.010340673 0.0061935177 -0.03600336 -0.014877222
-0.01594399 -0.009731333 0.021380505 0.033082806 0.01992997 -0.00040934683 0.010960078 -0.006888179
-0.005743356 -0.020203402 0.00024282483 -1.7149236e-05 -0.033680473 0.026801195 -0.010266996 0.0026386394
-0.016114293 -7.03894e-05 0.008547347 -0.0066855284 0.00020424265 0.0187544 -0.026044387 0.017050738
0.0009101282 0.012517931 0.00021873561 0.018567836 -0.0024192806 -0.00053836795 -0.0021429781 1.1543913e-06
0.0074355537 -0.018399183 9.0529946e-05 0.014524424 -0.030362545 0.00063641765 0.00024198982 0.010814981
-0.0010385343 -0.005255571 0.048586264 -0.010272487 -0.02351313 -0.015419717 0.026095247 -1.6114058e-08
0.003269643 0.028532334 9.719496e-35 0.018902408 0.012901456 -0.012866944 0.0263476 -0.005872175
1.8357089e-12 -2.5680003e-09 -0.0015849008 0.013031002 0.013262889 -0.003637842 0.00029267598 -5.95274e-09
-4.9341846e-09 -9.790131e-05 -0.014883852 2.95398e-18 1.0294901e-34 -8.102682e-10 -5.4057736e-08 0.00903084
-0.0068838834 8.412967e-07 8.311792e-06 -4.548668e-27 -0.0006880798 0.00046387577 -2.0039864e-23 -2.0092164e-05
-3.7573925e-06 -0.01068253 0.0023679659 6.906897e-13 0.0029541068 0.00071687246 -9.713715e-35 -0.014330283
1.8911385e-05 -0.00048314355 -4.119222e-08 -0.0001751461 -7.2855744e-33 2.0335435e-30 -0.0023537956 7.586842e-13
4.090796e-09 -3.0596812e-09 -0.00030910477 9.674828e-09 -4.8336737e-11 0.0063224845 8.681667e-05 -8.5760785e-35
1.0150081e-34 -0.0060513155 2.5191333e-05 0.010191211 -0.00036965974 -1.023629e-34 -2.9926783e-05 1.9139245e-20
2.3005126e-33 -9.74357e-35 5.890673e-09 -0.0010185358 4.7218864e-29 -0.0093534775 -7.306145e-12 -0.0015388235
8.3745176e-29 -1.5616174e-06 0.00027190076 -0.0022959479 -7.263553e-35 -0.002217482 -0.0022804374 -0.0031510026
-0.0019255212 -0.004085532 1.513155e-20 0.00051759847 -0.0015423915 -0.0050336067 7.757336e-06 -2.771865e-23
4.685793e-12 -0.006856377 -0.00083635416 -0.0036109774 6.260727e-11 0.010036894 -1.0062567e-05 8.894539e-14
0.015365363 0.003469941 1.0178289e-34 -5.5595315e-06 0.0011114873 -0.01150556 2.9633813e-09 -0.012667162
-3.294266e-27 6.128827e-16 -0.0003023336 -1.3284935e-12 -1.0620611e-34 -0.013746521 -1.0432945e-34 0.00017324516
0.008514086 1.0996928e-06 -0.01173064 -9.81308e-35 -5.2430957e-32 7.759515e-13 6.095758e-25 -2.5398904e-05
-1.1692945e-34 1.4050353e-13 -8.9139557e-13 -1.3493869e-05 -0.00041034128 -0.00025279514 -0.001400849 -0.00873557
-9.467121e-35 -0.0023297353 -0.0027881751 3.5233986e-18 1.0261752e-34 0.00016097925 0.005688212 0.003328441

network.4.bias f4 [128]
00000000: 2af0 a13d ad08 66bc beba a53d c873 7e3c
00000010: a7a4 ecbb c6f4 863d 284b c8bb a61b 06bd
00000020: 7c17 9e3d a33c 22bd bcda 063d b962 15bc
00000030: b873 673c 5b15 a4bb 13cf 29bd 50d4 893d
00000040: 179d 653d 5a1e 35bd b5f1 a83d c666 253d
00000050: 3437 af3c 71fc 363d 07fd 233d 1efd e7bc
00000060: 1852 80bc 7994 fa3c b48c 423d 498e 5bbc
00000070: fb8f 903d b38e 223c 351b 05bc 68a4 703d
00000080: 6152 a63d 0afc 0f3d 04f2 fc3b 84e7 3dbc
00000090: ba9e ba3d e220 c2bb 216d a63d a01e 453d
000000a0: 05b8 793d 74af 75bb 6cbd 5f3d da08 aa3d
000000b0: 7d03 913d 4467 8c3d 1fd3 b8bc 652e 02bd
000000c0: 1086 cb3a 7944 423c 6cf1 903d 7709 503d
000000d0: a346 893d f31b 88bb a05a 083d 38b6 97bb
000000e0: 572c 4c3d 36d2 3ebc dc30 67bb 456c 883d
000000f0: b563 953d 7e91 35bc b3dd dc3c e30c 5f3d
00000100: 393d 223c 6267 523d 6747 a53d 4fd8 99bb
00000110: 92b7 85bb c228 ae3d 074d c116 01b7 043c
00000120: f060 4dbc 2168 d7bc 74dc 133d 57b4 9e3d
00000130: 978e 4d3c dbd0 57bc 945a 543d c434 a43d
00000140: e988 3fbc b435 2dbd ada8 84ba c8fd 053d
00000150: 1d44 92bb 29a1 96bb d53c 0487 b3d6 863d
00000160: 15b2 4d3d 979e 8111 f765 2ebd b532 cfba
00000170: c46d eabb 7e18 a5bb d1b3 ec3c 5c95 e4bb
00000180: bba2 08bd 1086 3f3c 3d03 14bb 26c2 48bb
00000190: 8710 b83d 8ab0 853d c4ae 66bc d259 c23c
000001a0: d291 013d 3499 6a3d 99fe a2b8 2f66 a8b0
000001b0: 0ef1 4d3d 7987 883b 6941 893d 80fc 14bb
000001c0: 94bd a5bb 138f 083d b648 c03c b571 e8ba
000001d0: 09af 7cbc 3627 a73c 4b9c 02bc b442 593d
000001e0: b17b b63d c237 37bd 48ad 333d 8517 d8ba
000001f0: a5bf f33c 623e 10bb 8c26 cebc b28e 843d
0.07907136 -0.014040154 0.08092259 0.015530534 -0.0072217765 0.065896556 -0.006112475 -0.03274121
0.07719323 -0.03960861 0.032923445 -0.009117776 0.014126711 -0.0050074286 -0.041457247 0.067299485
0.056058016 -0.0442184 0.08249227 0.040381216 0.021388628 0.04467434 0.040036228 -0.028318938
-0.015664145 0.030588375 0.047497466 -0.013400623 0.07058712 0.009921717 -0.008124162 0.05875054
0.08121181 0.035152473 0.00771928 -0.011590842 0.09112306 -0.00592433 0.081262834 0.04812491
0.06096651 -0.0037488611 0.054624006 0.083024696 0.070807435 0.06855634 -0.022561608 -0.031782527
0.0015527625 0.0118571455 0.070772976 0.050790276 0.06702926 -0.0041537224 0.03328955 -0.0046298765
0.049846973 -0.011646798 -0.0035276925 0.06661276 0.07294408 -0.011082051 0.026961183 0.05445565
0.009902292 0.051368125 0.080702595 -0.0046949754 -0.004080721 0.08503868 3.1229443e-25 0.008100272
-0.012535319 -0.02629477 0.036098912 0.07749241 0.012546203 -0.013172354 0.051844195 0.08017877
-0.011690357 -0.042287543 -0.001012107 0.032712728 -0.004463686 -0.0045968485 -9.948453e-35 0.065839194
0.05021866 2.045035e-28 -0.04257771 -0.0015807959 -0.0071541984 -0.00503832 0.028894337 -0.006975813
-0.033358317 0.011689678 -0.0022584938 -0.00306333 0.08987527 0.06527813 -0.014079753 0.02372447
0.031633206 0.057275012 -7.7721845e-05 -1.2252651e-09 0.050278716 0.00416654 0.06701929 -0.002273351
-0.005058 0.03333957 0.023472171 -0.0017734083 -0.015422591 0.02040444 -0.007971833 0.05304213
0.08910311 -0.04473091 0.043866426 -0.0016486502 0.02975447 -0.002200984 -0.025164865 0.064725295

network.6.weight f4 [64, 128]
00000000: 67d2 5a3d 0d32 b338 08bf 43bb 079b 353d
00000010: bc16 2f2a fb40 103c c68c 2e33 8806 85bc
00000020: a558 673c 1853 b3bb 1151 753d 789d 2194
00000030: c38a da3b 8795 0807 8e41 d23b ff48 963d
00000040: 4657 bf3b 7ebd ae3d 81b3 4b3d 2d4b a93a
00000050: c826 6c3d d4f0 9cbc 24c3 0abd 08bb a43b
00000060: fd6c 783c a1a9 2a3d ee74 813d 1e2b b23d
00000070: f971 95bd 618a 0d3d f64c dbbc 40ca 20bd
00000080: 96a1 fc3c bc27 06bd 6fb5 82bd 0c6b a13d
00000090: 18b4 313d b9e6 923c db9e e03b 312b be3c
000000a0: 8f35 513d ff0a 413c a06a b8bc 25e2 483d
000000b0: 3287 2bbc 37f9 1b3d 38e6 be9e fe28 5abc
000000c0: 9c00 223d c84b 34bd 6abc 90bd da6e b1bd
000000d0: cbcb d1bb 86e0 47bd 92da 653c 9cae 0a3d
000000e0: ff70 e1bc 545e 02ba 5562 22bd 44f1 05bb
000000f0: 77fa 8e3d 9650 6f90 52f9 8c3d 2a7e 053d
00000100: 3578 193d 20b9 00bd 5ab4 f8bc 51a9 8cbd
00000110: 72bc 793c d837 473d 04c6 993b 50ce b73c
00000120: a1c5 2e3c c18d 893d 0454 6abd f796 253d
00000130: e445 9d3d 7fbe 403c 868b 15bd cdbd c3bc
00000140: 69d0 71bc e755 c538 a6de 8a3b bd66 1f3d
00000150: 51b9 89b1 cd50 94ba 09e6 d93b 56dd cfbc
00000160: 39fb 2a3d a6e4 40b4 7972 e43c 1979 3caf
00000170: 1af1 4cba a0a0 ce3b 6ba8 143d 939e 1ebc
00000180: 6ed3 a03d 9890 163c 7591 473c c0d3 f4af
00000190: a9bd a53d ecd8 8f3d 65ba 19a0 773e dabb
000001a0: 3908 9fbd 9666 5abd 81f3 413c 19d6 deba
000001b0: 41da fcbb 7192 ff3b 14c4 cb3d 365f 83b1
000001c0: c61f b3bb 67e3 d03d 9a23 fabc 3ec5 6ab4
000001d0: 4ee9 82bd acbf c1bc 40fc 4535 4ddc f63c
000001e0: 91b0 863c e0bc f939 488c 9fba 465b 27bb
000001f0: d8a7 6b3d 2b35 3c36 8caf d53a d688 9fbd
00000200: 097f 42bb a75a ba24 ff04 8d3d 8a6e 243d
00000210: 5f77 83bb efd1 67bd 706c 5f38 6613 01bc
00000220: 74b8 7c3d 5059 09bc 19fc e6bc 6311 5abb
00000230: 0b55 50bb 44d6 e3a7 172e 493c 218f 6abd
00000240: 09f9 ac3b dab3 403b 13ad 1c3d 4601 25bd
00000250: 8109 433d 6a7f 7c3d 483c 6b3c a3dc bd3d
00000260: 177c 35bc 8055 963a 869a 94bd 8285 33bc
00000270: b13c f53c 89bb 13bc 90c3 3fbd ed56 2ebd
00000280: 8dd7 5dbd 3eeb 13bd 30f5 29bd 9445 3cbc
00000290: afb6 163d a77e b8bc 8831 923d 0768 b2bd
000002a0: ddc1 593c 3bff 06ba 617e 803d 76b4 e7bc
000002b0: 87de 60bc 5c41 1a3d 647b 3637 02a8 a7ba
000002c0: 3105 393b 99a8 19bc d5b7 ccbc 22fa 45bd
000002d0: dca7 623d bfbd 86bb fdfc abbc 6dac 333c
000002e0: fab0 9c3d 863d 6abb 1d5c 3a3c 9b6e f43c
000002f0: 7f9c 663c faec 0bbb 3a3a b8bd 8394 8f3d
00000300: 3145 3f3d 9abf d93c 7c59 1fbd 0148 983d
00000310: 1703 943a 517a 0bbd 2639 47bc 419d 8dbc
00000320: 5f0d 1010 61f8 99bd 1e03 27bd c0ad 7abd
00000330: 76ef aebd cb56 ebba 83c8 3d3c 473d 153d
00000340: 1217 b43b bc85 c439 9dc9 c0ba d23d 003d
00000350: 2eed 0e3c 440a 25b4 94c0 a4a7 f843 4b3d
00000360: 4a46 cabc 1479 870a ffe1 46bd b8a5 032a
00000370: 847d 81ba a829 7cbb ad78 363c 4ec0 fa0c
00000380: 0d4d b4b8 f72d 2ebc 3c3f 42ba 2cb4 e93b
00000390: cfab 93bc d6c4 e53a 3e8d c323 73bb 97bb
000003a0: bfbc f63c f646 56bd da4b 85ba 7405 563c
000003b0: 7c7a 3c3d d86c 86bd 3889 3cbd c0cc 423b
000003c0: 71c7 ff34 99b8 1e3d 02ef 85bd 337b e4b8
000003d0: 10e1 063c fdad f13b a03d a33a 1b2d 8e3d
000003e0: bb42 90bd 8119 1239 592b 213d edfd 93b7
000003f0: 8ffd 443c a20f 7537 19bf 73bd 202c 953d
0.05342331 8.544708e-05 -0.0029868502 0.0443373 1.555101e-13 0.008804555 4.0640565e-08 -0.016238466
0.014120256 -0.005472552 0.059891764 -8.159478e-27 0.0066693737 1.0275445e-34 0.006416506 0.07338142
0.005839261 0.085322365 0.049731735 0.0012916081 0.057654172 -0.019157805 -0.033877507 0.0050271787
0.015162704 0.041665677 0.06321131 0.0869963 -0.07297129 0.034555797 -0.026770096 -0.03925538
0.030838769 -0.032752737 -0.06382262 0.07881746 0.04338464 0.017932283 0.0068548745 0.023213955
0.051076468 0.011782407 -0.02251178 0.049043793 -0.010469245 0.038079467 -2.0212249e-20 -0.013315437
0.039551362 -0.044017583 -0.07067187 -0.086637214 -0.006402468 -0.048798107 0.014029162 0.033857927
-0.027519701 -0.00049731624 -0.039644558 -0.0020437995 0.06981366 -4.719652e-29 0.068834916 0.032591023
0.037468154 -0.03142655 -0.030359436 -0.06868232 0.015242683 0.04863724 0.0046927948 0.022437245
0.010667236 0.067164905 -0.05720903 0.040427174 0.07679346 0.011764168 -0.036510013 -0.023894215
-0.0147591615 9.4096926e-05 0.0042379675 0.03891634 -4.008293e-09 -0.0011315584 0.006649737 -0.025374096
0.04174349 -1.7964575e-07 0.027886616 -1.7141523e-10 -0.00078179094 0.006305769 0.03629343 -0.009681362
0.07852827 0.009189747 0.012180676 -4.45338e-10 0.080928154 0.070237964 -1.3021277e-19 -0.0066602784
-0.0776524 -0.05332049 0.011837841 -0.0017001062 -0.0077164476 0.0077994396 0.09949508 -3.823426e-09
-0.005466434 0.101996236 -0.030534554 -2.1864705e-07 -0.063921556 -0.023650967 7.375529e-07 0.030134344
0.016441615 0.00047633704 -0.0012172544 -0.002553658 0.057533115 2.804513e-06 0.0016302927 -0.07789771
-0.002967777 8.081821e-17 0.068857186 0.04014448 -0.004012033 -0.056596693 5.3268333e-05 -0.00787816
0.061699346 -0.00838311 -0.028196381 -0.0033274523 -0.003178897 -6.3237464e-15 0.012279055 -0.057265405
0.0052787107 0.0029404075 0.038250994 -0.040284418 0.047616486 0.06164495 0.014357634 0.09270599
-0.011076949 0.0011469573 -0.072560355 -0.010957124 0.029936166 -0.00901688 -0.046817362 -0.042563368
-0.054160643 -0.036113016 -0.041493595 -0.011491198 0.036795314 -0.02252133 0.071383536 -0.08711248
0.0132908495 -0.00051497266 0.06274105 -0.028284293 -0.01372493 0.037659988 1.08767745e-05 -0.0012791159
0.0028231854 -0.009378576 -0.024990002 -0.04833425 0.055335864 -0.004111975 -0.020994658 0.0109664025
0.07650943 -0.0035742237 0.011374501 0.029837897 0.0140753975 -0.0021350966 -0.08995481 0.07010748
0.046696845 0.02658062 -0.0389037 0.07435609 0.0011292425 -0.034052197 -0.012159621 -0.017286899
2.8409293e-29 -0.07518078 -0.040774457 -0.061200857 -0.08541767 -0.0017954943 0.01158345 0.03643539
0.0054959143 0.00037483673 -0.0014708523 0.031308956 0.00872354 -1.5370557e-07 -4.5727938e-15 0.049625367
-0.02469172 1.3045572e-32 -0.04855537 1.1692633e-13 -0.0009879326 -0.0038476977 0.01113717 3.8634338e-31
-8.597421e-05 -0.010631076 -0.00074099354 0.007132074 -0.01802626 0.0017529975 2.120176e-17 -0.0046305
0.030119298 -0.052313767 -0.00101697 0.013062824 0.046015248 -0.06563729 -0.0460293 0.0029724091
4.7642564e-07 0.038750265 -0.06539728 -0.00010894835 0.00823237 0.0073754773 0.0012454279 0.06942197
-0.07043978 0.00013933146 0.03934798 -1.7642009e-05 0.012023344 1.4606778e-05 -0.059508417 0.07283807

network.6.bias f4 [64]
00000000: caee 983c 4453 873d 2c23 953d ea7a 733d
00000010: 13e0 de3c 45af 39bc 333b 833c d760 1f3a
00000020: 3d20 2b23 236f 2eba b12f ffbc 29f3 aab9
00000030: d388 ad3c 1b75 5d3d ceea 8a3d de52 133c
00000040: 2fd6 a8bb e19b 85bc 1e19 98ba cb37 543d
00000050: 0f88 01bc 8514 13b8 abf4 fcbb add3 7dbb
00000060: ae5e 82bc bf10 8dbb 06cd 663d db77 a13c
00000070: 219d febb e1a0 bbbc 6c5f a0bb 2747 a13d
00000080: 0425 ad3d 6975 583d 7545 4a96 9b73 453d
00000090: 408d 9131 0384 dbb9 0205 953d 2ca3 ab3c
000000a0: 7c66 a63c 5ef7 a3bc fa25 883d cec2 d9bb
000000b0: 0444 893d 7772 5a3d c232 6524 a4dd 0a07
000000c0: 89e9 1ebb b654 e5bb 3fc3 9bbb d6f2 67bc
000000d0: 29b7 2a3d c893 bfbb 8706 2d3d 2659 67bb
000000e0: 6b33 b63d 4e36 6eba 9e2a 893d 03ae 903c
000000f0: 60e2 babc 1f6f 853d fdc1 843d 80db 2f3d
0.018668551 0.066076785 0.07282099 0.05944339 0.027206456 -0.011333291 0.01601944 0.0006079799
9.276755e-18 -0.0006654134 -0.03115067 -0.00032606095 0.021183407 0.05406676 0.06783067 0.008991925
-0.005152486 -0.01630968 -0.0011604165 0.05181102 -0.007905974 -3.506664e-05 -0.0077195964 -0.0038730905
-0.015914287 -0.004304975 0.05634787 0.019710472 -0.007770196 -0.022903861 -0.0048941877 0.07874899
0.08454326 0.052846346 -1.6339347e-25 0.048205953 4.2361137e-09 -0.0004186929 0.07276346 0.02095183
0.02031254 -0.020015415 0.066478685 -0.006645537 0.06702426 0.05333182 4.9699453e-17 1.04471e-34
-0.0024248085 -0.0069986237 -0.0047534998 -0.014157018 0.04167858 -0.0058464743 0.042242553 -0.003530094
0.08896526 -0.00090870715 0.06697582 0.0176611 -0.022813022 0.06515335 0.06482313 0.04293394

network.8.weight f4 [1, 64]
00000000: ba3e e9bd b6cb 8c3d 9ba6 103d 659c 743d
00000010: 5960 9d3c b5ef 40bc a32d 0a3e e5de d3bd
00000020: 1ca8 2c29 167e cfbd 5fe2 17be 86dc 18be
00000030: 3f60 9fbd c355 c23d 9b5d 683d ffc6 903d
00000040: ff9b 90b7 a26a ed3b f9df ca86 599d a73d
00000050: 486d e0bb 38be 5939 3a00 0f3d b12d 1212
00000060: 23af 8fbb 3506 0207 b038 bd3d f821 d73d
00000070: bca8 7cbc aee4 123e 609b 6cb9 b04e 083c
00000080: 6050 0d3e be2b 08bd 04b7 fa3b 2d3c 843d
00000090: e6ca e43b efcf 5fb0 3743 bebd 1777 513d
000000a0: 9d8f 09be 234f 2a3c 9dbb e5bd d3ea 163d
000000b0: 7064 5e3c ecf2 f73c a11d bc38 591c 4e3c
000000c0: e238 b4bd ca04 0a3e 812b 8f06 65fc 6ebd
000000d0: 344f 5a3d d89b 32bc 2c41 0ebd 3c73 01bd
000000e0: 74d5 c43d 35b1 beb8 778b 32bc 1692 e3bc
000000f0: 526e dc3d 123c 213d 3ad6 c8bc fc9c 43bd
-0.11388917 0.06874792 0.035315137 0.059719462 0.019210981 -0.011775901 0.13493972 -0.10345248
3.8337484e-14 -0.10131471 -0.14832447 -0.14927873 -0.07782029 0.09489014 0.056729894 0.070692055
-1.7238779e-05 0.0072453776 -7.6313053e-35 0.081843086 -0.006848965 0.00020765595 0.034912325 4.6125796e-28
-0.0043848916 9.781937e-35 0.09239328 0.10504526 -0.015421089 0.14345047 -0.00022564596 0.008319542
0.13800192 -0.03324484 0.0076512117 0.0645679 0.006982195 -8.142242e-10 -0.09290164 0.051138964
-0.1343369 0.010394844 -0.11217425 0.03684504 0.013573751 0.030267201 8.9700574e-05 0.012580001
-0.08799912 0.1347839 5.3854545e-35 -0.05834617 0.05329819 -0.010901414 -0.03473012 -0.031604037
0.096110255 -9.0929134e-05 -0.010897509 -0.02777962 0.107632294 0.03936393 -0.024516214 -0.047757134

exp_avg f4 [64, 45]
00000000: 6c80 dd38 6828 61ba 33fd b339 5f6f f937
00000010: 0517 98b9 898c a4ba b84a 98b9 03e2 ea39
00000020: 50b8 e736 9c5a ffb9 d4f2 1439 6861 a438
00000030: 93bb f7b8 8fbb 07ba 1ec9 cb3a 7bfb 3039
00000040: 9bc9 00bb 20b3 e53a 4020 3db8 073a 9137
00000050: 63f5 99b9 d10a 413a 2160 97b9 0de8 bfb9
00000060: 0624 b338 4401 b7b8 20ca 1d38 4026 eab9
00000070: f392 76b9 f7c2 4238 1037 98b8 c0ad 8839
00000080: 54ce b7b9 8472 08bb a833 24ba 04f6 e3b9
00000090: e279 b83a 5ca0 793a 3c53 253a 2561 4139
000000a0: 2604 22bb ee19 95b9 3617 0ab8 2839 a43a
000000b0: aba1 8bb9 7bd4 37ba 0e6e c7b9 77bb ea39
000000c0: 514d 843a 6e51 aab9 abd9 cb39 7b6c af39
000000d0: d859 bcb8 fc4e 913a 40c7 55ba 84a9 94b8
000000e0: ef91 b4ba 9ec2 0cb9 082f 8639 cb85 45bb
000000f0: 1ea6 6e3a 687e 9939 bd17 23bb c3e3 31b6
00000100: 2b56 7539 0a17 19b9 f4c6 abb8 de9f 53ba
00000110: 451b 5238 4e18 15b9 ff23 df39 1930 32b7
00000120: c360 0d3a 3941 d5b9 3220 35b6 085e 6ab9
00000130: e7fe 05ba 98eb 1e39 510b 3a3a 74fa f8b9
00000140: 2405 dd38 6cf9 06bb 9213 45ba c170 3cba
00000150: 3b27 c53a 4845 7dba abe2 183a 1669 b73a
00000160: aa6d 06bb 880b 2ebb dbc7 1d3a ea37 9339
00000170: d9ac 8f3a 2ab5 d839 90c8 ea39 9202 a03a
00000180: 75c3 a339 615b 40ba 1cef ab3a e06c 55b8
00000190: 6c76 0d39 685b 7cb9 2947 e6b9 a803 bf39
000001a0: 5ee1 933a 31b5 d737 7370 073b a9c9 743b
000001b0: 92ff 6737 1415 0139 8e42 9d39 5f44 3d39
000001c0: c786 dbb9 3e50 2d39 9412 1cb9 4c05 f638
000001d0: a1d4 8237 cd61 fd39 6c6d f2b9 910f 5738
000001e0: 004b eeb8 961c bc39 f463 433b 3d48 1d3b
000001f0: 1ae7 3bb9 cd6a 183a 859a 42b8 9e03 9139
00000200: 5fba c439 e45b 30ba 76fa 593b d7f5 2d3a
00000210: 5642 12ba c0de 523b 5c05 61b9 b439 6639
00000220: 0f3c e739 8e9a 9638 29f6 313a bedc b139
00000230: 0e9c 813a 053e dc39 8800 90ba 6e97 8337
00000240: 12d0 0eb9 54c7 e539 9097 74b7 bea5 ad39
00000250: 8265 51b9 d825 5cbb 8d78 99b8 1c37 183b
00000260: 6465 3ebb 3533 72b8 2e2d 3f3a 90c7 3338
00000270: dbae 82ba 18cc 11ba 1705 5439 eba7 0bb9
00000280: 36ae 1d38 1c18 9937 bd74 22b7 8310 16b9
00000290: 09b4 bab7 78c4 c5b8 410d 9aba dcde 53b9
000002a0: f336 083b c261 1cba 08b8 6f3a 29e8 a9ba
000002b0: 342b 15ba a273 17ba 2f0b 09ba 4743 243b
000002c0: 2497 1f38 2178 133a b75a 91bb a320 b63a
000002d0: eca7 23b6 221f 96b8 d5c3 3139 6efb 23b9
000002e0: 15d6 00b7 8b03 7bb9 8d8d 4739 aef8 5139
000002f0: cb77 40b7 5b8f e038 f8f2 3db7 7bfb 2eb7
00000300: 7bc1 1c39 b6c5 f2b9 ef52 15b8 5499 3239
00000310: 12ed f838 a1fb e0b9 d23a 2837 bf0c 30b8
00000320: f877 d3b8 0b65 0e39 2008 8fb8 3d66 cc38
00000330: 747d 1738 5c78 82b8 684e 2d38 b660 4437
00000340: 0732 d838 30c2 1db8 e382 f8b9 565d ad38
00000350: b2f0 1d3a 37bb 0939 ee05 8a37 ca9b 83b9
00000360: 6540 abb9 41e8 af38 aff3 f5b5 0f1a 41b8
00000370: 3a44 1439 d8e8 92b9 6678 88b9 bab8 b439
00000380: dc7b 3bb8 e94e a8b7 42cb 173a aaa6 38ba
00000390: d99a 35ba 61da 25b9 a119 a039 5040 eeb7
000003a0: f49c 203a a025 9e38 6171 6a39 feea 323a
000003b0: 9bf8 d139 bce5 013a 5128 eb39 823d d539
000003c0: 361b e8b8 ef76 4339 5d9e 41ba c0f1 75b7
000003d0: 9b56 d939 5fcd 8db8 941c 3f3a 1d7f 273a
000003e0: e3ea 8139 ae49 8239 2da1 a2b9 66b5 2bb8
000003f0: 5491 0438 9d4d 5a3a 144c 17b8 3fed bc39
0.000105620216 -0.000858909 0.0003433019 2.9734974e-05 -0.0002900885 -0.001255409 -0.0002904737 0.0004480035
6.9057933e-06 -0.000487049 0.0001420484 7.838273e-05 -0.00011812816 -0.000517779 0.0015547608 0.00016878352
-0.0019651416 0.0017524697 -4.5091147e-05 1.7312368e-05 -0.0002936526 0.00073639775 -0.00028872586 -0.0003660325
8.542095e-05 -8.726356e-05 3.761996e-05 -0.00044660456 -0.00023515131 4.643478e-05 -7.258181e-05 0.00026069395
-0.00035058206 -0.002082021 -0.0006263801 -0.0004348011 0.001407441 0.00095224916 0.00063066534 0.00018442103
-0.002472171 -0.00028438814 -3.292338e-05 0.0012529241 -0.00026632598 -0.0007012558 -0.00038038235 0.0004477163
0.0010093843 -0.00032485597 0.00038881353 0.00033459425 -8.981273e-05 0.0011086161 -0.0008154996 -7.088765e-05
-0.0013776402 -0.00013423941 0.00025593513 -0.0030139561 0.0009103733 0.00029276614 -0.0024885975 -2.650763e-06
0.00023397121 -0.000145998 -8.190973e-05 -0.00080728333 5.00933e-05 -0.00014218802 0.00042560694 -1.0620825e-05
0.0005393142 -0.0004067512 -2.6989842e-06 -0.00022351008 -0.0005111531 0.0001515582 0.0007097023 -0.00047488848
0.00010539059 -0.0020595444 -0.000751787 -0.00071884325 0.0015041599 -0.0009661508 0.0005832116 0.001399311
-0.0020512142 -0.0026557166 0.00060188555 0.00028079684 0.0010961547 0.00041333708 0.0004478139 0.0012207797
0.0003123541 -0.0007337835 0.0013117525 -5.0884555e-05 0.00013490923 -0.00024066644 -0.00043922037 0.00036433083
0.0011282375 2.5714371e-05 0.002066639 0.0037351644 1.38281775e-05 0.00012310251 0.0002999496 0.00018049915
-0.00041871352 0.00016528458 -0.0001488424 0.00011731181 1.559622e-05 0.00048328788 -0.00046239363 5.1274492e-05
-0.00011362694 0.00035879452 0.0029814215 0.0023999356 -0.00017919802 0.00058142544 -4.6397112e-05 0.0002765925
0.0003752289 -0.000672756 0.0033260859 0.0006636059 -0.0005579343 0.0032176226 -0.00021459669 0.00021956005
0.000441045 7.1813454e-05 0.0006788695 0.00033924537 0.0009888427 0.00042007878 -0.0010986486 1.5686932e-05
-0.00013619688 0.00043826795 -1.4578822e-05 0.0003312062 -0.00019969608 -0.0033591893 -7.318063e-05 0.0023226207
-0.0029052133 -5.7744986e-05 0.0007292804 4.2862783e-05 -0.0009970324 -0.00055617234 0.00020219792 -0.00013318627
3.7593963e-05 1.8250248e-05 -9.683133e-06 -0.00014311266 -2.2256763e-05 -9.430287e-05 -0.0011753218 -0.0002020555
0.0020784705 -0.0005965495 0.0009144549 -0.0012962866 -0.00056903367 -0.00057774235 -0.0005227802 0.0025064514
3.8049315e-05 0.00056255056 -0.004435863 0.0013895225 -2.4386636e-06 -7.158356e-05 0.00016952989 -0.00015638556
-7.679239e-06 -0.00023938545 0.0001903085 0.00020024434 -1.1471983e-05 0.000107078544 -1.1321848e-05 -1.0429761e-05
0.00014949396 -0.00046305143 -3.5601606e-05 0.00017032522 0.00011869719 -0.00042912088 1.00272755e-05 -4.197354e-05
-0.0001008361 0.00013579817 -6.820285e-05 9.7465214e-05 3.6118043e-05 -6.221302e-05 4.1319436e-05 1.1705028e-05
0.00010309001 -3.7612568e-05 -0.00047399764 8.266668e-05 0.0006024941 0.00013135081 1.6453643e-05 -0.0002510234
-0.0003266364 8.387911e-05 -1.8324844e-06 -4.6039055e-05 0.00014139796 -0.00028020772 -0.00026029645 0.00034469907
-4.4699627e-05 -2.0063906e-05 0.00057904806 -0.0007043878 -0.0006927676 -0.00015816979 0.00030536673 -2.8401759e-05
0.00061269035 7.541035e-05 0.00022358216 0.00068251777 0.00040048812 0.00049551926 0.0004485273 0.00040672353
-0.000110676905 0.00018640955 -0.00073859637 -1.4659425e-05 0.0004145399 -6.761657e-05 0.000729033 0.0006389486
0.00024779802 0.00024850428 -0.00031019133 -4.0938517e-05 3.16066e-05 0.00083276053 -3.607206e-05 0.00036034916
