data/models/regression_models/ML_including_industry_feature/multi_dimension_appeal/version_best/checkpoints/epoch=79-step=2480.ckpt (torch, 209139 bytes, 24 tensors)

network.0.weight f4 [128, 45]
-7.483829e-29 2.4169524e-14 8.789792e-24 -1.0432632e-34 9.337884e-34 5.882573e-15 6.674539e-23 1.06592605e-13
-4.5573267e-35 -3.6149795e-22 -1.1656723e-31 5.4847087e-21 9.453634e-26 1.0480476e-34 -1.0375717e-31 2.260664e-30
-1.990965e-11 1.7480346e-09 -3.330596e-35 3.2146905e-32 -2.4417818e-32 -3.6173078e-26 -7.760143e-29 9.895395e-35
9.73036e-35 -3.6915634e-35 3.199327e-34 -4.6213488e-33 -1.783226e-33 -9.986076e-35 -7.8835756e-33 6.057859e-33
1.3148735e-10 -1.0063798e-17 4.1050704e-24 1.0869945e-22 -6.2448684e-32 -2.112855e-17 1.6175212e-12 -6.913173e-11
2.6341007e-10 -8.294634e-32 1.72935e-32 2.6016878e-31 1.8120863e-08 -2.8549328e-15 -1.4076292e-20 -5.8318913e-15
-1.235472e-24 6.8812747e-19 -1.7519825e-07 4.0583205e-28 1.0990277e-07 -1.0541996e-19 -4.2160884e-35 2.872644e-12
-1.4485801e-09 -8.967611e-37 1.2861691e-28 2.6215739e-21 -1.9900696e-30 -2.1411824e-10 0.00021592304 1.0402436e-34
-7.0980713e-25 1.6864051e-16 1.7003555e-14 2.160052e-24 -5.1200607e-36 -1.0105766e-34 9.870008e-35 9.870225e-35
1.8979412e-33 -1.0022343e-34 -1.1049214e-34 7.6965173e-10 -3.7632168e-23 7.3192978e-06 5.055062e-11 -2.132011e-12
1.3218231e-25 2.0991212e-19 -1.2600711e-14 7.521133e-11 0.00030834804 -1.0646422e-34 -1.1510441e-11 3.2026986e-05
-4.641715e-10 2.2271256e-09 -0.03913758 0.04643755 0.03415413 0.037192598 0.01842158 -0.036218174
-0.011829043 -0.04250814 0.019106839 -0.00011807405 -0.029113315 0.02298244 0.06780647 -0.010614968
-0.011233937 -0.0507275 -0.06557685 -0.05526147 -0.0028050132 0.004527214 0.081196584 -0.0060730428
-0.043123756 0.00807435 -0.009266974 0.04916152 -0.0027171008 -0.030344598 -0.012723854 -0.0027196386
0.003058559 0.015341543 -0.012366341 0.015533363 -0.027922833 -0.0045557264 -0.039917864 -0.0143017145
0.0015460345 -0.006771352 0.024270652 -0.0017734006 0.07550362 -0.004901958 -0.015507197 -0.09565343
0.06487661 0.021424375 -0.0017460391 -0.050394546 -0.048646465 0.084602654 0.0034135156 0.034131378
-0.11317559 -0.08705248 0.028563049 0.0032744878 0.042735945 0.02134892 0.03486526 -0.05827909
-0.05818505 0.0014234305 -0.06191808 -0.06771328 -0.0050960314 0.021951027 -0.0018191499 0.056585148
-0.0028482177 0.0014290016 0.017741965 0.059027147 0.0014294438 -0.1375086 -0.04691104 0.06006234
-0.030044593 0.116777614 -0.078826174 -0.0727794 0.038088232 0.036318522 -0.039883133 0.01330623
-0.023403138 0.05067626 -0.007131105 -0.06951564 -2.795186e-34 -5.9386915e-32 3.2946854e-15 9.944927e-35
-8.557761e-29 1.0423222e-34 -4.1935514e-27 1.4540516e-10 1.0562386e-34 1.0428321e-05 -8.212983e-34 1.5632732e-08
4.4636625e-34 -9.634446e-35 -9.667109e-35 -8.247877e-28 -6.003006e-13 1.1773351e-06 -3.6843866e-34 -1.0089192e-34
-1.351561e-21 1.5004532e-12 3.5871747e-14 -9.883918e-35 1.8581426e-32 -2.9322578e-34 -1.0104756e-34 -4.3203446e-32
-9.74762e-35 1.0103884e-34 -7.402953e-18 -8.0039626e-24 -2.1613272e-11 -2.2205241e-25 5.7483598e-11 1.7819347e-14
-4.1984827e-35 3.7933817e-06 -9.8633e-35 3.5171841e-16 2.1492451e-05 2.242231e-12 1.0326445e-34 1.0451965e-34
5.0077248e-05 -0.00595645 -0.070030205 -0.0071116 -0.058610935 0.0019498555 -0.021900123 0.068211325
0.041487545 -0.0074186283 0.03243785 0.0029795908 -0.060171563 0.06089924 0.029711524 0.08947711
-0.093775935 0.10208956 -0.17236707 0.0033424331 -0.010050348 0.016217304 -0.103314646 0.025537103
0.02420493 0.006101923 0.013587775 0.0033519014 0.032523006 0.107956626 0.00325536 0.0055779666
00000000: d4bc bd90 21b3 d928 f104 2a19 68ac 0a87
00000010: f726 9b08 29f1 d327 6561 a11a 7406 f029
00000020: 1e4f 7286 1983 da9b 1b50 178c d934 cf1d
00000030: 860f ea15 364f 0b07 3caf 068c 2868 370e
00000040: 8c20 afad 803f f030 b915 3186 91ea 260b
00000050: b291 fd8a d31e 3395 35be c490 4988 0307
00000060: b356 0107 f546 4486 baa1 d407 9cf6 bf89
00000070: 0625 1489 dbbc 0487 47bc 238a 35a2 fb09
00000080: 6692 102f f1a4 39a3 a6ce 9e18 da68 031b
00000090: 4520 a28b 61e0 c2a3 58a5 e32b b405 98ae
000000a0: accf 902f 4c57 d78b 0296 b30a f4db a80c
000000b0: 33a8 9b32 37b8 4da7 63f2 849e b41d d2a7
000000c0: 172e bf97 7119 4b21 211e 3cb4 029d 0012
000000d0: b003 ec33 75ea f89f 6c2a 6086 f424 4a2c
000000e0: 6217 c7b0 7493 9883 930a 2311 9d14 461d
000000f0: 2174 218e ed6c 6baf 6669 6239 a845 0a07
00000100: b7ac 5b97 e56d 4225 8727 9928 3d20 2718
00000110: 86c8 d984 2454 0687 e631 0307 a332 0307
00000120: bfac 1d09 4438 0587 87de 1287 6d8f 5330
00000130: 5efa 359a 4a98 f536 f052 5e2e e506 16ac
00000140: 3fa2 2316 0cd2 7720 86fe 62a8 3764 a52e
00000150: c6a9 a139 e683 0d87 6b7e 4aad b754 0638
00000160: 552e ffaf 020c 1931 ba4e 20bd 4d35 3e3d
00000170: 33e5 0b3d 4457 183d dae8 963c 8259 14bd
00000180: 9ace 41bc 041d 2ebd f285 9c3c 869e f7b8
00000190: 0c7f eebc ac45 bc3c 1ede 8a3d 67ea 2dbc
000001a0: 8c0e 38bc a4c7 4fbd 284d 86bd da59 62bd
000001b0: 50d4 37bb 0659 943b 654a a63d 6000 c7bb
000001c0: 89a2 30bd 474a 043c 82d4 17bc 975d 493d
000001d0: 6311 32bb 3c95 f8bc b677 50bc f73b 32bb
000001e0: 1b72 483b 185b 7b3c 329c 4abc a67f 7e3c
000001f0: 6dbe e4bc 3448 95bb ea80 23bd bd51 6abc
00000200: 4fa4 ca3a 38e2 ddbb 3fd3 c63c 7371 e8ba
00000210: a4a1 9a3d 9ba0 a0bb e611 7ebc f2e5 c3bd
00000220: 07de 843d 2c82 af3c 5adb e4ba 836a 4ebd
00000230: 8441 47bd 2844 ad3d 4ab5 5f3b 58cd 0b3d
00000240: 9bc8 e7bd 9248 b2bd 0efd e93c ca98 563b
00000250: e30b 2f3d eee3 ae3c e0ce 0e3d 0eb6 6ebd
00000260: 7253 6ebd 6792 ba3a d09d 7dbd 43ad 8abd
00000270: 9cfc a6bb a4d2 b33c 8b70 eeba d4c5 673d
00000280: 2aa9 3abb 564d bb3a 9957 913c 73c6 713d
00000290: 2d5c bb3a 0ecf 0cbe ca25 40bd ee03 763d
000002a0: 1420 f6bc 1a29 ef3d 9e6f a1bd 5e0d 95bd
000002b0: 6802 1c3d bbc2 143d 7f5c 23bd 6002 5a3c
000002c0: f0b7 bfbc e991 4f3d 0bac e9bb 375e 8ebd
000002d0: a0c5 b987 602d 9a8b 3868 6d27 d530 0407
000002e0: 0bf7 d890 638c 0a07 aa1f a693 eadf 1f2f
000002f0: f065 0c07 4cf5 2e37 2b76 8888 be48 8632
00000300: a454 1408 5210 0087 787f 0087 5db1 8292
00000310: 38f8 28ab ed04 9e35 97de f487 be1b 0687
00000320: fc3d cc9c 862b d32b 4f8d 2129 3b61 0387
00000330: e7f5 c00a c8e1 c287 b450 0687 3b53 608b
00000340: 6f91 0187 bc4d 0607 758f 08a3 b4d1 1a99
00000350: c31c bead 9c71 8996 c7d0 7c2e 9e80 a028
00000360: c93a 5f86 cd91 7e36 121b 0387 7ac0 ca25
00000370: b04a b437 71c8 1d2c 1243 0907 32ee 0a07
00000380: 090a 5238 532e c3bb ff6b 8fbd 6d08 e9bb
00000390: 0512 70bd 4b92 ff3a e367 b3bc 61b2 8b3d
000003a0: d8ee 293d f717 f3bb 8ddd 043d 3d45 433b
000003b0: 7576 76bd 7b71 793d 9565 f33c c63f b73d
000003c0: 990d c0bd 5514 d13d fe80 30be b90c 5b3b
000003d0: 37aa 24bc 27da 843c a196 d3bd 3033 d13c
000003e0: 6b49 c63c a4f2 c73b 429f 5e3c 93ab 5b3b
000003f0: d836 053d 5d18 dd3d e157 553b 60c7 b63b

network.0.bias f4 [128]
-1.9356048e-05 -0.0029881264 0.06552798 0.039623484 -0.0007499235 -0.02623361 -0.08283787 -0.0795392
-0.03130968 -0.031761624 0.014106384 -0.00096213445 -0.007663457 -0.02220754 0.0037815906 -0.037623398
0.048676215 -0.02386714 0.03791303 -0.06745153 -0.029936204 -0.020127058 -0.005740256 -0.06963311
-0.01999782 -0.00023615616 -0.041466393 -0.05748753 -0.057664234 -0.060463466 -0.012522196 -0.031892236
-0.0038774784 0.009858425 0.014901783 -2.774526e-08 -0.0031596778 -0.004970441 0.06266546 -0.03238554
-0.031985287 0.0441494 -6.3287006e-18 0.023814226 -0.02215647 -0.05325616 -0.0022139621 -0.012923537
-0.026077736 -0.035492826 -0.036092028 0.017873283 0.083264 -8.088623e-05 -0.0037409747 -0.033237673
0.016807714 0.048672073 0.010182546 0.008109641 0.028601285 -1.2953047e-15 0.0050079264 0.012995272
0.023524497 0.021435337 -0.005899326 -0.009656656 -0.02300313 0.0702369 -0.024770662 -0.011946176
-3.753038e-07 -0.004361897 -0.04311042 0.0034638918 -0.038170796 0.009069855 -0.0048345528 0.017467434
0.048652727 -2.7766913e-07 0.023074267 -0.053785905 -0.036860872 -0.011282794 -0.0007586499 0.07924855
0.06270579 0.0018339249 0.07533561 -2.459894e-05 -0.008525044 -9.285339e-11 0.0045102895 -0.02684417
-0.004917437 0.02850396 -0.019783292 -0.006233874 -0.034629732 0.02154192 0.007266855 -8.431394e-06
-0.004613073 -8.7463614e-10 -2.3913835e-05 0.026272584 0.011471649 0.014992296 -2.841758e-06 -0.0013070075
-0.008319816 0.057550564 -0.016434606 -0.015796473 0.03609331 -0.043599896 0.039330706 -0.013274443
0.033271786 -0.03158709 -0.021970738 -0.0025707101 -0.045322116 -0.06507191 -0.0011914085 0.030501802
00000000: cc5e a2b7 71d4 43bb 8933 863d 3c4c 223d
00000010: 8496 44ba dee7 d6bc e7a6 a9bd 73e5 a2bd
00000020: 943e 00bd 7a18 02bd 761e 673c c037 7cba
00000030: bd1d fbbb 96ec b5bc 90d4 773b fe1a 1abd
00000040: b660 473d 0585 c3bc b14a 1b3d 0724 8abd
00000050: c53c f5bc 80e1 a4bc c218 bcbb ce9b 8ebd
00000060: 78d2 a3bc b0a0 77b9 aad8 29bd 0b78 6bbd
00000070: 5531 6cbd 8aa8 77bd e629 4dbc 6fa1 02bd
00000080: 4b1d 7ebb 3b85 213c 9c26 743c 7954 eeb2
00000090: 9912 4fbb 15df a2bb c056 803d b3a6 04bd
000000a0: 0103 03bd 00d6 343d e37c e9a2 0d16 c33c
000000b0: 7c81 b5bc 2223 5abd 1f18 11bb 3ebd 53bc
000000c0: faa0 d5bc ed60 11bd 3cd5 13bd fe6a 923c
000000d0: 5186 aa3d 77a1 a9b8 242b 75bb 3a24 08bd
000000e0: 55b0 893c 5e5c 473d b2d4 263c 4dde 043c
000000f0: 3e4d ea3c 4fac baa6 8819 a43b 1fea 543c
00000100: 72b6 c03c 2999 af3c 224f c1bb f336 1ebc
00000110: 0f71 bcbc 5dd8 8f3d d8eb cabc e5b9 43bc
00000120: 5d7d c9b4 3eee 8ebb 8d94 30bd 7602 633b
00000130: fb58 1cbd bb99 143c 2b6b 9ebb dd17 8f3c
00000140: 1548 473d 8e12 95b4 3f06 bd3c 9c4e 5cbd
00000150: 6dfb 16bd 78db 38bc 22e0 46ba 104d a23d
00000160: e56b 803d 4f60 f03a 8e49 9a3d d259 ceb7
00000170: a0ac 0bbc d02f ccae 0dcb 933b 4ee8 dbbc
00000180: 7422 a1bb 2381 e93c 9210 a2bc 8645 ccbb
00000190: e8d7 0dbd ae78 b03c cc1e ee3b 9074 0db7
000001a0: 4329 97bb 0c6b 70b0 929a c8b7 9a39 d73c
000001b0: 95f3 3b3c 3fa2 753c 08b5 3eb6 e54f abba
000001c0: d64f 08bc 24ba 6b3d dea1 86bc 9b67 81bc
000001d0: 94d6 133d ce95 32bd 3c19 213d 0d7d 59bc
000001e0: ff47 083d 7761 01bd fafb b3bc 5c79 28bb
000001f0: afa3 39bd 6c44 85bd 0929 9cba eade f93c

network.3.weight f4 [64, 128]
1.023686e-34 1.0487567e-34 1.819652e-10 2.40813e-19 9.964827e-35 1.031457e-34 9.983591e-35 -1.0194796e-34
3.696076e-15 1.2706332e-26 1.3025851e-12 1.0399719e-34 1.1755929e-24 -1.0374723e-34 8.793202e-23 -1.0444636e-34
-2.758323e-32 -1.0377099e-34 -5.8149908e-18 -2.580427e-25 1.0403584e-34 1.0277276e-34 1.1475348e-15 1.024316e-34
3.9307403e-31 9.911514e-35 1.0208589e-34 9.747281e-35 -1.068511e-34 -9.4747123e-35 7.308898e-29 1.0015161e-34
-4.452427e-17 -4.6565623e-24 -5.7051474e-24 -1.0371344e-34 -9.736216e-35 -5.9844493e-22 6.200451e-13 8.284798e-16
-1.0074954e-34 9.288589e-15 1.0541436e-34 -1.5679051e-09 1.0037468e-34 -1.0641581e-32 -1.138853e-18 -1.0457171e-34
-1.0304021e-34 -1.0871408e-14 -9.818288e-35 -7.9237265e-19 5.4770103e-12 -9.4521036e-35 -1.0612513e-34 9.56809e-35
-4.02985e-12 1.1000144e-19 -1.415273e-26 1.0217241e-34 -4.041698e-15 -9.79257e-35 1.7010305e-21 -1.1537304e-14
-4.8494576e-12 7.087556e-22 1.9575693e-20 -5.608211e-35 -9.6283497e-35 8.567416e-15 -1.025962e-34 -3.5623175e-16
-1.0529529e-34 -4.0607964e-32 3.5831558e-21 1.8194386e-15 1.0334473e-34 -1.0217837e-34 2.497747e-31 2.4496145e-16
-7.757471e-22 1.0626239e-34 1.4578359e-20 -1.0338899e-34 1.0487027e-34 9.85235e-35 9.828104e-35 -3.0992383e-13
-1.1233659e-33 -6.332841e-12 -6.5988817e-18 -1.0360836e-34 1.1267683e-31 9.757183e-35 8.861811e-29 4.1397787e-24
-9.921356e-35 -1.9284322e-22 1.166682e-34 1.14523885e-11 -1.0091215e-34 -1.7191957e-30 9.293594e-20 -1.0350702e-34
-2.8228094e-22 -1.0449938e-34 -1.0261858e-34 2.3234875e-26 1.1899705e-10 1.8798734e-21 9.994296e-35 5.1004794e-32
-9.634416e-35 -2.345816e-16 -7.0835645e-35 4.8931535e-17 5.1168104e-07 1.0354705e-34 -3.820371e-22 -1.022702e-34
3.045324e-17 1.0082137e-34 9.92918e-35 -9.409978e-35 1.0367819e-34 9.833277e-35 -6.2862873e-19 3.4388867e-07
-1.0370675e-34 1.0568159e-34 -0.020519767 0.011804247 7.776291e-27 0.04086784 0.024408296 0.05117703
0.017184002 -0.030632397 -0.026980666 4.7358456e-27 -0.015428922 0.0330619 -0.018772675 -0.003986608
-0.033067193 0.025048956 -0.01944574 0.09487883 0.058967393 0.06321512 0.031297173 0.07817856
0.03773896 6.694925e-31 0.05021476 -0.04198142 0.0690314 0.06248348 -0.044421155 0.04532653
-0.041391455 -0.034453347 0.01453177 1.0361553e-34 1.9029026e-27 -0.016681852 -0.010665407 4.7416448e-05
0.04592736 -0.034888573 -1.0690841e-34 0.024175962 0.094594754 0.052591316 -0.012525642 0.03349699
-0.03014704 -0.027111555 -0.025227448 -0.021828583 -0.023612367 -6.2938262e-30 -0.024205105 0.02861062
0.024431912 -0.031935606 -0.009773614 0.04876527 0.017434198 1.1046026e-34 -0.04218192 0.028087912
-0.0033463854 0.0019833676 -0.029429084 -2.6881566e-10 0.0010321224 -0.037893467 -0.009299334 0.012765752
1.0529331e-34 -0.033467147 -0.021110762 -0.004940386 0.046418346 -0.013526259 0.0015191061 -0.017981704
-0.0041102557 -3.6485984e-23 -0.035572555 0.075927176 0.020678733 0.043691844 -0.012025403 -0.03556669
-0.0062068095 -0.034153488 -0.023011642 9.83211e-35 -0.018343 -1.0518759e-34 0.020161234 0.018924156
4.0538912e-16 0.012101234 0.026957277 -0.0036456622 0.048281685 0.0050472924 -0.02798086 1.0218925e-34
-0.01798506 6.1992576e-35 -2.5074532e-24 6.614127e-06 0.037441827 0.04487951 -6.092825e-31 0.008124078
0.009049475 -0.006353383 0.029198812 -0.042505246 -0.0068389545 0.046644684 0.03574621 0.0365798
-0.006322835 -0.010049194 0.028374726 1.2335844e-21 -0.02497126 0.057938445 0.045519 -0.02615429
00000000: 3b12 0807 5767 0b07 a712 482f a226 8e20
00000010: 8d74 0407 aa1a 0907 66b4 0407 1883 0787
00000020: 492a 8527 c2ac 7b14 9352 b72b 693c 0a07
00000030: 08ea b517 5ae7 0987 499b d41a 41d5 0a87
00000040: 6738 0f8b 70ef 0987 0989 d6a2 7fb8 9f96
00000050: 9049 0a07 c29b 0807 9060 a526 ab27 0807
00000060: a01e ff0c 22bf 0307 07b2 0707 4790 0107
00000070: 8c07 0e87 8de1 fb86 764d b910 d41f 0507
00000080: fb54 4da4 5c24 b498 0bb5 dc98 dbdb 0987
00000090: a06a 0187 6fde 349c f586 2e2b 05cb 6e26
000000a0: 4beb 0587 0e54 2728 a61e 0c07 c27d d7b0
000000b0: bc6b 0507 5904 5d8a a610 a8a1 e9ff 0a87
000000c0: c4f6 0887 85d7 43a8 e781 0287 fcdd 69a1
000000d0: 86b4 c02c af47 fb86 8310 0d87 0c5d fe06
000000e0: a9c9 8dac e5dd 0120 6f29 8c94 78cf 0707
000000f0: 169e 91a7 642a 0287 b786 001d 6cd6 4fa8
00000100: 08a0 aaac 4f35 561c 1fe3 b81e 8217 9586
00000110: 27f7 ff86 3c56 1a28 ae5f 0887 875a cda5
00000120: 21f6 0b87 3ed9 528b 285e 871d b81a 0327
00000130: 645e 0907 7fd1 0787 f11c a20c ee35 8d25
00000140: 8674 6a9c 383f 0d07 4fb0 891e 736d 0987
00000150: 8165 0b07 cff5 0207 4ea3 0207 bb78 aeaa
00000160: b3a6 ba88 29d1 deac ad74 f3a2 19b8 0987
00000170: 4d43 120c f9b1 0107 71ac e010 6226 a018
00000180: a0e0 0387 1622 699b 2214 1b07 f978 492d
00000190: a022 0687 4c7a 0b8e 5470 db1f 9d95 0987
000001a0: dca0 aa9b 4ce7 0a87 4b67 0887 681b e614
000001b0: b1d6 022f 0a0a 0e1d d4d8 0407 806a 840b
000001c0: 3810 0087 223a 87a5 3e50 bc86 29a8 6124
000001d0: 745a 0935 3ca3 0907 61ed e69b bff0 0787
000001e0: d770 0c24 bc03 0607 40fb 0307 fe28 fa86
000001f0: dccf 0907 e8b4 0207 d889 39a1 b39f b834
00000200: 94d9 0987 9579 0c07 1219 a8bc 9a66 413c
00000210: 7b06 1a14 0965 273d e8f3 c73c 019f 513d
00000220: 77c5 8c3c cbf0 fabc 8f06 ddbc 2e9b bb13
00000230: 97c9 7cbc ea6b 073d 27c9 99bc 17a2 82bb
00000240: 7771 07bd 7833 cd3c ac4c 9fbc d54f c23d
00000250: cb87 713d ee76 813d 7731 003d 151c a03d
00000260: 2b94 1a3d 4343 590d fead 4d3d b6f4 2bbd
00000270: 5660 8d3d adee 7f3d f5f2 35bd 50a8 393d
00000280: 168a 29bd f41e 0dbd a916 6e3c 8aba 0907
00000290: 73c3 1613 61a8 88bc f6bd 2ebc 06e1 4638
000002a0: 541e 3c3d 52e7 0ebd 0c1b 0e87 ab0c c63c
000002b0: e5ba c13d fe69 573d 5a38 4dbc 2434 093d
000002c0: edf6 f6bc 0d19 debc cba9 cebc dbd1 b2bc
000002d0: b96e c1bc d44e ff8e c949 c6bc d260 ea3c
000002e0: 6f25 c83c e9ce 02bd 8221 20bc 17be 473d
000002f0: 2ad2 8e3c aed3 1207 f3c6 2cbd 9f18 e63c
00000300: 084f 5bbb 63fb 013b 4315 f1bc 71c8 93af
00000310: 4848 873a 2e36 1bbd 3c5c 18bc 7227 513c
00000320: 75f5 0b07 d914 09bd 7af0 acbc f6e2 a1bb
00000330: 2a21 3e3d 3e9d 5dbc be1c c73a 5e4e 93bc
00000340: 53af 86bb 766f 309a 87b4 11bd b57f 9b3d
00000350: 7266 a93c 38f6 323d 3206 45bc 61ae 11bd
00000360: 7e62 cbbb 87e4 0bbd e982 bcbc f0b0 0207
00000370: 0f44 96bc 7bd1 0b87 2c29 a53c d506 9b3c
00000380: e0b0 e925 4144 463c 82d5 dc3c 10ec 6ebb
00000390: 04c3 453d c263 a53b 1e38 e5bc 33d5 0707
000003a0: 6855 93bc f6cd a406 3a01 4298 ebee dd36
000003b0: 9a5c 193d 94d3 373d 36b9 458d da1a 053c
000003c0: 4044 143c 0a30 d0bb 5932 ef3c fb19 2ebd
000003d0: 4f19 e0bb 7f0e 3f3d 9e6a 123d b3d4 153d
000003e0: c92f cfbb 60a5 24bc 1d72 e83c fc69 ba1c
000003f0: 8790 ccbc dd50 6d3d 2272 3a3d 8641 d6bc

network.3.bias f4 [64]
-0.00029722982 0.019930944 -0.0052570296 -0.0011062409 -0.00090224284 0.011815201 -0.0017870431 0.03160274
-0.0019466472 0.010237542 -0.0034782256 0.010621468 0.020218424 0.025270134 0.0132559175 0.022422003
0.04433272 0.024256498 0.018064035 -0.013377357 -0.0045742504 -0.006047863 0.0152571285 0.02273062
0.021958105 0.014731382 -0.0054282765 0.03615044 0.012970625 0.03164241 -0.0061019277 -0.0019074825
0.027264437 0.029797584 0.043159787 0.023173383 0.018240852 0.020425279 -0.0019819802 0.020470537
-1.3478515e-05 0.031612974 0.02020504 -0.0077655013 -0.001933502 -0.00032003215 0.016990757 0.0071317204
0.0043430207 0.024199815 0.02997658 0.012035852 -0.00039617447 0.027610056 0.04397596 0.017137386
0.015320476 0.022126617 0.03556223 0.03998819 0.00985335 0.015477737 -0.0016488252 0.03213429
00000000: 83d5 9bb9 3846 a33c 2943 acbb 49ff 90ba
00000010: 7e84 6cba 8b94 413c 373b eaba e071 013d
00000020: a426 ffba 5dbb 273c f1f2 63bb aa05 2e3c
00000030: 1ca1 a53c 5003 cf3c 592f 593c 59ae b73c
00000040: 3a96 353d 90b5 c63c 07fb 933c b42c 5bbc
00000050: 98e3 95bb 272d c6bb 09f9 793c 9135 ba3c
00000060: 7ce1 b33c e55b 713c afdf b1bb 7c12 143d
00000070: bf82 543c 799b 013d aef2 c7bb 7e04 faba
00000080: ab59 df3c 101a f43c 51c8 303d 1bd6 bd3c
00000090: d76d 953c ea52 a73c 1ce4 01bb d4b1 a73c
000000a0: c821 62b7 9b7c 013d 0a85 a53c bf75 febb
000000b0: 906d fdba fdc9 a7b9 3330 8b3c 35b1 e93b
000000c0: e64f 8e3b b13e c63c 7291 f53c 0632 453c
000000d0: a3b5 cfb9 7c2e e23c 2320 343d b463 8c3c
000000e0: bc02 7b3c e142 b53c b3a9 113d a8ca 233d
000000f0: f26f 213c 5696 7d3c 651d d8ba 3f9f 033d

network.6.weight f4 [32, 64]
-4.956183e-34 0.07745186 -4.726805e-07 1.2531554e-33 0.009526231 -0.029958954 -1.7809655e-17 -0.037737362
1.1601551e-06 -0.031831756 0.07957812 0.039264176 0.0065211854 0.06740121 0.08722119 0.04534789
0.011311236 -0.03327932 -0.0034024352 -4.80024e-06 9.9137e-07 9.597525e-15 -0.032256033 -0.02887513
-0.04804565 0.036959585 -0.00017368737 -0.05713451 0.07172459 -0.04897969 -1.5594825e-06 1.89164e-24
-0.024220636 -0.0427659 -0.054424915 0.07701818 -0.05542843 0.045249905 1.0191777e-34 -0.03223045
2.7865194e-15 -0.049650993 -0.07002443 7.295143e-10 -8.360938e-06 4.3774955e-15 0.038929485 0.053818915
0.04078002 -0.020645998 0.074671015 -0.013217292 0.07081073 -0.044373043 -0.0246944 -0.080198586
0.052563597 -0.024489753 -0.06493196 -0.05536593 0.07121265 0.049225256 -3.865249e-15 -0.03192995
2.9350836e-31 1.5690543e-07 -1.0203455e-07 1.0397288e-34 -7.1023386e-08 6.4457405e-11 -1.4631613e-14 0.00019660592
2.796039e-08 0.0010526655 -1.0172623e-34 -1.0162596e-11 -6.7475185e-07 -1.5662649e-12 3.2094225e-19 -6.1904553e-09
7.91326e-15 1.6662343e-11 1.2267317e-07 1.0109181e-34 -2.91089e-17 -3.1685309e-21 0.00018859786 -2.008084e-06
-5.6590255e-10 -2.95471e-07 6.597102e-06 8.195499e-07 3.2353955e-12 -2.0293448e-06 1.5268322e-06 1.5368237e-18
4.8251524e-12 1.8445706e-14 1.2288987e-06 -9.6883765e-11 1.0386123e-34 0.001908256 -1.1751998e-30 -0.0009510142
-1.4039518e-19 3.0302963e-13 -1.8919584e-13 1.110113e-05 -6.9660753e-12 -6.3465234e-17 -3.7792897e-06 -8.955995e-15
-3.957197e-12 0.0022218497 5.8999676e-09 -2.483215e-06 -2.7038106e-33 5.6447208e-11 -1.3279804e-06 0.0015711329
3.3431425e-05 -1.0316292e-34 4.8235218e-11 7.0866205e-05 1.7492217e-09 0.00028911524 6.760719e-30 -2.7660208e-28
-1.0964449e-34 1.1003598e-34 -1.0563639e-34 -1.0384081e-34 -9.585249e-35 8.8261766e-13 1.0394949e-34 1.131755e-34
-1.1395561e-34 -1.0384294e-34 1.0604482e-34 -1.0913314e-34 7.725158e-14 1.0222039e-34 -9.546644e-35 1.0349433e-34
-1.012972e-34 -9.998237e-35 -9.4966955e-35 1.090947e-34 9.682213e-35 9.691927e-35 1.0163235e-34 -1.0164517e-34
1.0070071e-34 1.0448879e-34 -9.946096e-35 -9.916308e-35 -1.0559221e-34 -1.0002457e-34 2.9546271e-28 1.0613944e-34
-9.741998e-35 -1.0043753e-34 -9.89868e-35 9.713073e-35 1.0610966e-34 3.1867644e-11 -9.506662e-35 1.0288029e-34
-9.717285e-35 1.100694e-34 1.0059485e-34 -1.0567878e-34 -1.0119888e-34 -1.0528583e-34 9.705577e-35 -1.09731e-34
-9.955655e-35 -1.1427776e-34 1.0201806e-34 9.685956e-35 1.1549939e-34 1.0491839e-34 -1.497742e-11 -1.0578464e-34
-1.0217118e-34 1.0476096e-34 -2.8598218e-33 1.0121214e-34 -1.0815145e-34 9.875257e-35 -1.0010814e-34 9.460047e-35
-3.7673426e-13 -0.013721186 -0.0013249634 -2.4414704e-10 0.08451341 0.06515731 -3.045536e-12 -0.05159654
0.0014970651 0.008495207 0.038416572 0.062933505 0.11734798 0.027309112 -0.014631059 0.0440265
-0.07950407 -0.05564992 0.09691332 0.0045044725 -0.0003811383 -5.7925286e-06 0.060688395 0.007792755
0.028375506 0.08330731 -0.0054335054 -0.044291444 0.046392575 -0.024925176 0.0012634826 6.3483576e-06
-0.02908947 -0.052625515 -0.053687856 -0.03686562 -0.015892075 0.01879023 5.0810064e-07 0.054301906
-1.2025518e-15 -0.07718201 -0.055391684 -0.00014117267 0.00011158701 7.6398204e-10 0.08818712 0.09985856
0.051549427 -0.032302152 -0.06327423 0.025139274 0.04475651 -0.068211146 -0.0933143 0.015358867
0.10411854 -0.081856385 -0.05115067 -0.031556267 -0.010728313 0.009822318 -1.150282e-08 -0.07766414
00000000: 8bb2 2488 159f 9e3d b7c4 fdb4 5637 d008
00000010: e913 1c3c 7b6c f5bc dc43 a4a3 7e92 1abd
00000020: a0b6 9b35 0462 02bd daf9 a23d 79d3 203d
00000030: abaf d53b a509 8a3d 06a1 b23d b6be 393d
00000040: c352 393c e54f 08bd 64fb 5ebb bf11 a1b6
00000050: 370f 8535 c6e4 2c28 e71e 04bd 898b ecbc
00000060: 84cb 44bd ef62 173d d91f 36b9 e005 6abd
00000070: 58e4 923d ed9e 48bd 694f d1b5 ca5b 1218
00000080: 5b6a c6bc 4c2b 2fbd a9ec 5ebd b5bb 9d3d
00000090: ec08 63bd f757 393d d278 0707 1404 04bd
000000a0: 36ca 4827 d75e 4bbd f868 8fbd 0187 4830
000000b0: f545 0cb7 45b7 9d27 8674 1f3d 3971 5c3d
000000c0: f308 273d cc21 a9bc 1eed 983d 578d 58bc
000000d0: 3705 913d 82c0 35bd e94b cabc 283f a4bd
000000e0: ed4c 573d bc9e c8bc 0cfb 84bd 63c7 62bd
000000f0: f0d7 913d 6ca0 493d a142 8ba7 fbc8 02bd
00000100: 717f be0c d679 2834 161e dbb3 2334 0a07
00000110: 8585 98b3 4bbe 8d2e 34ca 83a8 0028 4e39
00000120: 8c2d f032 98f9 893a a437 0787 43c8 32ad
00000130: 9820 35b5 a46e dcab 6c73 bd20 d2b3 d4b1
00000140: 788d 0e28 4390 922d 25b8 0334 c35f 0607
00000150: b93d 06a4 4d68 6f9d 5ac2 4539 9fc2 06b6
00000160: da8d 1bb0 3aa1 9eb4 ad5c dd36 0aff 5b35
00000170: b4ab 632c e12f 08b6 8eed cc35 8fcb e221
00000180: 1cc5 a92c e724 a628 a3f0 a435 b60c d5ae
00000190: 250e 0a07 721e fa3a e4af be8d 7c4d 79ba
000001a0: d7bf 25a0 2c97 aa2a fd03 55aa fe3e 3a37
000001b0: d418 f5ac 4357 92a4 b49f 7db6 3d56 21a8
000001c0: 433b 8bac 749c 113b aab8 ca31 4fa5 26b6
000001d0: b19f 6089 e841 782e 0f3d b2b5 79ee cd3a
000001e0: b838 0c38 8620 0987 0724 542e 019e 9438
000001f0: 4469 f030 6494 9739 a91f 090f 4151 af91
00000200: 16be 1187 4e43 1207 336a 0c87 3207 0a87
00000210: d3d1 fe86 4e6f 782b 2e2c 0a07 a16f 1607
00000220: 1679 1787 ec07 0a87 2ff5 0c07 1510 1187
00000230: 81f4 ad29 ccdf 0707 18cb fd86 4c91 0907
00000240: a7a5 0687 3de6 0487 2977 fc86 0103 1107
00000250: ddb2 0007 ebd3 0007 b217 0707 0f1c 0787
00000260: adda 0507 b1e3 0a07 d034 0487 73cf 0387
00000270: 2b5b 0c87 99f4 0487 9145 bb11 6115 0d07
00000280: 4d7e 0187 1f81 0587 7693 0387 e01b 0107
00000290: 3f0b 0d07 c727 0c2e fdba fc86 59c0 0807
000002a0: 352a 0187 ad4e 1207 a7b6 0507 a078 0c87
000002b0: 3284 0687 e9f2 0b87 5e02 0107 86db 1187
000002c0: 5755 0487 b5e6 1787 f29a 0707 9abf 0007
000002d0: 6886 1907 e175 0b07 27be 83ad a69c 0c87
000002e0: 0dcf 0787 4f40 0b07 af95 6d89 b588 0607
000002f0: 08c2 0f87 c243 0307 0911 0587 be7d fb06
00000300: 2115 d4aa d3ce 60bc 65aa adba a438 86af
00000310: 5e15 ad3d 3271 853d 804f 56ac e556 53bd
00000320: 2b39 c43a 7b2f 0b3c b25a 1d3d 48e3 803d
00000330: 2354 f03d 5cb7 df3c 1cb7 6fbc 2255 343d
00000340: 08d3 a2bd 2cf1 63bd 7e7a c63d 419a 933b
00000350: 84d3 c7b9 715d c2b6 6594 783d 5e5a ff3b
00000360: c073 e83c 069d aa3d 8c0b b2bb f26a 35bd
00000370: 2406 3e3d e22f ccbc 719b a53a fa03 d536
00000380: 0a4d eebc da8d 57bd cce7 5bbd 6800 17bd
00000390: 1930 82bc f8ed 993c 6964 0835 ad6b 5e3d
000003a0: 554e ada6 9a11 9ebd 64e2 62bd c007 14b9
000003b0: d203 ea38 7500 5230 739b b43d a582 cc3d
000003c0: 7e25 533d 434f 04bd eb95 81bd e1f0 cd3c
000003d0: 9a52 373d 49b2 8bbd 911b bfbd c2a3 7b3c
000003e0: 1a3c d53d 52a4 a7bd 5d83 51bd 2541 01bd
000003f0: cec5 2fbc caed 203c f09d 45b2 600e 9fbd

network.6.bias f4 [32]
0.041318156 -0.033059854 -9.3351014e-07 0.032710087 0.030598326 0.003571211 0.050888784 0.030522363
-0.010074705 -0.009523661 0.01638804 -0.014835502 0.042422567 0.034269538 -0.001961311 -0.0033785445
0.062163554 0.03731255 -0.0062618023 0.031420995 -0.0032883503 0.017343856 0.031560276 -0.016839884
0.026631175 0.024780964 0.06174235 0.046838995 0.043560263 0.016102796 -0.00023454956 -0.0056367866
00000000: 3a3d 293d c569 07bd 5496 7ab5 03fb 053d
00000010: 57a9 fa3c fa0a 6a3b c270 503d 090a fa3c
00000020: 6010 25bc 2109 1cbc 3640 863c 9b10 73bc
00000030: 49c3 2d3d 375e 0c3d 5789 00bb 926a 5dbb
00000040: 369f 7e3d 0bd5 183d ce2f cdbb 4db3 003d
00000050: 5d81 57bb b414 8e3c 5945 013d ccf3 89bc
00000060: 9f29 da3c 7301 cb3c 8ce5 7c3d 3fda 3f3d
00000070: 3f6c 323d 03ea 833c 6bf1 75b9 cbb4 b8bb

network.9.weight f4 [5, 32]
0.1566889 0.0003574798 -5.91091e-35 -0.0036783738 -0.06649359 -0.2086338 0.052570846 -0.08747395
1.1582235e-08 -0.15582557 -0.10138035 -0.0008247245 0.19596139 0.17822018 1.0255365e-21 0.0003851094
0.07070987 0.14361438 -9.7778e-08 0.18759692 -8.0879676e-05 -0.11104004 0.15487166 -0.0013716515
0.08146978 -0.10856537 0.13138777 0.18906999 0.14032954 -0.10989203 -2.3099623e-05 -6.9762915e-05
-0.028044935 1.2678322e-05 -9.820195e-35 -0.1616251 0.13286279 -0.11635482 -0.09021781 0.09950939
9.570414e-09 -0.12559532 -0.20777094 2.1279244e-05 -0.021661794 -0.0019395076 9.728299e-33 -0.00023354082
-0.117632814 -0.027072614 -2.1718124e-08 -0.0040049134 1.6653436e-07 0.051777698 -0.002887691 0.0078325085
-0.09280576 0.06472266 -0.04018457 0.018563204 -0.045092426 -0.1947963 -7.642086e-08 0.0029685798
-0.15000848 1.822549e-06 -1.0079272e-34 -0.14482015 0.15058476 -0.0233643 -0.15252297 0.16560394
-9.4971945e-08 0.011364068 -0.107058585 -2.7770522e-05 -0.19165768 -0.1841107 -2.5304191e-18 -0.00014218014
-0.15324584 -0.17214781 -3.1353206e-08 -0.11952002 3.910257e-11 0.13573433 -0.14268626 0.00048095218
-0.14999178 0.13897674 -0.14499913 -0.13968495 -0.13280697 -0.07253933 -2.4063615e-08 0.002846545
-0.14734243 -4.9390437e-08 -1.001538e-34 -0.10680269 0.13953596 0.030491684 -0.12074494 0.14790796
3.366974e-07 0.05874262 -0.050950248 -4.9581948e-05 -0.1479168 -0.15585071 2.2489121e-23 0.00065674476
-0.10805223 -0.14080405 -1.368369e-09 -0.12146215 5.337295e-13 0.112716235 -0.13099636 -0.0018121334
-0.12401474 0.13759193 -0.13301563 -0.1312132 -0.16369592 -0.0714336 1.3552944e-08 0.0015163989
0.040272277 3.8271708e-05 1.0217399e-34 -0.06631126 -0.029728657 -0.15431987 -0.00339157 -0.021745624
-6.5332654e-07 -0.13111345 -0.116389535 0.004908933 0.057243135 0.05240104 4.248895e-35 0.0007228349
-0.01476289 0.04674363 2.9991278e-07 0.059044056 9.302113e-06 -0.07654547 0.04113249 0.014635336
-0.0067252964 -0.054174658 0.043852568 0.07812649 0.03800461 -0.08739336 -2.830136e-07 0.0027641468
00000000: 0e73 203e 206c bb39 9223 9d86 df10 71bb
00000010: cb2d 88bd 19a4 55be 8754 573d 8b25 b3bd
00000020: 35fb 4632 bd90 1fbe 80a0 cfbd 5332 58ba
00000030: 1aaa 483e 5a7f 363e 86f9 9a1c 82e8 c939
00000040: 56d0 903d a60f 133e 06fa d1b3 6819 403e
00000050: f29d a9b8 f668 e3bd ad96 1e3e fdc8 b3ba
00000060: a1d9 a63d 8557 debd 848a 063e 909b 413e
00000070: 8cb2 0f3e 130f e1bd 10c6 c1b7 ae4d 92b8
00000080: 7ebe e5bc fab4 5437 6488 0287 0d81 25be
00000090: 2f0d 083e 704b eebd 1dc4 b8bd 94cb cb3d
000000a0: 206b 2432 0f9c 00be e8c1 54be d480 b237
000000b0: 1374 b1bc 1337 feba 820c 4a0a a3e2 74b9
000000c0: 79e9 f0bd 63c7 ddbc a98e bab2 a63b 83bb
000000d0: 9ed0 3234 da14 543d 6a3f 3dbb ec53 003c
000000e0: f210 bebd 508d 843d 9398 24bd dc11 983c
000000f0: d6b2 38bd ae78 47be d01c a4b3 818c 423b
00000100: d39b 19be 4f9e f435 fcf9 0587 bc4b 14be
00000110: e432 1a3e 7d66 bfbc fb2e 1cbe 1494 293e
00000120: 61f3 cbb3 5b30 3a3c 8841 dbbd bef4 e8b7
00000130: e941 44be 8487 3cbe 44b6 3aa2 3116 15b9
00000140: 7aec 1cbe 8447 30be 37a9 06b3 eac6 f4bd
00000150: 94f9 2b2e f1fd 0a3e 591c 12be 4f28 fc39
00000160: 7297 19be eb4f 0e3e a77a 14be 9209 0fbe
00000170: 8dfe 07be 808f 94bd 73b4 ceb2 1a8d 3a3b
00000180: efe0 16be 5c21 54b3 9220 0587 5ebb dabd
00000190: 84e2 0e3e b2c9 f93c 2049 f7bd 2f75 173e
000001a0: 57c3 b434 1a9c 703d 35b1 50bd 36f6 4fb8
000001b0: 8077 17be 5497 1fbe 5e80 d919 6529 2c3a
000001c0: 7d4a ddbd f02e 10be 3411 bcb0 26c1 f8bd
000001d0: 433b 162b c5d7 e63d e923 06be 1b85 edba
000001e0: 71fb fdbd e6e4 0c3e 4035 08be c15c 06be
000001f0: e79f 27be c74b 92bd 7ad6 6832 e7c1 c63a
00000200: 8bf4 243d ef85 2038 02d0 0707 33ce 87bd
00000210: 8389 f3bc 0706 1ebe 1a45 5ebb e123 b2bc
00000220: 4260 2fb5 9b42 06be a35d eebd 1ddb a03b
00000230: c777 6a3d 79a2 563d f6e8 6106 a17c 3d3a
00000240: 0ce0 71bc 4076 3f3d b303 a134 2ed8 713d
00000250: 4510 1c37 dfc3 9cbd 8b7a 283d 0cc9 6f3c
00000260: e05f dcbb 3fe6 5dbd c09e 333d c800 a03d
00000270: b9aa 1b3d 4afb b2bd 18f1 97b4 b026 353b

network.9.bias f4 [5]
-0.105550095 -0.018172259 -0.017791536 -0.023954978 -0.045133267
00000000: a62a d8bd fddd 94bc 8ebf 91bc 3b3d c4bc
00000010: a9dd 38bd

exp_avg f4 [128, 45]
-7.579612e-32 2.4334937e-17 8.879481e-27 0.0 1.05327045e-36 5.9238585e-18 6.736265e-26 1.0723032e-16
7.2135616e-38 -3.6485135e-25 -1.1819511e-34 5.5336912e-24 9.540897e-29 0.0 -1.0534835e-34 2.2940964e-33
-2.0006386e-14 1.7540087e-12 7.384359e-38 3.264286e-35 -2.4909414e-35 -3.658168e-29 -7.86865e-32 0.0
0.0 -1.5147673e-37 4.289015e-37 -4.7423943e-36 -1.8925794e-36 0.0 -8.013183e-36 6.1751414e-36
1.3213337e-13 -1.0142574e-20 4.146615e-27 1.097139e-25 -6.340144e-35 -2.1294758e-20 1.6258628e-15 -6.9400845e-14
2.6467037e-13 -8.4125085e-35 1.7548782e-35 2.6369725e-34 1.8181916e-11 -2.874911e-18 -1.419999e-23 -5.87244e-18
-1.2481457e-27 6.933341e-22 -1.7569841e-10 4.1069445e-31 1.10271306e-10 -1.0627184e-22 6.4327615e-38 2.8886513e-15
-1.454134e-12 1.1196079e-37 1.3007929e-31 2.6452735e-24 -2.0179855e-33 -2.1510972e-13 2.1624594e-07 0.0
-7.1702906e-28 1.6983411e-19 1.7112646e-17 2.1803803e-27 1.0695738e-37 0.0 0.0 0.0
2.0116616e-36 0.0 0.0 7.7307274e-13 -3.7985853e-26 7.336473e-09 5.0800005e-14 -2.1439357e-15
1.3346904e-28 2.1162867e-22 -1.2683827e-17 7.5548895e-14 3.088013e-07 0.0 -1.1572333e-14 3.2094704e-08
-4.6624927e-13 2.2357593e-12 -6.254637e-05 -3.8951817e-05 0.000325035 -0.00026401944 0.0002295117 1.1439359e-05
8.877963e-06 -0.0007022232 0.0002959047 0.0004843859 -0.0002781002 0.0007064573 -0.0020198666 -0.00017105031
0.0006084859 0.00012032727 0.00016637056 -0.0020923032 -2.0189188e-06 0.0008415942 4.5530258e-05 0.00032200463
0.00013061769 -0.00046709907 -2.8196595e-05 0.00015773367 -1.928703e-06 7.730682e-05 3.7647935e-06 -1.931312e-06
-0.00056116923 3.29729e-05 0.00024901 0.00035304646 -0.00036622613 -0.00033512645 0.00042950426 -0.0006280838
0.00039870085 0.001177832 7.019225e-05 0.000518419 0.0004585139 0.00029473647 -0.0036070014 -0.0002235034
-0.0009941694 -0.0005571326 0.00019180501 -0.00022095442 -6.885726e-05 -0.00043700973 -0.00053518655 -0.00010863853
-0.00054118596 -0.00020035804 8.3518265e-05 -0.00047738486 2.102995e-05 -4.8096877e-05 -0.00028124583 -0.0010044976
-0.0019945274 -6.664021e-06 -3.7440637e-05 9.10526e-05 -0.0012309647 0.00015691931 -0.0005301152 0.00025608178
1.5683916e-05 -6.658516e-06 -6.2929954e-05 -7.538487e-05 -6.65808e-06 -0.00016815467 -0.0006640503 -0.0009470471
-0.0009504388 -0.00089997135 -8.757215e-05 -0.00062456855 -0.00014924828 -0.00079739065 0.0004782113 -0.0017953302
-0.0002626971 -0.00030386605 -0.0017285885 3.0139065e-05 -3.8719957e-37 -6.021246e-35 3.3170331e-18 0.0
-8.6555146e-32 0.0 -4.2423794e-30 1.4609567e-13 0.0 1.0452258e-08 -9.367042e-37 1.5692786e-11
5.6432706e-37 0.0 0.0 -8.344238e-31 -6.038352e-16 1.1799995e-09 -4.837174e-37 0.0
-1.3634475e-24 1.5089924e-15 3.610268e-17 0.0 1.8903347e-35 -4.112916e-37 0.0 -4.3820687e-35
0.0 0.0 -7.459607e-21 -8.081395e-27 -2.1724322e-14 -2.2429828e-28 5.776847e-14 1.793593e-17
6.830091e-38 3.8033203e-09 0.0 3.5419737e-19 2.1538666e-08 2.254683e-15 0.0 0.0
5.0169305e-08 -0.000106845175 -0.00046494917 -0.0006160854 0.00094771956 -0.0002382526 -0.000101067875 0.0004212978
-0.0003880327 -6.7989167e-06 -0.002159867 -0.0006260586 -0.00086104585 -0.00067763467 -0.0015357543 -0.0010365685
0.00012847155 -0.0037620277 3.554891e-05 -6.9070384e-06 -0.00125592 -0.00046312792 -0.0005269082 -0.00040781702
-0.00031586524 4.143511e-05 -0.0001817886 -6.8978165e-06 -0.00017767343 -0.00023628192 -6.991837e-06 -0.00047518886
00000000: 2ac7 c48b 3f73 e023 51e0 2f14 0000 0000
00000010: 6634 b303 438d da22 27c8 a615 9c41 f724
00000020: 305f c401 01d5 e196 b61b 1d87 0613 d618
00000030: f6e3 f110 0000 0000 3008 0c87 0996 3e09
00000040: 9633 b4a8 d3da f62b 7905 c901 298f 2d06
00000050: f070 0486 bc7d 3990 2648 cc8b 0000 0000
00000060: 0000 0000 f02d 4e82 97f2 1103 1ab8 c984
00000070: bb00 2184 0000 0000 eb6b 2a85 ab54 0305
00000080: dac4 142a 7a96 3f9e ac43 a413 b9d1 0716
00000090: c98c a886 911f c99e c04f ea26 dd46 9ca9
000000a0: 05ff 942a 91a4 df86 549c ba05 c341 af07
000000b0: 09ee 9f2d 8921 54a2 7955 8999 a1a7 d8a2
000000c0: cec6 c592 218c 511c b52e 41af 2947 050d
000000d0: 3a7d f22e 8b79 009b ce1d af01 3626 5027
000000e0: b3a6 ccab a464 1802 42da 280c 0aab 4c18
000000f0: cea5 2789 2831 72aa 3b31 6834 0000 0000
00000100: 4f3c 6392 3681 4820 18d6 9d23 5ebf 2c13
00000110: 3595 1102 0000 0000 0000 0000 0000 0000
00000120: 1c22 2b04 0000 0000 0000 0000 c399 592b
00000130: ca18 3c95 4d14 fc31 6bc8 6429 a27c 1aa7
00000140: 2e31 2911 e7d7 7f1b aef9 69a3 f91e aa29
00000150: 54c9 a534 0000 0000 f777 50a8 80d8 0933
00000160: cd3c 03ab dc53 1d2c 542b 83b8 3260 23b8
00000170: 7669 aa39 176c 8ab9 14a9 7039 aceb 3f37
00000180: 90f2 1437 6715 38ba a823 9b39 2df5 fd39
00000190: facd 91b9 8c31 393a bd5f 04bb f85b 33b9
000001a0: cc82 1f3a 3658 fc38 c273 2e39 061f 09bb
000001b0: c37c 07b6 6e9e 5c3a bef7 3e38 bbd2 a839
000001c0: 6bf6 0839 fae4 f4b9 ba87 ecb7 4f65 2539
000001d0: de6e 01b6 c81f a238 a9a6 7c36 b09b 01b6
000001e0: 6e1b 13ba 624c 0a38 8e8d 8239 1819 b939
000001f0: 0a02 c0b9 e9b3 afb9 162f e139 fea5 24ba
00000200: b908 d139 7c61 9a3a 2d34 9338 83e6 073a
00000210: b264 f039 dc86 9a39 7163 6cbb 3d5c 6ab9
00000220: ca4e 82ba 890c 12ba 441f 4939 00b0 67b9
00000230: 7667 90b8 741e e5b9 c34b 0cba ded4 e3b8
00000240: 60de 0dba 3417 52b9 8726 af38 8349 fab9
00000250: 7969 b037 a1bb 49b8 2d74 93b9 59a9 83ba
00000260: 9eb6 02bb 819b dfb6 9409 1db8 7ef3 be38
00000270: 5258 a1ba b58a 2439 6ef7 0aba b742 8639
00000280: f490 8337 386c dfb6 43f9 83b8 f217 9eb8
00000290: 7968 dfb6 ad52 30b9 a913 2eba 4143 78ba
000002a0: de26 79ba 0eec 6bba f1a6 b7b8 16ba 23ba
000002b0: 887f 1cb9 fb07 51ba 6fb8 fa39 4951 ebba
000002c0: 9cba 89b9 3650 9fb9 ce91 e2ba 26d3 fc37
000002d0: d7c1 0383 7a12 a086 fcc0 7422 0000 0000
000002e0: c3b5 e08b 0000 0000 6317 ac8e 367d 242a
000002f0: 0000 0000 8491 3332 395f 9f83 0309 8a2d
00000300: d207 4003 0000 0000 0000 0000 9c64 878d
00000310: 2c0b 2ea6 8b2d a230 ba99 2483 0000 0000
00000320: b8fb d297 fe77 d926 867e 2624 0000 0000
00000330: ce03 c905 8df4 0b83 0000 0000 a1fd 6886
00000340: 0000 0000 0000 0000 72e8 0c9e 8a11 2094
00000350: e0ac c3a8 7a2a 8e91 4115 8229 046e a523
00000360: caee b901 5cae 8231 0000 0000 cb14 d120
00000370: 0704 b932 8f77 2227 0000 0000 0000 0000
00000380: bc79 5733 1112 e0b8 6cc4 f3b9 cb80 21ba
00000390: 6270 783a 72d3 79b9 67f4 d3b8 a2e1 dc39
000003a0: de70 cbb9 4022 e4b6 8e8c 0dbb 151e 24ba
000003b0: cfb7 61ba 4ba3 31ba 5d4b c9ba 78dd 87ba
000003c0: 52b6 0639 5a8c 76bb 5a1a 1538 02c3 e7b6
000003d0: af9d a4ba facf f2b9 3620 0aba 46d0 d5b9
000003e0: b79a a5b9 9cca 2d38 819e 3eb9 cb73 e7b6
000003f0: d94d 3ab9 72c2 77b9 6c9b eab6 c522 f9b9

exp_avg_sq f4 [128, 45]
1.536447e-10 5.240139e-10 2.390978e-10 2.1766377e-11 4.968439e-11 4.9866655e-10 2.8990152e-10 6.83254e-10
4.531977e-11 2.8816374e-10 1.2968454e-10 3.1044256e-10 2.909858e-10 1.7318567e-11 1.08165296e-10 1.1604551e-10
1.0310436e-09 2.0713715e-09 5.290076e-11 1.06918606e-10 6.404373e-11 1.9600355e-10 1.2937341e-10 2.2101897e-11
1.6950965e-11 4.483103e-11 6.683888e-11 7.4016175e-11 8.0512326e-11 1.7341804e-12 9.455807e-11 6.902935e-11
1.0085682e-09 4.0224676e-10 2.429664e-10 2.847627e-10 1.0925046e-10 3.9834663e-10 9.163534e-10 1.5996444e-09
1.0629605e-09 1.2536641e-10 1.1645915e-10 1.3727186e-10 2.1308144e-09 5.0154175e-10 3.2045933e-10 5.079319e-10
2.3661875e-10 4.3003046e-10 2.96136e-09 1.7471927e-10 2.1511462e-09 3.7783746e-10 9.190412e-11 7.862456e-10
1.6487453e-09 8.126329e-11 1.9350509e-10 3.0310796e-10 1.2856892e-10 1.1340696e-09 1.0731457e-08 7.005139e-13
2.4044094e-10 4.9042737e-10 5.951913e-10 2.801317e-10 8.404337e-11 3.421033e-11 1.4811676e-11 4.297916e-11
1.1934045e-10 7.044645e-11 9.8038955e-12 1.2298079e-09 2.808789e-10 4.3737987e-09 1.000374e-09 7.804329e-10
2.6218946e-10 3.6911077e-10 5.6351823e-10 1.2064147e-09 1.1105904e-08 7.652916e-12 8.4367263e-10 5.382358e-09
1.212832e-09 1.612844e-09 8.7799816e-07 6.1278155e-07 1.715987e-06 8.174137e-07 7.7056154e-07 2.0442728e-07
1.2188145e-06 9.831547e-07 7.476718e-07 3.0946605e-06 9.3548965e-07 2.6069738e-06 1.1048188e-06 1.5364434e-07
1.1298739e-06 3.837388e-07 5.373327e-06 8.941274e-06 1.1421453e-10 5.46602e-07 7.419169e-07 2.061187e-06
8.8069e-07 4.169257e-07 5.402495e-08 2.2050735e-07 8.542898e-11 2.2306695e-07 1.2143501e-07 8.605831e-11
1.2108336e-06 1.0905347e-06 3.7962182e-06 2.5974234e-06 1.1366367e-06 1.8268104e-06 1.0804989e-06 1.984887e-06
5.448232e-06 6.7049627e-06 4.778828e-06 4.653507e-06 5.8780656e-06 6.8852564e-06 7.1122713e-06 2.709219e-06
5.0639e-06 1.3371481e-05 2.1292876e-06 1.3043291e-06 4.5169978e-07 1.4345034e-05 6.4650626e-06 7.4284517e-06
2.6632704e-06 1.6280417e-06 9.518969e-06 1.5774726e-06 5.5575356e-07 4.53866e-06 3.0308356e-06 1.9487967e-05
4.8620852e-05 4.6556772e-10 1.2710134e-06 2.7101166e-06 1.3994619e-05 5.453092e-06 7.721137e-07 4.1473865e-07
7.3040127e-07 4.826054e-10 1.1990346e-06 5.836616e-07 4.8406756e-10 9.2792516e-07 2.208532e-06 2.1041897e-05
8.895552e-06 9.337778e-06 5.4148277e-06 2.5882784e-06 1.9415627e-05 4.5448036e-05 2.2425924e-05 3.3978667e-05
4.9214004e-06 3.2399723e-05 4.005328e-05 3.0423212e-06 9.549135e-11 1.3084644e-10 5.333497e-10 1.6763816e-11
1.9176949e-10 3.262171e-11 1.8474093e-10 1.0787581e-09 1.9424826e-11 4.5700994e-09 8.958833e-11 1.6422584e-09
8.2428064e-11 3.4488228e-11 3.5147562e-11 1.8351741e-10 7.051378e-10 4.700889e-09 1.0975162e-10 2.668977e-11
3.1995545e-10 7.5412826e-10 5.911957e-10 2.1848485e-11 8.546528e-11 9.5588405e-11 4.3491166e-11 1.2408011e-10
3.4360174e-11 1.8996903e-11 4.2052553e-10 2.653869e-10 9.230457e-10 2.4326918e-10 9.915491e-10 5.7270627e-10
6.899255e-11 3.512691e-09 7.591992e-11 4.945015e-10 5.2051523e-09 7.9155105e-10 3.076028e-11 5.3888408e-11
7.111651e-09 1.3466608e-06 1.6502441e-06 3.6245476e-06 3.9793845e-06 9.193317e-07 2.4562343e-07 6.1835285e-06
1.5220775e-05 4.1050575e-06 3.8819384e-05 2.1138073e-06 2.6167838e-06 1.5022443e-06 1.3249316e-06 2.9686214e-06
1.7598603e-06 7.430479e-05 3.8095181e-06 6.6717165e-10 2.144602e-06 1.3282964e-06 2.7927292e-06 8.576028e-06
8.545087e-07 2.308898e-07 5.7006895e-07 6.592348e-10 8.58454e-07 6.856482e-07 7.4680556e-10 2.2019196e-06
00000000: 23ef 282f 330a 1030 0672 832f 8675 bf2d
00000010: a683 5a2e 8a12 0930 0360 9f2f bacf 3b30
00000020: 8651 472e 716b 9e2f f496 0e2f e8aa aa2f
00000030: 9cf8 9f2f f255 982d a6db ed2e d02f ff2e
00000040: 9fb4 8d30 f457 0e31 f6a8 682e d31d eb2e
00000050: 6ad5 8c2e 1882 572f 613f 0e2f 0c69 c22d
00000060: 2e1a 952d 412b 452e f2fa 922e 67c3 a22e
00000070: 690c b12e 6f10 f42b 76ef cf2e 12cc 972e
00000080: d79d 8a30 3323 dd2f 7b92 852f ca8c 9c2f
00000090: 8b3e f02e 4efe da2f a3e2 7b30 7cda db30
000000a0: 9917 9230 82d7 092f 560c 002f 98ee 162f
000000b0: af6d 1231 dddc 0930 a42c b02f 889e 0b30
000000c0: 2115 822f 6869 ec2f cc80 4b31 1a1b 402f
000000d0: 5dd3 1331 e5b7 cf2f 6c19 ca2e 1e1f 5830
000000e0: 119a e230 2ab3 b22e d7c2 542f a7a2 a62f
000000f0: ef5c 0d2f 87dd 9b30 725d 3832 592d 452b
00000100: 0e2f 842f c2ce 0630 dd9a 2330 0801 9a2f
00000110: 36d0 b82e 6875 162e ee48 822d 3b06 3d2e
00000120: 5a37 032f d3e9 9a2e d278 2c2d 0506 a930
00000130: 316a 9a2f 5748 9631 887d 8930 1586 5630
00000140: e323 902f b9eb ca2f 12e6 1a30 f2ce a530
00000150: 48cc 3e32 aba1 062d 2fe8 6730 b9ef b831
00000160: bbb0 a630 e7aa dd30 93af 6b35 077e 2435
00000170: dd50 e635 3e6c 5b35 96d8 4e35 8b80 5b34
00000180: 2696 a335 f0f4 8335 9db3 4835 ddad 4f36
00000190: 5c1e 7b35 78f3 2e36 4949 9435 6ff9 2434
000001a0: 2ca6 9735 a904 ce34 874c b436 7b02 1637
000001b0: 1029 fb2e 34ba 1235 2428 4735 ec52 0a36
000001c0: 8e68 6c35 d5d5 df34 1009 6833 99c4 6c34
000001d0: 3edc bb2e 2d84 6f34 cd63 0234 863e bd2e
000001e0: ed83 a235 7d5e 9235 88c2 7e36 654f 2e36
000001f0: 8a8e 9835 ba30 f535 a905 9135 1934 0536
00000200: f5cf b636 31fb e036 d259 a036 5225 9c36
00000210: 333c c536 e707 e736 f2a5 ee36 07d0 3536
00000220: 92ea a936 1356 6037 e2e4 0e36 6810 af35
00000230: 2581 f234 74ab 7037 77ee d836 ea41 f936
00000240: a3ba 3236 1683 da35 a9b3 1f37 8cb9 d335
00000250: 182f 1535 cb4a 9836 5c65 4b36 177a a337
00000260: 3eee 4b38 d5f2 ff2f b097 aa35 73df 3536
00000270: 6eca 6a37 b4f9 b636 4043 4f35 3fa9 de34
00000280: cb10 4435 56a8 0430 84ee a035 ebac 1c35
00000290: 3a0f 0530 8816 7935 4a36 1436 2183 b037
000002a0: 1b3e 1537 73a9 1c37 04b1 b536 49b2 2d36
000002b0: bede a237 759f 3e38 4e1f bc37 5184 0e38
000002c0: 8222 a536 f0e4 0738 e2fe 2738 ae2a 4c36
000002d0: dafc d12e 00de 0f2f 269b 1230 c274 932d
000002e0: 50da 522f c878 0f2e f31f 4b2f 6d43 9430
000002f0: d2dc aa2d 0507 9d31 bf01 c52e d5b5 e130
00000300: e042 b52e 4bae 172e a394 1a2e 8fc7 492f
00000310: a9d3 4130 7585 a131 ab58 f12e 05c4 ea2d
00000320: bae5 af2f 0f4b 4f30 b381 2230 6a2e c02d
00000330: adf0 bb2e 7d33 d22e b346 3f2e 726d 082f
00000340: 1e1e 172e 3919 a72d b52f e72f e3e5 912f
00000350: 91b9 7d30 18bd 852f 0847 8830 9f6c 1d30
00000360: 5ab7 972e ea63 7131 1ef3 a62e 73ed 0730
00000370: 01d9 b231 7494 5930 ff48 072e f400 6d2e
00000380: be5a f431 eabe b435 f57d dd35 413d 7336
00000390: a786 8536 fec7 7635 3ade 8334 1b7c cf36
000003a0: bb5c 7f37 2dbe 8936 ffd1 2238 efda 0d36
000003b0: 019c 2f36 b9a0 c935 4ed4 b135 8738 4736
000003c0: 5734 ec35 15d4 9b38 06a7 7f36 0864 3730
000003d0: fbeb 0f36 eb47 b235 b96a 3b36 c3e1 0f37
000003e0: 6461 6535 81ea 7734 d706 1935 8635 3530
000003f0: 8270 6635 630d 3835 c547 4d30 b1c4 1336

exp_avg f4 [128]
-1.9393402e-08 -2.991109e-06 -0.00069548434 -0.0043002497 -7.509363e-07 -0.007349424 -0.011120247 -0.004573712
-0.0018572008 0.0024557882 0.0070916913 -9.632569e-07 -0.0027999878 -0.004388215 -0.0015512697 -0.0012282502
-0.0061262157 -0.0019704173 0.0024774722 -0.00612737 -0.0038141788 -0.0018230745 -0.0050650877 -0.0010595487
-0.0036822464 -2.3647154e-07 -0.004258271 0.005092077 0.00020043842 -0.00042573342 0.0020687003 -0.0072792964
0.00028245713 0.0027386795 0.0007334829 -2.7850248e-11 -3.161747e-06 -0.00018276095 -0.0016129104 -3.2392523e-05
-0.0037112553 -0.00047045544 -6.377832e-21 0.0010846966 0.0024647384 -0.00076207763 1.6602833e-05 -0.0015281521
0.001060486 0.0039422726 0.006623335 0.0030564521 0.002213386 -8.103236e-08 -0.00085847493 0.0006992688
-9.612144e-05 0.00078382116 0.00033815007 -0.004105223 -0.0017696714 -1.3041679e-18 0.004460844 -0.002401276
-0.00215377 0.003520129 -0.001128565 -9.661251e-06 -2.8116012e-05 0.003768667 0.0024223332 -0.00013756016
-3.7647863e-10 0.0078976145 0.00029913452 0.0010733302 -0.005839357 0.0023376907 0.0009610725 0.0014021713
-0.002437253 -2.8030747e-10 -0.0027777536 -0.005176128 -0.0022534318 -0.002608698 0.0013514272 -0.0025287168
-0.0037072534 0.0017662798 0.002733753 -2.4651651e-08 0.0004831029 -9.331296e-14 0.0035220878 -0.0018286427
-4.9198907e-06 0.0026998974 -0.002044813 0.0014764867 -0.0005830708 0.0053071175 -0.013867283 -8.452034e-09
0.0006330908 -8.785844e-13 -2.394434e-08 0.00066794816 -0.00060247607 -0.0021162932 -2.8492488e-09 -0.00021338306
-0.00037666364 0.0042673694 0.0010261975 0.0028862322 -0.0014500574 -0.0041819513 -0.00034031697 0.0015068373
0.0065484373 -0.0001065153 -0.0028031205 -2.5728696e-06 0.0024716998 -0.0020349114 4.9474766e-05 0.0035262788
00000000: 8b96 a6b2 ddba 48b6 2a51 36ba 1ce9 8cbb
00000010: f393 49b5 70d3 f0bb b231 36bc 14df 95bb
00000020: 516d f3ba 4af1 203b 6b61 e83b 4149 81b5
00000030: 0080 37bb 04cb 8fbb f953 cbba 3dfd a0ba
00000040: 6cbe c8bb 1e22 01bb 165d 223b 1bc8 c8bb
00000050: 4df7 79bb 3bf4 eeba 09f9 a5bb 8ee0 8aba
00000060: d851 71bb cde8 7db4 f788 8bbb 70db a63b
00000070: c72c 5239 f934 dfb9 0893 073b 2a87 eebb
00000080: c116 9439 6b7b 333b 3447 403a 2ff9 f4ad
00000090: 662e 54b6 85a3 3fb9 4b68 d3ba 35dd 07b8
000000a0: 8838 73bb 76a7 f6b9 9bf2 f09d 612c 8e3a
000000b0: 7387 213b 2ac6 47ba 5046 8b37 474c c8ba
000000c0: 0100 8b3a 2e2e 813b 9008 d93b c24e 483b
000000d0: 740e 113b 0304 aeb3 470b 61ba 234f 373a
000000e0: ce94 c9b8 5979 4d3a bc49 b139 1b85 86bb
000000f0: 52f4 e7ba 1276 c0a1 462c 923b ba5e 1dbb
00000100: 4426 0dbb f7b1 663b 5cec 93ba c216 22b7
00000110: adda ebb7 befb 763b 02c0 1e3b 063e 10b9
00000120: a8f8 ceaf ff64 013c 28d5 9c39 fcae 8c3a
00000130: 1458 bfbb f133 193b 7cf0 7b3a 10c9 b73a
00000140: 52ba 1fbb c519 9aaf f90a 36bb 829c a9bb
00000150: 50ae 13bb b1f6 2abb 5f22 b13a d4b8 25bb
00000160: 64f5 72bb 8482 e73a c428 333b 8ec1 d3b2
00000170: f948 fd39 421f d2a9 d4d2 663b 11af efba
00000180: 8a15 a5b6 c3f0 303b 4502 06bb ac86 c13a
00000190: 38d9 18ba 54e7 ad3b 9a33 63bc 7034 11b2
000001a0: 01f6 253a ae4c 77ab 29ae cdb2 3e19 2f3a
000001b0: 7cef 1dba 82b1 0abb 84cc 43b1 94bf 5fb9
000001c0: f07a c5b9 4ad5 8b3b 7981 863a f126 3d3b
000001d0: da0f beba c008 89bb 926c b2b9 1281 c53a
000001e0: 4694 d63b f760 dfb8 8fb4 37bb 90a9 2cb6
000001f0: 3efc 213b 265c 05bb 2083 4f38 2419 673b

exp_avg_sq f4 [128]
6.4547283e-09 2.403463e-08 3.9817314e-05 0.00018540247 1.315054e-08 0.00020318669 0.00016769594 0.0001959855
7.0221104e-05 0.00015302816 7.609569e-05 1.7607352e-08 4.883975e-05 4.2365693e-05 0.00011162806 0.000100709825
4.4884975e-05 9.557972e-05 4.9553673e-05 0.00012337466 5.6963923e-05 8.41159e-05 0.00017001033 0.00010862186
0.00027336864 1.3449447e-08 0.0001292965 0.00013807276 0.00015373102 0.00014016198 9.656877e-05 5.5365093e-05
3.74145e-05 0.00014777212 1.064212e-05 1.6922318e-09 5.576999e-08 2.331325e-05 7.5545686e-05 5.136791e-07
0.000110547226 2.7153172e-05 4.0883155e-10 4.5229255e-05 0.00015430455 0.00015076059 3.2313783e-06 4.6817197e-05
5.5068365e-05 0.00018572164 0.00017246131 5.4242926e-05 8.966856e-05 7.3630066e-09 7.726939e-05 7.150527e-05
1.2066249e-05 2.0584826e-05 1.992395e-06 7.131728e-05 2.9425977e-05 5.242183e-10 0.000103917926 4.594175e-05
6.242566e-05 1.1536968e-05 3.809067e-05 1.055036e-07 2.6277084e-07 6.4659136e-05 4.141377e-05 3.5225334e-05
2.4660536e-09 7.0466216e-05 9.205507e-05 3.1501666e-05 9.116447e-05 6.6382534e-05 8.874278e-05 0.00011510209
0.00017412187 2.7491748e-10 4.543091e-05 0.00021274666 3.149033e-05 0.00016883487 0.00012715002 6.863208e-05
0.00013188993 6.132558e-05 4.848202e-05 5.241348e-09 9.726202e-05 9.939897e-10 1.23827285e-05 2.403949e-05
9.601354e-08 0.0001083659 9.834824e-05 3.8308204e-05 0.00016870885 1.8853045e-05 8.8046756e-05 4.0214485e-09
4.1141197e-05 1.192688e-09 1.4739534e-08 2.7539612e-05 4.733651e-05 8.0938444e-05 3.470453e-09 8.8473104e-07
3.1444927e-06 7.370268e-05 1.2151859e-05 0.00016633804 7.930474e-05 0.00013315567 0.00017344079 0.00016627027
4.048005e-05 1.78424e-05 2.7964226e-05 3.3921456e-08 0.000112207395 0.00014793925 1.9279232e-05 4.4607506e-05
00000000: 64c8 dd31 b674 ce32 8401 2738 9968 4239
00000010: b0ec 6132 830e 5539 89d7 2f39 7581 4d39
00000020: ab43 9338 2f76 2039 9095 9f38 fa3e 9732
00000030: 48d9 4c38 d1b1 3138 dc19 ea38 2d34 d338
00000040: e042 3c38 f971 c838 dad7 4f38 225e 0139
00000050: 8cec 6e38 6167 b038 cd44 3239 ebcb e338
00000060: eb52 8f39 4b0f 6732 c493 0739 a0c7 1039
00000070: db32 2139 72f8 1239 f784 ca38 d137 6838
00000080: 83ed 1c38 47f3 1a39 8f8b 3237 1d94 e830
00000090: c187 6f33 d390 c337 486e 9e38 c2e3 0935
000000a0: 97d5 e738 fec6 e337 edc1 e02f 8bb4 3d38
000000b0: d0cc 2139 7d15 1e39 a8da 5836 955d 4438
000000c0: 35f9 6638 46be 4239 bbd6 3439 e682 6338
000000d0: 710c bc38 b1fd fc31 b00b a238 19f5 9538
000000e0: 2570 4a37 94ad ac37 16b5 0536 2c90 9538
000000f0: ced7 f637 9518 1030 83ee d938 94b1 4038
00000100: 85ea 8238 e68e 4137 8cc3 1f38 3891 e233
00000110: f312 8d34 9c99 8738 b2b3 2d38 eabe 1338
00000120: 4677 2931 43c7 9338 b00d c138 a820 0438
00000130: 8d2f bf38 da36 8b38 6b1b ba38 f762 f138
00000140: 7c94 3639 3223 972f 118d 3e38 bf14 5f39
00000150: 7c14 0438 4409 3139 9353 0539 91ee 8f38
00000160: ef4b 0a39 ec9b 8038 2c59 4b38 6217 b431
00000170: 26f9 cb38 e79c 8830 6abf 4f37 69a8 c937
00000180: 0030 ce33 8042 e338 4f40 ce38 1fad 2038
00000190: 70e7 3039 9b26 9e37 bea5 b838 092d 8a31
000001a0: 068f 2c38 faeb a330 2839 7d32 de04 e737
000001b0: 318b 4638 7fbd a938 db7c 6e31 417e 6d35
000001c0: f905 5336 d390 9a38 d6df 4b37 076b 2e39
000001d0: 6850 a638 b49f 0b39 a8dd 3539 d658 2e39
000001e0: 1fc9 2938 43ac 9537 b894 ea37 09b1 1133
000001f0: e350 eb38 2420 1b39 d6b9 a137 f218 3b38
