models/regression_models/ML_including_industry_feature/single_dimension/waiting_prompts/version_best/checkpoints/epoch=59-step=1860.ckpt (torch, 556891 bytes, 27 tensors)

network.0.weight f4 [32, 45]
00000000: 291d 803d 278b 5fbd 9be8 d5bc 2eee 6b3d
00000010: 2d93 973c 37e6 7dbc 4142 893c 8b2c dc3d
00000020: c2e9 3f3d 2df5 81bc 3fcd bb3d c99b babd
00000030: 60e8 2f3d fd42 e43c e807 963d 7ba3 8a3d
00000040: 4a82 dbbc f69b 9bbd 3013 833c e0ee f93c
00000050: 6616 963c b195 ee3d 16a2 973d 6cab c638
00000060: 5736 d83c b48c 0fbd ba0d 323c d645 2b3c
00000070: 632d 643d 03c3 7a3c ebf9 22bd 2ca5 203d
00000080: 2779 9c3d 5c09 c43d 89e3 77bd dac5 35bb
00000090: 0401 fabd 5f7f 6b3d 7ed4 9cbc a10e f53b
000000a0: 3946 c3bd 694a bd3d 843f 92bd 8a43 9fbd
000000b0: e323 33bd a126 c3bc a383 23bd 5dcc 923c
000000c0: 92e7 283c db27 c83c 32e8 66bd dd21 94bd
000000d0: 10c6 fa3d 9b75 803d 7f5b f63c 11b7 5ebd
000000e0: 6e69 353d 55f8 5f3d eb7b cc3c 2503 b8bb
000000f0: f10b 7abd 8533 b9bc 9c84 8e3d 01de 0dbc
00000100: 6404 2cbc 414c 9ebd 04ad a4bc d166 89bd
00000110: 2977 583d 741d a6bc 5f29 4b3d c3c1 10bc
00000120: f736 923d 08c7 ae3c e462 0dbc 6c42 d43d
00000130: 2532 a13b 60a1 9cbb c818 813c 7bf4 44bc
00000140: b30a 423b e04d 253d 51cc bcbd d64b b23d
00000150: 8bed 2ebd f11e e9bb 79a8 7cbd 2b32 49b8
00000160: c6ff 0abd e0af 6f3d 53be 7a3d 8d65 b2bd
00000170: 3de7 debc 5662 983d 0e40 a73d 5d24 7bbd
00000180: e189 593d b952 8abd 74c0 313d df57 b93d
00000190: 0014 d13c 50f7 cc3c 39f0 883d 8535 83bc
000001a0: ff1e 1f3b a4c7 9e3a 6280 b4bd 8bfc 37bd
000001b0: 403a 683b d8b9 2ebd a405 923d 75b0 97bc
000001c0: 369a be3d 2b70 cabb f15c e23c 53c2 3abc
000001d0: 1e1e 883c fcf3 56bd b4b9 0b3c 8aa5 6c3b
000001e0: fbf4 2ebd ead6 4b3d a2d4 a2bd 01d5 53bd
000001f0: c9df 593d 7178 d73d 3000 b63d 639d 0f3c
00000200: 3871 8a3d 1a71 cabd 6ce2 443d 2420 c73d
00000210: 3d5a 91bd 5bc7 8ebd d431 e43d 0e95 3e3d
00000220: ead0 f13d 4ea6 cc3d 35a6 c83d 1451 d73d
00000230: 7541 b9bd 19b0 ec3d 3c5d f43d 7319 c23c
00000240: c459 8dbd 4e1a ccbd 22f2 de3d 9709 143e
00000250: b2ec d4bb e4fe debc e4d7 01bd 4282 db3d
00000260: 0bad 11be c2e0 afbc 74d3 bc3d c2e4 e23d
00000270: 1cc9 8e3d 0a12 f43c dbe7 c53d d252 9bbd
00000280: eb79 8d3d 4b8d acbc fd93 963d d405 a03a
00000290: 3e15 b0bc 80c0 9fbc fec9 6a3b 77d2 be3d
000002a0: a1d0 dfbd c651 303c 0629 f6bd 6297 debc
000002b0: 29c0 63bd 0e39 6fbd b7d0 9d3c ddf8 033e
000002c0: b9ac d13d 6e59 f0bd 4e3c b43d 5f1b ee3d
000002d0: cc52 373b a197 1e3d 8704 56bd d7b6 893d
000002e0: a3bf 133e ae5b 2bbe 256b 1a3d d624 4bbd
000002f0: 81a2 9b3d 4361 b93d fee3 9c3c 2c11 103d
00000300: ee2a 833d e36f 33bd 56ba 5e3c be41 e83d
00000310: e168 89bd cd09 babd 0f31 5cbc a9be 843d
00000320: ba59 3d3c 3298 b7bd 73ee 8bbc c060 a73d
00000330: 121e d6bd 624b 853d 2f9c 52bc abad 303a
00000340: b776 8ebc 0705 5cbc 24d8 4e3d 0bab 933c
00000350: 34e4 8d3d 2462 ca3d 290a dbbc b974 c43c
00000360: d235 303d c19f d1bc b65b ad3d e254 8cbd
00000370: 01f9 2b3d 18cb 0bba 07f3 213e 2bd8 573c
00000380: 49ba 15be 55a7 523d f417 b3bd aacf a2bd
00000390: 11ad ae3d 27b7 46bd 50e4 073c 4cbd 3ebd
000003a0: c14b 9bbd 3a92 f23c b10b 6c3d 5473 173d
000003b0: dd96 59bc 5738 6cbd 56ee df3d 055c 713c
000003c0: 6ccf afbd 1197 64bd 83a2 9d3d 6872 b53b
000003d0: 2ae7 39bd bef6 8e3d 66b2 dd3d 09a5 973d
000003e0: dfec ea3c 1ce5 f63c a11c a3bd 40c9 993b
000003f0: acc7 663d 20d8 dcbc 5a49 b73b 38e4 b5bd
0.06255562 -0.054576065 -0.026111891 0.057600193 0.018502796 -0.015496782 0.016755225 0.107506834
0.04685379 -0.01586398 0.09170007 -0.09111745 0.04294622 0.027863974 0.07325727 0.06769463
-0.026795525 -0.075981066 0.01600036 0.030509412 0.018321227 0.11649645 0.07403962 9.4733055e-05
0.026393099 -0.035046294 0.0108675305 0.010453662 0.055707347 0.0153052835 -0.03978912 0.03922002
0.076402955 0.09572098 -0.06051973 -0.0027736337 -0.12207225 0.057494517 -0.019144293 0.0074785505
-0.09534878 0.09242708 -0.07141021 -0.07776554 -0.043735396 -0.02382213 -0.03992046 0.017919714
0.010309117 0.024433067 -0.056373782 -0.072330214 0.12244809 0.062724315 0.030072926 -0.054373804
0.04429 0.054680187 0.024961432 -0.005615609 -0.061046544 -0.022607574 0.06958887 -0.008658887
-0.010499094 -0.07729388 -0.020102032 -0.06709064 0.052848015 -0.020277716 0.0496 -0.008835259
0.0713939 0.02133514 -0.008629534 0.103642315 0.004919308 -0.0047799796 0.015758887 -0.012021179
0.0029608428 0.04035747 -0.09218658 0.08705871 -0.042707007 -0.007114284 -0.061684106 -4.7968857e-05
-0.03393533 0.058517337 0.061216664 -0.087107755 -0.027209872 0.07440631 0.08166514 -0.061313976
0.053110007 -0.06754059 0.04339643 0.09049963 0.025522232 0.025020272 0.06686444 -0.016016731
0.002427995 0.0012113941 -0.088135496 -0.044918578 0.003543511 -0.042657703 0.07129982 -0.018516758
0.09306757 -0.0061779222 0.027632209 -0.01139887 0.016615923 -0.052478775 0.008528162 0.003610941
-0.0427141 0.049765505 -0.07950713 -0.05171681 0.053191934 0.10521019 0.088867545 0.008765551
0.06759876 -0.09884854 0.048067495 0.09722927 -0.0709729 -0.06971618 0.111423165 0.04652887
0.11807425 0.099926576 0.097973265 0.10513511 -0.09045688 0.115570255 0.119318455 0.023693776
-0.06901887 -0.09965955 0.10886027 0.14456783 -0.006497943 -0.02722115 -0.03170003 0.10718204
-0.14226167 -0.021469478 0.09220019 0.11078788 0.06971952 0.029793758 0.096633635 -0.07584156
0.0690802 -0.021063467 0.07352445 0.0012208768 -0.021494504 -0.01950097 0.0035825963 0.09317487
-0.10928465 0.010761684 -0.12019543 -0.027171794 -0.05560318 -0.05840402 0.019264562 0.12887903
0.10238022 -0.11735807 0.08800565 0.11626314 0.0027972935 0.038718823 -0.05225041 0.06724327
0.14428572 -0.16734192 0.037699837 -0.049595676 0.075993545 0.09051754 0.019151684 0.035172626
0.064046726 -0.043807875 0.013594231 0.11340664 -0.06709457 -0.090839006 -0.013439431 0.06481678
0.011557037 -0.08964576 -0.017081475 0.081727505 -0.10454954 0.06508519 -0.01285462 0.0006739746
-0.017390592 -0.013428933 0.050499097 0.018025896 0.06928292 0.09882 -0.026738243 0.023981439
0.043020077 -0.025588872 0.08464758 -0.068521276 0.041985516 -0.00053326925 0.15815364 0.013174097
-0.14621843 0.05142911 -0.08744803 -0.07949765 0.085291035 -0.04851451 0.00829418 -0.046567246
-0.07582808 0.029610742 0.057628337 0.03697522 -0.0132805975 -0.057670917 0.10934131 0.014731412
-0.085844845 -0.05580813 0.07697012 0.00553732 -0.04538647 0.06980656 0.108250424 0.07404525
0.028677402 0.030138545 -0.07964445 0.0046931803 0.056342766 -0.026958525 0.005593461 -0.0888142

network.0.bias f4 [32]
00000000: 9a05 b43c 47b2 96bd 6619 0f3e 11a2 493d
00000010: 191d 263d 9334 603d 3f17 92ba 2469 edbc
00000020: 7133 f5bc c144 ae3c 1996 51bd c7ab 5c3d
00000030: bc79 603d 670f 00bd 13f1 f4bc 47f8 013e
00000040: 81b6 90bd 2ab1 3bbd 84b3 cabd cc1f a53c
00000050: d5ef 4a3c 41ff e6bd acbe d7bd 3caa 683d
00000060: 8212 193d e83e debc 4067 dbbd 92f9 683d
00000070: 12b6 54bd f9ab c83d 3424 a8bc 8450 2a3c
0.021975327 -0.073582225 0.13974532 0.049226824 0.040555093 0.05473764 -0.0011145844 -0.028980799
-0.029931756 0.021273019 -0.051168535 0.053874757 0.054803595 -0.03126469 -0.02990011 0.12692367
-0.0706606 -0.045823254 -0.09897521 0.020156763 0.012386282 -0.112791546 -0.10534415 0.056802973
0.037371166 -0.027129605 -0.10713053 0.056878634 -0.05193145 0.09798426 -0.020525075 0.010395173

network.2.weight f4 [64, 32]
00000000: 4808 bb3d 25b9 203c 2014 e6bd 356e 2dbc
00000010: 3351 3c3d dee2 b9bd 8675 b7bd 6610 83bd
00000020: 9ff3 8f3d c16b 343c 45a7 9a3c 9c1d 13be
00000030: 54e1 12bd 29c5 8dbc 796d bb3c bb69 e03d
00000040: 243c d93c 4bfc 31be 5af2 51bb 0d03 26bd
00000050: 81bf 48bc bd8f 02be acea 153c b4cb 043e
00000060: a457 3b3d 7731 91bc 215a 98bb e0a2 923d
00000070: 22d8 373d 304f ee3d 5ee9 c03c 0b90 143e
00000080: 39a9 26b9 51e7 cab6 31f7 473c e1b2 243d
00000090: 5211 323d f7ab b73b a716 26bb 265f f73c
000000a0: 0db1 10b9 383b 00bc 9c1e 63b5 3483 3bbc
000000b0: 895a 33bd bd71 1bbd 8356 553c 4097 aa3d
000000c0: b28a 322b 96b8 4b3d e0f1 be3c 501f 813d
000000d0: b2d3 163d 6129 0bba 3792 a6bb 5a05 2eba
000000e0: ff51 0f3d 3c5b 143d 8ae0 bfbc 84d7 933d
000000f0: 0b20 a43b 4b7f 97ba 0c68 2a3b adef 1cba
00000100: 6f1f 523d ba80 c2bd 79f4 d63d bd37 d23c
00000110: bd8c febc 1b92 79bc 7dae 113d fc15 663c
00000120: 59d1 72bc 4d8f 653b dd86 e0bb ef8d 6dbc
00000130: b954 333b 5a38 5abb b542 e3bc 7eeb 97bd
00000140: 33bf fa3c 4e84 873c c47c d7bd 1f0a 24bd
00000150: 7d7b ad3c decc 293d fbd4 313d 2e4a d0bc
00000160: 3714 40bc c800 a4bd 10f2 d83c 4d23 a63b
00000170: 6a52 b3bd d1d4 71bd 2aac 88bd d790 ca3b
00000180: 01bc 5ebc 4f97 9b3c cce4 9331 7857 ecb6
00000190: ec49 55b8 b6e4 11ae 343a 313b 7e3d f43b
000001a0: 91fd 20ba 9e0a 0f07 1f57 283d ad98 06bb
000001b0: f04e 03ba 8128 783b ea58 bdbb 3007 87ac
000001c0: af6c 4e19 2e54 06b6 de8a 4639 382a f72d
000001d0: 3b58 103d 19c2 d737 4856 103d 77a4 9b38
000001e0: 4439 02bd d009 b33c 544d 1407 14e9 5cbc
000001f0: c1f1 7a3a 4b8d 2ebc 8991 5fba d065 7b3c
00000200: 4243 d4bd 36a1 9f3d db3b ec3d e550 ed3d
00000210: 515f db3d a481 103e ff32 fd3d 7658 bbbb
00000220: 3a0c bd3d 29e2 acbd 57cb 02bd 7e7e 0ebd
00000230: cdc4 213e 673f fb3c d373 44bc 51f0 b83d
00000240: 1bd2 363d 6657 9bbc 2a69 fd3b 4052 cdbd
00000250: fa34 b5bd 5887 e5bc 9153 acbd fab0 583d
00000260: 9f26 febc 69f4 4d3d 9a4f 37bd 3605 bbbd
00000270: e86a 143e 2fe0 a3bd bbc8 d73d 137b 843d
00000280: 7e16 2e3c 9a19 ad99 be82 b306 38e9 e4bc
00000290: 77ce 943c a92d 0987 078a 7e34 f978 8b3b
000002a0: b438 ec3c 611d 53b6 911d bdb6 f19b 093d
000002b0: af80 c9b9 4e56 db85 854a 9abc 388c 48b9
000002c0: cb9b 2039 6b07 a704 5358 eeb8 409b fab6
000002d0: 3cd9 1a3d 01a8 fdac f6ac 16ba a067 003d
000002e0: 0fee a8bb f9d7 ff3b 4781 2dbb f00f 63b2
000002f0: 6967 6e23 5908 05bb 2400 220c 97a9 a7bb
00000300: 4147 e63c 7b9d 2b3d d556 91ba 9d6e db3d
00000310: b337 f03d 25e6 a2bd 51eb edbb e229 5a3c
00000320: 1158 d13b f882 01bd dd4a d73d fde1 2f3c
00000330: 6632 7abd 5b95 58bd 2dd3 c73c fbc6 1c3e
00000340: 4e69 22bd b9fe 92bd 383b 3b3d b272 e23d
00000350: 0955 b53d 0b76 7abd c9bc 87bd f383 3c3d
00000360: 3078 3bbd e3b0 a9bd 24c8 cf3c fefe 9b3d
00000370: 170f a7bc d573 c43d 959d 4cbc a65a 693d
00000380: 062d 41bd 5cb7 3f3d 92cb 1d3d 5b72 0d3e
00000390: d8d0 053e 854a 96bd 0b89 36bd 25d2 50bd
000003a0: 7f64 3bbd 29c5 1d3c fd4b d83d a271 05be
000003b0: 925c f53d 21da 18bb dc36 03bb d832 243e
000003c0: 764f 873c 109f 21bd d7e2 163e 7f92 b5bd
000003d0: a9e4 d43c b8d0 3b3c 193e 9ebd 4dcb e5bc
000003e0: 60e7 573d 53f8 443d 039d 29bd 9d19 0ebd
000003f0: 53bb 693d 34d1 dc3d 44b1 243d a600 f63d
0.09132439 0.009809767 -0.11234307 -0.010585357 0.045975875 -0.090764746 -0.08957963 -0.06399612
0.07028889 0.011012019 0.018878588 -0.14366764 -0.03585942 -0.017305927 0.022879349 0.109576665
0.026517935 -0.17381398 -0.0032035322 -0.040530253 -0.012252689 -0.12750144 0.009150188 0.12968332
0.045737877 -0.017723782 -0.004649416 0.07159972 0.044883855 0.116361976 0.023548778 0.14508073
-0.00015894034 -6.046998e-06 0.012204931 0.040209655 0.04347355 0.0056052166 -0.0025343092 0.030196737
-0.00013798867 -0.007826619 -8.460863e-07 -0.0114448555 -0.043787513 -0.037950266 0.013021114 0.0832963
6.343078e-13 0.04973658 0.023308694 0.063048005 0.036822982 -0.0005308595 -0.005083348 -0.00066383707
0.034990307 0.03621982 -0.023422498 0.07218841 0.0050087026 -0.0011558322 0.0026001958 -0.0005986642
0.05129951 -0.09497209 0.10495848 0.025661344 -0.031072969 -0.015232588 0.035566796 0.014043327
-0.01482042 0.003502804 -0.0068520145 -0.014499172 0.002736373 -0.0033297748 -0.02774177 -0.074179634
0.030608749 0.01654258 -0.10521844 -0.040048715 0.021177048 0.041455142 0.043416005 -0.025425997
-0.01172357 -0.080079615 0.026482612 0.005070126 -0.087559536 -0.05904085 -0.06673463 0.006181817
-0.013594628 0.018993048 4.3042743e-09 -7.043531e-06 -5.0852002e-05 -3.317232e-11 0.0027042748 0.0074536195
-0.00061413 1.0761244e-34 0.04109871 -0.002053778 -0.0005009016 0.003786594 -0.0057784216 -3.8377287e-12
1.0671899e-23 -2.0016555e-06 0.00018934484 2.8099398e-11 0.035240393 2.5720381e-05 0.035238534 7.42161e-05
-0.031792894 0.021855265 1.1157007e-34 -0.0134833045 0.00095727673 -0.010653804 -0.00085284613 0.015344098
-0.10364391 0.077944204 0.11534854 0.11587695 0.107115395 0.14111954 0.12363242 -0.0057173325
0.09230848 -0.08441574 -0.0319322 -0.0347886 0.1579773 0.030669881 -0.011990505 0.09030212
0.044633966 -0.018962573 0.007733484 -0.100254536 -0.08847995 -0.028018638 -0.084143765 0.052903153
-0.031024275 0.050281916 -0.04475365 -0.09131853 0.14493906 -0.08001744 0.10536333 0.06468787
0.01062548 -1.7898121e-23 6.7524425e-35 -0.027943239 0.018164856 -1.0320153e-34 2.3705807e-07 0.0042563644
0.028835632 -3.145855e-06 -5.636081e-06 0.033595983 -0.00038433584 -2.0626364e-35 -0.018834362 -0.00019125722
0.00015316826 3.9268324e-36 -0.00011365176 -7.468654e-06 0.037804827 -7.2093447e-12 -0.0005747819 0.031348825
-0.005155332 0.0078077284 -0.002647476 -1.3216763e-08 1.2923904e-17 -0.0020299165 1.2480068e-31 -0.005116652
0.028110148 0.041898232 -0.00110885 0.10714457 0.11729374 -0.07954053 -0.007260718 0.01331565
0.006388672 -0.031619042 0.10512326 0.010735032 -0.06108322 -0.05287681 0.024392689 0.1531028
-0.039651208 -0.07177491 0.045710772 0.11057033 0.0885411 -0.06114773 -0.06627805 0.046024274
-0.045768917 -0.082856916 0.02536399 0.07616995 -0.020392938 0.09592406 -0.012488742 0.056971215
-0.04716208 0.046805725 0.038524218 0.13813154 0.13067949 -0.07338432 -0.044564288 -0.05098166
-0.045750137 0.009629526 0.105613686 -0.13031629 0.11980547 -0.0023323374 -0.0020021712 0.1603502
0.016517382 -0.039458334 0.1473497 -0.088658325 0.02598794 0.011463337 -0.07726688 -0.028051043
0.05271089 0.048088383 -0.041409504 -0.034692395 0.057063412 0.1078209 0.040208116 0.120118424

network.2.bias f4 [64]
00000000: cec3 4e3d 1c52 febd 7f00 ea3c ed5d bfbc
00000010: 7f76 2dbd eaf5 f1bc 3616 00bd 4eff ce3c
00000020: 98a9 863c 24f5 273e 5067 cabc db65 d93d
00000030: e252 febc d207 733d 3979 123d 2f7d 1b3e
00000040: ecd7 b3bc 5942 b7bc 0bac b83c 44b5 86bc
00000050: 352c f0bc ea9a d23d 5339 a33c 7cfb acba
00000060: 2d74 5ebc c1be 0ebc b2da c1bc b66c 203e
00000070: 28a3 ff3d a0ab 26bc c092 043c 88c8 02bc
00000080: 86e3 4abd bbab 8fbb c360 3dbd 460a 49bd
00000090: e75a 993d 423a 1a3e dec0 e13d 23f8 e43b
000000a0: 9948 8fbd 4ab2 9a3d 6d80 54bb 00d2 083e
000000b0: 3fb2 5739 5756 14bd a039 893d a374 3abc
000000c0: 7e66 19bd 6ca1 e63d 6b34 0c3e c76a c8bc
000000d0: c944 bfbc 33ca 103e 63e4 ddbc d432 0f3b
000000e0: 1c6e cd3d a184 20bd af8e 523d 2b66 f5bc
000000f0: 03f0 edbb bc80 8b3b 9f26 223e 43ea d2bb
0.050479703 -0.12418005 0.02856469 -0.023360217 -0.042349335 -0.029536206 -0.031271182 0.025268223
0.01643829 0.16402107 -0.024707466 0.106151305 -0.031045381 0.05933363 0.03576014 0.15184473
-0.021953546 -0.022370504 0.022542974 -0.016443856 -0.029317955 0.10283454 0.019924795 -0.0013197507
-0.013577503 -0.008712471 -0.023663852 0.1566647 0.124822915 -0.0101727545 0.008091629 -0.007982381
-0.04953339 -0.0043844855 -0.046234857 -0.049082063 0.07488041 0.15061286 0.110231146 0.006987588
-0.06996269 0.07553537 -0.003242518 0.13361359 0.000205704 -0.036215153 0.06700444 -0.011380347
-0.03745126 0.112612575 0.13691871 -0.024464978 -0.023348229 0.14139633 -0.027086442 0.0021850364
0.10030767 -0.039188985 0.051405605 -0.029955944 -0.0072612776 0.0042572897 0.15835045 -0.0064366176

network.4.weight f4 [128, 64]
00000000: 537a 9dbd c457 80ba f527 b63c 6e82 6b37
00000010: f9dc 46bd a587 c23b 21d6 5ebc 5c94 8dbd
00000020: eb85 7a3b 8239 b43c f4a5 04ba d3b8 90bc
00000030: fd4c 02bb 54e9 f9bc be4b 153d 173d c9bc
00000040: 47be 773c 5f39 a0b9 10a9 8f3d 7c7b 6dbb
00000050: 7f73 fb8f 24a1 6d3d 4372 5d3d d066 553d
00000060: 62e9 67ba 1762 833c 2c85 b6bc 01a7 a7bd
00000070: 512b f23b 8db5 8a3a 4a6d 86ba 1335 8b3b
00000080: 9a74 de3a 38c3 edbb b9a5 56bd 7182 873b
00000090: d7ad ecbc 26ef b7bd 5729 773d ba18 823b
000000a0: 9862 538a 5155 09bd b3cf 3bba ab9d a8bc
000000b0: fedd 98bd a2fd aab9 fa43 f3bc 327f 3c3b
000000c0: 4927 38bc e37b 07bd 1afb 41bd 602d 8f3c
000000d0: a810 3bbb cafc f73b f79b af33 88c7 01bc
000000e0: 60e7 853d 367b d63a e7ab 9f3d 5811 e23b
000000f0: a092 2027 7123 6bbc fe7d c6bc aa24 869c
00000100: 715e 1e3c 38c1 88bb 3555 343c 84cd 343b
00000110: f6a5 0ebd 96fa 7f3b ee8f 453c d272 3fbd
00000120: 86d6 b23b 81cf 953d 3264 babb 3473 b5bc
00000130: 53e1 a6ba 6e43 c8bd e9d5 86bb 8f4b 243d
00000140: 29d0 663c 5dd1 413c 097f 8cbb eee4 baba
00000150: c5e3 803b df8f b63d 8682 b2bd 507e 653d
00000160: 4d0d 0fbb 3c3c 5e3c 1f5c 43bc f7f3 0f3d
00000170: 0906 89bb d3c4 643a 7df7 baba b9c3 df35
00000180: 9637 c4ba f16f 0bbb ef55 1abd ade9 46bc
00000190: d6fa 05bd 4553 083d 5e7a b23d 0ae5 d93c
000001a0: b396 e8b6 8f9c 0c3d 174d 423b 4e70 0c3b
000001b0: cbd9 52bc 1c33 dcb8 4262 833d 9ca6 543c
000001c0: 1564 9835 5cfa 5c3d 8e6f 0c3d ee04 563d
000001d0: a514 3cbb f8a7 bf3d 8e93 0007 b411 913c
000001e0: 8835 2ebd 2246 4094 5f10 243d 21e3 a721
000001f0: b088 ee86 ac8d 153d 553b cebc a033 dabb
00000200: 427c 9b3d 0c44 ce36 1598 9dbb 5619 0807
00000210: d465 64ba 2f2d c6bb ae45 e0bc 2a86 eb3d
00000220: ec07 b73c 5e56 bd3d d44a 3dbc 189c cbbb
00000230: 14c3 c33a db9b a23d 80ee 1bbd 5d6a 75bc
00000240: f333 78bc dfe9 91aa ae26 d03b d002 3fbb
00000250: cda9 0db8 24f2 75bd d04f d03c 40f6 2abd
00000260: 9a5a 273b 2204 babc e502 573c 9d75 5cbb
00000270: 9e9d 1b3d ace1 b1ba 4eeb cb3a 2d03 093b
00000280: 7f72 19bb 257b 56bb 1107 16bd 9e7c bebb
00000290: 6b60 30bd 65e8 233c f509 053d 273f 11bc
000002a0: 7eef ed3a a9cd 65bd ac39 fe38 823d 0bbd
000002b0: 682a 863b 93cc cf3a c07e 543d f061 b03b
000002c0: 3910 a83a 6076 e2b9 dac1 86bd a407 f4bb
000002d0: 2c55 503b fccb 493d 0691 b136 178d 9bbc
000002e0: f7ae e1bc 8328 4a37 26a3 583b b899 4238
000002f0: 464f 6c2f ba44 80bd f251 17bd 98a7 c3bb
00000300: 94d9 37bd 8f63 2cbc 00f5 ebbc 6d6a a4bb
00000310: 141b 9a3c 6abb a2b7 449d f33b 0f63 9c3d
00000320: a178 9038 4fb4 6c3d f4bc 2f3b affc c8bd
00000330: 64b3 083b 8e2a 263d 2771 ae3c 2d8f 813d
00000340: 5f11 8abc 889f 95b9 8a73 3ebd 846b ac3b
00000350: f9b7 fcb8 8a43 d4b8 0372 86bc 1ddb 18bd
00000360: 505f 2d3b c698 e43b ca76 823b 9f22 2bbd
00000370: 1986 09bd f899 9739 0bc7 1c3b f293 9f38
00000380: da26 09bb 60c3 223b 4b76 d33c df7c e4b9
00000390: e74d e0bc a361 513c 2473 dbbb d711 d93b
000003a0: 689a 5a39 5bae 6bbd 4e76 47bb 4ac9 a6bd
000003b0: 721b 6a3d a2fa 5e3b 6218 b5bc 55c2 6c3b
000003c0: 9774 ecb9 8b2a 2fbc 5da6 30bd a208 0ebd
000003d0: 5eec 0e3b e591 653d c70c a43b 3d04 9fbc
000003e0: b79a 5c3c db19 1e39 86a9 a1bd b550 fb86
000003f0: 4455 63ba c32a b93c 62ac a3bb 3805 26bb
-0.07689347 -0.0009791781 0.02223585 1.403746e-05 -0.04855058 0.0059365802 -0.013600857 -0.06913063
0.0038226794 0.022000078 -0.00050601293 -0.017666256 -0.0019882314 -0.030506767 0.036449187 -0.024565263
0.015121049 -0.00030560323 0.07014668 -0.0036236933 -2.4794998e-29 0.058015004 0.054064047 0.052100003
-0.00088467274 0.016037984 -0.022280298 -0.0818615 0.0073904176 0.0010582671 -0.0010255959 0.0042482703
0.0016972006 -0.007255938 -0.05240414 0.004135423 -0.028891487 -0.08981161 0.06034216 0.003970233
-1.0177824e-32 -0.03352863 -0.00071644335 -0.020582994 -0.07464217 -0.00032613898 -0.0296955 0.0028762338
-0.011239835 -0.033077132 -0.04735861 0.017477691 -0.0028543863 0.0075679766 8.1774424e-08 -0.007921107
0.06538272 0.0016363624 0.0779646 0.00689904 2.2283946e-15 -0.014351712 -0.02423 -8.876854e-22
0.009666071 -0.004173424 0.011006643 0.0027588317 -0.03482624 0.0039059273 0.012058241 -0.04674036
0.005457702 0.07314969 -0.0056882137 -0.02214966 -0.0012731947 -0.09778486 -0.0041148555 0.04011112
0.014087715 0.011829701 -0.0042876047 -0.00142589 0.0039334022 0.0891416 -0.087163016 0.056028664
-0.0021827996 0.013564166 -0.011923819 0.035144772 -0.0041816276 0.0008726839 -0.0014264431 1.6671758e-06
-0.0014970179 -0.002127644 -0.03767961 -0.012140674 -0.03270992 0.033282537 0.08714746 0.026598472
-6.9316825e-06 0.034328993 0.0029648 0.0021429243 -0.012869309 -0.00010499937 0.064152256 0.012979176
1.135401e-06 0.0539497 0.034286074 0.052250795 -0.0028698829 0.09358209 9.673012e-35 0.017708637
-0.04253152 -9.707354e-27 0.040054675 1.1376481e-18 -8.9726494e-35 0.036512062 -0.025174776 -0.006658986
0.0759206 6.1472e-06 -0.0048093894 1.0238948e-34 -0.00087126833 -0.006047867 -0.027376976 0.11500199
0.022342645 0.09244989 -0.011553485 -0.006213676 0.0014935457 0.07939883 -0.03806925 -0.014978972
-0.015149104 -2.5919455e-13 0.006352267 -0.0029145963 -3.377516e-05 -0.060045376 0.025428683 -0.04173875
0.002553618 -0.022707049 0.013123249 -0.003363944 0.037992112 -0.0013571284 0.0015557797 0.0020906434
-0.0023414192 -0.0032727208 -0.036627833 -0.0058131954 -0.0430607 0.010004138 0.0324802 -0.008865154
0.0018153039 -0.056104336 0.00012122406 -0.033994205 0.0040944107 0.0015853815 0.05187869 0.005382769
0.0012822218 -0.00043194275 -0.06579943 -0.0074472 0.0031789048 0.0492668 5.291894e-06 -0.018988175
-0.02754925 1.2049571e-05 0.0033056228 4.6396366e-05 2.1492239e-10 -0.062631086 -0.036943384 -0.0059709065
-0.044885233 -0.0105217835 -0.028803349 -0.0050175698 0.01881174 -1.9399176e-05 0.007434519 0.076360814
6.888924e-05 0.057789143 0.0026815506 -0.098138206 0.0020858878 0.040567927 0.02129419 0.06326137
-0.016853986 -0.00028538355 -0.046496905 0.0052618403 -0.00012050564 -0.00010121528 -0.016411787 -0.037318338
0.0026454516 0.00697622 0.003981446 -0.041781064 -0.03357515 0.0002891568 0.002392235 7.609268e-05
-0.0020927698 0.002483569 0.025813242 -0.00043580585 -0.027380897 0.012779626 -0.0066970754 0.006624441
0.00020847621 -0.057539325 -0.0030435505 -0.081438616 0.05715508 0.00340239 -0.022106353 0.0036126573
-0.00045100294 -0.010691295 -0.043127406 -0.0346762 0.0021808366 0.05604734 0.005006406 -0.0194112
0.013464621 0.00015077686 -0.07893662 -9.4534295e-35 -0.00086720684 0.022603398 -0.004994915 -0.00253327

network.4.bias f4 [128]
00000000: b591 ad3d 54f0 eabc 2c4c f53d 86c2 493d
00000010: 59b2 ed3b 705e 86bc 7b80 693d 01b3 3f38
00000020: b8a9 13bb 6299 43bc 4c95 86bb 27c9 633d
00000030: 09ed 5d3d d252 04bb 7828 a9b9 b561 073d
00000040: b70d f03d ca6c 0f07 5dc5 bb3d b0a5 383d
00000050: a64e 711d 94dd a6b5 73a4 973c ca0a bc3d
00000060: 4d74 c43d 9f18 92bb 482f bc3d c03c bc3d
00000070: 86b7 823c c4b8 b43d 252f bc3d 56de 6b3d
00000080: d52b c33a 40f2 448d bb45 f43c 3494 ad3d
00000090: 877e b2bb 92ed c73d 9a8d 0fbb ce5d 0abb
000000a0: e15d f5bc 79c5 4e3d 5905 cfba a475 cf3c
000000b0: 5d91 873d 1de3 1887 2ff1 9fb9 f999 16bb
000000c0: a3d5 a33d 46ce 80bb 8052 54bb bf30 01bc
000000d0: bdd0 133d d565 c2bb a019 93bc 214d 643c
000000e0: 76f9 7e3d 3cdc f93c 183a 06bb 9ff3 bd3d
000000f0: fe40 b5bc 7b57 e53d 26dd e83d 62c3 02bc
00000100: 5f0e e53d 0168 9abb 829e 763d 21da f0bc
00000110: d57a 803d 3b57 1a3d c752 89af d448 933d
00000120: fe20 a5b1 0493 81bc c188 b2bb 4dfa 21b9
00000130: d84b 9fbb 147f c63d 1836 ab3d 126d 42bc
00000140: a512 4fba 6fc9 06ab 97cd d23d 6b87 53ba
00000150: 9c80 ba3c 86cd fb2c de81 023d b025 63bb
00000160: 53f9 d2ba 6217 dbbb 3d76 94bc 9f6d ac3d
00000170: 109f b028 b666 363d b1d3 6f3c f4c4 dbbc
00000180: 262d f23c f757 f93c 9fb1 ca3d 8124 a6bd
00000190: 9ecf 573d c094 35bb abaf ca3d 8335 c0ba
000001a0: bfe2 8bbb d626 94ba 44e6 4a3d 0153 d93d
000001b0: 5e93 36bc ff01 9cbc fd97 7d3d e8e6 f43c
000001c0: 3dd8 ca3d 0d52 1aba 219d 3bbc b221 3f3d
000001d0: 9d49 a73c bc39 f2bb f8ab 1cbb 70f4 9d3d
000001e0: f246 4f3c c8c7 0c87 0440 a13d 6619 1c87
000001f0: d1b9 09bd dba4 abab 6dcc 08bc cd63 a0b9
0.08475057 -0.02867905 0.11977419 0.049257778 0.0072539267 -0.016402453 0.057007294 4.570466e-05
-0.002253158 -0.011938425 -0.004107153 0.055611756 0.054181132 -0.0020190966 -0.00032264343 0.033052165
0.11721366 1.0790095e-34 0.091685034 0.045079887 3.1936745e-21 -1.2432452e-06 0.018511033 0.09181745
0.09592495 -0.0044585015 0.09188706 0.09191275 0.015956651 0.08824304 0.091886796 0.057585083
0.0014890382 -6.068876e-31 0.029818406 0.08475533 -0.005447212 0.0976211 -0.002190447 -0.002111304
-0.029951992 0.050481293 -0.001579444 0.02532465 0.06619523 -1.1501952e-34 -0.0003050654 -0.0022979958
0.07999732 -0.0039308397 -0.0032397807 -0.007885157 0.03608774 -0.0059325495 -0.017956555 0.013934405
0.062249623 0.030500524 -0.0020481404 0.09274983 -0.022125717 0.11198326 0.11370306 -0.007981153
0.11184382 -0.0047121053 0.06020976 -0.029400887 0.06273428 0.037680846 -2.4978972e-10 0.07191625
-4.805883e-09 -0.015817173 -0.0054484312 -0.00015447401 -0.004861336 0.09692207 0.08359927 -0.011866825
-0.00078992016 -4.788591e-13 0.102931194 -0.000806919 0.022766404 7.1566668e-12 0.031862132 -0.0034659915
-0.0016096033 -0.006686137 -0.018122787 0.08419346 1.9608908e-14 0.044531547 0.0146378735 -0.026827313
0.029562544 0.030437453 0.0989716 -0.08112431 0.052688234 -0.002770707 0.09896787 -0.0014664385
-0.0042689736 -0.0011303078 0.049536005 0.10611535 -0.0111435335 -0.01904392 0.061912525 0.02989526
0.099045254 -0.00058868603 -0.011451037 0.046662994 0.020420844 -0.0073921364 -0.0023906212 0.077126384
0.012651192 -1.059114e-34 0.07873538 -1.17436e-34 -0.033624474 -1.2196037e-12 -0.00834952 -0.00030591936

network.6.weight f4 [256, 128]
00000000: a44a 51bd c1ce 6a3c 3928 3e3d 75c2 4a3d
00000010: 11ff 883c f00c 4c3c 7f81 6bbd d48c 08ba
00000020: b0cb beb9 7ecf 29ba 968f eab7 38fc d5bb
00000030: 59e7 b03d 1a1d beb9 9b19 d7ba dae7 d23b
00000040: 361f 0bbd 23ee 0807 b93c feba d365 ad3d
00000050: fd30 9f38 6927 0d07 57b8 5d3c a6ae 49bb
00000060: d3f8 5ebc 5940 0807 d2f8 1cbd 38c0 2ebd
00000070: 79a9 2e3d 444b d2bc 2311 24bd 97d7 23bd
00000080: 1c45 0dbd 7017 c130 6f87 d5bb 470f 16bc
00000090: 3685 d7bc 505f ecbc 710b 90b4 f26e 04ad
000000a0: f0e2 673c 161e a43b 1c76 d8b6 3ec6 29bd
000000b0: bb42 563d 8960 1007 b3a5 51b7 c823 04b3
000000c0: 398d a0bd 7371 5539 295c 4d2f 385f 0a87
000000d0: fefb d5bc c32e 0139 bf71 413b 5630 9cbc
000000e0: 6bc2 5abd 61b0 2ebd 3229 d7b7 a987 f5bc
000000f0: 32b0 03bc f89c 9a3b e9f4 8cbd e00a d239
00000100: d25e 85bc 7f1f 0707 f735 95b9 bd98 9f3d
00000110: f9a9 9dbc 05eb 623d 8054 8138 c3c3 8ebd
00000120: 6e1f 0536 e96f 463d f893 1eb6 b43e 200e
00000130: a709 0bb9 0f7c 163c c699 34bd 66bb 8ab1
00000140: 03b8 fa30 3ef7 1b99 ae73 a5bc 8be0 5a38
00000150: 896d 28bc cd1d 1fb6 ce6a ac3c c86f a8aa
00000160: 9d2e 5fb6 f6b2 fabc 9686 383d 925a 76bd
00000170: a048 7aba 85cb 653d de4d 7cbc 90f4 ed3c
00000180: 876b adba 6fd0 bb39 f17d 8fbc 20c2 a6bb
00000190: d7bf 403d ac41 633d 81f2 873d 02e7 b796
000001a0: a658 c839 6690 faa9 a4b0 4e3d 048b 53bd
000001b0: 1d76 f63c 4e8d c53c 3f90 9c3d d64b 9e3d
000001c0: 9408 9b3d 8c35 9896 a882 f0bc b188 84bd
000001d0: e475 273d 8dcf e438 38a2 5fb4 634b 61bd
000001e0: 4e32 c73c 4138 ccb5 02b5 d33a 7a64 9637
000001f0: da90 003d 9668 0807 a827 3c89 c8cc 94bd
00000200: f989 663b 645c 7b3c b6df 6bbd 9914 753d
00000210: bda6 443d 3293 073d d10d c4bc 63f8 713a
00000220: e647 c936 9244 3e39 c427 7c39 0204 a0bc
00000230: e641 1f3d 52e2 1fb5 1c06 14bb 5db2 2e3c
00000240: 53f7 0e3d 2390 7027 2641 2e3c 5b36 423d
00000250: 1175 1e39 37e9 253a ba5b 953c d3da 153c
00000260: 9997 033d f100 d111 1773 2f3d b4e9 813d
00000270: 44fe 163d 170a a63d 6b69 453d 1313 7a3d
00000280: a01b 38bc 7644 40b0 774e 67bc ada5 52bd
00000290: 5348 dabc 70cd 82bd 5cfc 8aa0 61f5 0607
000002a0: 4916 903a 1ddb f83b 5be6 553a e394 e6bc
000002b0: f9b3 eebb f408 f4ad 7791 97b8 0461 1439
000002c0: eaa6 86bd 6685 8bb7 4c45 0038 e4e0 b707
000002d0: 1ed0 8f3b 33ad c638 d41f 28b8 3033 a8bc
000002e0: 57b2 b73c fca0 1abd 4489 203a 3792 a2bc
000002f0: 3167 853c 780e e13c 4e5e dfbc 60d6 1fba
00000300: 762d 3f3c ce23 24b9 8e57 773d 428f b33c
00000310: 9373 c3bc c72f 5e3d 2bf8 a926 174e 683d
00000320: a9d3 a71c 6931 283d 77a2 ceb6 c242 c7af
00000330: 9d33 f2b8 183f 3d3d 1a18 d0bb 5df7 ec38
00000340: 7354 b9b1 0c53 9a39 61ef 95bd 61b4 2538
00000350: 82b6 c9bc 3bf9 7438 4a26 6c3d ca91 49ae
00000360: 7da9 55ba 6b2c b73d 0c6a 853d 7d75 983d
00000370: 022d fdb6 91af 083d 8a21 f3bc 91db d33c
00000380: d9c1 bcba 185d 38bc 7453 723c 1448 263d
00000390: b317 983d 1734 18bc 9a5b b2bc b6e3 8d38
000003a0: 054f 583a bbf6 0ca9 566a a0bc 6a6d 69bd
000003b0: f4f5 d23c 91b2 c33c 6cd6 2cbd ad5b 56bd
000003c0: 55a4 ac3d 7032 0139 0714 e0bc 0a2f 8f3c
000003d0: f05e b8bc 58b5 2a2a 4dc6 8b3a d511 89bd
000003e0: ba39 493c 52ca 3010 5e1c d2bb ec43 1487
000003f0: 5577 46bd 98aa 58b4 3dee 5db2 5c77 72bd
-0.051096573 0.014331521 0.046425078 0.049501855 0.016723188 0.012454256 -0.057496544 -0.00052089733
-0.00036391383 -0.0006477757 -2.7961836e-05 -0.006530311 0.08637876 -0.00036261306 -0.0016410829 0.0064363303
-0.033965312 1.0301485e-34 -0.0019396759 0.08466687 7.5908356e-05 1.0619243e-34 0.01353272 -0.0030774265
-0.013609129 1.0250413e-34 -0.03832323 -0.042663783 0.04264209 -0.025670655 -0.040055405 -0.040000524
-0.034489736 1.404926e-09 -0.006516389 -0.009158916 -0.026308637 -0.028854042 -2.6830415e-07 -7.527966e-12
0.014153227 0.0050084693 -6.4510514e-06 -0.041448824 0.052309733 1.0861725e-34 -1.2495951e-05 -3.0766188e-08
-0.07839436 0.00020355526 1.8677383e-10 -1.0409948e-34 -0.026121136 0.00012319819 0.002951726 -0.019066017
-0.053408068 -0.042648677 -2.564918e-05 -0.029971914 -0.008037614 0.004718419 -0.068826504 0.00040062424
-0.016280565 1.0165527e-34 -0.00028459702 0.077928044 -0.019246088 0.055399913 6.166939e-05 -0.06970932
1.983684e-06 0.04844657 -2.3629964e-06 1.9751713e-30 -0.00013259669 0.009184851 -0.044091962 -4.0376333e-09
1.8242193e-09 -8.063242e-24 -0.020196762 5.2184372e-05 -0.0102800215 -2.3710193e-06 0.021047022 -2.992036e-13
-3.3256722e-06 -0.030602913 0.045050226 -0.06014497 -0.0009547565 0.056102294 -0.015399424 0.02904728
-0.0013230898 0.00035822715 -0.017516108 -0.0050890595 0.047057953 0.05548255 0.06638051 -2.971103e-25
0.0003821302 -1.11272794e-13 0.050461426 -0.051646248 0.030085618 0.02411523 0.076447 0.07729308
0.075699955 -2.4590717e-25 -0.029359177 -0.06471384 0.040883914 0.000109105466 -2.0827508e-07 -0.055003535
0.02431598 -1.5215556e-06 0.0016151967 1.7928181e-05 0.03138814 1.0262238e-34 -2.2648323e-33 -0.072656214
0.0035177453 0.015341852 -0.057586394 0.059834097 0.048010577 0.03309936 -0.02393237 0.0009230433
5.998637e-06 0.00018145356 0.00024047407 -0.019533161 0.038881205 -5.9561455e-07 -0.002258665 0.010662642
0.034903836 3.3384827e-15 0.01063565 0.04741512 0.00015111665 0.0006329002 0.018232215 0.00914641
0.032126997 3.2974966e-28 0.042834368 0.063434035 0.03686358 0.08107393 0.048196238 0.061053347
-0.011237055 -6.994648e-10 -0.014117829 -0.051427532 -0.026645815 -0.0638684 -2.3545107e-19 1.015315e-34
0.001099297 0.0075944797 0.0008159631 -0.028147167 -0.007284638 -2.7743564e-11 -7.227336e-05 0.00014150521
-0.06574805 -1.663221e-05 3.0582116e-05 2.7666959e-34 0.004388823 9.4736366e-05 -4.0083964e-05 -0.02053222
0.022423906 -0.037751183 0.000612397 -0.019845111 0.016284557 0.02747272 -0.027266648 -0.0006097313
0.011668554 -0.00015653597 0.060386233 0.021918897 -0.023858821 0.054244783 1.1793997e-15 0.056715097
1.1105846e-21 0.041062746 -6.158192e-06 -3.6245323e-10 -0.00011549073 0.04620275 -0.0063505294 0.00011299432
-5.3938094e-09 0.00029435044 -0.073210485 3.9507056e-05 -0.02462316 5.8406247e-05 0.057653703 -4.5831595e-11
-0.0008150561 0.08944019 0.065143675 0.07444284 -7.545227e-06 0.03337056 -0.029679079 0.025861533
-0.0014401033 -0.011252664 0.014790405 0.040596083 0.07426395 -0.009289763 -0.021772195 6.7658184e-05
0.0008251521 -3.130025e-14 -0.019581955 -0.05698911 0.025752045 0.023888858 -0.042196676 -0.052333523
0.08429781 0.00012321188 -0.0273533 0.017478485 -0.022506207 1.516195e-13 0.0010663957 -0.06692854
0.0122818295 3.4865742e-29 -0.006412073 -1.1154243e-34 -0.048453648 -2.0178629e-07 -1.2918062e-08 -0.05919586

network.6.bias f4 [256]
00000000: 9a17 7d3d 4096 a53c 5d3a a1bc 8125 213d
00000010: 0aca d13c 6e02 cbbc 64db 3838 97b0 8a3d
00000020: 9c03 fd3c b3dd a43d 4774 453b 73e3 c9b9
00000030: 1877 8a3d dd02 e5ba ed15 cbb7 db73 5a36
00000040: ad24 93b9 e4e9 31bb 3cab 013d 1d6d 8d3d
00000050: 64bd 2138 2871 beba 0d06 ad3d 70cf 7a3d
00000060: dbc5 3c3c ca29 0887 12e0 8ab9 d83e 223d
00000070: 3d6b d5bc cbc8 f8bc b42c 96bb 3a3c 0f3d
00000080: 0400 903d 9d3a aabc 36c6 80b9 cf34 c13c
00000090: 4196 9bbb 9b09 5db8 b1ad 843b e62c 0aba
000000a0: 6926 743d 490e 57ba b92a 27b9 d462 5a3d
000000b0: f31a 91ba 839c 9db9 49c9 2bba 56aa 65b9
000000c0: 6094 a73d f541 713d 7f19 27bd 3794 48bb
000000d0: 46d3 8730 ba11 31bb 7dee 643d 3660 8c3a
000000e0: a634 af3d a779 3f3c 8701 a33c e565 393c
000000f0: e51f 1207 e832 793b 6af2 593d 5830 5cbc
00000100: 2947 8f3d 19f1 42ba ac4d 78b6 e5c2 3c3d
00000110: bbe9 3c3b 0d04 5ab9 5824 a1ba 04aa 85aa
00000120: b965 323c b0fd 06b7 3cac 6cbc e5fe f83c
00000130: 2804 15bb aee8 1fba 798e 5e3c ef2e 633c
00000140: 86a3 9526 ccc6 c6bc 5f81 5c3d 7526 513c
00000150: c55b a9bc d5f8 39bc 16bb 493c f4ff a9b7
00000160: 72ee 7bba 2d43 38bc 3843 35ba 7a92 cdb7
00000170: e6b5 6ab9 7e35 ff9e 0e8d 8c3d bca5 82ba
00000180: 7541 083c 1bcf 643d e2ad 8a8c 5b81 98b9
00000190: a0bc 94ba d379 5139 5c96 a13d 6827 f43b
000001a0: 52bd e43c c80f af3c d097 903d 2219 3dba
000001b0: b881 66bb f887 a63d ccef 91bc 02bc 45bd
000001c0: 3d97 d13b 9d4c 6eba f04f 1587 f590 8a3d
000001d0: 3adc 72bd 1094 443d 7195 d23c 108b 61b6
000001e0: 417c e2b9 1614 8ebb 6184 bb3d 930e 673c
000001f0: 597c 943d af94 903c 2f4c 393d cf1a 79ba
00000200: 2183 a9bc c49c 8c3d 3aab 4b3d 9105 973c
00000210: 2487 1a3d 1122 863d cd7b 81bc 99e8 9a3c
00000220: 27aa 11b8 5514 983c ee45 303d f741 21bd
00000230: 0ad7 b73c b259 6d3d e7cf 393d 97d0 8ca6
00000240: 495b a1bc 35e7 f9b7 ced8 83ba 5a94 d03c
00000250: 0e02 e03c 6fde f63a e2f6 7ab3 28b4 8eba
00000260: b0ae edb9 6e8d 9e3d a273 233d 37fe 883d
00000270: 76bb 8aba d190 27b9 6277 a33d 0dbe 9c3d
00000280: 71f5 59b9 9cac 2d3d e510 afba b4cc c1b9
00000290: 83af bfb3 56cf 9aba 7a15 1dbc 3852 983d
000002a0: baac 04bd 94a1 873d 14d5 303a c8cc d4b9
000002b0: 36fd 17ba 8821 80ba 8e0d 1f3d 9a1c 94ba
000002c0: 9cbb 423d b5bf 81bb 8943 4a3d 2482 96ba
000002d0: a8be 973d 633b cdb9 985d b7b4 ca36 4fbc
000002e0: 718b 963c 60c9 22ba 010e 083d 3d3a 45b9
000002f0: 6b95 913d 952b 87bb ed2f 9d3d 0bae 47b9
00000300: aca8 023d eec1 783d d22c f034 8bf3 36b8
00000310: 30f7 32b9 f490 a63d 2c7b 03bd 057c 7d3c
00000320: 8139 cc3b 196a d1bc 018e 4a3d a748 983d
00000330: 9142 5f3c e3fc b5b9 7571 0a3d ddbc 7a3d
00000340: cc87 283d b470 b1ba 2a4a d23c 98a3 863d
00000350: c337 96ba 860f ddbb f92e 133c acf2 fbb9
00000360: 4ae9 fdbb cf33 ac05 2e2a 64bd 96ac a3b9
00000370: 9e97 1e3b c3c9 733c e30c 1db9 f05a edbb
00000380: dc19 45b9 29b6 65bd ea89 d1bb c48d a9ba
00000390: 3d27 4f3d 0169 0c07 8799 44b1 0782 683d
000003a0: 8bf6 cabc d6fe 5aaa f9b1 4c3c 2207 0487
000003b0: 09c7 c9b8 b1e4 76b7 9d4a 653d 3590 57bd
000003c0: 2511 4bbd aad7 18b9 4b79 fcba 0047 383d
000003d0: 79b1 55ba 08da 4a3d b9dd 9dab 2112 41b8
000003e0: f82c c73c e2ae 8f3d 2c8c f2b9 e460 84a7
000003f0: db99 fb3c 1744 d6bc 35c2 0cbb 45eb a23d
0.061790086 0.020213246 -0.01968115 0.039342407 0.025609035 -0.024781432 4.4073342e-05 0.06771963
0.03088551 0.08050098 0.003012912 -0.0003850717 0.067609966 -0.0017472167 -2.4209696e-05 3.2551968e-06
-0.0002806535 -0.0027147466 0.031657442 0.06905577 3.8561775e-05 -0.0014529573 0.0844842 0.061232984
0.011521782 -1.0243784e-34 -0.00026488357 0.039610714 -0.026052112 -0.030369183 -0.0045829657 0.034969546
0.07031253 -0.020779902 -0.0002456174 0.023584751 -0.0047481363 -5.269945e-05 0.004049026 -0.00052709726
0.059606943 -0.0008203728 -0.00015942277 0.053316906 -0.0011070654 -0.00030061984 -0.0006553126 -0.00021902597
0.08182597 0.058900792 -0.0407958 -0.003060592 9.88259e-10 -0.0027018622 0.055891503 0.0010709825
0.08554964 0.011686719 0.01989819 0.011315797 1.0993192e-34 0.0038024727 0.0532097 -0.01343926
0.069959946 -0.0007436439 -3.700009e-06 0.046084303 0.0028825838 -0.00020791609 -0.0012294156 -2.3743518e-13
0.01088851 -8.046089e-06 -0.014445361 0.03039498 -0.0022738073 -0.00061000406 0.013583773 0.01386617
1.0383275e-15 -0.024264716 0.053834315 0.0127655165 -0.020673642 -0.01135083 0.012312671 -2.0265557e-05
-0.0009610421 -0.011246485 -0.00069146184 -2.4506113e-05 -0.00022383741 -2.7021299e-20 0.068628415 -0.0009967606
0.008316387 0.055861574 -2.1366918e-31 -0.00029088077 -0.0011347719 0.00019977176 0.07890007 0.0074509867
0.027922306 0.02136983 0.07060206 -0.0007213523 -0.0035172533 0.08131403 -0.01781454 -0.048275
0.006396203 -0.0009090396 -1.1233006e-34 0.067659296 -0.059292056 0.047992766 0.025706025 -3.3608558e-06
-0.00043198655 -0.0043358905 0.09156109 0.014102596 0.0725028 0.017649023 0.04523867 -0.0009502591
-0.02069241 0.06865838 0.04972384 0.018435271 0.037726536 0.065494664 -0.015806103 0.01890974
-3.472916e-05 0.018564383 0.04303544 -0.03936955 0.022441406 0.05794687 0.045364287 -9.77099e-16
-0.019696848 -2.9790777e-05 -0.001005912 0.025461365 0.02734473 0.0018834601 -5.84322e-08 -0.0010887431
-0.00045334315 0.07741819 0.039905198 0.06689113 -0.0010584432 -0.0001598031 0.07981755 0.07653437
-0.00020786167 0.04240094 -0.0013356475 -0.00036964344 -8.926056e-08 -0.0011811059 -0.00958764 0.07437557
-0.032391287 0.066226155 0.00067456183 -0.00040588365 -0.0005797924 -0.0009775618 0.038831286 -0.0011300028
0.0475422 -0.003959621 0.049380813 -0.0011482877 0.07409412 -0.00039144894 -3.4154505e-07 -0.01264734
0.018377038 -0.0006209817 0.03321648 -0.0001880908 0.07108577 -0.0041250684 0.07675157 -0.00019042955
0.03189914 0.06073182 4.4736095e-07 -4.3619e-05 -0.00017067487 0.08133116 -0.032099888 0.015471463
0.006232441 -0.025563287 0.04945183 0.07435732 0.0136267105 -0.00034711426 0.033799607 0.06121527
0.04114513 -0.0013537616 0.02567013 0.06574172 -0.001146071 -0.0067462353 0.008983367 -0.00048055255
-0.0077487575 1.6193834e-35 -0.05570429 -0.0003121837 0.0024199258 0.014879647 -0.00014977487 -0.0072435066
-0.00018797017 -0.056081925 -0.0063946145 -0.0012935926 0.05057453 1.0563287e-34 -2.8609024e-09 0.05676463
-0.024775764 -1.9450704e-13 0.012493604 -9.932672e-35 -9.6215e-05 -1.4715989e-05 0.05597936 -0.05262776
-0.049576897 -0.00014576191 -0.0019262222 0.044989586 -0.00081517507 0.049524337 -1.1217061e-12 -4.603167e-05
0.024313435 0.07015778 -0.00046262273 -3.674241e-15 0.030713012 -0.026155515 -0.002147806 0.0795503

network.8.weight f4 [1, 256]
00000000: 5276 87bd 521e 97bd 0299 5d3d 893f 76bd
00000010: f841 433d e85b 0e3a a9ab 0007 1586 e8bc
00000020: f9e3 8cbc 7595 05bd 1b98 14bd cd36 38b8
00000030: f9d8 043d 13cd 0cbc 0ff1 3a36 0e54 2539
00000040: eed5 8d2d 4e4e 8730 5cb6 42bd 7eb7 6c3d
00000050: d3cd b937 1be8 f136 8906 763d eb9a 34bd
00000060: 7759 f7bb 4d90 0387 03bd bd39 c25b 7b3d
00000070: 8a60 393d b744 12bd 0f38 ef3c 1aef 103d
00000080: e566 59bd 620e babd 2ab1 ffb7 318e 6abd
00000090: bff7 8bbd 246c 1c38 82fc 213c d212 4f3a
000000a0: 6cf8 88bb 0d47 71b8 2e3a 7e38 170e e0bc
000000b0: 5f02 1bb3 ad26 4836 ae13 aaa6 9a6f ac2d
000000c0: 5b79 d73c 95bb cfbc 5c96 973d a4b7 da30
000000d0: 8a2c 74a6 d5f1 1038 fffb a3bc f9d6 80bd
000000e0: a1fd 623d 5e77 adbd ebb3 ae3d 37cd 40bd
000000f0: 9002 0d07 848c 383d 4220 843c 2572 223d
00000100: dccc 24bc 903f ae21 a840 af33 6eba 123c
00000110: 5588 5f3b fbfe 37b8 004e b0b6 dd80 ab36
00000120: dd97 863d 59e6 5c0e ff3c 0239 decf 3fbd
00000130: 53bd 9dbc 5c5a 5b3a db0b 05bd 5e10 96bd
00000140: 51f4 1d36 ead2 78bd e7ec 89bd 8c69 03bd
00000150: 0a4c a7b9 2c6a 393d 47ef 1836 4f9d 0693
00000160: 297d 83ba b9fe e43b 82c2 9c39 2250 0887
00000170: 3ffc 490f 8bb2 4931 947c 1d3c f410 7a15
00000180: f392 433d d705 0c3d f506 0987 34d6 3f2c
00000190: a31d d3b9 b8f1 7e35 b4c2 1e3d c352 ef3c
000001a0: ab51 243d ffdd 513d 155b 75bc cf88 c0ac
000001b0: 3a83 503d 8673 1fbd 4815 f5bc 945c 94bd
000001c0: b02b a03c 0f7b c1ba ddbe 6db6 61ce 6ebd
000001d0: c19f 8cbd 42a7 2cbd abbc 163d 8bd6 0b87
000001e0: 3f79 1bb8 8902 2c3d 0e32 823d 147f 94bc
000001f0: c2fa 6c3d 887d fd3b 4f48 54bd 8d37 3932
00000200: 6799 fc3c d025 86bc 79ba 0abd 0cf1 4fbd
00000210: 4bc8 503d 10b2 913d 0dfa 8ebd 334a 83bd
00000220: e92c 54b7 79c5 403d 037e 67bd 0962 123d
00000230: dfe4 393d a15a 2dbc 7b32 3cbd 5292 8234
00000240: a3df 593a b4f6 60b7 eb56 e386 5618 23bc
00000250: cc08 183d eba4 ad3d 6bcb 2335 bea3 d906
00000260: d042 e339 74af 0d3d fbd5 59bc fd13 5fbd
00000270: 770f 8136 1711 0238 e5cd 57bd 3b46 70bd
00000280: c870 93a9 244d b5bc 9811 1ea9 b721 0bb0
00000290: 630c 45b5 75c9 0687 d967 70bd caee 6ebd
000002a0: 3de7 013c 1ed0 943d ec49 a5bc f474 75b5
000002b0: fa76 8236 f3a3 ad37 0287 2f3c e43a beba
000002c0: aeb2 f4bc c354 0d25 636c 0dbd 5a91 14ba
000002d0: 3a3a 333c a7f4 0c87 f52a 0623 a50e a2ba
000002e0: b96b 5b3d 83f8 2e37 bb7e 513d 57d6 0a07
000002f0: 2196 8c3d c443 04b7 3487 2b3d 0524 0587
00000300: 1db5 163d b63b ad3d 6e16 07b6 33eb 89b7
00000310: 7a3c d532 db1a f8bc 9373 8d3c 6cd9 5f3d
00000320: 8db3 9d3c db4d d33c 7fce 2bbd a9ea 423c
00000330: 4563 78bd 88bf b4b7 317a 8d3d ea3b 2f3d
00000340: b9c7 28bd 2b09 e62f 6c08 1e3d 2922 2bbd
00000350: 42be 02b3 069f 5038 3765 483c 88f0 7432
00000360: 872f 7439 0a73 c899 ea2d 103d 2335 4cb6
00000370: 4840 763c 22b9 40bd 6c21 1187 fbac c737
00000380: 4f88 5a38 d8b6 79bd e6bc 95b7 ca08 15b7
00000390: 3958 e6bc 3ee2 0a87 e687 2e36 1de4 943d
000003a0: 41b9 0ebd f8f7 0b07 c1bf 953d 6f7c c1b4
000003b0: c34a 0c87 1995 0c2a c5fa f5bb 4b72 763b
000003c0: e336 6e3b 8ff2 5537 401d dbaa bf97 40bd
000003d0: 949e 68b7 3d0b 76ba 3fd3 34b6 536f 9237
000003e0: a557 83bd 3122 3f3d 4895 8ab9 608d 1fb4
000003f0: 14cb 80bd abda 4fbc 96a9 223a dbbd 2b3d
-0.06614365 -0.0737883 0.054100998 -0.060119186 0.047670335 0.0005430565 9.680096e-35 -0.028384248
-0.01719855 -0.032613236 -0.03627787 -4.3920056e-05 0.032433484 -0.008593815 2.7856474e-06 0.00015766939
1.6124848e-11 9.844798e-10 -0.047537193 0.05779218 2.2149563e-05 7.2093803e-06 0.060064826 -0.044093054
-0.007548507 -9.897751e-35 0.00036189714 0.061366804 0.045258082 -0.035710063 0.029201536 0.035384275
-0.053076643 -0.090847746 -3.0480867e-05 -0.05726451 -0.06834363 3.7294012e-05 0.009886863 0.0007899228
-0.004180005 -5.752505e-05 6.0612503e-05 -0.027350469 -3.6090906e-08 2.9824835e-06 -1.1801454e-15 1.9603697e-11
0.026302984 -0.025358 0.07401726 1.5913781e-09 -8.4714867e-16 3.45575e-05 -0.020017622 -0.06291003
0.05541766 -0.08470033 0.085304104 -0.047070708 1.0608414e-34 0.04505588 0.016128663 0.039659638
-0.010058608 1.1807523e-18 8.1608334e-08 0.008955581 0.003410836 -4.386807e-05 -5.254289e-06 5.111199e-06
0.06571934 2.7228002e-30 0.00012420489 -0.046829097 -0.019255316 0.00083676516 -0.03248201 -0.073273405
2.3537034e-06 -0.06074802 -0.06734639 -0.03208308 -0.00031909376 0.04526727 2.2789043e-06 -1.6990737e-27
-0.0010031807 0.006988373 0.00029899558 -1.0255052e-34 9.958646e-30 2.935084e-09 0.009612221 5.0500472e-26
0.047747564 0.034185257 -1.0308779e-34 2.726164e-12 -0.00040267137 9.497412e-07 0.038759902 0.029214269
0.040116947 0.051237103 -0.014975329 -5.472157e-12 0.050906397 -0.03892853 -0.029917374 -0.072442204
0.019552082 -0.0014761406 -3.542685e-06 -0.058302287 -0.06866408 -0.042151697 0.03680102 -1.0520246e-34
-3.70678e-05 0.041994605 0.063572034 -0.018127002 0.05785633 0.0077359118 -0.05182677 1.0781048e-08
0.030834867 -0.016375452 -0.03386924 -0.05076699 0.050972264 0.07114041 -0.06981287 -0.06410637
-1.2646641e-05 0.047063325 -0.05651666 0.035738025 0.045384284 -0.01058069 -0.04594658 2.432085e-07
0.00083112175 -1.34088805e-05 -8.5515624e-35 -0.009954533 0.037117764 0.08478721 6.1018244e-07 8.1866925e-35
0.00043346593 0.034591153 -0.013295646 -0.05446242 3.8463e-06 3.101033e-05 -0.05268659 -0.058660727
-6.547676e-14 -0.02213151 -3.5098308e-14 -5.0615817e-10 -7.3406244e-07 -1.0140242e-34 -0.058692787 -0.058333196
0.007928667 0.07266258 -0.02017685 -9.14398e-07 3.8881526e-06 2.0699552e-05 0.010713341 -0.00145134
-0.029870357 1.2258519e-16 -0.034527194 -0.0005667411 0.010939175 -1.0604326e-34 7.273251e-18 -0.0012363984
0.05356953 1.0429069e-05 0.05114625 1.0444955e-34 0.06864572 -7.883591e-06 0.041876987 -1.0016393e-34
0.036793817 0.084586546 -2.0129623e-06 -1.6441196e-05 2.4823965e-08 -0.030286243 0.017267024 0.05465071
0.019250656 0.02579396 -0.041944977 0.011896768 -0.060641546 -2.154686e-05 0.06908072 0.042781748
-0.041206095 4.184327e-10 0.03858225 -0.041780625 -3.0441022e-08 4.9739167e-05 0.012231163 1.425736e-08
0.00023287359 -2.072598e-23 0.035200037 -3.0429298e-06 0.015029974 -0.047051556 -1.0918409e-34 2.3803199e-05
5.2102198e-05 -0.06096539 -1.7850147e-05 -8.883138e-06 -0.02811824 -1.0448453e-34 2.6007124e-06 0.07270072
-0.03484464 1.0530069e-34 0.07311965 -3.603959e-07 -1.05544e-34 1.2486227e-13 -0.0075067007 0.0037604745
0.0036348633 1.2752264e-05 -3.892251e-13 -0.047019716 -1.3865199e-05 -0.000938583 -2.6945052e-06 1.7456396e-05
-0.06413201 0.046663467 -0.00026432634 -1.4859461e-07 -0.06288734 -0.012686412 0.000620508 0.041929107
