models/regression_models/ML_including_industry_feature/single_dimension/sophistication/version_best/checkpoints/epoch=59-step=1860.ckpt (torch, 480459 bytes, 15 tensors)

network.0.weight f4 [128, 45]
000000 d7 dd e5 3d b1 2e a1 bd 0a f4 09 bd 90 cd 05 3e
       0.11223953 -0.07870234 -0.03368 0.13066697
000010 25 38 ca 3d 31 b7 8c bd c6 fa 82 3d 3f a1 17 3c
       0.0987399 -0.068708785 0.063954875 0.009254753
000020 40 a8 0e 3d 6e c2 a6 3d 4c c1 b3 bc c0 59 d1 bc
       0.034828424 0.08142553 -0.021942757 -0.025555491
000030 ed 3b cf 3d 65 f5 e8 3d 5d 10 e7 bd cc e6 78 3d
       0.10118852 0.1137493 -0.11282418 0.06076698
000040 9b 0f e8 bc db 6e b1 3d ad 28 d4 3a fe 57 aa 3d
       -0.028327754 0.08663722 0.0016186439 0.083175644
000050 ec ee 62 3c a7 f6 e9 3c 21 89 73 bd 20 e9 93 3b
       0.013850909 0.028559996 -0.05945695 0.0045138747
000060 75 9d a3 bd f0 37 cc bd 33 d7 6e 3c ba f8 9c 3d
       -0.07989017 -0.09971607 0.014577675 0.07664628
000070 4c 08 11 3e ad ce a2 bb 29 bc dd 3d 2d ad a3 3d
       0.14163321 -0.0049684853 0.10826904 0.07992015
000080 68 4a 06 be 99 03 cc bd 66 45 40 bd 87 c0 ae 3d
       -0.13114321 -0.09961624 -0.046941184 0.085328154
000090 18 45 9d bc f8 ef f2 3d 84 ab 47 3c 3a c2 95 bd
       -0.019197986 0.11862177 0.012186889 -0.073124364
0000a0 65 82 f2 bd 9c 60 f5 3d 30 a4 68 3c 59 7d 68 bd
       -0.11841277 0.119813174 0.014199302 -0.056760166
0000b0 e3 49 06 bc 35 d0 ed 3d e7 9e 06 b8 08 ca 6d 3d
       -0.008196327 0.11611978 -3.209608e-05 0.058054
0000c0 59 ed 4c bc 03 3b da bc 03 c8 61 bc f0 6e 4d 3d
       -0.01250776 -0.026639467 -0.013780597 0.050154626
0000d0 a5 96 49 bb 22 93 db bc 11 36 98 bc 99 2c 7b 3d
       -0.0030759957 -0.026803557 -0.018580468 0.06132183
0000e0 9f 06 42 bd 69 33 e2 bc 76 02 df bc ce e0 5a bd
       -0.047369596 -0.027612405 -0.027222853 -0.053437047
0000f0 29 7d a6 bc 5f ae aa bd 24 41 34 ba bb 8f a8 bc
       -0.020323353 -0.0833404 -0.0006876162 -0.020576349
000100 28 68 c2 ba dd c9 d6 3c ba ca 5e 3d eb bd 39 bd
       -0.0014832066 0.026219303 0.054392554 -0.045347136
000110 34 2f 16 bc f1 c9 21 3d 67 9c a7 3c 40 64 2b bd
       -0.009166528 0.039499227 0.02046032 -0.041843653
000120 67 89 51 3d a3 a1 be b8 12 c0 a4 bb 67 16 b0 3d
       0.051156428 -9.090013e-05 -0.0050277794 0.08598023
000130 1e e7 f4 bb 53 b4 85 3c df d5 a3 bd 21 b2 c0 3d
       -0.0074738404 0.016321337 -0.07999777 0.094089754
000140 78 fd 67 bc 16 93 79 3d a8 66 7e 3d b8 47 35 bd
       -0.014159553 0.060931288 0.06210962 -0.04425785
000150 00 7a 1c bc ef 37 6b 3d 27 d6 96 bc 6c d1 c5 bc
       -0.009550571 0.05742639 -0.018412663 -0.024147712
000160 aa 5c 93 3d ef 40 d5 bc b2 e1 74 bd 79 9c 41 3d
       0.07195409 -0.02603194 -0.059785552 0.047268365
000170 ec e6 01 3e 9c 0e 76 3d b6 a9 c6 bc 75 4a b6 3d
       0.12685746 0.060072526 -0.024250846 0.0890092
000180 ca 38 83 bd 92 56 45 bd 75 e1 84 bd df 52 a6 3c
       -0.06407316 -0.048178263 -0.06488315 0.020303188
000190 36 2f df bb 15 73 32 3c 8c 3c dc 3d ae 4f cc 3d
       -0.006811048 0.0108916955 0.10753736 0.09976135
0001a0 70 c5 46 3d 97 80 ba bc 66 d4 d2 bd 1f 12 53 3d
       0.048528135 -0.022766395 -0.10294418 0.051530953
0001b0 93 9b ab bb f2 32 5f bd 64 ab 13 bd dc 30 56 bd
       -0.0052370518 -0.054491945 -0.036052123 -0.05229269
0001c0 e0 19 1b bd a1 ae 7d bd ea 26 50 3d ee 95 aa bd
       -0.037866473 -0.061934117 0.05081836 -0.08329378
0001d0 12 8e aa bb 0b cf 7f 3c 14 59 54 3d 18 a9 ad bb
       -0.0052049244 0.015613328 0.051842764 -0.0052996986
0001e0 3c 34 78 bd 8a 12 00 3e bb c1 ff bb c2 fe 77 3d
       -0.06059669 0.12507072 -0.007805077 0.06054569
0001f0 7e 82 1a bd c3 00 f9 3d 2c e0 fb bd ee 84 b6 3c
       -0.037722103 0.121583484 -0.12298617 0.022280183
000200 6d 1f d4 bd 1f 3f c4 3d 2a 52 28 bd 07 e0 49 bd
       -0.103575565 0.09582352 -0.041093983 -0.049285915
000210 16 79 f8 3d 28 c7 df 3b 15 61 f4 3d 50 c8 a0 bd
       0.1213247 0.006829161 0.119325794 -0.078507066
000220 f3 8e 4b 3d e6 5a 03 3d 87 2c bd 3d ec 81 ee 3d
       0.049696874 0.03206911 0.092370085 0.116458744
000230 4c cd 0a 3c e4 b8 8c bd 75 a7 36 3d b2 f2 e3 3d
       0.008471798 -0.068712026 0.044593293 0.11130275
000240 7f 0a 6d 3d ab eb 92 bd 40 fa cd bd df db cc 3d
       0.057871338 -0.07173856 -0.10057497 0.100028746
000250 df f9 76 bc 46 4b da bd d3 40 d9 bd 77 c7 b8 3c
       -0.015074222 -0.106588885 -0.10608067 0.02255605
000260 65 83 87 3c 6e 6f e6 bc 5b c1 32 3d 53 78 ad bc
       0.016542146 -0.028129306 0.04364143 -0.02117554
000270 39 79 09 be 88 92 24 3d ee 0e c5 bd 6f 4d 9c bd
       -0.13425149 0.040178806 -0.09621988 -0.07631957
000280 1b 59 b7 bd fa 73 ad bc a8 6e c7 3d d7 27 fd bd
       -0.089525424 -0.021173466 0.09737903 -0.123611145
000290 41 8d 76 bb c1 7f 0a bd 10 f5 21 3d 20 64 d9 bd
       -0.0037620815 -0.033813242 0.03954035 -0.106148005
0002a0 64 75 9b 3d 0f 00 62 3d 14 8c 74 bd d5 c6 9e 3c
       0.0759075 0.055175837 -0.0597039 0.01938192
0002b0 de 76 7d 3d b6 e6 81 3d 3c 8c fe bc ae 6d eb 3d
       0.06188094 0.06342833 -0.031072728 0.11495529
0002c0 7d e2 10 3d aa 63 14 3e 5b 45 fd bd ed f0 9d bc
       0.035372246 0.14491144 -0.12366744 -0.019279921
0002d0 80 c9 a8 3c c3 2d 72 bd 35 69 1b 3d 8f d7 e7 3d
       0.020603895 -0.059125673 0.03794213 0.113204114
0002e0 bb ca 05 3e 72 d0 f1 3d 5d 9c 0c bd 48 e6 8b bd
       0.13065617 0.11807336 -0.034328807 -0.06831032
0002f0 03 ca c6 3c 1e 38 de bd 22 5e 3e bd 8d c7 8c 3c
       0.024266249 -0.10850547 -0.04647649 0.017184997
000300 a0 0a cf 3d 7c ca 62 bd 75 42 80 3d c1 b4 ed bd
       0.101094484 -0.055368885 0.06262676 -0.11606742
000310 de 96 99 3d c7 9c 12 3e de 7e e6 bc 1c 62 da 3d
       0.07499479 0.14317618 -0.028136667 0.10663244
000320 c6 41 a5 bc 4d 4f 10 bc b5 58 6d bd de fd aa 3d
       -0.020172965 -0.008807969 -0.057945926 0.083492026
000330 f9 46 d2 3b 21 bc c4 ba d4 92 9a bc ff 09 c3 bd
       0.006417152 -0.001500968 -0.018868841 -0.09523391
000340 c1 b2 f9 bb 72 8d ce 3b e5 aa 06 3c 03 7e b1 3b
       -0.007620186 0.0063034827 0.008219455 0.005416633
000350 ab 60 9e 3d 5e 7a 58 3d 5d c3 e2 3d d0 de fd bd
       0.07733282 0.052851073 0.11072419 -0.12396014
000360 8d 80 0b 3d b8 39 c8 bb 9f 2c 9a 3d 1a be b7 bd
       0.034058142 -0.0061103962 0.07528042 -0.08971806
000370 f6 a2 14 bd 8d 67 34 bd 00 35 eb 3d 07 43 ff bc
       -0.036288224 -0.044044066 0.11484718 -0.03115989
000380 5f 81 0d 3e 0e 34 e0 3d 8f 90 92 bd cd 7a 8f bc
       0.13818882 0.10947429 -0.071564786 -0.01751461
000390 be 82 85 bd 86 d1 d5 bd 6b a8 6c 3d 19 c0 a7 bd
       -0.06519078 -0.10440354 0.057777803 -0.081909366
0003a0 ea de eb 3d a5 5c d3 bd 50 e6 c7 3d ca 1e 40 3b
       0.11517127 -0.10320405 0.097607255 0.0029315227
0003b0 3c 02 d9 bc be 7d df bc c7 cf b5 bd ff eb 17 bd
       -0.026490323 -0.027281638 -0.08877521 -0.037090298
0003c0 d0 50 c2 3d 5d 39 8b 3d fe 35 51 bd d7 14 aa 3a
       0.0948807 0.067980506 -0.05107688 0.0012976181
0003d0 2b 77 34 bb 56 a6 bb 3d d4 1d 07 bc e0 c6 df 3d
       -0.002753685 0.091625854 -0.008246858 0.10926604
0003e0 79 a5 e4 bd fe bf ba 3c 40 a3 8b bd 3d 37 49 3c
       -0.11164374 0.022796627 -0.06818247 0.012281236
0003f0 80 83 06 3d d5 71 96 3d ef c4 bb 3a 9b 3a 7d bb
       0.032840252 0.073459305 0.0014325659 -0.0038639668

network.0.bias f4 [128]
000000 d0 c7 82 3d 23 d0 e6 bd 1c 1f 52 bc 77 9e 2e 3d
       0.063857675 -0.11270168 -0.0128248 0.042631593
000010 1c 0d a6 bd fd 16 b7 3d 9c ed c9 bd 62 f4 2a 3d
       -0.08107969 0.089399315 -0.098597735 0.041736968
000020 63 89 ee bd 05 2e f4 3d f6 ae 03 3e 34 17 0a 3e
       -0.11647298 0.1192284 0.12859711 0.13485414
000030 1c d8 dd 3d 82 58 a9 3d dc 2f 3a bd b0 52 b7 bd
       0.10832235 0.08268835 -0.0454558 -0.08951318
000040 d9 a1 95 bc 3e b9 a5 3b 92 c3 f2 3c a7 37 03 be
       -0.018265652 0.005057483 0.02963427 -0.12814198
000050 b4 82 0b bd 72 fa fb 3d 78 df a9 bd 83 a0 09 be
       -0.034060195 0.12303628 -0.082945764 -0.13440137
000060 36 38 6a bd 5a cc 42 bd ea 5f 94 3d 4d bf 06 bd
       -0.057182513 -0.047558166 0.07244857 -0.032897282
000070 e2 c0 9f 3d a7 16 41 ba 3e 89 da bd 7d f5 22 3b
       0.07800461 -0.0007365741 -0.10670708 0.002486556
000080 76 cb 37 3d c7 1a 25 bd 44 d0 c8 bd 65 47 08 3e
       0.04487177 -0.04030874 -0.098053485 0.13308485
000090 b5 e8 f0 3d d5 c9 24 bb 2c e7 96 bd fa 01 88 3d
       0.11763135 -0.0025144715 -0.07368311 0.06641002
0000a0 0e 15 d4 bd aa 2f 82 3d 52 45 5d 3d 33 da e4 bd
       -0.10355578 0.063567474 0.054021187 -0.11174431
0000b0 f9 cf 8f 3d 13 04 c6 bd b3 33 98 bd ab 3f fe bd
       0.070220895 -0.09668746 -0.07431736 -0.124144875
0000c0 bc e7 f1 bc 1e ef 0b 3e 32 cf ba 3d 41 67 4a 3d
       -0.029529445 0.13665435 0.091215506 0.049414877
0000d0 ab 94 97 bd 15 da 40 bc 11 6e 18 3d 55 70 8b 3c
       -0.07401403 -0.011770745 0.037214343 0.017021338
0000e0 b4 3a 53 bd c8 14 b9 bc 5d c9 cc 3d 21 bb 0e bd
       -0.051569656 -0.022592917 0.099993445 -0.03484643
0000f0 8e d7 c4 bd d9 59 0d 3c 06 36 5c bd 54 af b5 bd
       -0.09611426 0.008627378 -0.05376246 -0.08871332
000100 d0 90 bf 3d 61 27 a2 bd 8a c2 e9 bd a8 6f b0 bd
       0.09353793 -0.07917667 -0.114140585 -0.08615047
000110 0e b1 b0 bd d2 5b 5b bd 1d 7f 25 bd 28 ad 8c bd
       -0.086275205 -0.053554364 -0.040404428 -0.068689644
000120 07 b0 96 bd 5e d8 7b bd 6c 30 93 3d 61 b3 59 3d
       -0.07357793 -0.06148564 0.0718697 0.053149585
000130 d1 e9 74 bd 7b d5 bc 3b a5 71 a2 3d 6c bf 30 bc
       -0.059793297 0.0057627535 0.07931832 -0.010787826
000140 b5 9a 5b 3d 8d 90 9a 3d 81 2d ef bd 88 65 cf 3b
       0.053614337 0.07547102 -0.11678601 0.006329242
000150 df ec 66 b9 bd 18 5f bd e3 cb c5 3c 68 dd bb bc
       -0.0002202275 -0.05446695 0.024145072 -0.022932723
000160 85 26 7c bc 0e d8 b8 3c 63 62 07 be 48 d6 ac bd
       -0.015390043 0.02256396 -0.13221125 -0.084393084
000170 65 b0 3c bc 5f 22 c3 3d a3 11 b9 bc 28 0c de bd
       -0.011516665 0.0952804 -0.022591418 -0.10842162
000180 08 64 ae ba aa f1 0c bd 82 cb e3 3d d2 79 f7 bd
       -0.0013304958 -0.034410156 0.111228004 -0.12083782
000190 94 09 5f 3d 02 84 5f 3c a2 a5 d3 3d 73 1f 10 3e
       0.054452494 0.013642313 0.10334326 0.14074497
0001a0 14 df d2 bd 66 80 19 3e b0 f1 a8 3b 32 26 44 bd
       -0.10296455 0.14990386 0.0051557645 -0.04788799
0001b0 68 2c d9 3d 09 4c e1 bc 1b 48 38 3c 2e 3b c1 bd
       0.10604173 -0.027502077 0.01124766 -0.09435116
0001c0 0c f0 d5 3d 2c 4a 1e 3d 5e eb 53 3d 31 1d 01 be
       0.10446176 0.038644955 0.051738136 -0.12608792
0001d0 5e a0 59 bd a2 99 32 3d 80 d9 8c bd 9b ca 98 3c
       -0.053131454 0.043603547 -0.06877422 0.018651297
0001e0 9a 8e 10 bc 2b b8 80 bd c0 91 70 bd 9b f7 67 bb
       -0.008823061 -0.06285127 -0.058732748 -0.0035395387
0001f0 09 76 f2 bd d9 f3 98 3d f0 ea bb bd 89 7d fe 3c
       -0.1183892 0.07468385 -0.0917567 0.03106572

network.3.weight f4 [256, 128]
000000 8e 89 15 3d cf 7b 2a 3c d7 55 71 bd da 90 bc bc
       0.036508135 0.010405495 -0.058919754 -0.02301829
000010 81 84 94 3c 98 a6 4e bd 21 7f 32 3d 23 51 0d 3d
       0.018129589 -0.050451845 0.04357827 0.034501206
000020 f6 4e e8 3b 3f 3d c3 3c d3 f0 05 3d 43 bd 40 3d
       0.007089491 0.023832915 0.03270037 0.047055494
000030 9d 92 80 3d f1 f3 c5 bc d6 8b 92 ba 00 31 fb 3c
       0.06277964 -0.024164172 -0.001118059 0.030663013
000040 19 8e 17 bd 9b a2 82 3d d8 e1 19 3d 9a 51 96 3c
       -0.03700075 0.06378671 0.037568897 0.018349458
000050 f1 a0 21 bc 93 96 16 3d a1 75 4e bd b7 3a a2 3b
       -0.009865032 0.036764693 -0.05040515 0.004950847
000060 f1 c7 0a 3d 6a ab 19 bc 86 e5 49 bd 9f ea 81 3d
       0.033882085 -0.009379247 -0.049291156 0.063435785
000070 78 46 cb bc 00 9d ba bc be a2 02 3d f2 f1 54 bb
       -0.024813876 -0.022779942 0.031893484 -0.0032492843
000080 e8 f2 b1 3d ea 47 f3 bc f2 fa d1 3b db 43 a7 3d
       0.08688909 -0.029697377 0.006408089 0.08167239
000090 03 5c 53 bd 28 d2 3d bd fe b9 93 3d cc 3f 02 3c
       -0.05160142 -0.046343 0.072132096 0.007949781
0000a0 57 a9 1d bc 1b 17 5e bd 6a df 0f bd 13 d2 62 3d
       -0.009622893 -0.054221254 -0.035125174 0.055376124
0000b0 a4 5b 86 3c d1 b0 63 3c 34 13 2c 3d 35 83 b3 bc
       0.01640112 0.013897137 0.0420105 -0.02191315
0000c0 5e 83 5e bc 5c 10 8f bd 95 bb 46 3d 3a 30 5c 3c
       -0.013581125 -0.06985542 0.048518736 0.0134392325
0000d0 0c 1f 1d bd a5 cc fb bc b2 3b 28 bd d8 3a 27 bc
       -0.038359687 -0.03073723 -0.041072555 -0.010206901
0000e0 0b 14 1b 3d dc cd 02 bd 80 6e 93 3b 5a b3 8d 3c
       0.03786091 -0.031934604 0.0044992566 0.017297436
0000f0 5c 4e 35 bd 5b 62 a6 3c 54 0f 4d bc 8a f6 0e 3b
       -0.044264182 0.020310571 -0.012515862 0.002181443
000100 2f 66 95 3a 81 2b 21 3d ff 6a 67 3c 44 53 f4 38
       0.0011398251 0.03934813 0.014124631 0.00011650336
000110 e4 73 ec bc 31 13 d1 bb 66 bd 4e 3c a2 07 32 bd
       -0.028863855 -0.0063804616 0.012618398 -0.04346431
000120 b1 67 89 3c da be 18 bc 26 6b 19 bc 2b f1 0a bc
       0.016773077 -0.009322846 -0.009363925 -0.0084803505
000130 bf 84 2f 3d f4 f3 47 ba 86 f2 b3 bc a3 97 94 3d
       0.042851206 -0.00076275994 -0.02196623 0.07255485
000140 d7 2d 8b bd f9 23 3d bc 36 d8 45 bc db 8c 8b 3c
       -0.06795853 -0.011544221 -0.0120754745 0.017034939
000150 02 b3 18 bd 27 1b db 3b ab 1f 76 3d cb 46 43 bd
       -0.03728009 0.0066865864 0.060088795 -0.047674935
000160 7f d9 9c 3b 7a c0 19 ba 87 4e f1 bc 9d 2b 36 bc
       0.0047866697 -0.0005865168 -0.02945639 -0.011118797
000170 d3 19 50 3d 22 c8 9a 3d e3 51 94 bc 2f 4f 3f bd
       0.050805878 0.075577036 -0.018105453 -0.046706375
000180 4f 62 05 3d 70 35 a1 3d da f5 81 bd fb ff 52 bc
       0.032564458 0.078715205 -0.063457206 -0.012878413
000190 f3 8b 0c 3c 53 78 18 3c 7a 67 34 bd 84 28 6f 3d
       0.008578288 0.009306031 -0.044043995 0.058388248
0001a0 1b 35 66 bd f9 34 92 3d 39 16 bf bc f7 93 65 3d
       -0.05620299 0.0713901 -0.023326026 0.056049313
0001b0 18 4b 6a bd e2 6d a9 bc 1f 5b e5 bc aa 95 03 bb
       -0.05720052 -0.020682279 -0.027997551 -0.002007822
0001c0 dd 04 86 bc 9a 3f 75 3d de ff 0a 3c 3c ce 78 3c
       -0.01635974 0.05987511 0.008483855 0.015185889
0001d0 ac cc 14 3c 32 a9 06 3d 40 79 f9 bc 1d 7c 69 3d
       0.009082001 0.0328762 -0.030453324 0.05700313
0001e0 cc 30 e6 3b 99 0e 3f bd 57 be 6a 3d 6d c2 71 bd
       0.00702486 -0.04664478 0.05731043 -0.05902331
0001f0 f6 97 24 3d 78 f3 80 3d 5f 76 0d bd 67 46 8c bd
       0.040183984 0.06296438 -0.034536716 -0.06849366
000200 f6 1b 20 bd 14 e4 f5 b8 c5 1b 3f bb 29 9b 0c 3d
       -0.039089166 -0.00011724993 -0.002916084 0.03432766
000210 14 3e 4a bc 45 fd 72 3b 70 fe d9 3c 90 d5 96 3c
       -0.012343902 0.003707723 0.026610583 0.018412381
000220 95 c8 71 3a 6b 12 ae bc b6 78 04 3d c0 01 e8 ba
       0.00092233095 -0.021249017 0.03234168 -0.0017700717
000230 2d 28 a1 bc 81 a3 f8 3b 6d 04 d9 bb 78 d5 3c 3a
       -0.019672478 0.0075878506 -0.006622842 0.000720344
000240 16 6c ba bb 88 be 5c 3c db 2c dc 3b e1 7a 84 3b
       -0.0056891544 0.013473161 0.0067192144 0.0040429686
000250 ae 65 86 bc 5f a0 f0 bc 4b e8 49 bb 97 24 70 3c
       -0.016405907 -0.029373346 -0.0030808623 0.014657161
000260 83 45 8d bb 35 b4 a2 bb 74 22 55 bc 8c 23 b2 3c
       -0.004311265 -0.00496533 -0.013008703 0.021745466
000270 ec 4c 98 bc a7 4e e6 3b fe 81 1e 3c 7a 5b c7 bb
       -0.018591367 0.007028419 0.009674547 -0.006083903
000280 bd 12 15 3d 01 02 05 bc 82 83 2a bc d6 78 cf 3c
       0.036394823 -0.008118154 -0.0104073305 0.025326174
000290 ea 94 27 3c 94 17 42 bc 3e d5 83 3b c6 f1 50 bc
       0.010228375 -0.011846442 0.004023223 -0.012752956
0002a0 c9 d5 a2 ba 75 d4 de bc 07 c6 56 3c 73 6c 68 bc
       -0.0012423332 -0.027200917 0.013108737 -0.014186013
0002b0 62 31 7b bc 75 d3 40 3b 79 14 a5 3b 02 aa 12 3b
       -0.015331598 0.0029422913 0.005037841 0.0022379165
0002c0 a6 e0 29 bc dd 08 6c 3b 97 83 dd 3c 83 37 99 3a
       -0.010368502 0.0036016025 0.027040286 0.0011689517
0002d0 47 dd d9 3c d8 83 97 3c 72 37 ad 3c 81 c8 13 3d
       0.026594771 0.018495485 0.021144602 0.036079887
0002e0 3a 2d c3 3c 37 67 b4 3c 8b 14 25 3d 70 db 78 3c
       0.023825277 0.022021873 0.040302794 0.015189037
0002f0 14 4b b9 bb 59 6f 0e bb ba b0 28 bc b0 9c ed 39
       -0.005654702 -0.002173385 -0.010296041 0.00045320904
000300 4b ee 7f 3c a3 ea ee ba 03 eb aa bb b3 34 a5 b9
       0.015620778 -0.0018227886 -0.005216004 -0.00031510516
000310 9f ac a2 3b 2c fb 52 bb 18 b4 ab 3b cd 15 3e bb
       0.0049644257 -0.0032193167 0.0052399747 -0.0029004693
000320 05 35 da b9 52 da 96 3c 06 14 e3 3b 17 47 51 bc
       -0.00041619703 0.01841465 0.006929877 -0.012773297
000330 8f 37 ad 3a 82 03 56 bb b9 6e 99 bc 09 4a bd bc
       0.001321541 -0.00326559 -0.018729554 -0.023106592
000340 c3 dc 8f 38 f7 90 06 3c 22 64 b2 bb ac c9 d6 3c
       6.8598914e-05 0.008213273 -0.0054440657 0.026219212
000350 d8 49 ab bb fb 73 28 3c d4 91 0e 3d 1e 46 46 bb
       -0.0052273087 0.010281558 0.03480704 -0.0030254195
000360 82 0f 91 3c ea 3d 09 bd 02 43 ce 3b c5 3a 1c 3b
       0.01770759 -0.03350631 0.006294609 0.002383874
000370 00 6a 14 bc 09 77 1a 3c 18 2a 9f 3b 8e 2e e2 3a
       -0.0090584755 0.009427794 0.004857313 0.0017256306
000380 0c 73 0d bc fb 2e 0f 3c 0e f9 f8 bc e7 c3 b3 ba
       -0.008633386 0.008739228 -0.030392196 -0.0013715
000390 60 d1 64 bc c1 de 09 3c 78 27 9b 3c a1 5e 30 bc
       -0.0139659345 0.008414925 0.018939719 -0.010764749
0003a0 63 c0 09 bc 99 8b 0a bc c6 53 09 3b 3d b2 db bc
       -0.008407685 -0.008456134 0.0020954474 -0.02681839
0003b0 3a b2 09 bd dc 67 72 3c f9 e1 ca 3c 7d b5 51 3b
       -0.033617236 0.01479527 0.024765955 0.0031999045
0003c0 c3 e6 0b bc e2 56 7b 3c a2 61 36 3d da 66 79 3a
       -0.008538905 0.015340539 0.044526704 0.0009513922
0003d0 e2 fd 61 3c e0 0e a9 bb 39 13 6a bb be ea 5c 3a
       0.013793441 -0.005159244 -0.0035717024 0.00084273133
0003e0 75 36 cf ba 5f 8c 0c bc 7b da f7 bc 93 a5 8c bc
       -0.0015809076 -0.008578389 -0.030255547 -0.017168796
0003f0 7c e1 84 bc 25 b6 16 bb 81 a9 a0 bb e9 ce 48 3d
       -0.0162208 -0.002299675 -0.004903019 0.04902545

network.3.bias f4 [256]
000000 05 1a fc bc 12 35 07 bd 3b 92 09 3d 9d 45 67 bc
       -0.030774126 -0.033009596 0.033586722 -0.014115718
000010 09 64 4c 3d 2c 4c 10 3d ac 61 6f 3d 21 f2 3e 3c
       0.04990009 0.035228893 0.058442757 0.011654408
000020 03 1c 96 3d 47 ac 8e bd 87 e0 9c 3d b6 57 98 bd
       0.073295616 -0.06966453 0.07660013 -0.074386045
000030 4e bd 87 3c 84 08 5b bb 39 34 4d 3d dc 93 4b 3d
       0.01656976 -0.0033421824 0.05009863 0.049701557
000040 e2 96 39 bd b1 79 af 3d d4 f7 39 bd 3c 33 e2 3c
       -0.04530991 0.08568133 -0.045402363 0.027612321
000050 58 7e c0 3b aa dc 2c 3d f1 50 14 bd c1 fe f4 3b
       0.0058744363 0.04220263 -0.036210004 0.007476658
000060 24 6a 1c 3d 4b a9 6c 3c cf f9 3c 3c 7f 91 a2 bc
       0.03818716 0.014444659 0.011534168 -0.019844769
000070 11 25 02 bc 58 13 94 3d 21 c0 80 bd 5c 2b 8c 3c
       -0.007943408 0.07230252 -0.06286646 0.01711052
000080 36 cd 22 bd 9e 84 54 3d 23 e3 b8 3c 96 89 36 3d
       -0.039746486 0.051884286 0.022569245 0.044564806
000090 a6 04 ad 3d 8a 50 a5 bd de d5 43 3d c2 ba fe bc
       0.08448152 -0.08072002 0.04781138 -0.031094912
0000a0 d0 1b 08 bc f5 bd 09 bd 2c 69 a2 3c 91 31 15 3d
       -0.008307412 -0.033628423 0.01982554 0.036424223
0000b0 39 20 9b bd 29 5c 01 bd 6c 27 26 bd 7d 5d f9 bc
       -0.07574505 -0.03158203 -0.04056494 -0.030440086
0000c0 4c cc 6e 3c 40 f0 56 3b 53 2d a6 bb 78 f8 dd bc
       0.014575075 0.0032797009 -0.005071321 -0.027096018
0000d0 da 03 0b 3d bb 1d 87 3b 71 71 d6 bc 3d a4 43 bc
       0.03393922 0.004123417 -0.02617714 -0.011941013
0000e0 63 6b 00 bd 76 e6 08 3d 0c 46 17 3d 7e c7 5e 3d
       -0.031352412 0.03342291 0.036932036 0.05438947
0000f0 2a b4 64 3d da 62 1b bd 5f a1 3a bb ca fd cc 3c
       0.05583588 -0.03793607 -0.0028477532 0.02502336
000100 c6 63 30 3d 8e 31 14 3d 5c df 8d 3d 5e 49 02 3d
       0.0430639 0.03618007 0.06927368 0.03180825
000110 44 fe 96 3d 33 32 58 bc 36 d4 41 3c f2 af 4c bd
       0.07372716 -0.013195562 0.01183038 -0.049972482
000120 09 0d 78 3d 55 1c f1 ba 68 31 97 3d 6e 6b 95 3d
       0.060559306 -0.0018395284 0.0738247 0.07295881
000130 33 5c ea bc d5 f6 69 3d 85 a5 be 3c 5b f5 a2 bd
       -0.028608417 0.057120163 0.023272285 -0.07956954
000140 d0 1a 48 bd 29 8b 20 bc c7 a6 bf bb 67 80 32 bb
       -0.048853695 -0.009798803 -0.005848739 -0.0027237178
000150 32 07 50 3c dc cd 60 bc 52 dd bb 3d 53 e4 95 bd
       0.012697028 -0.013720956 0.09173073 -0.0731894
000160 e0 68 33 3d 6d 9b 11 3d 30 b6 4a 3b a3 9e 95 bd
       0.04380119 0.035548616 0.0030931346 -0.07305648
000170 7f ef 77 bd e4 76 00 3c 5e ba 8a 3d 07 79 ae 3d
       -0.060531136 0.007840846 0.06773828 0.08519178
000180 28 39 5d bc 06 d9 3a 3d c1 54 4e bd 12 0d 57 3b
       -0.013502397 0.045617126 -0.050373796 0.0032814187
000190 9e 62 87 bd fd 95 37 3d 64 94 36 3d f5 05 0a bd
       -0.066106066 0.044820774 0.04457511 -0.033697087
0001a0 e1 a2 ff bc 9c 3a 2e 3d 94 b4 12 3c 10 35 81 bd
       -0.031205596 0.042536363 0.008954186 -0.06308949
0001b0 af 42 3f 3d f7 88 5b 3d d8 68 4d bd 4d 92 87 3c
       0.046694454 0.053597417 -0.050148815 0.016549254
0001c0 e5 f7 26 3c 46 54 8b bc 04 9c c5 bc 8d a7 7d bd
       0.010190939 -0.017007958 -0.024122246 -0.061927367
0001d0 f7 60 fc 3c 85 26 5f 3d 7e 91 42 bd 3c 29 4a 3d
       0.030807955 0.054480094 -0.047502033 0.04935573
0001e0 35 fe fc bb f2 bc 9a 3d e2 8c 2b 3d 10 c3 86 bd
       -0.0077207335 0.0755557 0.041882403 -0.06580174
0001f0 10 3e 96 3c d2 c8 c5 bc 8d 10 1b 3c fb 30 95 3c
       0.01834014 -0.02414361 0.009464395 0.018211832
000200 d3 c0 32 3d 5c 1d d5 bc e8 7b 8f bd bb 0b a3 3d
       0.043640923 -0.026014976 -0.07006055 0.07961222
000210 6e e4 88 bd ab f5 fd bc 32 40 2f bd 39 be a9 3c
       -0.066841945 -0.031000933 -0.04278583 0.020720588
000220 02 f7 29 3d 4f 61 86 bc eb cf 83 3d b0 1d 5e 3c
       0.04149533 -0.016403822 0.064361416 0.013556883
000230 26 88 27 3d 6e 6a 88 3d 0b 47 36 39 37 65 d7 bc
       0.040901326 0.06660925 0.00017383338 -0.02629338
000240 64 82 92 ba 9c 76 4a bb 22 18 d2 bc ae 24 08 3d
       -0.0011177775 -0.003089345 -0.025646273 0.033238105
000250 fa a9 a6 3c 00 1d 73 bd 9b 98 96 bc 8a aa 54 bd
       0.020344723 -0.05935383 -0.018383315 -0.05192045
000260 0b 9c dd bc 1b 1e 1f 3d 7f 0e 70 bd 97 72 4e bd
       -0.027051946 0.03884707 -0.058607575 -0.05040225
000270 0b 10 22 3a 30 33 83 bd b2 29 95 bd e5 91 9d 3c
       0.00061822 -0.064062476 -0.072833434 0.019234607
000280 ac 93 9a 3d d7 ea 87 bb 4b be b0 bd 5b bd 90 3d
       0.075476974 -0.004147868 -0.086300455 0.07067367
000290 3e 77 ca bc cc 1d 39 bd 79 45 6a 3d b4 c8 23 bd
       -0.024715062 -0.045194432 0.05719516 -0.039986327
0002a0 f7 60 42 3d 3e da a5 bc 68 bc f2 3c c0 85 f2 3c
       0.047455754 -0.020245668 0.029630855 0.029604793
0002b0 73 9b a9 bb 4e bd 62 bb 94 a5 c0 bc 7a 39 27 bc
       -0.0051760017 -0.0034597698 -0.023516454 -0.010206575
0002c0 e7 c8 2a 3d 50 0d 10 bd fc 55 75 3c 7b 22 6f 3d
       0.0416955 -0.035168946 0.014974114 0.058382493
0002d0 de 9a 20 bd 8b 42 69 bd 3a 69 a2 bc ec 36 74 bd
       -0.039210193 -0.056948226 -0.019825567 -0.05962269
0002e0 10 6d 3d bc 10 fc 9e 3d dd a1 d6 bc dc d5 c4 bc
       -0.011561647 0.07762921 -0.02620023 -0.024027757
0002f0 96 f7 2a bd 3a 96 aa 3d 6b b4 bc 3c c9 96 43 bd
       -0.041740023 0.08329435 0.023035249 -0.04775122
000300 4d cd 33 bc a0 1c 31 bd 44 a1 8f bd ae 1f b4 3d
       -0.0109742405 -0.04324019 -0.07013181 0.08795105
000310 8e b9 65 3d 18 00 ce 3b f6 44 84 3d 56 7e 35 bc
       0.056085162 0.0062866323 0.06458466 -0.011077484
000320 39 cc ff bc 0c fe c5 bc 3e 72 16 bd dc be 13 3d
       -0.03122531 -0.02416899 -0.036730044 0.03607069
000330 9a 71 b1 3d 81 12 df bc 01 93 80 bd 73 3c 6e bd
       0.08664246 -0.027230503 -0.06278039 -0.058163118
000340 85 82 5a 3d bf 92 d0 3a f8 24 c1 3c 85 ed e6 3c
       0.05334713 0.0015912874 0.023577198 0.02818943
000350 c6 42 71 bd d5 f3 db 3c dc 27 2f 3d 40 7e 39 bc
       -0.05890157 0.026849667 0.042762622 -0.011321604
000360 12 d0 2c 3d 5e d6 59 bd 86 00 75 bc 37 51 c5 bb
       0.04219062 -0.053182952 -0.014953738 -0.0060216445
000370 61 c7 3e 3d d2 d7 0b bd 82 4e bc 3c 55 53 0a bd
       0.04657686 -0.03414137 0.022986654 -0.033770878
000380 cb 86 3f 3d 4d 9e ce 3c 57 94 9d bd 28 48 a5 3d
       0.046759408 0.025221968 -0.07694309 0.08070403
000390 69 e6 ec bc 20 5c 9c 3d eb 0f fc bc 04 ac ac bd
       -0.028918462 0.07634759 -0.030769309 -0.08431247
0003a0 05 4f 9d bd 53 ac 25 3d ec 45 ae 3c b5 bc 7d bd
       -0.076810874 0.040447544 0.021273576 -0.061947543
0003b0 0e 39 91 bc 24 c3 d9 3c 86 32 58 bd 69 b6 9c 3d
       -0.017727401 0.026582308 -0.052782558 0.076519795
0003c0 ed 17 7f 3d b9 11 62 3d 02 b7 0a 3d 0d cf 3b bd
       0.062278677 0.055192683 0.033865936 -0.045851756
0003d0 51 37 5b bd eb da 2c 3d a6 0c f4 bc 49 fa 23 ba
       -0.05351955 0.042200964 -0.029791187 -0.0006255252
0003e0 6f 0a 91 bd 09 da 83 bc 23 19 89 bc 9c 20 53 bc
       -0.07082068 -0.016095178 -0.016735619 -0.012886193
0003f0 56 e3 fe 3c c5 ec 81 3d 88 9a 78 bd 72 46 83 bd
       0.031114262 0.06343988 -0.060694247 -0.06409921

network.6.weight f4 [1, 256]
000000 40 23 c7 bc 44 e9 da bb e9 12 83 bc 9f d1 cc ba
       -0.0243088 -0.0066806395 -0.016000228 -0.0015626437
000010 b9 7e cc bc a7 81 e6 3b 4a da ef 3c 4f cd 34 bd
       -0.02496277 0.0070344987 0.029278893 -0.04414111
000020 fd 9c 1e 3d 23 1e 2b bd cf 8b 88 3c ee e7 5d 3d
       0.038723934 -0.041776787 0.016668228 0.054176264
000030 d6 d1 be 3c 3d 09 69 bd 94 6c 5c bc f6 88 86 3c
       0.023293417 -0.056893576 -0.013453621 0.01642273
000040 e3 ff 67 bd d4 00 55 bd d2 b8 8f 3b b9 7c 86 3c
       -0.056640517 -0.052002743 0.004386046 0.016416894
000050 cc d9 63 bd f0 5d ff bc ee 30 e4 bc 35 13 5b bd
       -0.05562763 -0.031172723 -0.027855363 -0.053485114
000060 da 52 92 bc 50 74 4c 3b 11 62 25 3d 69 16 4b bd
       -0.017861772 0.0031197257 0.040376727 -0.04958192
000070 ec 07 dc 3c c0 5c cd 3c 72 d0 1c bd b4 53 9e 3c
       0.026859246 0.02506864 -0.038284726 0.019327022
000080 57 aa 41 3d 47 31 79 bd 2f b7 24 bd c0 69 67 bd
       0.04728159 -0.06083801 -0.04021376 -0.056497335
000090 07 b1 ff bc 2e f7 2f 3d fe cb f5 bc 1e 5a 99 bc
       -0.031212343 0.04296034 -0.030004498 -0.018719729
0000a0 94 34 0d bd 7f 21 40 bb e4 c7 0e bd fe 2f e5 3b
       -0.03447397 -0.002931684 -0.0348586 0.0069942465
0000b0 f7 35 67 bd ad 1c 8f bd ee d5 5f 3c 06 1d d6 3b
       -0.05644795 -0.06987891 0.013661845 0.0065342216
0000c0 9b b9 29 bd e6 54 d8 3c f0 15 29 bd e2 88 6c 3d
       -0.041436773 0.02640767 -0.041280687 0.05774773
0000d0 08 47 b6 bb f5 c9 08 3d f0 65 e6 bb cf 73 5f 3c
       -0.005562667 0.033395726 -0.007031195 0.013638451
0000e0 57 c8 1e bd 1f ea 53 bd 8c d9 a5 3c 3f c3 3e bd
       -0.038765278 -0.051736947 0.020245336 -0.04657292
0000f0 3f 1f a9 3c 78 f3 af bc fe 7c 00 3d 04 f3 fa 3c
       0.020644782 -0.0214784 0.0313692 0.030633457
000100 c3 09 af 3b 7a 76 40 3c 7e 95 09 3d 4f e5 2c bb
       0.00534174 0.011746997 0.033589832 -0.0026381796
000110 3b 6c 36 bd df e0 67 3d 29 60 d0 bc da 8f 0a 3d
       -0.04453681 0.05661094 -0.025436478 0.033828594
000120 aa 9e e4 3c 57 ca e2 3c 58 5d 5e bc f6 70 db 3c
       0.027907688 0.027684374 -0.01357206 0.026787262
000130 c3 74 ed bc d2 d5 27 bd c9 dc 9f 3c f8 a3 1d bd
       -0.02898634 -0.0409754 0.019514458 -0.03848645
000140 1d 70 a5 3c 07 18 3b 3d 8f 5c 14 bd 77 4e bc bc
       0.020195061 0.04567721 -0.036221083 -0.022986634
000150 87 6f 56 bd a5 2e 57 bd 71 2b 87 bc b8 e5 48 bd
       -0.052352455 -0.052534718 -0.016500207 -0.049047202
000160 df 63 03 bd 2f 49 83 bc 0f 80 cd 3c 0d 97 f3 3c
       -0.032077666 -0.016026108 0.025085477 0.029735113
000170 67 4f 5a 3d 85 89 90 bc b1 71 2e 3d a8 01 35 bc
       0.05329838 -0.0176437 0.042588893 -0.011047758
000180 d3 38 5a bc 5a f5 69 bc 77 d1 29 3d 3c 0b 33 bc
       -0.013319212 -0.014279688 0.041459527 -0.010927971
000190 55 ad 42 3d c8 f6 0c 3d 37 28 89 3c f8 0e 61 3d
       0.047528584 0.034415036 0.016742809 0.054945916
0001a0 d5 05 48 3d 7c 4b 80 bd 07 12 d3 3b f4 dd 52 3d
       0.048833687 -0.062643975 0.006441358 0.051481202
0001b0 1e 45 9b bc 26 5e 38 bd 2a e7 f6 3c 5b b0 da 3c
       -0.018953856 -0.045011662 0.030139524 0.026695421
0001c0 c9 0c 9c bc 19 ec 76 bb 45 93 30 bd 2c c0 32 bd
       -0.019049065 -0.0037677346 -0.043109197 -0.0436403
0001d0 38 d1 03 3d ac 73 5b bd 03 28 4d bd 32 c0 4a 3b
       0.03218195 -0.05357711 -0.050086986 0.0030937311
0001e0 89 bc 32 3d fc 7f 12 3d bf f3 f5 3c bc c4 dc bc
       0.043636832 0.035766587 0.030023454 -0.026949279
0001f0 2a 52 5c bd 93 42 38 bb f8 ca 06 3b 3c 1f e3 bc
       -0.053789295 -0.0028115853 0.0020567756 -0.027724855
000200 76 2b 50 3c ef 1e 28 bd c0 c4 5f 3d 91 5c 08 3d
       0.012705674 -0.041045126 0.054630995 0.033291403
000210 e6 1d 6c 3d 49 05 65 3c 2b 65 9f 3c 08 76 a6 3c
       0.0576457 0.013978311 0.01945742 0.020319954
000220 76 d5 02 bd ea 79 e7 bb 6d 4c 52 3c 8c c3 22 bd
       -0.031941853 -0.007064094 0.012835604 -0.03973727
000230 1d 6e 00 bd 0f be c7 3c 25 b8 46 bd da 8f 30 3d
       -0.031355012 0.02438262 -0.048515458 0.043105938
000240 d5 30 9b 3b bf 12 40 bd 4c 97 ba bc a8 14 5a 3c
       0.004736046 -0.046892878 -0.022777222 0.013310589
000250 d1 f0 30 bd 10 c3 97 bb f6 02 30 3d cb 75 2a bd
       -0.04319841 -0.0046314076 0.042971574 -0.041616242
000260 6d 4d 1b bd 96 77 e7 3c 91 2c 55 bd 9e c9 53 3d
       -0.037915636 0.028255265 -0.052044455 0.05170595
000270 f4 62 1a 3d 92 24 14 bd 99 13 aa 3c c9 dd 17 bd
       0.037692025 -0.03616769 0.020761298 -0.037076745
000280 a2 3c 3b bd 87 f3 40 3d 21 04 32 3d d9 c0 57 bc
       -0.04571212 0.047107246 0.04346097 -0.013168537
000290 ab 14 0e bd cf 05 15 3c 71 ed 3e 3b e9 10 03 bd
       -0.03468768 0.009095623 0.0029133225 -0.03199855
0002a0 0a c8 2c bd 69 4a d5 bc a1 4a b0 bb 3c a3 a2 bc
       -0.04218296 -0.026036458 -0.00537999 -0.019853227
0002b0 47 b0 0b 3d 07 de b1 bc bb d4 02 bd d9 69 cb bc
       0.034103658 -0.021712316 -0.031941157 -0.024830746
0002c0 4e d6 52 bd 05 5a 01 3d 92 4b 20 bd e7 24 6e bc
       -0.051473908 0.03157999 -0.03913457 -0.014535165
0002d0 06 66 f5 3c eb d9 9f bc 2b 83 7a bd f9 3f 4b bd
       0.029955875 -0.019513091 -0.061160248 -0.049621556
0002e0 cd 67 0b 3d ee 83 c0 3c d8 49 04 bd c5 20 01 bd
       0.03403454 0.023500409 -0.032296985 -0.031525392
0002f0 5b bb 31 bd 90 bb 1c bc 0f 97 c1 bc 4a bb 5e 3d
       -0.043391567 -0.009566203 -0.0236316 0.05437783
000300 93 50 d1 bc 0d 07 46 3d ca 29 f5 3c 50 5b da bc
       -0.025551116 0.048346568 0.029927153 -0.02665487
000310 7f d5 2b 3d 7a 84 e4 3c a6 86 6c 3c 72 f3 19 bd
       0.041951653 0.027895201 0.0144364 -0.037585683
000320 3a 39 98 3c 45 ec 25 3d f9 2a 33 3d 56 4c 3e bd
       0.018581975 0.040508527 0.043742154 -0.04645952
000330 97 71 24 bd 66 44 75 bd e3 6a 4c bd 82 3b d2 bc
       -0.04014739 -0.059879683 -0.049906623 -0.025663141
000340 67 1c f1 bc cd d2 1e 3d 12 e2 ec 3c 16 99 f8 3c
       -0.029432489 0.038775254 0.028916392 0.030346435
000350 87 04 12 3d 0e 54 3c 3c 54 80 27 3d cc 58 8d bd
       0.03564885 0.01149465 0.040893868 -0.06901702
000360 31 7e a3 bc 4a a4 4c 3d b2 2f 36 3d b5 14 24 bd
       -0.019957634 0.049961366 0.04447908 -0.04005881
000370 b1 26 78 bd ed 32 f7 bc be 32 4f bd 26 72 77 bb
       -0.060583774 -0.03017565 -0.0505855 -0.0037757247
000380 e7 04 0c bd 9b 2b 71 bc b4 1c 60 bd 54 ce 9f bc
       -0.034184363 -0.014719869 -0.054714873 -0.019507565
000390 da 1e 57 bd 0f cd d5 3c 5c 07 25 3d 4b 74 57 bd
       -0.052519657 0.026098756 0.04029022 -0.05260114
0003a0 0d b5 89 bd a6 4e 54 3c 66 ee 24 bd a7 41 e8 3b
       -0.06723986 0.012958204 -0.040266417 0.0070879045
0003b0 20 b8 74 3c f9 11 7c bd 72 6d 8f bd 7c 0e e3 3a
       0.014936477 -0.061540578 -0.07003297 0.0017323042
0003c0 31 e6 39 bd 2c c9 fd 3c 2d 2c 3f 3d 59 01 68 bb
       -0.045385543 0.030979715 0.04667299 -0.0035401194
0003d0 ff b6 67 bd de ff 53 3d 73 a0 da bc b7 57 84 3c
       -0.056571003 0.051757686 -0.026687836 0.016155107
0003e0 43 0f 3e 3d 7e af 50 3c 69 1f cc 3c e0 b1 4e 3d
       0.046401273 0.012737153 0.024917321 0.050462604
0003f0 1d 81 55 bd e2 6a 3a 3c 87 ba a8 bb e3 4b 05 bd
       -0.052125085 0.011378022 -0.005149189 -0.032543074

exp_avg f4 [128, 45]
000000 b3 d7 45 b7 9c 93 87 38 91 09 b2 b9 75 9a aa b8
       -1.1792336e-05 6.464796e-05 -0.00033957933 -8.1350016e-05
000010 e8 d1 40 b8 c2 25 a6 38 2e 74 bc 39 39 68 a4 b9
       -4.5971858e-05 7.92253e-05 0.00035944715 -0.0003135817
000020 33 2c 2b 3a 80 8b 2e 39 4e a9 0d ba 90 a7 66 39
       0.00065297185 0.00016645901 -0.00054039515 0.00021996931
000030 72 de 8b 38 cf 1e 04 39 19 0b c2 b9 b3 f9 90 b9
       6.66947e-05 0.00012599978 -0.00037010832 -0.0002765186
000040 f4 b5 cd b9 16 35 2b ba 7c 6f 4a b6 61 4c b7 39
       -0.00039236213 -0.0006531043 -3.0165238e-06 0.00034961387
000050 04 f0 a7 b8 38 b4 31 38 f5 d5 e3 39 8e a0 5d b9
       -8.007887e-05 4.236793e-05 0.00043456224 -0.00021136014
000060 6f da 0d b9 02 18 10 b9 10 56 27 37 0e b3 16 39
       -0.0001352818 -0.00013741854 9.974014e-06 0.00014371818
000070 09 db e9 38 db 38 21 b7 00 e0 33 31 d8 00 0d ba
       0.00011151104 -9.6095855e-06 2.6175258e-09 -0.0005378849
000080 52 47 5c b9 9e 96 b7 37 fd fb 4a 39 f6 9f a6 36
       -0.00021007404 2.1885437e-05 0.00019358094 4.9658074e-06
000090 31 d5 d7 b8 80 79 89 37 92 94 06 ba 6b 2a c3 38
       -0.00010291709 1.638825e-05 -0.0005133833 9.3062255e-05
0000a0 54 5a b7 38 5f 3f 89 ba d0 ff 35 3a 30 d9 27 ba
       8.742945e-05 -0.0010471157 0.0006942721 -0.0006402908
0000b0 51 c4 04 3a 64 4d fa 38 18 08 8c 2f ca 66 84 38
       0.0005064654 0.00011935344 2.5471603e-10 6.3133964e-05
0000c0 b9 cb 75 b7 75 d9 d5 b7 d8 1a 66 b7 da 61 39 38
       -1.4650571e-05 -2.549284e-05 -1.3715318e-05 4.419857e-05
0000d0 1e 95 07 b7 72 77 e0 b7 d0 5a 94 37 33 fb 80 38
       -8.081346e-06 -2.6758502e-05 1.7685263e-05 6.150305e-05
0000e0 7b 9d 2c b8 48 a3 e1 b7 24 81 0a b8 3f 32 39 b8
       -4.115466e-05 -2.6898124e-05 -3.3022035e-05 -4.4154232e-05
0000f0 3a 70 b2 b7 a7 8d ae b8 f0 16 12 37 ad 92 ac b7
       -2.1271513e-05 -8.323351e-05 8.707619e-06 -2.0572299e-05
000100 e9 42 c2 b5 ab a9 2e 38 33 3a a5 38 40 3a 3e b8
       -1.44736e-06 4.164285e-05 7.8786536e-05 -4.535378e-05
000110 41 cb 15 b7 c7 cb 24 38 70 95 ae 37 54 87 2f b8
       -8.928416e-06 3.929043e-05 2.0812004e-05 -4.1849285e-05
000120 c6 04 38 38 d3 d8 73 b3 da 01 a8 b6 6a 67 af 38
       4.3873464e-05 -5.6775047e-08 -5.0070057e-06 8.363913e-05
000130 0d 39 ab b6 e4 e0 d1 37 e4 5e c0 b8 d7 ce f9 38
       -5.1028387e-06 2.5019464e-05 -9.172948e-05 0.00011911772
000140 e6 2c 73 b7 62 b2 6d 38 81 03 b7 38 a1 b2 4d b7
       -1.4494382e-05 5.6671335e-05 8.726773e-05 -1.22605425e-05
000150 c1 cf c7 b6 3a 5d a7 38 a5 7a 9a b7 f4 b5 ca b7
       -5.954848e-06 7.980545e-05 -1.8415341e-05 -2.4165005e-05
000160 f7 2b 6d 38 16 7d da b7 af 3c 6d b9 5e a4 78 b9
       5.654615e-05 -2.6045873e-05 -0.00022624688 -0.00023712355
000170 a0 69 c1 b8 e5 28 74 39 f0 a2 9f b8 d9 e7 a0 39
       -9.222631e-05 0.00023284888 -7.61206e-05 0.00030690318
000180 5d 2c 08 b9 a3 64 56 b9 0f e4 14 ba dc bb 05 ba
       -0.00012986497 -0.0002044612 -0.00056797353 -0.00051015406
000190 3d 26 98 38 50 af ce b9 93 a4 b8 39 de f1 e9 38
       7.255047e-05 -0.00039422 0.00035217832 0.00011155357
0001a0 c7 7c 47 b9 93 37 91 b8 04 1e 7e ba 1e da 82 3a
       -0.00019024602 -6.92449e-05 -0.0009693804 0.0009983217
0001b0 00 0c 90 b6 b5 99 39 b9 29 eb 13 38 90 94 77 ba
       -4.2929314e-06 -0.00017700235 3.526654e-05 -0.000944444
0001c0 27 2a 31 ba 43 92 66 b8 04 3b 06 38 b6 1b 89 b9
       -0.00067582953 -5.497249e-05 3.2003052e-05 -0.00026151323
0001d0 3c f7 8e b6 b1 1b 77 b9 e4 56 51 38 74 27 92 b6
       -4.2607116e-06 -0.00023566071 4.9910406e-05 -4.355732e-06
0001e0 63 0f 9a 38 0c 1c ff b9 aa 0d 51 39 50 22 88 b9
       7.346158e-05 -0.00048658287 0.00019936883 -0.00025965506
0001f0 a7 2f e6 37 57 eb 13 ba fe 95 12 ba b8 60 8e b9
       2.7440326e-05 -0.00056426733 -0.00055918086 -0.00027156412
000200 ca e5 d4 b8 93 81 7c ba 70 7f 58 b9 dc 0b c8 b8
       -0.00010151749 -0.0009632345 -0.0002064684 -9.538952e-05
000210 7d 2a 77 38 83 1b 74 3a 57 88 b9 ba a0 25 07 b9
       5.892896e-05 0.0009311961 -0.0014155012 -0.0001288862
000220 64 83 0e ba 30 ae 4b 39 dc ff 57 38 ef 81 c2 39
       -0.0005436449 0.00019424479 5.1498282e-05 0.00037099372
000230 0a e3 e2 b9 5a 1e 15 b9 b1 ed 8b 39 5c 45 0d 38
       -0.00043275236 -0.00014221054 0.0002668924 3.3681616e-05
000240 12 d0 24 ba c2 e4 ae b8 d2 1a 05 ba 0a 7d 38 39
       -0.00062871084 -8.339576e-05 -0.0005077544 0.00017594188
000250 de 74 d6 b8 83 c8 4c b9 c3 e4 ba b8 b9 a9 f8 b9
       -0.000102260834 -0.00019529652 -8.911781e-05 -0.000474287
000260 94 fc 20 ba 81 3a 00 b8 60 76 a5 b8 b3 7a 9e b9
       -0.00061411527 -3.0572064e-05 -7.889862e-05 -0.00030227526
000270 71 da 85 b9 06 bd 16 b9 0a b0 2f b9 d6 06 a6 b8
       -0.00025530488 -0.00014375531 -0.0001675488 -7.91677e-05
000280 83 e3 15 b8 d1 11 c6 b7 83 e9 22 38 18 6f e8 b7
       -3.5736255e-05 -2.3611736e-05 3.8841285e-05 -2.7708287e-05
000290 33 48 cf b6 75 09 b8 b8 c0 c0 63 b7 7e e9 11 ba
       -6.177486e-06 -8.775565e-05 -1.35751325e-05 -0.0005566104
0002a0 c0 cf 35 b9 3f 8e 10 ba 11 e0 b3 b9 94 3f 88 38
       -0.00017338898 -0.00055143604 -0.00034308483 6.496828e-05
0002b0 84 83 ed b8 1e 52 2d ba 87 5b 05 ba 38 0d 9b b9
       -0.00011325537 -0.00066116627 -0.0005087186 -0.00029573753
0002c0 92 40 23 b9 98 3e 0a 3a 20 82 e7 b8 12 4f e5 b9
       -0.00015568946 0.00052736094 -0.00011039176 -0.00043737196
0002d0 cc 7f 84 3a d0 84 80 38 08 bd ca b6 36 b9 d2 39
       0.0010108887 6.128254e-05 -6.0420753e-06 0.00040192314
0002e0 e5 e2 32 b8 8e 72 03 39 f6 dd 2b b8 bc 48 78 b9
       -4.264982e-05 0.00012535808 -4.0976294e-05 -0.00023678219
0002f0 f3 f5 03 36 2d e7 45 ba 16 a8 c3 b8 8f 84 bd b9
       1.9663682e-06 -0.00075494015 -9.329633e-05 -0.00036147653
000300 a8 97 8a 39 4e 98 a8 b8 d6 f1 8f b8 15 18 26 b9
       0.00026434404 -8.039233e-05 -6.863817e-05 -0.00015839965
000310 fd 70 5b 39 4c 49 0f 3a bb 20 f8 b7 fe 6d a2 39
       0.00020927559 0.0005465939 -2.9579145e-05 0.00030980998
000320 73 b1 a2 b8 0c 62 d9 b9 06 63 9e b9 2b 42 75 b8
       -7.7578145e-05 -0.00041462516 -0.00030209887 -5.8474176e-05
000330 70 c4 c1 b5 b6 29 78 b7 dc 56 aa b7 8e b4 0d b8
       -1.4436791e-06 -1.47916635e-05 -2.0306026e-05 -3.3785174e-05
000340 fc fa 53 b8 e5 b4 a4 36 cd 0b 07 38 80 19 03 39
       -5.0540068e-05 4.9086398e-06 3.21975e-05 0.00012502633
000350 58 87 2f b9 82 2f 25 39 d5 97 28 37 00 fc b1 b4
       -0.0001673972 0.00015753324 1.00489315e-05 -3.3152173e-07
000360 33 8c c4 b8 20 b0 a8 b7 63 91 3e b9 35 e3 34 b9
       -9.3721224e-05 -2.0109175e-05 -0.00018173973 -0.00017250779
000370 51 8b c3 b9 76 5e 65 b6 75 b8 51 3a e4 35 ae 39
       -0.00037297097 -3.4178643e-06 0.00080002035 0.00033228018
000380 e5 67 cc b9 fb 06 9b 39 95 fb 62 39 2c 07 2a 39
       -0.0003898732 0.00029569105 0.00021646761 0.00016215135
000390 b0 d3 46 b8 52 18 c7 36 25 1e 0d 39 60 d7 1a ba
       -4.7404028e-05 5.9334934e-06 0.00013458038 -0.0005906727
0003a0 9d 57 4c 39 e3 68 39 39 b7 90 57 ba f8 9f 4c b9
       0.00019487595 0.00017682048 -0.00082231633 -0.00019514549
0003b0 fc 52 fb b8 ff eb 45 b9 08 bc 0f 38 e2 97 e4 b7
       -0.0001198407 -0.000188753 3.4268975e-05 -2.7250444e-05
0003c0 55 40 2a b9 c6 2e 64 b9 36 27 3a 39 f0 32 1a b6
       -0.00016236429 -0.00021761199 0.0001775295 -2.2977438e-06
0003d0 03 22 51 38 c8 65 59 39 95 49 22 38 37 31 13 ba
       4.986116e-05 0.00020732649 3.869234e-05 -0.00056149386
0003e0 18 91 88 b9 4d 50 bd b5 5b 88 90 b8 91 1b 12 37
       -0.00026048045 -1.4104968e-06 -6.891853e-05 8.708696e-06
0003f0 9a 33 1a b7 1b ee d2 37 34 19 11 b6 fc 89 84 38
       -9.19113e-06 2.5144827e-05 -2.1621354e-06 6.319952e-05

exp_avg_sq f4 [128, 45]
000000 70 9b 52 36 8a 1b dc 35 68 93 79 36 6f f6 18 36
       3.1382915e-06 1.6399292e-06 3.7189693e-06 2.2793208e-06
000010 a5 c9 83 36 5f 78 70 36 63 a3 97 36 ff da 32 37
       3.9275787e-06 3.5832852e-06 4.5191714e-06 1.0660616e-05
000020 ec 2b 22 36 b7 78 02 37 e7 16 81 36 25 75 b4 36
       2.4165447e-06 7.77671e-06 3.8471658e-06 5.3780554e-06
000030 43 2c f6 35 ea c2 11 36 f6 10 26 36 e4 7c d9 35
       1.834131e-06 2.1720139e-06 2.47458e-06 1.6204108e-06
000040 0b c6 7a 37 5b de 25 38 eb a6 bd 2f 03 e9 fd 34
       1.4947272e-05 3.954615e-05 3.4497502e-10 4.729446e-07
000050 f0 9c 4d 36 9a 5c 88 36 35 4f d0 35 9d 99 32 35
       3.063873e-06 4.063896e-06 1.552026e-06 6.6533704e-07
000060 6f ba 1b 34 2e e3 f6 34 a3 45 9f 30 b0 5d 55 35
       1.4503324e-07 4.5986366e-07 1.1588565e-09 7.9485017e-07
000070 90 4a c6 34 b9 30 5e 30 cf a4 b9 36 7f be 96 36
       3.6934625e-07 8.083237e-10 5.532616e-06 4.492525e-06
000080 58 70 e1 36 7b 1b 8d 36 97 73 ed 36 17 8d d1 36
       6.718601e-06 4.2053266e-06 7.076607e-06 6.2451104e-06
000090 36 7d 5b 36 60 ea 3a 37 e9 8d ad 37 ce 4e ab 37
       3.2706425e-06 1.1141034e-05 2.068929e-05 2.0421485e-05
0000a0 ac ac 98 36 c2 9c a1 37 f4 34 1b 37 52 18 94 37
       4.5500547e-06 1.9265692e-05 9.251049e-06 1.76543e-05
0000b0 75 b9 27 38 70 44 9f 34 18 24 e7 2c 56 4b ff 32
       3.9988623e-05 2.9665853e-07 6.569422e-12 2.9720166e-08
0000c0 c8 f9 00 32 e5 95 60 31 7d 30 84 32 58 80 7a 33
       7.507374e-09 3.2681495e-09 1.5388872e-08 5.832439e-08
0000d0 d7 8f f2 30 a6 ad 0f 32 a9 cf 2e 33 4e a5 eb 33
       1.7648699e-09 8.363179e-09 4.0701398e-08 1.0973109e-07
0000e0 b1 ac 0b 32 58 9c 66 31 ee 78 36 31 bf 50 0b 32
       8.13013e-09 3.3558276e-09 2.6553226e-09 8.109224e-09
0000f0 c8 be 12 32 f2 48 46 33 33 86 05 35 8e 98 cb 30
       8.541697e-09 4.616681e-08 4.9741647e-07 1.4813553e-09
000100 ce 0f bd 2f 28 ce f0 32 a9 e4 07 33 e4 06 88 31
       3.439013e-10 2.8033426e-08 3.1640102e-08 3.9589043e-09
000110 a0 77 7d 30 a0 25 68 31 cb 52 01 31 57 6c 73 31
       9.221086e-10 3.378183e-09 1.8819033e-09 3.5422738e-09
000120 47 27 e0 32 29 2e 25 2e 3f 78 ea 2f 8f 75 a4 33
       2.6094893e-08 3.7557655e-11 4.2649792e-10 7.658229e-08
000130 37 c3 4a 32 ba 4a 31 33 23 c8 0a 33 21 48 ad 33
       1.1802334e-08 4.1278987e-08 3.2312652e-08 8.0690604e-08
000140 13 25 c8 32 db 5c 05 33 1b cc 3a 34 be 91 a0 33
       2.3299924e-08 3.1050927e-08 1.7396853e-07 7.477091e-08
000150 59 8d 96 33 1b c9 96 34 38 85 25 34 c2 6c db 31
       7.01063e-08 2.8086e-07 1.5415287e-07 6.386103e-09
000160 ba c9 d4 34 f8 3a 44 32 08 58 ba 36 f9 ad 0d 36
       3.9634853e-07 1.14221095e-08 5.55348e-06 2.1111903e-06
000170 da bb f8 36 eb 7a 3c 36 cf e9 9a 36 be 5a 94 36
       7.4128448e-06 2.808573e-06 4.6167766e-06 4.4213075e-06
000180 e7 e6 86 36 89 e5 40 37 ea e3 74 36 bf db 17 37
       4.0203918e-06 1.1497535e-05 3.6491497e-06 9.051465e-06
000190 75 5c fc 35 73 99 00 37 1e 9b 04 36 dd be d9 35
       1.8802372e-06 7.665122e-06 1.9759823e-06 1.6223308e-06
0001a0 b9 e6 5a 36 f8 73 3a 36 a6 3e b6 37 09 d3 6a 38
       3.261883e-06 2.7783663e-06 2.1725264e-05 5.598649e-05
0001b0 b3 df e3 2f 4d 1e 06 35 bd e3 5d 36 a1 28 c9 36
       4.1450007e-10 4.9962983e-07 3.3064127e-06 5.9949966e-06
0001c0 52 12 0c 36 ab fe a4 34 5f 24 2e 34 a6 44 4c 35
       2.087229e-06 3.0732676e-07 1.6218245e-07 7.609582e-07
0001d0 23 69 e7 2f cd fe 26 35 12 56 bc 34 00 ad 01 30
       4.209336e-10 6.2210603e-07 3.5080353e-07 4.7175774e-10
0001e0 50 8c 16 36 1e 34 e2 36 c9 ea 68 37 92 1a 01 37
       2.2433414e-06 6.741392e-06 1.3882943e-05 7.695186e-06
0001f0 a2 de 02 37 d1 d8 26 37 6e 86 05 36 41 26 2d 37
       7.80044e-06 9.9448525e-06 1.9896793e-06 1.032051e-05
000200 7b fc 76 35 0f f9 46 38 4d 69 89 36 dd b0 73 36
       9.200955e-07 4.7438833e-05 4.095177e-06 3.631277e-06
000210 65 6b 5f 37 f5 4e 0a 38 6a 59 83 38 ba fb 3e 36
       1.33168405e-05 3.29753e-05 6.2632214e-05 2.845873e-06
000220 4b 1c 77 36 ac 8a 2f 36 2a 8f e3 35 4e ca b0 36
       3.6822337e-06 2.615775e-06 1.6954484e-06 5.26876e-06
000230 a7 5d 53 36 03 eb e6 35 87 21 56 37 42 0b ad 35
       3.1495963e-06 1.7204733e-06 1.27632e-05 1.2892781e-06
000240 2d 23 03 37 e2 e2 8a 36 ef e2 a9 36 06 1e 3b 35
       7.8163985e-06 4.139133e-06 5.063011e-06 6.970662e-07
000250 88 d4 b5 34 11 32 8a 35 97 a7 8e 35 ca 68 a1 37
       3.3868514e-07 1.0296372e-06 1.06286e-06 1.9241492e-05
000260 c9 85 18 38 f0 91 09 31 5d d0 a5 34 d7 be 0f 36
       3.636422e-05 2.001908e-09 3.088525e-07 2.1419744e-06
000270 4b eb 0e 36 79 d4 16 36 c3 87 cb 34 35 e6 d2 33
       2.1296607e-06 2.2475417e-06 3.7910476e-07 9.8207614e-08
000280 d3 aa ab 34 a3 10 c7 30 aa 80 20 35 a0 4d 04 35
       3.1975523e-07 1.4483884e-09 5.9791876e-07 4.928679e-07
000290 65 8e c7 2f 77 53 9f 36 bb 82 62 36 9d 62 b2 36
       3.6299067e-10 4.748286e-06 3.375272e-06 5.3162935e-06
0002a0 cd 18 04 37 ee 10 a7 36 2e cc 95 36 75 06 6e 36
       7.8735875e-06 4.9789587e-06 4.4643157e-06 3.5468522e-06
0002b0 b8 82 fe 36 bb d6 67 37 23 e5 c0 37 fa fa 8d 37
       7.5850076e-06 1.3818669e-05 2.2994884e-05 1.692538e-05
0002c0 d2 49 bc 37 cd 2c e1 36 7d f4 b9 35 e6 d5 ce 37
       2.2445722e-05 6.710738e-06 1.385473e-06 2.4656718e-05
0002d0 5c 98 74 35 a4 d7 c0 34 ea 45 87 35 81 e7 34 35
       9.1118795e-07 3.5919686e-07 1.0078631e-06 6.739211e-07
0002e0 46 62 c3 35 a4 f4 84 35 dd d4 e8 34 48 e7 3b 36
       1.4557233e-06 9.905966e-07 4.3368246e-07 2.7999795e-06
0002f0 8e cb 84 35 0e 09 bc 35 f9 f7 21 35 13 81 0a 36
       9.894009e-07 1.4009727e-06 6.033802e-07 2.0638734e-06
000300 95 f3 2b 35 d9 09 db 33 d6 8e 6a 35 77 a9 d9 34
       6.405692e-07 1.01997735e-07 8.7379647e-07 4.0542702e-07
000310 79 78 8e 36 a2 f4 4a 37 82 d3 15 31 6b a7 1c 34
       4.2459546e-06 1.2097096e-05 2.1802582e-09 1.4589538e-07
000320 9f 24 2a 35 dc b3 6b 35 ef a2 19 35 58 f1 0d 34
       6.3383226e-07 8.780605e-07 5.723404e-07 1.3219449e-07
000330 3c 2e 06 33 59 de 6d 34 1a 52 c1 30 2a 48 07 34
       3.1241356e-08 2.2153235e-07 1.4065933e-09 1.2599108e-07
000340 b4 d4 9a 33 23 42 2a 30 1f c8 5c 35 7d 7e a9 35
       7.209874e-08 6.1939626e-10 8.22476e-07 1.2628294e-06
000350 76 ef 5b 36 1b 7d 1b 36 d9 c2 de 35 ac b5 86 35
       3.2772928e-06 2.316962e-06 1.6596997e-06 1.0036651e-06
000360 4f bd 72 35 f4 33 d3 35 82 06 c8 36 93 a3 55 36
       9.0427505e-07 1.5735845e-06 5.961222e-06 3.1834686e-06
000370 31 04 4e 35 5c b0 62 36 39 76 b2 36 0f 99 f5 36
       7.674708e-07 3.377928e-06 5.3185763e-06 7.3193874e-06
000380 3a 0b 38 37 e9 27 00 36 fd b8 b0 35 54 04 93 35
       1.09698685e-05 1.9096717e-06 1.316686e-06 1.0953613e-06
000390 91 82 60 35 a1 1d a1 35 a6 be 97 35 93 e7 e1 35
       8.36365e-07 1.2004058e-06 1.1305863e-06 1.6831203e-06
0003a0 ed 8a 89 36 f6 60 d0 35 9f e1 ac 36 d5 be 50 35
       4.0990913e-06 1.5525427e-06 5.152265e-06 7.7763735e-07
0003b0 76 12 48 36 43 b2 81 34 df 33 1f 35 84 0e 94 35
       2.9813068e-06 2.4157825e-07 5.93076e-07 1.1031084e-06
0003c0 fc 95 5e 35 23 51 38 37 91 05 68 37 5b ba 5a 2f
       8.29197e-07 1.0986146e-05 1.3829574e-05 1.9893191e-10
0003d0 c7 61 53 34 1d 0a b9 35 bb 59 35 36 6c 13 c4 35
       1.9686478e-07 1.3786517e-06 2.7023332e-06 1.460879e-06
0003e0 68 43 3a 34 2c 55 63 33 3d c6 31 34 a8 5f 81 30
       1.7347122e-07 5.293002e-08 1.6556528e-07 9.413172e-10
0003f0 ef 2e b8 34 a4 90 18 34 aa 3e 68 2f 47 56 96 35
       3.430682e-07 1.4208723e-07 2.112254e-10 1.1200981e-06
