models/regression_models/ML_including_industry_feature/single_dimension/starting_prompts/version_best/checkpoints/epoch=59-step=1860.ckpt (torch, 480459 bytes, 15 tensors)

network.0.weight f4 [128, 45]
000000 a3 07 d5 3c cb 4c d4 3c 41 d6 ab 3c bb 9a 39 bc
       0.026004618 0.025915524 0.020976188 -0.0113283945
000010 f3 26 d1 3d 55 20 f6 bd 51 1b ea bd 5e 06 a7 3d
       0.10212507 -0.120178856 -0.114309914 0.08155511
000020 e0 80 55 3c 10 90 d7 bd 7e 03 ed 3d 5d 25 01 3e
       0.0130312145 -0.105255246 0.11572932 0.12611909
000030 54 a1 8b bc e8 30 7f 3d 87 bd c5 3d ba 09 80 bd
       -0.0170447 0.0623025 0.0965529 -0.06251855
000040 df a5 7e bd 5e e4 1e bd 18 42 f9 bb c0 c9 16 3d
       -0.062169906 -0.038792007 -0.007606756 0.036813498
000050 38 9d a1 bd bb 8e 19 3d d7 dd 5f 3d ba 3d b0 3d
       -0.07891315 0.037489634 0.054654922 0.086055234
000060 a8 47 84 3d 3d e7 c2 bd 5e 95 bf ba bd f5 aa bc
       0.0645898 -0.095167615 -0.0014616658 -0.02086913
000070 61 37 f6 bc 76 d4 01 bb 6b eb 15 bd f0 d9 86 bc
       -0.030055704 -0.0019810474 -0.036601465 -0.016461343
000080 72 a9 a3 3d 01 5e 04 be 65 e7 b8 3c ff e0 2f bd
       0.079913035 -0.12926485 0.022571275 -0.042939182
000090 c4 8f 11 3d 74 48 88 3d 6a 1c 9f 3d 58 0f de 3d
       0.035537496 0.06654444 0.077690914 0.1084277
0000a0 18 64 0b 3e 9f b1 5a bd 1a f6 06 3d 84 b7 fe bd
       0.13612401 -0.05339205 0.032949544 -0.124373466
0000b0 65 98 6a bd db 6f 9c 3d c9 aa 1f 3e a4 44 08 bd
       -0.05727424 0.07638522 0.15592493 -0.033268586
0000c0 1b f0 9c bd 2f c9 03 3e aa c6 df bc 5e 51 8f bc
       -0.07662984 0.12869714 -0.02731641 -0.017494854
0000d0 ea 69 e4 3d ea 95 fa bd 70 71 93 bd 2b 12 aa 3d
       0.11153014 -0.12235625 -0.07199371 0.083042465
0000e0 a5 bc 0e 3e b6 fb 50 3d 3a 13 f3 bd c8 ab b8 bd
       0.1393915 0.0510213 -0.118689016 -0.0901714
0000f0 d5 b6 b7 bd 44 57 51 3d 0d 18 39 bd 1f 59 88 bc
       -0.08970419 0.051108614 -0.045188952 -0.016644059
000100 15 06 0c 3d 97 f4 ab 3d f4 15 64 3d 32 77 eb 3d
       0.034185488 0.08396261 0.055685 0.11497344
000110 b4 54 66 3b b6 81 8e 3c 54 9f c7 3c 2a 44 c4 bb
       0.0035145702 0.017395835 0.024367966 -0.005989571
000120 6e 9c a4 3d f4 6e df bd 31 27 06 bd e6 58 80 bd
       0.08037649 -0.109098345 -0.03275222 -0.06266956
000130 2a 2c e7 bd dd 19 1c 3d 01 32 10 bd 86 53 16 3d
       -0.112877205 0.038110603 -0.035203937 0.036700748
000140 6c cc 6a bc f2 0a 2b bd ac c3 69 bd be 6c be bd
       -0.014330965 -0.041758485 -0.057071373 -0.09298085
000150 6f 41 37 3d f4 b3 f5 3d ec 49 a0 bd 84 f4 b2 bc
       0.044740137 0.11997214 -0.078265995 -0.02184511
000160 5c d5 01 bd 70 6c 9f bd 64 90 fd bc 44 96 a8 3d
       -0.031697616 -0.07784355 -0.03095264 0.08231786
000170 27 c7 4b 3d ea 23 24 3c d8 8e a1 3d 69 20 21 3a
       0.049750473 0.010018328 0.078885734 0.0006146492
000180 54 77 cf 3d 8e c0 2b bd 48 2a 11 bb a2 16 cf 3d
       0.10130182 -0.04193168 -0.0022150446 0.10111739
000190 c7 36 0b bd 6e 11 af bd 0d 70 01 bd 87 80 f7 3c
       -0.033987787 -0.08548246 -0.031601 0.030212654
0001a0 a9 ca 8e bd 59 de 3d bd da 7b a2 3d 21 e3 6a 3d
       -0.06972248 -0.046354625 0.07933779 0.057345513
0001b0 e8 48 36 3a 05 e7 49 bd 71 b7 ad 3d 8a 93 e9 3d
       0.0006953613 -0.049292583 0.08482254 0.11405094
0001c0 02 fb b2 bc 0b 14 5c bc ac 81 df 3b 01 c7 98 3c
       -0.021848205 -0.013432513 0.006820878 0.01864958
0001d0 fd 21 10 3a de 34 23 bd 83 65 46 3a 27 7f 32 3a
       0.0005498229 -0.03984534 0.0007568227 0.00068091083
0001e0 2b f7 3f bc 66 15 eb 3b 1c aa 1e bd fe 0e aa 3d
       -0.011716644 0.0071741818 -0.038736448 0.08303641
0001f0 1a c2 8d 3c 8b 85 23 bc c8 ec 49 3d f8 e3 b3 bd
       0.017304469 -0.00998057 0.049298078 -0.08783716
000200 ff 8c a3 3d da 49 1a bd 54 03 cb 3d af da fa bc
       0.07985877 -0.037668087 0.09912744 -0.030621855
000210 c8 a5 45 bd 13 c4 9d bc c4 da 27 bd e2 e8 d7 37
       -0.048253804 -0.019258535 -0.040980116 2.5738442e-05
000220 fb b6 0b ba a9 25 87 3b 84 76 17 3d aa b5 47 bc
       -0.00053296954 0.0041243625 0.03697826 -0.012189308
000230 1a f9 ac 38 7d 85 c0 37 30 37 93 bc 84 78 0a bd
       8.247998e-05 2.2950344e-05 -0.017970651 -0.03380634
000240 7b 86 35 bb 2c db 4e 3a 5c e1 48 3d f4 c3 b8 37
       -0.0027698565 0.00078909355 0.049043044 2.2025757e-05
000250 03 36 0d 3d 10 cd 17 3a 84 47 bf 3a 85 b8 09 3d
       0.034475338 0.00057907496 0.0014593457 0.033623237
000260 21 33 ba bc 88 6c 9f 3c f9 57 02 bd fe 5f fa 3a
       -0.022729458 0.019460931 -0.03182218 0.0019102094
000270 0f ae 12 3b df 8f 36 bc ed 4d 67 3b 41 42 e0 3a
       0.002238158 -0.0111427 0.003529425 0.0017109589
000280 ec fd a1 bc c2 3f 7d 3a 81 37 37 ba 4c d4 1f 3b
       -0.0197744 0.0009660685 -0.0006989167 0.0024388013
000290 5a 3d be 37 0c 21 66 3a a1 f6 95 3a a9 f2 ec 3b
       2.2678334e-05 0.0008778728 0.0011441299 0.007231076
0002a0 81 0a e5 3b 1f b5 2f bc 31 81 c0 3b dc 21 fa 3c
       0.0069897776 -0.010724335 0.005874776 0.030533724
0002b0 2a f4 14 bd 7b 36 3c 3d 27 a3 55 bc f8 fa 3d bc
       -0.036365665 0.045950394 -0.013039387 -0.01159548
0002c0 e4 f5 df b2 0c 46 69 92 d7 e6 54 b8 e4 ea af bc
       -2.6072435e-08 -7.3608176e-28 -5.0759725e-05 -0.02147431
0002d0 21 8e 59 bd e1 c0 23 3d 12 1b e0 bc a9 c7 67 3a
       -0.05311406 0.039978866 -0.027356658 0.00088417024
0002e0 fa 90 dd bc 92 a9 ce 3d 1f fc ad bb 86 61 bc 3d
       -0.02704667 0.10090937 -0.005309596 0.091982886
0002f0 5f ab 88 bd 0e 3f 8e bd 50 89 37 3d 81 38 31 3d
       -0.066733114 -0.069456205 0.044808686 0.043266777
000300 15 a0 63 3c 26 55 7d 3c 00 d0 1e 3d 80 e1 52 bd
       0.013893147 0.0154621955 0.038772583 -0.051484585
000310 3f a5 ac 3d dd ca 6b 3d 7c 95 05 bb d2 67 5b 3d
       0.08429956 0.057566512 -0.002038329 0.053565808
000320 8e c9 bd 3c 52 d4 04 3e 9b 4e e6 3d 8f 8d 91 bd
       0.023167398 0.12971619 0.112454616 -0.07107078
000330 33 85 c6 bc ce ff c9 3c c0 a0 9f 3b 33 f3 b3 3d
       -0.024233436 0.02465811 0.004871458 0.08786621
000340 17 ba cd 3c 32 b0 ce bb dd 0d 1f 3d 12 15 eb bd
       0.025113149 -0.006307625 0.03883158 -0.11478628
000350 fb 98 32 3c 8a e0 e2 3d af 8b 4c 3c fc 85 b1 bd
       0.010900731 0.11077984 0.012484475 -0.086681336
000360 78 ef 99 3d a6 e1 c4 bd ad 9e 89 bd 5e c4 e3 3d
       0.07516378 -0.096133515 -0.06719718 0.111214384
000370 35 44 6d bd 8a 71 40 bd 50 c5 65 bc b0 e4 78 bc
       -0.057926375 -0.04698328 -0.014024094 -0.015191242
000380 72 da b7 bd 6a 5f 72 bd 47 6e d0 bb a7 42 a5 bd
       -0.08977212 -0.059173025 -0.0063608023 -0.080693536
000390 94 c0 24 bc d0 ed d8 3c 20 e3 0c bd 35 0f 4e 3c
       -0.01005568 0.026480585 -0.03439629 0.012576868
0003a0 e5 eb c6 ba 44 32 b6 3d 68 01 b7 bc 17 58 fc 3b
       -0.0015176503 0.08896306 -0.022339538 0.007700931
0003b0 7a 50 ba bc e0 1b 60 bd 09 b4 3d bd de 2a 81 bd
       -0.022743452 -0.054714084 -0.046314273 -0.063070044
0003c0 60 44 dc 3d b8 44 55 bd 02 f0 79 bd 45 6e 0d 3b
       0.10755229 -0.05206749 -0.061019905 0.0021580618
0003d0 09 4b b1 3a 52 bd ad bc d1 40 5a 3d f4 98 a4 3d
       0.001352639 -0.021208439 0.05328447 0.08036986
0003e0 cd ce 4d 3d 43 04 8b 3d 1b 7c de bc c1 0c aa bc
       0.05024605 0.06787922 -0.027158787 -0.020758035
0003f0 48 da 65 bd 29 83 81 3d b7 d4 03 3b a0 15 63 bd
       -0.056116372 0.06323845 0.0020115802 -0.055440545

network.0.bias f4 [128]
000000 d2 c1 2e bd 53 88 ec 3d 4e d1 06 be d9 03 a8 bd
       -0.04266531 0.11549439 -0.13165781 -0.08203859
000010 0c ff c8 bd dc 5d b4 3c 1f 1f 23 bc c7 81 99 3d
       -0.09814271 0.022017412 -0.00995615 0.07495456
000020 d9 b8 e3 3c 53 7a df 3d 1c 64 44 3c 33 a4 d3 bc
       0.027798103 0.10912003 0.011986759 -0.025835132
000030 4f 6c f3 bd 29 bb f0 3c 4a 60 68 bd 71 b8 d0 bd
       -0.118858926 0.02938612 -0.056732453 -0.101914294
000040 1b 91 e0 bd 38 04 c5 bc a5 ae 8f 3d 62 11 7c 3c
       -0.10965177 -0.024049863 0.07015733 0.015385004
000050 b2 84 4e bd b0 13 be bd 27 96 6f bd 34 3c 7c 3c
       -0.050419517 -0.09281099 -0.058492806 0.015395213
000060 19 e8 78 bc b1 93 6d bc d1 3a 01 3e 25 a1 ee 3c
       -0.015192055 -0.014500544 0.12620093 0.029129574
000070 ab f2 c4 bd fa 0a dd bd f9 c9 d6 bd 66 80 93 3d
       -0.09616598 -0.10793109 -0.10487742 0.072022244
000080 b8 74 ed bd 86 1f c9 bd 89 ca e0 3d a5 13 cb bd
       -0.11594528 -0.09820466 0.109761305 -0.09915856
000090 31 31 ca 3d d4 9b e0 bd f6 79 61 3d 34 63 0b 3e
       0.09872664 -0.10967222 0.05504795 0.13612062
0000a0 2d 09 cf 3c 1a 9f b3 3d 24 a5 ce bc 41 72 ff bd
       0.02527293 0.087705806 -0.02522523 -0.12472964
0000b0 c8 a3 74 bd d1 a0 89 3d de 2b 00 3e e8 66 93 3a
       -0.059726506 0.067201264 0.12516734 0.0011245878
0000c0 62 0e 0d bd 42 38 10 bc a3 d1 a7 bd 27 71 66 3d
       -0.034437545 -0.008802475 -0.08194282 0.056260254
0000d0 b6 45 8e bd f3 a4 87 3d 17 08 42 3c bc 3b 0a 3e
       -0.0694689 0.066232584 0.011842749 0.1349935
0000e0 1f 7c e8 bd 5a 93 03 3e 58 f7 94 3d 90 13 9c 3d
       -0.11351799 0.12849179 0.072737396 0.07620919
0000f0 dc 59 87 3d 2c 6d fd bd a1 ba ad bd 5c 95 61 bd
       0.06608936 -0.123743385 -0.08482862 -0.05507408
000100 6d 61 c1 bd 3b d8 8b 3c 45 73 91 bd a2 13 9c 3d
       -0.094424106 0.01707088 -0.07102064 0.07620932
000110 b3 5a 7a 3d 82 cd 4c 3c 2c 4d db 3c 26 e8 d0 bd
       0.061121654 0.012500169 0.026770197 -0.10200529
000120 c5 9d 81 3d 28 e0 f7 bd a0 ef 0f bd 8b a2 c2 bd
       0.0632892 -0.12103301 -0.035140634 -0.09503659
000130 54 d4 b7 3d 03 16 f7 bd a1 d2 9e bd 44 ab 5d 3d
       0.08976045 -0.12064745 -0.07755018 0.05411841
000140 aa 5f ef bd 19 f2 0d 3e fa 9c 3d bd 17 18 ce 3d
       -0.11688168 0.13861884 -0.046292283 0.100631885
000150 e6 62 40 3d b1 48 49 3d 26 31 04 3e 6d 26 90 bd
       0.046969317 0.04914159 0.12909374 -0.07038579
000160 66 60 fe 3d 93 d4 7d bd 87 f6 ee 3d 5f 15 45 3d
       0.1242073 -0.061970305 0.11668115 0.048116084
000170 e6 80 c2 bd 37 e3 4d 3d 2a 23 a3 bd bd a7 5b 3d
       -0.09497242 0.050265517 -0.079656914 0.053626765
000180 ca 11 87 3d 07 84 8a bc 59 b5 03 3e ee d7 a6 3d
       0.0659519 -0.016908659 0.12862147 0.08146654
000190 32 42 98 bc 1c 77 82 bd 3a 32 da 3b 08 c1 f7 bd
       -0.018586252 -0.063703746 0.0066588195 -0.12097365
0001a0 9b 1b e1 bd 76 14 5b bd 8b ed ed 3d d9 cb ce bb
       -0.109915935 -0.05348631 0.11617573 -0.0063109216
0001b0 40 9b ff 3d 48 53 9e 3d 97 f3 37 3d 9f cc e3 3d
       0.124807835 0.077307284 0.04491004 0.11123013
0001c0 a8 a8 8c bc 1d 72 d2 bc 30 89 86 3c 4d d1 46 3d
       -0.017170265 -0.02568918 0.016422838 0.04853945
0001d0 74 f6 9c 3d 8f 94 e3 bd 71 38 71 3d 82 30 81 3d
       0.07664195 -0.1111232 0.058891717 0.0630808
0001e0 a4 2c 61 3d cc 34 d8 bd 9d 74 94 bd 4a e3 8a bd
       0.054974213 -0.10556945 -0.07248805 -0.06781633
0001f0 70 0c ad bd 2b 57 60 bd a6 af 8e bc 6f 2f 70 3c
       -0.08449638 -0.05477063 -0.01741774 0.014659747

network.3.weight f4 [256, 128]
000000 fd 5e 57 38 56 00 7f b6 26 50 8f 2d 69 e2 40 bb
       5.134846e-05 -3.7998157e-06 1.629281e-11 -0.0029431826
000010 e2 86 4c 34 f9 98 57 b5 a6 cc 0c 3a 25 d9 d4 b7
       1.904805e-07 -8.0316346e-07 0.0005371071 -2.5373485e-05
000020 b7 0d 61 39 fd 6f 14 38 00 31 22 b8 49 7c 6d bb
       0.00021462781 3.5390247e-05 -3.8669445e-05 -0.003623741
000030 ad d6 0a 38 fa 4e 03 36 7f 5e 16 87 95 36 75 1f
       3.3101696e-05 1.9566492e-06 -1.1312516e-34 5.1925917e-20
000040 5e 34 62 29 f2 a1 b1 b6 da 8e 3d 39 8f 47 6e 3b
       5.0227502e-14 -5.293864e-06 0.00018077661 0.003635857
000050 a6 8b a6 b9 42 77 67 ba 58 14 a2 b5 9f 02 08 bb
       -0.00031766033 -0.00088297215 -1.2075861e-06 -0.0020753515
000060 d7 70 8a b4 c5 11 d6 3a 8a 77 16 38 58 b7 e7 ba
       -2.5786605e-07 0.00163322 3.5874116e-05 -0.0017678542
000070 8b a4 01 b7 38 8d b4 ba a0 34 31 b8 0e 70 27 39
       -7.72731e-06 -0.0013774997 -4.22491e-05 0.00015968105
000080 4d d8 8e b9 52 e1 fd b9 ba 29 a1 b7 30 3d ea ba
       -0.00027245507 -0.00048423797 -1.9212126e-05 -0.0017871018
000090 7e 48 ef b7 50 99 2d ba 6d db c8 ba c0 78 22 b8
       -2.8524777e-05 -0.00066222716 -0.0015324183 -3.8736267e-05
0000a0 5d 65 01 39 46 2c 6b 38 49 b3 8d 30 6b 04 c2 a3
       0.0001234016 5.60696e-05 1.0310056e-09 -2.1035393e-17
0000b0 6c 73 4e b6 d9 dc 33 b7 04 66 b1 ba 8a a5 ee b7
       -3.0763576e-06 -1.07206515e-05 -0.0013534431 -2.8448896e-05
0000c0 59 78 ae ba a6 0d 91 b5 01 36 35 b8 ea e2 06 38
       -0.0013311013 -1.0807314e-06 -4.3204058e-05 3.215942e-05
0000d0 d3 25 69 39 79 f8 ce b8 fa 37 32 bb a1 2f 8e b9
       0.00022234702 -9.869127e-05 -0.002719401 -0.00027119837
0000e0 38 ee 5e ba 6a f4 2a 39 95 8c 6a 37 ab 99 04 37
       -0.0008504125 0.00016303515 1.3980219e-05 7.903592e-06
0000f0 d0 c9 56 b2 f8 17 36 35 50 61 4f 3b 95 42 13 b8
       -1.2502326e-08 6.783516e-07 0.0031643696 -3.510954e-05
000100 86 c2 8e af 6f 46 39 38 b4 46 85 ae 5e 04 d7 36
       -2.5967867e-10 4.4173034e-05 -6.060699e-11 6.4080077e-06
000110 9e 8a 62 b9 98 01 d0 38 7a 7f 99 39 d1 a5 51 bb
       -0.00021604678 9.91851e-05 0.00029277412 -0.0031989703
000120 cd a8 e8 38 4c 75 b0 ae 11 42 c6 b6 42 5c 62 37
       0.00011094064 -8.0243895e-11 -5.908551e-06 1.349213e-05
000130 23 e3 9e ba da c1 d3 b7 ec 47 93 3a a4 65 2b b7
       -0.0012122135 -2.524343e-05 0.0011236644 -1.0216059e-05
000140 45 3f b0 38 68 c5 af 38 89 a2 39 39 c2 ec 86 b9
       8.404119e-05 8.38142e-05 0.00017703524 -0.0002573487
000150 d6 12 46 37 ae e1 e3 b7 4a 93 99 b7 e9 68 8e b7
       1.1806105e-05 -2.7165599e-05 -1.8307608e-05 -1.6976572e-05
000160 01 f8 71 3b ac 2f 3f b7 a4 65 c4 39 c7 4f 5f 3a
       0.0036921503 -1.1395587e-05 0.0003745976 0.00085186627
000170 94 55 86 a8 bd ee 79 39 a1 35 75 b8 e8 0c 48 b9
       -1.4914102e-14 0.00023835427 -5.8462498e-05 -0.00019078294
000180 4f be b0 ba 16 ab 02 b6 f5 d0 7a b7 fb 20 d3 37
       -0.0013484451 -1.9471095e-06 -1.4949813e-05 2.5168518e-05
000190 77 59 be b9 0f fb 10 b8 7e 27 f5 ba 4c d5 df 38
       -0.0003630628 -3.4566092e-05 -0.0018703786 0.00010673198
0001a0 eb 07 cb 39 5a db b6 36 38 e9 6d 3b 9f df d8 b6
       0.00038725077 5.4495586e-06 0.003630234 -6.4633346e-06
0001b0 f4 87 52 bb 7b 44 19 36 4f 22 2a 35 78 f7 c5 37
       -0.0032124491 2.2838638e-06 6.337986e-07 2.3599467e-05
0001c0 32 d5 07 38 79 eb a6 b8 f7 f9 35 b7 36 45 db ba
       3.238506e-05 -7.959357e-05 -1.084664e-05 -0.0016729
0001d0 33 3f 12 b9 56 6b 9a b5 d1 17 ea b7 60 bf 61 2b
       -0.00013947189 -1.1505133e-06 -2.7906064e-05 8.0201644e-13
0001e0 a1 b3 20 39 73 e3 0c 3a ae 1d 42 b6 dd b6 49 b2
       0.00015325706 0.0005374469 -2.8925529e-06 -1.1741318e-08
0001f0 b7 bd 51 39 25 6d f7 b8 ac 8c c8 b6 ae 65 93 36
       0.00020002467 -0.000117982076 -5.976841e-06 4.3927785e-06
000200 43 b7 18 3d 71 be 2d bd fd 07 4f 3d 05 45 0d ba
       0.037284147 -0.042417947 0.050544728 -0.0005389008
000210 27 5b 64 bd d3 ca 8d bc 85 7c f8 3c cf b6 f4 bc
       -0.055750992 -0.017308628 0.030332813 -0.029872326
000220 62 9d 4b 3d d9 7c 1c 3c 62 53 80 3d d9 8e 15 bd
       0.04971064 0.00955125 0.06265904 -0.036513183
000230 77 09 fd bc fb 49 09 bd b0 45 5c 34 ac 82 e0 3c
       -0.030888302 -0.03351782 2.0514449e-07 0.02740606
000240 30 74 e9 3b 9d 26 de 3c 87 fd 2d 3b d2 46 6f bd
       0.0071244463 0.027118022 0.002654882 -0.05841715
000250 60 68 5c 3d cc c8 55 bd 92 4d 0f bd 2d cf 1c 3d
       0.053810477 -0.052193448 -0.034986086 0.038283516
000260 3b 6e a1 3c 8d dc a3 3d 29 a6 92 3d f8 76 99 bd
       0.019705882 0.08001051 0.07160599 -0.074933946
000270 2f 6d b5 bc f4 5a a5 3c 4c bc 85 bb f2 50 82 3d
       -0.02214679 0.020184971 -0.0040812846 0.06363095
000280 6f ca b1 ba 5b 6a c0 3b fc ef f0 bc 52 ef 7b 3c
       -0.0013564358 0.0058720536 -0.029411308 0.015376883
000290 ed 55 1c bd 78 2a 2f 3a 7d 95 5c 3d 9b c0 9c 3d
       -0.038167883 0.00066820486 0.0538535 0.07653924
0002a0 aa f4 9f bc 02 25 3f bd 95 ff 81 bc 81 6e be 3c
       -0.019525845 -0.046666153 -0.015868941 0.023246052
0002b0 c5 5f 31 3d 1b df cb bc 73 eb 11 bd 64 c3 7c bd
       0.043304224 -0.024886658 -0.035624932 -0.061709777
0002c0 64 20 30 bd 5e ee 55 bd 7f 07 4b bc db 4a 82 3d
       -0.04299964 -0.052229278 -0.012391924 0.06361934
0002d0 91 0e c1 bc 28 e0 94 bd 6b ea 81 3d 5e e9 0b bd
       -0.023566516 -0.07269317 0.0634354 -0.034158103
0002e0 f8 ae 83 bc 30 8c 0b 3d dc cb b8 3c 68 3e ab 3d
       -0.016074643 0.03406924 0.022558145 0.083615124
0002f0 fd 5d 1e bb c6 84 56 bd 1f 3e da bb 51 f9 46 bd
       -0.0024164908 -0.052372716 -0.0066602374 -0.04857761
000300 a8 78 de 3c f8 de 50 3d 37 7e f3 bc d0 aa 91 3b
       0.027157143 0.05099389 -0.02972327 0.0044454113
000310 2b a0 8f 3c 9f df 1b 3d 67 6f 6a 3d b0 4a 15 bd
       0.017532429 0.03805506 0.057235148 -0.03644818
000320 26 de 48 3d ba d0 08 3d 8c 5c 86 3d 89 61 0a bd
       0.049039982 0.033402182 0.06560621 -0.033784423
000330 6b db 37 3c db 1b 9c 3c 89 0e 51 3d 38 94 24 3d
       0.011221747 0.019056251 0.051039252 0.040180415
000340 02 60 59 3d b9 e8 ef bc 28 65 9b bd 3a 95 6f 3d
       0.053070076 -0.029285775 -0.075876534 0.058491923
000350 5d 74 1b 3d 37 0e 2f bd 5f 95 71 3d 17 20 15 bd
       0.03795277 -0.042738166 0.058980342 -0.036407556
000360 0a 25 51 3d e8 6b da 3c e8 2e 7c bc 8b c3 b0 bc
       0.051060714 0.026662782 -0.015392043 -0.021577617
000370 4c 66 09 3d a3 95 42 bd cf 3c 54 bd 54 d7 d2 bc
       0.033544824 -0.047505986 -0.051815804 -0.025737442
000380 2d 38 a0 bc 81 da 13 3d 2f a3 63 bd e6 e6 72 3d
       -0.019558037 0.036097053 -0.055575546 0.059302233
000390 7f 9c bd 3b ca c8 2f 3d 9a b2 cf 3b 3f 9b d3 bb
       0.005786478 0.042916097 0.0063384296 -0.0064577158
0003a0 e2 12 94 3d 63 0b 48 bd 79 d0 7f 3c e8 94 f6 bb
       0.07230164 -0.048838984 0.015613669 -0.007525075
0003b0 00 e1 7a 3d ed f3 4b 3d e1 c0 02 bd 13 a7 5f 3d
       0.061249733 0.049793173 -0.031922225 0.054602694
0003c0 a1 df d5 bc 5c 65 78 bd 95 07 29 bb 1a b6 e9 bc
       -0.026107611 -0.06064354 -0.0025791873 -0.028529216
0003d0 8d c2 3f bd 53 d6 b1 3b 39 54 c8 3c a5 c9 10 bd
       -0.046816397 0.0054271608 0.024454223 -0.035348553
0003e0 5e 87 8b 3d 06 ff d7 3a 02 34 d6 bb eb 93 54 bd
       0.068129286 0.0016479201 -0.0065369615 -0.051898878
0003f0 3b 87 ba 3d 22 41 ea 3c 61 de 72 bb 6d 67 37 3d
       0.091078244 0.02859551 -0.0037058818 0.04477637

network.3.bias f4 [256]
000000 33 46 0e bb 58 6f 41 bd 05 d7 31 3d be 29 5a bb
       -0.0021709322 -0.047225326 0.04341795 -0.003328904
000010 15 c8 99 3d bd 5e 70 3d 70 35 fb 3c 16 2d 36 bd
       0.07508866 0.0586841 0.03066513 -0.04447659
000020 b8 b5 84 3d b1 fb 6b bd 8b 3a fd ba a0 51 4f bd
       0.064799726 -0.05761308 -0.0019319815 -0.050614953
000030 42 bb 8e 3d ae 26 45 bd a8 b5 67 3d 8f d4 9e 3c
       0.0696931 -0.04813259 0.056569725 0.019388465
000040 3b 83 86 bd 6b 4d 0c bd 36 87 70 3d 8a b8 8f bd
       -0.06567999 -0.03425352 0.058722697 -0.0701762
000050 60 aa ae bc c1 b4 5f bd 0d 84 c7 bb fd 28 75 bd
       -0.021321476 -0.05461574 -0.0060887397 -0.059853543
000060 d6 55 89 3c 30 85 9c bd 3f 5f 03 bc 40 fc e6 3b
       0.016764563 -0.07642591 -0.008018314 0.0070491135
000070 97 61 ae bc 51 f6 d5 3c 68 ef 4d bb 0b bd 34 bd
       -0.021286769 0.02611843 -0.0031423215 -0.044125598
000080 66 72 9f 3d 3d eb af 3d 9e f4 48 bd e7 e2 4c 3d
       0.07785492 0.0858979 -0.04906141 0.05002108
000090 15 e4 81 bd df a4 26 3d 39 14 4d bd bd f3 12 bd
       -0.06342331 0.040684577 -0.050068114 -0.03587698
0000a0 d6 8f 78 bc 9a 7c 64 3d 30 26 b1 3c 3b 7c b6 3c
       -0.015171012 0.05578289 0.021624655 0.022276035
0000b0 de 36 6a bd 41 18 28 3d 01 cd f8 3c 5e 7f 43 3b
       -0.05718123 0.041038755 0.030371191 0.0029830555
0000c0 a6 3e 10 3d 7f 5e 80 3a 3f 2b a0 bc 1e 99 ac 3c
       0.035215996 0.0009793787 -0.019551871 0.021069106
0000d0 e1 b2 88 bd 66 21 59 bd bf 5b e4 b9 65 7f ff bc
       -0.066747434 -0.053010367 -0.00043555905 -0.031188676
0000e0 d5 d7 a2 3d 7b e4 b3 bc 57 41 17 bd d1 01 a8 bc
       0.07951323 -0.021959534 -0.036927547 -0.020508679
0000f0 27 a7 69 bc 9e 32 63 b9 d2 46 b0 3c 41 5d 93 3d
       -0.014261044 -0.00021667263 0.021518145 0.07195521
000100 48 6c 76 3d c9 cc 0a bd 1a a1 5f 3d 9d 57 8b bc
       0.06016186 -0.033886705 0.054596998 -0.01700955
000110 fb 13 28 bc 26 a2 92 3d 86 2f a3 3b 1c 8a 80 bd
       -0.01025867 0.071598336 0.0049800305 -0.06276342
000120 a1 62 9e bb 70 95 23 3c 85 e5 30 3d f5 6c 1b 3d
       -0.004833535 0.009984359 0.043187637 0.037945706
000130 a7 e6 c0 3c 41 bc c4 3a 84 0c dd bc 1b 7d a3 3d
       0.023547484 0.0015009717 -0.026983507 0.07982846
000140 83 82 71 3d 5b 1f b4 3b 42 7c d1 bc 49 93 cc 3b
       0.058962356 0.005496902 -0.025571946 0.0062431437
000150 3f e4 86 3d 26 39 72 bb 1e 8b d9 bc c1 2b 14 3d
       0.06586503 -0.0036960333 -0.026555594 0.03617454
000160 66 49 8b 3d e7 9f 81 3d 28 07 ec bb d0 48 99 bd
       0.06801109 0.06329327 -0.0072030015 -0.07484591
000170 a4 76 a5 bc e9 1a 55 3d d6 fe 5a bd 2d cb 67 3d
       -0.020198174 0.052027617 -0.053465687 0.056590248
000180 a3 a4 a8 bd 5e 73 85 bc f4 6e 38 bd 56 a4 46 3c
       -0.08234527 -0.016290363 -0.04502769 0.012124142
000190 22 a8 96 3d 93 b5 0f 3c 42 23 16 bd ab 2c 6a 3d
       0.073562875 0.008771318 -0.03665472 0.057171505
0001a0 b1 30 e7 bb 99 77 df bc 4a 54 64 bc 1b 59 7a bc
       -0.007055365 -0.027278708 -0.013936112 -0.015280033
0001b0 0d f4 82 bd d8 a1 9e bd aa b8 67 bd aa b0 a1 3d
       -0.06394205 -0.07745713 -0.056572594 0.07895024
0001c0 6f d4 e7 3c 58 b1 4c 3d 2c 06 26 bd 62 49 65 bd
       0.028299538 0.049973816 -0.04053323 -0.055978186
0001d0 75 7a 85 3d 91 20 0c 3d 7c 2d 9e 3c ec 53 b8 3c
       0.065174975 0.034210745 0.019308798 0.022500955
0001e0 fd 15 a3 3c 43 78 27 bd 97 bd da 3c eb fc 2c bd
       0.019907946 -0.040886175 0.026701732 -0.04223339
0001f0 f7 ca 80 3d e7 13 19 3d 20 f8 e3 3c 31 89 78 bc
       0.062887125 0.037372496 0.027828276 -0.015169428
000200 f5 77 da bb 7e 1c 6d bd 0d 88 79 bd ce 89 9b bc
       -0.006667132 -0.0578885 -0.060920764 -0.018986609
000210 fb 03 41 3d d2 b9 22 bd e2 d7 f3 bb 9f 1b 9d 3d
       0.047122937 -0.039727993 -0.0074415067 0.07671284
000220 30 68 14 3d 71 b1 81 3b 53 4b 58 bc 54 90 ab bb
       0.036232173 0.0039579202 -0.013201552 -0.005235711
000230 b2 44 a8 bc 83 b0 80 bd da 71 c9 bc 11 70 ae bc
       -0.020540569 -0.06283667 -0.024590421 -0.021293672
000240 9e 94 93 bc a7 06 66 bb 39 9a 84 3d d5 34 95 3d
       -0.018015202 -0.003509918 0.06474728 0.072854675
000250 cb 2a 62 3d 2d 47 52 3d 52 01 92 3c 43 2e 3e bd
       0.05521659 0.05133741 0.017822895 -0.046430837
000260 62 80 32 3d f1 bc 6d 3d 01 3a 57 3d ef d9 b3 bc
       0.043579467 0.058041517 0.05254555 -0.021954505
000270 81 d8 26 bb a7 23 63 3d be b9 42 3d 83 c6 85 bb
       -0.0025458636 0.055453923 0.04754042 -0.0040825023
000280 b1 f2 91 3d 0a ad 91 3d e3 50 3e 3d 22 a7 4c bc
       0.07126368 0.07113083 0.04646386 -0.012491019
000290 c4 c1 5a bd 3e af a6 bc 49 8f 9f bc 5b 1e cf bc
       -0.053407446 -0.020347234 -0.019477503 -0.02528303
0002a0 0c 2e ab bc 5c d4 5c 3d cd 39 be 3c 01 bb 72 bd
       -0.02089598 0.05391346 0.023220921 -0.059260372
0002b0 d5 2d 88 bd cb 6a 1f bd 74 67 86 bc 3a 8e ac 3c
       -0.06649367 -0.038920205 -0.016406752 0.021063913
0002c0 d2 b2 72 bd 3a c5 76 3c d2 79 27 bd a7 12 94 3d
       -0.059252568 0.015061671 -0.04088766 0.0723012
0002d0 09 a0 8f 3d 77 9d 55 bd b4 c5 7e 3d bc 6b 0e 3d
       0.07012946 -0.052152123 0.062200263 0.034770712
0002e0 94 4d 40 3d f3 92 05 bc 10 99 6f bd d6 f0 80 bc
       0.046948984 -0.008152711 -0.05849558 -0.01573984
0002f0 0a f3 63 bd e4 0d a4 3d 98 51 a9 bc 74 94 35 bd
       -0.055651702 0.08010462 -0.02066879 -0.04433103
000300 2d f1 c0 3c f5 b0 09 3d 18 e9 a4 3c c9 7e 97 3d
       0.023552502 0.033616025 0.020130679 0.07397229
000310 e0 5e ef 3c 50 52 20 3c 80 ff 7f bd 95 c7 20 bd
       0.029220045 0.00978525 -0.062499523 -0.039252836
000320 58 a6 7a 3c a6 0c 97 3d f4 72 9b bb 68 08 ce 3b
       0.0152984485 0.073754594 -0.004743928 0.006287623
000330 29 60 76 bd e5 5d 9d 3d 13 6d 89 bd 0e 33 f5 3b
       -0.0601503 0.076839246 -0.067102574 0.007482893
000340 aa ae c1 3c 99 c0 4c 3d e9 b4 88 3d 9a db 9e bd
       0.023642857 0.049988363 0.06675131 -0.077567294
000350 cb a9 3a bd 89 5f 54 bd ae 47 e9 bc 52 b1 8d 3d
       -0.045572083 -0.051848922 -0.028476562 0.06918587
000360 05 e1 c8 3c 15 1e a4 3d ce ed 58 bd 10 0b 46 3d
       0.02452136 0.0801355 -0.052961163 0.048350394
000370 92 2d d8 bc 6e 1c 60 bd 46 1c bf bc a5 5d a4 3d
       -0.026388917 -0.054714613 -0.023328912 0.08025674
000380 37 93 e9 bc 12 02 0f 3d 8d d0 09 3c 6e 72 9a 3d
       -0.02851258 0.034914084 0.008411539 0.07541357
000390 4d 7f 6b bc de a3 bb 3b 56 41 80 3d 4a f6 07 bd
       -0.014373613 0.0057263216 0.06262462 -0.033193864
0003a0 61 95 64 bd f7 17 c3 bc 68 03 f6 bc 40 a9 7b 3c
       -0.05580652 -0.023815138 -0.030030921 0.015360177
0003b0 d2 07 8a bd ac e0 76 3d a8 7b 47 3d 52 2a 6d 3d
       -0.06739773 0.060272858 0.048701912 0.057901688
0003c0 c9 5e d7 bc 8c 5a e0 bc ba 3e 5b 3c 85 aa be bb
       -0.026290314 -0.027386926 0.013381654 -0.0058186674
0003d0 08 1f c3 bc 13 f2 aa bc 9c 1e 51 3d 71 a0 03 bd
       -0.023818508 -0.020867383 0.051054582 -0.03213543
0003e0 ac 1b 2b bc dc 84 6c 3c 03 3f 68 bb 4a 0b 3b bd
       -0.010443609 0.014435973 -0.0035437949 -0.045665063
0003f0 b9 27 72 bd 8a fc 86 3d d7 8c 13 bd bc 1d 01 3d
       -0.059119914 0.06591137 -0.036022987 0.031522498

network.6.weight f4 [1, 256]
000000 a7 a3 83 ba 07 c5 21 bd 3d 4d 4e 3c 6a 6b d4 3c
       -0.0010043279 -0.03949454 0.012591657 0.025930125
000010 6a bd a8 bc 5e 3f fd 3b 25 e9 51 3a f5 fe 37 3d
       -0.020598132 0.007728501 0.00080074585 0.04492088
000020 51 be 97 3b df 8c 9b bc 88 ba 9e 3c f8 5e 9e ba
       0.004630842 -0.018988071 0.019376054 -0.0012082746
000030 8b f5 ca 3c fe 42 2f 3d 3a c0 56 bc 45 22 fc bc
       0.024775287 0.042788498 -0.013107354 -0.03077806
000040 f6 4e 77 3d fa a5 15 bd b0 49 10 3d ce 32 ca bc
       0.060378037 -0.03653524 0.035226524 -0.024682429
000050 f7 03 fd bc 36 0d ad 3c 23 be d2 3c 79 9d 7f 3c
       -0.03088568 0.021124464 0.02572543 0.015601509
000060 55 f3 87 bd e3 bc 0a 3d 27 34 9e bc 4a 1f 22 bd
       -0.06638209 0.033871543 -0.019311978 -0.03958062
000070 44 41 42 3d bf 8a dc 3c 09 fa 30 39 28 69 9f bd
       0.047425523 0.026921628 0.00016877813 -0.07783729
000080 bf f8 6b bc e2 dd 1a bd e5 89 45 bd f8 ec 45 3d
       -0.014402567 -0.03780926 -0.04822721 0.048321694
000090 0e 3d 20 bd f6 c0 1a 3d 7c d4 4f 3d 66 fc 63 bc
       -0.039120726 0.03778168 0.05073975 -0.013915157
0000a0 8f bb 85 bb 55 71 e3 3c 5c 5a 1b 3d e3 e3 e1 3b
       -0.0040811966 0.027764002 0.03792797 0.0068936213
0000b0 4e 3c 51 3d ef 24 53 bd 62 b5 ac 3c 4a da 63 3d
       0.0510829 -0.051548894 0.021082584 0.0556281
0000c0 05 8c 50 bd 24 dd c4 bc 1f 4d 33 3d df 5b cd bc
       -0.050914783 -0.02403123 0.04377472 -0.025068222
0000d0 eb 40 38 bd 57 8d 9e bc 4d cd e4 3c d7 a7 0a 3d
       -0.044983786 -0.019354505 0.027929926 0.03385147
0000e0 57 2c 81 bc ea f5 cb 3c 57 38 7f bd 5e 9a 54 bd
       -0.015768213 0.024897534 -0.06230959 -0.05190503
0000f0 ec 38 7c bc 7a fc 8c bc 5d 1b 6d 3d 83 bf 75 bd
       -0.015394431 -0.017210234 0.057887424 -0.059997093
000100 fd 1e 86 bd b8 f7 a0 3b a8 20 cb bc b3 56 4b bd
       -0.06548879 0.004912343 -0.024795845 -0.04964323
000110 26 dc 87 bd 71 af 0f bd f6 68 63 bd 0d 7e 5b bd
       -0.06633787 -0.035079423 -0.05552002 -0.05358701
000120 74 2b 46 3d db 3a 71 3c f0 8c 5f bc 34 9c 49 3d
       0.048381284 0.014723505 -0.013644442 0.049221233
000130 8b 2b b9 3c 13 7e 2b 3d f7 c8 ad bc 70 bb 22 bd
       0.02260377 0.04186828 -0.021213992 -0.039729536
000140 42 3e d7 3c ce c5 4c 3d 6b 2d 46 bd ff 40 00 3a
       0.026274804 0.04999333 -0.048383158 0.00048924977
000150 cb 8f 0a bd 66 cb 87 bd 16 3e 82 bd 1e 11 97 3b
       -0.033828538 -0.06630592 -0.06359498 0.004610195
000160 38 05 94 bc 7a 36 13 3c b0 ed ca 3c 24 4e ed 3c
       -0.018068895 0.008985156 0.024771541 0.028967924
000170 4e 95 87 38 af 61 94 bc fa 4d ae bc 24 4e 7c bd
       6.465112e-05 -0.018112985 -0.021277416 -0.06159796
000180 70 7f 4a bd af d3 3b 3d 3b 9a 03 3d aa fd 6b bd
       -0.04943794 0.045856174 0.032129508 -0.05761496
000190 ff c3 13 3d 1c 8e 3b bc bf 20 a7 bc 70 fd 0a 3d
       0.03607559 -0.011447456 -0.020401357 0.033933103
0001a0 23 b4 ad 3a 6f b5 af bc 18 68 07 3d 5b 15 40 bd
       0.0013252537 -0.021448819 0.033058256 -0.046895366
0001b0 b9 79 60 bd a3 c2 e9 3c 13 e5 3d bd c5 6b 32 bd
       -0.054803584 0.028535193 -0.04636104 -0.04355981
0001c0 2a 38 36 bd 04 77 40 bd cd 70 75 3d 4f de 17 bd
       -0.044487156 -0.046988502 0.05992203 -0.037077244
0001d0 1e 4f 05 3d 1a 50 8c 3d 41 46 26 3d 28 29 58 3c
       0.032546155 0.06851216 0.040594343 0.013193406
0001e0 cd 7e 28 bd 14 26 04 bc 3a de cd 3b 41 8f e8 3c
       -0.04113655 -0.008065719 0.006282595 0.028388621
0001f0 60 3a 46 3d 65 4e f7 bc 57 13 db 3c f5 e0 7b bd
       0.048395514 -0.030188749 0.02674262 -0.061493833
000200 86 09 aa 3c da be 4c bd b6 4b 31 bd 5c 9f 82 bd
       0.020756494 -0.049986698 -0.043285094 -0.06378052
000210 e9 81 4d bd 4d 5f 97 3c 53 79 5b 3d d7 72 6c 3d
       -0.05017272 0.01847806 0.0535825 0.057726707
000220 5a b7 fe 3c 4c 9d 68 bd ad 8e cb 3c 62 b8 4d b9
       0.031093288 -0.056790635 0.024848307 -0.00019619011
000230 91 4c 48 bd c6 58 52 3d dd d8 6a bd f4 49 2b bc
       -0.048901144 0.051354192 -0.057335723 -0.0104546435
000240 3d 6a d1 bc 13 ad 01 3a 61 b9 28 3d eb 43 b3 3c
       -0.025563354 0.00049467495 0.041192416 0.021882972
000250 cb 61 db ba a5 7b 7f bd 59 8a 7b bd 7c f9 10 3c
       -0.0016737519 -0.062373776 -0.061411235 0.008848544
000260 78 75 84 bd bb 5f 76 3d 60 2a 3e 3d 34 89 96 3a
       -0.06467718 0.06014989 0.04642713 0.0011484982
000270 ea a2 93 ba f9 84 4b 3d cb c2 28 bd e3 05 b5 3c
       -0.0011263762 0.04968736 -0.041201394 0.022097534
000280 1e 55 d5 3c c5 89 54 bd 66 0c 6a bd f7 18 7d 3d
       0.026041564 -0.0518892 -0.05714073 0.061791386
000290 c3 e9 3e 3d 8b 9b 3b 3d 42 59 d9 bc e2 6c 89 bc
       0.04660965 0.045802634 -0.02653182 -0.016775552
0002a0 89 e6 f8 3c 1e 28 1b 3d f7 63 81 3d 08 22 54 bd
       0.030383365 0.037880056 0.06317895 -0.051790267
0002b0 b6 c0 23 3d 38 1f 8b 3c f8 22 65 bd dc cd 8a 3b
       0.039978705 0.01698266 -0.055941552 0.004235966
0002c0 d7 7f 87 bd e1 49 ff bc 7d 10 83 3d 0f 89 97 3c
       -0.066161804 -0.031163158 0.06399629 0.018497972
0002d0 8a 94 4b bd 19 9e 69 3d e7 17 41 bc 45 9b 4c bd
       -0.049702205 0.05703554 -0.011785484 -0.049952764
0002e0 88 e5 1e bd 83 e8 e3 3c d3 6b 68 bb 5b 61 a9 bc
       -0.038793117 0.027820831 -0.003546466 -0.020676306
0002f0 de b8 73 3b 77 7a 58 3d ef 40 28 bc 43 6f cd bc
       0.0037189047 0.052851167 -0.010269388 -0.025077468
000300 9c b7 44 bc 72 e5 40 3c 4c 28 67 bd 00 6c 9c 3c
       -0.0120066665 0.011773454 -0.056434914 0.019094467
000310 e3 bf 6d bd 9b a9 4c 3c 90 cd 1d 3d 33 e5 1d 3d
       -0.058044326 0.012491609 0.038526118 0.03854866
000320 2e ba f3 3c 8e 50 58 bd 6c 03 05 3d 95 16 71 3c
       0.029751863 -0.052811198 0.032473966 0.014714857
000330 d7 96 d1 bc 50 37 7b bd 63 14 9c 3c 70 f9 49 bd
       -0.025584621 -0.061332047 0.01905269 -0.049310148
000340 d1 75 18 3d 97 17 45 3d 6d b9 09 3d 12 5f 68 bd
       0.037221733 0.0481182 0.0336241 -0.05673129
000350 e2 81 f2 bc 8e 47 0f 3d 63 07 34 bd bc 37 9c bc
       -0.029602949 0.03498035 -0.043952357 -0.019069545
000360 4c 77 82 3d 3d 42 73 bd b1 58 41 3d 54 d7 06 bd
       0.0637041 -0.05938934 0.047203723 -0.032920197
000370 ee c6 10 3c 07 c1 2c 3d 51 93 02 bd 0c be 51 3c
       0.008836491 0.042176273 -0.031878773 0.012801658
000380 45 69 0a 3d 36 6b 15 3d f2 03 8e bd 1d e5 13 bd
       0.0337918 0.036479197 -0.06934346 -0.03610717
000390 6a e2 80 bc 45 94 05 3d fd a0 6f 3d e8 6f 84 bd
       -0.015732963 0.032612104 0.05850314 -0.06466657
0003a0 52 fd cc bc e1 5c c5 bc 3e 0f 20 bd eb 97 73 bd
       -0.025023136 -0.02409214 -0.039077036 -0.059471052
0003b0 ae 18 78 bd 1e d6 30 3d bb cb 12 3d 02 8a 5d 3d
       -0.06057041 0.043172948 0.035838824 0.054086693
0003c0 41 db a7 3c be 06 48 3d 55 99 f8 bc e3 c1 31 bd
       0.02049029 0.048834555 -0.030346552 -0.043397795
0003d0 61 b9 1b bd 8e 41 5b 3d e2 93 76 3d 52 c4 ba 3c
       -0.038018588 0.053529315 0.060199626 0.022798691
0003e0 b4 83 94 bb a9 cf ed 3c 13 65 5d bd a2 e0 cc 3b
       -0.004532302 0.029029684 -0.05405147 0.0062523643
0003f0 93 8f ba bc d8 f8 b8 3c 19 d5 12 bd b1 87 e6 3c
       -0.02277354 0.022579595 -0.035847757 0.028140875

exp_avg f4 [128, 45]
000000 fa 80 6a 39 c4 e6 0d 3a d6 42 1b b9 e6 dc 9f 38
       0.00022364027 0.000541311 -0.0001480685 7.622856e-05
000010 fb b4 a6 b9 1a 56 3a b7 43 72 ba b8 d9 8f ae 38
       -0.00031796828 -1.1106511e-05 -8.890454e-05 8.32376e-05
000020 e0 c0 0f 39 b8 46 4d 3a 4a de 92 b8 35 ec aa ba
       0.00013709394 0.00078306673 -7.003227e-05 -0.0013040366
000030 2b 49 35 b9 2f 5a 97 38 10 e1 93 39 12 05 b0 38
       -0.00017288762 7.217039e-05 0.0002820571 8.3932784e-05
000040 e0 b6 bb 39 54 47 0a 3a e8 70 a0 b6 b6 5e 21 b6
       0.00035803672 0.0005274911 -4.7815156e-06 -2.4045999e-06
000050 a4 b3 06 ba 39 01 75 b9 59 a5 e3 37 95 17 58 b9
       -0.0005138463 -0.00023365476 2.7137505e-05 -0.0002060815
000060 8b 84 d9 38 9b 5b 68 b9 84 6d ba 35 78 16 01 38
       0.000103720544 -0.0002215937 1.3889953e-06 3.0776922e-05
000070 16 f8 b8 36 26 ba 68 35 0d e1 3e ba 22 84 f5 b7
       5.5125083e-06 8.6697617e-07 -0.000728146 -2.9267805e-05
000080 97 1e 64 38 76 4d da 38 a1 be 8b 39 54 5a 1a 39
       5.4387925e-05 0.00010409478 0.00026654176 0.00014720234
000090 9e 69 8e b8 cd 47 2a 39 82 52 ef b9 5a 3c 12 3a
       -6.7907604e-05 0.00016239211 -0.00045647105 0.0005578451
0000a0 59 93 3f 3a 9b c1 3c ba 15 65 bf 39 e2 6d 02 b9
       0.0007308028 -0.00072004803 0.0003650567 -0.000124387
0000b0 d8 aa 9e b9 5d 54 fd b9 bf 03 1e 3a 53 63 63 b9
       -0.00030263397 -0.00048318776 0.000602778 -0.00021685408
0000c0 88 bc 50 ba 76 29 cd b9 ee 88 2c ba 0c 1f 85 38
       -0.00079626637 -0.00039131538 -0.00065816834 6.347717e-05
0000d0 1b ba e9 ba d2 e8 05 ba a7 d9 9c 3a 0a fb 8b bb
       -0.0017831953 -0.00051082403 0.0011966721 -0.0042718695
0000e0 8f c0 72 39 18 c3 37 b9 1a 6c 2b 39 4d 86 5c 38
       0.00023150652 -0.00017524918 0.00016348102 5.2577165e-05
0000f0 b7 ae b4 38 08 7c 55 39 40 52 87 bb 40 5d 9e b7
       8.615612e-05 0.00020359468 -0.004129678 -1.887849e-05
000100 77 90 b1 b9 cc 8d 25 ba ff 75 07 b9 02 65 0b ba
       -0.00033867705 -0.000631538 -0.0001291856 -0.00053174805
000110 82 01 b1 b7 38 b9 9c b9 3c 88 90 b9 d6 92 09 b7
       -2.1100746e-05 -0.00029892637 -0.00027567323 -8.200024e-06
000120 9a 8a f5 b9 46 bb 4f b8 4e d5 12 b8 ea 2c e5 ba
       -0.00046833308 -4.9527058e-05 -3.5007768e-05 -0.0017484699
000130 0e eb 70 ba 0a bb 2e bb db 53 47 3a 3e 82 86 ba
       -0.00091902993 -0.0026661777 0.0007603743 -0.0010262204
000140 2a 1d ef b9 3e 86 de b9 9e a1 46 ba 98 9b 4a b9
       -0.0004560736 -0.00042443158 -0.00075771834 -0.00019322184
000150 d9 2b 00 3b 30 c5 5e 3a 57 e3 da bb a3 bf d6 ba
       0.0019557385 0.0008498011 -0.006679933 -0.0016384016
000160 cc 62 57 ba 7c ff 1c ba e2 9a a8 b8 58 c7 b6 38
       -0.0008216321 -0.0005988998 -8.0397134e-05 8.715567e-05
000170 c0 20 21 b6 fa 78 a9 b8 c1 15 c0 38 64 a2 e9 b6
       -2.4009933e-06 -8.0810816e-05 9.1593254e-05 -6.962846e-06
000180 49 8a a3 b9 0e 68 a8 b8 08 68 63 b8 51 1d 71 ba
       -0.00031192813 -8.030246e-05 -5.4217904e-05 -0.0009197789
000190 71 2d 8e b7 41 6f 8c b9 5f a8 a1 b8 23 20 7a 38
       -1.694888e-05 -0.00026785771 -7.70844e-05 5.9634574e-05
0001a0 6b c5 99 b9 ca a2 15 b8 fa 43 31 ba 91 6b 63 ba
       -0.00029329522 -3.5675977e-05 -0.00067621435 -0.00086753914
0001b0 a4 45 32 b6 5a 95 ca b7 fa 67 31 37 63 35 73 b9
       -2.6564603e-06 -2.4149824e-05 1.0574231e-05 -0.00023194174
0001c0 66 b2 01 b7 2c 96 85 b6 2e 80 41 37 7b 8c 57 37
       -7.730536e-06 -3.981191e-06 1.1533541e-05 1.2847707e-05
0001d0 4c 50 3c b6 d0 7d 79 b7 5d 89 82 b8 37 4f 33 b6
       -2.8060922e-06 -1.487085e-05 -6.224469e-05 -2.6719188e-06
0001e0 50 bd c4 37 fe 4b 03 b9 3d 18 01 ba d0 db 18 ba
       2.3453176e-05 -0.00012521443 -0.0004924571 -0.00058310945
0001f0 be 54 b0 b9 60 57 90 b9 18 f6 d5 b5 b7 69 9e b9
       -0.00033632474 -0.0002753092 -1.5941359e-06 -0.00030214872
000200 03 fe 77 b9 dc 83 66 b9 1c 12 d6 ba 92 05 9b b7
       -0.00023650382 -0.0002198363 -0.0016332301 -1.8480034e-05
000210 95 cb 2e b9 68 36 f5 37 b0 98 19 39 02 c6 57 31
       -0.00016669773 2.923161e-05 0.00014648098 3.1399172e-09
000220 86 e4 15 b5 a9 22 81 36 29 73 0c 38 41 81 4d b7
       -5.583937e-07 3.8485346e-06 3.3485852e-05 -1.2249046e-05
000230 2c eb 85 33 20 53 a1 30 52 6a 9a b7 a5 28 0e b8
       6.2360726e-08 1.1737917e-09 -1.840774e-05 -3.389329e-05
000240 0a 87 0d b7 64 cc a7 b2 e9 1f 41 38 98 a3 24 30
       -8.435696e-06 -1.9534305e-08 4.6044504e-05 5.9895333e-10
000250 45 b6 0f 38 d2 d7 60 34 2a ca c1 35 13 b7 c8 37
       3.426361e-05 2.094014e-07 1.4438458e-06 2.3927108e-05
000260 4e 83 d0 b7 af 7b a3 37 6e d6 05 b8 1a ed 94 b4
       -2.4856676e-05 1.9488709e-05 -3.1909374e-05 -2.7739662e-07
000270 71 15 15 36 e7 a9 3b b7 e8 f0 56 36 3c ee e3 35
       2.221521e-06 -1.1185627e-05 3.202871e-06 1.6982153e-06
000280 72 80 a6 b7 aa e8 7e 35 2a 3b 43 b5 40 fe 22 36
       -1.9848554e-05 9.4960944e-07 -7.2729256e-07 2.4287874e-06
000290 7c 55 0d b0 33 7d 69 35 f1 d1 7e 34 3f f5 f2 36
       -5.141698e-10 8.698145e-07 2.373197e-07 7.2407124e-06
0002a0 29 c7 26 35 d2 a9 34 b7 ad dc f6 35 51 af eb 37
       6.2129635e-07 -1.0768375e-05 1.8392653e-06 2.8095821e-05
0002b0 25 b9 1b b8 0d d4 03 38 5d 73 5b b7 50 2e 43 b7
       -3.712731e-05 3.143032e-05 -1.3080277e-05 -1.1633689e-05
0002c0 bd b3 ea ad 69 6d 81 8d 4b 85 5c b3 6c 96 b4 b7
       -2.668254e-11 -7.976578e-31 -5.134397e-08 -2.1527718e-05
0002d0 a1 0a 95 39 bf 7b 7d 38 02 fb 19 39 7f 10 ab b7
       0.00028427414 6.0435148e-05 0.00014684725 -2.039247e-05
0002e0 78 01 f2 b9 80 b2 04 39 7e 9c 85 39 40 49 c0 38
       -0.0004615893 0.00012654997 0.00025484333 9.168917e-05
0002f0 ca 9d 1e 39 cc ab 3a 39 1d a8 26 b8 f8 a2 6b b9
       0.00015126835 0.00017802342 -3.9734052e-05 -0.00022472057
000300 e7 5f f1 38 48 4a 78 38 f3 5f e1 39 13 2b 2f 39
       0.00011509639 5.9196987e-05 0.00042986832 0.00016705347
000310 31 89 b2 3a 33 a0 ac 39 d4 55 65 35 8b e6 da 36
       0.0013621208 0.00032925754 8.5434044e-07 6.523745e-06
000320 3a af e0 b7 ac 1c 02 b9 71 b3 a6 38 7d 7c a8 b8
       -2.6784477e-05 -0.00012408447 7.9489204e-05 -8.034052e-05
000330 c5 8f ee b6 f4 b5 b4 b8 b8 ad 02 37 ca 9f 6c 39
       -7.1096897e-06 -8.61696e-05 7.789051e-06 0.0002256624
000340 fa 2a 3d 38 d8 7d 66 b6 9c a0 41 b9 46 8b cb 38
       4.5101136e-05 -3.4345921e-06 -0.00018465746 9.705736e-05
000350 92 cf 85 b9 07 7b 32 3a ff a7 e6 39 c0 20 9f 39
       -0.0002552239 0.00068084936 0.00043994185 0.00030351244
000360 4f 7a 0c 39 3a cd 15 b8 a7 04 e3 38 f2 d2 c6 3a
       0.00013397004 -3.57155e-05 0.0001082507 0.0015169068
000370 9b 0f 6d b7 46 64 84 b8 88 7e bd b9 61 d6 fc b7
       -1.4129934e-05 -6.312928e-05 -0.00036143162 -3.0140569e-05
000380 81 8a e0 b8 ba a5 35 38 1f 05 f7 36 5c 30 d6 b8
       -0.00010706951 4.3308108e-05 7.36177e-06 -0.00010213323
000390 4c 9c 73 3a 21 23 93 38 08 70 0d 35 86 0a 98 b9
       0.00092930044 7.0160495e-05 5.268962e-07 -0.0002899954
0003a0 76 8c 9a 39 27 85 ba b9 64 8e cb b6 16 48 8b 39
       0.0002947782 -0.0003557589 -6.066448e-06 0.00026565854
0003b0 09 27 0e b9 db 28 df b8 d9 5f 9c b7 b7 0c cd b8
       -0.00013556717 -0.000106410786 -1.8641282e-05 -9.77753e-05
0003c0 e4 23 3f b9 83 e7 27 b9 cf 3e ea b9 3a 63 5f 35
       -0.0001822855 -0.00016012606 -0.00044678754 8.321837e-07
0003d0 2d 7c 81 b7 40 a3 b0 39 02 ab c3 b9 5a af 72 3a
       -1.5435822e-05 0.00033690967 -0.0003732071 0.0009257697
0003e0 2b c5 45 37 da 62 56 37 da 18 49 39 d5 bf b9 b7
       1.1788022e-05 1.277841e-05 0.00019178112 -2.2143047e-05
0003f0 7e 47 9a 38 ac 34 ab 37 16 63 37 35 ea e0 2c 36
       7.356609e-05 2.0409316e-05 6.8317e-07 2.5760914e-06

exp_avg_sq f4 [128, 45]
000000 18 e8 68 36 89 c0 a4 35 f7 6d 1d 36 01 f3 01 35
       3.470579e-06 1.2274987e-06 2.345883e-06 4.840986e-07
000010 7d 4c 5e 36 1a 59 9d 35 5c 1d d5 35 74 3d 1a 36
       3.31251e-06 1.1723344e-06 1.5878281e-06 2.2983559e-06
000020 df d9 27 35 b1 72 6c 36 fa 6d a0 35 a8 a3 44 37
       6.252939e-07 3.52335e-06 1.1952936e-06 1.1720615e-05
000030 3e f5 bb 34 49 fb 85 33 b5 8c 11 36 2a c4 12 35
       3.5009901e-07 6.2390036e-08 2.1688586e-06 5.4674695e-07
000040 55 52 a8 36 64 2f cf 37 50 69 69 30 d1 d2 a3 34
       5.016375e-06 2.4698391e-05 8.4914564e-10 3.0514505e-07
000050 bb d2 93 35 1a a5 1a 37 a6 fe 11 36 8a 82 4e 35
       1.1013684e-06 9.217556e-06 2.1754909e-06 7.693094e-07
000060 6a b3 82 33 b0 d6 86 34 a8 db 23 30 0d 84 97 34
       6.086232e-08 2.511565e-07 5.9611205e-10 2.822202e-07
000070 b9 0d 34 34 99 b4 13 30 3c c4 ec 35 b0 50 20 36
       1.6768799e-07 5.3734933e-10 1.7640482e-06 2.3888824e-06
000080 96 3d 42 37 a3 98 45 36 ec 7b 3d 36 97 3d e5 35
       1.157764e-05 2.9444134e-06 2.8235327e-06 1.7079755e-06
000090 49 a0 f5 35 75 ee d8 36 ce b8 b3 37 c5 68 f9 37
       1.8300572e-06 6.4650617e-06 2.142452e-05 2.97319e-05
0000a0 f9 d4 5e 37 6e 2c 73 36 42 b0 25 37 fa 2a 9f 35
       1.3281818e-05 3.6235683e-06 9.875805e-06 1.1858931e-06
0000b0 03 6b 2b 36 53 03 08 37 90 93 68 36 c4 ce 9d 36
       2.5543275e-06 8.107006e-06 3.4656587e-06 4.7030353e-06
0000c0 e2 5d 03 36 93 87 06 37 68 30 09 37 dd 13 06 37
       1.9575168e-06 8.018588e-06 8.177107e-06 7.991647e-06
0000d0 2f 99 66 37 56 56 37 36 00 b6 56 37 24 bb 19 37
       1.3744734e-05 2.731938e-06 1.2797769e-05 9.163083e-06
0000e0 96 94 87 37 6b c8 0f 36 73 31 18 35 78 20 3d 36
       1.6162445e-05 2.142532e-06 5.669637e-07 2.8182094e-06
0000f0 32 58 3f 36 86 54 1f 38 b3 b3 88 38 e2 e3 f3 30
       2.8512554e-06 3.7987273e-05 6.518457e-05 1.7745345e-09
000100 5c 39 c5 35 13 3f 78 36 9e fb 4c 37 21 98 7d 36
       1.4694338e-06 3.6991594e-06 1.2217932e-05 3.7788488e-06
000110 d6 ab b6 35 d7 f7 99 34 92 3e ea 34 7b 43 3f 30
       1.3610068e-06 2.8678798e-07 4.3631422e-07 6.958129e-10
000120 2e a2 6f 35 a7 dd 22 35 85 99 6d 31 02 0d 2e 37
       8.927044e-07 6.067225e-07 3.4575305e-09 1.0374237e-05
000130 74 e4 c3 36 e8 2c c4 37 87 7f 6b 37 8c 7a 0c 37
       5.8380483e-06 2.3385932e-05 1.4036784e-05 8.373183e-06
000140 fc 34 7d 37 c3 a9 89 36 50 5a 43 37 1c 91 ac 37
       1.50923115e-05 4.102681e-06 1.1643933e-05 2.057157e-05
000150 65 e5 73 38 8a 9d b5 37 0c 44 0f 38 a9 6c e9 37
       5.8149355e-05 2.1650241e-05 3.415723e-05 2.7826363e-05
000160 0d fa af 37 75 c1 4c 38 99 66 b8 34 62 1a 91 34
       2.0978065e-05 4.881756e-05 3.434732e-07 2.702755e-07
000170 e1 32 9b 34 a4 01 ff 33 78 d4 92 34 34 42 a2 31
       2.890802e-07 1.1874661e-07 2.734921e-07 4.722347e-09
000180 f3 fa 09 35 0f 9d 8d 33 03 7f 60 32 15 43 12 36
       5.1401656e-07 6.594393e-08 1.3067395e-08 2.1794742e-06
000190 e3 8e 0f 33 07 ab e2 34 2e fe 3f 33 40 1f 4f 33
       3.3424737e-08 4.222022e-07 4.4701828e-08 4.8224365e-08
0001a0 cb 7e f9 33 f0 19 e5 32 a6 83 d9 35 14 92 be 35
       1.16180296e-07 2.6670904e-08 1.6206075e-06 1.4198617e-06
0001b0 5f 8f d5 2d 2a 8a e1 32 45 7d 35 34 6a 19 b4 35
       2.4278966e-11 2.6256277e-08 1.6902511e-07 1.3418442e-06
0001c0 02 6c 53 33 44 b6 13 33 86 dd 86 31 4d b1 96 32
       4.92255e-08 3.4391874e-08 3.9250976e-09 1.7542925e-08
0001d0 5f 17 13 2f f5 1e a6 32 ca 97 8e 32 82 4f 0f 2e
       1.3377875e-10 1.9339021e-08 1.6600001e-08 3.2585053e-11
0001e0 14 4f 8c 33 be a4 4a 34 4e 90 0a 35 de 6d b7 35
       6.533642e-08 1.8872649e-07 5.1618997e-07 1.3666538e-06
0001f0 0e a7 61 34 3a f5 9d 34 73 10 57 34 42 32 4f 35
       2.1015532e-07 2.9421955e-07 2.002942e-07 7.7186644e-07
000200 ff 08 82 36 9a 80 7d 33 a8 04 94 36 9b bb cf 33
       3.875349e-06 5.9023115e-08 4.4112858e-06 9.673314e-08
000210 db d5 a6 34 b8 a0 05 35 ae f9 f1 33 8a 44 58 2a
       3.107551e-07 4.978024e-07 1.12678535e-07 1.9208433e-13
000220 2a f4 82 2f 02 a5 2a 30 4c d3 aa 31 2d 45 c3 30
       2.382035e-10 6.208013e-10 4.971673e-09 1.4207778e-09
000230 d3 b0 93 2e 7c 0a b5 2b 36 1b 0d 31 c6 aa 80 31
       6.7161963e-11 1.2863734e-12 2.0533668e-09 3.744705e-09
000240 b5 d5 d2 30 73 9c 1e 2f 79 0a 28 32 40 62 b4 2c
       1.534025e-09 1.4425598e-10 9.781268e-09 5.1268156e-12
000250 af bc 83 31 09 d4 48 2e e4 ef 82 30 aa f2 0d 32
       3.8340526e-09 4.566306e-11 9.526926e-10 8.262456e-09
000260 55 68 3b 31 47 60 0f 31 e7 43 70 31 d8 69 04 2f
       2.7271387e-09 2.0863966e-09 3.4963195e-09 1.2042933e-10
000270 de 28 ed 30 1f 8a 98 31 6b 94 1a 30 81 a8 d5 2f
       1.7255635e-09 4.439485e-09 5.623579e-10 3.8864204e-10
000280 34 70 12 31 be c8 a3 2f 42 89 91 2f c2 5b 08 30
       2.1309576e-09 2.9792163e-10 2.6472874e-10 4.960691e-10
000290 53 41 d5 2d 08 10 9e 2f 03 c2 6a 2f 48 db b7 30
       2.4244306e-11 2.8751423e-10 2.1351103e-10 1.3377326e-09
0002a0 54 61 44 31 da cd fc 30 d0 2e d4 30 db f7 6f 31
       2.8577078e-09 1.839392e-09 1.5438335e-09 3.4919967e-09
0002b0 cd 02 9a 31 81 98 eb 32 d7 37 c7 30 b2 84 b4 30
       4.4823083e-09 2.7426951e-08 1.4495026e-09 1.3134438e-09
0002c0 03 ee f8 2d bc 4f 49 2c 25 ba f4 2e 0e 14 1e 31
       2.8300034e-11 2.860808e-12 1.1128901e-10 2.3003426e-09
0002d0 11 56 43 35 72 2c 17 35 bb db b1 35 36 2f f5 34
       7.2768404e-07 5.631656e-07 1.3251478e-06 4.5669157e-07
0002e0 76 1c 7c 35 d5 56 9e 36 ff cc bf 35 fd 08 3e 36
       9.391873e-07 4.7188755e-06 1.4290271e-06 2.8317438e-06
0002f0 b2 80 48 35 f0 75 7e 35 7a fc ec 35 8f 99 84 36
       7.469308e-07 9.4793995e-07 1.765685e-06 3.951783e-06
000300 1a 0b 67 34 99 91 03 35 d3 03 14 35 1c a5 d0 34
       2.151759e-07 4.9013175e-07 5.513986e-07 3.8863152e-07
000310 db 35 01 37 5a 60 59 37 59 71 32 2f 62 a3 f5 34
       7.701538e-06 1.29566415e-05 1.6229275e-10 4.5753683e-07
000320 cb e6 7a 35 fb 63 44 36 f9 b7 f7 35 a8 bd 32 34
       9.3468105e-07 2.9264472e-06 1.8456477e-06 1.6646538e-07
000330 17 d1 2f 32 2e 40 d9 33 c4 29 84 30 96 b1 96 33
       1.0233882e-08 1.0116524e-07 9.616135e-10 7.017222e-08
000340 ea c5 43 33 2c 50 5d 30 a3 6f 38 36 e5 09 c3 35
       4.5581977e-08 8.051326e-10 2.7483118e-06 1.4531512e-06
000350 c5 b1 af 36 96 c2 72 36 34 29 e6 35 3b 38 23 36
       5.2361015e-06 3.6174074e-06 1.7148327e-06 2.4321623e-06
000360 5b 86 be 35 21 fa 8c 35 e2 21 34 35 24 83 1b 38
       1.4195206e-06 1.050361e-06 6.710453e-07 3.7077014e-05
000370 8f 72 33 34 da 02 03 37 11 1b 06 36 1b 8c fe 35
       1.671235e-07 7.808872e-06 1.998331e-06 1.8965251e-06
000380 e8 99 7b 35 7d 3c 51 34 25 2d 65 34 9d 60 bd 33
       9.372875e-07 1.9486647e-07 2.134371e-07 8.818572e-08
000390 c1 57 ad 34 ad 5a 26 35 12 c0 c7 33 cf 05 55 35
       3.228761e-07 6.197177e-07 9.301597e-08 7.9357136e-07
0003a0 e2 5c 45 35 4e a4 b3 35 2e 35 27 35 45 2a a6 34
       7.352338e-07 1.3384358e-06 6.2289735e-07 3.0950665e-07
0003b0 8b 41 c8 35 15 94 4d 34 e1 de 01 33 d8 d2 03 35
       1.4920237e-06 1.9145985e-07 3.023786e-08 4.910812e-07
0003c0 7a f3 d3 34 42 b7 bc 35 1a f6 8e 36 01 91 a8 2e
       3.9478965e-07 1.4060427e-06 4.2605798e-06 7.6655134e-11
0003d0 ed 71 27 33 08 e9 c4 34 fc a5 35 36 95 84 22 35
       3.8986332e-08 3.6677397e-07 2.7067717e-06 6.0542635e-07
0003e0 15 d7 8e 33 14 54 87 33 b2 cd a3 33 76 6f 26 31
       6.6515135e-08 6.301721e-08 7.627695e-08 2.4219537e-09
0003f0 42 ba c9 33 b3 10 19 34 54 6e 0b 2f 3e e9 40 34
       9.393672e-08 1.425531e-07 1.2681173e-10 1.7966246e-07
