models/regression_models/ML_including_industry_feature/single_dimension/being_empty/version_best/checkpoints/epoch=59-step=1860.ckpt (torch, 480459 bytes, 15 tensors)

network.0.weight f4 [128, 45]
00000000: a47d 9c3d 410c 78bc 2b63 2bbd e33c b93d
00000010: 16cc 37bd a270 9c3c 6f81 f6bb 7da9 fe3c
00000020: b7b3 b0bb e84d d13d 6238 a7bd b42b 843d
00000030: d34a 40bd dc3f 0cbc 7dbe 1cbd db7f a3bb
00000040: 7276 273c cb18 9f3b 26c5 933a 8923 0b3d
00000050: 3b95 b0bd a224 04bd d707 29bd 725a 5fbc
00000060: f0fc 023c b2f2 06bd 17c3 cdbc 8b98 ab3d
00000070: 0ee5 f03c 6d1f 923a acaf b03d 0052 91bd
00000080: d189 a4bd 32e6 86bd 951b e33d 45a3 eb3d
00000090: aa28 d63d 1c9f a13d 90fa 3abd 1baf 8cbd
000000a0: a8f4 04bd a40f 0a3e e3de 7bbd 8801 4ebd
000000b0: c1c8 563d c256 543c 4727 44bc c0f4 71ba
000000c0: 2a2d 503d b0ae 513c 4f52 20b9 5f43 cbb9
000000d0: 8aae 853d 1544 0f3d a888 7d3d 9c32 2f3c
000000e0: bf6e e6bc 1d0e 7f3d 1e44 d13b 4539 0ebd
000000f0: c651 86bb d88a 823b dcf2 b5bc 5175 a438
00000100: 03f5 b7ba 18ce bfbc 62e2 093d f030 6b3c
00000110: dd18 b239 ffbf 063c 0e05 82bb 5a9c 83bc
00000120: 06c6 33bc 3a17 113d cdd4 9e38 7ae2 1b3d
00000130: 7bdf 7c3c bd5a ad3d b906 db3a 539d 9bbc
00000140: b146 c53d 24ea 973d 156c ba3a 6ce0 f70d
00000150: e840 3a3c d21d a3bc f3ab b8bc 19b7 1f3d
00000160: dc9a 2c3a 3be9 ecbb bd6c 963d 9d6f 403d
00000170: 0018 1f3d 25ba 993d 2bfa e03d 0268 bdbd
00000180: 5868 9b3d 2909 8f3c 3e45 833d ce74 d6bd
00000190: b120 a13d f537 d7bd f45a 9fbd 8734 2c3c
000001a0: 07f5 a2bd e07d f93b af64 f53d 5798 18be
000001b0: e4e7 62bb eafd fbbd a761 633d cede 413c
000001c0: ad1a a23d 55e8 b0bc 04de b23d a83a 223c
000001d0: 4be1 37bb 5406 abbd 50f9 9dbc 33a3 63bb
000001e0: 7759 823a 3034 053e 0c65 8dbd b253 f13d
000001f0: 0389 6ebd 1e42 043e a851 a9bd d652 a9bd
00000200: edea c63d 7503 0b3e 6e14 853d ab91 233d
00000210: d17a fd3d 70a6 35bd 6f10 c43d cdb4 0cbd
00000220: ecd5 d0bd 4226 f5bc fb5b c83c 1cd0 e6bc
00000230: 9d30 8ebd 5d28 a23d 4860 bb3d 2be1 54bd
00000240: 8d3f cdbc 65ec a4bd db84 be3d 8eec b13d
00000250: 744e 413d 304c 80bd af25 69bd e0ff 4a3d
00000260: 0c1e 423b ef85 c13c 045b b13d e0ae 6b3d
00000270: a079 8b3d b354 303d b0f6 bbbd c4ed c83c
00000280: d2c8 c6bd 0f71 853b b799 253d 1e5d f93c
00000290: 56d7 c43b aab0 cdbd f919 87bc 792f 903c
000002a0: c0d1 d7bd 43e9 70bb db03 efbd cbb5 e03d
000002b0: 87d1 d33d e375 0cbc e64f 733d 82a5 9fbd
000002c0: fe8c f63d c7e8 993d 95d9 b9bd c542 ef3d
000002d0: 7a69 cebd 9c87 083e 85aa 053e f9f4 1c3d
000002e0: 0371 783d 463d 83bc 030b 2f3c e9f3 32bb
000002f0: f1eb b1bd caf9 2ebb 740b 16bd 0259 45bd
00000300: f7bc 163e f2cf 1c3d 3169 b33c 4988 b23d
00000310: 9c9c e6bd 994d 903d e929 c7bb 9692 f43c
00000320: fc64 fa3d ab5f fb3c 9df0 163e 95e3 523c
00000330: e7f8 43bd 3fc0 19bd 7af5 cdbb 841d 3e3d
00000340: 6237 47bd e512 b5bc 6e89 80bd 470d f93d
00000350: ca85 81bd 634b bcbc 36f8 c7bd 369c c1bd
00000360: 0c24 023d ed42 a23d e5c3 ea3c 65f3 313d
00000370: 7ea9 053d 9ef2 edbb bb3b 1c3c 01a0 db3d
00000380: 652b 2aba 4474 b8bc 7683 42bc d8c3 aa3d
00000390: 6253 b13d 89c4 84bd c4bc fe3c eb70 ab3d
000003a0: 418d 88bd ae7e 37bd b773 86bd 1762 ebbd
000003b0: 1e67 b33d b610 e5ba cd51 a1bd 1813 203d
000003c0: 800d b9bd 6bae 9d3d 7a1c 83bd 47aa f83c
000003d0: c906 923c 6786 d83d 613f 0dbc 4599 96bc
000003e0: fa27 6c3a 2036 48bd a300 73bc 5b35 3eba
000003f0: bd37 77bd f191 f93c ff96 3dba 52e0 cfbd
0.076411515 -0.01513964 -0.04184262 0.09044816 -0.044872366 0.019096676 -0.007522754 0.031086678
-0.0053925174 0.102199376 -0.08165051 0.06453648 -0.046946358 -0.008560147 -0.0382676 -0.004989607
0.010221111 0.0048552505 0.0011273965 0.033969436 -0.086222135 -0.0322615 -0.041267242 -0.013632404
0.007994875 -0.032946296 -0.02511744 0.08378705 0.029406097 0.0011148282 0.08627257 -0.070957184
-0.08034099 -0.06586875 0.11089245 0.115057506 0.10456975 0.07891676 -0.04564911 -0.06869336
-0.032459885 0.13482529 -0.06149186 -0.05029443 0.052437548 0.012960138 -0.011972255 -0.0009229891
0.05082432 0.012797996 -0.00015289451 -0.00038769373 0.06527431 0.034977037 0.061897904 0.010693219
-0.02812898 0.06226932 0.006386294 -0.034722585 -0.0040991036 0.0039838366 -0.022210531 7.841981e-05
-0.0014034811 -0.023413703 0.03366316 0.014354929 0.0003396933 0.008224486 -0.0039678877 -0.016065765
-0.010972505 0.03542254 7.573664e-05 0.03805778 0.015434141 0.084645726 0.0016710378 -0.018995916
0.09632624 0.07417706 0.0014222885 1.5276578e-30 0.011368014 -0.01991168 -0.02254293 0.038992975
0.0006584355 -0.0072299517 0.07344959 0.046981443 0.038841248 0.075062074 0.10985216 -0.092483535
0.07588261 0.017460423 0.06409691 -0.104714975 0.078675635 -0.1050872 -0.0778102 0.01051057
-0.079568915 0.0076138824 0.119820945 -0.14901863 -0.003462308 -0.1230429 0.05551305 0.011832906
0.07915244 -0.02159516 0.08733752 0.00990168 -0.002805787 -0.08350816 -0.01928392 -0.0034734725
0.0009944875 0.13008189 -0.06904039 0.11783542 -0.058236133 0.12915847 -0.08267528 -0.08267753
0.09712777 0.13575538 0.06498037 0.03993384 0.12376941 -0.04434818 0.09573447 -0.034352113
-0.10197052 -0.02992547 0.024457922 -0.028175406 -0.06942866 0.07917855 0.091492236 -0.05197255
-0.025054717 -0.08052901 0.09302684 0.08687697 0.04719396 -0.062645316 -0.056920704 0.049560428
0.002961996 0.023623435 0.08659938 0.05753982 0.068103075 0.043049525 -0.09177911 0.024527438
-0.09706272 0.0040723155 0.040429797 0.03043991 0.0060071154 -0.100434616 -0.016491877 0.017600762
-0.105380535 -0.0036760129 -0.11670657 0.10972174 0.103426985 -0.008573028 0.05940237 -0.0779524
0.12038611 0.07515102 -0.090747036 0.11682657 -0.10078712 0.13332981 0.1305333 0.03831956
0.06065465 -0.016020428 0.010683778 -0.0027306026 -0.086875804 -0.002669918 -0.036632016 -0.048180588
0.14720522 0.03828425 0.021900745 0.087174006 -0.112603396 0.070460506 -0.006077994 0.029855054
0.122262925 0.030685266 0.14740224 0.012871643 -0.047844794 -0.037536856 -0.0062853666 0.046414867
-0.0486368 -0.022103736 -0.06276213 0.121607356 -0.06324346 -0.022985166 -0.09764139 -0.09453623
0.03177266 0.07922921 0.028657863 0.04344501 0.032632343 -0.0072615882 0.009535725 0.10723878
-0.00064914516 -0.022516377 -0.011872163 0.083381355 0.08658482 -0.064827986 0.03109587 0.08371147
-0.06667567 -0.044798546 -0.065650396 -0.114933185 0.087599024 -0.0017476294 -0.078769304 0.03908071
-0.09035778 0.07699283 -0.06401916 0.030354632 0.017825501 0.1057251 -0.008621068 -0.018383631
0.00090086425 -0.048879743 -0.014831695 -0.00072558754 -0.06035589 0.030465098 -0.0007232278 -0.101502076

network.0.bias f4 [128]
00000000: dfaf 8cbd 54a0 ecbd a103 c2bd 22d3 6d3c
00000010: 73af f43d 8174 8f3c 8968 edbd 1ebf 71bd
00000020: 2cea bbbd 6e0d 053d 3c32 acbd 95e7 c13d
00000030: 25a5 bfbd a280 bfbc d1d6 76bd f90d e8bd
00000040: fcbf 05be 602d df3d 7859 df3d 0dc8 d9bd
00000050: 2dfc 553d 87e8 3e3d f713 d23c c5cc 6fbd
00000060: f357 6cbc 2da3 51bd 7b3f 953d 14bb cebd
00000070: b9fa da3d 25fa 523d d861 d43d 70f6 f4bd
00000080: 20d9 0a3d 9f41 813c ec7d 44bd c0c1 333d
00000090: 41c0 11bd 7e4d 873d bc5f acbd 536c f6bd
000000a0: 5787 0bbb a42f 5e3d c01b ecbd e97e 2ebd
000000b0: c10e 56bc 4dac 8c3d de58 793b 51da 64bd
000000c0: dfe6 bf3d 215c 27bb b02d 033e f0a6 8ebd
000000d0: 4054 00be 3380 d3bb 02b2 023e f84b fabd
000000e0: 0a30 0d3e ae31 083e fe5f febc 53e7 143e
000000f0: 2d52 fbbd 2055 a9bd 76c3 813d 1514 a33c
00000100: e572 8f3b 6ff8 82bc 5ece d7bd 1e15 933d
00000110: f11a 003d 6306 e43d 05c4 043e 1b80 cc3d
00000120: c9ac a9bd 102c c4bd 2d83 733d 16d9 b5bd
00000130: 08ad 943d e1d3 ec3d 4e2e f839 5419 cf3d
00000140: 00ea 293d 7cd8 97bd e512 c73d 821e bb3b
00000150: cee1 c6bd e92b 19bd b683 793d 07c0 603d
00000160: a57a b6bd 710f 81bd a505 39bd be67 efbd
00000170: 0ec4 95bd 7275 cc3d 8d92 02be 1690 da3d
00000180: 0597 07be 5eee 02bd 5ee8 e4bd e149 f9bd
00000190: a5e1 4b3d d06b ab3d 3e87 053e 603d af3d
000001a0: c7ae 13bb d79c 0ebd e651 d3bd 2dd2 0a3e
000001b0: ead8 d8bd d1b6 f73c ac13 873d f4e2 97bd
000001c0: 75ff e8bd caac c63c a321 423d d2d1 90bd
000001d0: 8642 8bbd 6d3f 94bd ab54 a03d 2270 de3c
000001e0: 8428 5e3d cbce 52bc c349 8bbd 0326 083e
000001f0: c449 003e 4081 58bd f7e7 d93c 25b2 003e
-0.06869482 -0.11554018 -0.094733484 0.01451567 0.11947527 0.017511608 -0.11592204 -0.059020154
-0.09175524 0.03248351 -0.08408019 0.09467999 -0.09357671 -0.023376767 -0.06026346 -0.1133079
-0.13061517 0.108973265 0.10905737 -0.1063386 0.052242447 0.046608474 0.025644286 -0.058544893
-0.014425266 -0.051181007 0.072874986 -0.10094276 0.10692353 0.051508088 0.10370225 -0.11961067
0.033898473 0.01577836 -0.04797165 0.043885946 -0.03558374 0.06606577 -0.084166974 -0.1203238
-0.0021290386 0.054244652 -0.115287304 -0.0426015 -0.013065041 0.06868801 0.0038047354 -0.055872265
0.09370207 -0.002553709 0.12810397 -0.069654346 -0.12532139 -0.0064544915 0.12763217 -0.12221521
0.13787857 0.13300201 -0.031051632 0.14541368 -0.12271533 -0.082681894 0.06336109 0.019907037
0.00437771 -0.015987603 -0.10537408 0.07181762 0.031275693 0.11134031 0.129654 0.09985372
-0.08284909 -0.09578717 0.05945127 -0.088792965 0.072595656 0.1156385 0.00047336746 0.10112253
0.041482925 -0.07414338 0.09720401 0.005710424 -0.097110376 -0.03739539 0.060916625 0.05487063
-0.08910111 -0.06301773 -0.0451714 -0.11689709 -0.07312785 0.099833384 -0.12751217 0.106720135
-0.13241203 -0.031965606 -0.11177133 -0.121722944 0.04977574 0.08370173 0.13039872 0.08556628
-0.0022534595 -0.034817543 -0.10318355 0.13556738 -0.10588248 0.03023854 0.06595549 -0.07416335
-0.113768496 0.024252314 0.04739536 -0.0707127 -0.06799798 -0.0723866 0.07828649 0.027153078
0.054237857 -0.012866686 -0.06801178 0.1329575 0.1252814 -0.052857637 0.026599867 0.12567957

network.3.weight f4 [256, 128]
00000000: ccba 393c 0f97 843b 6658 3dbd b329 c13b
00000010: 7fe3 8abd 036f 1d3d 36b3 323d dc68 0cbd
00000020: 9425 49bd ec8a 483d a2d4 583c 0ed4 c4bc
00000030: 4c6d 2e3a aeb7 84bc 8a58 1ebd 140e 613c
00000040: 7f37 98bc 7cd5 90bc 5f63 a73d a4b9 15bc
00000050: 4819 91bd 13a5 92bb 48ce 833d 4a38 8a3d
00000060: 4c7c bb3c 7b54 0fbd 0cc8 f13c bc0c a2ba
00000070: c5ef f5bc 12e5 903d cf9a 5cbd 2494 91bb
00000080: 5b7e a63c a263 ce3c d786 2bbc 3412 783d
00000090: 47ba d73b 246d ccbc e09c bcbc 607a 34bd
000000a0: b5af 01bd 3ea9 4bbd 17bf 82bc 61af c5bb
000000b0: 5ceb 75bd ddb1 20ba 4e51 63bd 0e9e df3c
000000c0: 1ef2 80bd 19d6 563c 0c51 163d aacc 123c
000000d0: 36ab daba 7f08 4cbc 7269 52bd b4c2 9cbc
000000e0: 22bf f73c 30c1 55bc 4e83 160d ffe8 93bc
000000f0: 5cad 1d3d ca5f c6bc e176 5bbc 5969 41bc
00000100: c518 603d a5f5 f73c 43ba d8bb 834d a13b
00000110: 3343 1b3d 567d 593d 77cf ffbc f136 7abd
00000120: 7d74 16bd 6cfc 13bc 73fa 813d d003 0abc
00000130: 6385 49bc 2afe 8a3d 60e0 aebc 9b40 923d
00000140: 2220 4a3d 8672 343c 662a 8a3c e46a 85bc
00000150: cf26 e5bc 35cb 8e3c 86e5 4dbd bf3a 38bc
00000160: 2390 b039 7fe1 3d3b 974e d2bc f599 4b3d
00000170: cd1d 6ab8 6a85 93bc 3973 dd3b ada3 24bb
00000180: 4f79 12bc 1d04 2abb 1041 923c 007a abbb
00000190: 6a31 f23c 0a85 903c 4d68 8dbd 927b 683d
000001a0: d47c fd3b e582 a93b 2f92 e23c 617b 20bb
000001b0: b675 cdb9 3cde e5bc a5f2 ab3c 08dc 703c
000001c0: c1d0 e5bb 5fc0 a43c f63c e13c 05d8 44bc
000001d0: bf49 c23b 0f4a babc 5373 02bd 8365 b43c
000001e0: 0f16 35bd 8f2b a8bc f08d 033c 3525 3c3d
000001f0: 7cc7 89bb 41d1 6ebd 2437 b0bc 892e 8bbb
00000200: e576 353d 0470 153b 41a4 a4bc 5a6a 78bc
00000210: b680 2abd cb16 9d3c 5272 a7bc c8de 87bb
00000220: 74e1 783c 4cb8 4f3d 0ee9 573d a478 8abd
00000230: 398a 083a 90e1 4b3b c415 9abb aea0 be3c
00000240: ba7a 3aba 2205 613d de24 843c 99e0 48bd
00000250: cd67 85bd 9988 0bbc c0bf 603c 89c5 7d3a
00000260: 3b0b fb39 ce18 743b bd6e bf3c 8200 1dbb
00000270: 3d98 993d 5ccb f7bc 5eec 7bbd 084b da3c
00000280: e1cc 3ebd 2738 9e3b b32f 88bd 598a 643d
00000290: aa30 473d 9196 b33b 95fa ed3b 90b1 05b9
000002a0: 29f6 0f3c 0e6c ae3b 9c88 53bc 9eef 843d
000002b0: d609 033d a7cb 9fbc 268c 363d 6a97 a2bb
000002c0: e61c 063d 8b9b e5bc 2987 0e3d cdba f6bc
000002d0: d8ce 71bc fe64 25bd 7e13 383d 0b6c 30bc
000002e0: eaa8 f5bc c87a b0bb b279 53b8 9146 28bd
000002f0: 6319 fe3c 2844 aabc a606 7fbd 6ede 60bd
00000300: 806e 8fbc 5ae8 ecbc e25e bd39 6195 2d3d
00000310: 5ec5 04bc 817e c73c 4370 46bd 1c65 323d
00000320: 603e 31bd 0cd3 72bd 008a 923c 0c1b fdbc
00000330: 876c 31bd 7ce2 6dbd 1983 1a3d 00ab 513c
00000340: c4f9 463d 45d4 91ba 7e34 1a3d 752f bd3c
00000350: 17a3 a3bc c345 fc3c 609f 9b3c 41bf 9a3d
00000360: db75 9cbb c6b6 413b eb1d bf3c 3dbb 7b3c
00000370: f141 05b8 c084 8c3d f148 813c e96d 3f3d
00000380: 79ee 413c 36e7 e8bc ca93 29bb 8464 68bb
00000390: 6827 aebc d20c 7dbc 22a5 393d 6254 203d
000003a0: bc23 5ebc 5ac9 be3b 7e1a 35bd c960 80bd
000003b0: 2937 843c 6168 ffbc 697e 8a3c 1462 e93b
000003c0: cfef 40bd d672 18bc e723 8f3d 80bd 123d
000003d0: c021 533c 0a89 82bb ed0f 02bd 07a2 82bc
000003e0: 7323 8a3d c414 0e3d 8014 ac3c b2c7 96bc
000003f0: fcad 8c3d bac9 97bb 8207 883d 6d36 d3bc
0.01133604 0.004046328 -0.04622688 0.0058948635 -0.06781673 0.038435947 0.04362794 -0.03427969
-0.049108103 0.04896061 0.013234289 -0.024026897 0.000665386 -0.016200867 -0.038658656 0.013736267
-0.01858115 -0.017679922 0.081732504 -0.009138498 -0.070849 -0.004475245 0.064358294 0.067490175
0.022886418 -0.034992676 0.029514335 -0.0012363414 -0.030021558 0.07074942 -0.053858574 -0.0044427086
0.020323923 0.025193993 -0.01046916 0.060564235 0.0065834853 -0.024954386 -0.023024023 -0.04406202
-0.031661708 -0.04972195 -0.01596026 -0.0060328697 -0.06003891 -0.00061300193 -0.05549746 0.027297046
-0.0629618 0.013112568 0.036698386 0.0089599285 -0.0016683105 -0.0124531975 -0.05137009 -0.01913581
0.030242506 -0.013046548 4.638037e-31 -0.018055437 0.038495407 -0.024215598 -0.013395042 -0.011804902
0.054711122 0.0302685 -0.006614001 0.00492257 0.037905883 0.053098045 -0.031226857 -0.061087552
-0.036732186 -0.00903235 0.063465975 -0.0084237605 -0.012299868 0.06786759 -0.021347225 0.07141229
0.04934705 0.011013633 0.01686592 -0.016286321 -0.027972607 0.017430881 -0.05026772 -0.011244475
0.00033676726 0.0028973517 -0.02567224 0.04970737 -5.58177e-05 -0.018007953 0.0067581204 -0.0025121972
-0.008940055 -0.0025942393 0.01785329 -0.0052330494 0.029564578 0.017641563 -0.069046594 0.05675847
0.007735828 0.0051730745 0.027657596 -0.0024487602 -0.00039188348 -0.028060071 0.020989725 0.014700897
-0.007013411 0.020111261 0.027494889 -0.012014394 0.0059292014 -0.022740392 -0.031848263 0.02202106
-0.04421049 -0.020528583 0.008029446 0.04593392 -0.0042046886 -0.05830503 -0.021510668 -0.004247491
0.04430284 0.0022802362 -0.020097854 -0.015162075 -0.041626655 0.019175908 -0.020440254 -0.0041464306
0.015190471 0.05071287 0.052712493 -0.067612916 0.0005208585 0.0031109788 -0.0047023017 0.023269977
-0.00071136246 0.054936536 0.01613086 -0.049042318 -0.06513939 -0.008516454 0.013717592 0.0009680619
0.00047882818 0.003724623 0.023368234 -0.0023956602 0.0749974 -0.030248336 -0.061504714 0.026647106
-0.046582107 0.004828471 -0.06649723 0.055796 0.048630394 0.0054805954 0.0072625377 -0.00012750016
0.0087867165 0.0053229397 -0.012910988 0.06491016 0.031991802 -0.019506289 0.04456725 -0.0049618976
0.032742403 -0.02802827 0.034796868 -0.03011837 -0.014758788 -0.040379517 0.044940464 -0.010767947
-0.029987771 -0.0053857304 -5.0419658e-05 -0.041082922 0.031017965 -0.020784453 -0.0622622 -0.054899625
-0.017508745 -0.028919388 0.00036119582 0.042378787 -0.008103697 0.024352314 -0.048446905 0.043553457
-0.043272376 -0.0592833 0.01788807 -0.030896686 -0.04331639 -0.05807732 0.03772268 0.012797117
0.04857804 -0.0011125883 0.037647717 0.023093918 -0.019975228 0.030794984 0.018996894 0.0755601
-0.0047747917 0.0029558404 0.023329696 0.015364465 -3.1771084e-05 0.068612576 0.015781851 0.046735678
0.0118366415 -0.028430562 -0.0025875443 -0.0035460303 -0.021259025 -0.015444951 0.0453235 0.039142974
-0.013558324 0.005822343 -0.044214718 -0.0626846 0.016139584 -0.031177701 0.01690598 0.0071222875
-0.0471037 -0.009304723 0.0698927 0.035825253 0.012886465 -0.0039836215 -0.03175347 -0.015946401
0.06745043 0.034687772 0.021005869 -0.018405769 0.068691224 -0.004632202 0.06642057 -0.025782788

network.3.bias f4 [256]
00000000: c0cf b43d 0840 b93c d7a6 8f3b 5753 f9bc
00000010: c180 df3c 2ef9 eabc 9322 b9bc 2903 213d
00000020: 1133 b83d b473 933d 4478 f83c 262c f4bc
00000030: 9763 ffbc bb61 96bd ce61 92bb 82e1 38bd
00000040: 6b49 96ba 8433 87bd 3c25 83bd ba8c e63c
00000050: 8095 48bd 7481 573d a1c0 6ebc 2142 943a
00000060: aa05 cebc 0697 c4bc 32df 493b 2cb3 5ebd
00000070: ccc2 833c dc4f 123d c466 37bd 2718 19bd
00000080: c6d8 5e3d 79e0 0e3b a03c 3cbd ac0d 7abd
00000090: 7b60 7d3d c38e 903d 3e5f b33c 3d66 d0bc
000000a0: 15cd 973d 9203 0fbd 7afc dfbb 8dc2 6a3d
000000b0: 442c 7dbd 12ec edbc adbe fa3c e0fa b63c
000000c0: a6b1 3b3d 7319 37bd e33c 97bd 67a2 aabc
000000d0: d185 7bbd 8cbe 613c 3e9a 2dbd 718c 433d
000000e0: 8ca7 11bd 27de 123c 5fcb 503c 355a 1bbb
000000f0: 3d3a 04bd 9a1b 71bd 0f13 05bd 9995 1c3d
00000100: ca89 8f3d 3432 78bd 893a 9c3d e79c ed3c
00000110: 5ed9 c1bc 5470 27bd 5b37 aabd 2a33 073b
00000120: 3caf 713c 33a4 af3c 8f36 2d3c 4101 d23b
00000130: 9aa5 5fbd d7c8 0b3c 3df6 353d 2002 f0ba
00000140: 0f78 8abc 096f 38bd bd67 533c 431e d73c
00000150: 143f 7cbc 3cda 413d fe92 853d 73ef 4ebd
00000160: fae7 a03d e8ea 28bc edbe 9b3c e6f2 453c
00000170: 013d b6bc 5a66 083c 61fe 84bd 6343 283d
00000180: 7f1b 393d 088d 30bd 005d 09bd 9759 933d
00000190: 645e 84bd 0859 9c3d ea94 ecbc c3fc 82bd
000001a0: 7ffb 9b3d 631e 00bd 68cf 54bc 354d 733d
000001b0: ffcf 4b3d 3de5 0cbd 6dbe 573d 81ac 743d
000001c0: 0d74 dd3b d6e8 05bd f7c7 073d 26ff 51bc
000001d0: 6e45 1dbd 9081 a53c 743c 3f3d 898c 8d3d
000001e0: 5422 313d 474a 96bd 1bca 993d 1be5 ab3b
000001f0: 949e 223c 46f9 0e3d 8a83 13bc 3db8 99bc
00000200: 59c4 b2bc 245a 923d 93d1 8e3d bd39 a3bc
00000210: abd8 7e3d d7b0 29bc f007 4dbd 5eba 553c
00000220: 8a63 cbbc 908c 573d 8eec ad3c b2a9 3c3d
00000230: 4913 aa3d afed bf3c 312c 18bd c452 82bc
00000240: 71ff 6c3d 200e 14bd cd84 9f3d 0e73 213d
00000250: 7dbb 54bd 508f a33c 7ce3 3e3c 95bc 4a3d
00000260: e479 b53c 94b9 0bbc ccbd 40bb 5791 84bd
00000270: abaf dbbc d0a8 abbb 9eeb 8ebd 1e84 23bc
00000280: 7704 2abd 4659 51bc 22ec 3ebc 94b6 883d
00000290: 3b6c 47bd 107b b33c 8c33 073d 3d44 ca3c
000002a0: f870 3f3d 6589 73bd a540 d7bb ca59 90bc
000002b0: 94ee 963d c168 5c3d 0bf5 8a3d 7910 573d
000002c0: 6d9f 36bc 59a4 66bd d2f1 593d 2663 a3ba
000002d0: c554 b2bd ebcb 02bd d74e 8cbd 2532 a63b
000002e0: ad51 063d c512 febc a721 b43d 7dae 103d
000002f0: 359c 6fbd 6445 f03c f89f d6bc 99e2 afbd
00000300: cad7 a7ba 0739 e53c b0a1 1f3d c4a7 523d
00000310: 0527 88bd fea0 30bd 1df9 26bb b049 b23d
00000320: 3909 4c3d 1f7e 8ebd 23c5 7abd f4f4 013d
00000330: 9ce7 543d cee0 063c 92a7 32bd 1dee 95bd
00000340: 21b3 753d 96f0 603d e05d 8cbd 4f5c 7b3d
00000350: bc53 e8bc 4e92 20bb 5543 66bc 3c1f 673d
00000360: 2ef3 9f3d 315c 8ebc f16a 30bc 89d2 cfbc
00000370: fdab adbc 9111 573d 40e2 b63a fdad 88bd
00000380: 3ef5 d1bb d8df 1abd f08a 55bd f46e 40bd
00000390: 11c7 42bd 93d9 6a3c d078 37bd da04 9c3d
000003a0: 6ed2 3bbd 8ac8 9e3d 715c a73d e915 913c
000003b0: dcb1 8c3d 1479 a9bd d4ce 853d 274e 59bd
000003c0: 4082 83bd 54e2 b93a ffe3 39bc 3914 53bd
000003d0: 0586 b8ba 3752 8b3d 9964 0f3d 38f6 893b
000003e0: 74ab 113d a711 8abd 6690 8d3c ef61 edbc
000003f0: 3aea 8f3b 8b42 043d 3b2f f9bc 8747 993d
0.08828688 0.02261354 0.0043839025 -0.030435247 0.027283074 -0.028683271 -0.022599494 0.039309654
0.08994115 0.07199803 0.030330785 -0.029806208 -0.031175418 -0.07342859 -0.0044672256 -0.045136936
-0.0011465972 -0.06601623 -0.06403586 0.028143276 -0.0489707 0.05261369 -0.0145722935 0.0011311212
-0.025149185 -0.023997795 0.00308032 -0.05437009 0.016084097 0.03572069 -0.04477574 -0.03737655
0.05440595 0.0021801277 -0.045956254 -0.061048195 0.06185959 0.0705848 0.021896001 -0.025439376
0.07412163 -0.034915514 -0.0068355175 0.057314444 -0.061809793 -0.029043231 0.0306085 0.022336423
0.045823716 -0.044702005 -0.0738466 -0.020829393 -0.061406914 0.01377834 -0.042383425 0.047741357
-0.035560176 0.008964098 0.0127438 -0.002370489 -0.032282103 -0.058864214 -0.03248888 0.038228605
0.07008703 -0.060594752 0.07628352 0.02900548 -0.023663219 -0.04087861 -0.083113395 0.0020629861
0.014751252 0.021440601 0.01057209 0.006408841 -0.05460129 0.008531771 0.044424284 -0.001831118
-0.016902952 -0.045027766 0.012903151 0.026259547 -0.015395898 0.047327265 0.06522177 -0.050521325
0.07856746 -0.010309912 0.019011939 0.012081837 -0.022245886 0.008325184 -0.064938314 0.04107989
0.045192238 -0.043103248 -0.033535957 0.07194822 -0.06463316 0.07634169 -0.028879602 -0.06395867
0.076163284 -0.03127898 -0.012988903 0.059399802 0.049758907 -0.034398306 0.05267184 0.059734825
0.006758219 -0.032692753 0.033149686 -0.01281718 -0.03839629 0.020203382 0.046688512 0.069115706
0.04324563 -0.07338386 0.07509252 0.0052458174 0.009925503 0.034905694 -0.009003529 -0.01876461
-0.021822141 0.07146099 0.06973567 -0.019924993 0.06221835 -0.010357103 -0.050056398 0.013044922
-0.024827737 0.052624285 0.021230962 0.04606027 0.083044596 0.023428766 -0.03715152 -0.015908606
0.057860795 -0.036146283 0.077890016 0.039416365 -0.051936615 0.019965798 0.011650916 0.049496252
0.022152849 -0.008528132 -0.0029410003 -0.06473034 -0.026817163 -0.00523863 -0.06978534 -0.00998023
-0.041508164 -0.012777632 -0.011652978 0.06675449 -0.0486872 0.021909267 0.033008143 0.024690742
0.046738595 -0.0594572 -0.0065689855 -0.01762094 0.07369724 0.05381084 0.067850195 0.052505944
-0.0111464085 -0.056309078 0.053209133 -0.0012465462 -0.08707575 -0.031932753 -0.06850975 0.0050718957
0.032792736 -0.03101481 0.08795481 0.035322655 -0.05849858 0.029329963 -0.026199326 -0.08588142
-0.0012805399 0.027981294 0.038972557 0.051429525 -0.066480674 -0.043122284 -0.0025478073 0.08705461
0.049813483 -0.069576494 -0.06122316 0.031727746 0.051978692 0.008232309 -0.04361684 -0.07320807
0.059985284 0.05491694 -0.06853843 0.06136733 -0.02836024 -0.0024501267 -0.014054139 0.05642627
0.07810055 -0.017377945 -0.010767684 -0.025368946 -0.021200174 0.052506987 0.0013952926 -0.06673811
-0.006407409 -0.03781113 -0.052134454 -0.046980813 -0.047553126 0.0143341 -0.04479295 0.07618113
-0.04585498 0.077530935 0.08171929 0.017710643 0.068698615 -0.08275047 0.0653359 -0.053053048
-0.064213276 0.0014181831 -0.011345862 -0.051532958 -0.0014078027 0.068027906 0.035008047 0.0042102598
0.0355639 -0.06741648 0.017280769 -0.028977362 0.0043919357 0.032290023 -0.030418029 0.07484346

network.6.weight f4 [1, 256]
00000000: e215 e9bc f768 a7bc 605f 73bd 25f5 78bd
00000010: d33b d1bb 2a9d 173d a9e0 6abd 37de 683d
00000020: 3fba 12bd 3824 4abd 7906 0abd fd08 7bbd
00000030: eb72 4ebd 68c6 843d 9ef9 b9bb dd0e 893c
00000040: 8b24 0fba 0851 5a3d a51d 2b3d 14cb 31bd
00000050: 75d9 59bd 0856 b1bc 4c5c 92bd a954 82bd
00000060: 74a4 8cbd 32ad 5dbd b8c1 f63c a305 113d
00000070: 1a27 573c e0fd 03bd 2092 253d 728f 79bc
00000080: d2fb 86bb 0d08 e83c e4f9 91bd 7467 9b3c
00000090: 9944 15bd 2792 483d 87e6 f1bc 225f 0cbd
000000a0: 799f 85bd b818 b7bc 6c37 863d a986 3d3d
000000b0: d644 943d d28b 5c3d c369 6b3c e3e3 8abc
000000c0: 3585 efbb e497 b83b 912a 083c beec 303d
000000d0: 3c51 143d 8d3e cabc f018 883c e7af 613c
000000e0: 5b48 4abd 64d1 c7bc 45d9 24bd dab9 43bd
000000f0: a184 de3c 965c 543d 5e88 033d 44ce 80bd
00000100: 290b 143d 950e 0bbd 1b8b 65bd e1ee c1bb
00000110: 52ed a3bb 1f5f 84bd 0394 31bd 80e3 4cbd
00000120: fdda c8bc c7d2 5d3d e9fb 71bd 76bc afbb
00000130: ec0d 38bd 5e45 cdbc de74 233c 2701 063c
00000140: 17a2 123c ae17 1cbd 7fac c63c 0cce 903c
00000150: 363f e43c 5a26 87bb 085d 05bd ba4f 953c
00000160: 6e25 66bd 03bd 03bd bf19 483d 539e c53c
00000170: 221e fe3c 3f11 8d3d 9e8a 8ebc 1c60 0ebd
00000180: 210a 98bd 9923 45bd 5ebf 3b3c 3370 11bd
00000190: a2bf 323d ef96 d7bc dfdd acbd a6fc b1bc
000001a0: 3e7e 123d fdd8 963c f6f3 3cba 830d 91bb
000001b0: 87b0 0cbb 7451 663d 971b 773d 01e8 a5bc
000001c0: ac0c d43c b972 30bd 23c4 403d 48a0 3abd
000001d0: 4bbc 1abc 09e3 6a3d ed8f 28bc bd2e 503c
000001e0: 62c8 473d 63e5 61bc da6a fcbc cda8 3ebc
000001f0: 6855 853d 96db b1bc be55 f53b 1976 b93c
00000200: f6ff 053d efab 9dbc 9be4 a6bc 6621 1a3d
00000210: ee80 c13c e9a0 95bd 2edb 86bc e270 4fbd
00000220: 5e8f 63bb af9d 45bd d279 fcbc 7b45 dcbc
00000230: a2af 32bd 4dd6 403d 30ef 5abc c9e1 54bb
00000240: dc91 093c d702 bcbc ca5d 5abd bafb 903c
00000250: d529 823d 0bb6 cf3c 6ab1 863c a493 63bd
00000260: 25fd 563c 0db7 1cbc 7ee7 d73c 576b e73c
00000270: 5b51 3d3d 74ce 0fbd 5f37 82bd 85ed ec3c
00000280: 9e17 0bbd 1879 823c 5419 073d e8cf 71bc
00000290: 0ebc 88bb 18d3 4d3d 84f2 4d3d d2ed 80bd
000002a0: d95d 023d 09a9 993d b6b6 883a f102 a2bb
000002b0: 5d9f cf3c b45a 113d 7378 7f3d d640 7dbd
000002c0: 509d c73b b364 81bc d412 d8bc dbe9 eab9
000002d0: f478 3d3d e0d1 793d 2011 f93c b2c5 29bd
000002e0: 94bb 03bd 71c9 6abd 3e11 97bc 7757 de3b
000002f0: dcf7 16bd 3680 39bd 37c9 363d c013 fe3c
00000300: 7534 debb cec9 673d 94be 7dbd 645a 93bc
00000310: 7fce 243d 5f4d 5bbd 44ae 59bd 95ea 02bd
00000320: b92e 4abd 20cb 6e3d 913b 17bd 6798 08bd
00000330: 004d 493d afed 103d 655c 6d3d 41e2 193d
00000340: 0ad6 2fbd 69dc 273d 734f 38bd f5a2 13bd
00000350: cbbc a83c 1997 323d a490 46bd f51d bf3c
00000360: 2fea 83bd 0860 353d 90ee e93b 0a6e 693d
00000370: 1945 da3c 460e 803d a397 76bd c9be 523d
00000380: 570a 5d3d a615 97bd d8d4 aebc 5b1e 803d
00000390: 629b 20bd 0328 c63c bc21 463d 12ca 2b3c
000003a0: b66c 073d ed2a e8bc 5883 0ebd d47c cb3c
000003b0: 3c74 04bd 5e08 39bd 3e04 003d 0753 acbc
000003c0: 5e84 043d 11d8 65bd e75c 293d 6952 44bd
000003d0: 7f2c 6cbd 6e92 903c e10e 15bd 4226 4e3d
000003e0: 11d5 5e3c 7132 d33c 2a11 ccbc 9e59 813d
000003f0: 5b5d 85bd 46d8 22bd 7dac 11bd fe20 edbc
-0.028452817 -0.020435793 -0.05941713 -0.060780663 -0.0063853054 0.037015118 -0.05734316 0.056852546
-0.03582215 -0.049350947 -0.03369758 -0.06128787 -0.050402563 0.064831555 -0.0056755086 0.01673072
-0.00054604624 0.053299934 0.041776318 -0.04340656 -0.0531859 -0.021647468 -0.071465105 -0.06363804
-0.068673044 -0.05412025 0.03012167 0.035405766 0.013131881 -0.032224536 0.04042256 -0.015231954
-0.004119375 0.028324151 -0.07127741 0.018970229 -0.036442373 0.048967507 -0.02952887 -0.034270413
-0.065245576 -0.022350654 0.0655354 0.046271 0.07239692 0.05384428 0.014368477 -0.016954368
-0.0073095807 0.005633341 0.00831093 0.043194525 0.036210284 -0.02468803 0.016613454 0.013774849
-0.04938541 -0.024391837 -0.040246267 -0.047784664 0.027162852 0.05184611 0.03211247 -0.06289342
0.036143456 -0.033949453 -0.056040864 -0.005918369 -0.005002656 -0.064634554 -0.043354046 -0.05002165
-0.024518484 0.05415609 -0.05907813 -0.0053630425 -0.044935152 -0.02505749 0.009976594 0.008178986
0.008949778 -0.03810852 0.024252174 0.017676376 0.027862173 -0.004124445 -0.032559425 0.018226493
-0.05618804 -0.032162677 0.04885268 0.024123346 0.031020228 0.06888055 -0.017400082 -0.034759626
-0.07423807 -0.04812965 0.0114592 -0.035507392 0.043639787 -0.026317088 -0.08440756 -0.021726917
0.035764925 0.018414015 -0.0007207984 -0.0044266596 -0.0021467523 0.056230024 0.060329046 -0.02025223
0.025884949 -0.043078158 0.04706205 -0.045563012 -0.009444307 0.057345424 -0.010288221 0.012706456
0.048775084 -0.0137876 -0.03081267 -0.011636925 0.065104306 -0.021711152 0.007487028 0.022639321
0.032714806 -0.019247023 -0.02037268 0.037629507 0.023621049 -0.07306082 -0.016461935 -0.050644763
-0.0034722905 -0.048246082 -0.030819807 -0.0268886 -0.043624528 0.047079373 -0.013362691 -0.0032483211
0.008396592 -0.022950573 -0.0533121 0.017698158 0.06355635 0.02535536 0.01644202 -0.055560723
0.013121878 -0.009565127 0.026355501 0.028249426 0.046220165 -0.035109 -0.063582174 0.028921852
-0.03395807 0.015926883 0.03298314 -0.014759041 -0.0041728085 0.050250143 0.05028011 -0.062953606
0.03182778 0.07502944 0.0010430429 -0.0049441983 0.025344545 0.035486892 0.06237073 -0.06182941
0.006091751 -0.015795087 -0.026376165 -0.00044806194 0.046257928 0.060991168 0.030403674 -0.041448303
-0.03216131 -0.057321016 -0.018440839 0.006785329 -0.03685747 -0.045288287 0.044625487 0.031015277
-0.0067811557 0.05658894 -0.061949328 -0.017987438 0.040235993 -0.053540584 -0.05314471 -0.031961996
-0.049360964 0.058299184 -0.03692204 -0.033348467 0.0491457 0.035382923 0.057949442 0.03756929
-0.042928733 0.040981684 -0.044997644 -0.03604408 0.020597836 0.04360113 -0.048477784 0.023329714
-0.06441151 0.044281036 0.0071390346 0.056989707 0.026644276 0.062527224 -0.060203206 0.05145148
0.05396494 -0.07377176 -0.021341726 0.0625579 -0.039210685 0.024189001 0.048372015 0.010485189
0.03306266 -0.028340781 -0.034793228 0.024839796 -0.032337412 -0.045173995 0.031254046 -0.021035684
0.032352798 -0.05611426 0.041348364 -0.047930155 -0.057659622 0.017647948 -0.036391143 0.050329454
0.013600604 0.025780888 -0.024910528 0.06315921 -0.06511947 -0.039757036 -0.03556489 -0.028946396

exp_avg f4 [128, 45]
00000000: c27e 0cb9 13a3 b8b8 6d34 98b8 5a64 3f38
00000010: 6ef0 2db9 76ac dbb8 054c 0eb8 b6ae 49b8
00000020: 8860 a0b7 061a 88b9 b533 b1b9 c236 c6b7
00000030: 213a fbb9 7a37 8db8 8d79 87b8 75e2 bcb8
00000040: af5a d8b9 6e6a 5eba 8ce9 95b5 ae4c a838
00000050: 9b87 3db9 78c2 abb9 a08a 24b9 1827 b6b8
00000060: 1479 6cb8 8aaa 96b8 e153 e6b7 92eb 3738
00000070: a004 37b8 f2b9 9ab5 cbdd aeb9 569f 46b9
00000080: cf87 cdb9 3110 00b9 1b85 8db9 5533 70b9
00000090: bc16 82b8 ce28 22b9 935d 2f38 c19e dcb9
000000a0: 6cd8 03b9 abba edb9 408a d638 27a7 ceb8
000000b0: be82 96ba dc5a 2137 6f03 97b7 081a 2434
000000c0: da5b 8c37 bca4 bdb8 b28a 5e35 d218 03b7
000000d0: 30d1 6138 ad51 b3b8 80b9 9b37 9f38 4e37
000000e0: 265c 65b8 a2e3 4338 ece3 3936 48a0 2fb8
000000f0: 537a b8b6 961b 98b8 7bae d7b7 1568 45b2
00000100: 852f 83b6 9240 f8b7 2c80 d037 949a ebb8
00000110: b571 4cb7 295d 4eb8 6021 01b7 624d 88b7
00000120: 9722 8bb7 40fe 2bb8 22d8 a1b2 e664 06b7
00000130: b011 18b8 8cec 94b8 7df6 2eb7 9713 d5b6
00000140: 103c f0b7 28a3 9538 e4d9 1e36 7a3f 1809
00000150: bceb 3e37 ede3 d7b7 0cf3 bdb7 83b7 c8b9
00000160: b2da 8a36 5488 1b38 1c69 223a 2896 efb8
00000170: ae29 1439 cd8e 0f3a 7d6f 6038 bb32 0b39
00000180: 78b3 9139 62d0 4438 e764 c0b8 a6aa 08b9
00000190: 3d66 a439 b21c d4b8 15f9 58b9 ea0b d037
000001a0: 7daa 9fb8 af1b 38b9 0a52 023a 103e bb39
000001b0: 5cb7 2eb5 9440 1738 7ab6 6939 88a1 80b9
000001c0: fb5c bc39 60f7 82b9 2cc1 5f38 de39 abb7
000001d0: 60b8 5132 b6ca 7d38 6db7 3737 f7be 31b5
000001e0: fda2 6c39 b896 f6b8 fec8 8439 71ff 6f3a
000001f0: 53d4 a4b8 57a2 9ab8 f785 ebb8 a0d0 4d39
00000200: 7a5c 5f3a 0d26 ba39 3e04 ee39 f49d b339
00000210: 8d8a fc38 53c5 e738 7eea 1cba 9300 2839
00000220: 348a 0e39 9cac 82b9 b159 dfb8 f9a1 ddb8
00000230: da2c 02b9 c0e8 f738 4fb2 68b9 bbc1 2d39
00000240: 8fe7 0939 41d3 5cb8 409e 3939 7109 1239
00000250: 6ce9 af37 f26f 92b9 4a62 dab7 43da 693a
00000260: 1a33 afb9 7976 c237 a244 a538 8855 d139
00000270: 7e10 5cb9 ba67 6db9 13be 1d38 a043 fcb7
00000280: 0708 2ab9 74f6 6e36 b48d 5fb9 c2eb 69b7
00000290: 01c7 b836 87e1 c9b9 ecd9 26b8 4332 71b7
000002a0: f917 7f39 084a 5cb9 7584 a939 3ea0 92b9
000002b0: e260 8439 3a05 5d39 bdb1 013a 68e8 a835
000002c0: 50b8 99b9 0327 cf39 92e5 7538 94d4 2fba
000002d0: 73cb 0a3a 73ed e338 acd8 2d3a 59c2 6239
000002e0: 904a 35b7 3c2c 43b9 71c6 0f39 fc5c 393a
000002f0: 8cce 8ab9 8496 7db9 dcc8 9c39 c417 e838
00000300: d4b2 613a acef 7d38 577b 69b8 15bf 0b39
00000310: a02e f039 5d35 b73a 57a2 e335 0210 57b9
00000320: e421 4839 789a 5d39 3813 2d39 3bae b438
00000330: 9b70 8a38 c90e 1ab9 fa77 c735 fcdb 2d3a
00000340: c6ec 73b6 4cc9 71b7 ecf5 003a 8dd2 a138
00000350: 5358 443a 82f6 303a d851 1539 a41c b339
00000360: cb80 b0b8 127c 4839 e60b 7eb9 7e12 0dba
00000370: b3ec 8b39 2324 cb39 8f36 d1b8 1e9a 28ba
00000380: 2e6c 773b 2895 4939 ac93 9ab8 e1d5 3e39
00000390: a8c5 3239 e5e2 a5b8 a224 4138 8623 c739
000003a0: 420e 1eb8 0a11 0737 3e89 3338 2eae e7b8
000003b0: 6cbe 4636 ebdb 20b9 f83a e8b8 19a8 4a39
000003c0: 50e4 b2b8 120d b339 5d5c 5439 05d4 0938
000003d0: 4420 73b7 0813 d238 5f49 7538 66cb 02b8
000003e0: df92 3738 4060 06b8 ea2c 43b8 0e0a e735
000003f0: e264 7937 dff4 bd38 2208 e435 6b61 f7b8
-0.00013398661 -8.804179e-05 -7.25769e-05 4.563141e-05 -0.00016588133 -0.00010474857 -3.3926237e-05 -4.8084847e-05
-1.9118437e-05 -0.0002595933 -0.00033798596 -2.3628938e-05 -0.0004791776 -6.733737e-05 -6.459942e-05 -9.0067195e-05
-0.00041266295 -0.0008484487 -1.1169336e-06 8.025147e-05 -0.00018074962 -0.00032760552 -0.000156919 -8.685718e-05
-5.6379547e-05 -7.184323e-05 -2.7457196e-05 4.3849992e-05 -4.3634907e-05 -1.1528011e-06 -0.00033353115 -0.00018942109
-0.00039201832 -0.00012213063 -0.00026992787 -0.00022907306 -6.203118e-05 -0.00015464725 4.18104e-05 -0.0004207995
-0.00012573757 -0.0004534324 0.00010230066 -9.85398e-05 -0.0011483056 9.617503e-06 -1.8002202e-05 1.528316e-07
1.6732072e-05 -9.0429065e-05 8.2903273e-07 -7.813987e-06 5.3839e-05 -8.5505984e-05 1.856382e-05 1.229174e-05
-5.4683675e-05 4.6703623e-05 2.7699816e-06 -4.1872525e-05 -5.4978677e-06 -7.253063e-05 -2.5711246e-05 -1.1490575e-08
-3.9096362e-06 -2.9593972e-05 2.4855217e-05 -0.00011234466 -1.2185822e-05 -4.920099e-05 -7.69677e-06 -1.6248498e-05
-1.6586198e-05 -4.1006366e-05 -1.8841153e-08 -8.010515e-06 -3.6256097e-05 -7.10125e-05 -1.0428598e-05 -6.350175e-06
-2.8638198e-05 7.135264e-05 2.3670664e-06 1.8326181e-33 1.1379769e-05 -2.5736133e-05 -2.2643733e-05 -0.000382837
4.13818e-06 3.7081845e-05 0.0006195472 -0.00011424377 0.00014129907 0.0005476296 5.3509593e-05 0.00013274972
0.0002779027 4.6924113e-05 -9.174068e-05 -0.00013033542 0.0003135669 -0.00010114293 -0.00020692156 2.480108e-05
-7.613467e-05 -0.0001755792 0.0004971331 0.0003571366 -6.5086874e-07 3.606135e-05 0.0002228859 -0.00024534413
0.0003592743 -0.0002497984 5.334725e-05 -2.0411735e-05 1.2207323e-08 6.050869e-05 1.0950357e-05 -6.621553e-07
0.00022567432 -0.00011758268 0.00025326753 0.000915519 -7.859678e-05 -7.3735304e-05 -0.00011230626 0.00019628042
0.0008520555 0.00035505035 0.00045398058 0.00034259225 0.000120421035 0.00011051693 -0.000598587 0.00016021942
0.0001359366 -0.00024924136 -0.00010650175 -0.00010568271 -0.00012414475 0.00011821231 -0.00022191669 0.00016570736
0.000131516 -5.2648833e-05 0.00017701928 0.00013927162 2.0970321e-05 -0.00027930696 -2.6033395e-05 0.0008920768
-0.00033416675 2.318177e-05 7.880597e-05 0.00039927312 -0.00020986979 -0.00022640722 3.7608737e-05 -3.0072231e-05
-0.00016215454 3.5608218e-06 -0.00021319726 -1.3942774e-05 5.5067944e-06 -0.00038505738 -3.978044e-05 -1.4376422e-05
0.00024327626 -0.00021008414 0.0003233288 -0.0002796668 0.00025249185 0.0002107815 0.00049474445 1.2584615e-06
-0.00029319758 0.00039511183 5.8626356e-05 -0.0006707397 0.00052945985 0.00010868432 0.0006631713 0.0002162544
-1.0805801e-05 -0.00018613128 0.00013711468 0.00070710457 -0.000264753 -0.00024184032 0.0002990429 0.00011067049
0.00086097163 6.0543112e-05 -5.5666398e-05 0.00013327257 0.00045811106 0.0013977695 1.6960065e-06 -0.00020509961
0.00019086112 0.00021133746 0.00016505725 8.615522e-05 6.601327e-05 -0.00014692092 1.4861573e-06 0.00066322065
-3.6347642e-06 -1.44115875e-05 0.0004919458 7.7162964e-05 0.0007489968 0.00067506 0.00014240236 0.0003416288
-8.4163235e-05 0.00019119706 -0.0002422776 -0.00053814787 0.000266885 0.000387461 -9.976059e-05 -0.00064316567
0.003775369 0.00019224419 -7.370798e-05 0.00018199488 0.00017049036 -7.9100755e-05 4.6048903e-05 0.00037982705
-3.7683414e-05 8.050594e-06 4.2804742e-05 -0.00011047382 2.961514e-06 -0.00015340715 -0.00011073606 0.00019326842
-8.530228e-05 0.0003415128 0.00020252304 3.2860804e-05 -1.4491441e-05 0.00010017125 5.8480884e-05 -3.1183845e-05
4.3767384e-05 -3.203773e-05 -4.6533452e-05 1.7213767e-06 1.4865045e-05 9.057833e-05 1.6989691e-06 -0.00011796023

exp_avg_sq f4 [128, 45]
00000000: 39b2 c734 2e34 fb32 a5c8 6933 c538 0634
00000010: 5f07 6634 5c88 bc34 27ed 6931 3b68 ab35
00000020: 24c8 db31 498c a735 57fb 4635 706c a034
00000030: cf63 7533 a034 d133 c3cc ea32 114b a233
00000040: 1cdd 9835 c09d 1536 2509 682f 99bf 1b34
00000050: 2edf 0334 eec4 d634 8177 7d34 a60e b533
00000060: 2871 5e33 4fdc bc33 8690 5231 d9c4 f333
00000070: 4793 4533 08e7 4c2e cfdd 9c35 2542 2734
00000080: e776 fa34 5364 0734 e5a5 0135 ec63 1535
00000090: 3d4b fa34 4ff0 b034 b457 0f34 878e a134
000000a0: 6dfa 3434 3bb6 9336 e0cb 1234 3788 cb33
000000b0: 0ff2 9436 0272 bc31 7396 e330 ba4e 6b2f
000000c0: de31 1533 596c 8f32 50b4 ba2f eed1 ed31
000000d0: 3c27 7433 8000 ba32 a5b1 4d34 b9e7 1e31
000000e0: c29b b331 b1b5 d432 d3a0 4030 f25f 9e31
000000f0: b514 4d30 bef0 1c34 c9c8 9c32 22e9 d02b
00000100: 2094 0330 98a4 e731 e552 2334 3be2 0d33
00000110: 4214 b730 d96b b731 2024 4930 49d2 0431
00000120: e289 e430 8d27 3c32 a7a2 882c 0762 9632
00000130: 62d0 ed31 99a4 ac33 c26c fc31 ad05 9c32
00000140: 27b4 0234 e986 0f33 df8c 7431 9fa6 352c
00000150: 4e94 5233 15bd 5331 adc6 3631 ff02 fc34
00000160: 7654 b932 5250 1b34 efe8 1f36 ed8a 6836
00000170: 811d 8f36 e509 8135 9952 9735 81ed 5635
00000180: 3d1c a935 6b0b 1736 d2ad c535 b10d 8036
00000190: fd96 0636 d3d2 bd35 b202 fd34 85c3 5534
000001a0: 1326 4e35 abca 5135 84c9 8137 3f27 9f36
000001b0: 8de0 3a2f c271 d934 12e1 2136 f09b a136
000001c0: 594d d335 a5d5 c034 d05c d933 469b ef33
000001d0: 8d78 cc2f 8ec3 5234 3fe7 7234 6724 342f
000001e0: aece 6235 a6bc bf35 c56d 5836 b4dd ef36
000001f0: a824 2936 f54e 8436 fffb aa35 bdc7 0936
00000200: d6a7 2337 87db c637 e447 f736 db5f 0d36
00000210: 8c1d f136 1582 0336 2b21 8a37 2131 3e35
00000220: 906d 2a35 4774 8b35 ed97 f434 fcd2 9634
00000230: 8856 c035 8a07 0935 b6d6 1536 48da 8334
00000240: 0915 0436 3944 da35 ef17 cc35 d658 8a34
00000250: 3c9c 5934 6237 9334 4d95 9734 9deb 7836
00000260: 68f5 df36 56b4 3a31 da01 e934 d235 3f35
00000270: c0ac e835 ded1 df34 1c61 1b34 2e5e 9633
00000280: 78fe 2d34 8017 2e30 08c8 4634 54ff 0334
00000290: 2357 6730 48c3 fc35 9715 2a35 ceed 1236
000002a0: c810 b335 1b26 8e35 db2e 8735 6adc 7535
000002b0: fea6 e535 61ca 5336 6aa0 d736 8d0d 3c35
000002c0: f1d6 ed36 a0f3 6536 3d94 a034 bd61 0e37
000002d0: 3d2c 6936 0d80 8136 ea0a 9036 c9ab cb35
000002e0: 77b0 b835 0a3e bf36 a250 1936 46d8 d436
000002f0: 0c54 1336 44f4 fd36 8b0f 6536 9223 c536
00000300: 539b aa35 fde6 4335 dad6 1836 05f7 c635
00000310: ae89 6837 3d3a e937 8812 ca2f 7767 be35
00000320: 2cce 6236 7216 f636 98c0 0736 88d5 3935
00000330: 2346 8734 8071 0d35 a1cf b42f c773 6135
00000340: 90ab e934 845e 1431 27bc bd36 1c17 4936
00000350: f7ee 4837 2dde 0837 2a1d 8736 6fa0 7f36
00000360: c854 3036 bac3 d036 ef77 bb37 eb7c c337
00000370: bcd8 3237 578c 7f37 f336 1637 907b 9937
00000380: b3d5 b237 684a 0b35 87fa 0835 71d0 9c35
00000390: fd94 3934 bbf8 3634 7058 3635 74d5 2035
000003a0: d3ea 8234 f482 f034 19b0 8034 17c9 9134
000003b0: dee0 5835 d642 b933 b13f 9234 52cd 0b35
000003c0: 9db8 4034 4536 3336 b554 5a36 9049 8131
000003d0: 559b 6a34 6bd6 d034 665e 5735 d6ff 8834
000003e0: f1a1 2f33 9745 e732 2015 2633 9230 662e
000003f0: a48d 8933 2564 8733 4cd8 0f2f eb93 1434
3.7196313e-07 2.9243974e-08 5.4432025e-08 1.2500375e-07 2.1423101e-07 3.5116943e-07 3.4040768e-09 1.2770828e-06
6.3964922e-09 1.2483298e-06 7.4126496e-07 2.988122e-07 5.7134283e-08 9.741893e-08 2.73343e-08 7.557367e-08
1.1389234e-06 2.2294553e-06 2.1103526e-10 1.4505203e-07 1.2281518e-07 4.000389e-07 2.3605936e-07 8.431134e-08
5.1791318e-08 8.794506e-08 3.0641174e-09 1.1351376e-07 4.6001585e-08 4.6589427e-11 1.168746e-06 1.557715e-07
4.6652642e-07 1.2609352e-07 4.8297653e-07 5.565223e-07 4.6620872e-07 3.2957402e-07 1.3349819e-07 3.009229e-07
1.6854911e-07 4.402156e-06 1.3671479e-07 9.4777015e-08 4.438923e-06 5.4844813e-09 1.6559184e-09 2.1401095e-10
3.473712e-08 1.6696662e-08 3.3961323e-10 6.921474e-09 5.684636e-08 2.1653477e-08 1.915674e-07 2.3123745e-09
5.2272933e-09 2.4762672e-08 7.007774e-10 4.609313e-09 7.460799e-10 1.4616214e-07 1.8252097e-08 1.4843996e-12
4.786802e-10 6.741697e-09 1.5210715e-07 3.3034876e-08 1.332076e-09 5.338262e-09 7.317471e-10 1.9328061e-09
1.6628372e-09 1.0952033e-08 3.8834105e-12 1.7506876e-08 6.921298e-09 8.039314e-08 7.3465296e-09 1.8163371e-08
1.2172733e-07 3.3417482e-08 3.558675e-09 2.581414e-12 4.9029317e-08 3.0812022e-09 2.659742e-09 4.6940838e-07
2.1575243e-08 1.446472e-07 2.3828431e-06 3.465156e-06 4.265167e-06 9.614129e-07 1.1274416e-06 8.0066826e-07
1.25997e-06 2.25074e-06 1.4728232e-06 3.816291e-06 2.0055443e-06 1.4142955e-06 4.7126883e-07 1.99083e-07
7.6796385e-07 7.815349e-07 1.5471836e-05 4.743138e-06 1.6996378e-10 4.050217e-07 2.4121878e-06 4.8163274e-06
1.5743236e-06 3.5918234e-07 1.01217324e-07 1.1157549e-07 3.719304e-10 1.9628916e-07 2.2622133e-07 1.6383837e-10
8.449232e-07 1.4285513e-06 3.2250402e-06 7.1485647e-06 2.52043e-06 3.9430984e-06 1.2739328e-06 2.0530854e-06
9.754634e-06 2.3705665e-05 7.369543e-06 2.1066433e-06 7.1857994e-06 1.959624e-06 1.6466327e-05 7.085201e-07
6.348937e-07 1.0390148e-06 4.5559082e-07 2.8093189e-07 1.4330299e-06 5.104745e-07 2.2327708e-06 2.4559472e-07
1.9681777e-06 1.6262121e-06 1.520615e-06 2.576914e-07 2.0266538e-07 2.742118e-07 2.8234572e-07 3.7092025e-06
6.674487e-06 2.7169071e-09 4.340098e-07 7.1231364e-07 1.7335624e-06 4.1689685e-07 1.4470828e-07 7.0020505e-08
1.6204456e-07 6.3334227e-10 1.8512958e-07 1.2293214e-07 8.416114e-10 1.8832297e-06 6.336135e-07 2.1894116e-06
1.3341423e-06 1.0590915e-06 1.007192e-06 9.1590357e-07 1.7110431e-06 3.155925e-06 6.426174e-06 7.0055177e-07
7.088173e-06 3.4265468e-06 2.991018e-07 8.486616e-06 3.4745456e-06 3.8594067e-06 4.292805e-06 1.5174675e-06
1.3760426e-06 5.699466e-06 2.284571e-06 6.34327e-06 2.1953629e-06 7.568424e-06 3.4132706e-06 5.8751984e-06
1.2711192e-06 7.2979293e-07 2.2774825e-06 1.4824042e-06 1.3860334e-05 2.7802884e-05 3.6756753e-10 1.4186215e-06
3.3796632e-06 7.3339843e-06 2.0228672e-06 6.92286e-07 2.519674e-07 5.269176e-07 3.2889338e-10 8.398751e-07
4.352446e-07 2.159056e-09 5.6545427e-06 2.9964785e-06 1.1976567e-05 8.157961e-06 4.0267087e-06 3.8091346e-06
2.6275393e-06 6.2216686e-06 2.2347986e-05 2.3303981e-05 1.0660089e-05 1.523186e-05 8.953491e-06 1.829656e-05
2.1318765e-05 5.188981e-07 5.1028513e-07 1.168357e-06 1.7283669e-07 1.7040558e-07 6.7928977e-07 5.991526e-07
2.4385244e-07 4.4798765e-07 2.3969986e-07 2.7154667e-07 8.0793495e-07 8.626891e-08 2.724096e-07 5.2080316e-07
1.7948555e-07 2.6704668e-06 3.2533837e-06 3.762757e-09 2.1849458e-07 3.889903e-07 8.023111e-07 2.551812e-07
4.0892647e-08 2.6923585e-08 3.86691e-08 5.2339084e-11 6.405324e-08 6.3046436e-08 1.3082618e-10 1.3837386e-07

exp_avg f4 [128]
00000000: 139d 09bb 7dd8 01ba 5ec5 863a 7a31 8b37
00000010: dc4c 383b 32c3 403a b381 7dba 8370 06bb
00000020: 1850 dab9 ac96 023b 59eb 0fba 219e c0bb
00000030: 3b6b c5b8 3c4f 8abb 5420 563a 90a4 873a
00000040: 303b 3aba 07e3 9a39 49b0 4c3b 9497 bdba
00000050: 284f 86b8 639a 0ebb 07d4 383b 1584 fabb
00000060: 900a 08ba 4255 523b fea7 c1b9 f2a5 e4ba
00000070: ecc5 6e3a 33e6 0a3a e722 70ba e62e 26ba
00000080: e53d ab3b 48dd 0aba 4bbc 393b b8f1 cc39
00000090: 10da efb9 d645 823b 0748 88ba 369f 773a
000000a0: 946e 95bb b884 6d39 b7a8 4b3a e17c 6cba
000000b0: 2168 fc3b ae7b 0f3c 4223 1d39 3e06 b23a
000000c0: bc6f fb3a 88eb 86ba 7c38 253b 2c40 b239
000000d0: 07ed fab8 42c9 043b e758 6e3b 121a 20bb
000000e0: 408a 2539 e08b b4b9 8dbb 02b8 aa6b e139
000000f0: 14d9 63ba 96bb 54bb b8bb 163a faec bf39
00000100: fe8b 7b3c 6bf4 dfba aebc 8939 1e72 00bb
00000110: dde2 3a3a f434 133a a201 85ba 6ea2 63bb
00000120: 3e39 56bb e406 d63b 4f57 86bb 79d9 c0ba
00000130: 7642 9c3a 7841 dcba f885 793a 8061 173b
00000140: f320 ce3b 4134 373a 42df f23a deed cc3b
00000150: 9768 f5b9 8137 b7ba 6790 f43a 9e17 153a
00000160: 1d5d 89b9 ce3f 74b8 f1eb 28bc 6a10 333a
00000170: 89c5 99b8 94c6 30ba fa27 d53b 3abc c63a
00000180: 873e b6b9 caf8 153b 43f7 66ba 9d06 2338
00000190: fb68 3ebb 9b09 ac3b 1c6d a73a fe7b 923b
000001a0: a834 f1bb 7a11 4c3a 04e9 083a 5ac8 743a
000001b0: 4326 20bb c81f 033c d5b1 6ebb 6f41 0bbb
000001c0: cd42 23ba b087 483a 0071 28b6 e457 f13a
000001d0: 4f19 0cbb 7fd1 2fbb 84b1 a93b c25d 733b
000001e0: 28b4 1e3b 32b1 cf3a c049 a6ba 3557 c53b
000001f0: 52a6 f1ba b387 6c3b b875 18bb a94d c53b
-0.0020998165 -0.0004953219 0.0010282209 1.659313e-05 0.0028121984 0.0007353305 -0.0009670511 -0.002051384
-0.00041639875 0.0019926233 -0.00054900866 -0.0058782254 -9.413665e-05 -0.0042208713 0.00081682694 0.0010348726
-0.00071041565 0.00029542317 0.0031233004 -0.001446473 -6.404362e-05 -0.0021759502 0.002820255 -0.00764514
-0.0005189562 0.0032094275 -0.00036936993 -0.0017444475 0.0009108472 0.00052985846 -0.00091604743 -0.0006339386
0.0052258843 -0.00052972557 0.002834099 0.00039090007 -0.00045748102 0.0039756102 -0.0010397442 0.00094460265
-0.004560301 0.00022651523 0.0007768976 -0.0009021294 0.007702843 0.008757515 0.00014985821 0.0013582183
0.001918308 -0.0010293582 0.002521067 0.00033998617 -0.00011965079 0.002026156 0.0036368908 -0.0024429602
0.00015787128 -0.0003443649 -3.1169086e-05 0.0004299556 -0.000869171 -0.0032460443 0.0005750018 0.0003660692
0.015353201 -0.0017086392 0.00026271254 -0.001959927 0.0007129142 0.00056154956 -0.0010147581 -0.0034734267
-0.0032687928 0.006531583 -0.0040997635 -0.0014713249 0.0011921662 -0.0016804179 0.0009518559 0.0023098886
0.006290549 0.00069886824 0.0018529671 0.006253942 -0.00046807967 -0.0013978333 0.0018658758 0.0005687418
-0.0002620005 -5.8233556e-05 -0.010310159 0.0006830754 -7.332402e-05 -0.00067434576 0.0065050097 0.0015162297
-0.00034760332 0.0022883886 -0.00088106486 3.8868387e-05 -0.0029054272 0.0052501685 0.0012773606 0.0044703474
-0.0073610134 0.00077845866 0.00052227103 0.0009337716 -0.0024436868 0.008003183 -0.0036421914 -0.0021248718
-0.00062279106 0.00076496135 -2.5099725e-06 0.0018413034 -0.002137739 -0.002682775 0.005178632 0.0037134741
0.0024216268 0.0015845655 -0.0012686774 0.006022359 -0.0018436408 0.0036091625 -0.0023263525 0.0060212207

exp_avg_sq f4 [128]
00000000: 5f70 1837 1778 3c35 df7f 8538 2599 e537
00000010: a5ca fb38 74b3 8937 991a 7d37 fd6c 4b38
00000020: 83ae 2038 3c32 fb37 bdf6 b337 0c11 ce38
00000030: 03d7 ee33 3dc6 ae38 cdca a738 9736 0b38
00000040: 93c4 3836 345d 2b38 9148 d738 d243 4439
00000050: 5cf9 7a38 c639 3438 cb3a 1a39 c31c 6739
00000060: 76df 6c37 c7a1 8838 0946 7938 d2fc a437
00000070: ed92 ed37 76dc 1038 2e28 a337 f204 3836
00000080: c2ef c638 44e5 9238 5baf be37 4e12 3038
00000090: ef27 9736 79f0 4639 d9d1 2837 32c9 3538
000000a0: 12f7 5939 5d58 0038 23e2 5837 d337 1339
000000b0: 2145 c138 6b10 333a cdd8 c537 6061 8837
000000c0: 0385 8838 6b3e 0b38 6888 ec37 3a0b 3e36
000000d0: d759 1038 178f dd38 517a 0a38 f40c 9937
000000e0: 4df6 c538 4d79 b838 edf3 7e31 cf94 d738
000000f0: 6136 3a38 5163 9038 de76 4c38 f65a 3538
00000100: 8801 6d39 4f49 8037 9282 9a37 7aa4 3b38
00000110: 267e c337 7e91 a937 244b 0239 d700 ba38
00000120: c9cd 6a39 09cd a139 d4d6 c238 b8a2 b137
00000130: 1ac5 5338 f2d2 de37 f1dc 9737 d71e 7f39
00000140: aee1 4539 4ef3 9636 fb17 0539 1ad3 5339
00000150: 8147 a436 ecf7 d337 6986 ec37 13a4 ef37
00000160: 6a32 dc36 a6f5 aa34 cfeb bf39 59d4 4338
00000170: 13a4 8732 dd59 0039 98f3 0139 f6ed a638
00000180: babf 1636 4b01 8a38 87c3 3237 5174 2935
00000190: dfde dd38 24e5 e738 ddb3 3638 bb3f 0938
000001a0: a288 b939 6214 f338 5b3f 3737 5f46 e438
000001b0: b4f0 2238 e7a2 8739 e9ec 6538 a9f9 a037
000001c0: 384d c039 e06c 2339 5e44 1038 24a8 3039
000001d0: 42de 8438 ab58 2938 bdf0 8738 c146 0739
000001e0: 9ae3 b537 0856 e137 106c a438 5411 4238
000001f0: e5eb 2738 28ab 1539 511e 1e38 966b 9b38
9.086069e-06 7.021021e-07 6.365752e-05 2.737024e-05 0.00012006358 1.6415237e-05 1.5086168e-05 4.8500475e-05
3.83095e-05 2.9944924e-05 2.145336e-05 9.826021e-05 1.1121849e-07 8.333891e-05 8.000955e-05 3.3191023e-05
2.7532558e-06 4.085638e-05 0.000102655154 0.00018717282 5.983688e-05 4.296915e-05 0.00014708487 0.00022040591
1.4118725e-05 6.515119e-05 5.943145e-05 1.9668052e-05 2.832102e-05 3.4537596e-05 1.9449824e-05 2.7421015e-06
9.486034e-05 7.0045266e-05 2.2731421e-05 4.1978717e-05 4.5047996e-06 0.00018972335 1.0062439e-05 4.334114e-05
0.00020786774 3.0599873e-05 1.2927255e-05 0.00014039809 9.2158334e-05 0.00068307546 2.3585186e-05 1.6257807e-05
6.509761e-05 3.3198314e-05 2.8196911e-05 2.831874e-06 3.4415945e-05 0.00010564754 3.301568e-05 1.8245053e-05
9.439569e-05 8.796398e-05 3.710052e-09 0.00010279717 4.43965e-05 6.884954e-05 4.8748094e-05 4.3238477e-05
0.00022602652 1.5292926e-05 1.8419032e-05 4.4737455e-05 2.3304554e-05 2.021412e-05 0.00012425758 8.8693276e-05
0.0002239264 0.00030861076 9.290656e-05 2.1175816e-05 5.0489885e-05 2.6562691e-05 1.8103487e-05 0.00024330184
0.00018871456 4.4986728e-06 0.00012692802 0.0002020117 4.895905e-06 2.5268608e-05 2.8195982e-05 2.8567423e-05
6.56238e-06 3.18437e-07 0.0003660605 4.6689387e-05 1.579068e-08 0.00012240508 0.00012393144 7.9598205e-05
2.2463341e-06 6.5805936e-05 1.06551515e-05 6.312667e-07 0.00010579614 0.00011057619 4.3559692e-05 3.27227e-05
0.0003538775 0.000115909395 1.0922401e-05 0.00010884995 3.8847982e-05 0.00025870578 5.4818494e-05 1.9189743e-05
0.00036678626 0.0001558545 3.4395947e-05 0.00016847305 6.335649e-05 4.037532e-05 6.4821426e-05 0.00012900961
2.1682867e-05 2.6862152e-05 7.8402576e-05 4.6269342e-05 4.0035597e-05 0.00014273508 3.769837e-05 7.4110154e-05
