models/regression_models/ML_including_industry_feature/single_dimension/encouraging_confirmations/version_best/checkpoints/epoch=59-step=1860.ckpt (torch, 675355 bytes, 27 tensors)

network.0.weight f4 [256, 45]
0.11940036 -0.10843479 0.068102084 0.018763412 -0.031704888 -0.04523485 0.062757045 -0.082159355
0.06251751 0.09032166 -0.051130895 -0.09750943 0.0030068867 0.079336785 -0.05962121 -0.04477291
0.03154983 -0.089834936 0.0023405948 0.06324505 0.022720609 -0.05641549 -0.044429064 0.095034465
0.053251475 -0.006086063 -0.040087644 0.053165324 -0.06363884 0.0024681734 -0.03702788 0.10686899
0.101309665 0.035409354 -0.09392461 0.08356688 -0.016331362 0.029685048 0.01794054 0.09489007
0.12447156 -0.0095872395 0.05450874 0.13419537 0.11149284 -0.0029693437 0.0012802759 -0.051639885
-0.013500338 0.019650875 0.017445069 0.008257246 0.0810631 -0.04466565 -0.052373078 0.01724521
-0.046735 0.031289984 0.06601369 0.01534277 0.030814871 0.097263105 -0.078245126 0.05984435
0.04669546 0.0019916054 0.041013353 0.010591978 0.06611921 0.05799886 -0.03226482 0.027063716
0.009742912 0.031722393 0.0053012036 -0.07166677 -0.008128371 -0.018129064 -0.022848906 -0.02007445
0.023694487 0.024322746 0.008925173 -0.0012764838 -0.005858279 -0.0042853127 -0.027849667 0.0060276343
0.032619413 0.109360255 -0.07464722 0.03682106 -0.00923455 0.0402448 0.05813461 -0.011379248
0.07401567 -0.10609136 -0.021396555 0.009304029 -0.07770938 0.061733235 -0.078292854 0.046963632
-0.041439023 0.05750384 -0.051961303 -0.019254502 0.0022285045 -0.08125146 -0.053308014 -0.019124473
0.0947675 -0.00019586827 -0.055642392 -0.026612708 -0.051476426 -0.07718463 0.02391013 -0.01935573
-0.061451036 -0.0008567927 0.02385017 -8.788474e-05 -0.027379503 0.016827336 -0.035214987 -0.059240375
0.012660671 -0.0016816485 -0.04770335 0.06873018 -0.038325004 0.027363753 0.01884741 0.029709738
0.0429469 0.097616255 -0.04443317 -0.0004464736 -0.013767774 0.077221215 -0.06848881 -0.08164804
-0.014813885 0.0053444696 -0.05003005 0.08348659 -0.055902813 0.007625548 0.08483396 0.11200673
0.0800189 -0.0007018358 -0.052427664 0.035808995 0.0781886 0.009466438 0.02569512 -0.044907007
-0.056528203 0.06496319 0.0640218 -0.00065904215 -0.02843759 -0.051496107 -0.049355388 0.044585645
0.030764189 -0.03352966 0.048719756 0.0360531 -0.065510735 0.0067805853 -0.07980529 0.062829524
-0.061837733 -0.06590899 0.11957427 -0.09917954 -0.099336185 -0.047575466 -0.0415859 0.01604296
0.056414742 0.070530154 -0.055592854 0.13072574 -0.08480281 -0.020561578 0.08569838 0.1135853
0.01471117 0.09331719 -0.07743088 0.07777052 -0.018054312 -0.02994336 -0.003193937 0.09200798
-0.08979687 -0.096044235 0.10322429 -0.037999403 0.061036542 0.022306142 -0.00069072394 -0.073532075
-0.046051327 0.06658436 -0.027154816 0.0070945756 0.10999279 -0.08193495 -0.03076548 0.08933839
-0.016036363 -0.08264476 -0.017115103 -0.09696221 0.09917491 -0.057512112 0.0012145145 -0.017554238
-0.128698 0.059847936 0.04175713 -0.044969827 0.014886329 -0.07208056 0.012248694 -0.04170124
-0.07457662 0.11701963 -0.044425476 0.017438332 -0.005475221 -0.036100052 0.08280331 -0.009693586
-0.0022396026 -0.080220714 -0.050942756 0.0004573126 -0.021368183 -0.024473814 0.008761816 0.058065224
-0.058315136 0.00737467 -0.012317253 0.00022985949 0.029509244 0.049076904 0.013936308 -0.007600152
00000000: 2d88 f43d 0f13 debd 1b79 8b3d bab5 993c
00000010: fcdc 01bd 2e48 39bd c486 803d 2a43 a8bd
00000020: 2e09 803d 90fa b83d a16e 51bd 06b3 c7bd
00000030: 300f 453b 537b a23d 5f35 74bd cd63 37bd
00000040: 653a 013d 61fb b7bd aa64 193b 9f86 813d
00000050: 9220 ba3c ee13 67bd 40fb 35bd 6ea1 c23d
00000060: 381e 5a3d 996d c7bb f132 24bd e2c3 593d
00000070: 1555 82bd 14c1 213b 8caa 17bd 21de da3d
00000080: 717b cf3d 6609 113d 8c5b c0bd 1d25 ab3d
00000090: 59c9 85bc 0f2e f33c 0af8 923c ba55 c23d
000000a0: f2ea fe3d cc13 1dbc 8e44 5f3d 836a 093e
000000b0: 5c56 e43d 5299 42bb eece a73a 5884 53bd
000000c0: 8630 5dbc dffa a03c f6e8 8e3c 6649 073c
000000d0: 6904 a63d 54f3 36bd 2785 56bd d445 8d3c
000000e0: 336d 3fbd ed29 003d 2f32 873d 3e60 7b3c
000000f0: 786f fc3c e131 c73d fb3e a0bd 591f 753d
00000100: bd43 3f3d 9885 023b 9efd 273d fa89 2d3c
00000110: 8269 873d 3690 6d3d 1e28 04bd bab4 dd3c
00000120: bca0 1f3c 57ef 013d b8b5 ad3b 07c6 92bd
00000130: dc2c 05bc 6783 94bc a12d bbbc 2c73 a4bc
00000140: f11a c23c 7f40 c73c e43a 123c b04f a7ba
00000150: cef6 bfbb cf6b 8cbb fc24 e4bc 7683 c53b
00000160: ef9b 053d 45f8 df3d a4e0 98bd aed1 163d
00000170: 834c 17bc bbd7 243d 8f1e 6e3d 0770 3abc
00000180: 8795 973d 6d46 d9bd d447 afbc ed6f 183c
00000190: 1826 9fbd fddb 7c3d 0158 a0bd f05c 403d
000001a0: f7bb 29bd 2689 6b3d 60d5 54bd 9ebb 9dbc
000001b0: 1a0c 123b 2a67 a6bd 8159 5abd edaa 9cbc
000001c0: 7715 c23d fd61 4db9 47e9 63bd e502 dabc
000001d0: f2d8 52bd fa12 9ebd 2ddf c33c e88f 9ebc
000001e0: 15b4 7bbd 639a 60ba 6f61 c33c c34e b8b8
000001f0: fb4a e0bc 7bd9 893c 973d 10bd 09a6 72bd
00000200: b46e 4f3c c36a dcba 9764 43bd 69c2 8c3d
00000210: aefa 1cbd f329 e03c e265 9a3c d661 f33c
00000220: 17e9 2f3d 08eb c73d 8eff 35bd ac14 eab9
00000230: 3b92 61bc 2826 9e3d dc43 8cbd 1637 a7bd
00000240: f0b5 72bc a920 af3b 4fec 4cbd 04fb aa3d
00000250: 59fa 64bd bcdf f93b 6dbd ad3d c963 e53d
00000260: f3e0 a33d 67fb 37ba 64be 56bd 74ac 123d
00000270: 5821 a03d 1e19 1b3c 937e d23c 69f0 37bd
00000280: 1e8a 67bd 6c0b 853d dd1d 833d 92c3 2cba
00000290: f3f5 e8bc 95ed 52bd e028 4abd 709f 363d
000002a0: 2e05 fc3c 6656 09bd 5e8e 473d 6aac 133d
000002b0: 7e2a 86bd ac2f de3b f570 a3bd c4ac 803d
000002c0: 9049 7dbd 4bfb 86bd 5be3 f43d a51e cbbd
000002d0: c570 cbbd 7ede 42bd fa55 2abd 876c 833c
000002e0: 2513 673d 1d72 903d 55b5 63bd f8dc 053e
000002f0: 18ad adbd c170 a8bc a282 af3d 699f e83d
00000300: 1f07 713c 151d bf3d 1594 9ebd 2646 9f3d
00000310: a3e6 93bc c74b f5bc 5f51 51bb ae6e bc3d
00000320: 6ce7 b7bd d7b2 c4bd 4267 d33d 43a5 1bbd
00000330: 7401 7a3d 5fbb b63c b311 35ba fc97 96bd
00000340: 51a0 3cbd 625d 883d c773 debc 9d79 e83b
00000350: e643 e13d 83cd a7bd e307 fcbc 0cf7 b63d
00000360: b15e 83bc a841 a9bd f934 8cbc 2094 c6bd
00000370: 371c cb3d d291 6bbd 5830 9f3a e8cd 8fbc
00000380: 69c9 03be 1c23 753d 8609 2b3d 4832 38bd
00000390: cae5 733c f99e 93bd bfae 483c ebce 2abd
000003a0: a0bb 98bd fda7 ef3d 7df7 35bd d5da 8e3c
000003b0: 7c69 b3bb a6dd 13bd c894 a93d d9d1 1ebc
000003c0: 4cc6 12bb c24a a4bd 5aa9 50bd 75c3 ef39
000003d0: 540c afbc 4f7d c8bc b88d 0f3c cdd5 6d3d
000003e0: dadb 6ebd 37a7 f13b 4ece 49bc 7006 7139
000003f0: 5fbd f13c dd04 493d 1d55 643c b20a f9bb

network.0.bias f4 [256]
-0.07918728 -0.090066 0.0290917 0.049933102 0.10101803 -0.09515217 -0.061682552 0.08215276
-0.0567844 0.07988315 0.13015085 -0.088908695 -0.029834598 -0.014612511 0.027671766 -0.029341035
-0.05051377 -0.11437756 -0.060256407 0.047019053 -0.026445271 -0.0856545 0.009256051 0.018258529
0.086235955 -0.045768518 -0.09039867 0.0774616 0.12888715 0.123103805 0.1080294 -0.05281576
0.048773114 0.09527793 0.13567258 -0.118787624 -0.11534448 -0.09011463 0.04382419 0.0995433
0.005451493 -0.07924618 -0.05486831 -0.092427574 0.12872878 0.09837923 -0.084618546 -0.04163589
-0.11985405 0.0091202315 0.04192637 0.053371966 0.07059585 0.028699733 0.11365145 0.012015881
-0.00477001 0.090094104 0.10441416 0.04915616 -0.041854862 -0.0054175216 0.09319652 -0.061011594
-0.089027144 -0.016900511 -0.08664237 -0.07929505 0.11732759 0.02248493 -0.06283789 -0.1021102
-0.10016816 0.072991796 -0.022823984 -0.060764626 0.083522014 -0.05617461 -0.052796453 0.03438075
-0.045098633 0.024137631 0.11542908 0.07957173 -0.108654484 0.13521041 -0.012550142 0.07017938
0.01807278 -0.008504832 0.014348761 0.078803964 0.014066392 0.1174449 0.09968973 0.053360634
-0.09212692 0.0027888094 -0.053115502 -0.013440819 -0.071584955 -0.09044989 0.049723163 0.036197275
0.08234908 -0.055287708 -0.041388117 -0.035787977 -0.087266505 -0.019659527 0.058805887 0.11650489
0.027288297 -0.031102646 -0.03554534 -0.04693642 -0.030931124 0.085445285 0.033621393 0.02938023
0.02748962 0.07584286 -0.053072475 0.015792724 0.044481643 -0.076716274 0.037167225 -0.030559665
-0.07585478 -0.055944394 -0.08713713 0.00092787493 -0.030451236 0.07465427 0.090326674 0.12659948
0.08161434 0.070060655 -0.027497811 0.11656521 -0.015111312 0.13122712 -0.084984295 -0.022438088
0.030009473 0.0819204 0.011423804 -0.036136687 -0.015480667 -0.05688201 -0.069210894 0.06269406
-0.06744297 0.040656175 -0.031489696 -0.025700267 -0.008340013 -0.06270904 -0.10335399 0.058661673
0.04235575 0.11960195 0.08622573 -0.10961704 0.044242382 0.03703841 0.014909296 0.0060385508
0.08541515 0.0170685 -0.06449421 0.0316369 -0.058912717 0.05473541 -0.07119405 -0.047404908
-0.0041115996 0.117468566 0.08553827 -0.10017813 0.1328944 0.030840214 0.016603354 -0.085944
-0.07496719 -0.02516659 0.12366828 -0.1183356 -0.026409758 -0.12183621 0.007279125 -0.08626598
-0.10236248 0.056470577 -0.05056295 0.06793012 -0.03514321 -0.0044786055 -0.070397295 0.08445855
-0.05103578 -0.0151827065 0.042779673 -0.057632677 -0.08323956 0.13818203 -0.09517902 0.00091648055
-0.1383547 -0.09834896 0.018543813 0.12954864 -0.036762644 0.013441917 0.07702679 -0.024447799
-0.07806536 0.10362621 0.08049346 0.13166186 -0.08710486 -0.10058734 -0.0129632 0.09114219
0.032401875 0.10204884 0.08376607 0.13801959 -0.08854923 -0.02789705 -0.060050305 0.04071969
-0.019940168 0.04880034 -0.08094819 0.04144774 -0.053463437 -0.006908938 0.12683849 0.10822646
0.0653502 -0.07457421 0.08741347 -0.1041853 -0.013475655 -0.07890727 -0.023370104 0.13877018
-0.057374112 -0.011939021 -0.045986746 0.034922224 0.059395753 -0.08446375 0.08086102 0.04840806
00000000: f12c a2bd 8674 b8bd b851 ee3c a786 4c3d
00000010: 8ae2 ce3d 24df c2bd d8a6 7cbd b53f a83d
00000020: c296 68bd c799 a33d 4446 053e c315 b6bd
00000030: b067 f4bc 5069 6fbc e6af e23c 9c5c f0bc
00000040: 87e7 4ebd c83e eabd 6ccf 76bd 0d97 403d
00000050: c1a3 d8bc a06b afbd b1a6 173c e992 953c
00000060: 7a9c b03d c577 3bbd f022 b9bd 30a4 9e3d
00000070: fefa 033e d91d fc3d 853e dd3d 5755 58bd
00000080: 51c6 473d 1321 c33d c1ed 0a3e ed46 f3bd
00000090: ba39 ecbd 058e b8bd fe80 333d 5cdd cb3d
000000a0: 70a2 b23b d24b a2bd 98bd 60bd ab4a bdbd
000000b0: 7ad1 033e 0d7b c93d 7d4c adbd 658a 2abd
000000c0: 0a76 f5bd 066d 153c fcba 2b3d 909c 5a3d
000000d0: 8f94 903d b41b eb3c 17c2 e83d 42de 443c
000000e0: be4d 9cbb 4283 b83d 17d7 d53d f857 493d
000000f0: 0170 2bbd 7785 b1bb d1dd be3d 4be7 79bd
00000100: dd53 b6bd f172 8abc 8e71 b1bd 7165 a2bd
00000110: 7349 f03d 5132 b83c 27b1 80bd 271f d1bd
00000120: f724 cdbd b97c 953d 5df9 babc 54e4 78bd
00000130: 970d ab3d 5917 66bd 1841 58bd d4d2 0c3d
00000140: 58b9 38bd 48bc c53c 1566 ec3d 81f6 a23d
00000150: 3e86 debd 9974 0a3e 1c9f 4dbc 35ba 8f3d
00000160: 5e0d 943c da57 0bbc 1117 6b3c f963 a13d
00000170: b976 663c f486 f03d 212a cc3d ae90 5a3d
00000180: 0aad bcbd 75c4 363b a48f 59bd e236 5cbc
00000190: 229b 92bd cb3d b9bd 84aa 4b3d 9843 143d
000001a0: a2a6 a83d 5d75 62bd 9686 29bd 6a96 12bd
000001b0: c8b8 b2bd 040d a1bc 71de 703d 1e9a ee3d
000001c0: b58b df3c faca febc fe97 11bd 6740 40bd
000001d0: 4563 fdbc f0fd ae3d 96b6 093d cfae f03c
000001e0: e931 e13c 8053 9b3d 8662 59bd be5f 813c
000001f0: 6232 363d 6c1d 9dbd a93c 183d 4358 fabc
00000200: c059 9bbd f325 65bd f474 b2bd a23c 733a
00000210: df74 f9bc 57e4 983d 31fd b83d 4ba3 013e
00000220: 6b25 a73d f67b 8f3d 1743 e1bc beb9 ee3d
00000230: 7095 77bc 6760 063e 3f0c aebd 15d0 b7bc
00000240: 6dd6 f53c e2c5 a73d e82a 3b3c 1004 14bd
00000250: a0a2 7dbc 1cfd 68bd 71be 8dbd be65 803d
00000260: 8a1f 8abd 1787 263d 57fb 00bd 5e89 d2bc
00000270: 8da4 08bc 996d 80bd 42ab d3bd 3947 703d
00000280: 397d 2d3d def1 f43d 1e97 b03d e67e e0bd
00000290: 8037 353d 96b5 173d 1f46 743c 09df c53b
000002a0: 23ee ae3d 3dd3 8b3c 8a15 84bd b295 013d
000002b0: 764e 71bd 3d32 603d 30ce 91bd a62b 42bd
000002c0: 99ba 86bb 5c93 f03d b02e af3d 312a cdbd
000002d0: 7815 083e 9ea4 fc3c c203 883c 6803 b0bd
000002e0: 6688 99bd 2a2a cebc cc45 fd3d ef59 f2bd
000002f0: 4759 d8bc 4385 f9bd ba85 ee3b 38ac b0bd
00000300: 6ba3 d1bd b14d 673d 191b 4fbd f21e 8b3d
00000310: 54f2 0fbd 44c1 92bb 752c 90bd 9bf8 ac3d
00000320: e50a 51bd e3c0 78bc bd39 2f3d 3e10 6cbd
00000330: 8179 aabd 977f 0d3e 38ed c2bd f83f 703a
00000340: dbac 0dbe 2e6b c9bd 32e9 973c 66a8 043e
00000350: 6d94 16bd 7c3b 5c3c 39c0 9d3d c046 c8bc
00000360: bbe0 9fbd fa39 d43d c1d9 a43d 5ed2 063e
00000370: 0864 b2bd bc00 cebd 9a63 54bc c2a8 ba3d
00000380: d4b7 043d fbfe d03d 8c8d ab3d 0255 0d3e
00000390: 4c59 b5bd 5b88 e4bc 4ff7 75bd b1c9 263d
000003a0: 9059 a3bc dee2 473d 2ac8 a5bd 1bc5 293d
000003b0: 7afc 5abd 5f64 e2bb f3e1 013e d6a5 dd3d
000003c0: 53d6 853d 5dba 98bd d505 b33d 1a5f d5bd
000003d0: fec8 5cbc 239a a1bd a972 bfbc c519 0e3e
000003e0: 1e01 6bbd e29b 43bc 995c 3cbd 9b0a 0f3d
000003f0: f648 733d 55fb acbd 769a a53d 8847 463d

network.3.weight f4 [128, 256]
0.033771418 -0.017687585 -0.004295412 -0.046325404 0.010350034 -0.008005639 -0.0037551657 0.015941253
0.0043988307 -0.029221019 -0.026235722 0.021769213 0.035187572 0.0025964316 0.0036578327 -0.032940324
0.019361367 0.005056734 -0.047607116 0.0031040716 -0.02596008 -0.035519343 0.010025788 -0.0139964875
0.021110348 0.004918175 0.025187677 -0.021074198 -0.029367093 -0.042630557 -0.031203806 -0.03861076
-0.009071961 0.009665757 -0.017163161 -0.010721457 0.02530132 -0.01805849 -0.03593896 0.043581527
0.03657054 -0.02746432 -0.01712257 0.014408291 -0.002364 0.0384654 0.040794544 -0.028134566
-0.016044477 0.017458906 -0.027256742 0.025277782 -0.0045133373 -0.0014744577 0.037544016 0.04078039
0.01738576 0.033995926 -0.038054913 -0.0042451136 0.0010557653 0.0012024269 0.013283777 0.044522025
0.026472827 -0.025380667 -0.04888589 7.91978e-06 -0.00094130606 -0.012714346 0.0029881715 0.011753353
0.0048654587 -0.021062965 -0.011085011 0.011798626 0.026420573 0.027069133 0.0124579035 0.016990617
0.034359995 0.029382331 0.030790089 0.022015633 0.014337887 -0.008642226 0.03010065 0.051803365
-0.014131975 0.030757667 0.02073008 0.033343535 -0.026342403 0.021492941 -0.014995031 0.030828483
-0.014918616 -0.013360742 -0.0053846543 0.04225599 -0.0060564424 0.007178975 0.025276111 0.011921084
-0.02822712 0.0029324223 -0.013520085 0.038067818 -0.008627693 -0.028596625 0.04338039 -0.002086188
0.046625666 0.0035317368 -0.03526802 -0.037601728 -0.02264769 -0.0463503 -0.03778499 -0.015589326
0.053334434 -0.042289943 0.012784534 0.004264619 0.030051282 0.024118735 0.029732425 0.033079006
-0.018963035 -8.811287e-05 -0.010007794 -0.0080781495 0.035556618 0.030059699 -0.01850021 -0.044878528
0.049865097 -0.04097595 0.039199978 -0.027179355 -0.029851746 0.05144909 -0.012442494 0.026097463
-0.012287562 -0.012206134 -0.035982165 0.013653991 -0.022164328 -0.033816937 -0.0016122544 0.043822996
0.0012599794 -0.042276967 0.04783619 -0.009398171 -0.03512119 0.019460883 -0.019910574 -0.03831563
0.03851651 0.042130433 0.011367066 -0.035771187 -0.005320524 -0.032147713 -0.02980842 0.017515702
0.03403889 0.014899287 0.008100077 -0.03762532 -0.014787746 0.025406327 0.018005563 -0.018982904
-0.026768068 -0.02015793 0.01750285 0.0029617206 -0.00028471666 -0.007390589 0.013683854 0.0047099413
-0.00029903412 0.0022152932 -0.021225406 0.0035570418 0.009864851 0.0011689618 -0.023953589 0.002894692
0.0007546952 -0.019295456 -0.021422436 -0.0036065027 0.019290412 -0.015243608 0.0053455993 0.016976332
0.03721671 0.013689383 -0.014678711 -0.03433601 0.01952438 0.020269677 0.011712172 -0.038201895
0.029526107 -0.023104781 0.019881634 0.04313445 0.014411086 0.033461682 0.007142139 0.0007877371
-0.018917844 0.0017043485 0.037563495 0.030475076 0.0053898077 -0.010583594 0.0082977405 0.049414445
-0.0224939 0.055369552 -0.012069057 -0.009726403 -0.007146292 0.034952678 -0.022446893 -0.006631549
-0.04438776 0.047108494 -0.0014675115 -0.043486167 -0.010526943 -0.029664656 -0.0123049645 0.016955255
0.04331298 -0.0034409214 0.028607048 0.008772437 0.033501007 -0.029185856 -0.009850045 -0.053807054
0.00021509675 0.0019651318 -0.022876233 -0.043704826 -0.008791178 0.035027497 0.04590588 0.022981262
00000000: e653 0a3d 8ee5 90bc 87c0 8cbb b5bf 3dbd
00000010: 3093 293c 152a 03bc 3a19 76bb 3b97 823c
00000020: 1124 903b eb60 efbc 4cec d6bc 5955 b23c
00000030: d820 103d e528 2a3b 40b8 6f3b 6fec 06bd
00000040: bb9b 9e3c f6b2 a53b aeff 42bd ae6d 4b3b
00000050: 3caa d4bc bb7c 11bd 3443 243c 8651 65bc
00000060: 9cef ac3c a428 a13b 6356 ce3c cca3 acbc
00000070: 4293 f0bc 619d 2ebd 209f ffbc 5126 1ebd
00000080: 90a2 14bc 205d 1e3c c299 8cbc 0da9 2fbc
00000090: b744 cf3c 66ef 93bc bb34 13bd 8b82 323d
000000a0: feca 153d dbfc e0bc a244 8cbc c110 6c3c
000000b0: 57ed 1abb e58d 1d3d 2e18 273d 767a e6bc
000000c0: b56f 83bc fb05 8f3c 8849 dfbc 5a13 cf3c
000000d0: 9ee4 93bb 9742 c1ba c1c7 193d 5709 273d
000000e0: 956c 8e3c 503f 0b3d 78df 1bbd 981a 8bbb
000000f0: 9b61 8a3a c09a 9d3a 33a4 593c ba5c 363d
00000100: 8bdd d83c 1eeb cfbc 923c 48bd 32df 0437
00000110: fbc1 76ba d54f 50bc 33d5 433b 2391 403c
00000120: 6d6e 9f3b 3d8c acbc e89d 35bc 064f 413c
00000130: f56f d83c 16c0 dd3c 3c1c 4c3c e82f 8b3c
00000140: 11bd 0c3d 37b3 f03c 7f3b fc3c 215a b43c
00000150: 75e9 6a3c 2098 0dbc a395 f63c c42f 543d
00000160: cd89 67bc 81f7 fb3c 21d2 a93c 3b93 083d
00000170: 06cc d7bc f711 b03c b8ad 75bc 048c fc3c
00000180: 366d 74bc 03e7 5abc c171 b0bb 9e14 2d3d
00000190: 1f75 c6bb 9b3d eb3b d90f cf3c a650 433c
000001a0: 903c e7bc e22d 403b 5983 5dbc 00ed 1b3d
000001b0: 2b5b 0dbc 7843 eabc a3af 313d 6db8 08bb
000001c0: 8efa 3e3d b674 673b 3375 10bd 4504 1abd
000001d0: a687 b9bc d0d9 3dbd 6fc4 1abd 5f6a 7fbc
000001e0: 3575 5a3d 3838 2dbd 3976 513c 38be 8b3b
000001f0: 1b2e f63c a794 c53c 6a91 f33c da7d 073d
00000200: 5e58 9bbc 3dc9 b8b8 bbf7 23bc 375a 04bc
00000210: d1a3 113d c23f f63c c18d 97bc 8cd2 37bd
00000220: 583f 4c3d 66d6 27bd 2890 203d 3da7 debc
00000230: a68b f4bc 48bc 523d 9adb 4bbc 59ca d53c
00000240: c551 49bc 3dfc 47bc 0962 13bd fdb4 5f3c
00000250: f791 b5bc a183 0abd 4852 d3ba be7f 333d
00000260: e525 a53a 9d2a 2dbd e1ef 433d c9fa 19bc
00000270: 3ddb 0fbd 6e6c 9f3c 801b a3bc daf0 1cbd
00000280: 7dc3 1d3d f690 2c3d ee3c 3a3c cf84 12bd
00000290: ca57 aebb 52ad 03bd ca30 f4bc 177d 8f3c
000002a0: 5d6c 0b3d 241c 743c 2fb6 043c 021d 1abd
000002b0: 4d48 72bc ee20 d03c 6780 933c 0982 9bbc
000002c0: b548 dbbc 3e22 a5bc 2362 8f3c 6d19 423b
000002d0: 0646 95b9 c12c f2bb 3e32 603c da55 9a3b
000002e0: aec7 9cb9 742e 113b e7e0 adbc 421d 693b
000002f0: 2fa0 213c d937 993a 513a c4bc dfb4 3d3b
00000300: bdd6 453a 8111 9ebc 1b7e afbc 135b 6cbb
00000310: ed06 9e3c 53c0 79bc 232a af3b f311 8b3c
00000320: 8d70 183d 6f49 603c fa7e 70bc eba3 0cbd
00000330: 98f1 9f3c 980c a63c 69e4 3f3c 9779 1cbd
00000340: bce0 f13c 3d46 bdbc cfde a23c c0ad 303d
00000350: 7a1c 6c3c 1e0f 093d 9b08 ea3b 2480 4e3a
00000360: 98f9 9abc 7264 df3a 2edc 193d dea6 f93c
00000370: fc9c b03b d066 2dbc 3ff3 073c cd66 4a3d
00000380: 2145 b8bc 2fcb 623d 4bbd 45bc 7e5b 1fbc
00000390: 712b eabb 8a2a 0f3d 8ce2 b7bc 774d d9bb
000003a0: f1cf 35bd d6f4 403d 8459 c0ba 8d1e 32bd
000003b0: 3379 2cbc 4b03 f3bc c39a 49bc bfe5 8a3c
000003c0: f468 313d 1581 61bb 5459 ea3c 45ba 0f3c
000003d0: 5a38 093d 2d17 efbc 1562 21bc c964 5cbd
000003e0: 988b 6139 71c9 003b f066 bbbc d503 33bd
000003f0: e008 10bc fe78 0f3d ce07 3c3d 3343 bc3c

network.3.bias f4 [128]
0.04430962 0.007546453 0.010222016 0.047814637 -0.03534205 0.0074223033 0.01414896 -0.018161202
-0.0030924666 0.062344894 0.006158372 0.040921554 -0.047643855 0.02985191 0.034270752 0.056068964
0.047576252 -0.003662992 -0.013809911 0.0030611854 -0.05099376 -0.024724942 -0.026913898 0.0175728
-0.037076894 0.0032624432 0.039901327 -0.052462064 0.05948421 0.0033997702 -0.027751682 -0.003998664
0.06045373 0.029262032 -0.007966499 -0.030324252 -0.036340903 0.037479267 0.055345517 -0.032561827
0.046162535 0.006040413 -0.041099917 -0.04554704 0.007651298 0.040325712 -0.049661156 0.017330986
0.041760582 -0.060288727 -0.0145026995 0.0049816812 -0.039394524 -0.017670732 -0.050140444 -0.0125609245
-0.018823463 0.03659896 -0.0074815364 0.027515136 0.01919681 -0.05874721 0.04029237 0.0031014837
-0.040773176 0.023170302 0.042889934 -0.04612076 -0.0028978947 0.001296305 0.027088886 0.0013143477
-0.033408064 0.047434706 0.013136865 0.05970293 -0.05318625 0.014199865 -0.048475645 -0.042239573
0.047542892 -0.010957788 0.009661656 -0.0013226384 -0.009796734 -0.023655187 0.009216387 0.034145515
0.036617383 -0.030704644 0.030889453 -0.020452194 -0.039370682 0.00239068 -0.016081274 -0.025716746
-0.013296301 0.006325286 0.014051394 0.021148058 -0.011828008 0.055416808 -0.032893635 -0.042703006
-0.04380137 0.032419484 0.04486367 -0.04618726 0.0351349 0.0076221465 -0.00910772 0.03225559
-0.013122781 0.05628306 -0.04932623 -0.011897301 -0.015509918 -0.0023796035 0.043007597 0.0067021605
0.054379433 -0.047081515 0.05969827 0.037706163 -0.0012555806 -0.02745682 -0.008886182 0.034444295
00000000: 017e 353d 3c48 f73b 3e7a 273c 48d9 433d
00000010: d3c2 10bd cb36 f33b 0ad1 673c cdc6 94bc
00000020: fbaa 4abb 5c5d 7f3d 2bcc c93b 5c9d 273d
00000030: 3426 43bd fe8b f43c 7d5f 0c3d 92a8 653d
00000040: 51df 423d cf0e 70bb f742 62bc 2b9e 483b
00000050: d5de 50bd f68b cabc 897a dcbc d5f4 8f3c
00000060: f1dd 17bd b7ce 553b 936f 233d 76e2 56bd
00000070: b7a5 733d aece 5e3b 7f57 e3bc 3a07 83bb
00000080: 559e 773d eeb6 ef3c eb85 02bc 916a f8bc
00000090: 33da 14bd dc83 193d fbb1 623d 8d5f 05bd
000000a0: ed14 3d3d a8ee c53b 6358 28bd 888f 3abd
000000b0: bdb7 fa3b 932c 253d 7f69 4bbd b6f9 8d3c
000000c0: 250d 2b3d 50f1 76bd bb9c 6dbc 5f3d a33b
000000d0: 275c 21bd 36c2 90bc 1160 4dbd 56cc 4dbc
000000e0: aa33 9abc cbe8 153d ad27 f5bb 6c67 e13c
000000f0: a142 9d3c eaa0 70bd 9d09 253d 4342 4b3b
00000100: c601 27bd a5cf bd3c 5bad 2f3d 1fe9 3cbd
00000110: 9bea 3dbb c7e8 a93a 83e9 dd3c 3146 ac3a
00000120: e5d6 08bd e54a 423d 013c 573c 0f8b 743d
00000130: d3d9 59bd 8da6 683c 668e 46bd 6703 2dbd
00000140: 56bc 423d 4b88 33bc ec4b 1e3c 615c adba
00000150: 7b82 20bc 86c8 c1bc 5400 173c 2bdc 0b3d
00000160: 1cfc 153d 4e88 fbbc e10b fd3c 5c8b a7bc
00000170: 2743 21bd f4ac 1c3b e0bc 83bc edab d2bc
00000180: bad8 59bc 5844 cf3b d137 663c b13e ad3c
00000190: 43ca 41bc bcfc 623d 7abb 06bd 59e9 2ebd
000001a0: 1169 33bd 4bca 043d f8c2 373d da2e 3dbd
000001b0: 9de9 0f3d 33c3 f93b 8c38 15bc 701e 043d
000001c0: ef00 57bc 1189 663d 4d0a 4abd e6ec 42bc
000001d0: 501d 7ebc 1ff3 1bbb bc28 303d cc9d db3b
000001e0: f8bc 5e3d 8cd8 40bd 2c86 743d c771 1a3d
000001f0: 4b92 a4ba 20ed e0bc 5997 11bc 7615 0d3d

network.6.weight f4 [64, 128]
-0.034334008 0.042298254 -0.07013687 0.01644446 -0.054163065 0.08712498 0.07688382 0.0030085864
-0.05874418 -0.017462334 0.008469272 -0.04558181 0.014436512 0.043798145 0.039533027 -0.056029145
0.04948187 -0.01734618 0.03849663 -0.016240485 0.022779193 -0.01833333 -0.006445462 0.0804179
0.036281887 0.0024315286 0.0037373435 -0.03792663 -0.08071217 0.046885476 -0.0089312885 -0.035852198
0.026878089 -0.022390869 -0.03528894 0.02271334 -0.034130137 -0.05105643 -0.048791118 -0.022036538
-0.03722704 0.005149845 -0.0012749489 -0.06527145 0.059509482 -0.07797288 0.03116363 0.007553633
0.051059548 -0.02979711 0.0196717 0.03482365 0.0066356324 -0.004222414 0.054535918 0.02245492
0.05043856 0.08223858 0.030939352 0.0147111425 -0.01064635 -0.057910774 -0.0049495255 0.087359905
-0.019935811 -0.040481895 0.07385787 -0.051080544 0.035094548 0.065578155 -0.022957202 -0.021994365
0.0059187687 0.087525606 0.008137399 0.033750646 0.009811925 0.009137398 0.055570222 -0.052575048
-0.013708149 0.067998044 0.014591874 0.08174281 0.09326837 0.028914733 0.02918711 0.0032862586
-0.05249852 -0.057666518 -0.04081278 -0.039854005 0.06795352 0.0126553085 0.068245135 -0.007651318
0.08660423 0.03167142 0.065407515 -0.049921766 0.09344501 0.06316026 -0.029998384 0.00015589352
0.02953079 -0.06926118 0.011509681 0.0044946694 -0.07028984 0.030890437 -0.008840296 -0.026429009
-0.0011263561 -0.04711728 0.0022279418 -0.013193468 0.002538202 0.03391579 -0.050191283 -0.057737164
0.088486925 -0.02625219 -0.035608277 0.09158962 -0.019983498 0.072905876 0.011337598 -0.04771904
0.0048389854 -0.012510251 0.0046007587 0.0013713255 -0.022547716 0.017032718 0.038801108 -0.058326963
0.014886533 0.038665507 0.008025314 -0.02060915 0.010704187 -0.0112203695 0.0690589 -0.0046846773
-0.046116382 0.016557734 0.017640045 -0.012735546 0.0049296194 0.05055195 -0.0022156886 -0.0133621795
0.028003102 -0.026898226 -0.0057765287 -0.03681381 0.05167235 0.0058537857 0.0013965295 0.067181826
-0.019937215 -0.0003215698 0.02294512 -0.044223223 -0.003000839 -0.04253537 0.041290317 -0.018914886
-0.012353103 0.062694184 -0.008943372 0.047161326 0.022401752 -0.013342948 -0.0016110346 0.0007555414
0.04036754 -0.030493375 -0.036610156 0.064536974 0.00077183306 0.011245375 -0.01585454 -0.020008288
-0.0018794814 -0.018087698 -0.0203634 -0.038879726 -0.005310885 0.010611112 0.040194053 -0.014256526
0.027047267 0.017021095 -0.00221109 -0.047019947 0.005756717 -0.02679121 0.05052829 -0.001381078
-0.028371409 -0.044120602 -0.045173652 -0.035344277 0.010427194 0.020343514 0.018856796 -0.023660932
0.03163408 0.0053310697 -0.01499596 -0.0070163845 0.06327623 0.018824235 -0.018981576 -0.04281984
-0.024140188 -0.027596405 0.029525008 0.0381023 0.030425083 0.009955173 -0.0399958 -0.01305998
0.04878961 -0.0032144324 -0.045389976 -0.020411883 -0.048294187 0.027821964 -0.023523703 0.026618987
0.00031191713 0.058911737 0.028339215 -0.0011912859 -0.00096425123 0.07741252 -0.005456741 0.03144727
-0.008613764 -0.047441185 0.023860166 -0.025001131 -0.018398635 -0.05913583 -0.057330396 0.021300903
0.051634908 0.041257832 -0.038285084 -0.00028601137 0.00021758325 -0.032192666 -0.005168864 0.020086491
00000000: d1a1 0cbd ef40 2d3d eba3 8fbd 88b6 863c
00000010: 17da 5dbd 956e b23d 4475 9d3d b42b 453b
00000020: bd9d 70bd 2b0d 8fbc b4c2 0a3c feb3 3abd
00000030: 1f87 6c3c af65 333d 62ed 213d d17e 65bd
00000040: 80ad 4a3d 9319 8ebc a4ae 1d3d c40a 85bc
00000050: 6e9b ba3c c82f 96bc 7434 d3bb 24b2 a43d
00000060: 519c 143d 485a 1f3b 38ee 743b f458 1bbd
00000070: 6c4c a5bd fc0a 403d 8a54 12bc c1d9 12bd
00000080: 702f dc3c 0e6d b7bc 238b 10bd 5411 ba3c
00000090: 0bcc 0bbd 8c20 51bd 32d9 47bd f885 b4bc
000000a0: 617b 18bd 08c0 a83b 301c a7ba 0aad 85bd
000000b0: 37c0 733d 3fb0 9fbd de4a ff3c 7784 f73b
000000c0: d123 513d 1219 f4bc 8c26 a13c 3ea3 0e3d
000000d0: b86f d93b 2d5c 8abb 0e61 5f3d 61f3 b73c
000000e0: aa98 4e3d b36c a83d 8674 fd3c 0107 713c
000000f0: 076e 2ebc d933 6dbd a12f a2bb c0e9 b23d
00000100: 6d50 a3bc 58d0 25bd cc42 973d d539 51bd
00000110: 4dbf 0f3d d74d 863d be10 bcbc 872d b4bc
00000120: 3bf2 c13b a040 b33d ba52 053c 1e3e 0a3d
00000130: 32c2 203c 06b5 153c 9a9d 633d ef58 57bd
00000140: 2598 60bc 8f42 8b3d c112 6f3c c668 a73d
00000150: 7d03 bf3d 97de ec3c ce19 ef3c 455e 573b
00000160: b008 57bd ba33 6cbd 4d2b 27bd f43d 23bd
00000170: 372b 8b3d 3658 4f3c 1bc4 8b3d e8b7 fabb
00000180: 8f5d b13d e4b9 013d 60f4 853d c47a 4cbd
00000190: 1960 bf3d 2b5a 813d 2cbf f5bc 5977 2339
000001a0: 8eea f13c ced8 8dbd 1a93 3c3c 0548 933b
000001b0: 1ff4 8fbd f10d fd3c e4d6 10bc a681 d8bc
000001c0: 3da2 93ba 0dfe 40bd a902 123b 6a29 58bc
000001d0: f757 263b 49eb 0a3d 6095 4dbd ce7d 6cbd
000001e0: a238 b53d d50e d7bc fcd9 11bd 5793 bb3d
000001f0: 6fb4 a3bc ad4f 953d 55c1 393c 0a75 43bd
00000200: 5a90 9e3b ccf7 4cbc f6c1 963b 0cbe b33a
00000210: fdb5 b8bc 3388 8b3c e9ed 1e3d 41e8 6ebd
00000220: a5e6 733c b95f 1e3d 9b7c 033c 85d4 a8bc
00000230: 9d60 2f3c a4d5 37bc c16e 8d3d ec81 99bb
00000240: 88e4 3cbd 16a4 873c db81 903c c0a8 50bc
00000250: a588 a13b 900f 4f3d 1635 11bb 0bed 5abc
00000260: c366 e53c ab59 dcbc 0949 bdbb 14ca 16bd
00000270: 63a6 533d 1dd1 bf3b c10b b73a a096 893d
00000280: 5f53 a3bc 5e98 a8b9 68f7 bb3c 6923 35bd
00000290: b9a9 44bb 9139 2ebd 0920 293d 64f3 9abc
000002a0: ab64 4abc cf65 803d 3987 12bc 3c2c 413d
000002b0: e183 b73c 619c 5abc 5a29 d3ba 860f 463a
000002c0: 6f58 253d 3ecd f9bc 88f4 15bd f62b 843d
000002d0: d754 4a3a 853e 383c 61e1 81bc 6ce8 a3bc
000002e0: ee58 f6ba a72c 94bc 25d1 a6bc 5940 1fbd
000002f0: ef06 aebb 3bda 2d3c 85a2 243d 3494 69bc
00000300: 3b92 dd3c d36f 8b3c efe7 10bb fd97 40bd
00000310: d8a2 bc3b 3d79 dbbc c1f6 4e3d 4a05 b5ba
00000320: 286b e8bc ceb7 34bd 0208 39bd 29c5 10bd
00000330: d2d6 2a3c 71a7 a63c 9179 9a3c 92d4 c1bc
00000340: bd92 013d 41b0 ae3b 9db1 75bc b3e9 e5bb
00000350: f896 813d 4835 9a3c 407f 9bbc db63 2fbd
00000360: a5c1 c5bc db11 e2bc 6ede f13c 2811 1c3d
00000370: 063e f93c 061b 233c a3d2 23bd 87f9 55bc
00000380: 9dd7 473d 3aa9 52bb d7ea 39bd d236 a7bc
00000390: 20d0 45bd e3ea e33c c8b4 c0bc 1010 da3c
000003a0: cf88 a339 6f4d 713d a427 e83c ec24 9cba
000003b0: cec5 7cba 758a 9e3d 76ce b2bb dace 003d
000003c0: bf20 0dbc b051 42bd 6576 c33c 2ccf ccbc
000003d0: bcb8 96bc 6938 72bd 47d3 6abd 3b7f ae3c
000003e0: 207f 533d f9fd 283d d2d0 1cbd ccf3 95b9
000003f0: 0f27 6439 75dc 03bd 935f a9bb 6d8c a43c

network.6.bias f4 [64]
0.0105614355 0.002444167 0.012757056 0.05587094 -0.062903345 0.014076767 0.037278622 0.07256796
0.07964922 0.004196575 -0.033221018 0.031584036 0.0018254668 -0.04913024 0.061993014 -0.05942227
-0.08146486 -0.0064250687 0.015589617 -0.03790958 0.053003777 -0.05877184 0.029842695 0.017558986
0.05278762 -0.024797944 0.053412713 -0.0137463985 0.02358349 -0.07812545 0.07381695 -0.00020540826
-0.032731686 -0.024718259 -0.047757916 0.07570516 0.011558363 0.029593237 0.0079888515 0.06305161
0.008953768 0.05337312 -0.036812346 0.07850612 -0.037993137 -0.044517107 -0.045828603 -0.041282367
0.05508181 -0.013422157 0.05136069 -0.0735405 0.049355537 0.07551614 0.02990915 0.05817271
-0.016236125 0.004036525 0.0005359199 0.007667525 -0.0056633726 -0.06469795 -0.014291555 -0.04091446
00000000: df09 2d3c 512e 203b f902 513c edd8 643d
00000010: 78d3 80bd 3da2 663c 78b1 183d 839e 943d
00000020: 211f a33d 6c83 893b c312 08bd 435e 013d
00000030: 8044 ef3a ca3c 49bd 63ec 7d3d c464 73bd
00000040: 0cd7 a6bd 6289 d2bb 986b 7f3c 1347 1bbd
00000050: 7d1a 593d beba 70bd ab78 f43c ddd7 8f3c
00000060: d537 583d 0f25 cbbc 4ac7 5a3d 9338 61bc
00000070: 2a32 c13c 3c00 a0bd 572d 973d dc62 57b9
00000080: a911 06bd f27d cabc ce9d 43bd 4f0b 9b3d
00000090: 4a5f 3d3c 846d f23c ace3 023c 3421 813d
000000a0: d3b2 123c c69d 5a3d 8bc8 16bd d1c7 a03d
000000b0: b19e 1bbd 9257 36bd c6b6 3bbd b317 29bd
000000c0: 779d 613d 9be8 5bbc 965f 523d 679c 96bd
000000d0: 0829 4a3d 35a8 9a3d 0904 f53c 8246 6e3d
000000e0: 9f01 85bc d344 843b fa7c 0c3a dd3f fb3b
000000f0: d093 b9bb 5c80 84bd 2027 6abc ec95 27bd

network.9.weight f4 [32, 64]
-0.080303386 -0.06416068 -0.064883165 -0.028135786 0.06903397 -0.06880833 -0.07793393 -0.058980163
-0.04175479 0.060826447 0.07795813 -0.04642462 -0.0073641734 -0.072406426 -0.09392573 0.06154409
-0.016724491 0.027719831 0.047319118 0.056520794 0.030476365 -0.0018697941 0.018729836 0.07626926
0.0030279092 -0.08524411 -0.09972185 0.023354186 -0.10439857 0.07349346 0.05393759 0.0032862336
0.08017585 0.020882038 -0.00010940215 0.043114275 0.020531217 0.0758306 0.07415952 -0.033330195
0.09127472 0.048193343 0.021953333 -0.013612726 0.02524168 -0.10447211 0.01015637 -0.0030302594
-0.07466166 -0.0011827659 0.018192315 0.013934008 -0.08624294 -0.08374699 -0.07571276 0.0091592735
-0.06858839 -0.097196676 0.08814973 -0.08162462 0.047201786 -0.00017032916 -0.08552603 -0.067380846
-0.09702537 0.08718074 -0.014082898 -0.08254839 0.07038613 0.071367085 -0.077853896 -0.10219997
-0.08597973 0.044046324 0.09238551 -0.040084757 0.0716355 -0.03923629 0.007037446 -0.010460387
-0.047217965 -0.095966205 -0.078801975 -0.11904769 0.0597409 0.0014706453 0.090832025 0.07711729
-0.1094151 0.08363274 0.06069727 -5.993755e-05 -0.04765709 -0.057501413 -0.11595402 -0.12519804
0.041381106 0.019514918 0.015171292 -0.04175835 0.051851768 -0.007687919 -0.00949659 0.038627855
0.048411574 -0.07734704 -0.044524025 -0.097433686 0.0013739868 0.082365096 0.08411789 -0.013248539
0.049042463 -0.020052763 0.08181231 0.03239976 0.035739772 -0.038616113 -0.07988891 -0.07527022
0.016382804 0.050280973 0.095849365 -0.03435438 -0.0130637735 0.024271695 -0.06608902 0.046263136
0.040808056 0.011280678 0.008220746 0.023770005 0.015181686 -0.056726485 0.084954165 0.0835548
0.08382885 -0.022340715 -0.015394822 -0.08129869 -0.05440902 0.056130875 0.08040714 0.013239905
0.0072111334 0.011047721 0.04702935 -0.005065781 -0.0042232736 -0.011990735 0.038179558 -0.009287772
0.12709023 0.0059221294 0.07398681 0.018034626 0.10659632 0.031314783 0.06455216 0.005407401
0.11511267 -0.041864093 -1.0191971e-05 -0.0016180044 0.020924373 0.06511966 0.09074103 0.10137787
0.088900596 0.022542905 0.12920181 0.063009195 0.010389362 -0.02464374 -0.009522409 -0.03905087
-0.081042655 -0.0268904 0.053684458 0.04003931 -0.01138394 -0.062487755 0.08477285 -0.035265397
0.038373236 0.07896243 -0.08778851 0.10559183 0.020622287 0.013630675 -0.043594517 0.027942643
-0.035500977 -0.045441113 0.046184402 -0.036777027 -0.0052393377 0.0024458074 -0.0046450556 0.0004909482
-0.025843933 -0.0037625483 0.011551477 -0.0007756704 -0.03009297 -0.016015027 -0.034696307 0.0024919545
-0.00030677146 -0.00074866164 -0.0012751484 0.031535476 0.046437427 -1.2962978e-10 -8.7358885e-06 0.01931257
-0.020697825 -0.017639695 0.0075602396 0.021175683 0.0039554355 0.033321574 0.004760204 -0.00025254523
0.039381202 -0.0002388912 1.0188261e-34 -0.015810233 0.032148533 -0.0059945704 -0.004735998 -0.002210343
0.046494853 -0.048148792 0.0015570513 0.00011319402 0.04614263 0.030094387 -0.016105454 0.043237966
-0.015620072 0.0018465883 -0.029587874 0.018187871 -4.5217257e-05 -0.00393342 0.04191245 0.0002487065
-0.018477334 -0.005244851 -0.045230217 0.007170424 0.03879428 -0.033424556 1.7922734e-05 -0.00092861004
00000000: 1a76 a4bd ad66 83bd 77e1 84bd 057d e6bc
00000010: af61 8d3d 62eb 8cbd d39b 9fbd 2f95 71bd
00000020: 1207 2bbd 2725 793d 83a8 9f3d be27 3ebd
00000030: 2a4f f1bb d249 94bd 225c c0bd a815 7c3d
00000040: cd01 89bc b314 e33c b1d1 413d 5982 673d
00000050: 92a9 f93c e113 f5ba 506f 993c 0f33 9c3d
00000060: e36f 463b 7794 aebd f83a ccbd 4751 bf3c
00000070: ebce d5bd bd83 963d aaed 5c3d da5d 573b
00000080: 3c33 a43d cf10 ab3c d56e e5b8 9898 303d
00000090: 1531 a83c 134d 9b3d f2e0 973d 3e85 08bd
000000a0: 3eee ba3d 6266 453d 7ad7 b33c e907 5fbc
000000b0: a4c7 ce3c 79f5 d5bd e766 263c 5197 46bb
000000c0: 36e8 98bd 0a07 9bba 0d08 953c 774b 643c
000000d0: 23a0 b0bd 8b83 abbd 4b0f 9bbd c710 163c
000000e0: 1278 8cbd 0d0f c7bd d887 b43d cf2a a7bd
000000f0: a956 413d 639a 32b9 4528 afbd f8fe 89bd
00000100: 3db5 c6bd d18b b23d f5bb 66bc 210f a9bd
00000110: 9a26 903d e828 923d dd71 9fbd 384e d1bd
00000120: 2416 b0bd eb69 343d 9d34 bd3d ea2f 24bd
00000130: a2b5 923d 3bb6 20bd 609a e63b 0b62 2bbc
00000140: a067 41bd ee89 c4bd ee62 a1bd 46cf f3bd
00000150: e0b2 743d abc2 c03a 2406 ba3d abef 9d3d
00000160: 0615 e0bd a447 ab3d b39d 783d 7465 7bb8
00000170: 1534 43bd 9a86 6bbd 4d79 edbd ea33 00be
00000180: 3c7f 293d c0dd 9f3c 0391 783c ce0a 2bbd
00000190: 8562 543d f0ea fbbb 9697 1bbc 3e38 1e3d
000001a0: 374b 463d 2068 9ebd d35e 36bd 508b c7bd
000001b0: 5917 b43a 08af a83d 0046 ac3d 6610 59bc
000001c0: c0e0 483d b145 a4bc 368d a73d 9cb5 043d
000001d0: de63 123d ee2b 1ebd cc9c a3bd 4627 9abd
000001e0: 3b35 863c 6cf3 4d3d ac4c c43d 2eb7 0cbd
000001f0: 7009 56bc 6fd5 c63c ae59 87bd 6a7e 3d3d
00000200: 5926 273d 98d2 383c 4fb0 063c 50b9 c23c
00000210: 9bbc 783c 085a 68bd 73fc ad3d c71e ab3d
00000220: 76ae ab3d e003 b7bc 903a 7cbc ed7f a6bd
00000230: fedb 5ebd 7de9 653d 80ac a43d 30ec 583c
00000240: 5f4b ec3b 8001 353c d9a1 403d dafe a5bb
00000250: 6363 8abb ca74 44bc 2b62 1c3d bd2b 18bc
00000260: f123 023e 6c0e c23b 6686 973d 5abd 933c
00000270: 2c4f da3d ee43 003d ec33 843d 9130 b13b
00000280: 31c0 eb3d af79 2bbd 2ffe 2ab7 3813 d4ba
00000290: 9769 ab3c 755d 853d 6fd6 b93d 339f cf3d
000002a0: 8411 b63d e6ab b83c 7b4d 043e f70a 813d
000002b0: 2538 2a3c abe1 c9bc e103 1cbc cef3 1fbd
000002c0: b1f9 a5bd 4249 dcbc 3ce4 5b3d 4200 243d
000002d0: b483 3abc 29f3 7fbd 639d ad3d 7372 10bd
000002e0: 412d 1d3d 0eb7 a13d 76ca b3bd 8840 d83d
000002f0: 12f0 a83c 3253 5f3c 2a90 32bd f8e7 e43c
00000300: 7969 11bd 7620 3abd db2b 3d3d 82a3 16bd
00000310: c0ae abbb d749 203b 8d35 98bb fab2 003a
00000320: a8b6 d3bc 1695 76bb 6842 3d3c 5c56 4bba
00000330: 8885 f6bc f231 83bc b71d 0ebd 0f50 233b
00000340: 2bd6 a0b9 d541 44ba e122 a7ba 582b 013d
00000350: 2c35 3e3d 8a87 0eaf 5b90 12b7 6535 9e3c
00000360: 7c8e a9bc 1f81 90bc e3bb f73b a078 ad3c
00000370: 999c 813b 347c 083d 7cfb 9b3b 0c68 84b9
00000380: 2f4e 213d de7e 7ab9 db6c 0707 7684 81bc
00000390: 2eae 033d 1a6e c4bb 6e30 9bbb 67db 10bb
000003a0: 6371 3e3d ab37 45bd f915 cc3a 9462 ed38
000003b0: 0e00 3d3d 8188 f63c 96ef 83bc 4b1a 313d
000003c0: 55eb 7fbc 3909 f23a 4562 f2bc bbfe 943c
000003d0: a9a7 3db8 ebe3 80bb 64ac 2b3d d264 8239
000003e0: c75d 97bc 00dd abbb 5243 39bd e0f5 ea3b
000003f0: c0e6 1e3d 30e8 08bd c758 9637 f76d 73ba

network.9.bias f4 [32]
0.020581583 0.09862144 0.09608512 -0.031933308 0.09214173 -0.0803758 -0.029583497 0.023200309
0.011782888 -0.096439935 0.012558694 0.011252874 -0.044141773 -0.02060205 0.013814161 0.0943623
-0.032347295 0.113496765 0.11123011 0.10769145 -0.027048405 -0.025444567 -0.015269918 0.10656011
-0.05453248 -0.050179966 0.075797535 -0.025809728 0.022910707 -0.0056215213 0.088571504 -0.08225002
00000000: b59a a83c 0afa c93d 47c8 c43d 80cc 02bd
00000010: ceb4 bc3d 119c a4bd 1759 f2bc 930e be3c
00000020: 040d 413c 4d82 c5bd fbc2 4d3c f95d 383c
00000030: 01ce 34bd a1c5 a8bc ca54 623c 0641 c13d
00000040: 997e 04bd fe70 e83d 9dcc e33d 568d dc3d
00000050: 9e94 ddbc 2071 d0bc ae2e 7abc 303c da3d
00000060: 735d 5fbd 8289 4dbd bd3b 9b3d ec6e d3bc
00000070: 3caf bb3c bd34 b8bb fa64 b53d b372 a8bd

network.12.weight f4 [1, 32]
0.15903257 0.121000625 -0.049391914 0.012886081 -0.04151588 0.025383964 0.0075741075 0.08162611
0.1312847 0.096730985 -0.1497314 -0.1072192 -0.095694534 -0.1405679 -0.13419043 0.08290844
0.022855856 -0.12591432 0.041008648 -0.17086263 -0.0027336197 -0.14742696 -0.12126226 -0.018193934
0.07571407 -0.071862265 -0.17420548 0.042366475 -0.086089574 0.002381314 -0.15106612 0.038825992
00000000: 6fd9 223e 2dcf f73d 2d4f 4abd 2420 533c
00000010: 8e0c 2abd 08f2 cf3c 3830 f83b 972b a73d
00000020: 7f6f 063e e51a c63d 3053 19be bd95 dbbd
00000030: 7ffb c3bd 08f1 0fbe 3769 09be e6cb a93d
00000040: 343c bb3c afef 00be aff8 273d 9df6 2ebe
00000050: 8726 33bb 18f7 16be 5958 f8bd 720b 95bc
00000060: fa0f 9b3d 862c 93bd ec62 32be 7888 2d3d
00000070: bb4f b0bd d20f 1c3b 14b1 1abe 0108 1f3d

exp_avg f4 [256, 45]
0.00058606704 -0.00010816505 0.00017277333 6.9143825e-05 4.2898628e-05 0.00017987301 0.0001163618 -0.00017547047
1.7917526e-05 -0.00034168965 -0.00012602749 -0.00019424755 9.237787e-05 4.847116e-05 -6.176367e-05 -8.5743246e-05
-0.00050557026 0.0008711832 -2.1589801e-07 0.00015738809 5.7380406e-05 -0.00010198554 6.0219205e-05 -8.113161e-06
-1.558947e-05 -3.9505103e-05 -4.265406e-05 6.5826525e-06 -0.00016662516 -8.831648e-08 -6.207201e-05 0.00019440334
0.0001598112 0.0001298413 -5.490186e-05 -0.000101206344 -8.4679465e-05 0.00027750252 -5.9485014e-06 -0.00069157564
0.0014145046 -9.573814e-06 -3.6290062e-06 0.00030207145 -0.00022878604 -2.732898e-05 1.2595466e-06 -6.319898e-05
9.683248e-05 4.904919e-05 9.343698e-06 7.5566604e-05 0.00031673687 3.0301237e-05 -3.8716487e-05 3.0654737e-05
-8.79659e-06 -6.617132e-05 8.186919e-05 -2.9913692e-06 3.4470475e-05 -0.00015180476 0.00015918755 5.866457e-05
0.0002455919 5.5453358e-05 0.00021972813 7.8114026e-05 2.3980454e-05 8.873299e-05 2.0620544e-05 2.5881423e-05
3.1520423e-05 -7.255295e-05 4.111936e-06 -0.00010203163 6.668516e-05 0.00030973015 -0.00035848113 0.00017600358
1.3126986e-05 0.00020651917 4.6899102e-05 -0.00019620208 2.3855164e-05 -3.6537276e-06 -2.786044e-05 0.00040886554
0.00027064758 7.543761e-05 -8.901223e-05 0.00010695515 -7.640834e-06 3.6663394e-05 4.8247668e-05 -7.813349e-05
-8.832564e-05 -9.993909e-05 4.000368e-05 -5.7280475e-05 -0.00013507022 0.00017003536 -7.071264e-05 2.8878658e-05
-9.333757e-05 0.000113253904 -9.385174e-05 -4.0946048e-05 1.7102176e-06 -0.00011357052 -7.9567966e-05 0.0001235753
2.9930203e-05 -3.729289e-05 -6.084094e-05 -3.9886323e-05 -5.200925e-05 -0.00010101753 9.210731e-06 -1.9885698e-05
-8.056002e-05 4.8550333e-05 -5.6669738e-05 7.0529066e-05 9.21592e-05 -8.020897e-05 -0.00010181803 -0.00017547022
4.229687e-05 -8.442704e-05 -0.0001485959 -0.00013158676 -7.705549e-05 0.0001082949 0.00019103299 -0.0007554977
5.7898258e-05 5.22853e-05 -4.3028085e-05 -8.526943e-06 9.053557e-05 -7.590544e-05 -7.617721e-05 -0.00013858997
0.0001510416 7.433156e-06 7.2439043e-06 6.396179e-05 -1.5889615e-05 -4.429812e-05 0.00015707931 0.00037974858
-0.0008679728 -7.9529855e-07 -5.4712993e-05 -6.999806e-05 -1.3084199e-05 7.268201e-05 7.276972e-05 -3.4270364e-05
-4.7953436e-05 6.488054e-05 0.00010162393 4.244282e-05 -2.8543847e-05 3.0171348e-05 -6.0348895e-05 -0.0003086938
0.00014630787 -0.00021564048 3.370605e-05 1.8742545e-05 -0.0003537155 -2.4586927e-05 0.00011479098 -0.0011701545
0.00013546649 -0.0001668624 0.00020048377 0.00012360439 -0.00048637402 -8.869481e-05 -5.21079e-06 2.5819985e-05
3.74174e-05 5.80798e-05 -0.00016769845 4.1638803e-05 -0.00012435106 0.00029151852 7.228336e-05 8.909775e-05
-7.632765e-05 0.00015107157 3.816834e-05 0.00013959024 0.00018934347 -0.00022521749 -2.1233575e-06 3.1290117e-05
-0.00016087851 -0.00019528638 0.00011013875 -1.4157827e-05 5.950202e-05 -4.807143e-05 3.8584028e-07 -6.30952e-05
-3.552139e-05 6.76697e-05 -0.00015869249 -3.448782e-05 5.843377e-05 5.3234697e-05 -7.790688e-05 0.00015408295
-3.0967356e-05 -0.00023169698 0.00021649379 0.00019818638 -0.00040321867 -0.00012800985 -2.306173e-05 -0.000103163096
-0.00021057075 -4.927521e-05 5.5520973e-06 4.3685315e-05 2.074584e-05 -5.6923946e-05 1.8750864e-06 0.00011995081
0.00012684734 3.257313e-05 -5.872832e-05 9.0050904e-05 0.00014204808 0.000107062835 0.0001658429 -6.3344545e-05
2.6543736e-05 -0.00013926195 0.00031945008 5.3498843e-07 -1.362333e-05 8.994998e-05 0.00025149764 5.4463442e-05
-3.8065762e-05 2.1696043e-05 1.1514188e-05 3.0870888e-07 -3.2929136e-05 1.9981127e-05 1.4024944e-05 0.00018171567
00000000: 4ba2 193a abd6 e2b8 7d2a 3539 4f01 9138
00000010: 0dee 3338 4b9c 3c39 4407 f438 7ffe 37b9
00000020: 984d 9637 cf24 b3b9 3f26 04b9 eeae 4bb9
00000030: feba c138 834d 4b38 1e87 81b8 0ed1 b3b8
00000040: 3f88 04ba 1d60 643a 98d1 67b4 8b08 2539
00000050: beab 7038 12e1 d5b8 e193 7c38 c31d 08b7
00000060: 22c6 82b7 48b2 25b8 73e7 32b8 8ee0 dc36
00000070: 1ab8 2eb9 80a8 bdb3 a82c 82b8 c0d8 4b39
00000080: fe92 2739 0226 0839 6c46 66b8 be3e d4b8
00000090: f195 b1b8 c27d 9139 3d99 c7b6 db4a 35ba
000000a0: e666 b93a 389f 20b7 da89 73b6 585f 9e39
000000b0: 49e6 6fb9 8a40 e5b7 b10d a935 b289 84b8
000000c0: 8b12 cb38 2bba 4d38 e1c2 1c37 8379 9e38
000000d0: b40f a639 692f fe37 8363 22b8 4693 0038
000000e0: 1195 13b7 75c5 8ab8 30b1 ab38 55bf 48b6
000000f0: 6494 1038 c82d 1fb9 95eb 2639 9a0e 7638
00000100: c9c2 8039 9796 6838 d266 6639 26d1 a338
00000110: a229 c937 2916 ba38 48fa ac37 ef1b d937
00000120: cc34 0438 9227 98b8 43f9 8936 d0f9 d5b8
00000130: 53d9 8b38 4763 a239 86f2 bbb9 9a8d 3839
00000140: fa3b 5c37 118d 5839 87b5 4438 98bb 4db9
00000150: 931c c837 9032 75b6 d7b5 e9b7 015d d639
00000160: b4e5 8d39 4234 9e38 14ac bab8 1c4d e038
00000170: 2231 00b7 05c7 1938 8a5d 4a38 99db a3b8
00000180: 783b b9b8 6496 d1b8 a0c9 2738 7140 70b8
00000190: a3a1 0db9 854b 3239 8f4b 94b8 7240 f237
000001a0: 3abe c3b8 ba82 ed38 45d2 c4b8 7cbd 2bb8
000001b0: a18a e535 b52c eeb8 badd a6b8 fe93 0139
000001c0: 9f12 fb37 f06a 1cb8 762f 7fb8 9d4b 27b8
000001d0: 8224 5ab8 60d9 d3b8 ca87 1a37 36d0 a6b7
000001e0: 55f2 a8b8 86a2 4b38 abb0 6db8 01e9 9338
000001f0: 9845 c138 dd35 a8b8 2387 d5b8 6efe 37b9
00000200: eb67 3138 6c0e b1b8 68d0 1bb9 8dfa 09b9
00000210: da98 a1b8 621c e338 0750 4839 980c 46ba
00000220: c8d7 7238 ea4c 5b38 0e79 34b8 f10e 0fb7
00000230: eadd bd38 6c2f 9fb8 54c1 9fb8 7652 11b9
00000240: ec60 1e39 536a f936 aa10 f336 3923 8638
00000250: b04a 85b7 bfcc 39b8 a8b5 2439 fe18 c739
00000260: ab88 63ba 807c 55b5 a17b 65b8 eccb 92b8
00000270: 3584 5bb7 db6c 9838 f29b 9838 86bd 0fb8
00000280: 9c21 49b8 7a10 8838 ef1e d538 a204 3238
00000290: 7271 efb7 7a18 fd37 221f 7db8 2ed8 a1b9
000002a0: 386a 1939 8d1d 62b9 985f 0d38 4f39 9d37
000002b0: e472 b9b9 0640 ceb7 f0bb f038 df5f 99ba
000002c0: 020c 0e39 c9f7 2eb9 f438 5239 cd9b 0139
000002d0: 0400 ffb9 aa01 bab8 58d8 aeb6 ff97 d837
000002e0: a1f0 1c38 b69a 7338 36d8 2fb9 53a5 2e38
000002f0: 3c64 02b9 f4d6 9839 d596 9738 fed9 ba38
00000300: 1812 a0b8 f768 1e39 f116 2038 f85e 1239
00000310: 808a 4639 5c28 6cb9 017f 0eb6 823d 0338
00000320: 7fb1 28b9 cac5 4cb9 4bfa e638 6787 6db7
00000330: cf91 7938 4ea0 49b8 7c25 cf34 fa51 84b8
00000340: cdfc 14b8 e5e9 8d38 b166 26b9 04a7 10b8
00000350: c816 7538 5248 5f38 f061 a3b8 5491 2139
00000360: f2e2 01b8 aff3 72b9 9c02 6339 40d0 4f39
00000370: 1867 d3b9 623a 06b9 b074 c1b7 4459 d8b8
00000380: a8cc 5cb9 dbac 4eb8 274c ba36 c03a 3738
00000390: 5a07 ae37 9fc1 6eb8 7aab fb35 1a8e fb38
000003a0: 5302 0539 229f 0838 0e53 76b8 b6d9 bc38
000003b0: bef2 1439 ec86 e038 1de6 2d39 d8d7 84b8
000003c0: 3daa de37 d806 12b9 dd7b a739 209c 0f35
000003d0: c28f 64b7 87a3 bc38 71db 8339 ad6f 6438
000003e0: cda8 1fb8 e6ff b537 102d 4137 a0bc a534
000003f0: 641d 0ab8 259d a737 ad4c 6b37 ee8a 3e39
