models/regression_models/ML_including_industry_feature/single_dimension/solidity/version_best/checkpoints/epoch=79-step=2480.ckpt (torch, 207603 bytes, 21 tensors)

network.0.weight f4 [128, 45]
-0.030023603 -0.07066187 0.060026865 -0.07121714 0.03446378 0.061512295 -0.019962095 0.07869563
-0.06369289 -0.038963407 -0.075489335 0.08755128 0.011801684 -0.054223873 -0.08527081 0.062270008
-0.06848782 -0.10755301 -0.00041858098 0.07439305 0.06405488 -0.037801918 0.11955561 -0.013173267
-0.0190261 -0.07455928 -0.00025662303 0.08219112 0.016774388 -0.00088607304 0.009453534 -0.10698099
-0.09739628 -0.059586205 0.029440677 -0.07129019 -0.05363468 0.11015536 -0.07186521 -0.092706084
-0.03122477 0.1063879 -0.07920513 0.050731186 -0.0678034 0.029260037 -0.06732196 -0.07631998
-0.10085153 0.051477008 -0.11097432 0.107949175 -0.10337932 0.07006755 0.0021201451 -0.0021133486
0.10879537 -0.035238463 -0.05914743 -0.081543475 0.073617265 0.06939173 0.065538 -0.009374485
0.08220435 0.07061499 0.023428924 -0.11662144 0.07406949 -0.050859217 0.04425768 -0.013058583
-0.021327846 -0.016224774 -0.019936893 0.108735986 0.09327405 0.024283532 -0.056662466 -0.037537713
-0.12193381 0.050312214 -0.00022808727 0.004833091 -0.004504021 -0.057494767 -0.050445084 -0.11950175
-0.046640586 0.11029065 -0.0598259 0.0125164045 -0.07051473 -0.03648401 -0.062746964 0.053737346
0.03172166 -0.025582837 0.010527704 -0.023933189 -0.06829748 0.0922496 0.06913386 -0.057903975
0.033902176 -0.06860607 -0.08678547 -0.0062341117 0.0029567995 0.03274215 0.04616959 -0.0011402131
-0.023956615 -0.015524906 -0.01615783 -0.068129376 0.002539185 0.04419448 0.071818545 0.022318183
-0.05545797 0.012665871 -0.0888263 0.020634012 -0.06742369 0.04484159 0.0066449395 0.08811543
0.04999485 0.13106899 -0.09513897 0.12370179 0.12456753 -0.06633263 -0.0002176066 1.0447492e-05
1.448396e-06 -7.751687e-05 0.0001511655 7.515229e-05 1.498145e-05 0.039244905 -0.033675022 0.0050912173
-0.027172903 0.02374735 -0.010492905 -0.020142857 -0.023785863 -0.00013901567 0.00010125071 -0.014186998
-0.027604604 -0.030727291 -0.03459263 1.5848331e-06 9.481419e-05 0.009157055 0.0026123489 -0.007992982
1.6644857e-06 -0.0012792462 1.738661e-06 1.876906e-06 -0.010831093 -0.016522354 9.178913e-05 -0.030276123
-0.0021522713 -0.041894536 0.0034206982 6.368238e-05 0.00046627055 0.024000652 -0.00021627419 0.005181338
0.010520246 -1.4946026e-07 0.0508453 0.012675955 0.107332036 -0.006435944 0.108464144 -0.03944908
-0.05626895 -0.04067027 0.041682057 -0.015946375 0.069915086 0.07993856 0.018154029 -0.02674362
-0.0769947 0.08300723 0.021343553 -0.003079104 -0.1111038 -0.11513515 0.0062464788 0.065678045
0.02812358 -0.049711533 -0.03812591 -0.08272945 0.053845096 0.05123175 -0.015863426 -0.040634863
-0.0024296031 -6.804038e-05 0.0021499572 -0.022604296 0.025767632 0.11206249 0.039733283 0.11456287
-0.05966579 -0.114330456 -0.005017584 0.014218597 0.11702259 0.04796131 -0.023773123 0.111711375
0.019159336 -0.02241211 -0.030302027 0.047826275 -0.02990328 0.07167673 0.016441606 -0.028459271
-0.10835907 -0.05238664 0.1123976 -0.014181563 -0.0074871606 -0.01558055 0.06605459 0.00091669825
-0.0008242147 -0.05576041 0.035718672 -0.04156181 -0.027483877 -0.02349381 -0.055906452 -0.025700577
0.041240793 -1.6573102e-06 0.063763596 0.0006225963 0.06079422 -0.00013197184 0.00011823363 0.063776046
00000000: 0ff4 f5bc 2cb7 90bd bbde 753d 4bda 91bd
00000010: e429 0d3d 51f4 7b3d 8c87 a3bc 2d2b a13d
00000020: 6b71 82bd 1898 1fbd 279a 9abd 164e b33d
00000030: da5b 413c da19 5ebd 76a2 aebd d60e 7f3d
00000040: 5843 8cbd c144 dcbd fd74 dbb9 625b 983d
00000050: 342f 833d 2fd6 1abd 92d9 f43d b0d4 57bc
00000060: a0dc 9bbc 89b2 98bd 5c8b 86b9 d153 a83d
00000070: 716a 893c 5b47 68ba ffe2 1a3c d918 dbbd
00000080: b377 c7bd aa10 74bd 932d f13c 9700 92bd
00000090: 0ab0 5bbd 2299 e13d 112e 93bd b0dc bdbd
000000a0: 17cb ffbc e6e1 d93d 4d36 a2bd 81cb 4f3d
000000b0: 82dc 8abd bfb2 ef3c 19e0 89bd a64d 9cbd
000000c0: 3f8b cebd 8ed9 523d 8146 e3bd 7514 dd3d
000000d0: 89b8 d3bd 937f 8f3d 22f2 0a3b 1b80 0abb
000000e0: 1bd0 de3d 3556 10bd 9344 72bd 4400 a7bd
000000f0: a6c4 963d 401d 8e3d c938 863d 7197 19bc
00000100: c15a a83d 989e 903d 04ee bf3c 39d7 eebd
00000110: bfb1 973d c151 50bd 8b47 353d abf3 55bc
00000120: bcb7 aebc d1e9 84bc b252 a3bc f9b0 de3d
00000130: 7706 bf3d 42ee c63c e716 68bd 25c1 19bd
00000140: 6fb8 f9bd 2e14 4e3d b62a 6fb9 e85e 9e3b
00000150: 7796 93bb a27f 6bbd 819f 4ebd 55bd f4bd
00000160: 330a 3fbd 10e0 e13d 010c 75bd 9b11 4d3c
00000170: 076a 90bd 4270 15bd 7b81 80bd b11b 5c3d
00000180: 92ee 013d 1993 d1bc 647c 2c3c 890f c4bc
00000190: 8ddf 8bbd 5ced bc3d 0e96 8d3d b82c 6dbd
000001a0: 02dd 0a3d 5781 8cbd 95bc b1bd 8547 ccbb
000001b0: ddc6 413b a21c 063d 531c 3d3d 3473 95ba
000001c0: aa40 c4bc 2d5c 7ebc 6d5d 84bc 6a87 8bbd
000001d0: 7568 263b 4505 353d 9a15 933d 9fd4 b63c
000001e0: e527 63bd 8384 4f3c 90ea b5bd a908 a93c
000001f0: 6e15 8abd d1ab 373d cbbd d93b dd75 b43d
00000200: 66c7 4c3d f336 063e 38d8 c2bd 5d57 fd3d
00000210: 431d ff3d 67d9 87bd 542d 64b9 a347 2f37
00000220: 8266 c235 8d90 a2b8 2e82 1e39 149b 9d38
00000230: d658 7b37 44bf 203d d2ee 09bd 3ad4 a63b
00000240: b599 debc cd89 c23c 6fea 2bbc a202 a5bc
00000250: 92da c2bc bcc4 11b9 9056 d438 9570 68bc
00000260: 0d23 e2bc cdb7 fbbc 00b1 0dbd 73b6 d435
00000270: fbd6 c638 7907 163c f133 2b3b fff4 02bc
00000280: 4b67 df35 61ac a7ba f05b e935 00ea fb35
00000290: e674 31bc e359 87bc ea7e c038 a205 f8bc
000002a0: 1f0d 0dbb 9b99 2bbd cb2d 603b 388d 8538
000002b0: c675 f439 049d c43c a9c7 62b9 37c8 a93b
000002c0: 1c5d 2c3c 537b 20b4 2943 503d cfae 4f3c
000002d0: e6d0 db3d 9ce4 d2bb 7322 de3d 5c95 21bd
000002e0: 457a 66bd de95 26bd ceba 2a3d f9a1 82bc
000002f0: a42f 8f3d d4b6 a33d c2b7 943c 7015 dbbc
00000300: 66af 9dbd b2ff a93d add8 ae3c cbca 49bb
00000310: 648a e3bd facb ebbd 43af cc3b 3682 863d
00000320: 6c63 e63c 529e 4bbd ea29 1cbd 0f6e a9bd
00000330: ad8c 5c3d 62d8 513d 04f4 81bc be70 26bd
00000340: fa39 1fbb e7b0 8eb8 4ce6 0c3b a52c b9bc
00000350: a416 d33c 0581 e53d 5ebf 223d f09f ea3d
00000360: 1e64 74bd 1626 eabd 8c6a a4bb 1ef5 683c
00000370: 8aa9 ef3d 1473 443d dabf c2bc efc8 e43d
00000380: 0af4 9c3c 9a99 b7bc f53b f8bc 7ce5 433d
00000390: b9f7 f4bc 40cb 923d 8cb0 863c 6b23 e9bc
000003a0: 5ceb ddbd 6093 56bd b730 e63d c959 68bc
000003b0: db56 f5bb 9045 7fbc a147 873d 944e 703a
000003c0: 1d10 58ba 0765 64bd be4d 123d b73c 2abd
000003d0: de25 e1bc 1776 c0bc 2afe 64bd 048a d2bc
000003e0: 1bec 283d bf70 deb5 7d96 823d bb35 233a
000003f0: 5c03 793d ec61 0ab9 32f4 f738 049d 823d

network.0.bias f4 [128]
0.089207 0.066749685 0.113051206 -0.05666357 -0.025886687 -0.055344727 0.039857667 0.008328795
0.04978853 -0.09062108 -0.03217131 0.052124377 0.13322595 0.08335724 -0.020312032 -0.021008747
-0.017507108 -0.04506686 0.058442026 -0.02755179 -0.015352613 -0.030938417 0.1481754 0.07825381
-0.086241156 0.015291415 0.047562357 -0.028273776 0.009874069 0.12873441 0.047668364 -0.016910292
0.14485036 0.092567265 -0.080572866 0.080310255 -0.07499585 0.11396155 0.04643768 0.14130539
-0.10029386 -0.007994324 0.03337625 0.06014837 -0.123134546 0.03166484 0.031222183 -0.036046512
0.11864667 0.04877926 0.070051774 -0.054973666 -0.090934165 0.035516586 -0.06772655 0.035558585
-0.041617256 -0.11117243 0.13186061 0.020405153 0.08553363 0.04459656 0.010541155 0.006806773
-0.019437907 0.024100767 0.07102248 -0.016710417 0.08388267 -0.040552765 0.13501698 -0.10119333
0.053757694 0.0068074926 -0.030333482 -0.005482793 -0.03834918 -0.008109248 0.08857567 0.017939763
0.058565315 0.052243866 0.060285427 0.09800483 0.024858976 -0.10069526 -0.06476484 -0.074190296
0.110268064 -0.040160097 0.08444918 -0.07232031 -0.077304 -0.10334978 0.09655508 0.11957514
-0.13050437 0.03077111 0.005263179 0.060518626 -0.04575827 0.10098147 0.04774221 0.06435746
-0.063969634 0.12962884 -0.020022972 -0.013763748 0.10104949 0.102161705 -0.052333463 -0.09021578
0.06486404 -0.0752007 -0.110736005 -0.13425054 -0.06712789 -0.10658494 -0.112551756 -0.06042029
-0.09720004 0.08354804 0.07513035 -0.010381312 -0.05249045 0.030299757 -0.052624404 -0.11040879
00000000: 29b2 b63d 0fb4 883d 6487 e73d 0f18 68bd
00000010: 5110 d4bc 27b1 62bd cb41 233d 8075 083c
00000020: 0fef 4b3d 8b97 b9bd 10c6 03bd 5f80 553d
00000030: 626c 083e 33b7 aa3d 6b65 a6bc 891a acbc
00000040: 116b 8fbc 0798 38bd e860 6f3d 4bb4 e1bc
00000050: 8789 7bbc 9072 fdbc 4bbb 173e 8943 a03d
00000060: 349f b0bd d888 7a3c bfd0 423d 689e e7bc
00000070: d9c6 213c f4d2 033e e73f 433d 7487 8abc
00000080: a753 143e e893 bd3d 6303 a5bd b479 a43d
00000090: 6d97 99bd ac64 e93d 7035 3e3d 5cb2 103e
000000a0: de66 cdbd a0fa 02bc 89b5 083d 235e 763d
000000b0: f72d fcbd feb2 013d aac5 ff3c 82a5 13bd
000000c0: 06fd f23d c3cc 473d 4e77 8f3d 112c 61bd
000000d0: b13b babd d779 113d 38b4 8abd e1a5 113d
000000e0: db76 2abd 5fae e3bd 7806 073e b528 a73c
000000f0: 412c af3d e2aa 363d cfb4 2c3c 5a0b df3b
00000100: 3f3c 9fbc f96e c53c 3c74 913d 49e4 88bc
00000110: adca ab3d a81a 26bd e441 0a3e 733e cfbd
00000120: 0731 5c3d 6311 df3b ec7d f8bc 00a9 b3bb
00000130: 0814 1dbd a7dc 04bc 2967 b53d 69f6 923c
00000140: 2fe2 6f3d aafd 553d daed 763d c2b6 c83d
00000150: 0da5 cb3c 5139 cebd 6ea3 84bd 15f1 97bd
00000160: 39d4 e13d ea7e 24bd b1f3 ac3d ac1c 94bd
00000170: 8f51 9ebd 0da9 d3bd abbe c53d d0e3 f43d
00000180: f0a2 05be b213 fc3c bf76 ac3b 61e2 773d
00000190: 066d 3bbd 5fcf ce3d 568d 433d d8cd 833d
000001a0: 8302 83bd 6cbd 043e 3707 a4bc 5881 61bc
000001b0: 09f3 ce3d 283a d13d 9d5b 56bd 0dc3 b8bd
000001c0: 70d7 843d d302 9abd 8fc9 e2bd f978 09be
000001d0: 597a 89bd 3449 dabd 8981 e6bd 447b 77bd
000001e0: d110 c7bd 3c1b ab3d f1dd 993d 6116 2abc
000001f0: 3a00 57bd 3237 f83c b08c 57bd 011e e2bd

network.3.weight f4 [64, 128]
0.07139151 0.021258907 0.009732292 0.000105716594 0.0759047 0.002225702 -0.045918886 -0.0034531965
-0.007935524 -0.0023726984 0.07912771 -0.006319478 0.042973574 -0.0017940699 -0.01740317 0.0870071
-0.0348015 -0.033104848 -0.028542953 -0.033554405 -0.027036063 -0.03676874 0.058076408 0.0023388192
-0.032125227 -0.05494955 -0.026517916 0.0024596455 -0.02132098 0.07320987 -0.048491675 -0.051210407
0.052428924 0.080319315 -0.044074588 -0.027282221 -0.024009869 0.059539985 -0.017693385 0.062562756
0.022646561 0.06300416 -0.03939138 -0.044947434 -0.013636892 -0.0151150245 0.05702659 0.004160093
-0.07205606 -0.05694384 -0.025918014 -0.043694954 -0.031522024 0.059453443 0.048564702 0.051131252
0.027961388 -0.041122578 0.08637349 0.02969985 0.022815092 0.029580422 0.05069281 -0.05861023
0.00010662725 0.039587114 -0.02116285 -0.008592501 -0.032670263 1.7451292e-33 -0.023843171 -0.052962437
0.062346272 0.00354219 -0.02982678 0.025582131 0.061195984 0.08319288 0.07213228 0.009141752
0.035342798 0.039646596 -0.0391068 0.091396146 0.038095962 0.042479455 -0.016877206 -0.05776797
0.010050348 0.0784362 -0.002271233 0.05501099 -0.015179069 0.0070004147 -0.0116068 0.08983244
0.01591014 0.03179005 0.032132544 -0.005693118 0.05649691 0.045977052 -0.008860012 0.058066513
0.03390668 0.023050904 0.094212964 0.06752371 -0.022391116 -0.05066758 0.0021539454 0.015243593
-0.04655194 0.012035921 -0.037285194 0.03693195 -0.010504971 0.037714627 0.010047784 -0.007143221
0.06275024 0.0005088077 -0.012705465 0.031319104 -0.013377395 0.058902126 0.03182276 0.050456867
0.038060006 0.01269682 0.0066715963 0.00018082457 -0.027189825 0.055817887 0.012522055 -0.06642267
-0.0012545334 0.012082973 0.048428714 -0.030403618 0.09071419 0.020052293 -0.0006751292 0.062613994
0.051391914 0.020887861 -0.04677236 -0.011469971 0.023830907 0.06939274 -0.012635773 -0.048640817
-0.025058743 9.545465e-05 0.03460915 -7.2930103e-16 0.075490296 0.030866154 -0.039946835 0.019835602
0.013008256 0.089085914 -0.0101005165 0.044194967 -0.012835081 0.028603032 -0.06653649 0.07764598
-0.008006223 -0.010944845 0.07503995 -0.01486563 0.0134161515 -0.028660502 0.011618084 -0.006767533
0.05860308 -0.017530711 -0.056429964 -0.018485673 -0.041042984 0.0035324618 0.023411632 -0.059389655
0.041846357 0.024860192 0.036707457 -0.004019023 -0.061549474 0.0769327 0.016990302 0.057382844
-0.008482067 -0.014759885 0.07461219 0.003343731 0.015437426 3.1725586e-10 -0.0109811565 0.024903936
-0.05668252 -0.025180822 0.044581696 0.006147218 -0.0334104 -0.033638194 0.084818624 0.0070440676
0.052978665 0.048351295 0.007533997 0.033772998 0.079397544 -0.029241681 0.047182992 -0.022173047
-0.008007515 0.038186576 -0.03321439 0.0358388 -0.0105758635 -0.0069733476 0.03854591 0.032482643
0.005195738 0.054752193 -0.026192915 -0.012634873 -0.030903537 -0.012526249 -0.040556114 -0.01587001
0.07784239 -0.010315524 -0.028543102 0.04190162 -0.06890576 0.09231849 0.00030508992 0.08326887
0.026333362 -0.014292465 0.008917933 0.040872104 0.0024158282 0.03203594 0.013783367 -0.026399368
-0.01992053 -0.059524357 -0.033372544 -0.019975074 0.044095352 -0.065970756 -0.009758949 0.01742119
00000000: b635 923d 2927 ae3c 3174 1f3c 2ab4 dd38
00000010: ec73 9b3d 15dd 113b 7115 3cbd 064f 62bb
00000020: 0004 02bc 467f 1bbb b50d a23d a013 cfbb
00000030: 0f05 303d ff26 ebba 1891 8ebc c730 b23d
00000040: 058c 0ebd f398 07bd e9d2 e9bc 5870 09bd
00000050: bc7a ddbc d19a 16bd 87e1 6d3d e046 193b
00000060: be95 03bd c812 61bd 1a3c d9bc 0132 213b
00000070: 56a9 aebc 0eef 953d 359f 46bd 01c2 51bd
00000080: b6bf 563d 747e a43d 8e87 34bd f77e dfbc
00000090: 58b0 c4bc 33e0 733d b8f1 90bc e720 803d
000000a0: 4885 b93c 5308 813d db58 21bd cd1a 38bd
000000b0: 456d 5fbc 02a5 77bc b794 693d 6451 883b
000000c0: 2192 93bd f23d 69bd 0452 d4bc 7bf9 32bd
000000d0: 3d1d 01bd 7485 733d c8eb 463d 016f 513d
000000e0: 480f e53c 2670 28bd 96e4 b03d 1a4d f33c
000000f0: b7e6 ba3c a452 f23c 44a3 4f3d 4811 70bd
00000100: 129d df38 1926 223d b75d adbc 90c7 0cbc
00000110: 41d1 05bd cbfa 1009 c152 c3bc 24ef 58bd
00000120: ce5e 7f3d 1624 683b 4b57 f4bc 9e91 d13c
00000130: a4a8 7a3d 0761 aa3d 17ba 933d 49c7 153c
00000140: 9cc3 103d 7864 223d 742e 20bd e72d bb3d
00000150: 830a 1c3d f0fe 2d3d 1142 8abc 1b9e 6cbd
00000160: 37aa 243c 29a3 a03d f7d8 14bb 3453 613d
00000170: a1b1 78bc bc63 e53b 732a 3ebc 12fa b73d
00000180: fb55 823c 4936 023d 6a9d 033d 568d babb
00000190: 4e69 673d 6f52 3c3d 9529 11bc 27d7 6d3d
000001a0: bbe1 0a3d 40d5 bc3c baf2 c03d df49 8a3d
000001b0: 936d b7bc cf88 4fbd 3529 0d3b 43c0 793c
000001c0: 3fad 3ebd 5032 453c 5cb8 18bd f545 173d
000001d0: 0b1d 2cbc a77a 1a3d 769f 243c ae11 eabb
000001e0: 3383 803d 8261 053a 952a 50bc 7648 003d
000001f0: dd2c 5bbc 5b43 713d 9558 023d dcab 4e3d
00000200: cfe4 1b3d 5306 503c 689d da3b ba9b 3d39
00000210: 32bd debc 4ca1 643d 4e29 4d3c 9c08 88bd
00000220: 286f a4ba a9f7 453c 305d 463d 0211 f9bc
00000230: 5cc8 b93d b544 a43c 27fb 30ba c43b 803d
00000240: 5480 523d 051d ab3c 6094 3fbd 8cec 3bbc
00000250: 0939 c33c c81d 8e3d 4606 4fbc 983b 47bd
00000260: fe47 cdbc d32e c838 53c2 0d3d eb34 52a6
00000270: a89a 9a3d 04db fc3c 4b9f 23bd 467e a23c
00000280: 9520 553c ad72 b63d a37c 25bc c805 353d
00000290: 3b4a 52bc e850 ea3c 4944 88bd db04 9f3d
000002a0: 882c 03bc 0252 33bc 8cae 993d f98e 73bc
000002b0: 6bcf 5b3c 6ec9 eabc c759 3e3c 2ec2 ddbb
000002c0: c909 703d 919c 8fbc 1b23 67bd 446f 97bc
000002d0: b01c 28bd e080 673b c0c9 bf3c 9142 73bd
000002e0: 1667 2b3d 9aa7 cb3c 8f5a 163d 02b2 83bb
000002f0: 4d1b 7cbd e48e 9d3d 3f2f 8b3c 460a 6b3d
00000300: 5ef8 0abc 72d3 71bc 47ce 983d 7f22 5b3b
00000310: 42ed 7c3c cb69 ae2f 4fea 33bc 5703 cc3c
00000320: ee2b 68bd 0348 cebc 4c9b 363d 9a6e c93b
00000330: 58d9 08bd 34c8 09bd 63b5 ad3d ecd1 e63b
00000340: 2800 593d 020c 463d bfdf f63b 8e55 0a3d
00000350: 2e9b a23d 408c efbc f442 413d 40a4 b5bc
00000360: f431 03bc 8769 1c3d d00b 08bd b5cb 123d
00000370: 6346 2dbc ae80 e4bb 51e2 1d3d 850c 053d
00000380: 0241 aa3b d643 603d 8692 d6bc 8002 4fbc
00000390: 6a29 fdbc e53a 4dbc 2b1e 26bd d301 82bc
000003a0: d56b 9f3d 7202 29bc 39d3 e9bc 08a1 2b3d
000003b0: 771e 8dbd 7a11 bd3d 7af4 9f39 df88 aa3d
000003c0: 10b9 d73c f12a 6abc 861c 123c 8269 273d
000003d0: df52 1e3b 1e38 033d a2d3 613c 7d43 d8bc
000003e0: 6130 a3bc d0cf 73bd a6b1 08bd c4a2 a3bc
000003f0: 549d 343d ad1b 87bd 00e4 1fbc e2b6 8e3c

network.3.bias f4 [64]
0.0010973585 -0.039558906 0.024908507 -0.014170547 0.07223745 -0.02517928 -0.05352138 -0.076181136
-0.07367867 -0.013810025 -0.06224201 0.043136474 0.06519083 -0.056076676 0.057738293 -0.056373067
-0.018400636 -0.046676587 0.09302806 -0.014201346 0.00078141916 -0.04927509 -0.07661118 -0.021726036
0.019373573 -0.063492686 0.07005997 -0.052430842 -0.0024442098 -0.037378214 0.07872453 -0.023661777
0.08115769 -0.006350349 0.065598555 0.023941211 -0.020582369 0.058344826 -0.031430107 0.07244873
-0.058903582 -0.018632384 -0.01653008 -0.062371626 0.017902499 0.09318381 -0.065850586 -0.0631215
0.08210124 -0.025223449 -0.0408051 0.003089257 -0.013027293 0.08192613 0.052715298 -0.056428537
0.043303236 -0.05898293 0.06710438 0.08121272 -0.037137225 0.016131656 -0.04650948 0.091123566
00000000: 3ed5 8f3a 8508 22bd ed0c cc3c 952b 68bc
00000010: 3af1 933d c744 cebc 3c39 5bbd db04 9cbd
00000020: d8e4 96bd 7143 62bc 7af1 7ebd dfaf 303d
00000030: c582 853d a8b0 65bd fd7e 6c3d 72e7 66bd
00000040: eebc 96bc f32f 3fbd 7f85 be3d c3ac 68bc
00000050: 27d8 4c3a add4 49bd 53e6 9cbd cdfa b1bc
00000060: 54b5 9e3c 7408 82bd 9a7b 8f3d b9c1 56bd
00000070: 092f 20bb e619 19bd 543a a13d 58d6 c1bc
00000080: 0136 a63d 9716 d0bb 8958 863d 5c20 c43c
00000090: 5b9c a8bc fcfa 6e3d dbbc 00bd 0060 943d
000000a0: e244 71bd f1a2 98bc 176a 87bc 6479 7fbd
000000b0: 43a8 923c 27d7 be3d acdc 86bd d845 81bd
000000c0: b224 a83d 68a1 cebc 4023 27bd 2275 4a3b
000000d0: 6d70 55bc e3c8 a73d ffeb 573d 9c21 67bd
000000e0: bc5e 313d 1698 71bd 056e 893d db52 a63d
000000f0: 341d 18bd 8926 843c b980 3ebd fe9e ba3d

network.6.weight f4 [32, 64]
-0.043557517 -0.06971279 -0.07112768 -0.10071041 0.031490915 0.04358537 -0.071384385 0.05760816
0.06634949 -0.04597812 -0.047322206 0.09564781 -0.12680374 -0.056666344 -0.08945469 -0.012729707
3.7730833e-06 0.024847696 -0.108128265 -0.08674346 -0.0070966505 0.033599835 0.05248102 0.04255603
0.01309412 -0.042511266 0.025364276 0.035785597 -0.004264491 -0.12756924 0.07899411 0.06364069
0.011100079 0.034515534 0.0018831426 0.03801938 0.06656514 -0.08898817 -0.07675317 -0.088636346
-0.014118131 -0.10344214 -0.04622858 0.038156997 -0.0017718755 -0.106587015 0.080568835 0.07846479
-0.10180503 -0.046830606 -0.032716703 0.083567806 -0.05016641 -0.05930896 0.0893651 0.02823496
-0.054961 0.02010311 -0.09171021 0.051463716 -0.028318614 0.0688872 0.07792914 -0.12628354
0.06548657 0.00769271 -0.011633581 0.0013474787 0.00017982916 1.21596295e-05 0.032615487 0.028232357
0.014946681 -0.008415849 1.1648515e-13 0.04146649 -0.008889835 0.0028689683 0.0031603584 -0.024938447
0.00012983725 -0.0058593573 -0.01283391 0.0117891375 1.6123318e-05 0.013806669 0.012581081 -0.0015255457
0.07844609 4.8695882e-32 0.00046142045 0.035503373 -0.00094103033 -0.030194663 0.084766045 0.006644259
0.008877711 0.048522804 -0.016237667 -7.737989e-05 0.011869285 0.034444656 8.631294e-05 -0.013020442
-0.010117535 -0.034097593 -0.018911427 1.0276571e-34 -0.043797214 0.023707252 0.0114859985 -1.9958016e-07
-0.029316112 -0.0041113445 -0.006616642 -0.043693244 0.0040933792 -0.0066351704 0.014220361 -0.0034302017
0.052240565 0.0020071627 -0.0132446205 -0.042076223 0.007912833 0.022523858 -0.025284125 0.011894773
0.05973321 0.108072124 0.06349464 0.045371693 -0.04879922 -0.007305549 0.036482368 0.012126406
-0.027263574 -0.06479594 0.0038076662 0.13110064 0.055016726 0.015842354 -0.0027177979 0.11575935
0.020305825 -0.008486145 -0.006564103 0.034368906 -0.034972593 -0.02805831 0.06431787 0.01151182
0.060454663 -0.008780964 -0.017852833 -0.041313272 0.0054255445 0.13280506 0.078808464 -0.021330634
0.07427852 -0.0488281 -0.014122431 -0.04403578 -0.0048614363 0.017415883 0.073296934 -0.04395932
0.07897165 -0.075136915 0.041612577 -2.4792489e-05 0.13532922 0.0061100577 0.015900036 -0.07023138
0.028161092 -0.06801376 -0.072706185 0.0990941 0.0035745988 -0.036682412 0.03157761 0.077165306
-0.046834953 -0.008581927 -0.014875121 0.13867863 -0.08326326 0.0892296 0.084153324 -0.002273822
0.0148653 0.067824684 -0.092020385 -0.12377732 -0.0019035486 0.02032638 -0.008528063 0.026809156
-0.013504062 0.063334644 0.006018624 -0.11116639 -0.12355726 -0.014294412 0.050900675 -0.0023301966
0.06646462 0.0852396 0.07049638 0.0060262163 -0.021295233 -0.0047161924 0.0040843254 0.0374975
-0.07286708 -0.029635075 0.011803368 0.038183667 0.04483434 -0.043135744 0.010897701 -0.103838004
-0.11365083 0.031220347 0.072877765 -0.026968941 0.049668957 -0.03819789 0.07694914 0.043209404
0.0626706 -0.12739475 -0.061084107 -0.0069182497 0.023046056 -0.010328603 -0.08236615 0.0032561494
-0.04661137 0.06663245 0.02696519 -0.076624714 -0.13023847 -0.06650895 -0.0064425096 -0.06893733
-0.087114796 0.03845494 0.04286161 -0.12768461 0.040129412 0.06700157 -0.06478861 -0.119964086
00000000: 5e69 32bd 94c5 8ebd 64ab 91bd 4241 cebd
00000010: 9efc 003d 9386 323d fa31 92bd 89f6 6b3d
00000020: 3ee2 873d 8e53 3cbd eed4 41bd 00e3 c33d
00000030: d7d8 01be f81a 68bd 0534 b7bd 4390 50bc
00000040: 1435 7d36 658d cb3c 5a72 ddbd 8ea6 b1bd
00000050: 058b e8bb fb9f 093d 57f6 563d 3b4f 2e3d
00000060: b888 563c 4b20 2ebd bec8 cf3c eb93 123d
00000070: 25bd 8bbb 83a1 02be aac7 a13d 0d56 823d
00000080: 1bdd 353c 2960 0d3d c8d3 f63a 36ba 1b3d
00000090: 4e53 883d 6e3f b6bd c430 9dbd f986 b5bd
000000a0: bc4f 67bc 79d9 d3bd 2e5a 3dbd 834a 1c3d
000000b0: 473e e8ba 4b4a dabd 4601 a53d 26b2 a03d
000000c0: 287f d0bd 73d1 3fbd f301 06bd 9925 ab3d
000000d0: 4b7b 4dbd f4ed 72bd 0d05 b73d 014d e73c
000000e0: c91e 61bd 47af a43c 90d2 bbbd 9ecb 523d
000000f0: 70fc e7bc bb14 8d3d 5099 9f3d 7950 01be
00000100: d31d 863d 2113 fc3b c69a 3ebc e29d b03a
00000110: 8690 3c39 3601 4c37 d197 053d 8b47 e73c
00000120: ede2 743c a1e2 09bc 8f26 032a c4d8 293d
00000130: aca6 11bc 4d05 3c3b 041e 4f3b b74b ccbc
00000140: ec24 0839 daff bfbb 5245 52bc 3a27 413c
00000150: 9040 8737 5e35 623c e120 4e3c d2f4 c7ba
00000160: 58a8 a03d eed7 7c0b ceea f139 fc6b 113d
00000170: 7aaf 76ba cc5a f7bc d299 ad3d 16b8 d93b
00000180: d273 113c d9bf 463d db04 85bc 0347 a2b8
00000190: 6477 423c d715 0d3d e802 b538 b153 55bc
000001a0: 04c4 25bc eba9 0bbd 23ec 9abc 5c99 0807
000001b0: b564 33bd b635 c23c c52f 3c3c 2d4c 56b4
000001c0: 5828 f0bc 75b8 86bb 6ad0 d8bb b0f7 32bd
000001d0: c121 863b d86b d9bb 84fc 683c 3ccd 60bb
000001e0: 34fa 553d 9a8a 033b f7ff 58bc 1e58 2cbd
000001f0: d4a4 013c f483 b83c a720 cfbc 4be2 423c
00000200: cfaa 743d eb54 dd3d 7a09 823d abd7 393d
00000210: b1e1 47bd 6363 efbb 896e 153d d5ad 463c
00000220: dc57 dfbc bcb3 84bd 0a8a 793b 3f3f 063e
00000230: 3859 613d d3c7 813c 151d 32bb 3d13 ed3d
00000240: 6758 a63c 7909 0bbc b017 d7bb 69c6 0c3d
00000250: 6c3f 0fbd 8ada e5bc 16b9 833d 139c 3c3c
00000260: 4f9f 773d 08de 0fbc 1b40 92bc 1b38 29bd
00000270: c4c8 b13b 0dfe 073e 5566 a13d 95bd aebc
00000280: 561f 983d f9ff 47bd c561 67bc dd5e 34bd
00000290: af4c 9fbb c1ab 8e3c b41c 963d b00e 34bd
000002a0: e3bb a13d 62e1 99bd f371 2a3d 77f9 cfb7
000002b0: be93 0a3e e136 c83b cb40 823c 78d5 8fbd
000002c0: 17b2 e63c cc4a 8bbd fbe6 94bd d9f1 ca3d
000002d0: d143 6a3b 4c40 16bd 8657 013d d808 9e3d
000002e0: 02d6 3fbd 369b 0cbc c8b6 73bc c501 0e3e
000002f0: ee85 aabd 02be b63d 9458 ac3d 6704 15bb
00000300: 968d 733c abe7 8a3d 2f75 bcbd f77e fdbd
00000310: 7e80 f9ba 8283 a63c 4ab9 0bbc e09e db3c
00000320: 2440 5dbc 98b5 813d e137 c53b 34ab e3bd
00000330: 970b fdbd 1c33 6abc 3a7d 503d 36b6 18bb
00000340: 9a1e 883d 1992 ae3d 6860 903d 9177 c53b
00000350: 5773 aebc 4a8a 9abb ced5 853b fb96 193d
00000360: 563b 95bd 42c5 f2bc ea62 413c 7a66 1c3d
00000370: 37a4 373d 1baf 30bd 458c 323c 05a9 d4bd
00000380: c4c1 e8bd d0c1 ff3c f040 953d f8ed dcbc
00000390: ad71 4b3d 6475 1cbd 8397 9d3d 58fc 303d
000003a0: 7259 803d c573 02be 5433 7abd 7cb2 e2bb
000003b0: 15cb bc3c 4d39 29bc 96af a8bd 1f65 553b
000003c0: 90eb 3ebd 9876 883d 1ae6 dc3c 6bed 9cbd
000003d0: 3c5d 05be d835 88bd b01b d3bb 042f 8dbd
000003e0: 3e69 b2bd ed82 1d3d a88f 2f3d c1bf 02be
000003f0: bd5e 243d 1e38 893d e4af 84bd bbaf f5bd

network.6.bias f4 [32]
0.030656414 -0.09796055 0.01595816 0.08637323 0.03877065 -0.022481104 -0.04616463 -0.06956405
0.082854055 -0.03943241 -0.10355907 -0.032110233 0.06236615 0.029672045 0.030501692 0.02813857
-0.014287216 0.09875984 0.04577509 -0.09658677 0.023879506 0.046922166 -0.025332918 0.0071539734
-0.032680262 -0.026850406 0.11653453 0.0010699892 0.07290298 0.044058613 0.049693972 -0.02794686
00000000: 2923 fb3c 8a9f c8bd b0ba 823c 73e4 b03d
00000010: f9cd 1e3d 4b2a b8bc 2017 3dbd 9977 8ebd
00000020: 63af a93d e183 21bd c716 d4bd 0586 03bd
00000030: a673 7f3d ca12 f33c afde f93c dc82 e63c
00000040: ed14 6abc 9942 ca3d a97e 3b3d 49cf c5bd
00000050: f49e c33c 7531 403d fb86 cfbc e16b ea3b
00000060: bddb 05bd 62f5 dbbc a8a9 ee3d e13e 8c3a
00000070: 284e 953d ce76 343d e88b 4b3d d0f0 e4bc

network.9.weight f4 [1, 32]
0.15176725 -0.09814872 -0.06218554 0.09798707 0.15000176 0.004233987 -0.15057386 -0.15263665
-0.024144398 -0.0027736928 -0.11490191 -0.011497335 0.13755566 -0.16742831 0.015388263 -0.11781567
-0.033254057 -0.1262733 0.113491364 0.10869787 0.114510365 0.044327583 -0.11924566 0.02280418
-0.04757951 0.052165814 -0.09505566 -0.08236996 -0.056930225 0.12645364 -0.076845914 0.001848695
00000000: e068 1b3e 3202 c9bd 44b6 7ebd 72ad c83d
00000010: 109a 193e 42bd 8a3b 0930 1abe c84c 1cbe
00000020: 79ca c5bc d8c6 35bb b151 ebbd 515f 3cbc
00000030: 64db 0c3e 5472 2bbe 0e1f 7c3c 5849 f1bd
00000040: 6835 08bd ca4d 01be 296e e83d fd9c de3d
00000050: 6984 ea3d d790 353d 1237 f4bd d5cf ba3c
00000060: bbe2 42bd d2ab 553d 8bac c2bd 95b1 a8bd
00000070: ab2f 69bd 107d 013e 6461 9dbd e94f f23a

exp_avg f4 [128, 45]
-7.303702e-05 -6.889703e-05 -8.771545e-05 -4.8458016e-05 0.0002482525 6.519267e-05 6.2033905e-05 0.00037081953
-5.8081616e-05 -2.1481623e-05 -5.2072326e-05 0.00013409334 -1.6340628e-05 -4.3708e-05 -6.162596e-05 0.0001551002
0.00036683216 0.00018384586 1.2805509e-06 0.000106346495 2.493184e-05 -0.000119567485 -7.096227e-05 6.660034e-06
4.2444626e-06 2.7412596e-05 1.4427534e-06 0.000106034924 1.2753963e-05 8.128369e-07 7.6571436e-05 -9.1015136e-05
-0.0002094434 0.00014056629 7.744302e-05 4.9871283e-05 0.00021080284 0.00012262232 -9.470701e-06 -5.24807e-05
8.9442714e-05 0.00014456558 -0.00011398636 1.7734157e-05 0.00035576697 -0.00015390062 0.00015642206 -0.00026165228
-0.00015278139 -0.0002517121 -9.7985576e-05 -1.6576168e-06 -0.0005592628 -5.5784585e-05 4.4590783e-05 2.891303e-05
0.00013108051 -8.2543476e-05 -0.00013332521 -5.4644166e-05 -2.5356641e-05 -0.00044549847 -0.00025153323 -1.1728822e-05
9.878171e-05 -6.247395e-05 3.5483008e-05 -0.00019528263 1.517875e-05 -0.00010515454 -3.0321495e-05 -1.5413196e-05
2.088814e-05 -0.00012453305 -2.229186e-05 -0.00015012917 -0.00017168211 0.00016241815 -0.00034457113 5.95481e-05
-0.00032296457 -0.000301372 -0.00014699734 -9.069923e-05 -0.00016760161 -1.6415213e-05 -0.00043802802 -0.00012912464
-0.00039167848 -0.00020590864 -9.7830314e-05 -6.629026e-06 8.470601e-06 -3.09009e-05 -3.8615515e-05 6.8611334e-05
0.00014342488 6.294785e-05 0.00010126566 -4.9162387e-05 -8.828938e-05 7.763283e-05 3.8390386e-05 -4.566663e-05
0.00013855864 5.035041e-05 -0.000101300684 0.00036139973 3.3492286e-06 3.487242e-05 6.931135e-05 9.7259086e-05
-2.0835398e-05 -4.384758e-05 -2.613741e-05 -6.545299e-05 2.9315293e-06 5.7207646e-05 0.0001160141 2.271229e-05
-1.0577856e-05 3.6602087e-05 9.181097e-05 0.000100803925 -7.99823e-05 3.750676e-05 -1.5024378e-05 0.0003027216
0.0001029056 0.00026431555 7.599356e-05 0.00013071591 0.000153351 -4.4285873e-05 8.731616e-05 8.648071e-09
-3.5793446e-10 -7.936852e-08 5.8108665e-08 7.339001e-08 1.318665e-08 3.847479e-05 -3.3679633e-05 4.6669097e-06
-2.7177352e-05 2.374807e-05 -1.04965e-05 -2.0147048e-05 -2.4064915e-05 -1.4089842e-07 9.955509e-08 -1.46911525e-05
-2.7862123e-05 -3.073199e-05 -3.459742e-05 -3.727249e-10 9.2910454e-08 9.1567435e-06 1.8016451e-06 -7.99649e-06
-2.9301556e-10 -1.281657e-06 -2.1881985e-10 -8.045063e-11 -1.0834869e-05 -1.652577e-05 -1.8754169e-07 -3.0280053e-05
-2.403695e-06 -4.189873e-05 2.672672e-06 -2.42608e-07 4.6528567e-07 2.400319e-05 -2.1638375e-07 5.1825386e-06
1.0522036e-05 -1.496275e-10 4.92584e-05 1.2677916e-05 8.218984e-05 1.0541315e-05 -4.8251182e-05 -3.383913e-05
-7.881655e-05 -4.699409e-05 6.959897e-05 -2.2284075e-05 7.267699e-05 -7.9840036e-05 -1.7790439e-05 -7.167455e-05
-9.2634895e-05 0.00010069505 3.061477e-05 -3.9957242e-05 -0.000264443 -0.00033552403 5.608192e-06 6.513584e-05
1.5161596e-05 -5.1425537e-05 -4.9635033e-05 -0.000118615586 3.547747e-05 5.8651658e-05 -1.6505166e-05 -1.3491179e-05
-1.0379573e-05 -7.0845635e-07 -1.946166e-05 -3.4469493e-05 -0.00011822516 4.7429836e-05 -7.1512884e-05 1.6110422e-05
-6.4092535e-05 -8.8117406e-05 -1.4360805e-06 -0.00026006217 0.00013135321 0.00011055227 -2.6803176e-05 0.00010433561
-0.0002066698 9.12279e-05 -3.163999e-05 -0.00044907088 -4.2368094e-05 -0.00014231095 1.3108627e-06 -0.00015884166
0.00019275946 -4.1081577e-05 -0.00017089242 -0.00014471824 -0.00016125206 -3.7442063e-05 6.489391e-05 7.608816e-06
-5.0134957e-05 -0.00018341003 -0.0009005401 -4.242147e-05 -8.197257e-05 -9.972377e-05 -9.787095e-05 0.00017967816
2.8462313e-05 1.31011e-06 4.4599103e-05 -2.3404635e-07 3.0378833e-05 1.7333197e-05 -7.386264e-07 0.0001231843
00000000: 742b 99b8 d07c 90b8 e0f3 b7b8 663f 4bb8
00000010: e327 8239 0cb8 8838 3318 8238 8e6a c239
00000020: a99c 73b8 6f33 b4b7 3c68 5ab8 689b 0c39
00000030: 3b13 89b7 1c53 37b8 2f3d 81b8 65a2 2239
00000040: 6153 c039 bfc6 4039 65df ab35 5706 df38
00000050: b824 d137 4ec0 fab8 94d1 94b8 4279 df36
00000060: a86b 8e36 1af4 e537 a1a4 c135 115f de38
00000070: dbf9 5537 ba31 5a35 fa94 a038 61df beb8
00000080: 099e 5bb9 fa64 1339 e868 a238 e22c 5138
00000090: f50a 5d39 2e94 0039 5ae4 1eb7 b91e 5cb8
000000a0: 3193 bb38 8796 1739 f60b efb8 d0c3 9437
000000b0: 3c86 ba39 6260 21b9 3a05 2439 602e 89b9
000000c0: f133 20b9 3af8 83b9 9b7d cdb8 487b deb5
000000d0: 7e9b 12ba 3efa 69b8 fd06 3b38 428a f237
000000e0: a872 0939 311b adb8 37cd 0bb9 ba31 65b8
000000f0: f9b4 d4b7 cb91 e9b9 38e0 83b9 e8c6 44b7
00000100: 0729 cf38 7204 83b8 97d3 1438 c8c4 4cb9
00000110: 3ca8 7e37 6a86 dcb8 ea5a feb7 964b 81b7
00000120: f038 af37 1695 02b9 68ff bab7 fe6b 1db9
00000130: 9105 34b9 ca4e 2a39 8ea7 b4b9 49c3 7938
00000140: 9253 a9b9 7701 9eb9 4c23 1ab9 c735 beb8
00000150: 37be 2fb9 67b3 89b7 20a7 e5b9 a265 07b9
00000160: 325a cdb9 2ee9 57b9 402a cdb8 e66e deb6
00000170: f41c 0e37 979b 01b8 18f7 21b8 6ee3 8f38
00000180: 5364 1639 df02 8438 965e d438 b633 4eb8
00000190: 0028 b9b8 cfce a238 5d05 2138 2c8a 3fb8
000001a0: 0d4a 1139 572f 5338 6471 d4b8 407a bd39
000001b0: 4fc3 6036 fa43 1238 3f5b 9138 93f7 cb38
000001c0: adc7 aeb7 fbe8 37b8 a941 dbb7 ce43 89b8
000001d0: 4abb 4436 3ef2 6f38 984c f338 4586 be37
000001e0: 8c77 31b7 3185 1938 a48a c038 b266 d338
000001f0: 2cbc a7b8 9450 1d38 3611 7cb7 9bb6 9e39
00000200: 06cf d738 d593 8a39 bb5e 9f38 c910 0939
00000210: d8cc 2039 98bf 39b8 821d b738 9e92 1432
00000220: ccc6 c4af 4e71 aab3 2793 7933 969a 9d33
00000230: 808b 6232 fe5f 2138 3b43 0db8 7398 9c36
00000240: ebfa e3b7 9836 c737 201a 30b7 7501 a9b7
00000250: 03df c9b7 dd49 17b4 fdca d533 057a 76b7
00000260: 74b9 e9b7 39e6 00b8 b21c 11b8 5ee8 ccaf
00000270: 1086 c733 ea9f 1937 0ed0 f135 aa28 06b7
00000280: 4616 a1af 6605 acb5 5098 70af aee9 b0ae
00000290: 68c7 35b7 d2a0 8ab7 115f 49b4 eb01 feb7
000002a0: 2a4f 21b6 6bbc 2fb8 285c 3336 ca3f 82b4
000002b0: 60cc f934 755a c937 1d57 68b4 abe5 ad36
000002c0: cd87 3037 6684 24af ce9a 4e38 3cb3 5437
000002d0: 565d ac38 9ada 3037 5061 4ab8 7dee 0db8
000002e0: 504a a5b8 851b 45b8 aaf5 9138 b0ee bab7
000002f0: 296a 9838 cb6f a7b8 ad3c 95b7 fb4f 96b8
00000300: fb44 c2b8 3e2c d338 5c68 0038 c397 27b8
00000310: f0a4 8ab9 46e9 afb9 012e bc36 8a99 8838
00000320: 8f5e 7e37 c0b1 57b8 362f 50b8 42c1 f8b8
00000330: a5cd 1438 bd00 7638 9374 8ab7 2c58 62b7
00000340: ed23 2eb7 c02c 3eb5 9941 a3b7 5693 10b8
00000350: a6ef f7b8 66ef 4638 30f9 95b8 de24 8737
00000360: 6b69 86b8 accb b8b8 5abf c0b5 f458 88b9
00000370: dcbb 0939 4cd8 e738 62d7 e0b7 c1ce da38
00000380: 81b5 58b9 9b51 bf38 2eb5 04b8 4671 ebb9
00000390: 65b4 31b8 4e39 15b9 e6f0 af35 bc8e 26b9
000003a0: 791f 4a39 024f 2cb8 9631 33b9 82bf 17b9
000003b0: c515 29b9 1c0b 1db8 a717 8838 3b4f ff36
000003c0: 0048 52b8 c151 40b9 3912 6cba b5ed 31b8
000003d0: b0e8 abb8 cb22 d1b8 1140 cdb8 fd67 3c39
000003e0: 5ac2 ee37 09d7 af35 ec0f 3b38 2c4e 7bb4
000003f0: 0cd6 fe37 c266 9137 0546 46b5 092b 0139

exp_avg_sq f4 [128, 45]
1.8547998e-07 7.006111e-08 2.9664528e-07 1.0464455e-07 2.9266948e-07 4.1841187e-08 2.3057795e-07 1.377517e-06
1.2857662e-07 2.31728e-07 4.7637266e-07 7.8106433e-07 1.0600187e-07 6.359213e-08 1.6653843e-07 8.3875e-08
1.1257616e-06 2.1775825e-06 5.7950957e-11 1.6129678e-07 1.9392205e-07 2.594366e-07 1.5100626e-07 7.889216e-08
1.8567377e-08 4.2782993e-08 2.2583931e-11 1.1844175e-07 2.250302e-08 9.3660905e-11 7.855395e-07 1.9881377e-07
2.2920531e-07 3.354041e-07 3.2663044e-07 2.569015e-07 3.292641e-07 9.2582394e-07 1.6191818e-07 2.470308e-07
9.0528096e-07 3.1801621e-06 2.8345102e-07 2.3696225e-06 1.5963886e-06 6.8555573e-07 9.0117436e-07 6.3536345e-07
1.440988e-07 8.265998e-07 1.9606233e-07 8.028325e-07 1.5335485e-06 3.8467385e-07 1.4304566e-06 5.0358767e-07
1.7546638e-06 3.69722e-07 6.8056494e-08 2.5964079e-07 2.3141001e-07 2.9644782e-06 6.1160613e-06 4.932236e-10
1.41387e-07 4.680964e-07 9.286919e-07 1.6671088e-07 1.7673055e-07 3.9874173e-08 5.3592593e-08 6.662696e-10
1.7390923e-07 4.5753225e-08 1.0520539e-09 6.486038e-07 7.279352e-07 1.428323e-06 1.2147791e-06 1.0718583e-06
8.642645e-07 4.9155113e-07 1.4242835e-06 3.1260965e-06 4.073399e-06 2.0604427e-06 2.393261e-06 6.3050214e-07
2.7168744e-06 6.790964e-06 1.6222981e-07 1.3932043e-07 1.8103017e-07 6.4438375e-08 1.6246058e-07 6.756805e-08
2.6334033e-07 3.757804e-07 1.293556e-07 2.766146e-07 1.451112e-07 3.304698e-07 9.7517166e-08 1.680871e-08
1.2245494e-07 4.4264212e-08 8.497256e-07 1.3728995e-06 1.717737e-10 3.636021e-08 1.1749203e-07 1.91449e-07
6.4493584e-08 4.2127848e-08 9.6733785e-09 2.1562396e-08 1.5602838e-10 4.0201538e-08 1.836922e-08 1.1181888e-09
1.9409457e-07 2.2348775e-07 2.7443897e-07 2.9581594e-07 2.2717786e-07 2.8271003e-07 1.2334436e-07 3.5752868e-07
5.0755335e-07 1.1246817e-06 3.5837698e-07 7.32909e-07 6.018869e-07 6.6059056e-07 1.3008472e-06 2.275629e-11
2.2673814e-12 4.2371537e-11 3.7308122e-11 3.8622033e-11 1.8736849e-11 2.5501505e-09 2.003435e-09 2.591372e-10
1.478064e-09 1.2317486e-09 4.7861526e-10 9.964538e-10 1.2843854e-09 4.704482e-11 1.1250715e-11 7.6110546e-10
1.5431575e-09 1.7557304e-09 2.0838218e-09 2.096004e-12 4.1353754e-11 4.2984893e-10 3.0692449e-10 3.700844e-10
4.8707787e-12 1.10929675e-10 8.622224e-12 1.0880491e-11 4.9407906e-10 7.830123e-10 4.164147e-11 1.7387144e-09
1.7412864e-10 2.7780478e-09 3.000373e-10 5.376235e-11 5.7250173e-11 1.2494324e-09 5.407553e-11 2.5856076e-10
4.796924e-10 1.107596e-11 4.3159005e-09 5.814965e-10 2.7186968e-07 3.0701578e-08 1.7346463e-07 2.0883524e-08
4.2566022e-08 3.42442e-08 7.527973e-08 4.7934844e-08 1.4269206e-07 4.093191e-07 1.3464255e-08 3.264621e-07
3.497247e-08 4.407952e-08 8.118237e-08 3.0752833e-08 6.184355e-07 5.579873e-07 3.0776764e-10 5.7975534e-08
1.4075717e-07 1.9342001e-07 4.3003176e-08 3.937566e-08 1.3555148e-08 1.793868e-08 7.469949e-10 2.6576025e-08
9.781441e-09 6.0819036e-12 8.7514714e-08 8.408715e-08 3.4120586e-07 3.506721e-07 1.2617605e-07 1.8154734e-07
3.9519954e-08 1.6657162e-07 5.419625e-08 7.578079e-07 1.1678895e-06 2.8782452e-07 1.4548941e-07 1.1341052e-06
2.2492048e-07 4.512628e-08 1.5050108e-07 3.0313464e-07 7.8387245e-08 5.200417e-07 4.6919812e-08 4.677539e-07
4.885009e-07 7.396145e-09 6.653946e-07 4.1529594e-07 3.0681232e-07 2.2810987e-08 6.040193e-08 1.5778525e-07
4.3045944e-08 7.428029e-07 2.8703123e-06 2.783994e-09 5.7872093e-08 7.340557e-08 1.4649233e-07 9.273256e-08
4.4769617e-08 3.1787157e-09 3.9193925e-08 9.0124415e-11 1.01703975e-07 7.0258444e-09 7.195309e-11 6.567354e-07
00000000: 5928 4734 8174 9633 9e42 9f34 f3b8 e033
00000010: 3020 9d34 dfb4 3333 c994 7734 20e3 b835
00000020: df0e 0a34 e8d0 7834 29c0 ff34 55aa 5135
00000030: 25a3 e333 2590 8833 bcd1 3234 c51e b433
00000040: e018 9735 9522 1236 fade 7e2e ec30 2d34
00000050: e338 5034 b248 8b34 4924 2234 6c6b a933
00000060: 187e 9f32 66c0 3733 7ea6 c62d 0a5a fe33
00000070: aa4c c132 67f6 cd2e dddd 5235 8379 5534
00000080: 7a1b 7634 9711 b434 bf5b af34 46ec 8934
00000090: b7c5 b034 2386 7835 bbdb 2d34 a89f 8434
000000a0: 6f02 7335 c56a 5536 362d 9834 ce05 1f36
000000b0: 7f43 d635 0807 3835 3be8 7135 d88d 2a35
000000c0: 94b9 1a34 81e3 5d35 3485 5234 3b82 5735
000000d0: 53d4 cd35 2c85 ce34 1dfe bf35 482e 0735
000000e0: ca81 eb35 347e c634 7426 9233 c264 8b34
000000f0: 8079 7834 59f1 4636 9138 cd36 8693 0730
00000100: 2ad0 1734 ae4e fb34 394b 7935 2301 3334
00000110: 53c3 3d34 1e42 2b33 ae2d 6633 8e24 3730
00000120: cebb 3a34 3482 4433 db97 9030 b71b 2e35
00000130: 5367 4335 ceb4 bf35 7e0b a335 c5dc 8f35
00000140: ceff 6735 23f3 0335 022a bf35 eec9 5136
00000150: 3bae 8836 2346 0a36 e99b 2036 c73f 2935
00000160: 8c53 3636 f0dd e336 6431 2e34 1c98 1534
00000170: 3261 4234 5f61 8a33 d370 2e34 ee19 9133
00000180: 3861 8d34 ddbe c934 ffe4 0a34 9f81 9434
00000190: ddcf 1b34 6c6b b134 a16a d133 bf62 9032
000001a0: 287c 0334 041d 3e33 b318 6435 7844 b835
000001b0: 00de 3c2f 792a 1c33 ed4f fc33 1a91 4d34
000001c0: b97f 8a33 0ff0 3433 f82f 2632 3638 b932
000001d0: 168e 2b2f 0faa 2c33 58ca 9d32 c5ae 9930
000001e0: 4f68 5034 d8f7 6f34 9b56 9334 a2d0 9e34
000001f0: 2dee 7334 5fc7 9734 a470 0434 5ef2 bf34
00000200: cd3e 0835 c5f3 9635 f566 c034 1fbd 4435
00000210: 5a91 2135 7053 3135 c598 ae35 9c2a c82d
00000220: 838d 1f2c 1c5a 3a2e 3615 242e 8bdc 292e
00000230: a2cf a42d b93e 2f31 cdac 0931 5276 8e2f
00000240: c124 cb30 4d4a a930 8e8f 0330 9af3 8830
00000250: 4b86 b030 c2e7 4e2e b7ec 452d 0936 5130
00000260: 0717 d430 464e f130 fb32 0f31 407e 132c
00000270: 30e0 352e dc4f ec2f c8bb a82f c074 cb2f
00000280: 1360 ab2c dbef f32e 0baf 172d 6069 3f2d
00000290: b9cf 0730 983b 5730 2124 372e 93f7 ee30
000002a0: db74 3f2f efe7 3e31 7ff2 a42f 0673 6c2e
000002b0: f7c9 7b2e 7fb8 ab30 a2d3 6d2e 3125 8e2f
000002c0: 5adb 0330 b0d9 422d 104b 9431 2ed7 1f30
000002d0: 7cf5 9134 bedc 0333 9841 3a34 5b63 b332
000002e0: d6d1 3633 e513 1333 78a9 a133 ebe0 4d33
000002f0: e536 1934 64c0 db34 6b50 6732 9c44 af34
00000300: a334 1633 f251 3d33 7b56 ae33 1915 0433
00000310: 9002 2635 98c8 1535 7232 a92f c600 7933
00000320: 0923 1734 e3ae 4f34 7eb2 3833 ff1d 2933
00000330: 2ce0 6832 9317 9a32 1855 4d30 4c49 e432
00000340: 3c0b 2832 ebfc d52c b9ef bb33 6693 b433
00000350: fa2e b734 0244 bc34 027b 0734 5aef 4234
00000360: a6bc 2933 dcda 3234 68c5 6833 2a6c 4b35
00000370: 61c0 9c35 4d86 9a34 d337 1c34 8f37 9835
00000380: ac81 7134 dfd0 4133 6c99 2134 82be a234
00000390: d855 a833 fe98 0b35 e184 4933 9b1f fb34
000003a0: 8721 0335 2e21 fe31 929d 3235 d7f5 de34
000003b0: f7b7 a434 e4f1 c332 50b6 8133 ae6b 2934
000003c0: 84e1 3833 0765 4735 979f 4036 8a50 3f31
000003d0: 0a8f 7833 24a3 9d33 814b 1d34 4424 c733
000003e0: b748 4033 8f70 5a31 2d56 2833 892f c62e
000003f0: 5a68 da33 fb67 f131 fd39 9e2e 834a 3035

exp_avg f4 [128]
0.00070646603 -0.001209242 0.0006157176 -5.8256148e-05 -0.0004558995 -0.0011327103 -0.0007505738 0.00043335703
-0.0002757899 -0.00027511737 -0.00039182443 0.00026784334 -0.00051461114 0.0013344202 -0.0005453543 -0.00078434375
0.00014734543 -0.000114632145 -0.00054401817 0.0009774106 -0.0006880829 -0.0017124135 -0.004625231 0.005180929
-1.8440347e-05 -0.0016629383 -0.00016192811 -2.827635e-05 -0.00071282533 -0.0023140572 -0.0009795995 0.000169334
0.00028497755 -0.00092526595 -0.00011982782 -9.703404e-06 -0.0009950298 -0.00084439805 0.00048807063 -0.0014924349
-0.00030591106 -0.00030310848 -0.0035891002 -8.343763e-05 -7.146945e-05 -0.0012258159 -0.0016299912 -8.814525e-05
0.0005027717 0.0004773629 -0.00095551746 -7.846739e-05 0.00019132931 -0.004071609 -0.00055672124 -0.0031831805
-0.0028421872 -0.00023790874 -0.0017543456 0.00029393847 0.001643844 -0.0014636479 -0.00029364918 -0.00080631
0.00061232556 0.000800888 -0.00019856445 -0.001029227 0.001826491 -4.0555722e-05 -7.6096534e-05 -0.00013439605
-0.0011283113 -0.0006724075 -0.00048075567 -0.004568654 2.5394249e-05 -7.723553e-05 -0.0020226003 0.00016982725
-0.0039989203 -0.0011740292 0.00036341205 0.0011210495 -0.0020456673 -6.5459135e-05 -0.0013527833 0.0011720486
-0.0035296124 -7.122138e-05 -0.0009126845 -0.0008043614 -7.8997764e-05 -5.2744766e-05 -0.00093089195 -0.00041715568
-0.0020274962 -0.00028281455 7.228974e-05 0.0003041078 -0.00020016852 -0.00038411294 0.00038582706 0.0023560422
-0.00064918963 -0.002057812 -0.00036278032 -0.00041434477 -6.6386034e-05 -0.0030104981 -5.2834603e-05 -0.0016697065
0.00073718466 -0.0001731008 -0.0001482519 8.0343365e-05 -0.00016378648 -0.0013159215 -9.4965115e-05 0.00023998943
0.00020437568 0.0006898496 -0.0017852858 2.9816942e-05 -0.00066151435 0.0009232865 0.0008067676 -0.0008511741
00000000: 2232 393a 6e7f 9eba 1c68 213a 1058 74b8
00000010: cc05 efb9 7377 94ba 28c2 44ba 3234 e339
00000020: e597 90b9 a13d 90b9 c96d cdb9 536d 8c39
00000030: f8e6 06ba b6e7 ae3a 1cf6 0eba 6b9c 4dba
00000040: bd80 1a39 aa66 f0b8 719c 0eba 751c 803a
00000050: 7660 34ba 1073 e0ba 408f 97bb c8c4 a93b
00000060: 58b0 9ab7 f3f6 d9ba 3fcb 29b9 0033 edb7
00000070: e6dc 3aba 70a7 17bb e865 80ba 408f 3139
00000080: 0a69 9539 8c8d 72ba 124c fbb8 cecb 22b7
00000090: a96b 82ba 985a 5dba bbe3 ff39 ce9d c3ba
000000a0: b062 a0b9 88ea 9eb9 1c37 6bbb 3dfb aeb8
000000b0: dee1 95b8 8eab a0ba 6ea5 d5ba 9fda b8b8
000000c0: 70cc 033a 9046 fa39 b17b 7aba dc8e a4b8
000000d0: 929f 4839 226b 85bb eef0 11ba e89c 50bb
000000e0: fd43 3abb 2477 79b9 12f2 e5ba c11b 9a39
000000f0: 4076 d73a e0d7 bfba edf4 99b9 8c5e 53ba
00000100: 7984 203a aff2 513a bd35 50b9 21e7 86ba
00000110: de66 ef3a 601a 2ab8 0496 9fb8 aaec 0cb9
00000120: d8e3 93ba 8144 30ba ef0d fcb9 a6b4 95bb
00000130: bc05 d537 82f9 a1b8 9a8d 04bb a813 3239
00000140: 6009 83bb e2e1 99ba 5788 be39 2ef0 923a
00000150: 9a10 06bb 1b47 89b8 e04f b1ba 6d9f 993a
00000160: 1251 67bb b05c 95b8 3841 6fba c8db 52ba
00000170: 9aab a5b8 433a 5db8 1a07 74ba b0b5 dab9
00000180: bedf 04bb ba46 94b9 429a 9738 a870 9f39
00000190: 54e4 51b9 c462 c9b9 d548 ca39 d467 1a3b
000001a0: 612e 2aba 5bdc 06bb 8d33 beb9 6a3c d9b9
000001b0: bb38 8bb8 c74b 45bb b99a 5db8 0eda daba
000001c0: a03f 413a 6482 35b9 1174 1bb9 047e a838
000001d0: 19be 2bb9 007b acba 0228 c7b8 aca5 7b39
000001e0: ae4d 5639 06d7 343a 4000 eaba 651f fa37
000001f0: 7a69 2dba b508 723a 427d 533a 5421 5fba

exp_avg_sq f4 [128]
8.961412e-06 2.2187767e-05 5.2302817e-06 5.725842e-09 3.6139152e-06 7.138044e-06 4.800466e-06 1.6854596e-05
1.0113228e-05 7.771504e-06 1.1688526e-05 3.609618e-06 1.7445309e-05 1.09235525e-05 7.4215254e-06 3.634733e-05
6.852838e-06 6.0230025e-07 2.9587338e-06 1.7670875e-06 8.406324e-06 1.4195042e-05 0.000118435455 6.194678e-05
3.7145364e-07 9.082067e-06 6.1301307e-06 1.688742e-09 9.485735e-06 2.474099e-05 2.5969837e-05 2.0546956e-06
1.4089183e-05 9.629771e-06 8.39192e-07 1.0500098e-05 4.3541354e-06 9.246374e-06 6.301111e-06 1.8981284e-05
1.8901279e-06 1.2712706e-05 2.7711056e-05 7.046636e-06 6.641917e-06 1.045566e-05 1.6923846e-05 1.2065176e-07
8.761249e-06 2.5366242e-05 5.4181393e-05 4.7464064e-06 3.2890532e-06 7.6478704e-05 1.7982442e-05 3.4147863e-05
4.563383e-05 1.9285014e-06 3.817984e-05 1.5780126e-05 9.949888e-05 1.1139107e-05 2.4835363e-06 5.1029056e-06
5.6936515e-06 4.5706133e-06 1.09316015e-05 1.0815497e-05 1.9431183e-05 2.64291e-09 7.4733975e-06 2.1030437e-06
0.00013750694 2.2666886e-06 2.5408212e-05 2.7382517e-05 2.4065512e-06 6.2299e-06 5.9270944e-05 3.0790423e-05
4.1451895e-05 4.0549105e-05 7.0210976e-06 9.6721415e-06 2.3310979e-05 4.026081e-07 3.563416e-05 9.91763e-06
1.3664488e-05 8.342182e-06 5.7515655e-05 9.634763e-07 6.613252e-08 3.2379867e-07 4.5886713e-06 1.5832304e-05
1.5447635e-05 9.886408e-06 3.3611436e-06 2.062591e-05 5.3882272e-06 1.3965946e-05 2.3049615e-05 9.266108e-06
5.689701e-06 4.2627715e-05 9.444925e-06 1.7674103e-05 1.6676246e-05 2.4591802e-05 4.859835e-09 1.0103523e-05
4.3647547e-06 7.4216786e-07 2.1281124e-07 2.042468e-06 5.051096e-07 1.2573076e-05 3.767923e-07 3.2474145e-06
1.483687e-06 6.515823e-06 1.6250577e-05 4.3874165e-06 1.3184624e-05 6.445358e-06 5.8098038e-05 1.4214328e-05
00000000: f958 1637 de1f ba37 c77f af36 0abd c431
00000010: 9786 7236 5583 ef36 b013 a136 f862 8d37
00000020: fcab 2937 5b62 0237 d619 4437 c43c 7236
00000030: 8457 9237 4d44 3737 6b06 f936 a673 1838
00000040: 6ef1 e536 c2ad 2135 a98e 4636 aa2c ed35
00000050: e308 0d37 3e27 6e37 8d60 f838 6de9 8138
00000060: 336c c734 2e5f 1837 6cb1 cd36 5419 e830
00000070: ec24 1f37 df8a cf37 cdd9 d937 67e3 0936
00000080: 9560 6c37 8d8f 2137 d644 6135 9429 3037
00000090: bd19 9236 e020 1b37 226e d336 ff39 9f37
000000a0: 4db0 fd35 a848 5537 0a75 e837 2472 ec36
000000b0: a2dd de36 b86a 2f37 aff7 8d37 818c 0134
000000c0: 47fd 1237 97c9 d437 d440 6338 5243 9f36
000000d0: 81b9 5c36 3163 a038 00d9 9637 fd39 0f38
000000e0: f466 3f38 676b 0136 4b23 2038 905f 8437
000000f0: 0eaa d038 1ae2 3a37 d4aa 2636 a039 ab36
00000100: 180c bf36 455d 9936 df66 3737 3574 3537
00000110: 2600 a337 909e 3531 ffc3 fa36 0422 0d36
00000120: bd2f 1039 6a1d 1836 b823 d537 82b3 e537
00000130: 3c80 2136 6f0a d136 b199 7838 f724 0138
00000140: a2dc 2d38 4513 2a38 c596 eb36 8845 2237
00000150: f28b c337 0926 d834 e375 1538 e663 2637
00000160: 8740 6537 66f5 0b37 f73c 7138 cb50 8135
00000170: bd04 8e33 8dd6 ad34 63f8 9936 9dcf 8437
00000180: 8b95 8137 cddd 2537 0290 6136 ce05 ad37
00000190: 85cc b436 484f 6a37 ac5a c137 a175 1b37
000001a0: 29ea be36 29cb 3238 a575 1e37 d942 9437
000001b0: f7e3 8b37 7e4a ce37 90fb a631 4d82 2937
000001c0: f574 9236 6339 4735 1c81 6434 5511 0936
000001d0: de96 0735 f3f0 5237 f049 ca34 28ee 5936
000001e0: 1923 c735 7ea2 da36 d951 8837 9f37 9336
000001f0: 8733 5d37 3445 d836 4bae 7338 137a 6e37
