data/models/regression_models/ML_including_industry_feature/multi_dimension_all/version_best/checkpoints/epoch=79-step=2480.ckpt (torch, 575819 bytes, 18 tensors)

network.0.weight f4 [256, 45]
-0.040074185 0.0013498344 -0.00016182648 -0.03337027 -0.013778624 0.053701837 0.04687796 -0.028016321
0.081472814 -0.052054647 0.0327268 0.054836158 -0.012844991 -0.008199417 -0.015376137 0.016607378
0.04446834 -0.06395842 0.0026548055 -0.00082572585 0.033572916 0.026962752 0.020616665 0.031197233
0.03109252 0.022269916 0.0034186705 -0.008211725 0.048050698 -0.00041742323 -0.0014155741 -0.015881982
0.05917195 -0.0776781 -0.024807846 -0.047337025 0.06819956 0.058822576 -0.077358276 -0.052957345
-0.01810244 -0.01596052 0.028623734 -0.00446491 -0.044386752 -0.09833068 -0.076433256 -0.060743038
-0.029589802 -0.028749183 -0.058297463 0.12783293 0.019819958 0.040589288 -0.062482934 0.0551706
0.049818624 0.020360682 0.011505168 0.052950166 -0.045903455 0.123793006 -0.10334472 0.0040301955
0.0057205767 0.04063187 0.056122974 -0.009380986 -0.007938281 0.07394146 -0.035772707 0.004032195
-0.011519205 0.05188672 0.004037071 0.040257443 -0.0659953 0.10029339 -0.08542301 -0.03088234
0.08587882 -0.06751353 -0.024365155 0.062436797 -0.034556415 0.08082832 -0.09239902 0.006266775
0.05389147 0.016730107 -0.09538975 0.10472664 -0.0015130505 -0.055651292 0.058937754 -0.039470457
-0.018258797 -0.02130175 0.015028966 0.057328973 -0.06545363 0.03985968 0.047113128 0.0032059597
-0.064257234 -0.02344739 -0.06694351 -0.12975086 -0.00244775 0.037425462 -0.027680352 0.061039902
-0.058292113 0.027580999 -0.024290653 -0.024589458 -0.0026397787 -0.012919157 -0.043856315 -0.0026408287
0.07073413 -0.043919027 -0.06912098 0.015708633 0.040299457 -0.019413853 -0.031564727 -0.06864309
0.07752304 -0.019214682 -0.04354279 0.074597694 -0.016826792 0.10166144 -0.10330029 -0.034352224
0.022300629 -0.058403414 -0.025000961 -0.014972479 -0.020062013 0.009165534 0.062575884 -0.037641145
0.016287364 0.054668196 0.05824282 -0.012653979 0.025469769 -0.06814305 -0.036463834 0.015792131
0.11217835 -0.001910619 0.0239612 -0.07437617 -0.05235837 0.0055978787 0.020337503 0.022134045
-0.01439121 0.0058951615 -0.033490624 0.014536854 0.0017138785 -0.011395315 0.01421653 -0.06467671
-0.044896673 -0.039516155 -0.055965092 -0.011782687 -0.0696509 -0.08906204 -0.06496742 -0.0052878717
0.08339165 0.01652946 0.08309543 -0.0052337484 -0.04294515 0.092838146 -0.008411107 0.060910307
-0.028115729 0.08010784 -0.06165725 -0.043999914 -0.03907111 -0.021550482 0.02195659 -0.026616361
0.003945909 0.006284546 -0.033819918 -0.030886156 0.0395986 -0.041236065 -0.0024030467 0.017824542
-0.011012639 0.058258865 0.026210504 0.004602443 -0.02712109 -0.023733696 -0.0017288753 -0.022568475
0.0057225204 -0.0017655907 -0.025510052 0.058066893 -0.05287826 0.07459903 -0.024795348 0.0022352522
0.0332082 0.02878066 0.024632014 0.0050504883 -0.039534573 -0.05584849 -0.023931196 0.09800516
0.056729864 0.034772947 0.064035125 -0.016158031 0.039274234 -0.030955305 -0.035208438 -0.028974013
0.035331715 0.0037403838 0.014795193 -0.014548348 0.0734955 0.024035102 -0.036804046 0.051648747
0.026230654 -0.060689397 -0.088167846 -0.002567066 -0.04340517 0.05224606 0.08703072 0.028764213
-0.023980936 -0.011160869 -0.006631414 -0.0025479055 -0.0043452187 -0.019709455 -0.007930585 0.07488105
00000000: d424 24bd edec b03a f7af 29b9 44af 08bd
00000010: bdbf 61bc 75f6 5b3d 1b03 403d 7c82 e5bc
00000020: 38db a63d 4137 55bd 890c 063d e19b 603d
00000030: cc73 52bc d956 06bc 31ec 7bbc 320c 883c
00000040: 6f24 363d a2fc 82bd 3ffc 2d3b 8675 58ba
00000050: c183 093d fde0 dc3c 48e4 a83c 5791 ff3c
00000060: beb5 fe3c 666f b63c c60b 603b 798a 06bc
00000070: cfd0 443d 99d9 dab9 c98a b9ba ee1a 82bc
00000080: 495e 723d b215 9fbd d339 cbbc 78e4 41bd
00000090: 36ac 8b3d f1ef 703d 046e 9ebd cde9 58bd
000000a0: 914b 94bc a3bf 82bc 527c ea3c 614e 92bb
000000b0: e2ce 35bd 9861 c9bd 0a89 9cbd b1cd 78bd
000000c0: 5066 f2bc 6883 ebbc 52c9 6ebd a3e6 023e
000000d0: 775d a23c f440 263d 1bee 7fbd 91fa 613d
000000e0: 9d0e 4c3d 72cb a63c 2c80 3c3c 46e2 583d
000000f0: 4305 3cbd 3087 fd3d 66a6 d3bd bb0f 843b
00000100: ad73 bb3b 9b6d 263d 34e1 653d b5b2 19bc
00000110: 900f 02bc 9f6e 973d 6786 12bd 8120 843b
00000120: 0cbb 3cbc 2b87 543d 6849 843b fde4 243d
00000130: 8b28 87bd 9f66 cd3d 42f2 aebd f6fc fcbc
00000140: 3ce1 af3d 8944 8abd 6f99 c7bc babd 7f3d
00000150: 078b 0dbd 5189 a53d b33b bdbd 8559 cd3b
00000160: 4dbd 5c3d 940d 893c b45b c3bd ec7a d63d
00000170: 8d51 c6ba 9cf2 63bd b768 713d c6ab 21bd
00000180: 7993 95bc 0281 aebc 0d3c 763c c9d1 6a3d
00000190: 8e0c 86bd e743 233d b2f9 403d 141b 523b
000001a0: 4c99 83bd be14 c0bc ae19 89bd 69dd 04be
000001b0: 6e6a 20bb 714b 193d e8c1 e2bc fa04 7a3d
000001c0: b6c3 6ebd 8cf1 e13c 31fd c6bc d56f c9bc
000001d0: 2300 2dbb dfaa 53bc aea2 33bd c111 2dbb
000001e0: 0edd 903d 70e4 33bd 4d8f 8dbd 64af 803c
000001f0: 0b11 253d cd09 9fbc 044a 01bd c094 8cbd
00000200: 66c4 9e3d 1c68 9dbc ed59 32bd adc6 983d
00000210: 57d8 89bc e033 d03d 1a8f d3bd ebb4 0cbd
00000220: cfaf b63c 6b38 6fbd d1ce ccbc 214f 75bc
00000230: 1759 a4bc 092b 163c c927 803d 9a2d 1abd
00000240: 146d 853c c2eb 5f3d 0690 6e3d a252 4fbc
00000250: faa5 d03c 958e 8bbd 1a5b 15bd 805e 813c
00000260: c3bd e53d bc6d faba 474a c43c 8952 98bd
00000270: bb75 56bd 696e b73b d69a a63c 7552 b53c
00000280: 1cc9 6bbc 332c c13b 772d 09bd fc2b 6e3c
00000290: 38a4 e03a 6ab3 3abc 73ec 683c 3975 84bd
000002a0: 93e5 37bd b1db 21bd a73b 65bd 2c0c 41bc
000002b0: 22a5 8ebd 2966 b6bd a40d 85bd e245 adbb
000002c0: 3ec9 aa3d ca68 873c f02d aa3d dd7f abbb
000002d0: 41e7 2fbd ed21 be3d bdce 09bc 167d 793d
000002e0: f552 e6bc 940f a43d 508c 7cbd 4139 34bd
000002f0: 0709 20bd a38a b0bc 4ede b33c 8e0a dabc
00000300: af4c 813b 98ee cd3b c186 0abd f704 fdbc
00000310: 2432 223d 26e7 28bd 6f7c 1dbb c604 923c
00000320: 5b6e 34bc d9a0 6e3d 69b7 d63c 17d0 963b
00000330: 0c2d debc 2b6d c2bc 6e9b e2ba 86e1 b8bc
00000340: fb83 bb3b 656b e7ba 75fa d0bc 8dd7 6d3d
00000350: e096 58bd 60c7 983d 9d1f cbbc 4f7d 123b
00000360: 5205 083d 6bc5 eb3c 14c9 c93c 917e a53b
00000370: 01ef 21bd 63c1 64bd 5b0b c4bc eeb6 c83d
00000380: 935d 683d 146e 0e3d d924 833d d95d 84bc
00000390: 05de 203d fb95 fdbc b936 10bd e95a edbc
000003a0: fdb7 103d 3a21 753b 8a67 723c 325c 6ebc
000003b0: cf84 963d 43e5 c43c d7bf 16bd a38d 533d
000003c0: abe1 d63c 7295 78bd 5891 b4bd 393c 28bb
000003d0: 9fc9 31bd f7ff 553d 2a3d b23d eda2 eb3c
000003e0: ab73 c4bc 14dc 36bc 554c d9bb c3fa 26bb
000003f0: 5662 8ebb b975 a1bc 49ef 01bc 3c5b 993d

network.0.bias f4 [256]
0.015157431 -0.013335058 0.122122124 0.058227107 0.019273007 0.0886415 0.04872887 -0.05573302
-0.002890229 -0.06620153 0.046383 0.079353884 -0.0075296573 -0.023033904 -0.05394593 -0.040139753
0.07751113 0.031195542 -0.06838857 -0.0781411 0.10773697 0.069503784 -0.03805863 -0.096275575
-0.042125538 -0.0067500207 0.016834835 -0.016379815 0.015601526 0.022601938 -0.009354367 0.06268956
-0.05327166 -0.059261203 -0.0029749544 -0.0060359817 -0.06573346 -0.031989954 -0.078514256 0.12424943
0.102830514 0.120972 0.057800543 -0.0074510067 -0.04596073 0.0078094993 0.11900867 0.11826839
-0.019111209 0.11901236 0.10185805 -0.06039718 0.05854626 0.119399264 -0.0026844973 0.07362831
0.0111101465 0.01782479 0.10855623 -0.014676534 0.029391343 0.12263728 -0.039036352 0.043841247
0.05876381 0.07381658 0.070979275 -0.065663725 0.05544072 -0.013978072 0.057117682 0.0004188202
-0.08867878 0.051906202 -0.0316121 0.08102786 -0.019876096 0.0037063 0.040491037 -0.036446422
-0.07932762 -0.08900613 -0.10497082 -0.020342708 0.10894893 -0.022117859 -0.02670315 0.091788255
-0.012620233 -0.031277925 -0.050925333 0.037797403 0.108552866 0.026254842 0.011088766 -0.005109314
0.01259145 0.09456689 -0.045678545 0.0018244203 0.12257173 -0.00920257 0.03804077 -0.017252808
-0.040641356 0.037978828 -0.039083116 -0.103307724 0.009623803 -0.033456855 0.024525067 -0.017322142
-0.038682092 0.10544621 -0.03373815 -0.004563859 -0.03421372 -0.008657182 -0.042539664 -0.016299928
0.013667121 -0.00080786034 0.08587882 0.013005215 -0.07202193 -0.044155434 -0.072011955 -0.07064977
-0.060010586 -0.029086133 0.018562315 0.03393951 -0.04742801 -0.036871362 -0.018938614 0.076590545
-0.017944524 0.105275564 -0.06831322 0.04506251 -0.0708033 0.080324434 0.06452229 0.08673941
0.11394904 -0.021017594 0.123215616 -0.052550867 -0.038644902 0.03150131 -0.021011032 0.06094536
-0.021178039 -0.024058567 -0.00040234995 0.0873513 -0.050417315 0.066798605 0.033400312 0.04333602
0.021949207 -0.0554714 0.07862037 0.08500265 -0.08738079 0.12053231 -0.029451996 -0.04987481
0.060057748 0.12759253 0.11566527 -0.088154286 -0.0033122196 0.045642518 0.10254721 0.069930464
-0.07959119 0.116248764 0.10819411 0.11909699 -0.030567525 0.09104238 -0.007575173 -0.11086909
0.04802245 0.107120745 0.08661826 -0.047259405 -0.008723145 -0.078264475 -0.01336249 0.07836617
0.016041024 0.020478861 -0.061009627 0.06448812 0.09534125 -0.06247935 0.020527586 -0.07571171
-0.029957192 0.06720593 0.04739161 -0.067392215 -0.008528494 0.089065656 0.10496164 0.054463442
-0.05034821 -0.0046943594 -0.08055127 -0.033294097 0.05846988 0.13357267 -0.021005463 -0.077677995
0.09871423 0.06693141 -0.029107248 0.046159457 0.07005632 0.076817974 -0.056622554 -0.082817726
-0.029938294 0.014849556 -0.076018676 -0.06751663 0.0011301108 -0.043935273 -0.028812634 0.005268136
0.00070636685 -0.006857203 0.061038468 0.112241656 -0.06687426 -0.041346665 -0.082982436 -0.014408986
0.12490799 -0.094685696 0.010684834 0.015098904 -0.07621395 -0.06146429 0.008960519 -0.020622667
0.01771972 -0.019926319 0.05031308 0.09195831 0.017016098 -0.018704005 0.017423574 -0.04279085
00000000: e056 783c 4a7b 5abc 2a1b fa3d 8c7f 6e3d
00000010: 6de2 9d3c ad89 b53d ec97 473d 4f48 64bd
00000020: ff69 3dbb ab94 87bd 1afc 3d3d 4a84 a23d
00000030: 58bb f6bb 99b1 bcbc 68f6 5cbd 9569 24bd
00000040: 28be 9e3d cb8d ff3c 4e0f 8cbd 7108 a0bd
00000050: 33a5 dc3d 0058 8e3d 5ee3 1bbd 212c c5bd
00000060: d48b 2cbd 472f ddbb 35e9 893c f62e 86bc
00000070: 8b9d 7f3c b327 b93c 0f43 19bc 6263 803d
00000080: 6233 5abd e0bb 72bd 74f7 42bb 7cc9 c5bb
00000090: 449f 86bd e607 03bd 15cc a0bd 7c76 fe3d
000000a0: ce98 d23d 2bc0 f73d 43c0 6c3d 9327 f4bb
000000b0: 5241 3cbd d4e6 ff3b d1ba f33d b336 f23d
000000c0: 1c8f 9cbc c1bc f33d f49a d03d 0963 77bd
000000d0: 34ce 6f3d 9a87 f43d 64ee 2fbb 70ca 963d
000000e0: 5507 363c 4b05 923c bb52 de3d d875 70bc
000000f0: 1dc6 f03c 4129 fb3d 95e4 1fbd e192 333d
00000100: 52b2 703d 262d 973d 955d 913d b47a 86bd
00000110: cf15 633d 4904 65bc 3bf4 693d 1895 db39
00000120: 389d b5bd 999b 543d b07b 01bd eff1 a53d
00000130: 32d3 a2bc 65e5 723b eed9 253d d848 15bd
00000140: 8576 a2bd d948 b6bd f1fa d6bd c0a5 a6bc
00000150: 9e20 df3d 8330 b5bc 90c0 dabc 7bfb bb3d
00000160: 18c5 4ebc 481d 00bd 1597 50bd 73d1 1a3d
00000170: f750 de3d 6514 d73c a8ad 353c 086c a7bb
00000180: 5e4c 4e3c 49ac c13d 6d19 3bbd 6321 ef3a
00000190: e306 fb3d 60c6 16bc a3d0 1b3d c355 8dbc
000001a0: 8d77 26bd b08f 1b3d 9e15 20bd 0093 d3bd
000001b0: 28ad 1d3c 0e0a 09bd cbe8 c83c 2ae7 8dbc
000001c0: 1d71 1ebd 2ff4 d73d 0431 0abd 6d8c 95bb
000001d0: b023 0cbd dad6 0dbc 123e 2ebd 6d87 85bc
000001e0: 0fec 5f3c 97c6 53ba 3ce1 af3d d313 553c
000001f0: 3c80 93bd 54dc 34bd 017b 93bd d4b0 90bd
00000200: a9cd 75bd 0b46 eebc ff0f 983c 2804 0b3d
00000210: df43 42bd 6d06 17bd 2725 9bbc 81db 9c3d
00000220: 6500 93bc b79a d73d cde7 8bbd 7793 383d
00000230: 5201 91bd 2381 a43d 4324 843d 6fa4 b13d
00000240: 1d5e e93d 172d acbc 7858 fc3d 943f 57bd
00000250: 1e4a 1ebd 8507 013d 541f acbc d8a1 793d
00000260: 917d adbc 7916 c5bc 7ff2 d2b9 3de5 b23d
00000270: 6382 4ebd b5cd 883d c4ce 083d 1c81 313d
00000280: d3ce b33c fb35 63bd b703 a13d df15 ae3d
00000290: b3f4 b2bd a5d9 f63d 5045 f1bc 8749 4cbd
000002a0: 1dff 753d 9ea7 023e eae1 ec3d 3c8a b4bd
000002b0: d311 59bb a6f3 3a3d 4604 d23d b437 8f3d
000002c0: b500 a3bd d513 ee3d e094 dd3d 1fe9 f33d
000002d0: bf68 fabc 6d74 ba3d 2839 f8bb 550f e3bd
000002e0: 30b3 443d 1f62 db3d ea64 b13d 1493 41bd
000002f0: 86eb 0ebc 2049 a0bd 58ee 5abc 717e a03d
00000300: 7768 833c 49c3 a73c 3be5 79bd 5912 843d
00000310: 4642 c33d 59ea 7fbd 7829 a83c be0e 9bbd
00000320: c968 f5bc 43a3 893d b41d 423d ee04 8abd
00000330: 19bb 0bbc 0e68 b63d 21f6 d63d 0f15 5f3d
00000340: ed39 4ebd 24d3 99bb 10f8 a4bd 645f 08bd
00000350: 1d7e 6f3d 46c7 083e a613 acbc a415 9fbd
00000360: b02a ca3d 5613 893d 5372 eebc b311 3d3d
00000370: b079 8f3d be52 9d3d 0ded 67bd 579c a9bd
00000380: 2741 f5bc 8d4b 733c aeaf 9bbd 2946 8abd
00000390: 3a20 943a 79f5 33bd 7908 ecbc 54a0 ac3b
000003a0: 7a2b 393a 63b2 e0bb 7903 7a3d f4de e53d
000003b0: 5ff5 88bd 1f5b 29bd b2f2 a9bd ab13 6cbc
000003c0: c3cf ff3d 93ea c1bd 710f 2f3c 6561 773c
000003d0: 0f16 9cbd fbc1 7bbd 24cf 123c def0 a8bc
000003e0: f228 913c 853c a3bc 1715 4e3d a354 bc3d
000003f0: 5865 8b3c 2439 99bc e2bb 8e3c 7545 2fbd

network.2.weight f4 [128, 256]
-0.0047872723 -0.010510739 0.009560995 -0.0050853393 0.0040453495 -0.02402948 0.00547815 -0.0044687986
-0.0013323338 -0.01990625 -0.0041876715 0.016342921 0.00051910215 0.0050400607 -0.003806961 -0.0090135755
-0.006186238 -0.009207414 0.0048508462 -0.0010701162 -0.022182718 -0.002652604 0.0051830313 0.020198926
-0.010494211 -0.0057380544 -0.01288625 -0.0035960427 0.0031990285 0.017273502 -0.0068445494 -0.0052252687
0.031600446 0.002276843 -0.00045562582 4.1304527e-20 0.013593963 -0.00295612 0.0060609365 0.013224073
0.007535311 0.010880052 0.008926767 2.2511975e-09 -0.001208808 -0.021944936 -0.0060574682 0.021395147
-0.015376773 -0.00816818 0.01108473 -0.008059702 0.012948378 -0.022402115 -0.038908124 0.035444662
-0.0033479843 0.010687371 -0.017244125 -0.018805197 -0.036527902 0.043014903 0.004912225 -0.016931077
0.023428954 -0.016061014 -0.0048129368 -0.00047357625 -0.005169237 0.00011028858 -0.024773983 -0.008704763
-0.00060715387 0.030871345 0.0014147604 -0.041059062 -0.01217478 -0.0045123133 -0.018699802 -0.0117383115
-0.0016836954 0.0031525246 -0.0032067162 -0.033563614 -0.042756505 0.012017537 -0.0021044838 -0.023272652
-0.00039786226 0.0039150114 0.0014079267 0.039675627 0.01974059 0.0029043437 0.017297888 -0.018411063
-0.004913793 -0.004671833 0.017279271 -0.019688914 -0.022995794 0.0016887409 0.034090806 -0.035801847
-0.001966922 -0.026353713 0.0024744847 -0.005054071 -0.016017405 0.013417116 -0.008445249 0.011286913
-0.003168196 0.032597937 -0.018964523 0.0050522075 0.0005250341 -0.00015028172 -0.001337476 -0.0010970652
-0.023757135 -0.0008809804 -0.035104886 -0.005741269 -0.009598551 0.013599605 0.0044229645 -0.016831065
0.00012977346 0.0023956613 -0.0026963546 0.0019857052 -0.0008653988 -0.003057668 -0.002657386 0.031301748
0.011453327 -0.016613731 0.001032734 -0.011843305 -0.011178211 -0.0047218828 -0.0059642135 -0.014432156
-0.03166361 0.0018951752 0.0062915254 0.0060738055 0.009269936 -0.017390117 -0.010313201 0.029778507
0.020391481 -0.00251934 -0.0020880692 -0.026045121 -0.0026598093 0.011705704 0.012684742 -0.0015124314
-0.007771758 0.0026470702 0.0076198056 -0.012348129 0.0007662462 -0.034624122 -0.013247012 0.0029502627
-0.021499326 0.030445041 0.015124228 -0.01412433 6.240147e-05 0.030593988 0.027217438 -0.001149005
0.002167267 -0.014533354 -0.0018583804 0.008634851 -0.0005800171 0.022137983 0.014237842 0.005089313
0.021100646 0.029949281 0.010900966 -0.008181982 -0.006001124 0.00015799471 -0.020378435 0.007306372
-0.0031135455 0.0012619592 0.010577552 0.027372751 -0.0130819855 0.0027309263 0.031435672 0.029283417
0.010073755 0.002313158 0.0037165086 -0.0029343339 -0.002882128 0.01873082 -0.012088148 0.002939491
0.005297528 -0.003791589 -0.010987675 0.008792343 0.015506912 0.021954019 -0.0015205106 0.012135349
0.041170064 0.005362555 -0.005975201 0.0021362542 0.011697995 -0.034182798 -0.0027167087 -0.0046398947
-0.0019828212 -0.014961383 -0.004482538 -0.002346932 0.0031156493 -0.004958917 -0.01071429 0.00016053778
0.0031361517 0.0059462627 -0.032327767 -0.0034211518 -0.005944158 -0.005179622 -0.008316162 0.0055535315
-0.0073915874 -0.00633781 -0.018482594 0.014470208 -0.0035193537 0.013836478 -0.010181931 -0.0009983474
-0.024798067 0.009002771 0.009941511 -0.011869253 -0.00653723 0.0026713444 0.0011841888 0.012082025
00000000: 8dde 9cbb 3c35 2cbc b8a5 1c3c eba2 a6bb
00000010: da8e 843b 79d9 c4bc 0e82 b33b 006f 92bb
00000020: b4a1 aeba 6f12 a3bc bc38 89bb 97e1 853c
00000030: 5b14 083a 1827 a53b 357e 79bb adad 13bc
00000040: edb5 cabb b2da 16bc d9f3 9e3b 2443 8cba
00000050: 88b8 b5bc 4fd7 2dbb 6bd6 a93b 3878 a53c
00000060: e9ef 2bbc 4a06 bcbb da20 53bc 96ab 6bbb
00000070: cba6 513b 2981 8d3c 3e48 e0bb bb38 abbb
00000080: 786f 013d 1637 153b 10e1 eeb9 1c0e 431f
00000090: 37b9 5e3c 77bb 41bb d29a c63b c8a9 583c
000000a0: c5ea f63b 3f42 323c 9341 123c 7cb3 1a31
000000b0: de70 9eba dec5 b3bc ba7d c6bb e044 af3c
000000c0: dcee 7bbc d4d3 05bc ba9c 353c d70c 04bc
000000d0: 6f25 543c a484 b7bc 205e 1fbd 6c2e 113d
000000e0: db69 5bbb 151a 2f3c 8d43 8dbc 5b0d 9abc
000000f0: 489e 15bd 6530 303d bbf6 a03b 0bb3 8abc
00000100: 14ee bf3c 6392 83bc d7b5 9dbb 544a f8b9
00000110: b462 a9bb bb4a e738 cff2 cabc 6c9e 0ebc
00000120: 6829 1fba e7e5 fc3c 7b6f b93a 8c2d 28bd
00000130: ba78 47bc 07dc 93bb 5430 99bc 0c52 40bc
00000140: 71af dcba 969a 4e3b c527 52bb 007a 09bd
00000150: 7221 2fbd 34e5 443c 61eb 09bb 4aa6 bebc
00000160: 2b98 d0b9 7f49 803b 2e8a b83a e982 223d
00000170: 05b7 a13c cd56 3e3b 4db4 8d3c ccd2 96bc
00000180: e203 a1bb 2d16 99bb 428d 8d3c a54a a1bc
00000190: ad61 bcbc be58 dd3a cda2 0b3d f5a4 12bd
000001a0: 7ae7 00bb bee3 d7bc f72a 223b 9f9c a5bb
000001b0: ef36 83bc 77d3 5b3c f15d 0abc bfec 383c
000001c0: 82a1 4fbb 6a85 053d 7d5b 9bbc fd8c a53b
000001d0: 71a2 093a f194 1db9 3f4e afba 66cb 8fba
000001e0: 539e c2bc 98f1 66ba 24ca 0fbd 4121 bcbb
000001f0: 3e43 1dbc e1d0 5e3c 84ee 903b 4de1 89bc
00000200: cc13 0839 8700 1d3b 53b5 30bb 9b22 023b
00000210: eedb 62ba 2863 48bb 8a27 2ebb 4336 003d
00000220: bca6 3b3c 8519 88bc ce5c 873a 6c0a 42bc
00000230: d124 37bc 06ba 9abb 736f c3bb da74 6cbc
00000240: b4b1 01bd 8767 f83a 2429 ce3b c606 c73b
00000250: eee0 173c b875 8ebc b3f8 28bc 0ef2 f33c
00000260: 090c a73c 831b 25bb fdd7 08bb 945c d5bc
00000270: 3250 2ebb 48c9 3f3c aad3 4f3c c73c c6ba
00000280: 3baa febb 787a 2d3b 90af f93b cf4f 4abc
00000290: e9dd 483a 06d2 0dbd ff09 59bc 3259 413b
000002a0: 5b1f b0bc e167 f93c 9ccb 773c bc69 67bc
000002b0: 89dd 8238 3ea0 fa3c 1bf7 de3c 369a 96ba
000002c0: b508 0e3b 4e1d 6ebc e694 f3ba 3179 0d3c
000002d0: 4a0c 18ba b75a b53c d645 693c 40c4 a63b
000002e0: 43db ac3c 3258 f53c f799 323c b80d 06bc
000002f0: 14a5 c4bb 62ab 2539 adf0 a6bc 4a6a ef3b
00000300: a00c 4cbb 5368 a53a 784d 2d3c d23c e03c
00000310: d355 56bc 57f9 323b b1c2 003d c7e3 ef3c
00000320: 640c 253c 5a98 173b ab90 733b f44d 40bb
00000330: 16e2 3cbb 6071 993c 5e0d 46bc 7aa4 403b
00000340: e396 ad3b 4f7c 78bb a605 34bc c20d 103c
00000350: b410 7e3c ead8 b33c df4b c7ba 58d3 463c
00000360: f1a1 283d 5fb8 af3b 9ecb c3bb 6600 0c3b
00000370: f2a8 3f3c 4303 0cbd cf0a 32bb 420a 98bb
00000380: 38f2 01bb 9720 75bc 41e2 92bb fcce 19bb
00000390: ec2f 4c3b 697e a2bb fd8a 2fbc 0856 2839
000003a0: e587 4d3b ded8 c23b 1f6a 04bd 6735 60bb
000003b0: 36c7 c2bb d2b9 a9bb 8340 08bc 66fa b53b
000003c0: 2135 f2bb 67ad cfbb cf68 97bc 7414 6d3c
000003d0: f5a4 66bb 65b2 623c 1dd2 26bc fbda 82ba
000003e0: 5125 cbbc 5c80 133c b8e1 223c 4177 42bc
000003f0: 4336 d6bb b911 2f3b c836 9b3a b0f3 453c

network.2.bias f4 [128]
0.02925816 0.012430399 0.0065918253 0.004292499 0.008908855 0.006267543 0.04577472 0.031224051
0.022919195 0.016817894 0.02360527 0.04987706 0.046057504 0.049345285 -0.032897048 -2.8388704e-06
-0.020578533 0.0038773762 -0.010409734 0.0038160211 0.0041233134 -0.037218127 0.024282122 0.052479956
-0.0019015677 0.059118956 -0.04274159 0.011410345 0.026278038 -0.009326541 -0.03726609 0.053559694
0.010077787 0.010106544 0.058976267 0.007975801 0.041195042 -2.8401284e-09 0.041736294 0.027035782
0.023947245 0.033392195 -0.0327526 -0.03411009 -0.010397843 -0.040216822 0.0064375545 -0.025575276
0.012570553 0.024434434 -0.037052635 -0.011494436 -0.012725422 -0.041787174 0.061099917 0.031214114
-0.014357134 -0.004498954 0.018484352 -0.0007157878 0.047832124 0.019330323 -0.005079621 0.0016950753
-0.04389721 0.026000375 0.005967175 0.020581363 0.008740705 -0.0015409465 0.041356456 0.001499062
0.043769136 -0.011664382 0.056141768 0.03822251 0.03170373 0.041814823 0.011181886 -0.0049069053
0.04916795 -3.1550545e-07 0.0182371 -0.0142587675 0.06113364 0.044889484 -0.0037413163 0.010695421
0.0455278 -0.040493313 -0.005805418 0.021440523 0.028758034 -0.026453199 0.003654978 0.013075236
0.042068228 -0.021555467 0.034588896 -0.009314941 -0.041880116 -0.049315803 0.018464833 0.0009167054
-0.044296782 -0.014469893 0.047715258 0.021781815 0.043271508 -0.006139166 0.05906372 0.017224012
0.009170313 0.034009874 0.0090042725 0.055053305 0.036555525 -0.0380271 -0.042553023 0.0047373422
0.04538829 0.013398399 -0.0065541468 -0.039543815 -2.0782765e-07 -0.037721083 0.022877626 -0.011702717
00000000: cfae ef3c dfa8 4b3c 3d00 d83b 17a8 8c3b
00000010: 72f6 113c f65f cd3b 467e 3b3d 95c9 ff3c
00000020: 09c1 bb3c aec5 893c d75f c13c e34b 4c3d
00000030: cba6 3c3d 481e 4a3d 0ebf 06bd 6c83 3eb6
00000040: 5094 a8bc 941b 7e3b 978d 2abc 3616 7a3b
00000050: dc1c 873b 0972 18bd 4deb c63c 39f5 563d
00000060: 063e f9ba b826 723d ce11 2fbd 75f2 3a3c
00000070: 0a45 d73c 59ce 18bc 54a4 18bd 6961 5b3d
00000080: 4d1d 253c eb95 253c 1991 713d efac 023c
00000090: 22bc 283d 112c 43b1 adf3 2a3d 257a dd3c
000000a0: 032d c43c 41c6 083d 9727 06bd 06b7 0bbd
000000b0: b75b 2abc 65ba 24bd 1ff2 d23b 3e83 d1bc
000000c0: b9f4 4d3c b92a c83c 81c4 17bd 2953 3cbc
000000d0: 4a7e 50bc 0729 2bbd e843 7a3d beb4 ff3c
000000e0: 2f3a 6bbc f66b 93bb 7f6c 973c b5a3 3bba
000000f0: 9eeb 433d a05a 9e3c f372 a6bb 4a2d de3a
00000100: 90cd 33bd bdfe d43c 4b88 c33b 3f9a a83c
00000110: 2d35 0f3c 96f9 c9ba 6365 293d 2d7c c43a
00000120: 4447 333d f71b 3fbc e9f4 653d 358f 1c3d
00000130: c5db 013d 0546 2b3d 3b34 373c 1bca a0bb
00000140: 5564 493d bd62 a9b4 f965 953c 9b9d 69bc
00000150: 4567 7a3d 09de 373d df30 75bb d93b 2f3c
00000160: 5c7b 3a3d 51dc 25bd 603b bebb 09a4 af3c
00000170: f895 eb3c 61b4 d8bc 5b88 6f3b 8439 563c
00000180: bc4f 2c3d 1795 b0bc 16ad 0d3d b29d 18bc
00000190: 7c8a 2bbd 5eff 49bd 9043 973c 0f4f 703a
000001a0: 8b70 35bd 2113 6dbc 1371 433d c76f b23c
000001b0: 773d 313d 0f2b c9bb cdec 713d 5f19 8d3c
000001c0: 153f 163c f04d 0b3d a886 133c 937f 613d
000001d0: 3fbb 153d 4ec2 1bbd 144c 2ebd b53b 9b3b
000001e0: 12e9 393d f584 5b3c 2bc4 d6bb b2f8 21bd
000001f0: 3b27 5fb4 6c81 1abd dc69 bb3c c1bc 3fbc

network.4.weight f4 [19, 128]
0.0114809815 -0.05449488 0.04010635 0.112167865 0.028233403 0.027881864 -0.031283777 0.0050949194
-0.011320194 -0.005664723 0.001833098 0.047164552 0.06992342 -0.014780319 0.02533079 -5.8635064e-06
-0.025421128 -0.070644006 -0.03519503 -0.023660688 -0.07117585 0.053984184 -0.08710884 -0.05662854
0.08022202 0.02788057 -0.06562371 -0.050208412 0.06192263 -4.9256105e-05 -0.10206911 -0.035710994
0.02536099 -0.0046734186 0.041589133 0.062405374 0.04927128 5.2230954e-12 0.02209118 0.005009246
0.07123508 -0.055423573 0.039872993 -0.1193663 0.029668225 0.023990322 0.042181883 0.018659808
-0.030580677 -0.05406276 -0.05678725 -0.03163381 -0.0056562484 0.015560965 -0.07549083 0.027911715
0.01318738 -0.08670729 0.0725891 2.3325089e-07 -0.09253211 0.012781115 -0.0051986547 0.015017142
-0.063875675 0.1019023 0.010680565 0.017329931 -0.017955966 0.077505834 0.09517358 -0.01974414
0.009726898 -0.01340231 -0.06813868 -0.102422915 0.0041672937 -0.015849264 -0.055703945 0.008336364
0.074035056 -4.851697e-08 -0.0054885074 -0.013104966 0.03511104 -0.05112577 0.05123169 -0.06494031
-0.0055697015 -0.03787913 0.010277677 -0.04811141 0.022348784 -0.013248694 -0.03540165 0.009003013
-0.06808787 -0.07487452 0.0051163873 -0.046080053 -0.06374221 0.07327591 0.040905006 0.0031159404
0.014643487 -0.077008136 0.08230305 -0.11022514 -0.016423877 0.0006506255 -0.09748339 -0.0016484807
0.058570962 -0.06517876 0.032306805 -0.0028426656 -0.009011608 0.031621605 -0.034063194 0.029202715
-0.046488825 0.13250981 -0.0039947038 0.08437684 -8.874493e-10 0.0073067043 -0.04851951 -0.057564687
0.056485485 -0.062855706 0.014768603 -0.0053648846 -0.036194608 -0.04383512 -0.06653819 -0.070658885
-0.068624645 -0.10511644 -0.09343891 -0.0074866535 0.03784147 -0.0426412 0.09339033 9.473551e-35
0.042962052 0.11012528 -0.03797049 0.0036773994 -0.04284341 -0.08581876 0.021099303 0.09055999
-0.004524805 0.07236005 -0.03257111 -0.056858644 -0.06123749 0.0008139874 0.06869604 0.03562456
-0.021757558 -0.006864328 -0.025095085 0.043936368 0.07398747 1.2908471e-06 0.0697626 0.05521718
0.060797047 0.10234626 -0.039073832 0.100607224 0.010833116 -0.08732682 -0.06154498 -0.08276634
-0.052574743 0.040263467 0.06893454 -0.0049784123 0.01605636 0.025335753 0.040301617 0.0014317133
-0.086090274 0.03563649 -0.0630526 3.343208e-05 -0.027901966 0.034199756 0.013703483 -0.036100868
0.030053947 0.01733252 0.05953136 0.0028697238 0.015590719 0.0625854 -0.08851712 -0.05642734
-0.045431033 -0.055930026 0.100392945 0.061472684 -0.009170215 -0.05083197 -0.05819134 0.01491815
-0.024728587 1.0532774e-15 -0.0015748581 0.019002572 -0.09145181 0.081357434 -0.034133367 0.012436581
-0.016111558 0.064388305 -0.024346517 0.013799082 0.00020064037 0.056060605 0.009296897 -0.090005
0.033720847 0.05521679 -0.04133284 0.036002904 0.090886906 0.004430865 -0.0013904516 0.0032248602
0.02130792 0.059081763 -0.020287406 -0.041239746 0.0006405124 0.0018037469 -0.07509927 0.048442293
0.027276408 0.01887825 -0.097237796 0.0099465465 -0.043673404 0.02691213 -0.04879349 -0.04067051
0.028602751 -0.028386952 0.008059748 -0.11964054 1.4863044e-09 0.010758693 -0.007388301 0.11043418
00000000: ba1a 3c3c 0636 5fbd 8e46 243d 44b8 e53d
00000010: bd49 e73c 8268 e43c 6b23 00bd 48f3 a63b
00000020: 5678 39bc 249f b9bb 9044 f03a 9e2f 413d
00000030: 0334 8f3d 2729 72bc 8482 cf3c 23bf c4b6
00000040: f83f d0bc cead 90bd aa28 10bd 0fd4 c1bc
00000050: a5c4 91bd 851e 5d3d 1f66 b2bd 54f3 67bd
00000060: 714b a43d cb65 e43c b965 86bd 56a7 4dbd
00000070: 95a2 7d3d 5798 4eb8 9c09 d1bd b145 12bd
00000080: dac1 cf3c 7a23 99bb 5e59 2a3d c79c 7f3d
00000090: afd0 493d 76c5 b72c 90f8 b43c 9a24 a43b
000000a0: b3e3 913d d403 63bd dd51 233d 5276 f4bd
000000b0: c70a f33c 5a87 c43c e9c6 2c3d 74dc 983c
000000c0: 5484 fabc ea70 5dbd bf99 68bd 7492 01bd
000000d0: 0d58 b9bb 6bf3 7e3c f09a 9abd 1ca7 e43c
000000e0: e10f 583c 9793 b1bd 98a9 943d 8473 7a34
000000f0: 7a81 bdbd e267 513c 7a59 aabb 750a 763c
00000100: 40d1 82bd 27b2 d03d 89fd 2e3c 80f7 8d3c
00000110: 6418 93bc 61bb 9e3d 5eea c23d 76be a1bc
00000120: 915d 1f3c 5d95 5bbc 4b8c 8bbd 1bc3 d1bd
00000130: cb8d 883b 51d6 81bc d229 64bd 3f95 083c
00000140: b19f 973d f960 50b3 f0d8 b3bb 36b6 56bc
00000150: 98d0 0f3d 4169 51bd 52d8 513d 6dff 84bd
00000160: 0b82 b6bb 2627 1bbd b463 283c 7810 45bd
00000170: cc14 b73c 0d11 59bc 5201 11bd 6081 133c
00000180: a771 8bbd d057 99bd 5ea7 a73b 70be 3cbd
00000190: 478b 82bd ae11 963d 028c 273d ce34 4c3b
000001a0: 3ceb 6f3c 71b6 9dbd 808e a83d b8bd e1bd
000001b0: 5e8b 86bc bd8e 2a3a 5fa5 c7bd d511 d8ba
000001c0: 1be8 6f3d 717c 85bd 2454 043d 044c 3abb
000001d0: 6ca5 13bc a885 013d d985 0bbd 883a ef3c
000001e0: 116b 3ebd a7b0 073e 01e6 82bb c4cd ac3d
000001f0: b1f0 73b0 146d ef3b 65bc 46bd f3c8 6bbd
00000200: 535d 673d 7eba 80bd 03f8 713c eacb afbb
00000210: cc40 14bd 748c 33bd 2d45 88bd 9bb5 90bd
00000220: 148b 8cbd 4a47 d7bd e65c bfbd 9a52 f5bb
00000230: a8ff 1a3d 8aa8 2ebd 6e43 bf3d a6d9 fb06
00000240: faf8 2f3d 5d89 e13d f286 1bbd 8600 713b
00000250: 927c 2fbd bfc1 afbd 72d8 ac3c 8477 b93d
00000260: d144 94bb 8231 943d 4969 05bd 9ce4 68bd
00000270: 2ad4 7abd c561 553a 82b0 8c3d 0feb 113d
00000280: e83c b2bc 28ee e0bb 3594 cdbc 9ff6 333d
00000290: be86 973d 2b41 ad35 b2df 8e3d 692b 623d
000002a0: 5306 793d ea9a d13d e20b 20bd 290b ce3d
000002b0: 627d 313c 67d8 b2bd 9716 7cbd 6681 a9bd
000002c0: 9d58 57bd 4eeb 243d 8d2d 8d3d f321 a3bb
000002d0: a188 833c ed8c cf3c 4f13 253d 54a8 bb3a
000002e0: 1950 b0bd 91f7 113d b921 81bd 6c39 0c38
000002f0: aa92 e4bc 0b15 0c3d 9384 603c 81de 13bd
00000300: b233 f63c eefc 8d3c 28d7 733d fa11 3c3b
00000310: 3770 7f3c c62c 803d 7748 b5bd 5b20 67bd
00000320: e415 3abd e216 65bd d19a cd3d c8ca 7b3d
00000330: ab3e 16bc 2f35 50bd 0b5a 6ebd 426b 743c
00000340: 9b93 cabc 14cb 9726 786b ceba 48ab 9b3c
00000350: 164b bbbd ba9e a63d 6ecf 0bbd cdc2 4b3c
00000360: 63fc 83bc 04de 833d 5972 c7bc 8b15 623c
00000370: fd62 5239 ce9f 653d 0352 183c 8b54 b8bd
00000380: df1e 0a3d 002b 623d a04c 29bd c877 133d
00000390: ea22 ba3d ca30 913b d03f b6ba 2d58 533b
000003a0: f28d ae3c b8ff 713d c631 a6bc 02eb 28bd
000003b0: 0fe8 273a b46b ec3a a5cd 99bd 6d6b 463d
000003c0: c672 df3c 8fa6 9a3c 9c24 c7bd d7f6 223c
000003d0: e2e2 32bd d476 dc3c afdb 47bd 1f96 26bd
000003e0: 5150 ea3c c18b e8bc 090d 043c 1906 f5bd
000003f0: b046 cc30 3b45 303c 9019 f2bb 512b e23d

network.4.bias f4 [19]
-0.045898892 -0.031345874 -0.032049153 -0.054988824 0.011373805 -0.018282633 0.060624097 -0.036819182
-0.03622723 0.057791065 0.03506371 -0.080984116 0.049353406 0.045834158 -0.042453382 0.0033654515
-0.014142691 -0.016269093 -0.06532893
00000000: 7a00 3cbd 8864 00bd f945 03bd f63b 61bd
00000010: 3259 3a3c 76c5 95bc f950 783d b6cf 16bd
00000020: 0163 14bd 53b6 6c3d f79e 0f3d 00db a5bd
00000030: cc26 4a3d 99bc 3b3d 99e3 2dbd e88e 5c3b
00000040: bfb6 67bc c346 85bc 2dcb 85bd

exp_avg f4 [256, 45]
2.5316229e-05 -3.8654558e-05 -0.00013183035 -9.508277e-06 4.1895368e-05 -7.334611e-05 -0.00046501556 5.2481082e-05
9.391341e-05 0.0002858472 0.0003269213 0.0003009349 -6.5263324e-05 6.554995e-05 -1.824079e-05 1.4709467e-05
0.00039708748 0.00013487435 1.4765318e-06 0.000108342996 -0.00014552339 8.1994775e-05 -4.9428323e-05 2.4683672e-05
2.9670555e-05 -8.4698695e-05 2.2634765e-06 -1.3762144e-06 1.4658548e-05 -1.6904409e-06 1.889784e-06 0.00029463827
0.00014035919 -9.6948825e-05 0.00024625068 7.4361524e-05 3.971581e-05 -0.00035940323 6.687643e-05 -0.000106595115
-0.00057267223 0.00013976061 -0.00018705249 0.00055223197 0.00024424467 0.0002559714 0.00018221213 -0.00010049533
0.00020884944 0.0002933654 3.3571567e-05 -0.00032367476 9.940796e-05 8.985582e-05 0.00030052685 0.00044459596
0.00042933895 3.8372247e-05 4.7455025e-05 0.00011564691 9.749815e-05 0.0007887021 0.00040049345 3.9076785e-06
0.00014294322 0.000111495676 0.00041175145 0.00027662952 0.00012418443 5.7809677e-05 9.461202e-05 3.9108772e-06
1.6948581e-05 5.4034514e-05 3.918772e-06 0.0001851159 0.00024358227 0.0009486056 0.00036484242 0.00014402167
0.0004533555 0.00025989945 -0.00035244468 0.0011169399 -0.00011134176 -0.00019549933 0.00026370143 0.00019764851
0.00079128705 0.00032507195 -3.443955e-05 4.4073196e-05 -1.1456785e-06 -0.00019755999 -0.00012435051 1.7185945e-05
9.165011e-06 3.7676746e-05 -0.00011444219 -0.00024002304 -0.00031794797 -0.00025118643 -2.5002762e-05 -2.123468e-05
-0.00020996912 -4.513021e-05 -0.0006223774 -0.00043216924 -3.0579124e-06 -0.00016470342 6.797883e-05 -0.00026645797
-3.6569258e-05 -0.00011930965 -3.507863e-05 -8.1855105e-05 -3.3041135e-06 7.713884e-05 -6.324591e-05 -3.3589072e-06
8.914449e-06 -0.00025525544 -0.0004523414 -0.00027985816 -0.00018101357 -3.1336313e-05 -0.00028380495 -4.6848094e-05
-0.00048255248 0.00013987147 5.3104395e-05 -0.00027665615 -0.00020568482 -0.00032426848 -0.00024808556 5.832282e-05
-0.00023473322 1.0571923e-05 -5.473436e-05 -5.5864046e-05 -0.000113483904 9.162237e-05 -3.115311e-05 -0.0001758895
-0.000115207964 2.5094156e-05 -3.7686703e-05 -7.124711e-05 5.4313066e-05 -3.0191943e-05 2.5993213e-05 -0.00015472795
-0.00048656986 -4.3431937e-06 0.000107592685 -0.0001076129 7.709931e-05 4.3048745e-05 5.2878055e-05 1.2162666e-05
-1.600036e-05 3.6674014e-06 -8.394326e-05 7.877212e-06 -6.122632e-07 -7.06068e-05 -0.00014353407 -3.339345e-05
-0.00014248559 0.00011435655 -0.00011397385 -0.00024560734 -0.00024403568 3.0147401e-05 -0.0010206404 3.9318795e-05
0.00021106812 0.00013865766 0.00034802186 -0.00032330235 -7.70036e-05 9.875835e-05 3.0255755e-05 -1.60552e-05
-0.00010135059 2.1189364e-05 -2.6756388e-05 -2.8071257e-05 0.00013951547 -0.00010717966 -2.4731344e-07 -9.484363e-05
8.7352724e-05 -2.426328e-05 2.1305954e-05 -9.457265e-05 -1.289387e-05 0.00022804496 -1.258262e-06 -1.5032306e-06
-8.140144e-05 -0.00011784388 -4.5250894e-05 -4.2994696e-05 -2.06072e-05 -1.5667347e-05 -5.682764e-07 1.6499656e-05
1.5974087e-05 -6.5737044e-07 -4.2126187e-05 7.36918e-05 -9.7586664e-05 1.1222728e-06 -7.7030796e-05 -0.000104426
0.00013957237 9.999484e-05 -0.000179836 0.0006546795 -8.809924e-05 -0.00022678764 -7.898956e-05 -0.00031789832
0.0002013513 -4.4574335e-07 9.505549e-05 -2.6652246e-05 1.03444e-05 -2.1644544e-05 0.00010431173 2.9678344e-05
0.00014026613 0.00015957952 5.3165342e-05 -3.547444e-05 4.6213096e-05 7.593568e-05 -2.5289279e-05 6.7712914e-05
-5.296517e-06 7.567098e-05 0.0003554313 -3.0247077e-07 -8.50698e-05 8.242275e-05 -4.7735797e-05 8.200081e-06
-7.04603e-05 7.73536e-06 -5.8023675e-06 -2.771e-07 4.3192485e-05 1.533584e-06 -5.7739708e-06 9.99552e-05
00000000: 305e d437 0421 22b8 f13b 0ab9 bd85 1fb7
00000010: cfb8 2f38 65d1 99b8 55cd f3b9 221f 5c38
00000020: 61f3 c438 c3dd 9539 a266 ab39 ccc6 9d39
00000030: fbdd 88b8 dd77 8938 cc03 99b7 aec8 7637
00000040: 2e30 d039 0f6d 0d39 3f2d c635 3436 e338
00000050: a397 18b9 9cf4 ab38 4251 4fb8 c80f cf37
00000060: 08e5 f837 44a0 b1b8 3be6 1736 5eb6 b8b5
00000070: fced 7537 1be3 e2b5 7ca4 fd35 ae79 9a39
00000080: 622d 1339 0151 cbb8 351b 8139 8af2 9b38
00000090: 8794 2638 496e bcb9 0340 8c38 d18b dfb8
000000a0: 621f 16ba b48c 1239 8523 44b9 a9c3 103a
000000b0: f70d 8039 e633 8639 3210 3f39 05c1 d2b8
000000c0: 98fe 5a39 d6ce 9939 32cf 0c38 e4b2 a9b9
000000d0: 3e79 d038 fa70 bc38 0890 9d39 a918 e939
000000e0: e618 e139 e3f1 2038 720a 4738 7687 f238
000000f0: ec77 cc38 e7c0 4e3a 52f9 d139 b41e 8336
00000100: 07e3 1539 c9d2 e938 58e0 d739 9608 9139
00000110: 8137 0239 ab78 7238 716a c638 2e3a 8336
00000120: cd2c 8e37 1ea3 6238 ff7d 8336 ac1b 4239
00000130: 1e6a 7f39 d8ab 783a 5248 bf39 8604 1739
00000140: 58b0 ed39 1d43 8839 53c8 b8b9 4966 923a
00000150: 2780 e9b8 f4fe 4cb9 6841 8a39 de3f 4f39
00000160: 606e 4f3a 6b6e aa39 2f73 10b8 3cdb 3838
00000170: 37c5 99b5 1b28 4fb9 1664 02b9 892a 9037
00000180: 6cc3 1937 1907 1e38 af00 f0b8 b2ae 7bb9
00000190: 41b2 a6b9 acb1 83b9 06bd d1b7 2121 b2b7
000001a0: 282b 5cb9 324a 3db8 0a27 23ba c694 e2b9
000001b0: 8936 4db6 3db4 2cb9 db8f 8e38 62b3 8bb9
000001c0: f161 19b8 e135 fab8 6421 13b8 a0a9 abb8
000001d0: 3dbc 5db6 99c5 a138 e4a2 84b8 9669 61b6
000001e0: 448f 1537 ced3 85b9 3c28 edb9 edb9 92b9
000001f0: 76ce 3db9 1c6f 03b8 a8cb 94b9 c27e 44b8
00000200: 19ff fcb9 76aa 1239 69bc 5e38 290c 91b9
00000210: 19ad 57b9 9402 aab9 7b11 82b9 a79f 7438
00000220: b822 76b9 105e 3137 9292 65b8 904f 6ab8
00000230: 35fe edb8 6325 c038 66aa 02b8 fa6e 38b9
00000240: ce9b f1b8 4a81 d237 ca11 1eb8 806a 95b8
00000250: 36ce 6338 b444 fdb7 000c da37 783e 22b9
00000260: 4d1a ffb9 c0bb 91b6 62a3 e138 3cae e1b8
00000270: 60b0 a138 3d8f 3438 61c9 5d38 410e 4c37
00000280: 8338 86b7 7a1d 7636 b20a b0b8 5e28 0437
00000290: 685a 24b5 bd12 94b8 a281 16b9 f20f 0cb8
000002a0: 2f68 15b9 b5d2 ef38 3f05 efb8 dcc4 80b9
000002b0: d4e3 7fb9 0de5 fc37 02c7 85ba 3cea 2438
000002c0: 2b52 5d39 a264 1139 b476 b639 e880 a9b9
000002d0: fe7c a1b8 7c1c cf38 bdcd fd37 48ae 86b7
000002e0: 2f8c d4b8 d0bf b137 e872 e0b7 917a ebb7
000002f0: e64a 1239 a4c5 e0b8 80c6 84b4 c9e6 c6b8
00000300: 2331 b738 ff88 cbb7 30ba b237 4e55 c6b8
00000310: c052 58b7 5a1f 6f39 8ee1 a8b5 9cc2 c9b5
00000320: 11b6 aab8 f422 f7b8 c7cb 3db8 3455 34b8
00000330: a0dd acb7 5f6d 83b7 a88b 18b5 be68 8a37
00000340: 1700 8637 2776 30b5 a6b0 30b8 fc8a 9a38
00000350: 71a7 ccb8 00a1 9635 988b a1b8 48ff dab8
00000360: 2c5a 1239 52b4 d138 5c92 3cb9 cc9e 2b3a
00000370: ebc1 b8b8 d8cd 6db9 32a7 a5b8 97ab a6b9
00000380: d421 5339 804e efb4 8758 c738 4393 dfb7
00000390: dc8c 2d37 4e91 b5b7 efc1 da38 c2f5 f837
000003a0: 6714 1339 cd54 2739 dafd 5e38 64ca 14b8
000003b0: efd4 4138 a83f 9f38 5024 d4b7 1801 8e38
000003c0: bcb8 b1b6 8cb1 9e38 2e59 ba39 4463 a2b4
000003d0: 8067 b2b8 61da ac38 ec37 48b8 1493 0937
000003e0: 16c4 93b8 1ec7 0137 f5b1 c2b6 56c4 94b4
000003f0: 9429 3538 8cd5 cd35 08be c1b6 0a9f d138

exp_avg_sq f4 [256, 45]
2.4177757e-07 1.1264183e-07 1.17578814e-07 1.9181674e-07 6.897561e-08 6.5370483e-07 1.2821308e-06 2.7532434e-07
6.26143e-07 4.780378e-07 7.7554694e-07 9.459211e-07 1.0001953e-07 2.474363e-08 1.9955952e-07 1.6070904e-07
2.1926105e-06 2.725091e-06 5.6647537e-10 4.6676988e-07 2.8308227e-07 7.739921e-07 2.5396955e-07 3.0719292e-08
3.6005336e-08 6.529984e-08 8.802471e-10 7.140035e-08 2.6037627e-08 1.1797445e-09 3.309227e-07 3.651954e-07
1.601705e-06 3.1227745e-07 4.4310423e-07 6.8024445e-07 2.753936e-07 1.9586578e-06 2.5201373e-07 1.490326e-06
2.5907277e-06 3.2621163e-06 2.2382337e-06 2.521232e-06 2.3472405e-06 4.429459e-07 4.4332253e-07 2.6458886e-07
3.988601e-07 5.8234167e-07 1.1294414e-07 1.9214601e-06 9.789927e-07 7.013414e-07 3.2348164e-06 8.4030813e-07
1.4939195e-06 3.0715236e-07 7.6424016e-08 5.791799e-07 3.2602173e-07 6.2455397e-06 3.8453377e-06 1.1901817e-10
6.2204043e-07 4.0205322e-07 1.5302587e-06 4.0938255e-07 1.244623e-07 7.0988975e-08 8.8709136e-08 1.1668676e-10
1.1572531e-07 9.820771e-08 1.1112194e-10 4.2894374e-07 5.620152e-07 2.6149912e-06 2.0810999e-06 6.5169655e-07
2.0594962e-06 4.6419277e-07 2.8579102e-06 4.9607147e-06 3.3931153e-06 6.295582e-06 4.629395e-07 3.056985e-06
5.0833733e-06 6.514e-06 1.2076487e-07 4.4827445e-07 1.5234659e-07 2.69222e-07 4.103918e-07 4.8091505e-07
2.087056e-07 7.8971993e-07 2.912003e-07 1.6216844e-06 9.90788e-07 9.137293e-07 1.4322958e-07 6.797753e-08
2.731947e-07 1.3557158e-07 2.8945637e-06 3.4235866e-06 4.3224407e-10 3.1829316e-07 2.3974712e-07 7.693947e-07
2.558211e-07 1.0203223e-07 3.7444636e-08 7.517543e-08 2.1292525e-10 6.537233e-08 4.5073726e-08 1.1874862e-10
9.558053e-07 3.8840108e-07 1.3811801e-06 1.0466429e-06 5.3241934e-07 7.315715e-07 5.1758127e-07 5.7667097e-07
2.7344481e-06 2.3798718e-06 1.5461874e-06 4.163245e-06 1.5595487e-06 2.9625244e-06 1.2647234e-06 9.960728e-08
1.827067e-07 8.51781e-08 1.039389e-07 1.4405252e-07 2.5926443e-07 2.5726897e-07 4.7334015e-07 1.2079153e-07
5.832462e-07 3.6078336e-07 5.0179494e-07 6.710738e-08 3.747883e-08 1.08487804e-07 6.6171204e-08 9.82226e-07
2.5984577e-06 1.3778828e-09 1.0948106e-07 5.432955e-08 1.8919548e-07 9.71468e-08 3.1786033e-08 1.6377353e-08
2.6687287e-08 1.5198441e-09 3.14636e-08 1.3315591e-08 7.9438976e-11 4.638433e-07 2.0281134e-07 5.5734745e-07
4.1940135e-07 2.7672354e-07 2.452309e-07 1.9596536e-07 4.906243e-07 1.9948641e-07 5.991663e-07 8.912304e-07
1.9691329e-06 8.32257e-07 1.3645437e-06 1.6388467e-06 1.0404719e-07 2.0622576e-07 8.867701e-08 1.0246855e-07
1.17916976e-07 2.8433325e-07 1.0109497e-07 1.3707157e-07 1.3407461e-07 5.353732e-07 1.9979034e-07 3.6697926e-07
1.0959741e-07 2.4295545e-08 9.4206385e-08 8.4378584e-08 1.2320338e-06 1.3400247e-06 6.846315e-10 1.1229239e-07
7.047102e-08 2.7805595e-07 1.181635e-07 2.658752e-08 1.0149926e-08 2.889173e-08 2.0415578e-10 1.8920225e-08
1.6816909e-08 2.6429792e-11 1.0052012e-07 1.6380685e-07 4.5808358e-07 4.806155e-07 2.4510237e-07 3.38051e-07
2.0786119e-07 2.9204836e-07 1.0825671e-06 1.1844256e-06 3.804101e-07 6.888061e-07 3.8701333e-07 1.2924643e-06
1.6710638e-06 1.5586996e-07 1.8384358e-07 1.05324396e-07 9.185487e-08 1.12558055e-07 1.1472132e-07 1.121716e-07
3.2974899e-07 1.5291133e-07 5.723665e-07 2.5119706e-07 4.5533102e-07 6.6056046e-08 2.0826166e-08 9.7074874e-08
7.831649e-08 1.0652866e-06 1.5366682e-06 9.6541324e-11 1.1728392e-07 1.2356944e-07 3.147399e-07 1.0235835e-07
3.7689446e-08 1.6946318e-08 2.7227658e-08 1.4533785e-10 2.7750623e-08 1.3990127e-08 1.7654994e-09 3.0018043e-07
00000000: a8cd 8134 80e5 f133 a37f fc33 2ff6 4d34
00000010: be1f 9433 417a 2f35 ae15 ac35 4ad0 9334
00000020: 3814 2835 8252 0035 2e2f 5035 34eb 7d35
00000030: 51ca d633 d18b d432 8146 5634 5d8f 2c34
00000040: c324 1336 b5e0 3636 29b6 1b30 5d98 fa34
00000050: 88fa 9734 55c4 4f35 4f59 8834 38f0 0333
00000060: 49a4 1a33 f73a 8c33 e2f5 7130 c254 9933
00000070: 59a9 df32 9224 a230 aba9 b134 1310 c434
00000080: 2afa d635 16a7 a734 c8e3 ed34 0b9a 3635
00000090: cfd9 9334 7c71 0336 814c 8734 3607 c835
000000a0: 5ddc 2d36 bbea 5a36 9034 1636 7032 2936
000000b0: 4985 1d36 05ce ed34 c901 ee34 d10c 8e34
000000c0: ea22 d634 3752 1c35 b38b f233 6ff2 0036
000000d0: ef65 8335 d043 3c35 b915 5936 8991 6135
000000e0: af82 c835 b3e6 a434 8c1e a433 f178 1b35
000000f0: 1608 af34 c790 d136 3307 8136 a3dc 022f
00000100: 4bfa 2635 c6d9 d734 4a63 cd35 1cc9 db34
00000110: f0a3 0534 9a72 9833 5d80 be33 674c 002f
00000120: a984 f833 42e6 d233 175c f42e 9449 e634
00000130: 64dd 1635 357d 2f36 06a9 0b36 3ff0 2e35
00000140: e035 0a36 2b36 f934 86ca 3f36 3774 a636
00000150: 47b5 6336 a33e d336 ec89 f834 9a26 4d36
00000160: d891 aa36 d592 da36 98ab 0134 5faa f034
00000170: b694 2334 9789 9034 d253 dc34 3b18 0135
00000180: 8f18 6034 24fd 5335 4456 9c34 a7a8 d935
00000190: 37fb 8435 0047 7535 a6ca 1934 0bfb 9133
000001a0: 98ab 9234 a291 1134 3a40 4236 c5c0 6536
000001b0: f2a0 ed2f e1e1 aa34 98b6 8034 6788 4e35
000001c0: c957 8934 d01c db33 d0d2 2033 2170 a133
000001d0: 211d 6a2f d262 8c33 1697 4133 c490 022f
000001e0: 3849 8035 7085 d034 fd60 b935 607a 8c35
000001f0: 94eb 0e35 3661 4435 eaef 0a35 87cc 1a35
00000200: 7681 3736 e3b5 1f36 9886 cf35 01b2 8b36
00000210: af51 d135 c8cf 4636 91bf a935 aee7 d533
00000220: 092e 4434 28eb b633 0435 df33 dbac 1a34
00000230: 0831 8b34 c71e 8a34 601f fe34 ecb2 0134
00000240: 6090 1c35 b0b1 c134 16b3 0635 ac1c 9033
00000250: 69f8 2033 cdf9 e833 011a 8e33 07d5 8335
00000260: 2a61 2e36 f15f bd30 d91b eb33 f957 6933
00000270: a825 4b34 059f d033 1d85 0833 2eae 8c32
00000280: f73d e532 c3e2 d030 9822 0733 97c2 6432
00000290: 2bb0 ae2e 2306 f934 5bc4 5934 a09c 1535
000002a0: 152a e134 9890 9434 47a8 8334 8c6a 5234
000002b0: 72b3 0335 6832 5634 65d6 2035 e33c 6f35
000002c0: 7225 0436 4468 5f35 5d25 b735 58f6 db35
000002d0: 8c70 df33 e86e 5d34 b46e be33 ae0c dc33
000002e0: 8b39 fd33 77a6 9834 8c19 d933 f22d 1334
000002f0: 26f6 0f34 91b6 0f35 f385 5634 3f05 c534
00000300: d05b eb33 78b2 d032 824e ca33 9e33 b533
00000310: 5c5c a535 e6da b335 a930 3c30 6525 f133
00000320: da55 9733 b847 9534 12c1 fd33 9362 e432
00000330: d95f 2e32 962d f832 be78 602f 0486 a232
00000340: c674 9032 9a7a e82d 85dd d733 e2e2 2f34
00000350: 87ee f534 a503 0135 9d96 8334 607d b534
00000360: 7330 5f34 d2ca 9c34 b94c 9135 8ef8 9e35
00000370: 2b3b cc34 65e6 3835 b5c6 cf34 bc78 ad35
00000380: 5149 e035 355d 2734 8a66 4534 b32e e233
00000390: c041 c533 72b7 f133 b65c f633 fde2 f033
000003a0: 5b08 b134 f22f 2434 baa4 1935 43dc 8634
000003b0: 3874 f434 b2da 8d33 39e5 b232 7a77 d033
000003c0: f22e a833 f8fa 8e35 843f ce35 ef4b d42e
000003d0: 84dd fb33 82ae 0434 86f9 a834 19d0 db33
000003e0: fcdf 2133 5991 9132 41e2 e932 f8cc 1f2f
000003f0: 4460 ee32 3b59 7032 fda5 f230 7c28 a134

exp_avg f4 [256]
0.00033669113 0.002280842 -0.0012928189 -0.00053699146 -8.130848e-05 0.00055079977 0.0006063449 -0.0011729256
0.00028735452 0.0007371082 5.5225464e-06 -0.00010031209 0.0015734485 -0.0008782301 -0.0007423083 -0.0003757024
0.0002576886 0.0008151686 -0.0001125687 0.0007085784 0.00035493076 -8.147665e-05 0.00010518922 3.9190232e-05
4.639139e-05 -5.196304e-05 0.00069564185 -0.000863536 -0.000534658 0.00024668535 -0.00025734544 0.00033169627
0.00023386633 -0.00014397682 0.00014198164 -6.174689e-06 -0.00039049843 -0.00062613236 0.00020037036 9.3541865e-05
0.00040869229 0.00047331667 0.00012227282 -7.6063043e-06 -2.3660215e-05 -0.0002792928 0.00041498887 0.0004920995
-0.00061245135 0.0006199208 0.00018104847 -0.00026094855 -0.00010766184 0.0010990876 1.009769e-05 0.00031659417
0.00075885013 6.941208e-05 0.0003859052 8.938936e-05 0.0006513067 -0.00016006592 -0.00037943633 0.0007322971
0.0010551449 0.0002457364 0.00088588055 -9.779135e-05 -0.0002683102 -7.799913e-05 -0.0003109373 0.00059691945
0.00040720194 0.00020994856 -0.0014216368 0.00072448025 0.000110202265 -0.00048261555 0.0003897684 7.1606686e-05
4.709929e-05 -0.00014590411 -0.0013243523 0.00027947442 -0.0002904771 -0.00064159394 -1.7698381e-05 -0.00018264452
-2.440605e-05 -8.868128e-05 -0.00086364686 -0.00012990672 0.000211251 -3.700494e-05 0.0004118322 -2.3064436e-05
-0.0004555959 -2.2867549e-05 -0.00078230974 -0.00046711136 0.00016361554 1.5770958e-05 0.0008093928 -0.00046906783
-0.0002305628 9.108847e-05 7.58894e-05 0.0013111477 -0.00026954815 0.00011599784 0.0004845571 -2.9684052e-05
3.517893e-05 0.0016243659 -0.0002529415 0.0008233971 -0.0001913645 -1.5212317e-05 0.0005057729 5.847648e-05
-0.00012147444 -0.0006694257 0.00028303053 0.0011695527 -0.00034251306 0.00035316736 4.400956e-05 0.0016505688
0.00035781943 -0.000578215 -0.00043985486 -0.0006148085 0.00025549633 -9.5304684e-05 -0.0008224884 0.0006493856
0.0005922946 -0.0013841414 -0.00010299626 -3.579457e-05 0.00018854497 0.0007490354 -0.00027916898 0.00026949996
0.00060591183 -0.00024987504 -0.00010465231 0.0007717314 -0.0014331951 0.0008559757 0.0003571349 0.000108861044
2.609368e-05 -0.00023481407 0.0009303211 0.0013314434 -0.0016328315 -0.00012526292 0.0012953038 -0.00041377792
-0.0005387645 -0.00040073716 -0.00040726486 0.0010938306 0.00055716105 -0.00036403828 0.0004336757 7.406105e-05
0.000577855 4.9007038e-05 -0.00013894163 -0.0006640725 -2.1609703e-06 0.00026875595 -1.7791986e-05 0.00023469696
0.00018026878 0.00018599512 0.0007193804 0.00083320856 0.00070543465 -0.00018929533 -0.00021700936 0.0015177857
0.0001394077 0.00027512616 0.00033205876 0.00025449795 0.00077896577 0.0015183041 0.00088058074 8.082349e-05
0.0005048249 -4.6784255e-05 0.0010180923 -9.6283824e-05 0.00014517439 -0.0012216312 0.0005496701 -0.0026626512
0.00085437193 0.00015184964 0.0016072195 -2.5318757e-05 -0.0013062047 0.00019485454 -8.00174e-05 0.00052795094
-0.00032792077 0.000820199 0.00078396464 -6.2966355e-05 0.00019579224 0.00075438933 0.0009522726 -0.00053239474
-5.5146345e-05 0.00079959864 -0.00048504584 3.1015574e-05 7.799731e-05 0.00050655194 -0.00017902016 -0.00081001176
7.307408e-05 -0.00033787487 0.00012957928 -0.00051788794 -0.00019358881 -0.00031464928 -0.00097537076 0.0003274919
-0.0006088435 0.0002314705 -0.00032473402 0.00032751088 -5.509635e-05 -0.0002551776 0.00032571712 0.00025963847
0.0001268033 -0.00074251904 0.00026413612 -0.00061208574 0.0015113133 0.00030359853 -5.6034187e-06 0.00038686843
6.667978e-05 -0.00138394 -0.00032856624 -2.4487439e-05 -0.00064384216 1.4437726e-05 -3.9771738e-05 -0.0014669147
00000000: eb85 b039 2e7a 153b ce73 a9ba e3c4 0cba
00000010: 2884 aab8 8c63 103a 1ef3 1e3a dabc 99ba
00000020: 12a8 9639 7e3a 413a 504e b936 a55e d2b8
00000030: 2c3c ce3a 0639 66ba 7797 42ba ecf9 c4b9
00000040: 611a 8739 0ab1 553a dc12 ecb8 e4bf 393a
00000050: 0016 ba39 72de aab8 0899 dc38 3160 2438
00000060: 6094 4238 e4f2 59b8 bc5b 363a ec5e 62ba
00000070: 4a28 0cba 8c55 8139 52ec 86b9 85e7 ad39
00000080: 043a 7539 7cf8 16b9 e8e0 1439 2d30 cfb6
00000090: d0bb ccb9 0823 24ba 821a 5239 e82b c438
000000a0: c045 d639 7d27 f839 5c36 0039 a839 ffb6
000000b0: ed79 c6b7 0c6e 92b9 dd92 d939 3d00 013a
000000c0: ea8c 20ba 2e82 223a d4d7 3d39 eccf 88b9
000000d0: 83c8 e1b8 430f 903a 4069 2937 8dfc a539
000000e0: 92ed 463a 5491 9138 5253 ca39 8c76 bb38
000000f0: 74bc 2a3a 5ed7 27b9 15ef c6b9 a0f7 3f3a
00000100: ca4c 8a3a 2ed6 8039 703a 683a 5515 cdb8
00000110: fcab 8cb9 7793 a3b8 4c05 a3b9 967a 1c3a
00000120: b87d d539 a325 5c39 3756 baba 0ceb 3d3a
00000130: 641c e738 9007 fdb9 d459 cc39 8c2b 9638
00000140: 7a8c 4538 d6fd 18b9 e495 adba 6c86 9239
00000150: 2d4b 98b9 a430 28ba fc76 94b7 4484 3fb9
00000160: 98bb ccb7 66fa b9b8 5c66 62ba 9237 08b9
00000170: 4283 5d39 c035 1bb8 2feb d739 807a c1b7
00000180: 0cdd eeb9 b0d3 bfb7 eb13 4dba a0e6 f4b9
00000190: 3690 2b39 e04b 8437 6e2d 543a 38ed f5b9
000001a0: 3bc3 71b9 c006 bf38 d026 9f38 d1da ab3a
000001b0: 2452 8db9 de43 f338 270c fe39 0402 f9b7
000001c0: 178d 1338 ade8 d43a 3c9d 84b9 3ed9 573a
000001d0: 04a9 48b9 6738 7fb7 d895 043a a444 7538
000001e0: 18c0 feb8 667c 2fba b763 9439 ad4b 993a
000001f0: 5393 b3b9 5229 b939 e896 3838 e657 d83a
00000200: b699 bb39 5a93 17ba 529c e6b9 1a2b 21ba
00000210: 23f4 8539 50de c7b8 439c 57ba 883b 2a3a
00000220: 3844 1b3a 146c b5ba b2ff d7b8 2022 16b8
00000230: 28b4 4539 ea5a 443a 6d5d 92b9 ac4b 8d39
00000240: 0ed6 1e3a a901 83b9 c878 dbb8 044e 4a3a
00000250: 0cda bbba 8f63 603a d63d bb39 544c e438
00000260: c0e3 da37 6c38 76b9 cbe0 733a d483 ae3a
00000270: bc04 d6ba 0259 03b9 2fc7 a93a 55f0 d8b9
00000280: e03b 0dba 081a d2b9 2a86 d5b9 dd5e 8f3a
00000290: 720e 123a 64dc beb9 f85e e339 3951 9b38
000002a0: 317b 173a e88c 4d38 dcb0 11b9 2715 2eba
000002b0: 3005 11b6 d0e7 8c39 0040 95b7 fc18 7639
000002c0: 8806 3d39 af07 4339 cd94 3c3a ae6b 5a3a
000002d0: ebec 383a 947d 46b9 028d 63b9 70f0 c63a
000002e0: f82d 1239 cf3e 9039 2c18 ae39 236e 8539
000002f0: 8233 4c3a d501 c73a c6d6 663a c87f a938
00000300: 3a56 043a 363a 44b8 8271 853a fceb c9b8
00000310: f439 1839 241f a0ba bc17 103a e07f 2ebb
00000320: eef7 5f3a d439 1f39 56a9 d23a 9e63 d4b7
00000330: f534 abba de51 4c39 04cf a7b8 3066 0a3a
00000340: c8ec abb9 a002 573a fa82 4d3a ce0c 84b8
00000350: 944d 4d39 36c2 453a efa1 793a 6890 0bba
00000360: f04c 67b8 289c 513a c04d feb9 b816 0238
00000370: 7d92 a338 20ca 043a 5cb7 3bb9 f856 54ba
00000380: 593f 9938 cc24 b1b9 acdf 0739 dfc2 07ba
00000390: 1afe 4ab9 83f7 a4b9 06b0 7fba 38b3 ab39
000003a0: cc9a 1fba e4b6 7239 1041 aab9 c4b5 ab39
000003b0: 4117 67b8 5cc9 85b9 03c5 aa39 1620 8839
000003c0: 80f6 0439 9ca5 42ba c07b 8a39 6174 20ba
000003d0: 4217 c63a 4e2c 9f39 0005 bcb6 9ad4 ca39
000003e0: 6fd6 8b38 5265 b5ba 6a43 acb9 606a cdb7
000003f0: 84c7 28ba 9039 7237 94d0 26b8 7d45 c0ba
