models/regression_models/ML_including_industry_feature/single_dimension/dominance/version_best/checkpoints/epoch=79-step=2480.ckpt (torch, 156915 bytes, 21 tensors)

network.0.weight f4 [32, 45]
0.08641416 -0.002807747 0.059660535 -0.012147925 -0.0027991666 0.00567459 -0.0004030035 0.03896093
0.055264518 0.059843384 -0.028025797 0.04047192 -0.02271734 0.006303081 0.044880953 -0.037873447
0.117070645 -0.0065670568 0.00013285069 0.038958285 0.07826874 0.001470195 0.017381078 -0.003748963
-0.012715506 0.020045225 0.00014478657 -0.042835027 0.007869032 8.10378e-05 0.032327425 -0.005337792
-0.07844645 -0.09914849 -0.05872215 -0.052825425 -0.019208996 -0.08524739 -1.878913e-05 -1.333295e-07
0.11707449 -0.0032584623 0.108572215 -1.9769614e-05 0.03310241 -0.0025327592 0.11123555 -0.016859243
0.0389518 0.06702838 -0.0072684768 0.05885187 -0.100584365 0.07945258 -0.08494191 0.057168562
-0.037826806 0.0021418855 0.055691298 -0.11141337 0.047219507 -0.10869592 0.039388187 -0.0011242253
0.08956426 0.07038353 -0.10011856 -0.071092024 -0.02960017 -0.029460784 0.036833234 -0.0011903257
0.03396945 -0.02360556 -0.0017852488 -0.09190709 0.06684704 0.07358186 0.12602405 0.055274263
0.05362855 0.08797685 -0.05107963 -0.068182655 -0.077258214 -0.024355924 0.08532952 0.13010617
-0.13446397 0.082441114 -0.07430343 0.0085971635 -0.08713528 0.0442701 -0.023734363 -0.09076953
-0.06929621 0.14431567 -0.0071754353 0.11885932 -0.08752346 -0.065054126 -0.035134975 0.0038108237
0.024417583 -0.07136378 0.018396217 -0.038282905 0.0014342888 -0.06018957 0.062388286 -0.011581684
0.03194923 -0.038294088 0.054468893 0.01756861 0.001714844 -0.09666436 -0.031173587 0.0017513899
0.03403203 -0.035645638 -0.08988642 0.1005846 -0.12788348 0.12405644 -0.005278384 0.024456035
-0.09169979 -0.040670954 -0.034385312 0.07319972 0.037779443 -0.13321878 0.0069108256 -0.005914958
-0.06842916 -0.019633826 0.05480638 0.04343962 0.097164445 -0.050160825 0.088048175 0.07024488
0.011543135 -0.0080492785 -0.020606697 0.05752813 0.033950016 0.03144354 -0.030296434 -0.107292265
0.0408223 1.9234003e-05 0.012927871 0.025018364 0.056846067 -0.061019015 -0.009036955 0.022608655
-0.0027387543 4.2695545e-05 -0.056990083 -0.044859894 -0.00026832163 -0.05141323 -0.015938604 0.0845224
-0.036188073 0.036207248 -0.05188918 0.051151615 -0.13042383 -0.05724794 -0.102481544 -0.03287165
0.04688044 -0.006810959 0.11223925 -0.14291768 -0.020332994 -0.037291765 0.07252436 0.03251955
-0.058341783 -0.024835818 0.00975481 -0.055117596 -0.11168709 0.007444608 -0.05153635 -0.07960783
-0.027962273 0.07493493 0.035155043 -0.00052026205 0.10804146 -0.023595098 -0.00127037 -0.038125273
0.05057102 0.05502244 -0.014809253 -0.017295683 -0.008681543 0.005154241 -0.00086144503 -0.008725327
-0.041242942 0.0004979027 0.04742703 -0.03193521 -0.075773835 -0.08061799 -0.004021851 -0.022172956
0.031482078 0.03392271 -0.008855791 -0.05059881 -0.055297084 -0.06607256 -0.02018936 0.022040915
-0.054988354 -0.048399527 -0.02512727 -0.037132055 0.039636906 0.008907052 0.043553088 0.0056287926
0.06635764 0.004084349 -0.028388642 -0.07585617 -0.08173803 -0.036625307 -0.042851318 0.022278238
-0.019505188 -0.010834168 -0.0030343824 -0.0003843404 0.017657097 0.0071326722 0.12902187 0.08040629
0.00987844 -0.020475369 0.0088112755 -0.00032902695 0.089094765 0.009961203 -0.00038734238 -0.09520243
00000000: e8f9 b03d 2e02 38bb 9b5e 743d 1708 47bc
00000010: 3972 37bb e9f1 b93b 374a d3b9 7f95 1f3d
00000020: 0c5d 623d 561e 753d 5b96 e5bc e2c5 253d
00000030: b719 babc 138a ce3b 17d5 373d 3021 1bbd
00000040: bcc2 ef3d 7730 d7bb d64d 0b39 b992 1f3d
00000050: 5c4b a03d 8fb3 c03a c362 8e3c 29b1 75bb
00000060: b354 50bc e235 a43c d9d1 1739 c873 2fbd
00000070: 1ded 003c d6f2 a938 c369 043d a5e8 aebb
00000080: 88a8 a0bd 5d0e cbbd a386 70bd 795f 58bd
00000090: 2f5c 9dbc 2f96 aebd 599d 9db7 5529 0fb4
000000a0: c0c4 ef3d ed8b 55bb 1c5b de3d ecd6 a5b7
000000b0: 6596 073d a6fc 25bb 77cf e33d 651c 8abc
000000c0: ec8b 1f3d 2d46 893d 672c eebb a90e 713d
000000d0: 2dff cdbd 09b8 a23d 06f6 adbd 9529 6a3d
000000e0: 48f0 1abd e05e 0c3b 8f1c 643d b12c e4bd
000000f0: 3e69 413d f79b debd 8255 213d be5a 93ba
00000100: 776d b73d 3d25 903d f60a cdbd b298 91bd
00000110: 0e7c f2bc be57 f1bc 72de 163d b404 9cba
00000120: 8d23 0b3d 7360 c1bc 02ff e9ba c939 bcbd
00000130: 1ae7 883d 16b2 963d 730c 013e 4467 623d
00000140: 9ca9 5b3d 352d b43d e038 51bd 59a3 8bbd
00000150: 8e39 9ebd 1386 c7bc 3ec1 ae3d 8d3a 053e
00000160: ecb0 09be e3d6 a83d 662c 98bd 1edb 0c3c
00000170: fb73 b2bd 9054 353d 916e c2bc 60e5 b9bd
00000180: 2ceb 8dbd 7dc7 133e ea1f ebbb 846c f33d
00000190: 803f b3bd 193b 85bd b1e9 0fbd 03bf 793b
000001a0: 6207 c83c 2c27 92bd aab3 963c 89ce 1cbd
000001b0: bffe bb3a 5789 76bd dc8a 7f3d 1bc1 3dbc
000001c0: 32dd 023d 43da 1cbd c61a 5f3d 0cec 8f3c
000001d0: 9ec4 e03a f7f7 c5bd c05f ffbc e58e e53a
000001e0: 2b65 0b3d 2901 12bd 5f16 b8bd 4cff cd3d
000001f0: e3f3 02be 4e11 fe3d 4bf6 acbb 0658 c83c
00000200: 19cd bbbd 9696 26bd 9dd7 0cbd bce9 953d
00000210: 9ebe 1a3d 816a 08be 3574 e23b 44d2 c1bb
00000220: 9624 8cbd 1ed7 a0bc a87c 603d beed 313d
00000230: 27fe c63d 7075 4dbd 9a52 b43d 8cdc 8f3d
00000240: 6b1f 3d3c 1fe1 03bc 60cf a8bc 9ea2 6b3d
00000250: 2c0f 0b3d f1ca 003d 3a30 f8bc 0cbc dbbd
00000260: 4935 273d b558 a137 6ccf 533c 50f3 cc3c
00000270: 6cd7 683d 13ef 79bd bd0f 14bc c935 b93c
00000280: ac7c 33bb fe13 3338 6f6e 69bd 02bf 37bd
00000290: 85ad 8cb9 ae96 52bd ad91 82bc 141a ad3d
000002a0: f239 14bd 0d4e 143d c089 54bd 5b84 513d
000002b0: d38d 05be d17c 6abd d8e1 d1bd 6ca4 06bd
000002c0: b405 403d 772e dfbb b1dd e53d 0359 12be
000002d0: 6191 a6bc 40bf 18bd a787 943d 3833 053d
000002e0: cbf7 6ebd 7c74 cbbc a3d2 1f3c fdc2 61bd
000002f0: 33bc e4bd e6f1 f33b c817 53bd 6e09 a3bd
00000300: 2311 e5bc 7c77 993d bcfe 0f3d 3262 08ba
00000310: d744 dd3d 824a c1bc 8b82 a6ba 3f29 1cbd
00000320: 8f23 4f3d 365f 613d 82a2 72bc adaf 8dbc
00000330: 083d 0ebc e8e4 a83b 99d2 61ba adf4 0ebc
00000340: 5cee 28bd af85 023a d842 423d 7fce 02bd
00000350: 502f 9bbd 0b1b a5bd bbc9 83bb 0fa4 b5bc
00000360: 5af3 003d 8af2 0a3d e117 11bc b340 4fbd
00000370: 327f 62bd 0d51 87bd 2864 a5bc 268f b43c
00000380: 783b 61bd 953e 46bd b4d7 cdbc c817 18bd
00000390: 4f5a 223d e2ee 113c b964 323d bc71 b83b
000003a0: 84e6 873d 01d6 853b 4c8f e8bc 7b5a 9bbd
000003b0: 4566 a7bd 6b04 16bd dd84 2fbd da80 b63c
000003c0: 58c9 9fbc cb81 31bc 7ddc 46bb 4c81 c9b9
000003d0: 9ea5 903c 31b9 e93b 4f1e 043e 0eac a43d
000003e0: 2ed9 213c f6bb a7bc 2b5d 103c 4081 acb9
000003f0: 5177 b63d 5034 233c 3714 cbb9 7ef9 c2bd

network.0.bias f4 [32]
-0.1313179 0.11470994 0.05807408 0.09389812 0.024672613 -0.004232404 -0.06974502 0.1495206
-0.06588004 0.07830026 -0.08185516 0.06851899 0.01860571 0.01413242 0.006040253 0.12309582
-0.08412872 0.11234815 -0.016398482 -0.10511618 0.1298853 0.061584484 0.057543762 -0.00483816
0.047623828 -0.052371427 -0.090872094 0.077764586 -0.13919498 0.10084922 -0.075653754 -0.09866336
00000000: 3378 06be 0ced ea3d 16df 6d3d a84d c03d
00000010: 381e ca3c faaf 8abb 7ad6 8ebd ee1b 193e
00000020: 1dec 86bd e35b a03d aea3 a7bd af53 8c3d
00000030: 006b 983c aa8b 673c 51ed c53b a919 fc3d
00000040: ae4b acbd c916 e63d 1c56 86bc 2747 d7bd
00000050: a700 053e 0340 7c3d 02b3 6b3d 6d89 9ebb
00000060: 3411 433d 6c83 56bd 261b babd 0a43 9f3d
00000070: 2189 0ebe 098a ce3d 5bf0 9abd 0410 cabd

network.3.weight f4 [64, 32]
-1.8163463e-09 -1.0232202e-34 1.9603203e-07 1.9729772e-11 -0.0062355264 1.8738914e-05 1.0132932e-34 -1.7734754e-14
-2.2558723e-18 -0.0034485962 -0.0018299896 -0.0022899457 8.849616e-34 -1.794263e-15 8.651764e-06 -0.006155795
0.0023300566 -3.8763526e-17 9.723795e-35 -0.00024171521 0.01702431 -4.3918753e-08 -7.431645e-18 -7.3166575e-09
-2.570847e-21 -2.2451392e-08 0.0016257463 -0.00084783015 -4.97156e-17 5.3175713e-09 -0.00020728953 2.5321348e-23
-0.0035382113 -0.029456805 0.083475694 -0.056407448 -0.014212958 0.03406814 -3.3260564e-10 0.019944143
-0.0064172023 0.01617036 0.03823676 0.09997541 0.08299216 -0.026586676 0.022708386 0.08172622
0.008028325 -0.075898506 9.4927706e-35 0.008859477 -0.11283706 -0.01609712 -0.020293823 -0.038007658
-0.052006487 0.031844344 -0.0011905583 0.008474875 -0.00276272 -0.09158823 -0.021184677 0.0016048736
-5.8525405e-28 0.00037726728 1.8846386e-05 0.0011587465 0.0015183261 0.007432524 0.01012663 -0.0006426034
-1.4917735e-09 -6.828905e-08 -0.011445042 -0.012625669 0.018109081 0.0046278397 -2.5433189e-09 -0.008241022
0.0024351357 -0.017899815 0.009331991 -4.0961356e-11 -0.0100620305 0.00911099 1.2510243e-07 0.014381124
-0.00012363 -2.0715486e-06 -4.29281e-06 -8.602652e-07 0.008680443 -0.00377895 0.004883907 0.00022139844
-0.01938559 -0.099808246 0.045772657 0.020825915 0.064322285 -0.03437532 0.008392448 -0.0027871304
-0.067432515 0.030255513 -0.03146552 0.06119424 -0.0015321523 0.053733535 -0.040403534 0.06878046
-0.011965042 -0.11380267 0.0009808688 0.008993108 0.04147006 -0.07164844 -0.043828513 0.089553505
-0.13291992 0.018440183 -0.02627838 -0.12294493 0.0005489225 -0.15700802 0.0056583583 -0.014622078
0.0010709068 -0.09873585 -0.09606278 0.06895226 -0.048062354 -0.07900564 -3.011914e-30 0.0012974195
-0.062098525 0.004745181 -0.007213801 0.075697 -0.012075399 0.061787892 -0.059764642 -0.024294432
-0.036215063 0.113849945 0.011609025 -0.017164266 -0.09787895 -0.013311048 0.07657964 -0.0612514
0.06359823 0.11364068 -0.0047857966 -0.079989985 -0.025740001 0.11594738 -0.0052840845 0.02041085
0.0024191777 0.023751253 -0.10630962 0.13262668 -0.08391071 -0.09072249 -0.0154519165 -0.1512724
-7.352082e-05 -0.013744313 -0.074096 -0.15055887 0.11229119 -0.16028647 -0.07063765 -0.03482086
-0.013761647 0.05274933 -0.0040533943 -0.022260256 0.07301108 0.011969609 0.08298618 0.021495134
0.009375074 -0.029790672 0.04080371 -0.010461021 0.08046562 -0.029984076 0.04389995 -0.008086572
0.018064274 -0.032143682 -0.008703795 -0.0053570806 0.017503237 0.002199454 0.015608173 -0.022082692
0.0033297816 -0.0059409803 0.0075439448 -0.023068883 0.03388198 -0.013585309 0.040298246 0.0730636
-0.0074721915 -0.013463916 -0.0076968484 -0.0015520983 0.007548197 -0.028111279 8.3803185e-05 -0.010209784
0.034520607 -0.00851471 0.0004386321 0.05378983 0.0014357951 -0.021509582 0.0002636196 0.005948755
0.028312583 -0.13842049 0.10724644 0.17400604 -0.080318265 0.09699639 -1.5444633e-09 -0.15988171
0.005928355 -0.024599107 -0.009045165 0.042564336 -0.0022520742 -0.1616036 0.009984776 -0.0067054355
0.13561586 0.03451165 -0.014640242 -0.08783939 0.049670156 -0.09387539 0.0762329 -0.11685525
-0.08215426 -0.112916686 -0.03330028 -0.1504924 -0.033300832 -0.040936243 -0.0031705687 -0.020206718
00000000: 01a3 f9b0 6102 0887 e07c 5234 7f8b ad2d
00000010: 6353 ccbb 8331 9d37 95b0 0607 8fbd 9fa8
00000020: 3974 26a2 d801 62bb 43dc efba ea12 16bb
00000030: 1a0a 9308 4f4a 01a7 0b27 1137 8db6 c9bb
00000040: ddb3 183b e5c3 32a4 5c40 0107 ef74 7db9
00000050: 9176 8b3c 2ea1 3cb3 f416 09a3 0066 fbb1
00000060: 6a3f 429d 22db c0b2 fe16 d53a eb40 5eba
00000070: d245 65a4 dab5 b631 dc5b 59b9 9fe4 f419
00000080: 56e1 67bb 664f f1bc 4ef5 aa3d 7f0b 67bd
00000090: 77dd 68bc 098b 0b3d 15da b6af e661 a33c
000000a0: 6547 d2bb b477 843c 269e 1c3d e8bf cc3d
000000b0: cbf7 a93d 4dcc d9bc f006 ba3c 1460 a73d
000000c0: 3c89 033c ad70 9bbd 735c fc06 5727 113c
000000d0: 1e17 e7bd 1bde 83bc 3b3f a6bc ebad 1bbd
000000e0: c104 55bd 376f 023d 820c 9cba 34da 0a3c
000000f0: c00e 35bb 9c92 bbbd 7d8b adbc 9f5a d23a
00000100: 7379 3992 f5cb c539 4e18 9e37 15e1 973a
00000110: 9202 c73a 888c f33b 2aea 253c 6274 28ba
00000120: 1d07 cdb0 4da6 92b3 fc83 3bbc e5db 4ebc
00000130: 7f59 943c 22a5 973b 8ac6 2eb1 5a05 07bc
00000140: cc96 1f3b a2a2 92bc 35e5 183c 6326 34ae
00000150: 37db 24bc 4346 153c e553 0634 ce9e 6b3c
00000160: ada2 01b9 ef04 0bb6 f50a 90b6 f9ec 66b5
00000170: 6b38 0e3c 43a8 77bb 2e09 a03b 3127 6839
00000180: 87ce 9ebc 4468 ccbd 1c7c 3b3d 1c9b aa3c
00000190: 67bb 833d 23cd 0cbd 7a80 093c 4aa8 36bb
000001a0: 0f1a 8abd 69da f73c fde1 00bd d0a6 7a3d
000001b0: 80d2 c8ba b217 5c3d 2d7e 25bd c5dc 8c3d
000001c0: 0609 44bc 6011 e9bd 7f90 803a d457 133c
000001d0: 82dc 293d 6bbc 92bd 8785 33bd d467 b73d
000001e0: 291c 08be de0f 973c c245 d7bc 8dca fbbd
000001f0: 91e5 0f3a b6c6 20be c069 b93b 7191 6fbc
00000200: ab5d 8c3a 0536 cabd 90bc c4bd d836 8d3d
00000210: 08dd 44bd b5cd a1bd 025b 748e 2d0e aa3a
00000220: 065b 7ebd 777d 9b3b c061 ecbb 0707 9b3d
00000230: e5d7 45bc 4d15 7d3d c5cb 74bd 1e05 c7bc
00000240: 3f56 14bd 292a e93d c833 3e3c 139c 8cbc
00000250: c274 c8bd 9516 5abc c9d5 9c3d bfe2 7abd
00000260: ca3f 823d 72bc e83d 2cd2 9cbb cad1 a3bd
00000270: b2dc d2bc d275 ed3d 1d26 adbb a834 a73c
00000280: 118b 1e3b fd91 c23c dcb8 d9bd 4acf 073e
00000290: 61d9 abbd b6cc b9bd 092a 7dbc 27e7 1abe
000002a0: 312f 9ab8 d42f 61bc a5bf 97bd 1b2c 1abe
000002b0: ecf8 e53d 2322 24be 79aa 90bd 51a0 0ebd
000002c0: 8878 61bc ae0f 583d 56d2 84bb 245b b6bc
000002d0: d586 953d 2e1c 443c a9f4 a93d 9016 b03c
000002e0: e999 193c 910b f4bc cb21 273d b464 2bbc
000002f0: 29cb a43d 2aa1 f5bc 6fd0 333d 8b7d 04bc
00000300: 87fb 933c 18a9 03bd 5d9a 0ebc 738a afbb
00000310: f362 8f3c b724 103b 6cb9 7f3c c3e6 b4bc
00000320: 7738 5a3b 8eac c2bb 3233 f73b f4fa bcbc
00000330: d5c7 0a3d ea94 5ebc c60f 253d 5ea2 953d
00000340: 49d9 f4bb c297 5cbc d835 fcbb c76f cbba
00000350: de56 f73b a049 e6bc 7ebf af38 f046 27bc
00000360: 7b65 0d3d 4881 0bbc 34f8 e539 ba52 5c3d
00000370: 4a31 bc3a dd34 b0bc 6c36 8a39 c6ed c23b
00000380: caef e73c 1abe 0dbe 06a4 db3d a42e 323e
00000390: e77d a4bd 0ba6 c63d f944 d4b0 08b8 23be
000003a0: a542 c23b 1184 c9bc 2c32 14bc f157 2e3d
000003b0: 8997 13bb 6a7b 25be 3097 233c 45b9 dbbb
000003c0: e2de 0a3e 175c 0d3d a0dd 6fbc 23e5 b3bd
000003d0: ef72 4b3d be41 c0bd ff1f 9c3d ce51 efbd
000003e0: 7e40 a8bd dd40 e7bd e065 08bd ae1a 1abe
000003f0: 7466 08bd c3ac 27bd 51c9 4fbb 8f88 a5bc

network.3.bias f4 [64]
-0.0083078025 0.0018158722 -0.02723713 0.12886904 0.09136685 0.111648604 -0.016139688 0.1611145
-0.055788822 -0.1171703 -0.026182018 -0.022066042 0.03585245 0.09601713 0.1018629 0.010300631
-0.04013049 0.10108801 -0.014872752 0.14636752 -0.062257268 0.101742014 0.12991652 -0.06873838
0.018686095 -0.012214719 -0.05163528 -0.10236377 -0.028752778 -0.007087723 0.13267305 -0.037744086
0.07864408 0.13915294 0.12923749 0.04621611 0.0979862 0.045701448 -0.0065940088 -0.008680588
0.034589782 0.119057335 0.023592597 -0.04282854 0.020836009 0.12775579 -0.0040331534 -0.007922811
0.12776725 0.13022105 0.150668 -0.06337715 -0.09359351 0.0882465 -0.04590828 -0.005080019
0.08124067 -0.068464 -0.044403166 -0.07122443 0.0011457454 -0.008008335 -0.01347088 0.0019969386
00000000: 731d 08bc 8f02 ee3a 6720 dfbc 3ff6 033e
00000010: 8b1e bb3d 06a8 e43d 6137 84bc 33fb 243e
00000020: d282 64bd fbf6 efbd ac7b d6bc d8c3 b4bc
00000030: 05da 123d a1a4 c43d 7f9d d03d fac3 283c
00000040: de5f 24bd 3b07 cf3d d8ac 73bc 5ee1 153e
00000050: 7a01 7fbd 1e5e d03d d608 053e b5c6 8cbd
00000060: 9513 993c 3f20 48bc 847f 53bd 19a4 d1bd
00000070: f28a ebbc 2140 e8bb 72db 073e 8b99 1abd
00000080: 2610 a13d 1c7e 0e3e d556 043e 1b4d 3d3d
00000090: fdac c83d 7131 3b3d 8e12 d8bb 0639 0ebc
000000a0: 04ae 0d3d 55d4 f33d 4345 c13c fb6c 2fbd
000000b0: 47b0 aa3c 6ad2 023e 8b28 84bb aece 01bc
000000c0: 6bd5 023e ab58 053e b648 1a3e e1cb 81bd
000000d0: f4ad bfbd 95ba b43d 520a 3cbd 4a76 a6bb
000000e0: 8261 a63d db36 8cbd 18e0 35bd 1dde 91bd
000000f0: d62c 963a 6435 03bc f7b4 5cbc 12df 023b

network.6.weight f4 [128, 64]
-0.000113891096 0.0037917343 8.0280364e-07 -0.02229755 -0.023275914 -0.020879997 0.0019484579 -0.024267409
0.043573603 0.005373664 -0.001142659 0.0029382785 -0.022774579 0.022398865 0.007835609 0.015345634
7.33925e-14 -0.02367404 -1.2957121e-06 0.022414194 -0.00017411729 0.053988524 0.052035958 2.5186919e-06
0.025943363 0.0011443105 0.018394573 0.0006854734 -0.00030089094 -1.1365997e-34 -0.021925688 0.001955759
0.0670381 0.06913363 -0.00048466297 -0.026556458 0.021920504 -0.022240454 0.0056798495 2.4702367e-06
0.005845266 -0.03474191 0.00373707 -9.651107e-09 -0.0005835444 0.0030195357 -7.246729e-07 0.007965158
0.00469582 0.045530763 -0.026024854 0.000118412994 0.0006493695 -0.032183427 -0.0019054604 -0.0074867653
0.009805776 -0.00015198391 -0.00071834185 -0.0003320164 -0.0031336404 0.01586502 4.125047e-09 -0.006618991
6.663346e-09 0.00043537925 -1.9199472e-08 -0.020196823 0.0733337 -0.07671916 0.002755708 0.007994907
-0.06031886 0.00023173324 -0.00014047208 -0.0032015552 -0.07380975 -0.11428475 0.04285687 0.07841282
0.0011872331 -0.075579606 9.827174e-35 0.021550544 -0.0044061006 0.069739655 -0.03880808 0.00094662776
-0.042161707 0.00058239914 0.062948525 0.018681781 -0.0028388745 -2.4384085e-18 -0.077148646 -0.03640148
0.09797223 0.0012485525 -0.02180234 0.069348074 0.013170376 -0.10325709 -0.012198725 -4.5970503e-13
0.041796446 0.09270254 -0.07116105 3.856917e-05 0.0022661353 -0.11922208 -0.00028113526 0.020807857
-0.022817992 -0.08318554 -0.07217622 -0.0026476032 -0.014297381 0.054613356 -0.002592909 0.05489616
0.09008741 0.0029547736 0.013222977 0.0060011027 0.018644307 0.05956366 2.0679297e-05 0.058832124
2.460166e-12 0.00081687653 -3.119094e-15 -0.019165514 0.04564776 0.036320064 0.0032534602 -0.025328439
0.011329747 -7.983118e-05 -0.0004883454 0.003119758 0.029819716 0.014402142 -0.006571793 0.009875108
1.0500794e-05 -0.03359725 -2.3261992e-10 0.049643848 -8.5807515e-05 0.03404433 -0.019041318 2.1427813e-06
0.009946957 6.228329e-05 0.0013365624 -0.00080386613 -7.9797604e-07 1.1606571e-34 0.0013540972 0.0011066737
0.004290153 0.05979525 -0.014382376 0.001901709 0.012273459 -0.00919428 0.009703118 3.1626548e-06
0.024312124 -0.038634576 0.0035987159 -3.4576346e-13 -0.0059700785 0.009661833 -6.185723e-06 -0.00012292844
-0.013797859 -0.02947792 0.013282808 1.4304555e-10 9.94713e-05 0.025334805 1.126867e-08 0.000235291
-0.021193435 1.1620377e-10 0.0013287079 -0.00019505335 -0.0012930582 0.0014239078 1.0189545e-34 -0.00858678
0.00017137089 -7.2461466e-05 1.9870722e-05 -5.731392e-10 0.00026010018 -4.1507388e-11 8.8188554e-35 -1.315985e-08
4.4339377e-09 -0.00068359537 6.1007175e-14 1.0124677e-34 -4.2389193e-11 -2.6250686e-06 0.0012777931 1.3321956e-09
6.4803132e-15 0.004446391 -0.00067317765 -0.00035223842 -0.0020722286 -6.3576927e-06 -0.0010959328 5.3643208e-11
-5.4310965e-09 -0.0008074042 -2.1244126e-09 0.00035284183 -6.959835e-05 1.0278358e-34 -9.384185e-05 1.3812511e-13
-0.0007092983 -0.00010791148 -2.846153e-16 8.010887e-09 -1.1066157e-05 0.00019022457 -5.5230387e-10 8.652791e-05
0.0020568615 0.0021777926 0.00076176494 0.00011918935 -1.2400422e-11 -0.000111552545 0.0011624506 -5.454608e-32
0.0007527474 0.0027895921 -2.0470598e-06 -2.52092e-05 -4.0658152e-09 0.0011737456 -4.8664708e-05 0.0005762425
-9.3932084e-11 0.0006479556 4.406831e-05 1.0036744e-34 1.1684096e-07 7.1003284e-05 0.0019599907 5.9202717e-05
00000000: d1d8 eeb8 bf7e 783b 3f80 5735 5aa9 b6bc
00000010: 21ad bebc 870c abbc 6663 ff3a 72cc c6bc
00000020: 3c7a 323d 9015 b03b 46c5 95ba 2290 403b
00000030: c191 babc d37d b73c ed60 003c 416c 7b3c
00000040: e543 a529 0ff0 c1bc 54e8 adb5 f99d b73c
00000050: 4193 36b9 1223 5d3d a823 553d cc06 2936
00000060: 2d87 d43c b0fc 953a 37b0 963c 57b1 333a
00000070: e6c0 9db9 7c14 1787 809d b3bc 312c 003b
00000080: 454b 893d ef95 8d3d 5d1a feb9 ee8c d9bc
00000090: a192 b33c 9d31 b6bc 081e ba3b 58c6 2536
000000a0: a589 bf3b 884d 0ebd a1e9 743b 04ce 25b2
000000b0: 00f9 18ba 67e3 453b 2487 42b5 4b80 023c
000000c0: 65df 993b 777e 3a3d 1332 d5bc 7e54 f838
000000d0: 733a 2a3a c5d2 03bd a4c0 f9ba 8a53 f5bb
000000e0: 68a8 203c df5d 1fb9 1b4f 3cba 7d12 aeb9
000000f0: c35d 4dbb 5cf7 813c 4cbc 8d31 1fe4 d8bb
00000100: 69f3 e431 9d43 e439 16ec a4b2 cf73 a5bc
00000110: fb2f 963d ef1e 9dbd 1c99 343b 12fd 023c
00000120: e910 77bd 6bfd 7239 b04b 13b9 2fd1 51bb
00000130: 9129 97bd 1f0e eabd af8a 2f3d e796 a03d
00000140: ef9c 9b3a 7bc9 9abd 24a0 0207 c48a b03c
00000150: 0d61 90bb aad3 8e3d 39f5 1ebd 1d27 783a
00000160: c1b1 2cbd 25ac 183a 28eb 803d 890a 993c
00000170: 690c 3abb 3cec 33a2 1c00 9ebd b819 15bd
00000180: aaa5 c83d 78a6 a33a d29a b2bc 5d06 8e3d
00000190: 90c8 573c 7478 d3bd 29dd 47bc 3d65 01ab
000001a0: c032 2b3d d4da bd3d e2bc 91bd 55c5 2138
000001b0: 7183 143b b52a f4bd 5665 93b9 3d75 aa3c
000001c0: ccec babc 2e5d aabd 20d1 93bd 6983 2dbb
000001d0: 903f 6abc 41b2 5f3d cbed 29bb ccda 603d
000001e0: bf7f b83d e0a4 413b 2fa5 583c e6a4 c43b
000001f0: f2bb 983c 06f9 733d 7478 ad37 f4f9 703d
00000200: 691e 2d2c a823 563a 21c1 60a7 ff00 9dbc
00000210: 25f9 3a3d 59c4 143d 0138 553b 967d cfbc
00000220: 67a0 393c 0a6b a7b8 4e04 00ba db74 4c3b
00000230: 7a48 f43c f6f6 6b3c 3258 d7bb 34cb 213c
00000240: 912c 3037 459d 09bd b0c4 7faf 5957 4b3d
00000250: 8ff3 b3b8 1172 0b3d 8afc 9bbc b4cc 0f36
00000260: 90f8 223c 169e 8238 982f af3a 8bba 52ba
00000270: 7f34 56b5 1d47 1a07 f67b b13a cf0d 913a
00000280: 6994 8c3b ddeb 743d 0fa4 6bbc c442 f93a
00000290: 9e16 493c 9ba3 16bc d4f9 1e3c ff3d 5436
000002a0: 382a c73c 4a3f 1ebd 6fd8 6b3b c4a5 c2aa
000002b0: a6a0 c3bb aa4c 1e3c f58e cfb6 5ae6 00b9
000002c0: 6a10 62bc ae7b f1bc 22a0 593c be47 1d2f
000002d0: 3f9b d038 f08a cf3c 2398 4132 72b8 7639
000002e0: db9d adbc e888 ff2e 0a28 ae3a 3c87 4cb9
000002f0: d57b a9ba 6ba2 ba3a 3a71 0707 91af 0cbc
00000300: 06b2 3339 74f6 97b8 0db0 a637 168b 1db0
00000310: 0e5e 8839 2a8d 36ae 0572 ea06 a215 62b2
00000320: 5459 9831 4f33 33ba 3e60 8929 7e94 0607
00000330: fd6d 3aae 562a 30b6 9f7b a73a 7718 b730
00000340: 577a e927 08b3 913b 3078 30ba a4ac b8b9
00000350: 3ace 07bb 2a54 d5b6 67a5 8fba e2ec 6b2e
00000360: 6e9c bab1 fba7 53ba 10fd 11b1 a1fd b839
00000370: 54f5 91b8 719f 0807 f6cc c4b8 da83 1b2a
00000380: 34f0 39ba 894e e2b8 ce11 a4a5 41a0 0932
00000390: c8a8 39b7 0577 4739 eed0 17b0 5176 b538
000003a0: 69cc 063b 4cb9 0e3b 2eb1 473a 4cf5 f938
000003b0: 8926 5aad 51f1 e9b8 5f5d 983a 179c 8d8b
000003c0: 0654 453a 97d1 363b 3860 09b6 5878 d3b7
000003d0: 4ab3 8bb1 5ed8 993a 551d 4cb8 fb0e 173a
000003e0: 108f ceae 90db 293a fdd5 3838 4569 0507
000003f0: ffe9 fa33 99e7 9438 3073 003b 6f50 7838

network.6.bias f4 [128]
-0.041664097 0.09535808 3.9791466e-05 -0.022377947 0.11620771 -0.045873027 -0.035853043 0.021505881
-0.03449575 -0.0994313 0.09988101 -0.010878665 0.09250256 -0.0512943 0.06625255 0.0629507
0.052499775 -0.07612244 -0.01580923 -0.009841856 -0.05040481 0.06117419 -0.0010798477 0.0970534
-0.00087827 0.035885617 0.007843879 -0.0077344514 0.10324837 -0.05665438 -0.038580842 0.10275941
0.026157768 -0.021859804 -0.05861327 -0.008972351 0.10604389 0.028357344 0.016770087 0.0784791
-0.022959488 -0.055614743 -0.07310041 0.07303165 0.022125134 0.058091737 0.06588358 -0.05366794
-0.049353555 -0.06750943 0.0010839425 0.065338366 0.11858337 -0.028560136 0.078154996 -0.035371203
-0.04446431 0.07011614 -0.00023826037 0.0023957961 0.08292149 0.081714295 0.053929117 -0.004536366
0.06622249 -0.015184635 -0.055249836 0.06615171 -0.042519722 0.07703279 0.07817635 0.07515838
0.025666026 0.041089922 0.0791142 -0.0016507247 -0.06037342 -0.066707395 0.09686588 -0.083507
0.09632878 -0.023763333 -0.0014660734 0.034073677 0.036642388 0.04749637 0.09776187 0.091851674
-0.02343617 -0.0006392839 0.03359214 -0.016307246 -0.080741934 -0.0678627 0.0946665 -0.08988321
-0.025597807 -0.05962597 -0.03318003 0.045964036 0.104428634 0.04796413 -0.020340003 -0.061508868
0.078545645 0.08799747 0.030083248 0.08416228 -0.026294855 -0.0014735911 0.04865938 0.057294186
0.066363245 0.007583411 0.0658183 -0.0017060162 0.065607145 -0.013014394 0.09570815 -0.002746519
-0.0003750536 0.098450206 -0.0642723 -0.050699655 0.016114272 -0.062632956 -0.027435271 0.022698421
00000000: f9a7 2abd 194b c33d c3e5 2638 f551 b7bc
00000010: 4ffe ed3d 5be5 3bbd a4da 12bd 1a2d b03c
00000020: 6a4b 0dbd a3a2 cbbd 6a8e cc3d 6e3c 32bc
00000030: fb71 bd3d f919 52bd 6baf 873d 4cec 803d
00000040: 010a 573d 15e6 9bbd 5c82 81bc bc3f 21bc
00000050: 4675 4ebd ca91 7a3d ad89 8dba efc3 c63d
00000060: b43b 66ba ccfc 123d 9d83 003c 4871 fdbb
00000070: e273 d33d 6c0e 68bd f206 1ebd 8773 d23d
00000080: d148 d63c 5513 b3bc 7814 70bd c500 13bc
00000090: 8a2d d93d a94d e83c 6c61 893c a6b9 a03d
000000a0: 8915 bcbc 49cc 63bd abb5 95bd 9e91 953d
000000b0: c53f b53c 9af1 6d3d f8ed 863d ead2 5bbd
000000c0: f426 4abd 6242 8abd 1313 8e3a 1fd0 853d
000000d0: d6db f23d f2f6 e9bc ba0f a03d 65e1 10bd
000000e0: 3520 36bd 0d99 8f3d 88d5 79b9 ca02 1d3b
000000f0: bed2 a93d d359 a73d c7e4 5c3d cca5 94bb
00000100: a89f 873d fac8 78bc a74d 62bd 8c7a 873d
00000110: 2929 2ebd 5ec3 9d3d ec1a a03d a3ec 993d
00000120: 8f41 d23c e84d 283d a006 a23d 215d d8ba
00000130: 1f4a 77bd e39d 88bd 9e61 c63d b805 abbd
00000140: 0648 c53d 52ab c2bc 4329 c0ba d790 0b3d
00000150: 5416 163d 8e8b 423d 6037 c83d bb1c bc3d
00000160: 36fd bfbc 9e95 27ba e997 093d c696 85bc
00000170: 075c a5bd 99fb 8abd 83e0 c13d b014 b8bd
00000180: 7eb2 d1bc 5c3a 74bd c8e7 07bd c944 3c3d
00000190: aede d53d 0976 443d 14a0 a6bc b9f0 7bbd
000001a0: 8adc a03d 0438 b43d 2571 f63c 465d ac3d
000001b0: 4f68 d7bc 8325 c1ba 0f4f 473d 4fad 6a3d
000001c0: 74e9 873d 437e f83b bfcb 863d 689c dfba
000001d0: 0a5d 863d 533a 55bc a202 c43d f1fe 33bb
000001e0: d8a2 c4b9 43a0 c93d 32a1 83bd 71aa 4fbd
000001f0: 1402 843c b545 80bd efbf e0bc 0af2 b93c

network.9.weight f4 [1, 128]
-0.051575158 -0.05720376 -0.010280379 -0.0017313235 0.03344882 0.060095847 -0.020366646 0.045767006
-0.022940263 0.03029845 -0.019370824 0.035723794 -0.037523963 -0.05266157 0.043954488 -0.03158047
0.027561678 0.025750155 -0.06305929 0.002195844 -0.014035432 -0.042191155 -4.681148e-07 0.018728042
-0.08273732 -0.06801214 0.053442195 -0.0506363 0.045562655 -0.049500976 -0.044903968 -0.063845545
-0.07767022 0.00905588 -0.04797757 -0.04256456 0.061526082 0.06533117 -0.034075297 0.014391492
0.024262296 0.0130810365 0.019649377 -0.062079743 -0.09003301 -0.0409689 -0.041544437 -0.07296946
0.016714953 0.05575835 0.038453847 -0.0031031198 0.040744416 0.019742383 0.03656119 0.053985316
0.010503151 -0.06748384 -0.00013825129 0.062285125 -0.02138065 0.0051859147 -0.057604585 -0.00044703129
0.07489834 0.00012261787 -0.037133884 -0.015731666 -0.00031312366 0.04318681 0.050731245 -0.050390165
0.038431365 -0.003165842 0.0012009895 -4.0002632e-07 0.024353273 -0.0073337727 -0.026283473 -0.035083316
0.045354947 0.061699193 2.4866706e-06 -0.0803629 0.0010487423 -0.024328247 0.008583194 -0.069867685
0.0456566 -0.00011253516 0.05774702 -0.0149909565 -0.028945422 -0.041010585 0.031579163 -0.020761533
0.00023621402 0.054635957 0.061148126 0.05539952 -0.042181496 -0.08069876 -0.0042389715 -0.015575757
-0.052646294 -0.050869778 0.07428316 0.003081258 0.04239713 1.1355165e-34 0.005995061 0.0432158
-0.042521935 0.002119045 0.019735683 -1.1613041e-05 -0.05721233 -0.032365542 0.056315456 -0.00026310867
-3.8536446e-06 0.0038795457 0.022393031 0.011134087 0.071372546 0.068123914 0.052881844 0.039937593
00000000: 7940 53bd 7d4e 6abd 096f 28bc 94ed e2ba
00000010: a101 093d 1027 763d f4d7 a6bc 2f76 3b3d
00000020: 38ed bbbc 7434 f83c 90af 9ebc 1d53 123d
00000030: bab2 19bd a9b3 57bd 9f09 343d 865a 01bd
00000040: 07c9 e13c fdf1 d23c 3b25 81bd 26e8 0f3b
00000050: def4 65bc a2d0 2cbd 3551 fbb4 8d6b 993c
00000060: 2f72 a9bd f349 8bbd 34e6 5a3d 0268 4fbd
00000070: e89f 3a3d 89c1 4abd 39ed 37bd 74c1 82bd
00000080: 9011 9fbd 1d5f 143c 2184 44bd 2d58 2ebd
00000090: c602 7c3d 59cc 853d 8a92 0bbd 4bca 6b3c
000000a0: b9c1 c63c d851 563c bbf7 a03c 5447 7ebd
000000b0: 3a63 b8bd 01cf 27bd 802a 2abd 0371 95bd
000000c0: cced 883c de62 643d c881 1d3d b65d 4bbb
000000d0: 9ee3 263d c7ba a13c 30c1 153d b51f 5d3d
000000e0: 6915 2c3c f834 8abd 8cf7 10b9 b01e 7f3d
000000f0: 7926 afbc 9bee a93b c9f2 6bbd 865f eab9
00000100: 4d64 993d fc92 0039 b319 18bd b2df 80bc
00000110: bf2a a4b9 a7e4 303d 91cb 4f3d eb65 4ebd
00000120: 356a 1d3d 047a 4fbb 856a 9d3a 33c3 d6b4
00000130: 8480 c73c 2550 f0bb 7050 d7bc 86b3 0fbd
00000140: 1cc6 393d 4bb8 7c3d ade0 2636 4e95 a4bd
00000150: f475 893a 084c c7bc 86a0 0c3c ca16 8fbd
00000160: 6a02 3b3d db00 ecb8 2488 6c3d a19c 75bc
00000170: f31e edbc b7fa 27bd 2759 013d 1714 aabc
00000180: 38b0 7739 f4c9 5f3d 7576 7a3d 9bea 623d
00000190: 81c6 2cbd 6445 a5bd 12e7 8abb 7631 7fbc
000001a0: a4a3 57bd d45c 50bd c521 983d eeee 493b
000001b0: 9da8 2d3d a0ef 1607 3772 c43b 0d03 313d
000001c0: 7b2b 2ebd addf 0a3b baac a13c a2d5 42b7
000001d0: 7a57 6abd bb91 04bd 09ab 663d d9f1 89b9
000001e0: 8e4e 81b6 fa3f 7e3b 9771 b73c bf6b 363c
000001f0: c52b 923d 8d84 8b3d a29a 583d 9a95 233d

exp_avg f4 [32, 45]
0.00020308366 -2.5169454e-06 5.9941085e-05 -1.1272433e-05 1.22672545e-05 6.1465e-06 -1.0990597e-06 4.3570824e-05
5.4209475e-05 7.221624e-05 -1.8982579e-05 8.751855e-05 -2.435808e-05 7.6055394e-06 6.913998e-05 1.2266841e-05
0.00021602133 5.059816e-05 3.7032302e-07 3.701248e-05 0.000102532584 3.9287264e-05 3.13715e-05 -7.5349626e-06
-1.1279743e-06 1.7475095e-05 3.614524e-07 -8.679299e-07 8.451517e-06 3.1588834e-07 3.6611655e-05 2.4560453e-05
-8.001548e-05 -1.1323134e-05 -5.3791115e-05 2.079549e-05 -1.975121e-05 -6.391506e-06 -2.0124265e-08 -1.4927327e-10
0.0004060315 -3.3490105e-06 9.783608e-05 -2.1165263e-08 3.31592e-05 6.5095126e-05 -0.0002542054 4.8294038e-05
-0.00011829176 -0.00031012765 -0.00013324444 0.0002668913 8.102465e-05 0.00015657168 0.00014492171 -1.08395125e-05
-0.0005410884 0.0001638837 7.832823e-05 -9.763378e-06 -0.00015197544 8.85935e-05 -5.7245794e-05 -4.1247608e-07
7.959676e-05 -0.00030895477 0.0002908584 -0.00053127424 -0.0001494457 5.1929004e-05 -8.16881e-05 -4.7061695e-07
-0.00010577137 -5.2141022e-05 -1.0380195e-06 -0.00011277089 -9.057044e-05 -0.00024609288 0.00032791984 -4.926316e-05
3.1279385e-05 -7.691274e-05 -0.00014423869 0.0001221448 -0.00031603657 0.00066524034 0.00027537672 -0.00049258553
0.00010827987 -0.0010497646 -9.893735e-05 0.00042986544 -8.396112e-05 0.00061919494 0.00031119992 1.9865794e-05
-0.00018699482 0.00031092434 -1.8580966e-05 -0.00038117176 0.00011361501 -0.00021033047 -0.00013020266 6.150256e-05
5.0909824e-05 -4.9132523e-06 0.00028649368 0.00031255046 3.0915288e-07 -7.318573e-05 0.00031976408 -8.8248256e-05
0.000260242 4.00259e-06 -5.365517e-05 0.000110767716 5.550208e-07 -7.67398e-05 -2.0767158e-05 5.8812157e-07
5.4517288e-05 0.00016363955 0.00013302777 0.0003680128 8.735405e-05 -0.00029330974 0.00060177303 -2.0668245e-05
0.00050930126 -0.00012812788 -0.0005038038 0.00033470546 0.0012880067 -9.61382e-05 -0.0005163895 0.0002838695
1.4931597e-06 -0.00021388997 9.324182e-05 -2.434302e-05 0.00023915357 -0.00027505035 0.00025377667 6.317675e-05
0.00014164275 4.6670397e-05 9.838504e-05 3.295758e-05 -4.6857913e-06 -1.7467377e-05 -5.108427e-06 -0.00019702732
0.00069719215 -8.570686e-08 3.8680344e-05 7.1518996e-05 -0.00014387183 -4.3303884e-05 -4.450536e-05 1.3699984e-05
3.775154e-05 -6.165075e-08 -7.044757e-05 -5.463307e-05 -3.5259583e-07 -4.2157393e-05 0.00027955623 -2.090531e-05
-0.00022656725 5.456541e-05 -0.000102546495 0.0002251782 0.00014780648 4.0200193e-05 -0.00028278347 -0.000120970144
3.1450916e-05 0.00013188316 -0.00021157897 0.0006573395 5.3038562e-05 1.12950165e-05 0.00015826111 8.765544e-06
-7.298598e-05 -6.7181463e-06 -0.00019708546 1.5037595e-05 -4.2812957e-05 -2.527712e-05 -4.549001e-05 -5.227811e-05
3.9526305e-05 9.240114e-05 9.6864285e-05 0.000105761115 0.0002040762 0.00012549157 -1.0462433e-06 -6.294705e-05
8.493927e-06 0.00018085104 -2.3646859e-05 3.8495935e-05 -6.495613e-06 -1.7080067e-05 -5.822817e-07 7.803828e-06
-1.6028183e-05 8.307399e-07 8.917326e-05 -0.00012593229 0.00027776783 -4.0362e-06 -4.8077698e-05 4.797527e-05
4.0650324e-05 -5.548923e-06 0.00045455532 -0.00019056414 -0.00013623158 -0.00010511946 0.00010527415 0.00011966169
-0.00010863206 -5.9460326e-05 -7.659984e-05 -3.35152e-05 4.1497307e-05 -7.757544e-05 1.3183371e-05 0.00020768886
0.00015981209 8.1753125e-05 -0.00026040516 -9.30255e-05 -0.00043832135 -3.0657087e-05 -4.6795525e-05 2.5505913e-05
-3.5763725e-05 2.6380298e-05 -0.00019569308 -7.850321e-07 4.074364e-05 -3.2830172e-05 3.1264168e-05 -5.2152864e-05
-2.9470182e-05 -6.0692596e-06 -5.4605014e-05 -7.3259696e-07 0.000119093675 5.5872122e-05 -7.656422e-07 -7.022047e-05
00000000: dbf2 5439 cbe8 28b6 4069 7b38 bb1e 3db7
00000010: 75cf 4d37 083e ce36 6783 93b5 d1bf 3638
00000020: fb5e 6338 cc72 9738 c73c 9fb7 2a8a b738
00000030: 9454 ccb7 1633 ff36 3eff 9038 aecd 4d37
00000040: c983 6239 5c39 5438 cfd0 c634 d93d 1b38
00000050: c306 d738 61c8 2438 e494 0338 d6d4 fcb6
00000060: e764 97b5 7b97 9237 a40d c234 b0fb 68b5
00000070: fdca 0d37 5d97 a934 778f 1938 2c07 ce37
00000080: fccd a7b8 7df8 3db7 c59d 61b8 fa71 ae37
00000090: 67af a5b7 9e76 d6b6 badd acb2 b120 24af
000000a0: a0e0 d439 90bf 60b6 582d cd38 e8ce b5b2
000000b0: 6b14 0b38 ae83 8838 df46 85b9 548f 4a38
000000c0: 6813 f8b8 a198 a2b9 88b7 0bb9 8bed 8b39
000000d0: c7eb a938 642d 2439 20f6 1739 5adb 35b7
000000e0: d4d7 0dba 32d8 2b39 2644 a438 64cd 23b7
000000f0: 995b 1fb9 46cb b938 341b 70b8 4872 ddb4
00000100: 2fed a638 35fb a1b9 5b7e 9839 3645 0bba
00000110: 86b4 1cb9 58ce 5938 f74f abb8 1aa9 fcb4
00000120: 92d1 ddb8 ffb1 5ab8 1452 8bb5 697f ecb8
00000130: a2f0 bdb8 0706 81b9 a8ec ab39 ea9f 4eb8
00000140: fc31 0338 364c a1b8 c73e 17b9 ff13 0039
00000150: b6b1 a5b9 8663 2e3a 7060 9039 db20 01ba
00000160: 5014 e338 4198 89ba 967c cfb8 905f e139
00000170: 4814 b0b8 7851 223a 8c28 a339 78a5 a637
00000180: 0a14 44b9 8f03 a339 52de 9bb7 02d8 c7b9
00000190: 9844 ee38 288c 5cb9 0387 08b9 effa 8038
000001a0: 0288 5538 84dc a4b6 8834 9639 d0dd a339
000001b0: a6f9 a534 4a7b 99b8 02a6 a739 ec11 b9b8
000001c0: 1771 8839 fc4d 8636 cd0b 61b8 f74b e838
000001d0: bdfc 1435 5eef a0b8 2235 aeb7 68df 1d35
000001e0: 7ea9 6438 a896 2b39 5f7d 0b39 d8f1 c039
000001f0: d931 b738 5ec7 99b9 4ec0 1d3a b860 adb7
00000200: a182 053a 115a 06b9 b311 04ba 687b af39
00000210: 55d2 a83a ce9d c9b8 505e 07ba 52d4 9439
00000220: 9468 c835 a747 60b9 d28a c338 3d34 ccb7
00000230: 4cc5 7a39 a234 90b9 540d 8539 c27d 8438
00000240: f085 1439 f5bf 4338 1154 ce38 ef3b 0a38
00000250: a43a 9db6 e886 92b7 0e69 abb6 1e99 4eb9
00000260: c6c3 363a d80d b8b3 b43c 2238 78fc 9538
00000270: 4ddc 16b9 31a1 35b8 44ab 3ab8 fcd8 6537
00000280: 6857 1e38 dc64 84b3 40bd 93b8 d025 65b8
00000290: 674c bdb4 28d2 30b8 6791 9239 d05d afb7
000002a0: af92 6db9 2add 6438 3b0e d7b8 d01d 6c39
000002b0: 80fc 1a39 a19c 2838 8e42 94b9 5ab1 fdb8
000002c0: 2aea 0338 1e4a 0a39 4cdb 5db9 4f51 2c3a
000002d0: b975 5e38 ba7f 3d37 e5f2 2539 ba0f 1337
000002e0: 0d10 99b8 706c e1b6 baa8 4eb9 fb49 7c37
000002f0: 1092 33b8 340a d4b7 87cc 3eb8 3145 5bb8
00000300: 0cc9 2538 7cc7 c138 9e23 cb38 11cc dd38
00000310: 4afd 5539 6396 0339 a56c 8cb5 7102 84b8
00000320: 2481 0e37 d5a2 3d39 3e5d c6b7 b276 2138
00000330: e4f4 d9b6 2a47 8fb7 184e 1cb5 30ed 0237
00000340: 4374 86b7 0300 5f35 8802 bb38 b10c 04b9
00000350: 5ea1 9139 b26e 87b6 09a7 49b8 0e39 4938
00000360: f47f 2a38 e330 bab6 6251 ee39 2cd2 47b9
00000370: 63d9 0eb9 9573 dcb8 a1c6 dc38 e1f2 fa38
00000380: 65d1 e3b8 0a65 79b8 3aa4 a0b8 ac92 0cb8
00000390: 650d 2e38 ffaf a2b8 262e 5d37 0ec7 5939
000003a0: 3b93 2739 e072 ab38 fd86 88b9 af16 c3b8
000003b0: 7fce e5b9 cc95 00b8 5046 44b8 88f5 d537
000003c0: 0201 16b8 424b dd37 f632 4db9 ffba 52b5
000003d0: 26e4 2a38 21b3 09b8 a521 0338 b6be 5ab8
000003e0: bc36 f7b7 8ba6 cbb6 b007 65b8 aea7 44b5
000003f0: eec1 f938 3c58 6a38 8886 4db5 5443 93b8

exp_avg_sq f4 [32, 45]
1.8178689e-07 1.5227759e-09 4.9708415e-08 1.8033491e-08 8.44707e-09 3.937718e-09 2.823642e-09 1.78903e-07
2.8407488e-08 1.0277108e-06 5.5515834e-08 1.0621704e-07 1.058077e-08 2.2992899e-09 4.5698656e-08 3.223059e-08
9.233634e-07 1.6436134e-07 1.741097e-10 5.857087e-08 1.0218922e-07 7.860803e-08 4.3173337e-08 1.0704218e-08
4.7931437e-09 8.003377e-09 8.2015705e-12 1.3313773e-08 3.1765184e-09 3.0512512e-10 8.378437e-08 5.301933e-08
2.3537277e-07 3.8598313e-07 5.1229687e-08 1.6329861e-07 2.3851664e-08 1.986292e-07 2.3273176e-10 9.714015e-11
1.7668198e-06 1.3028786e-09 1.0899121e-06 2.354112e-10 3.1036623e-07 9.763899e-07 1.3595302e-06 7.0835017e-07
3.942293e-07 9.362e-07 1.5621513e-06 8.7238385e-07 1.459003e-06 8.939521e-07 3.533928e-06 6.350445e-07
2.2780473e-06 2.047493e-07 1.0054993e-07 5.9853755e-07 5.6507093e-07 5.6621498e-06 9.851154e-06 1.3095822e-10
3.713254e-07 9.563779e-07 1.0726499e-06 9.458364e-07 1.6245512e-07 2.4316192e-08 8.170857e-08 1.6467351e-10
2.0626696e-07 6.253552e-08 6.7187805e-10 1.0561848e-06 7.7692727e-07 3.8068983e-06 2.5355876e-06 1.6941211e-06
1.926837e-06 6.0147687e-07 1.6254616e-06 5.1842694e-06 7.0081273e-06 4.5914594e-06 2.548678e-06 3.6596869e-06
4.3295145e-06 1.1274057e-05 4.927954e-07 1.9692866e-06 7.592008e-07 9.6432e-07 5.433393e-07 3.1459894e-07
3.6316607e-07 3.2372247e-06 2.8842604e-07 5.7960087e-06 9.750502e-07 1.6910237e-06 2.837821e-07 1.3016002e-07
8.146575e-07 7.314389e-07 9.232807e-06 7.238278e-06 4.0011125e-10 3.8556468e-07 9.982509e-07 1.5648969e-06
1.1866799e-06 2.932939e-07 4.0846e-08 1.2425085e-07 1.4631607e-10 3.263732e-07 5.290604e-08 1.3260519e-10
2.7050214e-06 6.270628e-07 2.9256062e-06 2.8236748e-06 1.1815196e-06 3.7303323e-06 6.6048426e-07 1.8031478e-06
1.1992507e-06 6.27147e-06 5.3783638e-06 6.3225034e-06 6.0044345e-06 1.2421763e-06 1.8442734e-05 3.771252e-07
2.794351e-07 4.6370042e-07 4.0707644e-07 4.418772e-07 1.2661247e-06 3.1400407e-07 9.852453e-07 4.4553556e-07
1.7033877e-06 4.9504354e-07 1.396119e-06 1.5169046e-07 8.620408e-08 4.5796614e-07 1.5662309e-07 1.481021e-06
6.4202463e-06 5.8924574e-11 2.2140811e-07 4.982708e-07 9.435064e-07 5.491417e-07 1.0605009e-07 1.757737e-08
4.687636e-08 5.4529575e-11 1.4706612e-07 3.1346413e-08 3.4346753e-10 1.0229783e-06 4.9565136e-07 2.9683335e-06
1.031978e-06 6.294579e-07 6.1441034e-07 4.1668852e-07 7.7147337e-07 2.242436e-06 3.900207e-06 2.4410297e-06
2.5469005e-06 2.7931849e-06 3.741122e-06 2.8098607e-06 1.4287039e-07 5.310474e-08 5.9596135e-07 2.0978437e-07
1.068034e-07 1.705043e-08 3.3200166e-07 2.7436343e-07 2.3468952e-07 2.0440143e-06 8.970275e-08 1.999611e-07
5.256773e-08 9.287207e-08 3.6440832e-07 2.706316e-07 2.839868e-06 1.805692e-06 1.0200098e-10 1.1546173e-07
2.8502706e-07 8.090019e-07 1.4125531e-07 2.8430659e-08 2.0889626e-09 2.6980732e-08 2.9391817e-10 2.171913e-08
1.7298257e-08 8.213139e-10 2.3087406e-07 2.764404e-07 6.3374716e-07 7.135581e-07 3.0584025e-07 1.1957737e-06
1.4905011e-07 8.202884e-07 3.0275555e-06 1.9773445e-06 1.540301e-06 1.0247334e-07 1.4718594e-06 2.8802656e-06
1.5578073e-06 1.4635603e-07 1.8921911e-07 6.010062e-07 1.4861149e-07 8.447685e-08 1.1525049e-06 3.5036584e-07
8.681302e-07 2.1685813e-07 7.609908e-07 1.3166382e-07 4.5557726e-07 3.2917423e-08 1.7452638e-08 3.9515163e-07
2.7209626e-07 1.6728522e-06 2.3861348e-06 6.1740946e-11 2.0466327e-07 2.3174371e-07 8.9561297e-07 3.576263e-07
6.683653e-08 4.4576454e-09 3.4439473e-08 3.3794637e-11 1.712252e-07 2.0204846e-08 3.3603206e-10 6.267405e-07
00000000: 3331 4334 ea49 d130 fb7e 5533 11e8 9a32
00000010: 9b1e 1132 894c 8731 090a 4231 7b18 4034
00000020: ba04 f432 e0ef 8935 4e70 6e33 6f19 e433
00000030: b8c6 3532 8901 1e31 3446 4433 e96d 0a33
00000040: 0ddd 7735 4d7b 3034 866f 3f2f 5a8f 7b33
00000050: 1e73 db33 39cf a833 966d 3933 a6e5 3732
00000060: f0b0 a431 397f 0932 9748 102d 98ba 6432
00000070: e749 5a31 8bbe a72f f2ec b333 5fb7 6333
00000080: c6ba 7c34 1e39 cf34 a307 5c33 2e57 2f34
00000090: 5de2 cc32 c746 5534 2be4 7f2f 0b9d d52e
000000a0: 7723 ed35 f710 b330 1849 9235 2e6b 812f
000000b0: 69a0 a634 800c 8335 1a79 b635 7425 3e35
000000c0: 76a6 d334 2d4f 7b35 1cab d135 c32d 6a35
000000d0: f6d2 c335 ecf7 6f35 6c28 6d36 ed77 2a35
000000e0: 8ee0 1836 0fd9 5b34 e9ed d733 30ab 2035
000000f0: 61af 1735 7ffd bd36 6246 2537 76fd 0f2f
00000100: 935a c734 e55c 8035 f8f7 8f35 62e5 7d35
00000110: 536f 2e34 dfdf d032 c377 af33 790f 352f
00000120: 3b7a 5d34 444b 8633 37af 3830 3cc2 8d35
00000130: 098e 5035 047a 7f36 1029 2a36 8f61 e335
00000140: cf4e 0136 2d75 2135 6f2a da35 89f4 ad36
00000150: 5b27 eb36 5610 9a36 f409 2b36 f198 7536
00000160: 3f46 9136 b525 3d37 a448 0435 1628 0436
00000170: e2cb 4b35 c86d 8135 fed9 1135 26e6 a834
00000180: 2af9 c234 193f 5936 f9d8 9a34 567b c236
00000190: 78de 8235 22f7 e235 b75a 9834 1dc2 0b34
000001a0: d6ae 5a35 1958 4435 9be6 1a37 56e0 f236
000001b0: a7f6 db2f 9bff ce34 a4fb 8535 7309 d235
000001c0: 0346 9f35 0276 9d34 a76e 2f33 d069 0534
000001d0: 50e0 202f 6438 af34 ce3a 6333 0bcd 112f
000001e0: ea87 3536 6d53 2835 8855 4436 5d7e 3d36
000001f0: b494 9e35 9f56 7a36 224c 3135 b003 f235
00000200: f1f5 a035 846f d236 cb77 b436 e425 d436
00000210: b379 c936 dab8 a635 78b5 9a37 b177 ca34
00000220: 4505 9634 80f2 f834 298c da34 243b ed34
00000230: b7ef a935 6494 a834 c53c 8435 f131 ef34
00000240: f59f e435 22e3 0435 4962 bb35 5be0 2234
00000250: 321f b933 63de f534 3a2c 2834 7ec7 c635
00000260: 7f6d d736 9693 812e 33bc 6d34 e9c0 0535
00000270: 4445 7d35 bb68 1335 a7bd e333 0cfd 9632
00000280: 1a55 4933 d8d2 6f2e 3ae9 1d34 bfa1 0633
00000290: c2d2 bc2f 444d 8935 e70c 0535 9533 4736
000002a0: 7e82 8a35 04f8 2835 f5ed 2435 3cb5 df34
000002b0: 3f17 4f35 c27c 1636 86de 8236 92d0 2336
000002c0: 6beb 2a36 8d72 3b36 fd0f 7b36 0a91 3c36
000002d0: ea67 1934 4715 6433 27fa 1f35 1741 6134
000002e0: ca5b e533 4b76 9232 f63d b234 394c 9334
000002f0: f7fe 7b34 e62b 0936 9ca2 c033 e3b4 5634
00000300: d5c6 6133 f670 c733 e6a3 c334 534b 9134
00000310: 9094 3e36 1b5b f235 724d e02e c2f3 f733
00000320: d205 9934 302a 5935 f7ab 1734 ae37 f432
00000330: 6b8d 0f31 42c3 e732 4e95 a12f df90 ba32
00000340: 4597 9432 d4c2 6130 2ee6 7734 ae69 9434
00000350: c61e 2a35 578b 3f35 5d32 a434 797e a035
00000360: 950a 2034 ca31 5c35 022d 4b36 85b2 0436
00000370: 57bc ce35 500f dc33 b48c c535 964a 4136
00000380: da15 d135 0a26 1d34 272c 4b34 d554 2135
00000390: 0492 1f34 a469 b533 c4af 9a35 ea19 bc34
000003a0: 7409 6935 82d9 6834 e446 4c35 7a5f 0d34
000003b0: 1096 f434 1761 0d33 c2ea 9532 3a25 d434
000003c0: a014 9234 c486 e035 7c21 2036 10c5 872e
000003d0: 69c1 5b34 3ad5 7834 0e6a 7035 c9ff bf34
000003e0: c587 8f33 dd29 9931 9aea 1333 61a1 142e
000003f0: 06da 3734 ed8e ad32 4fbc b82f 473d 2835

exp_avg f4 [32]
0.00014663735 -0.00056639133 0.0011277912 0.0005226771 0.00039799773 -0.00042100783 -7.01162e-05 -0.0054895557
-0.00126197 0.0003301759 -0.002019206 -0.004568057 0.0010340253 -0.006665594 -0.0031823826 -0.0010893955
0.004283535 0.0014209244 -1.6636712e-05 -0.00018416194 0.006409941 -0.00077555183 0.0014528895 -0.00042537934
0.00064413104 2.5150133e-05 -0.00021448071 -0.0007676445 6.274581e-05 -0.0033105914 -0.00067497377 -0.00028421218
00000000: aac2 1939 e179 14ba 65d2 933a 4404 093a
00000010: 5aaa d039 b7ba dcb9 590b 93b8 bbe1 b3bb
00000020: b068 a5ba 761b ad39 a854 04bb a4af 95bb
00000030: 2288 873a 0e6b dabb 858f 50bb 0cca 8eba
00000040: e55c 8c3b 503e ba3a 118f 8bb7 981b 41b9
00000050: 7b0a d23b 674e 4bba e26e be3a 7305 dfb9
00000060: e7da 283a 80f9 d237 3ae6 60b9 c03b 49ba
00000070: 6696 8338 82f6 58bb b9f0 30ba 5002 95b9

exp_avg_sq f4 [32]
3.095915e-06 4.0293824e-05 4.3372922e-05 2.1873133e-05 1.2110616e-05 1.3131083e-05 3.272875e-08 9.8536286e-05
7.312358e-06 1.1886518e-05 4.0705374e-05 2.4968906e-05 1.7186798e-05 0.0002119814 5.7218498e-05 7.527858e-05
5.659675e-05 6.61884e-05 4.5417377e-09 5.565784e-06 3.2507676e-05 1.9051877e-05 2.2519771e-05 8.445281e-06
1.7094415e-05 0.00012979677 1.6213078e-06 3.9851762e-05 3.135284e-06 0.00010096057 1.0768025e-06 2.4354729e-06
00000000: 6ac3 4f36 2a01 2938 52eb 3538 327c b737
00000010: b32e 4b37 924d 5c37 a491 0c33 44a5 ce38
00000020: ad5c f536 356c 4737 10bb 2a38 5174 d137
00000030: 5e2c 9037 5347 5e39 e5fd 6f38 e1de 9d38
00000040: 4c62 6d38 a0ce 8a38 8c0d 9c31 b8c1 ba36
00000050: da58 0838 98d1 9f37 d7e8 bc37 35b0 0d37
00000060: fa65 8f37 0e1a 0839 b69b d935 8126 2738
00000070: c567 5236 cbba d338 a786 9035 1b71 2336

exp_avg f4 [64, 32]
-2.1212984e-12 0.0 2.1868256e-10 2.419868e-14 -6.37868e-06 2.007094e-08 0.0 -2.3759977e-17
-3.5200546e-21 -3.5429464e-06 -1.888968e-06 -2.3597624e-06 2.0383877e-37 -2.4854515e-18 9.328405e-09 -6.297696e-06
2.4007838e-06 -5.720897e-20 0.0 -2.5347828e-07 1.7295877e-05 -4.9692854e-11 -1.1315641e-20 -8.425286e-12
-4.9053028e-24 -2.556879e-11 1.6796469e-06 -8.8032647e-07 -7.304558e-20 6.1429017e-12 -2.17646e-07 7.1417476e-26
-6.048589e-06 -0.00010146394 5.1272935e-05 -6.229725e-05 -1.8658111e-05 1.3604387e-05 -3.9393076e-13 -0.00024677924
3.7784812e-05 -6.8479267e-07 1.9351635e-05 -6.8393856e-05 0.00021029855 -5.2135787e-05 -6.297897e-05 -9.1207476e-05
1.2879903e-05 -0.00010814794 0.0 8.5234915e-06 -0.00020311958 -1.4403336e-05 -8.533612e-06 -3.4563014e-05
3.2257536e-05 6.991334e-05 -6.058567e-07 4.779693e-06 -4.674247e-06 -0.0003233737 -1.833811e-05 -3.4167882e-05
-1.1286288e-30 3.8706233e-07 2.011304e-08 1.1903135e-06 1.5693507e-06 7.5930016e-06 1.0323996e-05 -6.685452e-07
-1.7406605e-12 -7.691268e-11 -1.165834e-05 -1.285208e-05 1.8378105e-05 4.7391572e-06 -2.9103456e-12 -8.413645e-06
2.5082013e-06 -1.8178598e-05 9.519233e-06 -4.9703002e-14 -1.02580525e-05 9.2904975e-06 1.3820572e-10 1.4623778e-05
-1.2877895e-07 -2.2549145e-09 -4.649859e-09 -9.416784e-10 8.8576935e-06 -3.8792814e-06 5.0047315e-06 2.3234003e-07
-1.5033431e-05 -0.00027308322 0.00023398142 9.6318254e-05 8.026339e-05 1.5926205e-05 8.566978e-06 -3.9343067e-05
-5.7541685e-05 3.555421e-05 -5.0227252e-05 0.00015924643 4.5359717e-05 0.00011033462 0.00011553788 0.0003709486
3.174849e-05 -7.8224e-05 1.0173071e-06 5.5184075e-05 -6.5026616e-05 -0.00016470392 5.9762133e-05 0.00015359145
8.519772e-05 0.0002183258 -8.160181e-06 0.00020889679 5.1948915e-05 -0.000121744946 -1.7817125e-05 -2.2168402e-05
2.7454403e-06 -0.0003587114 9.844688e-05 7.753259e-05 -6.935581e-05 -5.198903e-05 -1.1539544e-33 -0.0005715303
-0.0001407824 1.3301237e-05 3.4339746e-06 0.00022687076 -0.00014822673 0.00010267728 -0.000121558696 3.329512e-05
-7.246892e-05 0.00010506733 1.1824308e-05 1.1467846e-05 -0.0006671577 -0.0003253915 0.00014930619 8.485084e-05
0.0001702167 0.00031114617 8.931396e-06 4.536187e-05 -7.5666103e-06 -0.00013235933 -1.2702364e-05 7.192372e-06
-7.8147076e-07 0.0029943702 -0.00027513414 -0.00015874652 -9.945164e-05 -8.547731e-05 -1.5708272e-05 0.0020915074
0.00018087872 -1.0913543e-05 6.596894e-05 0.00014154983 0.0012411119 0.00100125 0.0005112555 -0.00016024266
0.00011857622 -4.7677713e-05 -4.159027e-06 4.660057e-05 0.0023110597 0.0012986583 8.6126056e-05 6.651623e-05
0.000100024336 -0.0001535932 6.905468e-05 -6.418625e-05 0.00018163012 0.0025269324 0.00010266341 -4.7389793e-05
1.8285602e-05 -7.1225935e-05 -7.48423e-05 -3.1535816e-05 -8.913471e-07 2.5042693e-06 1.5866151e-05 -0.00012646086
-7.0627284e-06 -1.4664216e-05 -3.4551544e-05 -1.3429252e-05 -1.1419084e-05 -1.9081896e-05 3.724669e-05 7.877183e-06
-5.515621e-05 -0.00010033557 -7.86183e-06 -7.5789467e-06 -9.672611e-05 -6.505484e-05 1.520236e-05 -1.2072375e-05
8.549829e-06 3.6144797e-06 -4.7153444e-06 -2.5852729e-05 -3.8833577e-06 -0.00015664959 -7.5526514e-06 9.429153e-06
1.6663946e-05 0.004239087 6.113629e-05 0.00023450868 2.8214625e-05 8.516066e-05 -1.7989198e-12 0.0030704956
0.00018776316 8.605163e-05 0.00035053244 0.000509247 0.0016064007 0.001247305 0.00037218534 0.0006956853
0.0010430091 0.00021495837 -1.4887842e-05 -0.00011954472 0.0035248837 0.0018467576 -0.000120497934 0.00014597611
0.00042363524 0.00018241041 -1.4284324e-05 0.00017107501 -3.5695204e-05 0.0046976875 0.000152617 -1.3365128e-05
00000000: ea45 15ac 0000 0000 ab71 702f 5bf6 d928
00000010: 7208 d6b6 7768 ac32 0000 0000 a925 dba3
00000020: e1fb 849d 5bc3 6db6 7288 fdb5 695c 1eb6
00000030: b9b9 8a02 da64 37a2 c242 2032 cc50 d3b6
00000040: 271d 2136 b314 879f 0000 0000 ca15 88b4
00000050: 9d16 9137 2e8d 5aae 15bf 559e 1d38 14ad
00000060: c4c3 bd98 cce7 e0ad 3a70 e135 934f 6cb5
00000070: 5879 ac9f 5722 d82c 14b2 69b4 34d2 b015
00000080: fcf4 cab6 0ac9 d4b8 e50d 5738 95a5 82b8
00000090: fd83 9cb7 663e 6437 68c3 ddaa 2662 81b9
000000a0: 227b 1e38 98d2 37b5 5255 a237 ac6e 8fb8
000000b0: 9683 5c39 60ac 5ab8 9413 84b8 a446 bfb8
000000c0: c316 5837 7ccd e2b8 0000 0000 1e00 0f37
000000d0: 7ffc 54b9 dba5 71b7 962b 0fb7 c1f7 10b8
000000e0: 444c 0738 709e 9238 28a2 22b5 4061 a036
000000f0: 7ad7 9cb6 7c8a a9b9 cbd4 99b7 7c4f 0fb8
00000100: 6821 b78d 71cd cf34 0bc5 ac32 dcc2 9f35
00000110: 7ba2 d235 63c7 fe36 3a35 2d37 1476 33b5
00000120: e7f9 f4ab fd21 a9ae 3098 43b7 439f 57b7
00000130: ae2a 9a37 0d05 9f36 20cc 4cac 5528 0db7
00000140: 9252 2836 3e7e 98b7 cbb4 1f37 a9d7 5fa9
00000150: 001a 2cb7 62de 1b37 74f5 172f a658 7537
00000160: 7d46 0ab4 e0f4 1ab1 98c4 9fb1 5d6c 81b0
00000170: 819b 1437 c62a 82b6 51ee a736 2479 7934
00000180: 1838 7cb7 9c2c 8fb9 e958 7539 78fe c938
00000190: 1453 a838 4499 8537 e4ba 0f37 4c04 25b8
000001a0: ea58 71b8 0b20 1538 1aab 52b8 63fb 2639
000001b0: a040 3e38 7363 e738 ed4c f238 e17b c239
000001c0: ae29 0538 310c a4b8 688a 8835 7375 6738
000001d0: e65e 88b8 5fb4 2cb9 1aa9 7a38 640d 2139
000001e0: 2dac b238 63ee 6439 b6e7 08b7 4e0b 5b39
000001f0: b9e3 5938 5251 ffb8 fc75 95b7 48f6 b9b7
00000200: 4e3e 3836 6e11 bcb9 4475 ce38 fe98 a238
00000210: 1e73 91b8 cc0e 5ab8 cbbb bf88 c0d2 15ba
00000220: fd9e 13b9 6128 5f37 3c73 6636 28e4 6d39
00000230: 4f6d 1bb9 7254 d738 54ed feb8 5da6 0b38
00000240: 75fa 97b8 9857 dc38 0461 4637 0666 4037
00000250: 32e4 2eba 4f99 aab9 138f 1c39 f3f1 b138
00000260: 337c 3239 5521 a339 0ed8 1537 f042 3e38
00000270: b0e4 fdb6 f0c9 0ab9 3d1c 55b7 0156 f136
00000280: 43c6 51b5 323d 443b e13f 90b9 3275 26b9
00000290: b190 d0b8 4842 b3b8 42c5 83b7 ac11 093b
000002a0: 43aa 3d39 4f19 37b7 ce58 8a38 fe6c 1439
000002b0: ceac a23a 603c 833a c705 063a d006 28b9
000002c0: 20ac f838 8ef9 47b8 c58d 8bb6 fb74 4338
000002d0: 2675 173b be37 aa3a 939e b438 a17e 8b38
000002e0: 28c4 d138 dc0d 21b9 73d1 9038 bb9b 86b8
000002f0: f773 3e39 e49a 253b 004d d738 67c4 46b8
00000300: 0864 9937 225f 95b8 a7f4 9cb8 5345 04b8
00000310: e844 6fb5 050f 2836 4d18 8537 949a 04b9
00000320: 60fc ecb6 5406 76b7 70eb 10b8 334e 61b7
00000330: 9894 3fb7 0f12 a0b7 5439 1c38 3e28 0437
00000340: 8857 67b8 406b d2b8 4ee6 03b7 a84e feb6
00000350: 6fd9 cab8 0d6e 88b8 a40d 7f37 758a 4ab7
00000360: 3c71 0f37 4a90 7236 8038 9eb6 50de d8b7
00000370: ca4d 82b6 4e42 24b9 c86c fdb6 e731 1e37
00000380: 8dc9 8b37 0ae8 8a3b 4c36 8038 72e6 7539
00000390: 72ae ec37 4898 b238 eb2c fdab 5e3a 493b
000003a0: 4ae2 4439 9e76 b438 abc7 b739 fd7e 053a
000003b0: dd8d d23a 9c7c a33a df21 c339 a65e 363a
000003c0: 94b5 883a 7366 6139 cbc6 79b7 15b4 fab8
000003d0: bc01 673b e70e f23a d6b3 fcb8 2a11 1939
000003e0: 5c1b de39 6c45 3f39 b4a6 6fb7 9962 3339
000003f0: 6fb7 15b8 0fef 993b d007 2039 ca3a 60b7
