models/regression_models/ML_including_industry_feature/single_dimension/process_ongoing/version_best/checkpoints/epoch=59-step=1860.ckpt (torch, 548043 bytes, 15 tensors)

network.0.weight f4 [256, 45]
000000 30 b6 e3 bc da b5 4a bd f3 34 9c bd 10 5d 5b bd
       -0.027796835 -0.049489833 -0.07627287 -0.05355555
000010 ad 21 fb bc ca 07 af 3d 8a 8a ad bd 11 0f 0a 3e
       -0.030655706 0.085464075 -0.0847369 0.1348231
000020 12 e0 c8 bd 3c 41 51 3d 19 3c ea bd 02 b1 00 be
       -0.09808363 0.051087603 -0.11437244 -0.12567523
000030 94 3f 9a bc c5 dd 93 bb 12 44 8d bd 1f 33 67 3d
       -0.018829145 -0.004512521 -0.06897749 0.056445237
000040 ce e4 d7 3d ee 23 81 bb 34 98 9b 3d c3 86 97 3b
       0.10541688 -0.0039410507 0.0759739 0.004624219
000050 ef 92 51 bc ba dd d9 bb d9 ba 2c bd 4b 95 99 3c
       -0.012791379 -0.0066487463 -0.04217038 0.018747946
000060 2e f9 9e 3d a6 34 52 bd 68 85 87 3d 68 4c 46 bd
       0.07762371 -0.05131974 0.06617242 -0.04841271
000070 d2 20 89 bc 75 35 1f 3a b5 a7 0e 3e c5 a7 0d bd
       -0.016739283 0.00060733344 0.13931163 -0.034583826
000080 ac 57 aa 3d 25 7c b6 3d 59 6b 80 3c 7d 45 10 3e
       0.08317503 0.089103974 0.015676187 0.14089008
000090 0d b2 d6 bd b8 dd a4 bd 94 11 c1 bc d9 f4 56 bd
       -0.10483179 -0.08050102 -0.023567952 -0.0524796
0000a0 e3 97 df bd a8 51 e4 3d 30 6a a2 bd 99 2a 4a bd
       -0.10917642 0.11148387 -0.0793041 -0.04935703
0000b0 e8 02 8c 3d c7 8a a2 3c 13 dc 9a bd af 90 d8 bd
       0.06836492 0.019841565 -0.07561507 -0.10574471
0000c0 7c 8a 19 3d 56 1c ae bc 26 d0 b1 bc e5 f4 d6 3c
       0.037485585 -0.021253746 -0.021705698 0.026239822
0000d0 18 37 08 be 5d 90 89 3d 9a 1c 19 3d da 85 ec 3d
       -0.13302267 0.06716988 0.037380792 0.11548968
0000e0 e3 49 59 bd 8a be fe 3d d1 0e 98 bd 11 06 dd 3d
       -0.05304898 0.12438686 -0.07424701 0.10792173
0000f0 e3 a6 b3 3d 8e 72 1c 3d fe cf 71 3d 2f f5 18 3d
       0.087720655 0.038195185 0.059036247 0.0373432
000100 81 4c 5b 3d 40 f9 59 bd 7b d7 6a 3d 6d 29 ec bd
       0.053539757 -0.05321622 0.057334404 -0.11531339
000110 29 ab b1 3d e4 4b a9 bd 61 5e 9b bc 28 37 82 3b
       0.08675224 -0.08266428 -0.018965902 0.0039738603
000120 70 70 58 3c 39 33 b9 bc de 36 fe b8 8c 97 96 3d
       0.013210401 -0.022607433 -0.000121218836 0.07353124
000130 29 ad c5 3c 58 0e 72 bd d0 32 f7 bd 00 9a 7c 3d
       0.02413042 -0.05909571 -0.120702386 0.061670303
000140 16 89 85 3d 34 ba 0c 3d 04 08 08 3e ed 6d ed bc
       0.06520288 0.034357265 0.13284308 -0.02898308
000150 21 f9 fa 3d 26 c3 89 3d 76 68 b9 3d d8 bc bf bd
       0.12254549 0.06726675 0.090531275 -0.09362191
000160 ab 1b 0e be 2a 9a be bc af db 8c 3c 7d a8 3d bd
       -0.13877742 -0.02326687 0.017194597 -0.04630326
000170 d8 cb aa 3c 93 56 1a bc 27 60 c1 3d 1e 90 a9 bd
       0.020849153 -0.009420055 0.09442168 -0.08279441
000180 eb 72 ca bc 5b be 52 3c da 9d 0e bb d2 45 65 3d
       -0.024713 0.012862767 -0.0021761567 0.05597479
000190 bc 98 0d 3d 18 35 aa 3b 4c 37 9e 3c 7d 44 28 bd
       0.034569487 0.0051943175 0.019313477 -0.04108094
0001a0 45 81 40 3c 4a e0 91 bd 31 47 f7 bd de 9f b8 3d
       0.01174957 -0.07122858 -0.120741256 0.09014867
0001b0 32 82 15 bc b1 0f a1 bd 53 10 d7 3c a1 0d 8a 3d
       -0.009125279 -0.07864321 0.026252901 0.06740881
0001c0 02 56 fa bc c0 f6 17 3d ec 8b 3b 3a 38 67 86 3d
       -0.03055859 0.037100554 0.0007154334 0.06562656
0001d0 f7 0d 74 3c a5 50 08 bd e1 30 d6 3c 0a ba 02 bc
       0.014895908 -0.033280034 0.026146354 -0.0079789255
0001e0 4d a2 e2 3d 3c 9e cc bd 27 6b 80 3d c0 51 da bd
       0.11066113 -0.09991118 0.06270438 -0.10660124
0001f0 c9 93 a8 bd 06 a5 24 3d e9 47 d4 3c e9 db b0 bd
       -0.08231313 0.04019644 0.025913196 -0.086356945
000200 1c ad 07 bd c4 cf a7 bd cc 25 0b 3e c0 83 1f bd
       -0.033124074 -0.08193925 0.13588637 -0.038944006
000210 f1 e8 8a bd 5f 02 79 bd 48 c2 bc bd 98 46 7f 3d
       -0.06782711 -0.060793277 -0.09216744 0.062323183
000220 64 67 73 3d 74 42 b2 bd 84 c8 f8 bc 9d c2 0d bd
       0.059424773 -0.08704081 -0.03036905 -0.034609426
000230 50 1c 24 bd 46 1c 86 bd eb 25 3f 3d 7d 82 13 bb
       -0.040066063 -0.065483615 0.04666702 -0.0022508197
000240 2b f7 ea 3d 7c 6a 0c 3d 8a 33 00 3e fb 91 99 3d
       0.11472925 0.03428124 0.1251966 0.07498547
000250 08 c1 0d bd c4 d4 ad 3d b6 8d 0c 3d 9b aa db bd
       -0.034607917 0.084878474 0.034314834 -0.107259
000260 6a a3 d6 bb e1 a0 66 bc dd 43 c1 3b 90 4f d4 bb
       -0.006550242 -0.014076442 0.0058979825 -0.006479211
000270 99 3d d2 bd d7 5e ba 3d 9d 9c a4 3d 29 3f 94 bd
       -0.10265655 0.091001205 0.08037684 -0.07238609
000280 2d 36 31 3b c1 fc 1e 3c 8f 39 5b bc e0 37 28 3c
       0.0027040348 0.009703816 -0.013380422 0.010267228
000290 6f 1f 05 3b d5 cc 8a 3d ff 52 e8 39 9d ba 87 3d
       0.0020312925 0.0677735 0.00044312325 0.066273905
0002a0 40 a3 92 bd 1a 07 55 bd c2 6a 6d ba 90 a3 50 3c
       -0.07160044 -0.052008726 -0.00090567407 0.012734309
0002b0 29 f8 d6 3d 7f a0 fb 3d 87 82 75 3d c7 63 68 bd
       0.104965515 0.122864716 0.059938934 -0.05673578
0002c0 40 07 ef 3d 05 e8 3b bc 7e e1 8a b9 cc 7f 0c 3e
       0.11671305 -0.011468892 -0.00026489416 0.13720626
0002d0 91 60 a1 3d 53 af 8b 3d 05 c1 76 bd df 6a 80 bc
       0.07879747 0.0682055 -0.06024267 -0.01567596
0002e0 41 19 46 bd 80 ae 8a 3d c9 6a 88 3d 74 71 a7 3d
       -0.048363928 0.067715645 0.06660993 0.08175936
0002f0 d5 20 3c bd 00 1f 85 bd ea fe 5c ba 0d aa b6 bd
       -0.04592975 -0.065000534 -0.0008430319 -0.08919153
000300 c3 4d 0b 3e 41 ec db 3d 33 09 20 bd d9 b6 f1 ba
       0.13603882 0.10738421 -0.039071273 -0.0018441334
000310 63 a3 4c bd f4 14 ce 3c 5b 9c 7d 3d 4e d3 25 3c
       -0.049960505 0.025156476 0.06191669 0.01012118
000320 01 e3 60 bd 73 03 79 bd 22 8a b0 3d 7e 3f e9 3d
       -0.054903988 -0.060794305 0.08620097 0.11389063
000330 28 6f e8 3c a8 28 87 bd ae f5 da bb ce 4f c7 3d
       0.028373316 -0.065995514 -0.0066821193 0.097320184
000340 30 2d 54 bd 06 99 a6 38 57 31 d6 bd ab f4 52 3b
       -0.051800907 7.944e-05 -0.104586296 0.003218929
000350 7a 14 ce 3d bd 36 f8 bd 32 5c f0 3c d0 34 bf bd
       0.10062499 -0.121198155 0.029340837 -0.09336245
000360 d1 0a d7 3b 1a 38 c6 3d 6c 1c 07 bd ce e8 22 bd
       0.0065625687 0.09678669 -0.03298609 -0.0397728
000370 fa 31 a4 bc ca 18 a8 3d f9 0f db 3d c0 4c 91 bc
       -0.020043362 0.08207853 0.10696406 -0.017736793
000380 bf 6c 8c 3d 26 75 01 3e d0 65 82 bd 14 d4 ef 3d
       0.06856679 0.12642345 -0.063670754 0.117103726
000390 e3 f7 82 3d 66 3f de 3d 58 05 03 3c 8f 43 9a 3d
       0.06394937 0.10851936 0.0079968795 0.07532417
0003a0 8a 6e 2e bc a6 ed 8e 3d 5a 7d d6 3d c2 f2 d2 3d
       -0.010646472 0.069789216 0.10473128 0.10300209
0003b0 06 57 a1 3d 09 65 23 bd 2f 5d f6 3d 41 d0 1d 3d
       0.078779265 -0.039891277 0.12029492 0.038528685
0003c0 35 1f 4f bb 55 19 bd 3d df 33 12 bd dd 10 47 bc
       -0.0031604294 0.09233347 -0.035694 -0.012150017
0003d0 88 ec 5a 3a 45 af 66 3c af ee 1a bd 53 20 b2 bd
       0.0008351286 0.014079873 -0.037825283 -0.086975716
0003e0 71 76 df bd 5e ab ba bc 57 ec 1c 3c 67 c2 24 ba
       -0.10911263 -0.022786792 0.009577832 -0.0006285072
0003f0 13 e5 82 3d 7e 8d da bb 9f 14 85 3b 9c df 02 be
       0.06391349 -0.006669699 0.004061296 -0.12780613

network.0.bias f4 [256]
000000 47 f2 c3 3d 5c 9d 0a 3e e3 ca 93 bd 0d 32 08 be
       0.09567695 0.1353659 -0.07216432 -0.13300343
000010 e3 65 ec bd 00 11 7c 3c 96 ec cc bc 42 e7 e5 bd
       -0.11542871 0.0153849125 -0.025015157 -0.112257496
000020 23 30 eb 3c 1c 77 ec bc 27 5b f1 bd 6f 76 f0 3d
       0.028709477 -0.02886539 -0.11784964 0.117413394
000030 38 cc 78 3d f5 c1 12 3d 3d 96 01 be 0b 21 34 3d
       0.060741633 0.035829503 -0.12654968 0.043976825
000040 55 45 d5 bd 6a 1f 09 be 73 77 01 3e 64 47 63 3d
       -0.10413615 -0.1339089 0.12643223 0.055488005
000050 b3 c3 14 3e 26 3a 5a 3d 08 cc af bc 79 71 31 3d
       0.14527778 0.05327811 -0.021459594 0.043321107
000060 45 3e 97 3d b7 f4 b8 3d e3 99 08 3b 81 90 8c 3d
       0.07384924 0.09031051 0.0020843677 0.068634994
000070 d6 7a 93 3c b8 d3 07 3e af 69 2a bd 86 85 34 3b
       0.018002909 0.13264358 -0.041604694 0.0027545406
000080 a1 67 ee 3d ab 67 3c 3d a2 1f f0 ba a4 92 6f bd
       0.116408594 0.045997303 -0.0018319974 -0.058489457
000090 98 94 4f 3b f8 a6 b6 3d 74 a8 63 bd ac 14 8f bb
       0.0031674262 0.089185655 -0.05558057 -0.004366478
0000a0 36 59 8f bd f7 9b e8 bb 3c d6 b8 3d b1 28 f3 bc
       -0.069994375 -0.0070986706 0.09025237 -0.02968249
0000b0 97 04 0e 3e 45 73 a5 3d fe 85 4d bd 57 24 b4 bb
       0.13868938 0.080786265 -0.050176613 -0.005497496
0000c0 a2 71 5c 3a 1e 6d 01 be 03 fe ae 3d 3a 40 e1 3d
       0.00084092666 -0.12639281 0.08544543 0.10998578
0000d0 ee a3 0c be b6 fe 93 bd cc 7a ca 3c 16 2d 8b bc
       -0.13734409 -0.07226317 0.024716757 -0.016989272
0000e0 8d 7f f1 3d fb 1a cc bc 59 37 00 be 6b f8 85 bd
       0.117919065 -0.024915209 -0.12521113 -0.065415226
0000f0 5d 86 fb bd d6 30 ee 3d 57 0d 2d bd 18 ac ec bd
       -0.12281487 0.116304085 -0.04224905 -0.11556262
000100 9f 23 10 3c 38 3c 4b 3d 96 26 82 bd 97 f9 e7 3c
       0.008797555 0.049617976 -0.06355016 0.028317256
000110 d8 27 e8 3c b8 a3 aa bd 26 d9 ca 3d 58 a0 d1 3d
       0.028339311 -0.08332008 0.09904699 0.10235661
000120 8d 85 62 3d 4d c3 dd 3d 71 de 06 3e 60 d5 7d 3c
       0.055303145 0.10828266 0.13170792 0.015492767
000130 79 bd a9 3d 34 61 9c bd 7c bf b4 bd 47 11 f0 3d
       0.08288092 -0.076357275 -0.08825585 0.117220454
000140 77 56 86 bd 0e ee e3 bd 57 ff a2 3d b6 7d ba 3d
       -0.065594606 -0.1112939 0.079588585 0.09106009
000150 b3 2e e8 3d 33 15 f9 bd 24 57 ff 3c 8a 01 e7 3d
       0.11337032 -0.121622466 0.031169482 0.112795904
000160 a4 f6 05 3e f9 bb 30 bd 1c e7 55 bd 6b 26 9e bd
       0.13082367 -0.043148015 -0.052222356 -0.077221714
000170 1a cd 82 3d 0f 37 10 3d 37 03 f9 bc 23 97 c0 3c
       0.06386776 0.035208758 -0.03039704 0.023509568
000180 4f f3 26 3c 28 77 fd bd e0 4d 93 3b 0c 88 9f 3c
       0.010189845 -0.12376243 0.0044953674 0.019474052
000190 63 89 0a be d5 7e c3 bd 1e 31 43 3c 48 a2 5b bd
       -0.13528971 -0.09545676 0.011913566 -0.05362156
0001a0 52 7d d8 bd f3 dd b5 3d 12 98 8a bb 29 44 0c be
       -0.10570778 0.08880224 -0.004229554 -0.13697876
0001b0 d8 b4 03 be d8 47 8b 3d d9 b8 27 3d e8 90 6a 3d
       -0.12861955 0.068008125 0.04094777 0.0572671
0001c0 09 e7 06 3c d0 14 3a bd 2d d2 f0 ba 3b b8 c2 3c
       0.008233794 -0.045430005 -0.0018373184 0.023769489
0001d0 56 e9 01 3c 38 75 96 bd 4d 39 d3 3d 86 62 0b be
       0.007929167 -0.073465765 0.10313664 -0.13611802
0001e0 7f bf ac bd 90 60 c4 3d f4 f8 fa bd 5b c8 1f bc
       -0.084349625 0.0958873 -0.12254515 -0.009752358
0001f0 1b 53 a5 bd 7b 99 17 3d 5a 82 ac bd bd 23 b8 3c
       -0.08072492 0.037011605 -0.084233 0.022477979
000200 64 23 be bd bb dd bc bd 4f 07 a8 3d 9b 99 f0 3d
       -0.09284094 -0.09221979 0.08204519 0.11748048
000210 2e 71 6c bd 60 47 9a bd c7 fe 0f 3e f3 01 58 3d
       -0.057725124 -0.07533145 0.14062034 0.052736234
000220 51 d8 3c 3d ed 99 ae bd d5 f7 70 bd bc db 47 bd
       0.046104733 -0.08525453 -0.0588301 -0.04879354
000230 82 28 e1 bc fe 44 a7 bd 52 f6 45 3d 42 ac 48 bc
       -0.027485136 -0.08167456 0.048330612 -0.012248101
000240 42 3b bd bd 3a 6f b8 3d aa f2 eb 3d 02 86 df 3c
       -0.09239818 0.0900559 0.11520894 0.02728558
000250 b9 a0 a4 3d f0 6f be 3c 35 6d 48 3d a3 04 3c bd
       0.08038468 0.023246735 0.048932273 -0.04590286
000260 53 f1 0a be da 43 ee 3d dc b5 08 bd 7b d7 6d bd
       -0.1356862 0.116340354 -0.03337656 -0.058066826
000270 4b de f0 3d f3 de 2b bd d0 cc e5 bc e4 45 1e bd
       0.11761149 -0.041960668 -0.028051764 -0.03864087
000280 d6 2b 95 3d d1 c6 f9 bd ad 2b 2e 3d ab e9 ce bd
       0.07283752 -0.12196124 0.04252212 -0.101031624
000290 8a 11 15 3e b8 f6 03 be d1 2f 5a 3d 25 63 a7 bd
       0.14557472 -0.12887084 0.053268258 -0.08173207
0002a0 5e bc 88 bb 4c 2e e7 3d 3f c5 e0 bc 2b 4d 96 bd
       -0.0041728457 0.11288127 -0.027437804 -0.07338937
0002b0 ab 0e 19 bd e3 a2 52 3c 17 3a f6 3c 22 46 96 bd
       -0.037367504 0.012856218 0.030056996 -0.073375955
0002c0 93 02 dd bc 36 a0 a6 3d d4 5d 05 be b2 a1 62 bd
       -0.026978767 0.081360266 -0.13024074 -0.055329986
0002d0 0f 2b 64 bd 1f 1f 48 3d 60 cd a2 3d a3 cc 66 3d
       -0.055705126 0.048857804 0.079493284 0.0563475
0002e0 ad 45 1c 3d af 05 d7 bd d9 55 ef bd 2d c8 d0 bd
       0.038152386 -0.10499131 -0.11686296 -0.101944305
0002f0 8c d1 ee 3c c1 5b df bd dd e8 f4 3d 3f e7 e7 bd
       0.029152654 -0.109061725 0.11958478 -0.113234036
000300 d7 ac 46 bd f7 c2 9a bd 10 7a 48 3d 42 62 8c bd
       -0.048504677 -0.07556718 0.048944533 -0.06854679
000310 c0 a2 b2 bd 7e f9 d3 3c f0 a6 67 bd 8c d8 f8 bd
       -0.08722448 0.025875803 -0.05655569 -0.12150678
000320 2e 1f 76 bd f8 59 56 3d 41 fd d2 3d f4 f9 aa 3b
       -0.06008833 0.052331895 0.103022106 0.005217785
000330 82 f3 9e 3c 49 19 35 bd 5c 5f 08 3e 11 26 34 bd
       0.019403223 -0.044213567 0.13317627 -0.043981615
000340 1c 87 b9 3d af c2 d9 3b f6 64 e0 bc 6b f2 81 3d
       0.09058973 0.0066455225 -0.027391892 0.06345066
000350 22 e0 db bd 20 96 de 3d 82 99 fc bc 6e 9c b8 3d
       -0.10736109 0.10868478 -0.030834917 0.090142116
000360 eb 95 f5 3c c8 50 06 be bf 70 c1 bd 8d c9 c5 3d
       0.029978713 -0.13116753 -0.09445333 0.096575834
000370 11 95 4d 3b 92 a5 88 3a f5 67 0a 3e a8 cf 39 bd
       0.0031369368 0.001042532 0.13516219 -0.045364052
000380 3d 0f 0d 3e 10 af 12 bd 3c 93 47 3d 5a 87 9b 3d
       0.13775344 -0.035811484 0.048724398 0.07594176
000390 40 14 36 bc 8e 99 cf bd a3 ce ac bd cb 51 ee bd
       -0.011113226 -0.1013671 -0.0843785 -0.116366945
0003a0 f2 fb 56 bd 07 f4 95 3c a4 25 41 bd a3 e6 cd 3d
       -0.052486368 0.018304838 -0.047155038 0.10053756
0003b0 c4 d4 d1 39 13 25 4f bd a3 02 85 3d e9 24 75 bd
       0.0004002211 -0.050572466 0.064946435 -0.059849653
0003c0 6c 52 54 bd 11 5d 90 3c a1 eb 97 bd 1e ea 86 3d
       -0.051836416 0.017622503 -0.074179895 0.06587623
0003d0 5e 84 34 3b bf 31 50 3d 17 24 46 3d 48 5a ff bc
       0.0027544717 0.05082869 0.04837426 -0.03117098
0003e0 a1 22 88 bd 37 63 75 bd 4d 6e fd b8 33 e6 11 3d
       -0.0664723 -0.05990907 -0.00012084525 0.035619926
0003f0 e6 42 3c bd 82 47 56 bd 21 3a fb bd 07 a6 16 3d
       -0.045962237 -0.05231429 -0.122669466 0.03677943

network.3.weight f4 [128, 256]
000000 84 cc 23 bd 68 15 2e 3d 9c c9 a8 3c 65 51 17 3d
       -0.039989963 0.042500883 0.020603947 0.03694286
000010 58 d2 0d bd 3f b5 61 3d 9f 75 3c bd 4f 97 da bc
       -0.034624428 0.05510449 -0.04601061 -0.026683478
000020 15 f2 44 3d ba 10 16 bd a2 9e cd bc 33 91 95 3b
       0.04808243 -0.036637045 -0.025100056 0.0045644282
000030 59 d9 96 bc ba 8a a7 3c 31 9b cd bb 93 3d ff bc
       -0.018414186 0.020451892 -0.006274604 -0.03115729
000040 a8 7d 73 bd 23 64 d5 3b 2f 13 40 39 57 f6 b2 bb
       -0.059446007 0.0065121814 0.00018317693 -0.005461495
000050 6d 28 02 3d e8 26 03 bd 28 3f 5e bb 0a 79 45 bd
       0.031776834 -0.032019526 -0.0033912156 -0.048211135
000060 13 8a 83 bd 5d 6d 4c bd 7d 20 7a 3c 4a 68 44 ba
       -0.0642282 -0.049908984 0.015266535 -0.0007492347
000070 0e 89 55 bd d8 8b 06 3c f4 26 3c 3d 6c f0 19 bd
       -0.05213266 0.008212052 0.045935586 -0.0375828
000080 06 68 60 bd 6b 95 62 3b 8c ec 46 3d 42 d0 18 3d
       -0.054786704 0.0034573923 0.048565432 0.037307985
000090 2a f0 54 3d d5 04 0c 3d 88 8d 5e 3c 6b 82 25 bd
       0.05198685 0.034184296 0.013583548 -0.04040758
0000a0 fe 05 1a bd 38 1f 53 3d 45 d8 73 3d a5 c4 a3 3c
       -0.03760337 0.051543444 0.059532423 0.019991228
0000b0 bc 95 7a bd 37 81 22 3d 49 ff 9e 3c 90 f7 3f 3c
       -0.061177954 0.03967401 0.019408839 0.011716738
0000c0 d2 d4 59 3d 66 4a 54 bc 57 7b 50 3d 71 f4 31 3c
       0.053181477 -0.012957191 0.050898876 0.010861502
0000d0 01 76 d2 bc 9d 31 7e 3c da d0 22 bd b6 ac 7d bd
       -0.025691034 0.015514758 -0.039749958 -0.061932288
0000e0 80 31 08 bd 80 03 a8 3c e0 09 3b 3d 41 53 34 bd
       -0.033250332 0.020509481 0.045663714 -0.04402471
0000f0 9a 14 13 bd aa 54 54 3d 26 7c 1f 3d f5 71 98 3c
       -0.03590832 0.051838554 0.038936757 0.018609026
000100 94 bd 4f bd 5e ed 14 3d 03 42 b4 3c 0e d0 e1 3c
       -0.050717905 0.036359183 0.022004133 0.027565029
000110 b8 35 3a bd e9 1b 1d 3d ca 14 1c 3d f4 08 f3 bc
       -0.045461386 0.038356695 0.038105763 -0.029667355
000120 56 96 11 3d 40 7b a5 bb fb 3b 48 3d c9 ad 06 bc
       0.035543762 -0.005050093 0.048885327 -0.008220145
000130 52 42 59 bc e9 f1 b3 bb c2 a6 c8 3c c7 58 06 3d
       -0.013260441 -0.0054914844 0.024493579 0.03279951
000140 00 dd d6 3c df 22 71 bc 30 e1 9d 3c 4a cb 32 bd
       0.026228428 -0.014717787 0.019272417 -0.043650903
000150 0d 79 30 3d 37 01 ae bc 9a 53 dd 3c 72 c6 60 bd
       0.043084193 -0.021240814 0.027017403 -0.054876752
000160 44 c8 f8 3c ae 1e c2 3c 31 04 37 3d 69 58 c1 3b
       0.030368932 0.02369627 0.04468173 0.005900432
000170 39 9c 93 3c b9 4a 63 bd 12 db 7d 3d 2c 43 d4 3c
       0.018018829 -0.055491183 0.0619765 0.025910936
000180 42 be 26 3d c6 57 0c 3d 60 d7 b9 3c 43 1a e6 bb
       0.040708788 0.034263395 0.022685707 -0.0070221736
000190 a9 d2 c9 bc 94 7d 0a 3b f1 0e 81 3d 60 04 0e 3d
       -0.024636583 0.002113198 0.06301678 0.03467214
0001a0 ed 2f f1 bc be c6 71 bd e3 8a e0 bc d0 c1 ac bc
       -0.029441798 -0.059027426 -0.027409976 -0.02108851
0001b0 67 e9 3e bc 64 2a 09 bd 88 38 6f 3d 26 70 62 bc
       -0.011652327 -0.033487692 0.05840352 -0.013820684
0001c0 1d fb aa 3c 61 91 1d 3d 95 4b 74 3d 5f c9 77 bd
       0.020871693 0.038468722 0.059642393 -0.060494777
0001d0 d4 a0 97 3c 63 40 0b bd 54 20 df 3a 9c c0 7d 3c
       0.018509306 -0.03399695 0.0017023184 0.015487816
0001e0 05 a2 d6 bc 4e 3b 05 bd 3b 39 f2 bc d5 bf 3c bd
       -0.026200304 -0.03252726 -0.029568305 -0.046081383
0001f0 e7 80 86 3c 2b 79 8f 3c 11 eb b3 3c 2e 7b e4 3c
       0.016418887 0.017513832 0.021962674 0.027890768
000200 ca 77 0a bb aa e0 92 3c ad 07 21 bd 79 e0 46 bd
       -0.0021128529 0.017929394 -0.03931396 -0.048553918
000210 1d 60 4e 3c 91 c6 56 3d 31 7b 6b 3c d6 c4 e8 bc
       0.012596157 0.05243546 0.014372633 -0.028414171
000220 8d d4 3a 3d 4d de 9b 3c ef 30 32 bd 28 2a 3d 3b
       0.04561286 0.0190269 -0.043503698 0.0028864238
000230 bb 9c 26 bd df f4 cf bc 0e c8 dd bc 09 3c 37 3c
       -0.040676814 -0.025385318 -0.027072933 0.011183747
000240 81 c0 5e 3b d0 3d 5e 3d a6 b1 69 bd f3 53 02 bd
       0.0033989253 0.054258168 -0.057054184 -0.03181834
000250 5c 86 1d 3d 81 d6 57 3d ae 1a 45 3d 56 20 c1 3b
       0.038458213 0.0526948 0.048121147 0.0058937473
000260 c7 a2 92 3c ea 4f b5 bc d3 f7 85 3c d2 38 22 bd
       0.017899884 -0.022132833 0.016353523 -0.03960497
000270 43 d9 42 bd 99 ca 2c bc 55 27 3a bd 1b 6a 69 3b
       -0.04757048 -0.01054635 -0.045447666 0.0035616222
000280 28 6e e5 bc b2 49 51 bc 48 c0 44 3b 8d 72 4f bd
       -0.028006628 -0.012773918 0.0030021835 -0.050646354
000290 4b 4b b2 bc b5 b3 b2 bc cf ab 9a bc 04 05 18 3d
       -0.021764418 -0.021814207 -0.018880753 0.03711416
0002a0 be da 2f 3c 27 f3 14 3d 4f f0 b8 bb 3b 2d 09 bc
       0.010733305 0.0363647 -0.0056438814 -0.0083726
0002b0 31 b1 04 3c 7b 9a 5c 3d c9 2a e3 3c 11 0a 64 bd
       0.008098886 0.05385826 0.027730362 -0.055673663
0002c0 b4 21 19 bd d7 2a d2 bc 5e a9 09 bc 6f 8a 20 bd
       -0.037385657 -0.025655193 -0.008402197 -0.03919452
0002d0 9f f4 4d 3d 0b 20 46 bd 6d 6e 7f 3d c7 7d c3 3c
       0.050282117 -0.048370402 0.06236117 0.023863686
0002e0 ff 0e 51 bb d9 65 40 bd 20 7d fc bb 52 df 7f bd
       -0.0031899808 -0.04697213 -0.0077053457 -0.062468834
0002f0 87 c1 96 bc 77 06 39 bc 86 e1 fa bc 3f 34 b1 bb
       -0.018402828 -0.011293045 -0.030625116 -0.0054078395
000300 0b bd 63 3c f7 04 12 bd 18 dc 03 3d ed f0 45 bd
       0.013900052 -0.035649266 0.03219232 -0.048325468
000310 0f 93 ae 3c fd c1 4e bd f6 43 6e 3d de 25 59 bd
       0.021310357 -0.05047797 0.05817028 -0.05301463
000320 67 10 54 3b b5 19 01 3c ec b3 e2 3c c7 85 a7 3b
       0.003235841 0.007879664 0.027673684 0.005112383
000330 cd 78 37 3c 20 ae ca 3c 20 f5 13 bd 12 0c 53 bd
       0.011198235 0.024741232 -0.03612244 -0.051525183
000340 99 08 61 bd 34 6b 8f bc 22 ba d9 3b aa 13 98 bc
       -0.05493984 -0.017507173 0.006644503 -0.018564064
000350 02 d9 0a bb d8 96 74 3c 7e 08 ba bc 31 15 06 bd
       -0.0021186476 0.014928542 -0.022709128 -0.032735053
000360 6a 21 c3 bb 0f ec 39 bd 15 72 78 3c 81 65 58 3d
       -0.005954911 -0.04539114 0.015163918 0.052831177
000370 5b cf 12 3b 7f 9e 4c 3d 13 b4 18 bc 15 93 8f bb
       0.0022401426 0.04995584 -0.009320277 -0.004381547
000380 04 d8 e5 bc 39 ba 1a 3d e7 3f d5 bc bb 6f 0d bd
       -0.028057106 0.037775252 -0.026031448 -0.034530383
000390 9b 48 6b bd 90 7a 77 3c 5f 3b d6 bc 33 63 30 3d
       -0.05744229 0.015104905 -0.026151357 0.043063354
0003a0 23 e8 5e 3d e0 da 29 bd d0 9f e3 3b 23 32 d5 3c
       0.0544206 -0.0414685 0.0069465414 0.026024884
0003b0 47 1b 42 bd 20 02 2c 3d 47 2c 91 3c 93 cf ad bc
       -0.047389295 0.041994214 0.017721308 -0.021217143
0003c0 a0 f6 b3 3c 6a 77 1a 3c 6b 4e 8a 3c 41 9c 0e 3d
       0.021968186 0.009427885 0.016883096 0.034816984
0003d0 5e 52 4d 3d c0 49 f2 bc ae 23 5d 3d 93 5a 5a bd
       0.05012738 -0.029576182 0.053989105 -0.053309035
0003e0 82 1f c9 3c ad a9 2f bc a4 8e 9e 3a 66 81 38 3d
       0.024551157 -0.010721606 0.0012096954 0.04504528
0003f0 4a ea 0f bd ef 32 29 bd d6 7f c7 bc 8b 5e 0a 3d
       -0.035135545 -0.04130834 -0.02435295 0.03378157

network.3.bias f4 [128]
000000 04 52 64 bc e0 ea 0c 3d 19 e9 5d bc 7f 10 4b bd
       -0.01393557 0.03440368 -0.013544344 -0.04957628
000010 9a cb f6 bc f9 8f 3b bd fd d9 f2 ba bd 42 42 bd
       -0.030126382 -0.0457916 -0.00185281 -0.047426928
000020 16 04 72 bd 1a 6d 8f bc 8a bc 05 3c e9 1a 51 bb
       -0.059085928 -0.017508078 0.008162627 -0.003190691
000030 4e c4 f9 ba 3c 95 b2 bc 0c 36 d8 bc 84 49 e3 3c
       -0.0019055696 -0.021799676 -0.026392959 0.027745016
000040 a2 0c 17 bd f7 82 1c 3b 9c d5 59 bd a3 f4 63 bd
       -0.036877282 0.0023881772 -0.05318223 -0.055653226
000050 2d 48 6d 3b 14 d2 ad bc dd 36 6d 3c f5 42 11 3d
       0.003620635 -0.021218337 0.014478412 0.035464246
000060 62 ef 07 bd 73 ec 49 bd c2 6c 42 bd 0e cc c1 bc
       -0.033187278 -0.04929776 -0.047467 -0.023656871
000070 75 74 4e bd 08 31 3f 3d bf 9f 80 3b c6 e9 1a 3c
       -0.05040403 0.04667762 0.003925293 0.00945515
000080 23 0e d4 3c 46 cc 9f bc 59 33 ec 3b 29 44 41 3d
       0.025885647 -0.019506585 0.0072082696 0.047184143
000090 25 ce 5b 3d 9f 0b 87 3b 35 35 4e 3d df e0 14 3d
       0.05366339 0.0041212584 0.05034371 0.036347266
0000a0 08 72 06 3c 99 ab 22 3d 72 c6 df 3c 5c 11 fb bc
       0.008205898 0.03971443 0.027316306 -0.030647926
0000b0 3a b6 f7 bb 7a f5 09 bd f7 90 22 3d 5d 08 0a 3d
       -0.007559565 -0.03368137 0.03968903 0.033699382
0000c0 dd bc 62 bb 87 02 e6 bc 43 cd 3e bd 1a 98 64 3c
       -0.0034597435 -0.028077377 -0.04658247 0.013952279
0000d0 99 d5 31 3d 15 d9 21 bd 44 e0 6f 3c 6c 70 a1 3c
       0.043416593 -0.039513666 0.014640871 0.019706927
0000e0 fe 3f 65 3d 4b a2 39 3d a4 f5 a2 bc 3b 91 e7 3c
       0.05596923 0.04532079 -0.019892521 0.028267493
0000f0 5a 4e 43 3c 5a 71 1b 3d 95 2a 12 3a 97 ce 1c 3d
       0.011920536 0.037949897 0.0005575803 0.038282957
000100 6c 09 f1 bc 73 9d c9 bc d0 78 ac bc b4 09 13 3d
       -0.029423438 -0.02461121 -0.021053702 0.035897925
000110 6c d2 db bb 4a 47 6b bc 64 49 5a 3c 67 0e 1a bd
       -0.006708434 -0.014360258 0.013323162 -0.03761139
000120 35 39 72 bd eb cd 0b bd 9d cc 71 3c 09 77 5b bd
       -0.059136588 -0.034131926 0.014758256 -0.053580318
000130 0a 1e 5b 3d 63 e2 22 bb b5 5a ab 3c 0c dd 62 3d
       0.053495444 -0.0024854175 0.020917276 0.055386588
000140 10 a6 51 bd 2c 60 5e 3c 7b 56 ee bb 74 60 45 3d
       -0.05118376 0.013572734 -0.007273493 0.048187688
000150 c4 10 67 bd 14 2b a4 bb 51 31 44 bd 15 a1 2f bd
       -0.056412473 -0.005010018 -0.047898594 -0.04287823
000160 14 8a 00 bd 13 38 2b 3d 46 c2 5a bc 78 d0 bc 3b
       -0.03138168 0.041801523 -0.013351982 0.005762156
000170 d9 d0 cf 3c d8 42 70 3c f7 9a 2d 3d 6a 03 16 bc
       0.025368141 0.014664374 0.042384114 -0.009156087
000180 b7 05 02 bd 12 d4 cf bb 22 55 d3 3b 18 6e c7 3c
       -0.03174373 -0.0063424194 0.0064493576 0.024344489
000190 3c 94 eb bc 72 6e 57 bd 84 5e 23 bd d1 c8 60 bd
       -0.028757207 -0.052595563 -0.03988506 -0.054879013
0001a0 09 60 40 3d 84 32 74 bd 75 7d 5d 3d 42 97 19 3d
       0.046966586 -0.059618488 0.054074723 0.037497766
0001b0 63 73 49 3d 66 63 b2 bb 18 03 91 b9 34 91 19 bd
       0.049182307 -0.005443978 -0.0002765886 -0.037491992
0001c0 6b cc 6b bc c1 9b ac bc c3 03 75 3c c8 f9 95 3c
       -0.014391999 -0.021070363 0.01495451 0.018307582
0001d0 04 ec 24 bd ae 5a fd 3c c4 ba 0e 3c ba 4d 2b bc
       -0.040264145 0.030927029 0.008711521 -0.010455543
0001e0 4d db fd bc ff 05 c2 bc d7 40 0b 3c a6 17 8d 3c
       -0.03098836 -0.0236845 0.008499346 0.01722319
0001f0 0b 0b 30 3c 98 34 df bc 72 57 6a bc 92 60 b0 3c
       0.01074482 -0.027246758 -0.014303075 0.021530423

network.6.weight f4 [1, 128]
000000 b0 86 78 3d 94 b2 25 bd 9c c6 8b bd 88 2b a9 3d
       0.060675323 -0.04045351 -0.06824991 0.08260256
000010 90 dd 60 3d e9 89 a0 3d a1 30 83 3c bb 35 99 3d
       0.0548988 0.07838804 0.016014399 0.074809514
000020 09 9e a9 3d 23 17 19 38 c5 69 8c bd 50 18 f3 3c
       0.08282096 3.649959e-05 -0.068561114 0.029674679
000030 90 8d ae bd d0 27 be b8 75 61 04 bc e3 54 33 3d
       -0.08523095 -9.067322e-05 -0.008079876 0.043782126
000040 96 9a 56 3d a4 29 f7 39 9a a0 82 bd 2d b2 80 bd
       0.05239352 0.00047142536 -0.063782886 -0.06283984
000050 0b 97 98 3d ae ee 18 3d 5f 3a 60 3d e9 35 d9 bc
       0.07450684 0.037336998 0.054743167 -0.026514964
000060 6f f0 7f 3d 38 bc 9a bc 98 e4 4c bd 40 43 e8 bb
       0.062485155 -0.018888578 -0.05002269 -0.007088095
000070 82 86 9c 3d 5f 32 7e bd a6 5a 6c 3d a6 ef 8f 3d
       0.07642843 -0.062059756 0.057703637 0.07028131
000080 e9 13 8b 3c 57 9b 21 bd 67 1d 53 3d 5b 6f 82 bd
       0.016977267 -0.039454784 0.051541712 -0.063688956
000090 72 0f bd 3c b5 dd a9 bd 79 72 c0 bc 8f c3 dd 3c
       0.023078654 -0.082942404 -0.023492085 0.027070789
0000a0 c9 4a 7a bd 4c c2 25 bd 28 52 81 3d 7f 53 4c 3d
       -0.061106477 -0.0404685 0.06314498 0.049884316
0000b0 fc f7 0a bd 82 d2 0b 3d be 85 9f bd e1 58 1c bd
       -0.033927903 0.034136303 -0.07789181 -0.0381707
0000c0 eb da 17 3d c8 e9 21 3d 0d 92 85 3d d6 96 f8 bc
       0.03707401 0.03952959 0.065219976 -0.030345362
0000d0 e1 40 b5 bc ca d4 b1 3c ff 15 04 3d 9f b3 0e 3b
       -0.022125663 0.021707911 0.03224754 0.0021774543
0000e0 cb 4d 8b 3c 04 01 f2 3a 27 45 92 bb b2 1f ec 3c
       0.017004868 0.0018463437 -0.00446381 0.028823707
0000f0 f7 10 35 bd 61 2d 4e 3d a8 2b 2f 3d 4a c7 0a 3d
       -0.044205632 0.050336245 0.042766243 0.033881463
000100 41 15 9b bc 08 3b 8f bd ce c2 34 3d 1f ca 04 3c
       -0.018931033 -0.06993681 0.044131093 0.00810483
000110 1c b3 cb 3c b4 5b 38 bd 39 78 c3 3c dd 88 99 3d
       0.02486568 -0.04500933 0.023861038 0.07496808
000120 fa b9 04 3d 29 ce e5 bb fd 93 88 bc 69 42 11 bc
       0.032403924 -0.0070131016 -0.016672129 -0.008865931
000130 71 41 62 bd b9 ad 18 3d 66 4f 6b bd 54 ce 33 bd
       -0.05523819 0.03727505 -0.057448767 -0.04389794
000140 33 c4 f7 bb b9 22 b2 3b 8b c2 1a bd ef b2 26 bd
       -0.0075612306 0.005436268 -0.037783187 -0.040697988
000150 d1 0a 6b 3c 23 d9 9e 3d 15 82 21 3c 55 4b 14 bd
       0.014345841 0.07756259 0.009857674 -0.036204655
000160 95 89 8d bd fd 34 86 3d ce e6 9f 3d 6b 62 0b bd
       -0.06911007 0.065530755 0.078076944 -0.034029406
000170 bc 81 83 bd eb 71 6f 3c 37 af 13 3d 69 ac 30 3d
       -0.06421229 0.0146145625 0.03605577 0.043133173
000180 ac 7d 8a 3d 31 54 a2 3c c3 76 02 bb 74 2d 71 3c
       0.06762251 0.019815536 -0.0019907213 0.0147203095
000190 95 f8 09 3d 60 58 0b bd 65 bb 4f bc 5b 7f a5 3d
       0.033684332 -0.034019828 -0.012678956 0.08080932
0001a0 98 ed 0c bd ae 36 be 3c 17 4b 69 bd a2 fc e1 3c
       -0.034406275 0.023219433 -0.056956377 0.027586285
0001b0 61 fc 80 3d bf 41 5f 3c 43 54 96 3d a7 63 7b bd
       0.062981375 0.013626515 0.073402904 -0.061374333
0001c0 ae db 7b 3d c5 1b 89 bd 09 00 a0 bd 0a 5a 49 3d
       0.0614888 -0.0669475 -0.07812507 0.049158134
0001d0 73 c5 8e bd a5 84 7a bd e6 74 9d bd 6a cd d4 3b
       -0.06971254 -0.061161656 -0.07688312 0.006494214
0001e0 a0 2f ca 3c 32 6e 0b bd 89 32 9a 3d 92 3e bb 3c
       0.024680912 -0.034040637 0.0752917 0.022856984
0001f0 22 da 20 bd d1 4f 7b bd e4 b9 1c 3a a3 f3 95 3c
       -0.039270528 -0.061355416 0.00059786276 0.018304652

exp_avg f4 [256, 45]
000000 68 f3 ec b8 82 4c 11 ba 43 3a 78 b9 43 15 b5 b8
       -0.00011298695 -0.00055427116 -0.00023672827 -8.634713e-05
000010 11 9f 14 b8 9e b7 e7 b7 77 0e e8 b8 98 f6 a1 b9
       -3.5434092e-05 -2.762285e-05 -0.00011065316 -0.0003089204
000020 f1 f2 c2 b9 cf 12 2b 3a 0e 33 ad b9 82 ba 10 b9
       -0.0003718357 0.0006525935 -0.0003303517 -0.0001380239
000030 d8 51 f0 b9 92 c8 60 b7 40 72 4c b9 05 30 a3 b7
       -0.00045837346 -1.3398139e-05 -0.00019497517 -1.9453475e-05
000040 83 69 61 ba d7 fc bb b9 87 2e 99 38 9b 92 23 38
       -0.00085987913 -0.000358558 7.304275e-05 3.8998765e-05
000050 2a 11 dc b8 ec 3e ee 38 df 1a 0c b9 d6 f0 45 b9
       -0.000104936145 0.000113604445 -0.0001336145 -0.00018877102
000060 c1 b8 85 38 20 2f 26 b9 55 a0 84 38 c4 9f 1d b8
       6.376347e-05 -0.00015848549 6.324115e-05 -3.758051e-05
000070 16 e0 89 b9 42 66 1c b6 e7 c9 14 ba 5d c6 6a b7
       -0.00026297633 -2.3305333e-06 -0.0005675838 -1.3993672e-05
000080 54 cf 00 b9 08 c0 35 ba 38 95 61 b9 74 47 f6 37
       -0.00012284267 -0.0006933217 -0.0002151326 2.9358758e-05
000090 7d 0b dd b8 44 36 82 37 29 0b 26 b9 45 70 e7 b9
       -0.00010540241 1.5522477e-05 -0.00015835151 -0.000441434
0000a0 65 7d 8d b8 b0 3b f2 b9 dc a8 75 b9 57 01 d6 b9
       -6.7467605e-05 -0.00046202308 -0.00023427926 -0.0004081826
0000b0 10 dd 94 b9 1c e8 d7 38 d6 ed 84 b8 37 6b 7a b9
       -0.00028393464 0.00010295233 -6.338551e-05 -0.00023881799
0000c0 be e0 cd b8 4b dc d8 b8 a4 ef 9c 39 d9 b0 87 38
       -9.817023e-05 -0.000103407154 0.00029933185 6.470242e-05
0000d0 ac 84 c0 38 ae 6d c3 b8 f9 88 23 b9 14 f8 2a 39
       9.1799855e-05 -9.318754e-05 -0.00015595918 0.0001630488
0000e0 99 03 a9 b8 ca b2 22 39 f6 3e b1 b8 d0 08 dc 38
       -8.059218e-05 0.00015516128 -8.451745e-05 0.00010492059
0000f0 9b dc c2 38 35 7b 61 38 c2 86 84 38 9e a9 23 38
       9.291732e-05 5.3758926e-05 6.319351e-05 3.9020197e-05
000100 1c cc 50 38 41 c3 bb b8 68 dd 68 b8 82 20 96 b8
       4.9781156e-05 -8.953224e-05 -5.551931e-05 -7.1586124e-05
000110 27 ff 81 38 b8 a5 ac b8 00 4d bd 37 93 7d bd 36
       6.198725e-05 -8.232467e-05 2.2566412e-05 5.6472577e-06
000120 bd dc 91 38 60 55 d0 36 36 19 d0 35 ee be f6 b8
       6.9552545e-05 6.208822e-06 1.5504545e-06 -0.000117657575
000130 7b a1 87 b8 97 fa ce 39 76 bd 4e b9 a3 84 3e b8
       -6.46738e-05 0.00039478086 -0.0001971627 -4.5423058e-05
000140 56 56 10 37 92 07 ac 38 f4 75 31 39 e5 f8 91 39
       8.6031705e-06 8.203009e-05 0.00016923976 0.00027841996
000150 c2 09 06 3a b7 72 26 b9 32 87 ac b8 d8 e3 19 b9
       0.00051131484 -0.00015873728 -8.226781e-05 -0.00014676095
000160 f1 8b 20 ba 06 d7 6a 39 c6 f4 40 38 55 38 42 b8
       -0.00061243685 0.00022396081 4.600433e-05 -4.6305668e-05
000170 3f ca fe 37 f4 2e b9 b7 9a 7c 1b 39 5b 40 25 b9
       3.0373338e-05 -2.2075583e-05 0.0001482837 -0.000157596
000180 b2 55 9b b7 a8 ce 3c b7 c0 a9 0f 36 dd d2 60 39
       -1.8517345e-05 -1.1253789e-05 2.1407468e-06 0.00021440857
000190 ea 84 55 b9 20 f6 14 39 48 53 bc 37 d2 14 2b b8
       -0.00020362777 0.00014206069 2.2450127e-05 -4.0788967e-05
0001a0 38 dd e6 37 43 f5 8f b8 7c fa 47 b7 f8 fd 4a b9
       2.752115e-05 -6.864455e-05 -1.1919645e-05 -0.00019358832
0001b0 4f 17 14 b7 00 69 9c b8 8b 31 a7 37 92 c1 8d 39
       -8.826914e-06 -7.4582174e-05 1.9931022e-05 0.00027037837
0001c0 db 7b 7c b6 d5 e6 0c 38 ed 9d ab 35 94 b6 a9 38
       -3.762302e-06 3.359358e-05 1.2786455e-06 8.092556e-05
0001d0 fd 0f 7f 37 30 a1 fc b7 a3 ec e3 37 b4 da 00 b7
       1.5202907e-05 -3.01158e-05 2.7170701e-05 -7.680315e-06
0001e0 3b b8 3d b9 98 d7 e8 b8 5e dd 29 39 9b ed 06 b7
       -0.00018093076 -0.000111027795 0.00016199562 -8.042344e-06
0001f0 40 c8 3c b7 86 30 de 38 2a 13 1d 38 11 e6 7a b8
       -1.1252298e-05 0.00010594823 3.7449565e-05 -5.981891e-05
000200 f3 43 33 b7 d2 ed a5 b8 fd 73 08 3a b6 3a d3 b9
       -1.0685052e-05 -7.9121106e-05 0.0005205272 -0.000402888
000210 cf 78 98 b8 20 95 05 b8 e6 49 c1 b8 48 ef 41 38
       -7.270427e-05 -3.1848554e-05 -9.216722e-05 4.6237634e-05
000220 2e fd 36 39 81 3c de 38 ee a2 3d b8 c1 96 3a 38
       0.0001745119 0.00010597055 -4.521285e-05 4.4486256e-05
000230 85 cd 8f 38 3b db 87 b8 0c 69 c5 39 47 b7 2b 37
       6.857052e-05 -6.4781365e-05 0.00037653034 1.0235067e-05
000240 ff c1 2b b9 a2 dc 19 3a 45 58 a4 39 8d 37 ae 38
       -0.000163801 0.00058693637 0.00031346284 8.307314e-05
000250 01 32 a5 b7 3a 24 33 39 d2 4b 9a b6 5b 52 ad 38
       -1.9692818e-05 0.00017084266 -4.5983843e-06 8.264623e-05
000260 ce d9 53 3a 42 60 4e b7 c5 10 03 39 89 bc e5 38
       0.00080814667 -1.2300969e-05 0.0001249938 0.00010954688
000270 01 f5 0f b9 cf ac 10 b9 e6 8e 86 39 a3 86 f8 b7
       -0.00013728814 -0.00013797286 0.0002566494 -2.9626599e-05
000280 94 18 de 38 49 b9 40 37 e0 03 50 b8 3a 79 ae 38
       0.00010590363 1.1487232e-05 -4.9594673e-05 8.319547e-05
000290 dd d7 7f 36 66 10 bb 39 07 80 3e 39 fe 05 01 3a
       3.812361e-06 0.00035679637 0.00018167506 0.00049218524
0002a0 be 96 71 38 dc 54 a1 38 0d b5 02 39 a7 74 7e 39
       5.7599267e-05 7.6928845e-05 0.00012465213 0.00024266784
0002b0 2d 1d 87 b8 e0 e8 c0 3a 2d d1 25 b7 ba fe 6d b8
       -6.442736e-05 0.001471784 -9.883469e-06 -5.6742436e-05
0002c0 e8 ee 4d 3a 4e f3 41 b8 c4 1f 07 b7 70 48 e0 b9
       0.0007855729 -4.624138e-05 -8.054023e-06 -0.0004277858
0002d0 01 d4 2f 39 f1 48 c3 38 e1 48 a8 38 9a 16 1d 39
       0.00016768278 9.311911e-05 8.024439e-05 0.00014981107
0002e0 33 b6 41 b8 47 fc d5 b8 b1 13 fe 38 a6 de 8d 38
       -4.6184472e-05 -0.00010203622 0.000121153316 6.7648754e-05
0002f0 72 27 82 b7 70 22 36 b9 28 5a 76 38 d8 43 96 b8
       -1.5515576e-05 -0.00017369702 5.8734935e-05 -7.165194e-05
000300 27 d5 e9 38 e7 b5 9f 38 58 58 46 b7 2a e7 a8 37
       0.000111500085 7.615593e-05 -1.1822289e-05 2.0134805e-05
000310 c8 62 57 38 99 46 9f 38 da ae 80 38 f7 c2 10 38
       5.135199e-05 7.594861e-05 6.136084e-05 3.451385e-05
000320 60 b2 43 b8 bd 06 03 b9 a0 5f 60 37 67 df ee 38
       -4.6657748e-05 -0.00012495644 1.3373705e-05 0.00011390336
000330 d6 ba a1 38 ce 05 0c b7 e8 32 f3 b6 79 3a 7b 39
       7.711879e-05 -8.346002e-06 -7.2478906e-06 0.00023959008
000340 dc 37 81 b8 72 b4 01 b5 e7 f4 0d b9 25 40 88 37
       -6.161604e-05 -4.831883e-07 -0.00013538041 1.6242333e-05
000350 0c 9f df 38 e8 62 03 b7 e4 07 3a 38 ba 97 26 b8
       0.000106630934 -7.831237e-06 4.4353204e-05 -3.971879e-05
000360 e4 a9 8b 38 7e c6 1e 39 44 ac d0 b8 f3 d4 26 b8
       6.659681e-05 0.00015141998 -9.9503e-05 -3.977581e-05
000370 13 48 b1 b6 25 c3 51 39 8c e0 05 3a 2c ab a2 37
       -5.2834016e-06 0.0002000449 0.00051070075 1.9391613e-05
000380 31 0a 21 b9 d7 ea 51 39 0f 30 56 b8 47 36 8f 39
       -0.00015357953 0.00020019278 -5.1066334e-05 0.00027315525
000390 fc 52 da 38 f9 c0 27 39 c9 f6 6f 39 bb 9e 99 39
       0.00010410507 0.00015998249 0.00022884751 0.00029300697
0003a0 17 9c ae 39 a5 f3 e8 39 66 08 29 39 4e 7f 1c 39
       0.00033304162 0.00044432018 0.00016120225 0.00014924744
0003b0 15 92 25 3a 01 0c e4 b8 a0 86 61 39 f7 ff 90 39
       0.00063160184 -0.00010874123 0.00021507824 0.0002765653
0003c0 e8 75 75 b8 04 dc f1 39 f7 f8 45 3a 5c 14 ea b6
       -5.852236e-05 0.00046131026 0.0007552052 -6.9761136e-06
0003d0 e0 7f c1 38 a8 8a 14 39 4e 8a 7f 39 1c 4f f4 38
       9.226776e-05 0.00014166033 0.00024370218 0.00011649562
0003e0 b6 11 39 38 f3 d0 19 b7 59 fe 4b 39 b8 aa 98 36
       4.412393e-05 -9.16816e-06 0.0001945434 4.5498273e-06
0003f0 84 06 1b 39 56 cc 0a 38 fa 0b 1b 37 b0 d9 dd 37
       0.00014784379 3.3092067e-05 9.241508e-06 2.6446622e-05

exp_avg_sq f4 [256, 45]
000000 89 94 99 35 35 d0 97 35 dc 65 2e 35 55 81 b1 34
       1.1442618e-06 1.1310973e-06 6.4968276e-07 3.306292e-07
000010 71 17 18 35 98 80 bb 35 36 57 23 35 ab 67 f1 35
       5.6658524e-07 1.3970011e-06 6.084914e-07 1.7986071e-06
000020 04 15 51 35 3e 67 e9 35 34 e8 82 35 88 22 8e 35
       7.788915e-07 1.73899e-06 9.753335e-07 1.0589874e-06
000030 24 46 84 35 a9 c0 9a 34 54 d3 ed 34 2d 35 73 34
       9.85518e-07 2.8824914e-07 4.4298451e-07 2.2650484e-07
000040 4c e6 96 36 2a 77 07 37 ac 8f d7 31 a0 04 79 34
       4.4971584e-06 8.074372e-06 6.273657e-09 2.3191615e-07
000050 c6 88 9e 34 ff e7 b4 35 70 91 30 35 e3 59 15 34
       2.952931e-07 1.3478565e-06 6.577675e-07 1.3909407e-07
000060 a4 3f af 32 18 c5 b7 33 74 78 a9 31 7a 7f 36 34
       2.0401622e-08 8.557453e-08 4.9322413e-09 1.6996447e-07
000070 0e 68 c5 33 12 a1 e3 2e 50 70 86 35 e6 cb 44 35
       9.192455e-08 1.0351377e-10 1.0016465e-06 7.33124e-07
000080 54 6f 31 36 a0 49 e9 35 38 10 a4 35 3b 53 c5 35
       2.6439857e-06 1.738128e-06 1.2223672e-06 1.4701867e-06
000090 78 48 3a 35 b6 93 bf 35 c7 f6 1b 36 01 00 c0 36
       6.9395855e-07 1.4273598e-06 2.3240443e-06 5.7220464e-06
0000a0 d9 8a cd 35 7f 47 45 36 4d 90 27 36 0f ae b3 36
       1.53141e-06 2.9396904e-06 2.4968933e-06 5.354879e-06
0000b0 6a ad 1e 37 3f 02 41 35 15 68 32 35 a5 97 fe 34
       9.45791e-06 7.190137e-07 6.6461627e-07 4.7421523e-07
0000c0 03 5e 92 34 a0 71 fb 34 3f 77 0d 36 4e e3 e2 34
       2.7263022e-07 4.6835066e-07 2.1080048e-06 4.2261166e-07
0000d0 4b 7e db 35 2e 8e 02 35 86 fa f7 35 48 f8 6b 35
       1.6353528e-06 4.863567e-07 1.8475846e-06 8.790562e-07
0000e0 05 f6 c5 35 29 2b c1 34 fe 90 3a 34 8e 08 0f 35
       1.4749245e-06 3.5980455e-07 1.7375348e-07 5.32841e-07
0000f0 7a cc 2e 34 6d 38 7c 36 c2 75 d6 36 0e 17 09 31
       1.6279401e-07 3.758377e-06 6.391406e-06 1.994923e-09
000100 30 30 12 34 b3 b2 ac 34 23 5f ca 35 a7 d6 34 35
       1.361484e-07 3.2167517e-07 1.5077861e-06 6.7367586e-07
000110 4f f4 05 34 20 43 f5 32 a4 73 ea 33 10 5f 64 2f
       1.2475469e-07 2.8552279e-08 1.0917509e-07 2.0770252e-10
000120 17 0a 1d 34 b8 f5 ac 33 f4 4d bf 2e f0 fa 84 35
       1.4625435e-07 8.05407e-08 8.699522e-11 9.907799e-07
000130 06 14 2c 35 8b 01 09 36 85 12 bf 35 1f 2e 96 35
       6.410413e-07 2.041549e-06 1.4235999e-06 1.1189294e-06
000140 30 f2 96 35 04 8f 43 35 76 02 de 35 b0 58 0b 36
       1.1246357e-06 7.2851276e-07 1.6541005e-06 2.0764237e-06
000150 60 ce e6 36 69 6d 60 36 e5 4e 5f 36 47 32 e2 35
       6.8785594e-06 3.3442286e-06 3.3275512e-06 1.6852945e-06
000160 89 2f 81 36 5b b6 bb 36 7a 7d 43 34 c6 0d 30 32
       3.8500334e-06 5.5942633e-06 1.8206438e-07 1.024768e-08
000170 fa 5a f0 32 58 41 39 32 b7 25 25 34 32 d3 a6 32
       2.7981049e-08 1.0783275e-08 1.5380543e-07 1.9420984e-08
000180 f3 b6 3a 33 77 ca 0f 34 dc 00 92 32 5c 4a 8f 34
       4.347289e-08 1.3391569e-07 1.6997028e-08 2.668993e-07
000190 ff d8 3c 34 f8 80 ad 33 03 0b 34 32 52 a9 22 31
       1.7587807e-07 8.0793995e-08 1.0479883e-08 2.367035e-09
0001a0 5c 07 b5 32 14 db 6b 32 a1 fc 00 34 c9 fe 80 35
       2.107452e-08 1.3728613e-08 1.2012835e-07 9.610895e-07
0001b0 e5 d1 9b 2f 7a 6d fb 31 b2 1d eb 32 b2 e1 f4 33
       2.8343475e-10 7.3175075e-09 2.7371104e-08 1.1403189e-07
0001c0 0c da 04 32 7b a8 36 33 38 c2 0d 30 a2 ae 39 32
       7.732989e-09 4.252841e-08 5.15715e-10 1.0808124e-08
0001d0 a2 d4 09 30 19 52 06 33 c1 3c eb 30 76 b0 87 2f
       5.014248e-10 3.1273974e-08 1.7115768e-09 2.468174e-10
0001e0 20 70 9c 34 f0 50 19 33 8a 43 54 34 56 1d 93 33
       2.9138846e-07 3.56967e-08 1.9768609e-07 6.850557e-08
0001f0 76 dc a2 32 3e 3a 5b 33 32 fd 4f 34 20 8d 35 34
       1.8959536e-08 5.1042882e-08 1.9370489e-07 1.690828e-07
000200 8b f5 d2 32 24 e9 29 32 81 5b 97 35 3a 91 42 35
       2.4558878e-08 9.890105e-09 1.1277008e-06 7.2481964e-07
000210 cb 22 8f 32 0e a0 ff 33 2a 56 5f 34 46 93 df 34
       1.6663213e-08 1.19034766e-07 2.079984e-07 4.1644142e-07
000220 ca 29 d6 34 68 92 90 33 de 36 98 33 12 52 0f 34
       3.9891012e-07 6.732154e-08 7.088032e-08 1.334777e-07
000230 3e 1d ab 34 96 9b e7 31 49 5f 20 36 e2 13 51 32
       3.1872509e-07 6.740673e-09 2.3897321e-06 1.2169922e-08
000240 e9 a2 b8 35 49 04 80 35 45 6c f5 35 93 5e 89 35
       1.3756481e-06 9.53799e-07 1.8285433e-06 1.023482e-06
000250 fe cb 89 33 d5 3e 88 34 2a 60 83 33 65 82 97 35
       6.4166656e-08 2.537769e-07 6.117655e-08 1.1288327e-06
000260 27 7e bb 36 9b 21 15 30 9e 23 8a 34 25 df 8a 34
       5.5877204e-06 5.425364e-10 2.5730418e-07 2.5866862e-07
000270 d5 1f 7b 35 6f 66 76 35 8a f2 2f 34 3a e1 57 32
       9.355111e-07 9.17912e-07 1.638638e-07 1.2565858e-08
000280 79 20 bd 33 cb b2 cd 2f 93 6b 28 34 c6 13 e5 33
       8.806905e-08 3.7416323e-10 1.5685355e-07 1.066724e-07
000290 cc 69 2c 2f f7 ad af 35 5e 95 1b 35 d5 40 fb 35
       1.5680895e-10 1.3089146e-06 5.795936e-07 1.8719826e-06
0002a0 e5 93 ab 34 d3 d4 4b 35 94 cf 90 34 e0 09 cc 34
       3.195884e-07 7.5933093e-07 2.6973123e-07 3.8005146e-07
0002b0 b3 1a 91 35 ce 46 6a 36 fd 57 cb 35 29 8d 80 31
       1.0811112e-06 3.490993e-06 1.5150287e-06 3.7413384e-09
0002c0 45 49 68 36 9e f3 0e 35 cc 2b af 33 a3 aa 23 37
       3.4613342e-06 5.325363e-07 8.157039e-08 9.755287e-06
0002d0 13 91 16 35 fd 41 ba 34 4a 72 b8 34 94 9a 0e 34
       5.6090465e-07 3.4693213e-07 3.4355827e-07 1.3281016e-07
0002e0 60 10 38 33 70 11 99 35 5c f5 68 34 df 8e 3c 36
       4.285573e-08 1.1404463e-06 2.1695945e-07 2.8097345e-06
0002f0 d7 25 93 33 df e3 52 34 e3 ea d6 34 5e 70 10 33
       6.852104e-08 1.9640673e-07 4.003151e-07 3.362981e-08
000300 ca fb 63 35 3c da 31 35 94 37 07 32 cb 19 17 33
       8.493049e-07 6.625521e-07 7.870671e-09 3.5180886e-08
000310 66 53 19 35 aa 17 bf 36 e7 56 96 31 46 29 f2 32
       5.71183e-07 5.6949984e-06 4.375454e-09 2.8191277e-08
000320 88 37 40 33 51 69 82 34 0b 37 05 35 e8 a6 98 34
       4.475399e-08 2.4291015e-07 4.962646e-07 2.8433647e-07
000330 8e 98 4e 32 e8 21 0e 33 ed 5d 7d 2f 6b 08 98 34
       1.2025465e-08 3.309279e-08 2.3043585e-10 2.831833e-07
000340 8b c9 f9 32 c4 04 29 2e e4 34 54 35 dd 17 cd 34
       2.9079066e-08 3.8430384e-11 7.905312e-07 3.8201588e-07
000350 cc e5 94 35 fc ce 95 33 e2 82 da 34 f2 aa a5 34
       1.1093739e-06 6.9760034e-08 4.0700894e-07 3.0858024e-07
000360 2c 33 d4 34 ac bd d1 35 b9 d9 a8 34 1f 0b 1a 32
       3.952531e-07 1.5626915e-06 3.1450853e-07 8.966508e-09
000370 dc 02 f2 33 de 7d ac 36 44 02 6b 35 99 46 49 34
       1.1269523e-07 5.1406523e-06 8.754762e-07 1.8745267e-07
000380 ba c2 d8 36 02 9a a6 35 84 34 02 35 01 99 37 35
       6.459971e-06 1.2412786e-06 4.8505194e-07 6.839546e-07
000390 ed 64 40 34 2c e3 cc 34 c9 e8 61 35 e0 cb 6c 35
       1.791811e-07 3.816325e-07 8.415778e-07 8.821353e-07
0003a0 c5 4c c5 35 a2 54 3d 35 75 ff eb 35 85 5a b4 34
       1.4699987e-06 7.0531144e-07 1.7583212e-06 3.3593474e-07
0003b0 fc 13 c4 35 d3 b0 46 34 ae b8 d0 34 97 44 1f 35
       1.4608954e-06 1.8504515e-07 3.887739e-07 5.9331927e-07
0003c0 44 50 3f 34 5c 40 80 36 41 a6 d3 36 7f dd f1 2f
       1.7817462e-07 3.8221897e-06 6.3076445e-06 4.3995027e-10
0003d0 4a 31 68 34 cd bf 8c 34 bf 3a f9 35 82 ec 09 35
       2.1624615e-07 2.6216586e-07 1.8569043e-06 5.138064e-07
0003e0 80 e3 1d 34 0d 1a bc 32 db 5b f7 33 94 bc ce 2e
       1.4704528e-07 2.1897927e-08 1.1518542e-07 9.4012936e-11
0003f0 ea 93 10 34 35 63 b9 33 74 1c 7e 2f 7a 3c a3 34
       1.3464856e-07 8.6327795e-08 2.3111274e-10 3.0405118e-07
