models/regression_models/ML_including_industry_feature/single_dimension/negative_warnings/version_best/checkpoints/epoch=59-step=1860.ckpt (torch, 675291 bytes, 27 tensors)

network.0.weight f4 [256, 45]
000000 3e ed 8e b7 23 85 19 bb 5d 99 5c bd 8e 2b 94 3d
       -1.7038194e-05 -0.0023425303 -0.053857196 0.0723487
000010 20 cf dc 3b b0 07 42 3b 41 72 b0 bc 41 7b bb 3c
       0.0067385584 0.0029606633 -0.021538856 0.02288592
000020 fb 5d b9 3a 01 95 72 bd ed 9c c1 bb c9 22 a4 3b
       0.0014142388 -0.059224132 -0.0059085996 0.0050090295
000030 01 d0 24 bd df 3f 8f 3b e4 7c 8f bb 86 48 11 3d
       -0.04023743 0.0043716277 -0.004378902 0.035469554
000040 09 0c 8d 3b 27 b1 37 bd 01 5e 50 bd cd 41 40 bc
       0.004304413 -0.04484668 -0.0508709 -0.011734438
000050 7f 51 58 3b ce df 4f bd c4 c2 40 bd 52 77 44 bc
       0.003300756 -0.050750546 -0.047060743 -0.011991339
000060 84 37 67 bd b0 c7 56 bb 27 e3 85 3b f0 9f 11 bd
       -0.05644943 -0.0032772832 0.0040859166 -0.03555292
000070 bb a8 a0 3d 50 80 62 ba 97 49 e9 3d 66 97 91 3d
       0.07844683 -0.0008640336 0.11390989 0.07108955
000080 7c 9e 40 bd d1 c4 27 bd 6b 8a 6b 3c 91 05 6d 3b
       -0.047026142 -0.040959183 0.014376263 0.0036166648
000090 0c cd 2f bd 44 8c 78 bc 76 12 16 95 c4 2a 98 ba
       -0.042920157 -0.015170161 -3.0306822e-26 -0.0011609425
0000a0 ac 79 1e ba f1 c4 d6 3d 7f ea a9 b1 15 8d 18 36
       -0.0006045352 0.10486782 -4.9452065e-09 2.2731886e-06
0000b0 15 e3 36 a1 45 c2 cb bd 1c f6 03 bd 61 27 bb bd
       -6.196454e-19 -0.09949163 -0.03221713 -0.0913837
0000c0 ef 7e b3 bd 40 0c f8 ba 74 8e 66 3c 01 cf 4e bd
       -0.08764445 -0.0018924549 0.014072049 -0.050490383
0000d0 98 28 a3 3d 82 34 cc 3d c0 30 e4 3d 7d 0c b0 3c
       0.07966727 0.099709526 0.11142111 0.02149033
0000e0 ed e1 f0 3d 80 da 40 3d 4b 0f b2 3d 5e 61 ea bc
       0.11761842 0.047083378 0.08694323 -0.028610881
0000f0 af 31 93 3d 04 86 da 3d cf 11 b9 3c 5d f2 e6 bc
       0.07187211 0.10670093 0.0225915 -0.02819174
000100 69 8b 6c 3c bc 6e 35 bd 46 a2 b9 bd 69 0a b4 bd
       0.014437535 -0.044295058 -0.09064154 -0.08791048
000110 e9 7d 78 3d e6 9c 9b bb ac 1c 76 bd 77 2c 04 bc
       0.060666952 -0.0047489284 -0.060085937 -0.008067242
000120 24 5e d6 3c a6 fc 17 3d 21 f7 08 bb 43 8a b7 3d
       0.026167937 0.03710618 -0.0020899253 0.08961918
000130 ac 34 a7 bc c0 08 09 bd a5 88 82 bd 5b 76 fb 3d
       -0.020410858 -0.03345561 -0.06373719 0.12278434
000140 49 f0 62 3c 2f 37 3c 3d af 67 ca bd dc a8 a4 3d
       0.013851234 0.045951065 -0.09883057 0.0804002
000150 65 f1 86 bd 22 59 a4 bd ed 80 08 be b8 b2 43 3d
       -0.06589011 -0.08024813 -0.13330431 0.04777786
000160 f9 f7 ac bd ca ab 9f bd f6 4e a6 3c b7 d8 be 3d
       -0.084457345 -0.07796438 0.020301323 0.09318679
000170 45 bd 79 bd 4c 10 f5 3b 56 3f 3b bb 4c e9 19 bd
       -0.060971517 0.0074787494 -0.0028571687 -0.037576005
000180 dd 5c ce 3c bf d2 de 3b 0d ea a2 3d 0d 0f c2 bd
       0.025190765 0.0068000252 0.07954798 -0.09475527
000190 ed eb d8 ba b9 cb e1 3c 06 bc 55 bd 9b 58 99 bc
       -0.0016549804 0.027562963 -0.052181266 -0.018719008
0001a0 e0 e3 1d bd 10 99 06 3d 21 62 6c 3d ad b3 d4 bd
       -0.038547397 0.032860816 0.05771077 -0.10385833
0001b0 19 7e 66 3d a3 57 27 bc d4 70 bc bd 13 35 9b bd
       0.0562726 -0.010213765 -0.09201208 -0.075784825
0001c0 0b b4 a5 3d 86 7c df 3c ae fd 1d 35 73 af 69 3d
       0.08090981 0.027281057 5.885621e-07 0.057052087
0001d0 21 e9 30 3c 02 46 3d bd 0a 1c 2a bc a0 62 5a 3d
       0.01079777 -0.046209343 -0.010382662 0.053316712
0001e0 64 ae 40 bd 9a 0e b6 3c 09 44 8e 3d 2d fb 6b bc
       -0.04704131 0.02222376 0.069465704 -0.014403147
0001f0 d9 37 89 bd c9 53 15 bd 4a 8c 27 3d 25 9f 88 bb
       -0.06700105 -0.036456857 0.040905274 -0.004169362
000200 e9 9a ad 3d 2e 05 c8 3d aa cb fc 3d 3e 4c e6 3c
       0.084768124 0.09766613 0.12343533 0.028112527
000210 04 ca 2f bd 9e b7 81 bd 1d a7 c0 3c f4 87 04 bd
       -0.042917266 -0.0633385 0.023517186 -0.032356218
000220 4d 23 9e bd 51 70 64 bc c0 ad ba 3d 0a 93 e6 bc
       -0.07721577 -0.013942794 0.091151714 -0.028146286
000230 10 0d 9b 3c 36 f0 f5 ba c0 d5 82 3b 9c 0c ab 3b
       0.018927127 -0.0018763605 0.003992766 0.005220009
000240 10 bd 01 3e db 8a 06 bd 37 e1 0f bc 24 0d 52 bd
       0.12669778 -0.032847267 -0.008781723 -0.051282063
000250 df 6f b0 3d 38 96 5b 3c 60 af a3 3d 8b c6 23 bc
       0.08615088 0.013402514 0.079924345 -0.009996067
000260 a0 b0 0d 3e a2 01 af 3b a8 c8 96 3c dd c7 1b bd
       0.13836908 0.005340771 0.018406227 -0.0380324
000270 be e3 78 bd e2 8f 3f 3d 5e 98 13 bc 2f 67 45 3d
       -0.060764067 0.046768077 -0.009008495 0.048194107
000280 f1 63 5f bd b8 7c f6 3a d2 1e 6e bd 03 fc 5a 3d
       -0.05453867 0.001880548 -0.05813486 0.053462993
000290 53 b6 5b bc 87 4b c0 3d 45 d1 a3 bc 56 7a 84 bd
       -0.013410169 0.09389406 -0.019997248 -0.06468646
0002a0 1c 62 4f 3d 8d ef 62 3d a2 13 f7 3d f8 fc da bc
       0.050630674 0.055404235 0.120642915 -0.026731953
0002b0 63 0d 8b 3d 5b a2 b1 bd fe 67 f4 bd 17 75 d1 bd
       0.06789663 -0.08673545 -0.119338974 -0.10227411
0002c0 35 5e 4e bd 09 4d 18 bd b1 4f bb bd 69 a1 ff bc
       -0.05038281 -0.03718284 -0.09146059 -0.031204896
0002d0 ea fc 5a bd 9f f6 8a bc 32 89 5c bc 9b 5c 32 bc
       -0.053463854 -0.016963301 -0.013460444 -0.010886337
0002e0 e5 a7 b0 3b d8 17 3d bd 60 db 4c 3d 6d 56 88 bd
       0.0053911083 -0.046165317 0.0500139 -0.066571094
0002f0 aa 14 7a 3d bc 0b 03 3d 35 e1 6e 3c eb 44 19 3d
       0.061054863 0.031993613 0.014580061 0.03741924
000300 47 eb 8d 3c 9e 5a 59 bc e7 12 aa 3d e4 99 90 3d
       0.017324103 -0.013266234 0.083043866 0.07060602
000310 05 32 fd 3c 8a 35 50 3d 7b 45 38 3b 22 a5 94 bd
       0.03090764 0.05083231 0.0028117585 -0.07258059
000320 9a d3 98 bc 7d cd 41 bd 27 87 a1 bd 5b 6d 13 bd
       -0.018655587 -0.04731511 -0.078871064 -0.03599296
000330 d7 7b c2 3c 6c ae b7 bc 61 39 34 bd 1c 25 34 bd
       0.023740692 -0.022422038 -0.044000033 -0.043980703
000340 59 fb 9a 3b 47 76 6e bc 70 dc 51 bd 40 03 f8 bc
       0.00472967 -0.014554567 -0.051235616 -0.030274987
000350 e1 37 f1 bc f5 fc ef 3d 34 d9 9c bc 77 35 95 bc
       -0.02944559 0.117181696 -0.01914654 -0.01821397
000360 09 54 d4 3d c8 a2 9b 3d 06 56 ae bc bb ab 1e bd
       0.10367591 0.075994074 -0.021281254 -0.038737994
000370 1a 25 1d bc c1 6f 87 bd e1 94 f5 3c 14 2b 08 3d
       -0.009591365 -0.06613112 0.029978218 0.033244208
000380 35 64 48 3d 2c d2 b9 bb 39 6b a6 3c ce a6 14 3c
       0.04892369 -0.0056708064 0.0203148 0.009072972
000390 cb 29 a0 3d 03 6f 9f 3c 83 fc 2e 3d ab af f4 3c
       0.078204714 0.019462114 0.042721283 0.029868921
0003a0 50 35 ea bb 35 54 0c bd 03 c3 90 bb 38 a3 34 3d
       -0.0071474686 -0.034259994 -0.0044177785 0.04410097
0003b0 ba e8 d0 bc 08 7d 9f 3d 14 9f b3 bb e6 83 ef bb
       -0.025501598 0.0778752 -0.00548161 -0.0073094247
0003c0 4f c0 51 3c 74 35 be 3d dc ba 89 3c d5 a1 d2 3b
       0.012802198 0.09287539 0.016812734 0.0064279833
0003d0 6d 8b 0d bd 5e d5 16 bd a9 14 0c bd dc 70 10 3d
       -0.034556795 -0.036824577 -0.03419939 0.03526388
0003e0 1a 74 46 3c 3f dd 33 3c 1c 14 98 3b 34 22 b2 bc
       0.012112642 0.010978042 0.004641069 -0.021744825
0003f0 c2 f4 1f bb 38 af 0a 3d ba b0 b9 3c 93 8c 20 bd
       -0.0024407362 0.033858508 0.022667278 -0.039196562

network.0.bias f4 [256]
000000 6a 77 b8 bd 5d 86 2f bb 6a 92 16 bc 59 3e a9 3d
       -0.090071514 -0.0026782968 -0.009190181 0.08263845
000010 16 21 b0 bd 1e 98 d1 bd 2b 50 f1 3c 4d d2 5d 3c
       -0.08600061 -0.10234092 0.029457172 0.013538909
000020 b5 98 07 3c f0 8e 46 3d a7 7c 55 bc f4 24 51 bd
       0.008276154 0.04847616 -0.013030208 -0.051060632
000030 f0 ea 65 3d b9 88 08 3e 39 60 cb bd 1a ad 08 3e
       0.056132257 0.13333406 -0.099304624 0.13347283
000040 f7 de 39 3d 74 6e 39 bd aa b6 d9 bd d7 1f b7 3c
       0.04537865 -0.045271352 -0.106305435 0.02235405
000050 38 ff fe bc 3e 86 e8 3c 0c 6c 0f 3e c2 3e 2f bd
       -0.031127557 0.028384324 0.1400606 -0.04278446
000060 af c0 8e bc 16 97 e4 bd a9 6b ae bd d0 54 3c bb
       -0.017425863 -0.1116163 -0.08516628 -0.0028737076
000070 63 69 c0 3d 1a 39 d4 bd 3b a9 e1 bd c7 a5 4d bc
       0.09395101 -0.10362454 -0.11018606 -0.012551731
000080 66 18 89 bd a7 00 76 3d 65 16 44 3c ef 7c 0f 3e
       -0.06694107 0.060059216 0.01196823 0.14012502
000090 dc c2 3b 3d e5 a5 96 bd 82 2f 60 bd 47 b9 cc 3d
       0.04584013 -0.073558606 -0.054732807 0.09996276
0000a0 2a ab ac bd 4b ea ac bd ef 95 7d 3d cf a4 a1 bd
       -0.084310845 -0.08443125 0.061910566 -0.07892763
0000b0 5f c3 2f bd 09 b5 8c 3d df 66 f4 bd bd 54 53 bd
       -0.04291093 0.06870467 -0.119336836 -0.051594485
0000c0 d3 c9 02 bd 64 7c 02 3e e8 31 8d bd 4a 44 43 3d
       -0.031930756 0.12742764 -0.068942845 0.047672547
0000d0 58 3d 4b bd c8 51 a7 bd eb ef 4e 3d cd 74 7f 3d
       -0.04961905 -0.081698954 0.050521772 0.06236725
0000e0 15 2b b7 bd 1c ca 7f 3c ba 23 b0 3d de d4 e8 bd
       -0.08943764 0.0156121515 0.08600564 -0.11368726
0000f0 23 f2 9b bd 5b 08 f8 bd fe 74 94 bd 80 7e f6 bd
       -0.07614543 -0.12110969 -0.07248877 -0.12035847
000100 04 d7 9e bb 3b 19 80 bc bc ea 0a 3e ca 57 8d 3d
       -0.004847409 -0.01563703 0.13566107 0.0690151
000110 4f c1 16 bd a9 10 81 bb c6 85 99 3d 8f 51 95 bd
       -0.036805447 -0.0039387536 0.074962184 -0.07290947
000120 c9 bc 84 bd dd 09 55 bd fd 14 0e 3e 01 ff 1c 3d
       -0.064813204 -0.05201136 0.13875194 0.03832913
000130 fe 1d ef 3c 2f 15 f8 3d 82 08 62 bd 61 87 11 bd
       0.029189106 0.121134154 -0.055183895 -0.035529498
000140 a8 11 fa 3d c5 ff 95 bb 37 d6 49 bb 45 ed b8 bd
       0.12210399 -0.0045776092 -0.0030797848 -0.090296306
000150 4c ed b7 bd 55 ca cf bd 55 49 4c 3d 45 34 0a 3e
       -0.08980808 -0.10146014 0.049874622 0.13496502
000160 48 7c ce bd 62 a1 90 bb e1 a0 e0 3d 9c e2 b8 3c
       -0.100822985 -0.0044137696 0.10968185 0.022568993
000170 68 19 fb bc 20 40 1d 3d 9a 85 30 3c 7a 43 12 3e
       -0.030651763 0.038391232 0.010774041 0.14283553
000180 92 eb 4c bd 3e 61 e9 3d b2 0f 8b bb 58 9b 12 3e
       -0.050029345 0.113955006 -0.0042438144 0.14317071
000190 a2 e2 8c bc e0 48 c1 3d 02 6b bb 3c e1 de cf 3d
       -0.01719791 0.09437728 0.022878174 0.10149933
0001a0 6e 35 fa bc 3c d0 02 3e 09 a4 bd bd 8a 02 96 bd
       -0.030543055 0.12774748 -0.09259803 -0.07324703
0001b0 e3 74 00 bd e5 2d 52 bd 6c e2 b7 bd 02 99 b3 bd
       -0.03136147 -0.0513133 -0.089787334 -0.08769418
0001c0 38 96 4a 3d f2 80 85 3c 3a 45 5b bd 4f 20 b3 3d
       0.049459666 0.016296837 -0.053532816 0.08746397
0001d0 24 b5 9c 3d 67 54 a5 3d 40 5d 9d bc 3a 3b 32 3d
       0.07651737 0.08072739 -0.019209504 0.043513514
0001e0 a5 2f bb bd 96 42 f9 3d 59 f8 e1 bd d9 51 68 bd
       -0.09139947 0.121709034 -0.11033697 -0.05671868
0001f0 a1 52 8b 3d 18 97 81 3d 3e 5c 20 3b 59 b7 5d 3d
       0.068028696 0.06327647 0.0024469043 0.054129932
000200 a3 c4 0f bd 8b fc 95 bd cb a0 00 be 9c c2 8d bc
       -0.035099637 -0.073235594 -0.12561338 -0.017304711
000210 f8 40 1f bd ec c8 f7 bd f8 29 35 b9 c4 cb b4 bd
       -0.03888032 -0.1209887 -0.0001727714 -0.08827928
000220 8f 16 9c bd 04 e4 97 bd ca 40 9a 3d 83 25 88 bd
       -0.0762149 -0.074165374 0.07531889 -0.0664778
000230 09 40 9a 3d 95 e2 46 bd 2c 15 c2 3c d3 fe 74 3d
       0.07531745 -0.04855593 0.023691736 0.05981333
000240 cc cb 89 bb 01 fb 04 3e c4 23 c3 3d 3b 15 e6 bd
       -0.0042052027 0.12986375 0.09528306 -0.11234518
000250 51 85 1b 3d b7 08 ca bc e9 62 46 bd cb 29 95 bd
       0.037968937 -0.024662359 -0.04843417 -0.07283362
000260 b1 d8 c2 bd a5 37 6e bd d9 62 75 bd 06 de c4 3d
       -0.09513987 -0.058158536 -0.05990872 0.0961266
000270 0b 65 54 bd 65 75 86 bd 0c 6e 68 bd dd a5 49 3d
       -0.051854175 -0.0656536 -0.056745574 0.049230445
000280 d7 8d 86 bd e7 f9 be bc b4 34 5d bd a4 60 5d bd
       -0.065700226 -0.023312522 -0.05400534 -0.05404724
000290 d6 b3 8a bd 0c d8 8a bd 4f 4b f5 3c 2c 35 60 bd
       -0.06772582 -0.06779489 0.029943136 -0.05473821
0002a0 01 be 10 bc 5f 15 64 bd 80 c0 d1 bd 2b 13 72 3c
       -0.008834363 -0.055684444 -0.102417946 0.014775078
0002b0 95 44 c4 bd fc f1 f1 3d 70 11 93 3b 3a d1 00 3e
       -0.095833935 0.11813733 0.0044881627 0.12579814
0002c0 d8 88 61 bb 21 cd 03 bd c6 d2 2e 3c e6 67 0e 3e
       -0.003441384 -0.032178048 0.0106703695 0.13906822
0002d0 2f 62 2d 3d 5e f3 a7 bd df 43 e3 bd 01 4d 05 be
       0.042329963 -0.082007155 -0.1109693 -0.13017656
0002e0 23 96 43 3d a2 0b 88 3d e0 1b 87 3d 84 54 eb 3d
       0.047750603 0.06642844 0.065971136 0.114907295
0002f0 0b 57 04 3e 2b 00 ab bc 82 2f 9e 3c 23 b8 12 3b
       0.1292383 -0.020874104 0.019309763 0.0022387586
000300 e7 12 1e bd cf 6d bd 3c 60 16 8d bd d4 10 3e 3d
       -0.038592245 0.02312365 -0.06889033 0.046402767
000310 47 e4 0a 3c 80 ed a7 3a 59 3f f9 3c 52 4f e6 3d
       0.008477277 0.0012811869 0.030425714 0.11245598
000320 b7 19 9c 3d bf c0 bc bd e4 d7 a3 bd fb 20 99 bd
       0.07622092 -0.09216451 -0.08000162 -0.07476994
000330 97 63 84 3d 9f 0d 41 3d 9f 00 fb bd 96 8b 0d be
       0.06464308 0.04713213 -0.12255978 -0.13822779
000340 c6 ac 5f bd 0d 15 73 3d 5c 7d ee 3d d6 2c 21 bd
       -0.05460813 0.059346247 0.11645004 -0.0393494
000350 2a 85 ee bc 61 ce 8d bd 8c 98 ea 3c 5f 5b 8d bb
       -0.029116232 -0.06924129 0.028637193 -0.004313871
000360 d6 54 cb bd a9 56 14 3d 07 7e 93 3d d8 a5 9f 3d
       -0.099282905 0.036215458 0.07201772 0.07795304
000370 6d 9b 0f 3b b6 1c 4a bd a5 38 c1 3d 68 6a c8 3c
       0.002191271 -0.049343787 0.09434632 0.024464801
000380 41 0e d4 bd 2f 7c 0c 3e 63 02 d8 3c 5c 33 b6 3c
       -0.10354281 0.13719247 0.026368326 0.022241287
000390 72 84 95 bc d3 69 8d 3d df 99 b2 3d 1f c3 e2 bd
       -0.018251631 0.0690495 0.08720755 -0.11072373
0003a0 4c 3a ff 3d 88 0d 98 bd 7b cb b9 bd 51 28 0b 3d
       0.12462291 -0.07424456 -0.09072014 0.033973996
0003b0 8f f7 06 3d 73 91 0d 3e 72 42 ec ba 04 c0 9a 3d
       0.032950934 0.13825016 -0.0018025173 0.07556155
0003c0 27 88 ed bc 85 be 0d 3e 18 0a 74 bd 2d 5b 83 bd
       -0.028995587 0.13842209 -0.05957994 -0.06413875
0003d0 b7 43 e9 bc 32 d7 61 bd de e6 04 be 1d c4 d9 bc
       -0.028474672 -0.055136867 -0.12978694 -0.026582772
0003e0 89 9b 95 3c 71 85 f1 3d 74 09 d5 bc 90 44 55 bd
       0.018262642 0.1179303 -0.026005484 -0.05206734
0003f0 e6 7f 86 bd d5 dd 55 3c 75 fd a0 bd 31 a3 c9 bd
       -0.065673634 0.013053377 -0.07860843 -0.098455794

network.3.weight f4 [128, 256]
000000 0a 93 5b bc 1e 1f 41 3d 3c 81 ba bc 16 bb c7 3c
       -0.013401756 0.047148816 -0.022766702 0.024381202
000010 e8 06 fe bb 80 07 38 3c 3a ec 2d bc c7 05 e6 3a
       -0.007752288 0.011232257 -0.010615403 0.0017549329
000020 ae 29 0b bd 72 e6 50 bd 20 85 3b bc f0 b3 d5 39
       -0.033975296 -0.05100102 -0.011445314 0.0004076059
000030 01 c3 b2 3c 06 b6 90 3b ad 03 4b 3d 30 2e dd 3c
       0.0218215 0.00441623 0.049564052 0.026999563
000040 84 20 80 bc 86 0c 49 bc 84 75 13 3c 8d b2 59 3d
       -0.015640505 -0.012271052 0.009000186 0.053148795
000050 07 51 71 3b e1 b0 1f bd dd 96 78 3c 9b ba ad bc
       0.0036821978 -0.038987044 0.015172687 -0.021207144
000060 8c c3 9d 3c 8c cd d7 bb b8 42 4c bd 1d a1 84 bc
       0.019258283 -0.0065857824 -0.049868315 -0.016190106
000070 0a 09 70 ba 7c ba 53 3b c8 cb 74 bc c6 dd b5 bc
       -0.00091566204 0.0032307198 -0.014941163 -0.022200476
000080 9b 55 39 bc ac e2 4c 3d 50 78 6c 3c 29 9c 49 bd
       -0.011311914 0.05002086 0.014432982 -0.04922119
000090 38 dd 50 3d a5 be 83 3d fb 76 0d bb 04 11 72 bc
       0.05099222 0.06432847 -0.002158581 -0.014774565
0000a0 94 80 53 ba e2 f1 b6 bc 57 35 1f bd a3 75 89 bc
       -0.0008068171 -0.022332136 -0.03886923 -0.016779726
0000b0 4f 23 30 bd 88 75 7f 3d cc 83 25 3c bd 58 0b bc
       -0.043002423 0.062367946 0.010102224 -0.008505044
0000c0 8a 30 c3 bc f9 cb 2a bd 9f 07 b6 bc fd ec 92 bc
       -0.023826856 -0.04169843 -0.02222043 -0.01793527
0000d0 47 ff 24 3c 84 dd ef bc 9b a9 62 3d dd 0a 18 bc
       0.0100706285 -0.029280432 0.05533753 -0.009279934
0000e0 73 66 be bc 90 9d 9e 3c 5d cf c4 bc 93 e8 2b 3c
       -0.023242211 0.019362241 -0.02402466 0.010492462
0000f0 03 3e df 3b df e0 19 bd 17 01 a5 3c 29 52 ee 3b
       0.0068128123 -0.03756797 0.020142121 0.007272978
000100 bf 25 df bc 79 0b 23 bc ad fe 6f 3a 47 5b 88 3d
       -0.027239678 -0.009951466 0.0009155076 0.06658035
000110 d7 7e 01 3d 68 a5 d8 3c 0a 2c 15 3d 95 26 df bc
       0.031615105 0.02644606 0.036418952 -0.027240077
000120 e2 3c b6 3c 89 3f b0 bb 8e 9c 25 3c d9 6d bb bc
       0.022245828 -0.0053786677 0.010108126 -0.022879528
000130 97 c6 44 bd 9d 60 4f bc 60 fe 19 3d fd 31 28 bc
       -0.048040953 -0.012657312 0.037596107 -0.010265824
000140 30 4a 83 3c e5 73 21 3c 42 a6 12 bd b2 b3 e1 ba
       0.016026586 0.009854292 -0.035803087 -0.0017219691
000150 0b bf f5 bc 9c 56 04 3d 70 11 5e 3d a2 e4 61 3b
       -0.029998323 0.03230916 0.05421585 0.0034468551
000160 24 ed 9e 39 85 0a 41 3d 02 5a 08 3d 71 ab 4f 3d
       0.00030312792 0.047129173 0.033288963 0.05070061
000170 fd a8 41 3c fb 11 f9 bc d6 f9 12 bd 6f df 1a 3d
       0.011820075 -0.030404082 -0.035882793 0.03781074
000180 49 80 2c 3d 08 38 8d bb 8e d3 9c 3c c8 cc b1 bc
       0.04211453 -0.004309658 0.019143846 -0.021704093
000190 b1 dd 21 3c 7c f5 4a 3d ad d9 d4 3c 13 b3 72 bc
       0.0098795155 0.04955052 0.025982702 -0.014813202
0001a0 02 ec 57 3d 6b 42 b8 3c 0d 8b 96 bc 8c 38 57 3d
       0.05271531 0.022492608 -0.018376851 0.05254416
0001b0 02 b7 b4 ba 69 81 37 3d 7a 29 3b bd 11 14 4a 3d
       -0.0013787451 0.04480115 -0.045693852 0.049335543
0001c0 ac 25 a3 bc ec 2f 68 3d 89 0e 9f bc 44 29 af bb
       -0.019915424 0.056686327 -0.01941611 -0.0053454954
0001d0 d2 fb 39 bd fe d6 e3 bb 56 f2 de 3c 53 c5 80 3b
       -0.04540617 -0.0069531193 0.027215164 0.003929773
0001e0 9a 83 d9 3c e0 70 64 3d 87 f8 5a 3c ee 2d 8b 3c
       0.02655201 0.05577171 0.013364918 0.016989674
0001f0 fd 4a 4e 3d 90 d0 96 bb fe df 0f bd f4 82 d1 3b
       0.050364483 -0.0046024993 -0.035125725 0.0063937847
000200 dd 7b 30 bc 3e 06 8a bb 94 d6 e4 bb 05 12 0e 3c
       -0.010771719 -0.00421217 -0.0069835875 0.008671288
000210 f9 f2 77 3c db c1 d5 3c b2 1d a3 3c cb 1a 0d bd
       0.015133613 0.026093414 0.01991162 -0.03444938
000220 f8 c9 15 bd e4 52 0a 3d 25 a4 9a 3b 49 1a 31 bd
       -0.036569566 0.033770457 0.0047192746 -0.043237958
000230 35 cb ce bc 8e 83 28 3d 5e af 72 3d 98 10 6e bd
       -0.025243381 0.041141085 0.059249274 -0.058121294
000240 40 27 cc 3c 99 38 15 bd 59 29 fc bb bf 40 80 3c
       0.02492106 -0.03643093 -0.0076953587 0.015655873
000250 ad c1 88 3d dc 49 33 3c 4a d3 03 3a d6 ac 18 bd
       0.06677566 0.010942902 0.0005028738 -0.037274204
000260 0c 9c 11 ba 47 c6 d1 bc 88 07 46 3d 61 1e 68 3c
       -0.0005554564 -0.025607241 0.048347026 0.014167399
000270 d7 21 e5 3c eb 8d 3c 3d 69 d9 e2 3c 36 20 9b bc
       0.027970238 0.04603378 0.02769156 -0.018936258
000280 42 d4 2a 3d ce 15 8a bc fc 28 82 bc f8 1f 63 bb
       0.04170633 -0.0168561 -0.015888683 -0.0034656506
000290 81 5b f8 bc a1 a3 ff bc 5b 1e f8 bc 67 cd f9 bc
       -0.03031707 -0.031205954 -0.030287912 -0.030493451
0002a0 ec 67 8e ba 1a 55 ae bb 73 38 be 3c d0 e4 e9 3b
       -0.0010864711 -0.0053202035 0.023220276 0.0071378723
0002b0 64 00 c7 3b 26 ca 86 bc 0d b6 12 bd 42 e8 d3 bc
       0.0060730446 -0.016453814 -0.03581815 -0.025867585
0002c0 a8 b4 78 bd 5a ce 0f bc 21 24 f6 bc 64 ae 57 3d
       -0.060719162 -0.008777225 -0.030046524 0.052656546
0002d0 bb 45 5d bc 3f 58 87 bb 89 85 99 bb 71 05 73 3c
       -0.013505395 -0.004130393 -0.004685108 0.01483284
0002e0 73 98 3d bd 35 07 4c bd 3f 9e 08 3d 9b e2 36 3d
       -0.046287965 -0.04981156 0.03335404 0.0446497
0002f0 84 7b 8e bc 89 8e 5a bd 6d ca 89 bc 4a cc 41 bc
       -0.017392881 -0.05335859 -0.016820157 -0.011828491
000300 28 4d e3 bc af 1e ae bc cb b6 af 3c 00 5d 32 bd
       -0.027746752 -0.021254865 0.021449467 -0.043545723
000310 63 98 ae bc ec 11 01 3d 31 dc 4a bc cd bf e3 3c
       -0.021312898 0.031511232 -0.012381599 0.027801419
000320 04 ac 20 3d 7b ff 6a 3c dd 68 12 ba dd 3b cc bb
       0.039226547 0.014343138 -0.0005585084 -0.006232722
000330 7a 60 f7 bc ad 08 43 3d 37 e0 c5 bc b3 3c fb 3a
       -0.03019737 0.047615696 -0.024154766 0.001916787
000340 3c 68 ce 3a 98 28 2a bd 60 db 8e bc 8f eb cf 3c
       0.0015747617 -0.04154262 -0.01743859 0.025380878
000350 8c 98 85 3b 6e c4 c4 bc 28 72 d2 bc a1 4d e7 3c
       0.004077023 -0.024019446 -0.0256892 0.028235259
000360 48 6a 66 3d bf ba 0f 3d 75 e8 3d 3a 11 c1 9f bc
       0.0562537 0.035090204 0.00072444166 -0.01950124
000370 22 1f 4c 3d 7e e8 24 bd 4e 3a ff bc 41 e3 aa 3c
       0.049834378 -0.040260784 -0.031155732 0.020860316
000380 58 21 75 3c 5f bf 13 bd 58 dc 24 bd 9f 05 d2 bc
       0.014961563 -0.036071178 -0.0402492 -0.025637446
000390 b5 27 c4 3c 07 3a 34 3d 1e f0 05 3c f4 de 2a bc
       0.023944715 0.04400065 0.008174924 -0.010429133
0003a0 09 e7 3a 3d f5 91 0b 3d a6 f2 ac ba 68 62 7d 3d
       0.04563049 0.034074742 -0.0013194873 0.061861426
0003b0 30 4f e8 3b 6b 51 ed bc ac 79 13 3d 00 6b 1d bd
       0.007089518 -0.028969487 0.036004707 -0.03843212
0003c0 93 96 fd bc 01 d4 3e bc da 95 3e bd eb 70 b4 3c
       -0.030955588 -0.011647225 -0.04652963 0.0220265
0003d0 e4 67 05 bd b1 66 1d bd e8 b5 4a bd 9f 5f 30 bd
       -0.03256978 -0.038428012 -0.049489886 -0.04305994
0003e0 92 9f 88 bc 59 99 07 bc 27 70 4c bc 9a c6 2b bc
       -0.016677652 -0.008276307 -0.012477911 -0.010484362
0003f0 80 4d 30 bd fc 24 08 3d b3 58 2b bd 88 8e 62 3c
       -0.04304266 0.033238396 -0.041832637 0.013827927

network.3.bias f4 [128]
000000 0b 67 c7 3c 97 f6 15 bd 10 fd 4d 3d 18 d5 41 bd
       0.024341127 -0.03661212 0.050290167 -0.047322363
000010 62 6a a5 3c 3b 87 5c bd cf 03 8c bb df 4d 95 3c
       0.020192329 -0.053839903 -0.004272915 0.018225608
000020 61 29 b6 bc 33 d0 af 3b 6d cc bd bb 64 6f 45 bd
       -0.022236528 0.0053653955 -0.0057921917 -0.048201934
000030 6e a5 12 3d 7b 95 19 bd e3 ce c2 bc de e2 87 3d
       0.035802297 -0.03749607 -0.023780292 0.06635068
000040 58 a0 35 3d 05 1b ba 3a 5a ca 03 3d 3e 22 57 3c
       0.04434237 0.0014198726 0.0321754 0.013130723
000050 1e c5 9b 3c f3 12 0d 3d a7 14 52 3d 73 f0 36 3d
       0.019014891 0.0344419 0.051289227 0.044662904
000060 5c f8 51 3b ac a1 40 3d dc f6 fe 3c b3 0e 05 bd
       0.0032038903 0.047029182 0.031123571 -0.03248472
000070 07 42 be bc 78 7d 10 bb 2c 15 37 bd c8 54 9c b8
       -0.023224844 -0.0022047441 -0.044697925 -7.4544514e-05
000080 e5 af b4 3c 53 0e 10 3d af 3d 79 bc bc ec 82 bc
       0.02205653 0.03516991 -0.01521246 -0.015982024
000090 35 11 5d 3d 79 59 c4 3c e5 e8 22 bd b8 6b b0 3c
       0.053971488 0.023968445 -0.039772887 0.02153574
0000a0 cd f0 5d 3d 69 67 83 bb f3 9c 05 3d c1 43 93 bb
       0.054184724 -0.00401013 0.03262038 -0.004494161
0000b0 56 57 10 3d a2 ef 27 bd 1c ed 77 3b 23 ad 56 3d
       0.03523954 -0.041000016 0.0037830537 0.05241121
0000c0 94 8f 2f 3d da 17 2a bd f4 6b 49 bd 91 bf ca 3c
       0.042861536 -0.041526653 -0.049175218 0.02474955
0000d0 c5 dc b2 3c 46 0e a3 3c 5d ec b1 3c 49 79 63 3d
       0.021833787 0.019904267 0.021719152 0.05553559
0000e0 f0 2d ee bc 8f 17 3b 3d 82 8c 44 3c f7 38 3e 3d
       -0.02907464 0.045676764 0.01199639 0.046441045
0000f0 ff 19 d8 bc 35 c6 d6 3c eb 2d 1c bc f4 ac 42 bd
       -0.026379583 0.02621756 -0.009532432 -0.047528222
000100 92 48 8d 3c db 43 c1 bc 7e 7e dd 3b 7e c3 55 3d
       0.017246518 -0.023591926 0.006759464 0.05218839
000110 f9 60 d2 ba df 2f 48 3d 97 0e 52 3d a6 23 3d bd
       -0.0016050629 0.04887378 0.051283445 -0.046176575
000120 df 72 2b 3d 7c 86 2b 3d 0e 78 12 bd 7b 0c 39 bd
       0.041857596 0.0418763 -0.035759024 -0.045177918
000130 22 2c 0d 3d 52 db 2e bd a9 49 7c 3d 1b 01 d0 bc
       0.034465916 -0.04268963 0.061593685 -0.025391152
000140 2d 67 6a 3d 38 90 fe 3c 6c 07 3f 3d 34 aa 4c bd
       0.057227302 0.031074628 0.046637937 -0.049967006
000150 7d a1 c6 bc 1e 2e 84 bc c7 c1 52 bd dc c0 cb bc
       -0.024246925 -0.016135272 -0.05145433 -0.024872236
000160 aa 91 51 bd a5 54 e1 bc d7 94 9c bc 54 22 19 3d
       -0.051164307 -0.027506182 -0.019113941 0.037386253
000170 06 9f 63 3d 22 67 38 3c 62 3b 01 3d d1 1d 49 3d
       0.05557158 0.0112550575 0.031550772 0.0491007
000180 69 cc 80 3c d1 ff d9 3a 89 b1 eb bc 9c 3c 0e 3d
       0.01572247 0.0016632025 -0.028771179 0.03472577
000190 5e ce 28 bd a4 f5 f4 3c bc 9e 8d bc a3 94 fd 3b
       -0.041212432 0.029902287 -0.017287605 0.007738666
0001a0 9e 62 72 bd 64 8c 82 3d 28 af 12 bd ed 92 2c bd
       -0.05917608 0.06374434 -0.035811573 -0.042132307
0001b0 6a 8a 84 3b f6 06 e0 3c e1 2b 9f bc a4 c7 8b bc
       0.0040448206 0.02734707 -0.019430103 -0.01706297
0001c0 a6 9c 6b 3d 02 0e 13 bd d2 07 27 bd ec 1e a0 bc
       0.05752244 -0.03590203 -0.040778942 -0.019545995
0001d0 5c fd be bc 0e 17 1a 3d c5 58 9f bc f7 33 67 3d
       -0.02331417 0.037619643 -0.019451508 0.056446042
0001e0 4b 37 37 3d 95 1d 04 3d 3c 28 3a bd c5 95 a3 bb
       0.044730466 0.032254774 -0.045448527 -0.004992219
0001f0 f2 e3 36 bd f8 f0 91 3d ba 91 0a bc 7d 2e 05 bd
       -0.04465098 0.07126039 -0.0084575955 -0.032515038

network.6.weight f4 [64, 128]
000000 6e ae 46 bb 28 b0 11 3c 69 d4 27 3b 93 ad 3b b7
       -0.003031637 0.008892097 0.0025608784 -1.1186482e-05
000010 b0 98 a6 bb a2 bf 48 bc c9 ca 11 3a 93 fe 69 bc
       -0.0050841197 -0.01225272 0.00055615284 -0.014281887
000020 78 65 31 3b 87 76 03 3b 66 cf 2f bc 4e 09 f7 ba
       0.0027068537 0.0020059661 -0.0107306 -0.0018847378
000030 8c 7b 88 bb 49 f3 3d bc 8f 60 08 07 fa d3 32 8b
       -0.0041651186 -0.011593648 1.0259879e-34 -3.4441026e-32
000040 e8 c0 87 33 98 7c f7 38 5c 7d 89 bc e0 c3 a6 bc
       6.321517e-08 0.00011801085 -0.016783409 -0.020357072
000050 7f 78 13 bb b1 28 01 37 e9 8f 89 bc 61 f1 a1 3c
       -0.0022502241 7.698473e-06 -0.016792255 0.019768419
000060 79 4d 22 bb f2 17 1e 3c 76 e2 36 35 df 66 0a 3c
       -0.0024765416 0.009649264 6.812983e-07 0.008447378
000070 d0 bb 2a bc 65 63 9b 3b f3 8b b3 bb 90 7e a9 bc
       -0.010420755 0.0047420734 -0.0054793297 -0.020690233
000080 94 9f 38 bc 9b bf 86 2d 4e b8 62 1e e5 9b 9c bc
       -0.011268515 1.5319126e-11 1.2002454e-20 -0.019117305
000090 0d a9 ae 0f 5e 40 76 bc 5d 6b 93 bb 81 41 90 bc
       1.722284e-29 -0.015029995 -0.0044988827 -0.01760936
0000a0 c5 48 14 b8 28 72 e9 3a 7f a7 85 3c f3 d2 63 b2
       -3.535372e-05 0.001781051 0.01631522 -1.3261103e-08
0000b0 66 6a a9 bc 38 4c 7c 96 b6 85 10 3b e8 96 17 95
       -0.020680618 -2.0380448e-25 0.0022052354 -3.061325e-26
0000c0 97 61 6f b6 b0 3f 41 bc f6 0d 32 a1 86 43 ae 3b
       -3.567058e-06 -0.011794969 -6.0327223e-19 0.005318108
0000d0 97 9c 4a b9 be 24 b6 3c c0 79 d5 b9 2c 74 17 b9
       -0.00019322555 0.022234317 -0.00040717237 -0.0001444376
0000e0 79 ec d3 38 a6 a6 81 bc 74 38 09 38 c2 e3 a5 3c
       0.000101053105 -0.015826534 3.271592e-05 0.020250205
0000f0 c0 a9 eb 0e 7a ec d5 30 5a 3c 74 3c 34 8e 03 07
       5.8095436e-30 1.5565e-09 0.014906967 9.897134e-35
000100 f6 ee c5 bb 93 f0 99 3c f9 c5 37 3a db 37 d6 b9
       -0.0060404493 0.018791473 0.0007010396 -0.00040858876
000110 05 7c 6d 3a c6 96 2d 21 80 66 24 37 ed 87 9a b7
       0.0009059313 5.8814227e-19 9.799027e-06 -1.8421526e-05
000120 8b ff a9 3c 13 8b 0e bc 99 66 85 bc 90 40 2c 10
       0.020751735 -0.00870015 -0.016284274 3.3970756e-29
000130 69 5a 11 bc cc f7 24 bc ac 38 8f 99 6c af c5 3a
       -0.008871653 -0.010068845 -1.4808743e-23 0.0015082187
000140 26 63 96 a2 52 9d 0c bc ba a3 4d b9 2c 4f ea b9
       -4.076256e-18 -0.00858243 -0.00019611316 -0.00044690946
000150 bc 76 73 b4 7f 03 0a 07 4a ac 8c 3c c7 eb 34 8f
       -2.2674334e-07 1.0382994e-34 0.017171998 -8.920094e-30
000160 55 5f 25 bc 73 3a 69 08 fa 03 84 3b 91 3d 49 3b
       -0.01009353 7.0184594e-34 0.0040287944 0.0030706862
000170 c1 6b a5 bc a6 3b 21 35 3a 74 82 34 f4 bb a6 94
       -0.020192983 6.0063974e-07 2.4298953e-07 -1.6835851e-26
000180 f8 60 98 ba 7e ba 3d 39 2a 85 7f 3b 54 1c 03 bc
       -0.0011625579 0.00018093918 0.0038989284 -0.008002359
000190 3d 81 f6 bb 45 8c 77 3c 5a 73 b4 bc c0 43 ce b9
       -0.0075227306 0.015109126 -0.02202766 -0.0003934186
0001a0 a2 89 04 87 e5 73 72 3b 79 fa 47 b8 7f 54 46 bc
       -9.971023e-35 0.0036995348 -4.7678568e-05 -0.012105106
0001b0 a0 27 89 3c db b1 0c 07 df f9 dd 3b 29 09 74 bc
       0.016742527 1.0584696e-34 0.0067741717 -0.014894762
0001c0 0b 99 eb 3b cf d4 a6 b6 71 21 cf 3b 09 3f 42 10
       0.007189875 -4.9719597e-06 0.006321125 3.8308314e-29
0001d0 42 04 6b 3c ab 6e 40 b8 d7 b9 a6 38 95 e3 08 bc
       0.014344277 -4.5879435e-05 7.950112e-05 -0.008355041
0001e0 ce 82 95 3c e7 09 a9 07 83 1c 70 b4 e4 51 ad bc
       0.01825085 2.5434114e-34 -2.2362114e-07 -0.021157213
0001f0 4a 0b 21 b8 13 b6 69 ba 33 a3 9a bc cb 45 f2 3b
       -3.8395905e-05 -0.0008915376 -0.018876648 0.007393574
000200 03 aa 98 3c e0 c0 00 3c fc f7 9a bc 09 e2 1d 3b
       0.018635755 0.007858485 -0.018917076 0.0024091026
000210 b9 7c e8 bb 34 5a 90 3c 12 37 68 bc 36 24 d4 b9
       -0.007094946 0.017621137 -0.014173286 -0.0004046277
000220 9c b8 b2 3c b6 95 14 bc 75 1d e9 3b df ef 18 bd
       0.021816544 -0.009068897 0.0071141073 -0.037338134
000230 6f bb 24 bd 9f a9 a4 3c a3 44 23 bd 23 1e f2 3c
       -0.040217813 0.020100413 -0.03986038 0.029555386
000240 78 73 4a 3c 9f b9 c4 bc 0d b9 66 bc 12 9e 85 3c
       0.012356631 -0.024014292 -0.0140822055 0.016310725
000250 ca a9 b9 bb 0f b0 fa 3b 87 9d 10 bd e5 2a 1b 3d
       -0.0056659924 0.0076503824 -0.03530648 0.037882704
000260 b2 12 9d 3b 89 04 05 bd c6 38 a4 3c e9 1d 66 3c
       0.0047934884 -0.03247503 0.020046603 0.014045217
000270 f4 73 6b 3c f4 e5 dc bc ff 06 87 bc 92 2a c6 3c
       0.014370907 -0.026965119 -0.016482828 0.024190221
000280 a2 c2 d4 3c 4c ce 02 bc 67 e2 35 3d 12 9d 75 bc
       0.025971714 -0.007983755 0.044405367 -0.014991062
000290 ec 95 45 bd ab df 62 bd e9 dd 55 bd 8a de 1c 3d
       -0.04823868 -0.055389088 -0.052213583 0.038298167
0002a0 39 36 28 3c 4a c3 63 3d 76 63 cd 3c fd af b0 bc
       0.010266834 0.055606164 0.02507184 -0.021568293
0002b0 e9 7e c2 bc e6 32 a8 3c a6 7e bc bc 23 20 58 3a
       -0.023742156 0.020532083 -0.02300961 0.0008244535
0002c0 f4 6b 5f bc b8 20 63 39 b3 dd 43 3c ff ef 8e ba
       -0.013636578 0.00021660596 0.011954713 -0.0010905265
0002d0 89 3a 03 bd 07 eb aa 3b a3 12 d2 bb e1 7a a7 ba
       -0.032038245 0.0052160057 -0.006410913 -0.001277771
0002e0 0d 47 09 bc 7f b4 2b bd f1 24 e5 3c 96 a0 2b bd
       -0.008378756 -0.04192018 0.027971717 -0.041901194
0002f0 0e 0e a3 3c 93 ec 2f bc 59 37 f4 bc 61 77 60 3c
       0.019904163 -0.010737556 -0.029811548 0.013700337
000300 89 57 17 bc a8 30 5e b9 3b cb eb 3c 67 f2 2d bd
       -0.009237179 -0.00021189696 0.028783431 -0.0424675
000310 ca e7 e1 3c 88 00 4f 3c 65 ef c8 3c 43 95 2a 3c
       0.027576346 0.012634404 0.024528215 0.010411563
000320 1b 2f 9d bc 8b c3 e7 3c 59 14 1a bc 4d 34 4b bc
       -0.0191875 0.028291484 -0.009404265 -0.012402606
000330 db 33 17 bc d5 d1 05 3c e0 e3 e4 3b 22 c3 cf 3c
       -0.009228672 0.008167704 0.0069851726 0.025361601
000340 22 67 72 3d 68 63 82 3c e5 40 35 bb 4a 9c 7f bc
       0.059180386 0.015916541 -0.0027657088 -0.015601227
000350 34 d1 72 3c 22 a5 72 3a 27 1b 9b 38 6e b3 a7 39
       0.014820386 0.0009256174 7.3960335e-05 0.00031986408
000360 85 9d c8 bb 84 60 31 bd dc cb 78 bc 74 de 90 bb
       -0.0061222934 -0.043304935 -0.015185323 -0.0044210497
000370 37 35 91 3c ec 53 34 3c 48 35 12 3d d5 32 4f bd
       0.01772557 0.011006337 0.035695344 -0.050585587
000380 f1 6c fa bc db 7d c8 3c 94 86 12 bc 82 3d 13 bd
       -0.030569525 0.024474075 -0.008943219 -0.03594733
000390 46 eb a8 bc bf 27 38 3d 3b 26 34 bb e9 e8 1c 3b
       -0.02062 0.04495978 -0.0027488607 0.0023942536
0003a0 73 d1 57 3b 6d b2 e0 bc f0 d6 91 35 8e 82 41 bb
       0.0032931238 -0.02742883 1.0865897e-06 -0.002952728
0003b0 06 45 bc bc cf 4f 0c bc f8 59 86 3c 3a ab 12 bc
       -0.022982132 -0.00856395 0.016400322 -0.008951956
0003c0 2d 4d 58 3d 7b e8 32 bd 39 43 82 3c 88 11 7a 3d
       0.052807976 -0.043678742 0.015901195 0.061051875
0003d0 0b c9 92 3c a9 36 97 bc e3 8c 49 3d 21 02 b0 bb
       0.01791813 -0.018458681 0.049206626 -0.0053713475
0003e0 94 82 dc bb 20 d9 2e 3d c3 c3 10 bc e3 8b 78 3c
       -0.0067294333 0.042687535 -0.008835736 0.01517007
0003f0 9c 59 38 3b 97 3f 79 bc 6e 59 db bc 9a db 0e bd
       0.0028129583 -0.015212915 -0.026776042 -0.034877397

network.6.bias f4 [64]
000000 bc 9d 6d bc b3 db b3 bc 53 fc 16 3d 7d df 26 bd
       -0.014502939 -0.021955347 0.03686173 -0.04074048
000010 b8 f1 36 bd 54 0e de bc 16 93 d5 bb 77 df 10 3d
       -0.044664115 -0.027106442 -0.006517778 0.035369363
000020 de b7 a5 3c 2d 5f 38 3d f4 81 ec 3c 5b 42 a9 3d
       0.020229276 0.04501264 0.02887056 0.082646094
000030 0d fb 8b 3b a8 ef 06 3c 3f 46 56 3c 01 a9 a9 bd
       0.004271871 0.008235849 0.013078271 -0.08284188
000040 f1 e9 4f bc f5 43 2d 3d d7 fd 56 bc 74 d1 a1 3d
       -0.012690053 0.042301137 -0.013122044 0.07901278
000050 40 75 c3 bc d5 1b 95 bc 1b d7 77 bd eb f1 4f bd
       -0.02385962 -0.018201748 -0.060507875 -0.05076782
000060 ca ef e2 3c a0 d1 6b 3d 3e 0f b2 3c 3d 53 1b bc
       0.027702231 0.05757296 0.021735784 -0.009480295
000070 b4 d6 5c 3d 16 36 82 3d 18 df 4a bd 8d 03 60 bd
       0.053915694 0.06357972 -0.049529165 -0.054690886
000080 01 33 ad 3d cf be 33 3d e2 80 7f 3d 66 94 12 bd
       0.08456994 0.04388314 0.06237877 -0.035786055
000090 b4 e2 4b bd 4d e8 01 bb 3c 80 a7 3c d2 3a 43 3d
       -0.049776748 -0.00198223 0.02044689 0.047663517
0000a0 57 b4 04 3d db 4b 65 bd 45 f0 66 3a 5a 9f 89 bc
       0.032398548 -0.055980545 0.00088096067 -0.016799618
0000b0 d4 6a 76 bd 87 40 fe bb 44 41 89 bd 29 79 1d bd
       -0.060160473 -0.007759157 -0.067019016 -0.038445625
0000c0 1b bc 8b 3c 8b 83 00 3b 81 f3 83 bc db 1a 90 bd
       0.01705747 0.0019609656 -0.016107323 -0.07036372
0000d0 46 5a 9d 3d b1 70 41 bd 77 e4 27 bc f5 ea 3d bd
       0.07683234 -0.04722661 -0.010247341 -0.04636665
0000e0 7b 6a e7 bc 38 b0 ed 3c 6f a3 2e 3d 11 bb 88 bd
       -0.028249016 0.029014692 0.04263633 -0.06676305
0000f0 86 4d 2c 3d 78 b8 95 3b 40 11 4f 3d 90 e0 1b bd
       0.04206612 0.0045691095 0.05055356 -0.038055956

network.9.weight f4 [32, 64]
000000 1f 02 ee bc 91 e6 bf 3c af 16 57 bd 9e c4 bb bb
       -0.029053746 0.023425372 -0.052511867 -0.0057302257
000010 07 80 af 3d a8 41 31 bd 69 5a 06 be 16 0e 9f 3d
       0.08569341 -0.043275505 -0.13120426 0.077663586
000020 b4 0e f7 bb 79 82 23 3d f4 54 7a 3d 0e 7c 97 bd
       -0.0075395945 0.03991935 0.061116174 -0.073967084
000030 8d b2 14 3d 1b 83 87 3c 3e 0c 57 bd 00 19 5c 3d
       0.03630309 0.016542008 -0.05250191 0.05373478
000040 b3 dc ae 3d f9 7a 87 3c 96 98 9e bd eb 0f fd 3c
       0.08538189 0.01653813 -0.07743947 0.03089138
000050 94 6e 67 bc d2 a9 34 3d 75 85 c5 3d 5e 92 ab bc
       -0.014125485 0.044107266 0.096445955 -0.020943817
000060 c3 a3 9d bd 8d 50 c7 3d ff 23 ca bc 91 29 fd 3c
       -0.07697251 0.09732161 -0.024675367 0.03090361
000070 64 b5 fb bd f7 da 80 3d 76 00 31 3d 6b 43 24 bd
       -0.12290457 0.06291764 0.04321333 -0.040103357
000080 6d 29 8e 3d 66 fd 92 bd ad b8 31 bc aa bc 9f bd
       0.06941495 -0.07177238 -0.010847253 -0.07799657
000090 f3 a9 a5 bc 74 f0 45 bb 09 8a c0 bc b5 52 b1 3d
       -0.02022264 -0.0030203136 -0.02350332 0.08658353
0000a0 4a 69 7e 3d ca 41 41 3d 56 48 4b 3a 24 e8 82 bd
       0.06211213 0.047181882 0.00077546143 -0.063919336
0000b0 8a 01 ee 3c ff 8d c1 3a c8 2e 7c 3c 5b dd 8a bb
       0.029053468 0.001476705 0.015392013 -0.0042378134
0000c0 84 13 aa 3d 84 a7 73 bd 4f 66 36 bc 79 e4 b8 3d
       0.083045036 -0.059485927 -0.011132791 0.09027953
0000d0 ef f2 5b bd 64 73 ef 3c 14 b5 c4 bd 00 93 09 bd
       -0.053698476 0.029229827 -0.096048504 -0.033587456
0000e0 67 39 c9 bd ab d5 7b 3d e5 ab c5 3d c9 2a a9 bc
       -0.09825402 0.061483067 0.09651927 -0.020650284
0000f0 0a 6c f3 bb e9 80 be bd aa e5 57 3d fc 17 7b bd
       -0.0074286507 -0.093019314 0.05270926 -0.06130217
000100 e1 36 1f bd 06 c0 db 3c 38 13 82 bd 4d 09 bb bc
       -0.038870696 0.026824962 -0.06351322 -0.022831583
000110 11 7c 33 bd a9 a3 5b bc 92 87 30 3c 85 46 5c 3d
       -0.04381949 -0.013405719 0.01077451 0.05377819
000120 b2 64 32 3d bc 07 d9 bd b7 70 c8 bc 93 1b b7 bd
       0.04355306 -0.10597178 -0.02446781 -0.08940806
000130 a3 c3 27 3c ee 15 cd bc 12 a4 db 3d 96 2b d7 bc
       0.0102395145 -0.025034871 0.10724653 -0.0262659
000140 0a 33 f9 bb 28 c2 08 3e 2a bf 21 bd ec 55 a6 bc
       -0.0076049613 0.13355315 -0.03948895 -0.020304643
000150 df 0d 82 bb e4 39 af 3d 88 37 2c bd 39 0b af bd
       -0.0039689387 0.08555964 -0.042045146 -0.085470624
000160 9c 24 0a bd 24 db c2 3d ab ea ba 3c ae 1f e6 bc
       -0.03372632 0.09514454 0.022816977 -0.028091278
000170 82 15 00 3e 4e ac a0 bd f3 5c 4e bd 11 c0 5b bd
       0.12508205 -0.078453645 -0.050381612 -0.053649966
000180 aa cd 59 bd 05 6c dc bd 63 da 05 3d e3 a2 8b bb
       -0.053174652 -0.107627906 0.032678973 -0.004261361
000190 7c ec 4e bd d9 b0 d6 3d 23 f0 e0 3d 89 2f c9 3d
       -0.050518498 0.1048295 0.109833024 0.0982352
0001a0 f5 e2 03 bc fc 6e bc 3d 4a 44 f9 bc 29 79 fc 3d
       -0.008049716 0.09200856 -0.03042807 0.12327797
0001b0 f0 e5 44 bb 45 8d 51 3c 2a c3 18 bd 31 34 64 bc
       -0.003004428 0.012790029 -0.037295498 -0.013928459
0001c0 d8 0b 47 3d 42 0c 75 3b 9e 9f d1 bd e2 45 cf 3d
       0.04859528 0.003739134 -0.10235523 0.10120751
0001d0 cb ee f6 3c bb 32 a2 bd f9 e3 af 3c 85 40 da bd
       0.030143162 -0.07919832 0.02147101 -0.106568374
0001e0 ab 7d df bb f4 d9 85 bd bd 40 05 bd 8f 01 95 bd
       -0.0068204007 -0.06535712 -0.032532442 -0.07275688
0001f0 a5 ef 84 3d ca 9d fb 3d 54 71 5f 3d 26 73 8a bd
       0.06491021 0.12285955 0.054551437 -0.06760244
000200 41 e8 5a 36 ce ce 31 3b 3d 94 0e 3a 0b 23 4e bd
       3.261972e-06 0.0027131322 0.00054389593 -0.05032639
000210 dd 09 75 3a 8c 46 b8 3b 7d 26 6a 3a 3e 1a b1 b9
       0.0009347478 0.005623644 0.0008932127 -0.00033779623
000220 f6 36 6b 3b 7c 86 df 37 ed ea 45 bd bc 79 2a b6
       0.0035890914 2.6646296e-05 -0.048319746 -2.5402833e-06
000230 a5 fe 3c 3d 96 4a cd bc 5a fa f7 b7 b3 bc d9 bc
       0.046141285 -0.02505998 -2.9561274e-05 -0.026579237
000240 e8 18 84 bc 7b ee a0 b9 60 db 2d 3c 44 02 4d bc
       -0.016125157 -0.0003069526 0.010611385 -0.012512747
000250 c7 53 51 bb d4 c2 2f 3b 30 77 e8 3a ff dd 80 39
       -0.0031940804 0.0026819007 0.0017735716 0.00024579462
000260 9b 77 26 bd 03 d9 17 b4 e6 64 36 3d f3 e3 0c af
       -0.04064141 -1.4141919e-07 0.044529818 -1.281391e-10
000270 9e ca f7 37 a3 da 01 07 ff 70 e8 bc a6 9b d9 3c
       2.9539045e-05 9.769133e-35 -0.028374193 0.026563477
000280 2a a8 fd ba e2 8a 7e 39 96 02 9d 3c ad e8 0a b6
       -0.0019352485 0.00024275066 0.019166272 -2.0699038e-06
000290 04 29 01 bb b8 e1 89 3b 5c 6b 82 3c e4 33 91 bb
       -0.0019708285 0.004207816 0.015920334 -0.0044312347
0002a0 1c 0e a5 bb 1d 58 a8 30 b6 49 03 07 46 8d 43 bd
       -0.0050370824 1.2248652e-09 9.877006e-35 -0.04774215
0002b0 16 02 8d b4 0e d7 24 35 ea d1 23 18 44 89 20 bb
       -2.6264814e-07 6.1407707e-07 2.1173236e-24 -0.002449588
0002c0 c4 88 27 bc 52 6f 29 bd 87 12 04 b0 29 7d 4e bd
       -0.010225479 -0.04136593 -4.804765e-10 -0.05041233
0002d0 1a 56 b6 07 15 dc a2 39 55 de cb 3b 5a 85 86 3b
       2.7434922e-34 0.00031063022 0.0062215724 0.004105252
0002e0 65 94 86 3a a7 e3 ae bc ae e1 c5 bc bf db 06 87
       0.0010267614 -0.021348787 -0.024155464 -1.0145617e-34
0002f0 32 ae 3d bb aa a8 50 bd 17 65 08 3d 69 95 c9 3c
       -0.002894294 -0.0509421 0.03329953 0.024607377
000300 74 6c 0d 39 7d 9b a3 b9 40 a3 0a 3d d3 ee 08 bd
       0.0001348721 -0.0003120563 0.033847094 -0.033430886
000310 8c 7a a8 bd 61 4c 48 bd f2 e4 3c 3c 3d 5c a8 3d
       -0.08226499 -0.048900966 0.011529194 0.08220718
000320 5d a9 b8 3c bf e4 af bd e6 0c c2 ba d6 a2 e0 3d
       0.022541696 -0.08588552 -0.001480487 0.109685585
000330 28 65 95 3d 3f 5d be bd 98 5b 5f bd f7 d7 64 3d
       0.07294685 -0.09295129 -0.05453071 0.055870023
000340 c8 fe 8d bc 49 51 88 bd 3e 5d 55 3c 0f 71 3e 3d
       -0.017333403 -0.06656129 0.013022719 0.04649454
000350 b5 46 df bc 00 b2 c7 3d 97 20 b7 3d 60 93 29 bd
       -0.027255395 0.09750748 0.08941763 -0.041400313
000360 0e 3f e7 bd 2e 10 ee bc 2d 9d be 3d 5d 57 57 3d
       -0.112913236 -0.02906045 0.09307323 0.05257355
000370 f3 7a f9 3c 20 4f ed 3d 75 93 61 ba 1c d9 07 bd
       0.030454135 0.115873575 -0.00086050417 -0.033166036
000380 b8 a1 ad 3d 39 2a 3b 3b 59 e6 91 bd be 9e f0 3a
       0.08478111 0.0028559102 -0.071240135 0.0018357856
000390 44 78 2e 3c f2 bb 58 bc f7 fe 3a 3c d8 10 e7 3d
       0.010648791 -0.013228403 0.011413327 0.112825096
0003a0 b8 fc 7e 3c 8e 36 ca 3d 16 1e b5 bd 86 21 2b 3d
       0.0155631825 0.09873687 -0.08843629 0.041780017
0003b0 ef 19 1a bc bc 84 31 3d 85 a3 e2 3c ea df 61 3d
       -0.009405597 0.043339476 0.027665863 0.05514518
0003c0 d5 74 9c bd 8a 8f d2 bd 87 00 00 bd 07 b6 be 3d
       -0.076394714 -0.10281284 -0.031250503 0.09312063
0003d0 c1 e3 af 3d 6d fe d7 bb a9 43 7e 3d 04 ac ab 3d
       0.085883625 -0.006591609 0.062076245 0.08382419
0003e0 a9 58 8d bd 10 be 18 bc df 8d 63 3d f1 25 6b bc
       -0.06901676 -0.009322658 0.05555522 -0.014352308
0003f0 6a 8f 2b bc 33 ab 22 3d 88 09 b5 bd 52 e4 f2 bc
       -0.010471204 0.03971405 -0.088397086 -0.029649887

network.9.bias f4 [32]
000000 63 4b c7 3c 9f 80 9e 3d d3 67 eb bc 20 ba ad 3d
       0.02432794 0.07739376 -0.02873603 0.08482766
000010 6d 96 35 bb 5e f0 06 bd a4 0c 99 bc 96 a6 cc 3d
       -0.002770807 -0.032944076 -0.018682785 0.09992711
000020 20 a7 b9 bc b5 0c 5c bd c6 b7 97 3d 4a 8a a2 3d
       -0.0226627 -0.053723056 0.07408099 0.07936533
000030 32 b8 f1 3d e0 80 e5 bc b4 73 d6 3b b2 6e 32 3c
       0.118027106 -0.028015554 0.0065445546 0.01089065
000040 7d 64 ef bc c2 bc 87 bd f1 20 bd 3d fe 76 db 3d
       -0.029222721 -0.066277996 0.09234799 0.10716055
000050 e9 d7 04 3e 99 44 81 3d 43 66 7a 3d 3b 98 66 3d
       0.12972988 0.06311912 0.06113268 0.056297522
000060 e4 0f 04 3d d0 91 c6 3d 1c 64 91 bd 64 b0 6b 3d
       0.032241717 0.0969578 -0.070991725 0.057541266
000070 33 ae b8 3c bc d9 9a 3b 14 f5 1b 3d 1a fa 85 3d
       0.022544002 0.004725663 0.03807552 0.06541844

network.12.weight f4 [1, 32]
000000 26 30 b0 3d 64 ff 1e be 3c bb 83 bb 7e 3b d4 bd
       0.086029336 -0.15527111 -0.004020123 -0.1036291
000010 82 97 c0 ba 93 40 52 bd f8 b6 de 3d 83 e7 86 3c
       -0.001469359 -0.051331114 0.10874742 0.016467815
000020 5f b3 26 bb 31 2b bc 3b f1 87 5d bd 04 99 9f bd
       -0.0025436503 0.0057424535 -0.054084722 -0.07792857
000030 89 f4 a2 bd b4 b6 cf 3c c9 13 2d be dd a4 48 bc
       -0.07956798 0.025355674 -0.16902079 -0.012246338
000040 93 2e ee 3d 30 9e a6 bd de 9c d1 bd d2 fe 07 bd
       0.11629977 -0.081356406 -0.10234998 -0.033202
000050 b9 41 8c bd 1c c1 29 be 73 f4 eb bc 56 36 97 3d
       -0.06848473 -0.16577572 -0.028803086 0.07383411
000060 10 a3 b4 bd 43 3f b3 3d 43 ac ab 3d 77 93 d2 3d
       -0.08820164 0.087523006 0.08382466 0.10282033
000070 64 34 f7 3d 0f 36 07 be 08 52 32 be ee c6 a4 bd
       0.120705396 -0.13204215 -0.17414105 -0.08045755
