data/models/regression_models/ML_including_industry_feature/single_dimension/urgency_reminder/version_best/checkpoints/epoch=59-step=1860.ckpt (torch, 207603 bytes, 21 tensors)

network.0.weight f4 [128, 45]
00000000: b4ca 3cbc 9452 c13d 0d5d 5bbd 0835 cb3c
00000010: 1710 53bd a0f0 f03c 198f 9bbd f3db 95bd
00000020: f3a1 35bd c43f 04bd e468 a73d 97f2 00bd
00000030: b14c 823d 027f 30bd b61b b2bc cd59 053d
00000040: a37e d3bd fa16 663d c2f4 f63c 1661 9b3d
00000050: 4783 7dbc b660 df3c d2e5 043c 28a9 5bbd
00000060: 4f92 63bb 90f4 003d c2ee f3ba db1a 813d
00000070: f290 37bc 698a d63b 09ad f7bc df2e 8cbd
00000080: 377e d83c 8764 2fbd 5154 b63d f1e1 eb3d
00000090: 79dc 4dbd 36fb 97bd b09e e43d 1810 c1bd
000000a0: d197 20bd 0d47 76bc 900e 22bc 5f48 573d
000000b0: bd56 11bd 8128 ec3c c606 9c3d 560a 773d
000000c0: 6950 313d 16b5 fe3d 91fb 06bb 410f 4b3d
000000d0: 8764 8fbd 7d84 7e3d 8940 133d 81bf 833c
000000e0: 1a5c 063d b27b 033e 5492 25bc 10ff 7f3d
000000f0: 9dba 25bd be1f 57bc 2068 dcbc 6da0 ea39
00000100: 242f 6ebc d668 0b3c 2484 603b 58cd 753c
00000110: d002 233c 72b9 5c3c 4b32 6cbb 3842 14ba
00000120: 6d10 553d fb8a d4bc 068c 023c 83d5 023c
00000130: a9ac 9fbc 725a cf3d 493c bb3d 6620 403d
00000140: 8e85 ae3b 7c87 9c3d b63e a3bb d964 e03c
00000150: 0e78 44bd b06f 63bd 70cd af3b 07a5 c93d
00000160: 513a 45bd 0029 973c 80e5 533d 4468 7c3d
00000170: 0a95 6bbd 8621 6b3d 6612 49bd b78d 9d3d
00000180: 7caf 913d fe9c c6bc facf 563d d38f 2abd
00000190: 7ad1 133d 3945 f93d 25cf 56bd 0fc6 ecbc
000001a0: 2d4b 4d3c a8d0 95bc 739d f0bd a9db fb3d
000001b0: 4f9f 11b9 bde0 8dbb 024f 8c3c e9fc 883c
000001c0: b6ca afbd af03 15bd 4860 19bc c12c f73c
000001d0: 1607 863c 2cbc 1dbc 37a1 973c 38b7 363c
000001e0: 01bb 9e3d ea95 d3bd 1767 23bd ba39 d13c
000001f0: 0854 fdbc fb31 e13d 05b2 8c3d fa71 babc
00000200: 75a2 0dbd a87a e0bd 0b3a 6f3d 7909 62bd
00000210: c8f0 49bd 51fd e73d 7abe a13d 5600 d5bd
00000220: 866d bcbd af45 0f3d 553c 6b3c 037f 2f3c
00000230: da6e 13bd 8030 193e 3063 5d3c 8be7 2dbd
00000240: 8195 f2bd fe45 a7bd cdb0 afbd e88d 133e
00000250: 2291 40bd 7557 483d a3ec ed3c 4fd5 b7bc
00000260: 47ee 213d 0fb0 073b a5f3 16bd bca5 92bd
00000270: 1666 823d 7869 e7bc fbeb 64bd b62c af3d
00000280: dc60 0f3d a3cc d7bb 5b6a 903d e2ca 4e3d
00000290: a380 c0bb d91e 76bd d255 f4ba eee4 c8bd
000002a0: eb7c b1bd 8484 003e 3c50 07be 001e 8e3d
000002b0: ed3e ef3d a22c b03d c540 a33d e4ab ea3d
000002c0: 6ad7 823d 210c 723d 0028 0ebd 73bc cf3d
000002d0: 9e7b 3abd 3a7e f6bc d73f 89bd 62a6 653d
000002e0: 4a07 ee3c 3a50 ae3d 3b51 bf3b 85af 3c3d
000002f0: 66e1 3d3c 5fd0 bc3d 8164 a1bc ce48 a83c
00000300: 13bc aa3d 9fa1 a53d abc1 0c3b 8603 923d
00000310: 5cb4 ce3c 1e80 58bd 2a79 ec3a a3c6 30bb
00000320: fc89 af3c 72b5 c13d 7002 45bc c91a 5b3d
00000330: ca4a 583d fe22 d53b db27 22b9 8ec5 0bbd
00000340: fe3d 08bd 9a4b 7d3c 71cd 75bd e39e 473d
00000350: 10c4 66bd 888d 7c3a d418 7dbd 7012 9a3d
00000360: f561 95bd 0b8e b13c cb8f aebd e9ca bdbd
00000370: 6e69 34b8 843f a33c 01c3 97bc 616a 03bd
00000380: a026 12bd aa74 813c a787 023e 01d0 913d
00000390: 11c8 4b3c 0ec7 4fbd d1af 453d 5d6d 14bd
000003a0: fb95 df3a c245 c0bc 1281 8ebd 5b12 34bd
000003b0: bf48 9abb 8132 fbbc ebef c13c 8b22 8e3d
000003c0: ffc5 8ebd c368 e8bd 06e9 dcbd 6ca5 f6bc
000003d0: fc0a 983d f6fe da3c 3b98 57bd b102 ebbc
000003e0: 0ebb 93bd 6fce 15bd 2333 393d 1062 8c3c
000003f0: 7455 ff3c 2f9c cebc 589c 62bb f9f8 3cbd
-0.011522938 0.09439579 -0.053555537 0.02480556 -0.051529016 0.029411614 -0.07595653 -0.073173426
-0.0443439 -0.032287374 0.08174303 -0.03148135 0.06362284 -0.043089874 -0.02174173 0.032556344
-0.103268884 0.056174256 0.030146006 0.07586877 -0.0154731935 0.027267795 0.008111434 -0.053628117
-0.0034724658 0.031483233 -0.0018610584 0.063039504 -0.011203991 0.0065472615 -0.030233877 -0.068448775
0.026427371 -0.04282048 0.08902801 0.11517704 -0.050259087 -0.074209616 0.1116308 -0.09426898
-0.039207283 -0.015031588 -0.009891167 0.052559253 -0.03548311 0.028827908 0.076184794 0.06031259
0.043289576 0.12436883 -0.0020596723 0.049575094 -0.07001596 0.06213807 0.035950217 0.016082527
0.03280268 0.12840155 -0.010105688 0.062499106 -0.04046117 -0.0131301265 -0.02690512 0.00044751485
-0.014537606 0.008508882 0.003425845 0.015002571 0.009949401 0.013471948 -0.003604072 -0.00056556193
0.052017618 -0.025945177 0.0079679545 0.0079854755 -0.01949151 0.10124673 0.09142358 0.046905898
0.0053259796 0.07643029 -0.004981841 0.027391838 -0.047966056 -0.055526435 0.005365066 0.098459296
-0.048151318 0.018452168 0.05173254 0.061622873 -0.05751518 0.057405017 -0.04908981 0.076930456
0.07113549 -0.024244782 0.052444436 -0.041641068 0.036088444 0.12171406 -0.052443642 -0.028903035
0.01253013 -0.018287972 -0.11748781 0.12297756 -0.00013887625 -0.0043297694 0.017127518 0.01672216
-0.08583586 -0.036380466 -0.009361334 0.030172708 0.0163608 -0.009627383 0.01850949 0.011152081
0.07750512 -0.10331328 -0.039893236 0.025540221 -0.030923858 0.10995861 0.06869892 -0.022759426
-0.03457876 -0.10960895 0.058404963 -0.055184815 -0.049301893 0.11327613 0.07897659 -0.10400455
-0.092005774 0.034978565 0.014357646 0.010711434 -0.03599439 0.14959908 0.013512418 -0.042457145
-0.11844922 -0.08167647 -0.08578644 0.14409602 -0.04701341 0.04891153 0.029043501 -0.02244058
0.03953388 0.0020704304 -0.03685345 -0.071605176 0.063671276 -0.028248534 -0.05588911 0.0855345
0.03500448 -0.006585674 0.07051536 0.050486453 -0.0058747097 -0.060088012 -0.0018641299 -0.0980929
-0.08666404 0.1255055 -0.132142 0.06939316 0.11681924 0.08602263 0.07971338 0.11458567
0.06388743 0.0590936 -0.034706116 0.10143366 -0.045528047 -0.030089486 -0.067016296 0.05606688
0.02905621 0.08511396 0.005838541 0.046065826 0.011589384 0.09219431 -0.019701244 0.020542528
0.083366536 0.080874674 0.002147774 0.07129578 0.025232486 -0.052856557 0.0018041481 -0.0026973865
0.0214281 0.09458436 -0.012024507 0.05349234 0.0528057 0.0065044155 -0.00015464371 -0.03412395
-0.033262245 0.015459919 -0.060010377 0.04873551 -0.056339324 0.0009634127 -0.061791256 0.07523048
-0.072940744 0.021674177 -0.0852352 -0.09267218 -4.3013533e-05 0.019927748 -0.018525602 -0.032083873
-0.035681367 0.0158027 0.1274706 0.07119752 0.012437836 -0.050726943 0.048263375 -0.03623711
0.0017058247 -0.023470763 -0.06958212 -0.043962818 -0.004708379 -0.03066373 0.023673972 0.06940182
-0.069713585 -0.11348107 -0.10786633 -0.030108176 0.0742397 0.026732903 -0.052635413 -0.028687807
-0.07213412 -0.036573824 0.045214783 0.017136604 0.031168677 -0.025220959 -0.0034578051 -0.046135876

network.0.bias f4 [128]
00000000: 8b07 be3d f3e7 32bd 7a20 233d 3d04 de3c
00000010: d7b5 b7bc 94f9 063e fb4e cfbc 1f96 973d
00000020: e0fc 893d a55f bd3d d37e c93d 4b05 893c
00000030: 31f7 89bd c76c c5bd 1eb9 0abd b269 9dbd
00000040: 6270 38bd 453c 77bd 50cf b83d f16a 163d
00000050: e467 c43d ffc9 b3bd 70f8 cebc 37ae 59bd
00000060: 6082 4bbc 1e7b 03be 9df0 cfbd 71a3 08bd
00000070: e180 32bd da07 bb3d b2dd 013e 454e d9bd
00000080: 37b4 863d cccd fa3c 772d fd3d 7728 c3bd
00000090: 47fe 90bd b46c af3d 1ec7 13bd 1589 d93d
000000a0: ec3e c9bd 71a2 913d 3a16 723d 835b 18bc
000000b0: 8520 203e abcc f13c 3dda 34bd 934d ca3d
000000c0: 632c a7bb edf5 b1bd c83a c63d 8f51 58bd
000000d0: 942a b23c deee b63d 92fe 223d ae0e bc3d
000000e0: fb68 af3c 0aad b43d 0317 93bd a581 663d
000000f0: a784 55bd b57c f93d a153 c13c 56cd dcbd
00000100: 50ff a93d 265d 203d 77b2 253d 6a78 f0bd
00000110: 3221 8f3c 08dc 6fbd f029 833d e898 453d
00000120: 77ac 053e 3584 553c 122a 793d b46d f43c
00000130: 48c4 953d c8a3 f63d 2ae2 e13d f503 9f3d
00000140: 0896 89bd e909 993d 175a 913d b136 493d
00000150: c280 41bd cdb1 4b3c e1d5 0b3e e7fa 043e
00000160: d625 89bd 4063 023e 1668 acbd f2d9 8b3d
00000170: 819f 313c f23c 84bc 27ff 1a3c f840 c5bc
00000180: c61c ad3d a18f a23d ffc6 d2bd b101 843c
00000190: 4cc6 a1bd 2798 dbbd 68b1 8b3d 0726 67bd
000001a0: 7e78 a13d 8ed4 a73d e2e8 b53d 6987 b4bc
000001b0: 1a12 c13d b585 a0bd 7598 f63d 8338 d4bb
000001c0: 62de fd3d 26a4 843d b2ed 3fbd 80d0 ccbd
000001d0: b0e4 803d 8b7f 013e 6caa a43d 2de6 64bc
000001e0: bf4f ecbc 67db 37bd 7860 1f3d 1479 c23d
000001f0: 4daa 8abd 639a 803d 76ba bd3d 311e ec3d
0.092787825 -0.043678235 0.039825894 0.02710163 -0.022425575 0.13181144 -0.025306216 0.0740168
0.06737685 0.09246758 0.09838643 0.016726157 -0.06736601 -0.09639888 -0.033867948 -0.076861754
-0.04502905 -0.060360212 0.09023917 0.03672308 0.09590128 -0.08778762 -0.025264949 -0.05314466
-0.012421221 -0.12839934 -0.10153315 -0.033358995 -0.04357994 0.09132357 0.12682226 -0.10610632
0.06577342 0.03061571 0.12362187 -0.095292024 -0.070797496 0.08565655 -0.036078565 0.106218494
-0.098264545 0.07111061 0.05910323 -0.009299162 0.15637405 0.029516539 -0.04415344 0.09878077
-0.005101727 -0.08689485 0.096791804 -0.052812155 0.021748818 0.08932279 0.03979356 0.091824874
0.021412363 0.08822067 -0.071821235 0.056275982 -0.05212846 0.12181989 0.023599448 -0.10781352
0.0830065 0.039151333 0.0404534 -0.11741717 0.017471883 -0.058559448 0.06404483 0.048241526
0.13054071 0.013032009 0.060831137 0.029837467 0.07312828 0.120429575 0.110294655 0.077644266
-0.06718069 0.07472593 0.070972614 0.049124423 -0.047241934 0.012432528 0.13655807 0.12986337
-0.0669667 0.12733173 -0.0841829 0.06828679 0.010841251 -0.016142342 0.009460247 -0.024078831
0.08452754 0.07937551 -0.10291862 0.016114088 -0.0789915 -0.1072238 0.06820947 -0.05643275
0.0788431 0.081948385 0.088823095 -0.022037225 0.09427281 -0.078380026 0.120407976 -0.0064764633
0.12395932 0.06476621 -0.046857543 -0.10000706 0.06293619 0.1264631 0.08040318 -0.013970894
-0.02884662 -0.044886973 0.03891036 0.0949575 -0.067707635 0.06279447 0.0926408 0.11529196

network.3.weight f4 [64, 128]
00000000: f9e3 1cbd 7c67 c13c b647 153d d50a f83a
00000010: 11f6 543a 9238 5dbd 5693 13ba 6750 b6bc
00000020: 0e58 c9bc da9e 67bd 18d2 cbbc 5e70 2bbd
00000030: c575 353a a09f 293d b50d 953d 5fe3 3ebd
00000040: 2a64 28b9 e618 043d 4d8b 62bd 03b2 eebc
00000050: b1c2 3a3d 09ba 35bc 8e30 12bd 31e8 e63a
00000060: b6b5 e4bc c790 68bc 10db 02bd f07c 273d
00000070: 6b04 0bbb b0f0 e23c b34a b33c 0a32 d23c
00000080: 8b57 973c 6127 863d 759c 883d 0617 803c
00000090: 3854 d1ba 7961 fc3c eea1 993c d559 973d
000000a0: 4fd2 9eb9 3a7f 0e3d 5762 e4bc 5dea ff3c
000000b0: 92d7 e4bc cc49 1a3d afed 71bc e69c a23c
000000c0: 561d 7cbd 9224 25b9 19b8 7bbd 47f3 9ebb
000000d0: 37e7 3f3d 8e5c 48bd c070 513d 98ca 27bc
000000e0: ef76 d23c bb1e ef3c 910f 963c 94e8 303d
000000f0: 7af5 c8bc 9d09 6f3d 6fc5 383d b426 79bb
00000100: b9e0 57bd 27a9 bcbc e6e3 513d 56c6 293d
00000110: 8a68 3ebc 7092 5ebc 6de7 9a3d 8af2 13bd
00000120: aec8 8f3d 4a02 c63c 99a9 363c 8a20 dcba
00000130: 6a3e 753d e24f 723c 9605 75bd 7151 d23c
00000140: d5c4 213d 4103 2cbd c6dc b2bb e14e 133c
00000150: 7d99 353c a756 62bc 772c a43d 255a 51bc
00000160: dff4 84bb 32f6 75bc 46f3 4e3d c1c2 9f3c
00000170: ef8e a93c 13aa 0839 356a 043d 2c20 d83c
00000180: 8ea9 adbb 5046 d23c 5d1b 903c dec1 4ebc
00000190: 8d34 a53c 16da 233c e419 773d 1b3b 083b
000001a0: b0a8 01bd 3ef4 76bd 3340 963d 5737 cc3b
000001b0: 785c 86bd 94bc 823d e355 e13b b848 5f3a
000001c0: 0d7c 843d f62e 66bd 3555 283b a8fe 92bc
000001d0: 3fb0 7b3d 8362 813d 3076 ac3c 4b42 ea3c
000001e0: 1d2a 493d 003e d2bc 2e8d 6dbb 9dde 343d
000001f0: 258d 973d 892e 6ebd fcab 9cbc 4787 413d
00000200: 948c db3c 308e 51bd eeda 253b cd3b d23c
00000210: 10fe 023d 0723 73bc b694 fabc 90e6 253d
00000220: 9408 563d 68fc 963b d809 58bd 96d5 9ebd
00000230: b1f6 ffba bd3c a93b e719 a23d 20dd 223d
00000240: d122 28bc e284 83bb f7b8 6e3c 9e2b 0e3d
00000250: 8ab5 5f3c fae1 52bc 2d4f 87bd 4478 91b8
00000260: d25a bebc 8023 46bd 7efe a7bd 7cb1 d63c
00000270: 8b98 113d 580d fa3c cee6 2a3d af15 8b3d
00000280: c633 5e3d 92e3 a63d 0bec 63bd df21 753d
00000290: 8071 243d 6c04 a0bb 681e 533b 65f0 e9bc
000002a0: 3724 ff3c 0ff8 48bd bc81 10bd e9b4 63bd
000002b0: 4e89 883d 655b 9e3d 62dc 33bd 6327 173d
000002c0: 1a0d e9bc 8cda ab3c afcf 043d e5c4 a53c
000002d0: 41d7 66bd 2e09 623d 962d 3abd 99db 163d
000002e0: 1b0e ccbc 9c64 a83d 0c70 acbd ac1a 58bd
000002f0: db64 a2bc b093 fb3c 109d a73c e919 4f3d
00000300: 66ae 1b3d ec1f de3b ede5 b83c a31f e83c
00000310: 9dfe 753d 93e1 483d 4e11 833d c52e 383d
00000320: b962 cb3b bdf1 6c3c a078 bcbd fbcc 6638
00000330: f6ec fd3b f072 b23c 6341 28bd 0647 54bd
00000340: afd5 32bc 0c7e 81bd 5047 4fbd 9308 b5bc
00000350: 09ca 1b3b eedc 8fbd 026b 103d 6a96 ac3d
00000360: 4f41 153d ea0c 613d 6d88 12bd f6c7 653d
00000370: 200f 683d 39a6 80b9 ed7c a9bd d6e7 e53c
00000380: 78ef f93c 2249 a8bd 202a d1bc 3daa 11bd
00000390: c56d 83bd 7ca3 2e3d 5d22 db3c c1ad 87bc
000003a0: c8a7 663d f8cb 80bc 44b1 a23c ac99 58bb
000003b0: d235 4a3c 782c a63d 842b cf3a 072e d73b
000003c0: d7d6 1a3d 4ef6 51bd 89c7 9b3b 900f acbc
000003d0: 130e 1f3c 93fc 69bc 7ef2 d43b f33a 7d3d
000003e0: c933 473d 86fc 633c df01 353d b1c5 60bb
000003f0: 4cf3 ec3c d430 beb9 5251 9e3d 612f 47bd
-0.03830335 0.023608916 0.036445342 0.0018924127 0.0008123825 -0.054009028 -0.000562956 -0.022255136
-0.02457812 -0.056547977 -0.024880454 -0.04185521 0.0006922151 0.041411996 0.07278005 -0.046603557
-0.00016059043 0.032250308 -0.05530863 -0.029137617 0.04559583 -0.0110917175 -0.035690837 0.0017616806
-0.027918678 -0.014194674 -0.031947196 0.040890634 -0.002121235 0.02770266 0.021886205 0.025658626
0.01847436 0.0655048 0.06670467 0.015635978 -0.0015970534 0.030808197 0.018753972 0.07390181
-0.000302928 0.0347893 -0.027878923 0.031239683 -0.027934823 0.037668034 -0.014766141 0.019850206
-0.061551414 -0.0001574925 -0.061454866 -0.0048507783 0.046851363 -0.048916392 0.051132917 -0.010241173
0.025691478 0.029189458 0.01831797 0.043190554 -0.024531115 0.058358777 0.045110162 -0.0038017454
-0.052704547 -0.023029877 0.05124273 0.041448914 -0.011621604 -0.013584718 0.07563672 -0.036119975
0.070206985 0.024171013 0.011148834 -0.0016794365 0.059873976 0.014789553 -0.05981978 0.0256736
0.039494354 -0.04199529 -0.005458447 0.008990974 0.011083958 -0.013814605 0.080162935 -0.01277784
-0.004057511 -0.015012311 0.050524972 0.019502046 0.020698039 0.00013033328 0.03232785 0.026382528
-0.0052997535 0.025668293 0.017591173 -0.012619464 0.02016666 0.010000726 0.060327426 0.0020787183
-0.031655014 -0.06029152 0.07336464 0.006232183 -0.06560606 0.06383625 0.0068766936 0.0008517611
0.06468973 -0.05619713 0.0025685553 -0.017943695 0.06144738 0.06317618 0.02105245 0.028596064
0.049112428 -0.02566433 -0.003624748 0.044157613 0.07399968 -0.058149848 -0.019124977 0.04724815
0.026800431 -0.05116099 0.0025307494 0.02566328 0.031980574 -0.014839894 -0.030588489 0.040503085
0.052254274 0.004607726 -0.052743763 -0.07755582 -0.0019528476 0.0051647113 0.07915097 0.039761662
-0.010262207 -0.0040136436 0.014570466 0.034709565 0.013654122 -0.01287126 -0.066068985 -6.93654e-05
-0.023236666 -0.0483737 -0.082028374 0.026207678 0.035545867 0.03052394 0.04172402 0.06791245
0.054248594 0.08148874 -0.05564503 0.059846755 0.040147305 -0.0048833396 0.0032214168 -0.028557012
0.031145198 -0.049064692 -0.035279974 -0.05559245 0.06666814 0.07732276 -0.043911345 0.036902796
-0.02844863 0.020978235 0.032424625 0.020235488 -0.056357626 0.055184536 -0.04545363 0.03683052
-0.02490907 0.08222315 -0.08419809 -0.05275981 -0.019823482 0.030710071 0.020460635 0.05056182
0.038008116 0.0067787077 0.022570575 0.028335398 0.06005727 0.04904325 0.06399785 0.044966478
0.006206837 0.014461932 -0.09202695 5.5027176e-05 0.007749195 0.021783322 -0.041077983 -0.051825546
-0.010915204 -0.0632287 -0.05060512 -0.022098815 0.0023771545 -0.07024561 0.0352583 0.08427127
0.036439236 0.054943956 -0.035774637 0.0560989 0.05665505 -0.00024537908 -0.08275781 0.02806465
0.030509695 -0.08217074 -0.025532782 -0.035562743 -0.06417421 0.04263638 0.026749784 -0.016562345
0.056312352 -0.01572226 0.019859917 -0.003305058 0.012341933 0.081139505 0.0015805815 0.006566766
0.037802543 -0.051260285 0.004754011 -0.021003515 0.009707945 -0.01428141 0.006498634 0.061823796
0.04863337 0.013915187 0.044191238 -0.003429752 0.028924607 -0.00036276004 0.07730354 -0.04862917

network.3.bias f4 [64]
00000000: 1e36 633c d65a ea3c a562 bd3c fbe7 333c
00000010: c448 a83d 871c 6cbd ba19 35bc e7a7 8f3d
00000020: dcbe a33d 1576 953d fbcf 7c3d eef6 2ebd
00000030: 3e71 793b a2ff 53bd 436d 663d d970 b73d
00000040: 4a2f a3bd 2094 38bd 8d7c 823d b992 8cbd
00000050: ee7a 42bd cb43 cb3c e19e fb3b 80fa b53d
00000060: f943 343d 34c6 aabc a87a c23c 4dcd 9dbd
00000070: 89a0 773d ccdb 833d 759d 993d 9bb8 8ebc
00000080: 5873 5fbd 30e8 563d 9997 06bd 9691 cdbb
00000090: 3589 7abd a4bb abbc e1ca 8d3d af54 76bd
000000a0: 749e b23d f4f2 313d c8f4 d53c 4386 c23d
000000b0: 14c5 88bd 5fd4 37bd 77c5 8b3d d620 223d
000000c0: db4c bc3c 2c02 76bc 479c a03d 9db6 f23c
000000d0: 529d 923c 2bb4 163b 89a1 933d b320 83bc
000000e0: 4e9b 32bc 3beb 353d a05f 343c 0566 c23c
000000f0: e4b9 3fbd 2529 b83a d2ff 9d3d 11cb 9a3d
0.013867883 0.028607767 0.023118326 0.010980601 0.08217004 -0.057644393 -0.011053497 0.07014447
0.07995388 0.07297913 0.061721783 -0.04271596 0.0038061882 -0.051757462 0.056256544 0.08957071
-0.07968004 -0.045063138 0.063714124 -0.068639226 -0.047480516 0.0248126 0.007678852 0.0888567
0.044010136 -0.020846464 0.023740128 -0.07705174 0.060455833 0.06438407 0.07500736 -0.017422011
-0.05455336 0.052467525 -0.03285942 -0.0062734587 -0.061166007 -0.020963497 0.06923462 -0.060139354
0.08721629 0.04344459 0.026117697 0.09498265 -0.06678215 -0.044880267 0.06824773 0.039582096
0.022985866 -0.015015166 0.078423075 0.029628092 0.017897282 0.0022995572 0.07208545 -0.016006803
-0.010901285 0.044413786 0.011009127 0.023730287 -0.04680814 0.0014050348 0.077148095 0.07558263

network.6.weight f4 [32, 64]
00000000: 3721 21bc 411b c33c ae23 9d3c ef4f 89bc
00000010: b5cf 8dbb 7f9b c5b5 39f3 5e39 dba2 42bc
00000020: b3dd 243d bcd3 7ebb 7a52 8fb8 9963 60bc
00000030: 0726 be38 4612 0615 e1f1 3b3c 3319 9bbc
00000040: 7282 342f 878e dabb 8166 6f3b 5dbc 221f
00000050: 686a 05bc 385f d7b4 b07c 7dbc 9368 8c3c
00000060: 3b29 d93b 9d16 81b9 56d8 e229 bf39 4e37
00000070: 4cd0 0fb7 6bf7 093d 50a5 c039 a6a8 45b1
00000080: adc4 0931 6f22 04bc 6fd9 df37 a3cb 453c
00000090: 665e 483a 3cf9 5b0d 7b99 cebb af3e 8239
000000a0: f82f 8abc f811 9ebb 19cb 9cba 00f4 c0bb
000000b0: 6269 19bc d392 8120 6753 26b6 734c 113b
000000c0: 306a b139 b236 6a35 4d24 1fbb 1a7f c6b9
000000d0: 35e9 19b4 0173 da35 9932 b9b9 4d1f 95bc
000000e0: 347a 5fad 2421 73bc f5fe e039 e544 083c
000000f0: 22c0 ddb5 20c2 2a3c 3c68 9d3b 737f f13b
00000100: 3f7a f4bc db7a 353d 14fc 4a3c fea8 a8bb
00000110: f0d0 6a3d 5d16 563c 627a 9d39 bf5c 833c
00000120: f9e0 073d cba8 41bd bd06 e1bc 1144 e63b
00000130: 57da ee3c 3483 ac94 8a2f c83c f1af aab9
00000140: 9b2e 0d36 510b 2eba 0ba1 10bd 1096 1eba
00000150: b26a 7eb4 904e 033d 109a 0fbd fe8c 01bd
00000160: 42b5 06bc ad4a aebc 5423 c1b9 e6ba fab7
00000170: aa14 0e3d da61 833d 594d e0bc e5b6 18bc
00000180: bfc5 c23c 286c dfbc 3f7c 9e3c 0c7d aa3c
00000190: 27fd 613c 55f4 19bb 77e2 5b3c 0d67 853c
000001a0: e2bd 82ba 30a2 173d fcac 21bb 3d8d 96bb
000001b0: 7eeb 993c 50a1 92ba d1ba a73c a506 6dbb
000001c0: 74a2 0a3c dd90 d5b8 af2e 5f3d de6e 3abc
000001d0: 6f35 9d3b e6dd 7337 3f82 88bc 6c10 04bd
000001e0: 1c3a a431 bc47 3f3d b05a 27bc 8df4 943c
000001f0: 1cd4 3138 dfda 1bbb 9f7e 8cbc 6916 92bc
00000200: 07d3 8fbd cec9 f4ba b06b 81bd 327a ba3b
00000210: 0f34 da3d ff87 d3bb 95ed 003d 384f 81bd
00000220: e484 b23d d0c1 7c3d 7ada 3fbd 43d4 ccbd
00000230: 82f2 913d 10c4 03bc 0a5f c9bd 044c 683d
00000240: 6670 33bd 1cda 33bd d111 edbd 2f7d 94bd
00000250: fd32 523c beaf b13d b97a 6bbd 398b 3a3d
00000260: 5485 643d 4629 2cba 9289 033d 0acf 02bd
00000270: 2230 dcbc ebad 033c 71a0 b7bd 7793 59bd
00000280: 6c25 343c 7f12 2d3d e6a3 62bc beac dbbd
00000290: b560 6dbc 53f1 6cbd 0fb7 91bd 4ad1 b2bd
000002a0: 619e 58bd 7d98 743d 581c 16bd cb9a e5bd
000002b0: 25b1 943d e468 84bc 91c7 1c3d 7942 fbbb
000002c0: 65bd 5b3d 1aac 82bd 5189 4a3d 955f 3a3d
000002d0: ebff 9bbd f88d cc3c 5b2c b6bd 7058 9bbd
000002e0: 0904 493a 6698 f13c b938 ab3d 326b e8bc
000002f0: 9110 0c38 1e0d 9cbd 9978 ad3d e080 73bd
00000300: da8a 73bd 866e 4bbc ec08 843d b7d0 12bd
00000310: 5453 4c3b 63c1 60b7 4b10 b63c 817e a73c
00000320: 0fd1 83bd 8b15 443d bddc a5bc 8cb2 443c
00000330: 908f 46bc 1103 48bc 5acd 703d a9f6 603d
00000340: 7221 82b8 58e7 c5bc 62b4 89bd 9609 453d
00000350: bb78 3ebc 5e70 b23c 97db 9c3b f9e5 49bd
00000360: b4e4 8cbb 2139 d8bc 6755 ffbc f883 d9bb
00000370: ff60 8bbd 8634 d83d 3ce3 a1bd 23c3 c3bc
00000380: 5971 633d 31f5 193d f932 1087 87b8 dfbc
00000390: 7d23 bc3b 4022 953d efe4 c13d 3f8a 983c
000003a0: ca78 6d3d 10bd aa3d cd37 053c cbd6 acbc
000003b0: c035 52bc ebfe 9e3c 8a15 373d e3b8 0e3b
000003c0: d532 48bd b1c2 853c dac4 2fbd b653 7d3d
000003d0: a634 99bb 0f15 e2bb 7ae5 d7bc bd74 65bd
000003e0: 1f08 39af 8d72 693d f64b 923c 4a94 c1bb
000003f0: 1af6 b935 0a2d 8c3b 0abb 9dbc 8474 e6bc
-0.009834579 0.023816707 0.019182052 -0.016761748 -0.004327739 -1.4722899e-06 0.00021262177 -0.011879648
0.04025049 -0.0038883528 -6.834134e-05 -0.013695621 9.066989e-05 2.70755e-26 0.011471243 -0.018932914
1.6417248e-10 -0.0066698226 0.0036529603 3.4460645e-20 -0.008143045 -4.0116151e-07 -0.015471622 0.017139709
0.0066272295 -0.00024621646 1.00739444e-13 1.2292002e-05 -8.571962e-06 0.03368322 0.0003674426 -2.8763139e-09
2.004792e-09 -0.00806485 2.6684922e-05 0.012072477 0.0007643461 6.778459e-31 -0.0063049174 0.00024842235
-0.016868576 -0.0048239194 -0.0011962383 -0.005888462 -0.009363504 2.195061e-19 -2.4784474e-06 0.0022170811
0.00033839187 8.7251385e-07 -0.0024283112 -0.000378602 -1.4334076e-07 1.6275736e-06 -0.00035323648 -0.018203402
-1.2703217e-11 -0.014839444 0.00042914567 0.008317207 -1.6521701e-06 0.01042226 0.0048036855 0.0073699295
-0.029843448 0.044306617 0.012389202 -0.0051470986 0.057328165 0.013066855 0.00030036556 0.016035436
0.033173535 -0.047280114 -0.027469033 0.007027157 0.029156847 -1.7419312e-26 0.02443673 -0.00032556013
2.1037765e-06 -0.00066392595 -0.035309833 -0.0006049583 -2.3694409e-07 0.032057345 -0.035059035 -0.0316286
-0.008221926 -0.021275843 -0.0003683815 -2.9889354e-05 0.034687676 0.06415148 -0.027380632 -0.009320949
0.023775933 -0.027273253 0.019346355 0.02081158 0.013793266 -0.002349158 0.013420693 0.01628449
-0.0009974802 0.03701991 -0.0024669757 -0.0045944736 0.01878905 -0.0011186991 0.020474823 -0.003616729
0.008461583 -0.00010183614 0.05448788 -0.011378972 0.0047976295 1.4535593e-05 -0.016663669 -0.032242224
4.7796345e-09 0.04669927 -0.010214493 0.018183017 4.239763e-05 -0.002378158 -0.017150221 -0.017832952
-0.07022672 -0.0018675865 -0.06319368 0.0056908363 0.10654461 -0.006455421 0.031476576 -0.06313938
0.08716753 0.06170827 -0.046839215 -0.10001423 0.07126333 -0.00804235 -0.098325804 0.05671312
-0.043808363 -0.043909177 -0.11575664 -0.072504394 0.012829539 0.08676098 -0.057490084 0.04554293
0.055791214 -0.00065674295 0.03211362 -0.03193573 -0.02687842 0.008037071 -0.08966149 -0.05311915
0.01099525 0.042253967 -0.013833022 -0.10726307 -0.014488389 -0.057847332 -0.07114994 -0.08731325
-0.052885417 0.059715737 -0.036648124 -0.11211165 0.0726035 -0.016163297 0.03827626 -0.0076678363
0.053647418 -0.06380482 0.04944736 0.04550131 -0.07617172 0.02497004 -0.08895179 -0.075852275
0.0007668143 0.029491615 0.08360428 -0.028371427 3.339403e-05 -0.076196894 0.08470268 -0.059449077
-0.05945859 -0.012416488 0.06447014 -0.035843577 0.0031177597 -1.3396467e-05 0.022224566 0.020446064
-0.06436359 0.047872107 -0.020246858 0.0120054595 -0.012119189 -0.012207762 0.05878959 0.054922733
-6.205113e-05 -0.024158165 -0.067238584 0.048104845 -0.011625464 0.021782096 0.0047869193 -0.049291585
-0.0042997245 -0.026394429 -0.031168653 -0.0066380464 -0.0680561 0.10556893 -0.0790467 -0.02389676
0.05552802 0.03758735 -1.0848335e-34 -0.02730967 0.005741535 0.07281923 0.09467494 0.018620608
0.05797652 0.08336842 0.00813098 -0.021098515 -0.012830198 0.019408664 0.044698276 0.0021777682
-0.048876602 0.016328188 -0.04291234 0.06184741 -0.0046754656 -0.006899483 -0.02635454 -0.056019533
-1.6828537e-10 0.05699401 0.017858487 -0.00590757 1.3855199e-06 0.00427783 -0.019254226 -0.02813173

network.6.bias f4 [32]
00000000: 6baa 8ebd 5a22 85bd d7b0 ef3b 2564 76bd
00000010: 4b6e cd3d ab0a 84bd 719f 89bd 73d7 3fbc
00000020: 47a2 1b3b 3af2 c53d c4dc 0fbc 9c92 90bd
00000030: ed21 1bbd 3bb8 603c d303 68bd 6d87 93bd
00000040: 036e a43d bfd3 39bc c761 2dbc 817c 9bbc
00000050: 50b1 81bd fb72 853c fc00 77bd e3b7 9b3d
00000060: 61af 7a3d b775 9cbc 253c cc3d b92e abbd
00000070: ae8a 87bd a0ac 20bd 46b0 f2bc a894 8fbd
-0.069660984 -0.06500693 0.007314782 -0.0601541 0.10030802 -0.06447347 -0.06719864 -0.011709082
0.0023747848 0.09665342 -0.008780662 -0.070592135 -0.03787415 0.013715799 -0.056644272 -0.07203565
0.080287956 -0.011341988 -0.010582394 -0.018980267 -0.06332648 0.016290179 -0.060303673 0.07603433
0.06120241 -0.0190991 0.09972409 -0.08358521 -0.06618248 -0.039227128 -0.02962507 -0.07010776

network.9.weight f4 [1, 32]
00000000: 0180 43bc 19c5 af3c 605f b23d 429b ec3d
00000010: c1f1 473d 2b3b f53d 27e2 c73d 8fc4 3abe
00000020: 10fe 05be 3b00 563d 94ab 65bb 96ce 7e3d
00000030: b8aa fbbd 135f 00bd 2a8e 17be 1ea4 2dbd
00000040: a2e1 743d e9d9 f233 c190 c53d 0726 fabc
00000050: b910 1b3e 1c18 58bd 3647 073d eb6b 27be
00000060: e316 0ebe 3a08 6a3c 1b46 01be 9e29 e8bd
00000070: ba68 953d 1987 adbd e5c0 81bd 1414 eabd
-0.011932374 0.021456288 0.087095976 0.115530506 0.04881454 0.11974176 0.09759932 -0.18239044
-0.13085198 0.052246314 -0.0035044895 0.062208734 -0.122884214 -0.03134067 -0.14800325 -0.042392842
0.059785493 1.1308641e-07 0.0964675 -0.030535711 0.15143098 -0.052757367 0.033026896 -0.16349761
-0.13875918 0.014284188 -0.126244 -0.11336063 0.07295366 -0.084730335 -0.0633562 -0.11429611

exp_avg f4 [128, 45]
00000000: 35ed 8ab9 810e 11b7 b458 4f39 72c8 91b8
00000010: a2f4 3bb9 39e6 2438 f444 9bb7 3af8 85ba
00000020: eec6 0db9 c733 9139 136f e339 83f2 4439
00000030: 258f 8db8 1c2c 5fb8 ef5a 7eb7 88f7 c6b7
00000040: 89bf ef39 0f5b 4bb9 640b 0438 6d73 8739
00000050: aec2 f0b8 0732 75b9 d49d 38ba 9f56 05b8
00000060: bc0e 8138 94fa 8f38 eb39 20b5 8cff 4c37
00000070: a822 f8b8 58ac 0337 ee73 50ba 725c 17b8
00000080: b0a2 0239 3725 13b9 66f8 ab39 ba98 5c38
00000090: c3bd 2b38 fe86 66b9 2e19 053a 70a9 bab9
000000a0: 4a81 02b9 7d37 5fba bba6 2939 b271 08b9
000000b0: 5c65 2039 2688 48b8 e879 3b39 21e6 f6b6
000000c0: cc9c d838 a40a b839 60b8 3d38 83a7 d0b8
000000d0: 9d7c 86b7 a213 0c39 f435 8bb8 1e63 f937
000000e0: 7405 46b8 c08c 2937 0aac ee36 8c90 0538
000000f0: 857f 07b8 843c ca37 caee 0139 1cdb fab3
00000100: ad45 f0b8 80e7 3238 2b9e 10b9 c600 1838
00000110: 2822 9336 dc87 5b37 777c 93b7 f8d4 98b5
00000120: 89a6 cd38 27c7 9fb8 8753 f936 2c4a 3438
00000130: 7561 0ab9 eacd dc38 746b 5839 ba56 91b7
00000140: e8ac f937 1cfb ad38 5c3e 1bb8 5bef e136
00000150: b72a 4539 979d 2c39 9963 8b38 4e5b 0d39
00000160: a400 aab9 9e72 89b9 e852 97b9 5abe 02b8
00000170: 74f1 d8b8 4c6b 4137 ce99 4839 a80f e338
00000180: 6534 b438 9a5b efb7 fd83 4f37 05c0 c538
00000190: 2d04 efb7 bfd7 c4b8 1396 d9b8 ea37 3db8
000001a0: 8c1e 5938 3e46 07b9 f9e4 fdb9 24f7 2439
000001b0: 049b 8ab5 bbc3 83b8 cbba 5038 dd13 07b9
000001c0: 55ad 11b9 da22 da37 bcfe 3cb8 400b ab36
000001d0: ca40 8237 d8ce 9ab7 f1ae a137 4bf6 2c37
000001e0: 789d 8036 1bae beb7 bd81 96b9 0bf1 dfb8
000001f0: 549d 06b9 7e44 b7b8 8290 8339 3044 d9b8
00000200: 55db 2db9 aa18 c9b9 48ca e737 c14e c739
00000210: e1c6 1039 4818 81b9 68c0 a4b9 d6ff 7c38
00000220: b437 5f38 e5b3 3a3a a6b9 2639 4314 a838
00000230: 202e 083a ac9c 81b9 bdcb 213a 5aa4 d438
00000240: f547 5a39 cda5 d4b9 9fa8 9db9 02d9 1bb9
00000250: 6cd4 7fb8 40f2 0f3a da97 99b8 f8cc 0aba
00000260: afa2 eb3a bfa6 8c36 784f f038 5a66 d636
00000270: cd54 d339 f497 3a3a 76bd 37b9 d633 8cb8
00000280: 653f 7b36 6c12 97b6 b024 d8b7 a7e9 08b9
00000290: cc48 7eb6 19ee 103a 38a3 a437 6588 ec39
000002a0: 9185 3eb9 8ed1 483a a454 07b9 991c eb37
000002b0: cef8 d739 1cbc 1fb7 646e af3a 8bef 9bb8
000002c0: 658f 173a 2c75 4f3a d210 66ba e802 3a3a
000002d0: a2f5 3ab8 075c 0ab8 0cc4 dcb8 f843 0f38
000002e0: 6b7d 3438 63b4 9838 82b9 0c37 88c4 3438
000002f0: 02a9 df36 d231 e9b8 3390 9cb7 f703 8937
00000300: b601 6838 859d 8f38 2e67 f6b6 feba b938
00000310: eb42 24b9 7064 91b8 0487 dc35 4d35 9fb6
00000320: 799f 3eb7 fbe2 9638 1c2f 47b8 9905 9238
00000330: 0477 6838 76e6 34b7 ab3e b8b4 e660 1bb8
00000340: 6131 3db8 5c9f 8037 9d70 78b8 5607 fb37
00000350: 44e9 c8b8 235e 80b8 d47e 95b8 75ec 87b8
00000360: a6ee b4b8 588a 8cb5 a2aa b2b8 4105 aeb8
00000370: 4880 94b8 68de 6bb8 aff2 a2b8 573c 4fb9
00000380: a076 b037 109e 5bb9 737b 7f38 fe15 6339
00000390: d5e4 feb8 b5f8 fab8 8547 8ab9 74db f3b7
000003a0: df52 f738 c84c 28b9 10c6 a939 9242 dc38
000003b0: 889e 8c39 f01e 95b7 be9c 5eb8 8f8d 8139
000003c0: 8c91 fbb8 faa1 4c3a ecc0 76ba 51e9 ecb7
000003d0: 2d15 9639 f37b d4b7 b188 2db9 ffab c0b8
000003e0: 3eb2 9eb8 f4bd ba37 f436 3f39 0452 a037
000003f0: a359 0bb8 8069 b634 1845 cfb5 c30d 99b8
-0.00026498144 -8.64605e-06 0.00019774103 -6.951475e-05 -0.00017924843 3.931506e-05 -1.8509549e-05 -0.0010221072
-0.00013520915 0.00027695132 0.0004337957 0.00018782359 -6.750067e-05 -5.3208423e-05 -1.5160752e-05 -2.3718705e-05
0.00045728337 -0.0001939351 3.148186e-05 0.00025835205 -0.00011480354 -0.00023383657 -0.0007042561 -3.1790343e-05
6.153944e-05 6.865445e-05 -5.9688927e-07 1.2218847e-05 -0.00011832017 7.848335e-06 -0.0007951845 -3.6087302e-05
0.00012458372 -0.00014032876 0.00032800733 5.2594325e-05 4.0946306e-05 -0.00021984798 0.00050772994 -0.00035602925
-0.0001244593 -0.00085150433 0.00016179208 -0.00013012326 0.00015296548 -4.7810514e-05 0.00017879123 -7.358162e-06
0.00010328888 0.00035103143 4.5232824e-05 -9.9494144e-05 -1.6032072e-05 0.00013358754 -6.638086e-05 2.9729268e-05
-4.7211957e-05 1.0105956e-05 7.1129807e-06 3.184429e-05 -3.230527e-05 2.4108456e-05 0.00012391355 -1.1681388e-07
-0.0001145707 4.265411e-05 -0.00013791832 3.6240344e-05 4.3849177e-06 1.3085049e-05 -1.7581724e-05 -1.1386865e-06
9.806181e-05 -7.618806e-05 7.430502e-06 4.2984422e-05 -0.00013197011 0.00010528772 0.00020639395 -1.7325732e-05
2.9763629e-05 8.2960556e-05 -3.7012956e-05 6.733387e-06 0.00018803297 0.00016461905 6.646588e-05 0.00013480822
-0.00032425404 -0.00026216073 -0.00028862734 -3.1171694e-05 -0.00010344657 1.1528678e-05 0.00019130783 0.0001082712
8.592828e-05 -2.8533676e-05 1.2368892e-05 9.4294584e-05 -2.8492965e-05 -9.386194e-05 -0.0001037532 -4.5113185e-05
5.176528e-05 -0.0001290077 -0.00048426518 0.00015732326 -1.0326917e-06 -6.2830244e-05 4.976503e-05 -0.00012882003
-0.00013892849 2.6003854e-05 -4.5059933e-05 5.097507e-06 1.5527377e-05 -1.845455e-05 1.9274159e-05 1.0309343e-05
3.833029e-06 -2.273084e-05 -0.00028706892 -0.000106783664 -0.00012837845 -8.738878e-05 0.00025093934 -0.00010360067
-0.00016580273 -0.00038356084 2.763154e-05 0.00038014914 0.00013806998 -0.00024622888 -0.0003142387 6.0319748e-05
5.321922e-05 0.0007122143 0.00015900153 8.014638e-05 0.00051948614 -0.00024721527 0.0006172022 0.000101395606
0.00020816906 -0.00040559322 -0.00030071006 -0.00014862794 -6.099457e-05 0.0005491115 -7.323893e-05 -0.0005294825
0.0017977561 4.191737e-06 0.00011458894 6.3896123e-06 0.00040308238 0.00071179797 -0.0001752282 -6.6853754e-05
3.7438815e-06 -4.5022953e-06 -2.576629e-05 -0.00013057013 -3.7891323e-06 0.00055286434 1.9626328e-05 0.0004511505
-0.0001816957 0.00076606206 -0.00012906134 2.80275e-05 0.0004119337 -9.520936e-06 0.0013384339 -7.435594e-05
0.00057815603 0.00079138833 -0.000877631 0.000709577 -4.457462e-05 -3.298747e-05 -0.00010526934 3.4157158e-05
4.303215e-05 7.2815244e-05 8.387842e-06 4.309838e-05 6.665593e-06 -0.000111195855 -1.8663797e-05 1.6333519e-05
5.5314704e-05 6.848112e-05 -7.343383e-06 8.8563174e-05 -0.00015665188 -6.932847e-05 1.6430572e-06 -4.7447743e-06
-1.1362013e-05 7.194836e-05 -4.748917e-05 6.962865e-05 5.5423952e-05 -1.0782494e-05 -3.4318268e-07 -3.7045123e-05
-4.51071e-05 1.5332997e-05 -5.9232687e-05 2.9924948e-05 -9.580192e-05 -6.12105e-05 -7.128497e-05 -6.481345e-05
-8.6275206e-05 -1.0471076e-06 -8.519484e-05 -8.297945e-05 -7.081084e-05 -5.6235498e-05 -7.769965e-05 -0.00019763537
2.1036074e-05 -0.0002094435 6.091171e-05 0.000216566 -0.00012154287 -0.00011967254 -0.00026374697 -2.9070048e-05
0.00011793314 -0.00016050332 0.0003238176 0.00010502817 0.00026820996 -1.777659e-05 -5.3074902e-05 0.00024710267
-0.00011995723 0.0007806119 -0.0009412903 -2.8242039e-05 0.00028626007 -2.5330088e-05 -0.00016549487 -9.18731e-05
-7.567227e-05 2.2261382e-05 0.00018235651 1.9111678e-05 -3.3223663e-05 3.3976903e-07 -1.5442811e-06 -7.298172e-05

exp_avg_sq f4 [128, 45]
00000000: 9ec6 4435 5cff 7334 4dc6 c734 faa3 0d34
00000010: 18c4 6a34 ee89 c834 6c6e 1c34 cbef 0235
00000020: acfa 0834 28fa 5f35 5579 6834 2b47 1735
00000030: 9213 ca34 2804 a233 9738 9734 bb28 0e34
00000040: c48c a835 4217 8236 82ff 5431 9839 a833
00000050: 8f50 7734 30c7 0335 0a31 b434 8c37 4633
00000060: 587d 8f32 44c6 3d33 536b f22f 9e51 8f33
00000070: 7cfb 8632 10ea 5630 5e7d 1535 0394 9734
00000080: 4ab2 8435 1bc0 fa34 0059 2235 4d1b 1235
00000090: 9093 9b34 3035 1835 17c7 7335 66c5 8235
000000a0: 288a 6e35 296f b735 0a4f 0136 3593 5336
000000b0: fcae 2e36 53f6 ba34 3924 0334 5413 5734
000000c0: 7c5b 4333 bea7 b734 7762 5f33 9637 9b33
000000d0: 0eb1 6833 7cf8 0734 b170 a534 dc87 c433
000000e0: bfe5 9234 23ca ab34 53be 2431 9fb1 ef33
000000f0: 3d14 0a33 d6d8 2a35 2b0f e035 80b8 632d
00000100: 7823 1d33 49cc 0b34 ba2d af34 3f30 d933
00000110: c97d 2a33 02e6 8a31 cde7 f732 6181 962f
00000120: a6d0 3733 d698 9832 7656 7830 7cfe 4834
00000130: c4ef bc33 2c26 0c35 8e70 9d34 7d64 5834
00000140: 9d02 6c34 f1f6 9d34 fbc5 1e34 a304 1835
00000150: 22f5 4635 d8bf b833 d6c1 f034 e201 b135
00000160: 7e60 6735 926d dc35 536e d734 821e 5034
00000170: add1 8234 84d1 9533 6c85 2634 1440 a834
00000180: 2cb2 bc34 90e5 c234 78cc 1234 d9c1 0b35
00000190: 2fc5 2f34 1349 d434 6a7d 6e34 a2e6 ba32
000001a0: 3d09 6c34 f699 c333 cb46 6e35 38b7 4636
000001b0: 9a9d 232e 1a14 fe32 1910 5d34 8971 8a34
000001c0: 8b48 da33 51cc 0b33 8575 9132 9f2f 3133
000001d0: 502d e830 f476 4933 3e7c b232 d2f0 a630
000001e0: 55e7 9d34 35dd 9534 12cd 2f35 59dd 0635
000001f0: 89db a134 0f80 a334 9d55 8034 7f29 0335
00000200: 3e58 0835 0849 8435 704b b735 8aca 5835
00000210: 3bc3 6e35 09f0 0736 8e63 0736 283d 9235
00000220: e656 5d35 c4bd 0736 2b04 e134 964a 9b35
00000230: d08f cc35 26a7 c535 82c4 7a36 61f4 4535
00000240: cb0f 0636 4917 3735 ea3a e335 65a1 aa35
00000250: 9bde 6234 f142 7a35 24ea d834 67ce b136
00000260: 615f 8437 b95e 1f30 3d73 1d34 f531 5a35
00000270: 02a8 f735 b1b2 9635 c784 3f34 748d e833
00000280: 692e 2b34 a57a 5c30 1e0e a634 dc91 e833
00000290: 6fad 4b30 e743 1336 2810 7235 9d5a 1536
000002a0: 76f2 3436 d03b 1436 bca2 c035 3d9d d435
000002b0: 0419 4f36 8ed2 6436 f188 1e37 435c dc36
000002c0: ff50 ab36 16e1 9b36 90a9 a636 77f0 4737
000002d0: 2aa5 3d32 7146 b931 af1a da32 7db2 0933
000002e0: 6301 d532 c6e6 9b33 9164 0833 e0ea 5333
000002f0: 70e2 d531 546b af34 9bd7 2332 c5af 7e33
00000300: b9e3 6333 70d3 0a33 1c3e 7c33 05d3 0833
00000310: d457 f334 d8de fc33 26e9 d42f faf6 f131
00000320: d17e a132 1889 3134 cea1 bb32 2e39 b532
00000330: 16fe 2f32 14ca 5a32 afc0 812c 54d5 6332
00000340: 9d61 ba31 fec2 db30 b295 a032 d8f2 9933
00000350: 8d93 af33 60c7 1b34 579f d832 09f5 5634
00000360: 1984 1133 3f7d f733 d082 2433 fb7f ad33
00000370: bcc1 0a35 0285 a334 dd6d 9734 8b2f 9b34
00000380: ae2e a634 c95a ab35 e252 cd34 dca7 2d35
00000390: d893 3134 91d9 3134 98ca 4135 0d54 2034
000003a0: 29e0 9435 d143 8434 bbb2 3835 0e65 e334
000003b0: 489b 2335 dc0a 1b33 e009 a433 1a74 c734
000003c0: 24e9 c033 0121 1636 1def 8436 091a 5531
000003d0: 54f8 0a34 0866 e134 e58a 4f35 263d c834
000003e0: c077 0434 eef5 b332 3ff2 0934 efa8 f930
000003f0: 22d8 aa33 21ad 2333 10b4 0a30 8554 ee34
7.3304716e-07 2.2724038e-07 3.721092e-07 1.3191303e-07 2.1864287e-07 3.735326e-07 1.4568803e-07 4.877772e-07
1.2757181e-07 8.3438e-07 2.1650824e-07 5.6355447e-07 3.763967e-07 7.544469e-08 2.8167116e-07 1.3239598e-07
1.2557944e-06 3.8770095e-06 3.09953e-09 7.833586e-08 2.3032975e-07 4.909116e-07 3.3563293e-07 4.6150987e-08
1.670439e-08 4.4185313e-08 4.4095802e-10 6.6738025e-08 1.5714015e-08 7.818537e-10 5.568926e-07 2.8233634e-07
9.886655e-07 4.6705904e-07 6.0479215e-07 5.4428966e-07 2.8978366e-07 5.670181e-07 9.081427e-07 9.743205e-07
8.8862953e-07 1.3666914e-06 1.9268505e-06 3.1527136e-06 2.6029875e-06 3.4824424e-07 1.2213503e-07 2.0030467e-07
4.548518e-08 3.4208455e-07 5.2010787e-08 7.227861e-08 5.417774e-08 1.2663253e-07 3.081564e-07 9.151674e-08
2.7361781e-07 3.1998306e-07 2.3973328e-09 1.1161614e-07 3.2149035e-08 6.3645473e-07 1.6693715e-06 1.2944423e-11
3.658667e-08 1.3019702e-07 3.262956e-07 1.0113626e-07 3.969561e-08 4.0424775e-09 2.8859995e-08 2.737677e-10
4.2797772e-08 1.776463e-08 9.0344743e-10 1.8719032e-07 8.798045e-08 5.220961e-07 2.9325423e-07 2.0153125e-07
2.1980163e-07 2.9423202e-07 1.4786922e-07 5.663116e-07 7.4117463e-07 8.603064e-08 4.4844518e-07 1.3188076e-06
8.619462e-07 1.6423166e-06 4.0127142e-07 1.9382608e-07 2.4366946e-07 6.976464e-08 1.5508493e-07 3.1339061e-07
3.5147366e-07 3.6302345e-07 1.3671695e-07 5.206362e-07 1.636988e-07 3.9541246e-07 2.2211103e-07 2.175813e-08
2.1982574e-07 9.1084004e-08 8.8764926e-07 2.9610947e-06 3.7201887e-11 2.9578633e-08 2.0588085e-07 2.578711e-07
1.01646116e-07 3.2549284e-08 1.6933663e-08 4.1254335e-08 1.68931e-09 4.6907147e-08 2.0778426e-08 1.2146535e-09
2.9411845e-07 2.7914362e-07 6.5490997e-07 5.0240993e-07 3.014832e-07 3.045429e-07 2.390415e-07 4.886169e-07
5.079236e-07 9.856021e-07 1.3656518e-06 8.0761004e-07 8.8946007e-07 2.0256286e-06 2.0174516e-06 1.0895646e-06
8.245537e-07 2.0227026e-06 4.1912548e-07 1.1570107e-06 1.5241039e-06 1.472629e-06 3.7367286e-06 7.3743837e-07
1.9976749e-06 6.8206697e-07 1.6929964e-06 1.2712959e-06 2.1128874e-07 9.322967e-07 4.0403495e-07 5.2990395e-06
1.578004e-05 5.797847e-10 1.4663688e-07 8.1284026e-07 1.8451831e-06 1.1227877e-06 1.7836565e-07 1.0829072e-07
1.59425e-07 8.020982e-10 3.093018e-07 1.08298735e-07 7.4097434e-10 2.1944231e-06 9.0175536e-07 2.2255474e-06
2.696322e-06 2.2088534e-06 1.4352477e-06 1.5840993e-06 3.0859965e-06 3.4097206e-06 9.449418e-06 6.5672516e-06
5.1056263e-06 4.6455634e-06 4.966925e-06 1.1917312e-05 1.1038802e-08 5.392217e-09 2.5390674e-08 3.2060132e-08
2.4797094e-08 7.2597274e-08 3.1756432e-08 4.9340883e-08 6.224859e-09 3.2674382e-07 9.536872e-09 5.9298845e-08
5.305967e-08 3.232293e-08 5.872981e-08 3.185689e-08 4.532618e-07 1.17751995e-07 3.8728237e-10 7.042101e-09
1.8800536e-08 1.6534284e-07 2.1843245e-08 2.1097176e-08 1.0244113e-08 1.2735217e-08 3.6877927e-12 1.3261644e-08
5.42441e-09 1.5989767e-09 1.8694525e-08 7.168791e-08 8.175912e-08 1.4508032e-07 2.5218169e-08 2.0019446e-07
3.3880585e-08 1.1524616e-07 3.83032e-08 8.07922e-08 5.1690927e-07 3.0457892e-07 2.8205878e-07 2.8905592e-07
3.0953873e-07 1.2766915e-06 3.824453e-07 6.469179e-07 1.6538195e-07 1.656356e-07 7.2192915e-07 1.4931739e-07
1.1092098e-06 2.463626e-07 6.880543e-07 4.2355572e-07 6.0948196e-07 3.6098626e-08 7.6386414e-08 3.7151113e-07
8.983105e-08 2.2370953e-06 3.961743e-06 3.1010379e-09 1.2942593e-07 4.1983753e-07 7.731563e-07 3.7297394e-07
1.2337023e-07 2.0950178e-08 1.2847248e-07 1.8165148e-09 7.955556e-08 3.8108855e-08 5.045999e-10 4.439245e-07

exp_avg f4 [128]
00000000: 7690 07ba e476 8db8 94ea 09ba 50ed 033b
00000010: 4cb6 abb9 0101 b039 0d05 043b 0038 1bb5
00000020: 157c a739 a0eb 8c38 10ea 163b fabe 50ba
00000030: 647e 5fb7 ecb5 4cb8 6de5 d83a cc0f 2239
00000040: 9a64 0539 9017 9d38 3861 29ba f15d 973b
00000050: 0355 b239 042f 6bba a61a ef39 e3c2 8239
00000060: a0ec 6739 4d94 c0b9 41b9 84ba 1d24 d838
00000070: ad90 0a39 6a1b b53a 7eb8 d1ba 4240 71ba
00000080: 0327 833b f68c 89ba 1947 b5b9 40fc 4439
00000090: 8a7d c1ba f477 e4b9 38e6 8db9 c261 263a
000000a0: a061 d7b8 58e0 cb3a e4f5 efb9 737d 55ba
000000b0: 30f9 aeb9 8330 cdb9 5505 133a 73b9 053b
000000c0: aaf6 07ba 59a1 7db9 49d1 bdb9 148b 233a
000000d0: dc24 3aba 9005 ceba b14c 003a 98b9 d2ba
000000e0: a00f f73a d8d8 b1b9 10a1 6539 96ef 9ebb
000000f0: f9d1 e437 ee74 0eb9 00c3 dfb7 ca95 e6ba
00000100: 68e9 3c3a c1f7 3738 04bd 4ab8 dd88 dbb8
00000110: eb94 643a 3a3e c93a b67d 753a 386a b539
00000120: b654 adba 88d0 44ba a358 13bb 204f 083b
00000130: 51e2 2bba fdb1 803a d8a3 e2b9 acdf d1b9
00000140: 1cbf 1abb 20ce f338 1ad1 47ba 6acf 853b
00000150: 1156 0e39 2e6f 53ba b848 d63a 60d6 36b9
00000160: c6ab 0bbb b219 193b d423 16bb 9137 243b
00000170: f8f4 0b3b 9f7a 82b7 ebab 94b9 0acc 0bba
00000180: 86ef 7f3a a303 a9ba c437 9b38 627f 36b9
00000190: 141a 5239 77f0 2eba 36bb 0dbb 1d4a e4b8
000001a0: c069 6eb9 33b4 99ba f480 8cba 11d9 0e3b
000001b0: 32a4 623a 2063 f4b8 0053 0cb8 9608 9b38
000001c0: 2192 6639 a6c7 90ba 89b1 75b9 d316 94b9
000001d0: e3b7 3639 41cf ee3a 83f9 8e3a 502d 7e39
000001e0: dc5a e7b9 2f40 44b9 0e3d a039 0e75 c03a
000001f0: 8d6a bbba 566d 89b9 34a8 eeba 2c2b 9fb9
-0.00051713677 -6.745549e-05 -0.000526109 0.0020130463 -0.00032751483 0.00033570084 0.0020144612 -5.782349e-07
0.0003194517 6.719609e-05 0.0023027696 -0.0007963028 -1.3321263e-05 -4.8806818e-05 0.0016547866 0.00015455409
0.00012721345 7.490732e-05 -0.0006461325 0.004619353 0.00034014144 -0.00089715444 0.00045605487 0.00024940734
0.00022118026 -0.00036731586 -0.0010126011 0.00010306409 0.00013214601 0.0013817374 -0.0016000418 -0.00092029956
0.0040024533 -0.001049428 -0.00034575982 0.00018785987 -0.0014762145 -0.0004357692 -0.00027065142 0.00063469645
-0.00010270183 0.001555453 -0.00045768835 -0.00081439986 -0.00033373525 -0.0003913679 0.00056083995 0.0020404726
-0.0005186597 -0.00024188067 -0.0003620482 0.0006238681 -0.00071008294 -0.001571821 0.00048942404 -0.001607704
0.0018849261 -0.00033921632 0.00021899142 -0.004850338 2.7277494e-05 -0.00013585735 -2.6674476e-05 -0.0017592248
0.0007206411 4.386134e-05 -4.8336587e-05 -0.000104682265 0.00087197 0.0015353628 0.00093647407 0.0003460215
-0.0013224098 -0.000750788 -0.0022483252 0.0020799115 -0.0006556856 0.000981867 -0.00043228152 -0.00040030235
-0.0023612445 0.00011625537 -0.0007622406 0.0040835636 0.00013574238 -0.00080655783 0.0016348576 -0.00017436733
-0.0021312102 0.0023361263 -0.0022909539 0.0025057534 0.002135573 -1.5554308e-05 -0.0002835685 -0.00053328334
0.000976317 -0.0012894761 7.401363e-05 -0.00017404326 0.00020036876 -0.00066734053 -0.002162648 -0.00010885692
-0.00022736844 -0.0011726677 -0.0010719583 0.0021796862 0.0008645683 -0.0001165329 -3.34559e-05 7.392575e-05
0.00021988947 -0.0011045828 -0.00023431158 -0.00028245765 0.00017425376 0.0018219725 0.00109081 0.00024240208
-0.0004412745 -0.00018715927 0.00030563067 0.0014683323 -0.0014298722 -0.00026212138 -0.0018208087 -0.0003035901

exp_avg_sq f4 [128]
00000000: de54 4337 4f22 c236 64d0 1137 32ce 4938
00000010: ccf7 f635 13e5 8337 c88b 3139 8ef0 f936
00000020: 1782 6437 8ef3 f236 4f6c 8838 a854 0237
00000030: f430 1034 1422 1e36 fb87 0738 0398 9a36
00000040: a8b8 a732 26e8 4e36 e1ba 3838 36a4 6338
00000050: 6670 2a37 3f32 e236 208c 1e37 9e12 a435
00000060: 232d 3d36 5d43 2b35 cfd1 a537 e65c 1337
00000070: aec2 7536 cfb0 b338 cdd3 3338 543d 0337
00000080: daac 4438 f538 8f37 470d 2038 adec 3437
00000090: 9669 3c36 a933 4437 a62b 4936 e021 2937
000000a0: 0e92 1934 659c a738 a979 ae37 1d8b 4837
000000b0: 0362 9038 8fc6 fb36 8287 1837 0178 1737
000000c0: 43f9 7b37 da96 cc35 a8ca 1337 d478 7c36
000000d0: 30b5 df37 a7fb 0a38 2ee8 4f37 3ede a037
000000e0: 7ba6 7f37 5f02 9538 1733 9436 0b92 6938
000000f0: 8700 9436 01e9 1737 f48f 6537 2762 3637
00000100: c914 a238 79ee 6536 9249 0f36 06a4 d436
00000110: 0883 4636 1446 5b37 b867 6c37 5d2a 2237
00000120: 11da 0d38 a360 0837 403b 4e38 7a0c eb36
00000130: ef62 9837 3e95 1837 53dc 5b37 826e 4738
00000140: 595b 5138 9785 cb37 de0b 2c38 162b 3738
00000150: e162 8b34 f481 5b36 ab9d 6438 c5a9 d837
00000160: d897 6238 ed0c 0538 1523 c337 658d fc38
00000170: 16ce 3d38 fd90 f031 b4ab ed36 fa36 1837
00000180: 1e93 3137 dd58 5738 15ce 5536 472a e036
00000190: 929d 3c37 a0f0 2635 ff4b fd37 b833 9333
000001a0: 2bdc 9c37 0a03 6137 7d29 d137 59db 3d37
000001b0: 6dfc 9d37 df79 d937 8b08 4038 253d eb34
000001c0: 4f0c a337 4642 1837 c8e9 7033 2e17 1435
000001d0: 23c3 d736 7f3a a538 6f22 e037 3387 b037
000001e0: 1621 a236 4078 f235 bac9 2337 962d 6c37
000001f0: 14a1 5337 3114 3c37 3ed3 6b38 80d1 1d37
1.1642665e-05 5.7856446e-06 8.691193e-06 4.811417e-05 1.8400547e-06 1.5723088e-05 0.00016932108 7.4487825e-06
1.3620148e-05 7.2405155e-06 6.5051594e-05 7.768314e-06 1.3428854e-07 2.356367e-06 3.231315e-05 4.607254e-06
1.952533e-08 3.083152e-06 4.4043063e-05 5.427395e-05 1.0158959e-05 6.7411743e-06 9.450159e-06 1.222437e-06
2.8189468e-06 6.380049e-07 1.9767233e-05 8.783512e-06 3.6621163e-06 8.568318e-05 4.287418e-05 7.8224875e-06
4.6891022e-05 1.7073451e-05 3.8159338e-05 1.0783941e-05 2.8075642e-06 1.1694538e-05 2.997674e-06 1.0081072e-05
1.430237e-07 7.992311e-05 2.0799069e-05 1.1953319e-05 6.884711e-05 7.503498e-06 9.091456e-06 9.028242e-06
1.5018802e-05 1.5243088e-06 8.809067e-06 3.7621257e-06 2.6668044e-05 3.3136133e-05 1.239222e-05 1.9176976e-05
1.5237946e-05 7.105315e-05 4.4166914e-06 5.5687542e-05 4.410805e-06 9.054552e-06 1.368298e-05 1.0870898e-05
7.7286335e-05 3.4262468e-06 2.1351484e-06 6.337187e-06 2.958057e-06 1.30697335e-05 1.4090845e-05 9.665816e-06
3.382011e-05 8.128732e-06 4.9169408e-05 7.004998e-06 1.8165882e-05 9.094654e-06 1.3104715e-05 4.7548216e-05
4.9914557e-05 2.4261693e-05 4.1019048e-05 4.3670727e-05 2.5962711e-07 3.2709186e-06 5.4506276e-05 2.5828262e-05
5.4024014e-05 3.172171e-05 2.3262148e-05 0.00012042633 4.5253044e-05 7.0014026e-09 7.0831393e-06 9.072706e-06
1.05842755e-05 5.1342755e-05 3.185943e-06 6.680642e-06 1.124236e-05 6.2189974e-07 3.0195339e-05 6.8546285e-08
1.8699173e-05 1.3411753e-05 2.4934061e-05 1.1316349e-05 1.8833403e-05 2.5925166e-05 4.5784323e-05 4.381665e-07
1.9436846e-05 9.0753365e-06 5.6091977e-08 5.516803e-07 6.430216e-06 7.878709e-05 2.6718915e-05 2.1043792e-05
4.831828e-06 1.8065402e-06 9.762525e-06 1.407731e-05 1.2614084e-05 1.1210374e-05 5.62251e-05 9.406707e-06
