models/regression_models/ML_including_industry_feature/multi_dimension_brand_identity/version_best/checkpoints/epoch=79-step=2480.ckpt (torch, 557259 bytes, 18 tensors)

network.0.weight f4 [256, 45]
0	0x3d07a920	0.033120275
1	0xbd618f42	-0.055068262
2	0xbdb7a187	-0.08966356
3	0x3d847603	0.064678214
4	0x3b6feb49	0.0036608747
5	0xbcd0a588	-0.025469556
6	0x3db6350f	0.08896839
7	0xbd274faa	-0.040847458
8	0xbd3fb3f0	-0.04680246
9	0xbb27f4c4	-0.002562807
10	0xbd20c80e	-0.039253287
11	0xbb51c125	-0.0032005992
12	0x3d2a4ca5	0.041577
13	0x3d80f7c2	0.06297256
14	0xbd81f3ae	-0.06345306
15	0xbd649288	-0.055803806
16	0x3dff9ea9	0.12481434
17	0xbda2b005	-0.07943729
18	0x3b2e1cae	0.0026567387
19	0xbc764796	-0.015031716
20	0x3d1ebe73	0.038755845
21	0xbcb95f66	-0.022628497
22	0x3d82ee58	0.06393117
23	0x3d700c48	0.058605462
24	0x3ccac207	0.024750723
25	0xbc528f48	-0.012851544
26	0x3c702ab1	0.014658616
27	0x3bdf155e	0.006807967
28	0x3d2fb04b	0.042892735
29	0xbc0ed10c	-0.008716833
30	0xbd4c632c	-0.049899265
31	0xbd8eed19	-0.069788165
32	0xbd06002e	-0.032715015
33	0xbd8dcf28	-0.069242775
34	0xbb15e634	-0.0022872807
35	0xbd2f0f12	-0.04273898
36	0x3c3cf030	0.011531875
37	0x3db49237	0.08816951
38	0xbd18bd3d	-0.037289847
39	0x3ddbebaa	0.10738309
40	0xbd3e3a0b	-0.046442073
41	0x39753f01	0.00023388492
42	0x3d6559e2	0.055993922
43	0x3ddda3f4	0.10822287
44	0x3dd85a4d	0.105640985
45	0xbd477767	-0.048697855
46	0xbd4d653d	-0.050145376
47	0x3aa62bb7	0.0012677823
48	0xbcd5167b	-0.026011696
49	0x3db106f1	0.08643902
50	0x3d888eb9	0.06667847
51	0x3cb5d8f8	0.022198185
52	0x3df9e442	0.1220174
53	0x3e0734e1	0.13203765
54	0xbcbefaec	-0.023313008
55	0x3db3bc07	0.08776098
56	0xbd2dba4b	-0.04241399
57	0x3d0561a2	0.032563813
58	0x3c9948d5	0.018711487
59	0x3a0a82fc	0.00052838004
60	0x3ce1882c	0.027530752
61	0xbcc2de78	-0.023787722
62	0x3d83f5b0	0.064433455
63	0x3a4629f3	0.00075593515
64	0xbd800950	-0.06251776
65	0x3d4e406c	0.050354406
66	0x3d17423d	0.036928404
67	0xbcd2aa65	-0.025716016
68	0x3d2d0c28	0.04224792
69	0xbc3f8f12	-0.011691825
70	0xbc431e17	-0.011909029
71	0x3abba59f	0.0014316327
72	0xbc16de29	-0.009208241
73	0x3d8183e3	0.063239835
74	0x3b498e09	0.0030754826
75	0x3d60d5f0	0.054891527
76	0xbd58dade	-0.052943103
77	0x3d8c5ee7	0.06854039
78	0x3d18bf3d	0.037291754
79	0x3d425332	0.047442622
80	0x3c9e8f41	0.019355418
81	0x3dd4c2a9	0.10388691
82	0xbddbd7c0	-0.107345104
83	0x3dd532cd	0.1041008
84	0xbbe90d0e	-0.007112152
85	0xbd9699fc	-0.07353589
86	0x3da9cb76	0.0829076
87	0xbd0fe7ed	-0.03513329
88	0x3d9e3d14	0.077264935
89	0xbe060d0f	-0.13090919
90	0xbce35078	-0.027748331
91	0xbd01f63f	-0.03172898
92	0x3d57888f	0.052620467
93	0xbc6e45a3	-0.01454297
94	0xbce3706e	-0.027763572
95	0x3cc2ed21	0.023794712
96	0xbb6c7449	-0.0036080054
97	0x3d82c540	0.06385279
98	0x3bdae867	0.0066805365
99	0xbd4dab30	-0.050212085
100	0xbd5616c0	-0.05226779
101	0x3d80cc7d	0.06289003
102	0x3d96fec5	0.07372812
103	0xbc15259f	-0.009103208
104	0xbbd53c39	-0.0065074232
105	0x3d2cfd7f	0.04223394
106	0xbd48bf24	-0.04901041
107	0x3d57b3d6	0.05266174
108	0x39f926a0	0.0004752176
109	0xbcdf6074	-0.027267672
110	0xbc87e9cc	-0.016590975
111	0x3cf277f4	0.029598214
112	0xbc6fba33	-0.014631796
113	0xbc6ceef3	-0.014461267
114	0xbb48131d	-0.003052897
115	0xbccbf4e9	-0.024897056
116	0x3b1a4fcf	0.0023546105
117	0x3cadc703	0.02121306
118	0x3c3a2248	0.011360712
119	0x3a0218f0	0.00049628224
120	0x3cb8dd81	0.022566559
121	0x3d0cd1fa	0.034379937
122	0x3c3ceca8	0.011531033
123	0xbd3dd789	-0.04634813
124	0xbd763f58	-0.060119003
125	0xbaa1ce91	-0.0012344887
126	0xbb884552	-0.0041586543
127	0xbce20956	-0.027592342
128	0x3db37c56	0.087639496
129	0xbd27ed34	-0.0409977
130	0xbc619bfd	-0.013770101
131	0x3dd406ae	0.103528365
132	0xbd154068	-0.036438376
133	0xbd3eb040	-0.046554804
134	0x3d4eb470	0.050465047
135	0x3db5e36b	0.08881267
136	0xbcb0e7b0	-0.021594852
137	0xbbb9a3bb	-0.00566527
138	0xbdb10c7f	-0.086449616
139	0xbcbcd864	-0.023052402
140	0xbd41e637	-0.04733869
141	0x3dcee256	0.10101764
142	0xbb966f2d	-0.00459089
143	0xbdb94714	-0.0904676
144	0x3d4a3b9e	0.04937326
145	0x3d69d6fc	0.05708979
146	0x3d639928	0.055565983
147	0x3d5c2144	0.053742662
148	0xbcb44728	-0.022006586
149	0xbc68327f	-0.014172195
150	0xbd63c0cb	-0.055603784
151	0x3d11af2d	0.03556745
152	0x3d464baa	0.048412003
153	0x3b13aa9e	0.0022532116
154	0x3d1b1847	0.03786495
155	0xbdd7b813	-0.10533156
156	0xbda374aa	-0.07981236
157	0xbdae681d	-0.08515952
158	0x3dc7c666	0.097546384
159	0x3b52c6e3	0.0032162003
160	0xbc981bbe	-0.018567916
161	0x3ac951fd	0.0015359517
162	0x3cc766b6	0.024340969
163	0x3d0b7110	0.03404337
164	0x3ade8dc8	0.001697951
165	0x3da631cd	0.081149675
166	0xbd3043c8	-0.04303339
167	0xbdc71f54	-0.09722772
168	0x3d641ab6	0.055689536
169	0x3d4eb4c7	0.05046537
170	0xbd9b33ff	-0.07578277
171	0xbd739789	-0.059470687
172	0xbba76fe8	-0.005109776
173	0xbdc334e3	-0.09531572
174	0xbd1ac4ca	-0.03778533
175	0x3c5d1177	0.0134929335
176	0x3e159e49	0.14611162
177	0xbdbf2ee3	-0.09335115
178	0x3d5e9526	0.054341458
179	0xbde60651	-0.112316735
180	0xbd45c285	-0.04828121
181	0x3c8ee6e9	0.01744409
182	0x3d70cbeb	0.05878822
183	0x3d2e284f	0.04251891
184	0x3db84115	0.089967884
185	0xbd323c8f	-0.043514784
186	0xbc630daf	-0.013858243
187	0x3dd0f058	0.10202092
188	0xbcfd2e09	-0.03090574
189	0xbd9b0ef5	-0.07571212
190	0x3d9b24ee	0.07575403
191	0xbd85f4e5	-0.065408505
192	0x3aa8c3b0	0.0012875702
193	0x3c394881	0.01130879
194	0xbceb9e3d	-0.028761977
195	0x3bdf3321	0.006811515
196	0xbdce4b74	-0.10072985
197	0xbbbb299b	-0.005711747
198	0x3a15ec3e	0.0005719102
199	0x3cd5fa2d	0.02612027
200	0xbd60778e	-0.054801516
201	0x3d05819c	0.03259431
202	0xbd296bd7	-0.04136261
203	0xbc948f65	-0.018134782
204	0xbc048807	-0.008089072
205	0x3b62a23c	0.0034581563
206	0xbc4d5a0d	-0.012533677
207	0xbbf8dbdd	-0.007594569
208	0xbccd32fc	-0.025048725
209	0x39cfae5d	0.00039612027
210	0x3d87c716	0.066297695
211	0xbd07004c	-0.032959267
212	0xbd3a5dfc	-0.045499787
213	0xbc9204bf	-0.017824529
214	0x3d7d1ea8	0.061796814
215	0xbd57b129	-0.052659187
216	0x3db5725a	0.088597015
217	0xbd624944	-0.055245653
218	0xbd58418f	-0.052796897
219	0xbd9c011e	-0.076174006
220	0xbce0693a	-0.027393926
221	0x3d43ddc4	0.047818914
222	0xbad6212c	-0.001633679
223	0xbd9a2606	-0.07526784
224	0x3cd84c29	0.026403503
225	0x3dbb9feb	0.09161361
226	0xbd873ce9	-0.066034146
227	0xbd2068fb	-0.039162617
228	0x3d4795e0	0.048726916
229	0x3ca71df2	0.020400021
230	0x3d9d49f7	0.07680123
231	0xbc553e9c	-0.0130154155
232	0x3d308661	0.043096904
233	0x3db40da4	0.08791664
234	0x3d5f78f6	0.054558717
235	0xbdac0eda	-0.0840127
236	0x3d5b8597	0.053594198
237	0x3d957875	0.07298366
238	0xbbce812d	-0.00630202
239	0x3d1045a9	0.035222683
240	0x3d5f10a9	0.054459248
241	0x3c910d32	0.017706487
242	0x3d9299b9	0.071582265
243	0x3a5fad69	0.0008532615
244	0x3d90697d	0.0705137
245	0xbdab2206	-0.08356099
246	0xbdb495a8	-0.08817607
247	0xbd6e281e	-0.058143727
248	0x3d8a16eb	0.067426525
249	0x3cbfcf14	0.023414172
250	0x3c0f7204	0.008755211
251	0x39ddeb9e	0.00042327953
252	0x3c942f53	0.018088972
253	0x3c354364	0.01106343
254	0x39e3b817	0.00043433972
255	0x3d56ab56	0.052409492

network.0.bias f4 [256]
0	0xbcd015da	-0.025401045
1	0x3dec5d71	0.1154126
2	0xbc55233e	-0.013008891
3	0x3de15c32	0.11003913
4	0x3d8c6e7f	0.06857013
5	0x3dff527c	0.124669045
6	0xbd9f1a9b	-0.077687465
7	0xbaedb438	-0.0018135374
8	0x3cf89920	0.030346453
9	0x3dcda65e	0.10041498
10	0x3c0b107e	0.008487819
11	0x3cba65e8	0.02275367
12	0xbd4e35c8	-0.05034426
13	0x3df1f0b6	0.1181349
14	0x3dee4899	0.11634941
15	0xbc852666	-0.016253661
16	0xbd81e416	-0.06342332
17	0xbda6cffb	-0.08145138
18	0xbdcaf9e6	-0.099109456
19	0x3d5a72e0	0.05333221
20	0x3cb8bfdf	0.022552429
21	0x3d532467	0.051548388
22	0xbdc81ea9	-0.09771473
23	0xbd82f2a6	-0.06393938
24	0xbd356a4c	-0.044290826
25	0xbc6dbe42	-0.014510693
26	0x3d45c6e4	0.04828538
27	0xbd810b1c	-0.06300947
28	0xbd552eff	-0.052046772
29	0x3cffb686	0.031214964
30	0xbdc8c1a2	-0.098025575
31	0x3d48b57c	0.049001202
32	0xbc723147	-0.014782256
33	0xbdd7421a	-0.10510655
34	0x3da27905	0.07933239
35	0xbdd68a7a	-0.10475631
36	0xbcd191f5	-0.025582293
37	0x3c8e4964	0.01736898
38	0x3d6a04d2	0.057133503
39	0xbc44e8b8	-0.012018375
40	0xbdb9a3be	-0.090644345
41	0x3de66152	0.11249031
42	0x3dcd02f5	0.1001033
43	0x3d7ce20d	0.061739016
44	0xbd51ff6f	-0.05126899
45	0xbd5ac4a4	-0.053410187
46	0xbdb6f6ca	-0.0893379
47	0x3adc6df6	0.0016817439
48	0x3c9baecb	0.019004246
49	0x3cd36e39	0.025809394
50	0x3d6948fa	0.05695436
51	0xbcf3bfb9	-0.029754506
52	0xbc4dcb99	-0.0125607485
53	0x3d8aa170	0.06769073
54	0x3dca89bc	0.09889552
55	0x3d2a68d9	0.041603897
56	0x3da89331	0.082311995
57	0x3dbc0589	0.09180743
58	0x3dcfc71e	0.101454005
59	0x3dd1dd3b	0.102472745
60	0xbd0add1a	-0.033902265
61	0x3deb0298	0.11475104
62	0xbd5df9fd	-0.054193486
63	0xbdd8c30f	-0.105840795
64	0xbdc6e6fe	-0.09712027
65	0xbdb5eca9	-0.0888303
66	0xbcec8ce8	-0.028875783
67	0xbdbed62f	-0.09318196
68	0xbd8c1759	-0.06840391
69	0x3d3243ba	0.04352162
70	0x3c8a2266	0.016862106
71	0xbdc9ab66	-0.09847145
72	0x3b13d8fd	0.0022559755
73	0xbd7bb0d4	-0.061447933
74	0x3bd026e7	0.006352294
75	0xbd658209	-0.056032214
76	0xbd06974d	-0.032859135
77	0x3d8f0c82	0.069848076
78	0xbc7532d3	-0.014965731
79	0x3d371b0c	0.04470353
80	0xbd2d61ec	-0.042329714
81	0x3c5941fb	0.01326036
82	0xbd309f05	-0.043120403
83	0x3d2e869c	0.042608842
84	0x3cbb341e	0.022852
85	0x3d83c1bc	0.06433436
86	0xbdc6e32b	-0.097112976
87	0x3dbf06f9	0.09327502
88	0x3da95be3	0.08269479
89	0x3daa2a8f	0.08308899
90	0x3c24f6bd	0.010068593
91	0xbdc50f4a	-0.09622057
92	0x3d1e7363	0.03868426
93	0x3d6fe06b	0.05856363
94	0x3d394cca	0.045239247
95	0x3cc97fac	0.024597012
96	0x3dfaac67	0.122399144
97	0x3da3c8a7	0.07997256
98	0xbcf75292	-0.03019074
99	0x3dc0189f	0.09379696
100	0x3d3fef74	0.04685922
101	0xbc8a3c35	-0.016874412
102	0xbdfe1c1c	-0.12407705
103	0xbdbf7340	-0.09348154
104	0xbdb1fca1	-0.08690763
105	0xbdf22b31	-0.11824644
106	0x3dcc6c33	0.09981575
107	0x3c3c8adb	0.011507715
108	0x3da906d9	0.08253259
109	0x3c0a9fd5	0.0084609585
110	0xbc07067d	-0.008241293
111	0xbd4ea335	-0.050448615
112	0xbd19705d	-0.037460674
113	0x3db30bc0	0.087424755
114	0xbdb92622	-0.090404764
115	0x3db65e2e	0.08904682
116	0xbdb89458	-0.09012669
117	0xbd8215f0	-0.063518405
118	0xbd7218e9	-0.059105787
119	0xbdcb28f9	-0.09919924
120	0xbd33049e	-0.043705575
121	0x3d5d5e34	0.054044917
122	0x3d8c8cdb	0.068628035
123	0x3dcc121f	0.09964394
124	0x3b3bf9ed	0.0028682903
125	0xbd830744	-0.0639787
126	0xbb2ff729	-0.00268502
127	0xbd992f88	-0.07479769
128	0xbd98c79a	-0.07459946
129	0x3c92d7dc	0.017925195
130	0x3d827759	0.0637042
131	0xbd131ba4	-0.035915032
132	0x3df9add7	0.121913604
133	0x3de41a1e	0.11137794
134	0x3c07e998	0.008295439
135	0xbdd66d59	-0.10470075
136	0x3ae4c6ed	0.0017454304
137	0x3d793cfb	0.06084917
138	0x3e01ec61	0.12687828
139	0x3dde7329	0.10861809
140	0xbbd2fbde	-0.0064387163
141	0xbd90b16b	-0.0706509
142	0x3dccf1fc	0.10007092
143	0xbd6ffdaf	-0.05859154
144	0x3dc66cbe	0.0968871
145	0xbc23cc6d	-0.009997469
146	0xbd0cde12	-0.03439147
147	0x3c57f269	0.013180354
148	0xbdb58751	-0.088637
149	0xbc86c4ba	-0.016451228
150	0xbd8dc839	-0.06922955
151	0xbd78a132	-0.060700603
152	0xbda19f7c	-0.07891747
153	0xbd5a0fee	-0.053237848
154	0x3dc34cde	0.09536146
155	0x3db8ecc4	0.090295345
156	0xbc32bd22	-0.010909351
157	0xbcca9b14	-0.02473215
158	0x3d8c94ea	0.068643406
159	0xbd9c7155	-0.07638804
160	0xbd5cebca	-0.053935803
161	0x3d87778b	0.06614598
162	0x3df385f9	0.11890788
163	0x3d4fd709	0.050742183
164	0xbd3eea5a	-0.046610214
165	0xbd9a04d5	-0.07520453
166	0xbcce86d8	-0.025210783
167	0x3d1eac65	0.038738627
168	0xbd883ed2	-0.06652607
169	0xbd146ae4	-0.03623475
170	0xbd5ad1d9	-0.053422783
171	0x3de843eb	0.11341079
172	0xbd1793d4	-0.037006214
173	0x3df295eb	0.11845001
174	0x3d75b3e1	0.059986
175	0xbcb532e5	-0.022118995
176	0xbda3f636	-0.080059454
177	0xbdabbc2d	-0.08385501
178	0x3c2f5c20	0.010703117
179	0x3db7b40c	0.08969888
180	0xbcb001da	-0.021485258
181	0x3d69f322	0.057116635
182	0xbd723b38	-0.059138507
183	0x3da9b46e	0.08286367
184	0xbdb4b835	-0.08824197
185	0xbc6dce82	-0.014514567
186	0xbdb1bdc5	-0.08678774
187	0x3dc74351	0.097296365
188	0x3da8e81f	0.082473986
189	0x3d911880	0.07084751
190	0x3c7a1cca	0.015265653
191	0x3de9f5d9	0.11423845
192	0xbd3a9a22	-0.04555715
193	0xbd06c300	-0.03290081
194	0x3d8bd701	0.06828118
195	0x3dac2f13	0.08407416
196	0xbd207584	-0.03917457
197	0x3d808f84	0.062773734
198	0x3df31f53	0.11871209
199	0xbd85bbb7	-0.065299444
200	0xbcf29304	-0.029611118
201	0x3d9ea7dd	0.07746861
202	0xbd9ab589	-0.07554156
203	0xbd7f001d	-0.062255967
204	0x3dd37105	0.10324291
205	0x3d75cb94	0.0600086
206	0xbc40bc3f	-0.011763631
207	0x3da72b6e	0.081625804
208	0x3d9abaca	0.075551584
209	0x3e047683	0.12935834
210	0xbd0ca47d	-0.034336556
211	0x3d25ec91	0.04050881
212	0x3bfc82a8	0.007706005
213	0xbc8d6d1a	-0.017263938
214	0x3d03eca4	0.0322081
215	0xbd886c58	-0.0666129
216	0x3c2ad1fe	0.010426043
217	0x3cb4bccf	0.022062687
218	0xbd1bcf69	-0.0380396
219	0x3dbc6e91	0.09200776
220	0xbd54a681	-0.051916603
221	0xbce75fed	-0.028243983
222	0x3d868a88	0.065693915
223	0xbdc93729	-0.09824974
224	0x3cd851b3	0.026406145
225	0xbd046207	-0.03232005
226	0xbd5346fd	-0.05158137
227	0x3d842d5f	0.06453966
228	0xbd9b04bd	-0.07569263
229	0xbd9c5379	-0.07633109
230	0x3cced3bc	0.025247447
231	0x3da4ce83	0.080472015
232	0xbd36ee86	-0.044661067
233	0xbd937d3e	-0.072016224
234	0x3dd095d3	0.10184827
235	0x3d841ccd	0.06450806
236	0xbb9c1415	-0.004763136
237	0x3d8d86ef	0.06910502
238	0x3dfc1e1a	0.12310429
239	0x3dd5d8e8	0.10441762
240	0x3d58bdde	0.052915446
241	0x3e0712d6	0.13190779
242	0x3cdd3fd7	0.02700798
243	0x3d999239	0.07498593
244	0x3dc27344	0.094946414
245	0x3dc100a8	0.09423953
246	0x3d4953f2	0.049152322
247	0x3c1d54a5	0.0096027
248	0x3dccd34d	0.1000124
249	0xbb3aca00	-0.002850175
250	0xbdb86db5	-0.090053
251	0x3dcf99db	0.101367675
252	0xbd1c359c	-0.038137063
253	0x3d0f5838	0.03499624
254	0x3cc5bbaf	0.024137346
255	0x3d82f392	0.063941136

network.3.weight f4 [128, 256]
0	0xbbd56ee2	-0.0065134624
1	0x3c8aa199	0.016922759
2	0x3ca6a737	0.020343406
3	0xba566e84	-0.000817992
4	0xbc3cec83	-0.011530998
5	0xbce3e9be	-0.027821418
6	0x3c3c1f32	0.011482047
7	0xbc0a02db	-0.008423532
8	0xbc36ef3c	-0.011165436
9	0xbc6be73c	-0.014398392
10	0xbc629763	-0.013830039
11	0x3c394272	0.011307346
12	0x3bb44755	0.0055016675
13	0x3d1d2951	0.03836948
14	0xbb147c71	-0.002265718
15	0x3a8c21f1	0.0010691268
16	0x3b055597	0.0020345205
17	0xbb8cf082	-0.0043011317
18	0xbcfe19f5	-0.031018237
19	0xbd55e310	-0.052218497
20	0xbd2caeac	-0.042158768
21	0xbd18f9d9	-0.03734765
22	0xbb7c9ea2	-0.00385467
23	0xbc670e4f	-0.0141025325
24	0xbd028693	-0.03186662
25	0x3d05d20a	0.032671012
26	0x3a95afc5	0.0011420181
27	0x3bd5c164	0.006523298
28	0x3cc38aac	0.023869835
29	0x3cd4cb29	0.02597578
30	0x3c012187	0.007881529
31	0x3b9a63c4	0.0047116
32	0xbce71f14	-0.028213061
33	0x3bd8e014	0.006618509
34	0xbcbed3b1	-0.023294302
35	0x3bca8171	0.0061799814
36	0x3bc97b8f	0.0061487625
37	0x3cd07dd6	0.025450628
38	0xbd2554b7	-0.040363993
39	0x3cb28710	0.021792918
40	0xbcaa7dbc	-0.020811908
41	0xbc10cde5	-0.008838152
42	0xbcbf7ab6	-0.023373943
43	0xbd0d8b29	-0.03455654
44	0xbc58e4bc	-0.013238128
45	0x3c927714	0.017879046
46	0xbd21dfb1	-0.03951997
47	0xbd11ab41	-0.03556371
48	0xbb31d873	-0.002713707
49	0x3ca47c8a	0.020078916
50	0x3ccc55f7	0.024943335
51	0xbd0c53a4	-0.034259453
52	0x390aac55	0.00013224904
53	0xbc516cb3	-0.012782264
54	0xbd46cd86	-0.048535846
55	0xbd0000a1	-0.0312506
56	0x3d2b0744	0.041754976
57	0xbc7afac5	-0.015318577
58	0x3b3976ca	0.0028299564
59	0x3c066d61	0.008204789
60	0x39f72f69	0.00047146835
61	0xbc2c041b	-0.010499026
62	0x3b7540d5	0.0037422676
63	0xbc9814e7	-0.018564655
64	0x3caeb028	0.021324232
65	0x3acb3b43	0.0015505332
66	0xbc2e9995	-0.010656734
67	0xbc5d1c26	-0.013495481
68	0x3b9d7cb5	0.004806126
69	0x3d12ca47	0.035837438
70	0x3d1dd917	0.03853711
71	0x3b79583f	0.0038046984
72	0x3cd2572c	0.025676332
73	0xbb87f815	-0.0041494467
74	0xbb5bce7e	-0.0033539827
75	0x3cad2b58	0.021138832
76	0x3bbe7f25	0.0058134967
77	0xbcaf76e2	-0.021418992
78	0xb95492eb	-0.00020272627
79	0x3cd4e322	0.025987212
80	0x3a93b245	0.0011268338
81	0xbca24b0f	-0.019811181
82	0xbad7b36b	-0.0016456669
83	0x3ce90b02	0.028447632
84	0x3bffafae	0.007802925
85	0xbcb7f0ee	-0.022453751
86	0x3b25550d	0.0025227696
87	0xbcca464f	-0.024691729
88	0xbcf4f04d	-0.02989974
89	0xbc8e4ac7	-0.017369641
90	0xbd28e768	-0.04123631
91	0x3c88e68d	0.016711498
92	0x3d173e87	0.036924865
93	0xbcdb5db8	-0.026778087
94	0xbc8aa77e	-0.01692557
95	0xbd57f602	-0.052724846
96	0xbbe38464	-0.0069432724
97	0xbd0d34ce	-0.034474187
98	0x3c301171	0.010746346
99	0xbc6c0e24	-0.014407668
100	0xbc163c38	-0.009169631
101	0xbb327720	-0.0027231649
102	0xbc5c7d81	-0.013457657
103	0x3b166745	0.0022949737
104	0x3c049752	0.008092718
105	0x3cba23a5	0.022722075
106	0x3c549b04	0.012976412
107	0x3cb3f5fb	0.021967879
108	0x3c901aca	0.017590899
109	0x3d2219a0	0.03957522
110	0x3c053068	0.008129217
111	0x2e263996	3.7795177e-11
112	0x3ab83c2f	0.0014056022
113	0x3d47af60	0.048751235
114	0xbbfa1d40	-0.0076328814
115	0x3c73c2dc	0.014878001
116	0x3d5f3e43	0.054502737
117	0xbc78ad1d	-0.015177992
118	0xbcb1d3c6	-0.021707427
119	0x3c96a4e5	0.018389175
120	0xbb5caaf2	-0.0033671227
121	0xbceabdca	-0.028654952
122	0x3c49c193	0.012314218
123	0x3b3274df	0.0027230305
124	0x3b55a001	0.003259659
125	0xbbd6a857	-0.0065508294
126	0xbbddc2c3	-0.006767602
127	0xbb81453b	-0.0039450205
128	0xbc38778b	-0.01125897
129	0xbd03a3ef	-0.03213876
130	0x3c11479a	0.008867169
131	0x3cf5e215	0.03001503
132	0x3d2a9ede	0.041655414
133	0xbc111a50	-0.008856371
134	0x3af94551	0.001901785
135	0x3b9ed0ff	0.0048466916
136	0xbc64f88b	-0.013975273
137	0xbd1b66de	-0.0379399
138	0x3ceb4007	0.028717054
139	0x3c0d14b6	0.008610895
140	0x3b0d1c98	0.0021531936
141	0x3b492f10	0.0030698217
142	0xbd03a309	-0.032137904
143	0x3cf53842	0.029934052
144	0xbb2a5fb4	-0.0025996985
145	0xbc81dacb	-0.015851399
146	0xba91607d	-0.0011091378
147	0x3d09c0a9	0.033631
148	0xbc6a2fd2	-0.014293628
149	0x3aae38cd	0.0013292074
150	0x3b43851d	0.002983398
151	0xbd14c477	-0.036320176
152	0xbbdfd345	-0.006830605
153	0xbcbe812c	-0.023254953
154	0xbcaffb64	-0.021482177
155	0xbc656ed4	-0.014003474
156	0xbca3eff4	-0.02001188
157	0xbbdcb61e	-0.0067355772
158	0xbc96ea71	-0.018422337
159	0xbca33458	-0.01992242
160	0x3c8cb85e	0.017177757
161	0x3d3b0c35	0.04566594
162	0x3d01a5a2	0.0316521
163	0x3c06b687	0.008222229
164	0xba1d3a7e	-0.0005997791
165	0xbcf59a06	-0.02998067
166	0x36737589	3.6278236e-06
167	0x3d4a918e	0.049455218
168	0x3b3dd7f4	0.002896783
169	0x3c86f864	0.016475864
170	0xbc932560	-0.017962158
171	0x3d4b9b12	0.049708433
172	0xbb917c7a	-0.0044398876
173	0xbbba1037	-0.0056782025
174	0x3d3aac6b	0.045574587
175	0x0702867c	9.819634e-35
176	0xbcc50d07	-0.024054063
177	0x3b53cbbc	0.003231748
178	0x3c879862	0.016552154
179	0x3c5f81be	0.013641773
180	0x3cbe4888	0.023227945
181	0x3d4e85ba	0.0504205
182	0x3c99fc70	0.01879713
183	0xbc8fe88e	-0.017566945
184	0x3c9597c2	0.01826084
185	0xb2e33667	-2.6451017e-08
186	0x3c043ceb	0.008071165
187	0xbc9f25dd	-0.019427234
188	0xbd0dcc78	-0.034618825
189	0x3c8f6c8a	0.01750781
190	0x3b8c934b	0.0042900196
191	0x3cfe21b8	0.031021938
192	0x3d243591	0.040090147
193	0x3c9a59e6	0.018841695
194	0x3ce97ac8	0.02850093
195	0xbc3af3ab	-0.011410634
196	0xbc3a78ed	-0.01138137
197	0x3cb910be	0.022590991
198	0x3c4d41b7	0.012527875
199	0x3c8c727e	0.017144438
200	0xbb4b1e07	-0.003099324
201	0x3d06d819	0.03292093
202	0x3c75fad2	0.0150134135
203	0xbc34b347	-0.011029071
204	0x3c758c80	0.014987111
205	0xbcf734bb	-0.030176511
206	0xbbd6bfd0	-0.0065536276
207	0x3c509430	0.012730643
208	0x3c9635de	0.018336233
209	0xbc03217d	-0.00800359
210	0xbcc59cd5	-0.024122635
211	0xbccfd8cb	-0.02537193
212	0x3d164f4d	0.03669672
213	0xbae9be6d	-0.001783324
214	0x3b254b92	0.0025222045
215	0xbb0877f9	-0.0020823462
216	0x3cf253e4	0.029581018
217	0xbcb43954	-0.021999992
218	0x3c3e20d9	0.011604511
219	0x3c82169e	0.015879925
220	0xbcbbb8b3	-0.02291522
221	0x35b89efe	1.3755341e-06
222	0xbd1abe97	-0.037779417
223	0x3c908f3a	0.01764642
224	0xbcaf2496	-0.02137975
225	0x3b395569	0.0028279668
226	0xbc0d4ed8	-0.008624755
227	0x3d196f48	0.03745964
228	0x3afe68f2	0.0019409938
229	0x3b4dabba	0.0031382875
230	0xbc483c73	-0.0122214435
231	0xbd0a0ca8	-0.033703476
232	0xbc01ee86	-0.007930404
233	0x3cd2541a	0.025674868
234	0x3caf7d33	0.021422004
235	0x3c130ea4	0.008975659
236	0xbb213603	-0.0024598844
237	0xbcdd06ab	-0.026980719
238	0xbd06560d	-0.03279691
239	0x3d2ada4a	0.041712083
240	0x3cdaa114	0.026688136
241	0x3d528daa	0.051404633
242	0x3c864766	0.016391467
243	0x3bcce741	0.0062531536
244	0xbc752966	-0.014963483
245	0x3cb75554	0.022379555
246	0x3c7945a5	0.015214358
247	0xbc9a6e32	-0.018851373
248	0x3cb76180	0.022385359
249	0x3bf6fc72	0.007537418
250	0xbd06e8b0	-0.03293675
251	0xbc2ed827	-0.010671652
252	0x3b3eed67	0.0029133202
253	0xba85bf38	-0.0010204082
254	0xbc96f496	-0.018427175
255	0xba9042ac	-0.0011006198

network.3.bias f4 [128]
0	0x3d346ddd	0.044050086
1	0x3cc9568f	0.024577407
2	0x3d22758b	0.03966288
3	0xbd1ee66b	-0.038793962
4	0x3be4747f	0.006971895
5	0x3c668c3d	0.014071521
6	0x3c1d65a4	0.009606753
7	0x3d0125de	0.031530254
8	0x3d312f63	0.043258082
9	0xbd544e8d	-0.051832724
10	0xbca4495c	-0.020054512
11	0x3ccda144	0.025101312
12	0xbd508b65	-0.050914187
13	0x3d4450f6	0.047928773
14	0x3c4fbfa4	0.012679968
15	0x3d0e641c	0.03476344
16	0x3c94b4e8	0.01815267
17	0xbc6d4099	-0.014480733
18	0x3cbb5130	0.022865862
19	0xbc8afa9b	-0.016965201
20	0xbcc051ee	-0.023476567
21	0x3c960800	0.018314362
22	0x3d1b0d07	0.03785422
23	0x3c63ee76	0.013911834
24	0xbcf704ed	-0.030153716
25	0x3cbec135	0.023285488
26	0x3d4bfee5	0.049803633
27	0x3d209714	0.03920658
28	0x3d5e6ae7	0.05430117
29	0xbce15c80	-0.027509928
30	0xbcd394e1	-0.025827827
31	0x3d5953a6	0.05305829
32	0xbceb4348	-0.028718606
33	0x3b7cb475	0.003855971
34	0x3cd00701	0.025393965
35	0x3b68b7a4	0.003550985
36	0x394910b1	0.00019175072
37	0x3d25ff7b	0.04052685
38	0x3cc3ef0c	0.023917697
39	0xbd604431	-0.054752532
40	0xbce0b667	-0.027430726
41	0xbcaf6173	-0.021408772
42	0x3d374b22	0.044749387
43	0xbcd34ad0	-0.02579251
44	0xbd4ea923	-0.05045427
45	0x3be34440	0.0069356263
46	0x3d21e3b4	0.039523795
47	0xbba60389	-0.0050663394
48	0x3c97c0e7	0.0185246
49	0xbd074290	-0.033022463
50	0x3d34b57f	0.0441184
51	0x3c817eff	0.015807627
52	0x3d3833cd	0.044971276
53	0x3b76e7b0	0.0037674718
54	0x3d59add5	0.053144295
55	0xbd2ac1ab	-0.041688602
56	0xbc9c0ec1	-0.019050004
57	0xbd552733	-0.052039336
58	0x3ca9c733	0.020724868
59	0x3d3d9886	0.046288036
60	0xbd0a569d	-0.033774007
61	0xbc461028	-0.012088813
62	0x3ce2aa2d	0.027669037
63	0xbd209c8d	-0.0392118
64	0x3d5390a4	0.051651612
65	0xbd36a889	-0.04459432
66	0x3c772c66	0.015086269
67	0xbcc7f33c	-0.024407975
68	0x3d22862a	0.03967873
69	0xbd21ef10	-0.03953463
70	0xbd13e2ca	-0.036104955
71	0x3c91739c	0.017755322
72	0x3d3ba4ca	0.045811452
73	0xbd05bcde	-0.03265082
74	0xbd181a40	-0.03713441
75	0xbce31ac9	-0.027722733
76	0x3d03ed75	0.03220888
77	0x3c9544f7	0.018221362
78	0xbcf83079	-0.030296551
79	0x3ccb691c	0.024830393
80	0xbd48d50e	-0.04903131
81	0xbccca3ab	-0.024980387
82	0xbca1b3eb	-0.019739112
83	0x3d1fe3c4	0.039035574
84	0xbad039c6	-0.0015886358
85	0x3d082a99	0.03324375
86	0xbcd47976	-0.025936823
87	0x3cdd785b	0.027034929
88	0x3b427ec8	0.0029677618
89	0xbd1f7b50	-0.03893596
90	0x3c8eb9db	0.017422607
91	0x3d38b631	0.045095626
92	0xbcba0773	-0.02270863
93	0xbccd4941	-0.025059344
94	0x3d110fd3	0.03541548
95	0x3d259cb9	0.040432665
96	0xbcc14752	-0.023593578
97	0xbd3406dc	-0.043951854
98	0x3d31a0e4	0.043366328
99	0xbd209f97	-0.039214697
100	0x3c775bf9	0.015097612
101	0xbc1d9a17	-0.009619257
102	0xbd2371f6	-0.039903603
103	0x3d14f9a4	0.03637089
104	0x3c05e300	0.008171797
105	0xbd2e3dca	-0.042539395
106	0xbc25ba42	-0.010115208
107	0x3cf01d1e	0.02931076
108	0x3cb1942e	0.021677103
109	0xbbef6b1a	-0.0073064687
110	0x3c51f2f8	0.012814276
111	0xbd757c85	-0.059933204
112	0xbd4e1d38	-0.050320834
113	0xbd40148a	-0.046894588
114	0x3c1f7211	0.009731785
115	0xbc3e5998	-0.0116180405
116	0xbb936f73	-0.0044993698
117	0x3cb4ac51	0.022054823
118	0x3bc7f2b1	0.006101929
119	0x3d09951d	0.03358947
120	0x3c4c1e01	0.012458325
121	0xbd37e8da	-0.0448998
122	0xbd55e07d	-0.05221604
123	0xbcb20ba1	-0.02173406
124	0xbd3797d6	-0.044822536
125	0xbb9be593	-0.004757592
126	0x3d61f6ec	0.055167124
127	0xbd20d65e	-0.039266936

network.6.weight f4 [7, 128]
0	0xbc1e536d	-0.009663445
1	0xbc5d448d	-0.013505113
2	0xbd4f058c	-0.0505424
3	0xbc8dd10f	-0.017311601
4	0x3d49eb9c	0.04929696
5	0x3b57f3de	0.0032951753
6	0xbd65463c	-0.055975184
7	0xbdbb4c74	-0.09145442
8	0xbcea11c3	-0.028572923
9	0x3b3b0dcf	0.0028542166
10	0x3cd6d7ed	0.026226008
11	0xbcdef314	-0.027215518
12	0x3c8ac5e5	0.016940067
13	0xbd4c6d0c	-0.049908683
14	0xbdcd0fbe	-0.10012768
15	0x3d1049f9	0.035226796
16	0xba8e1d71	-0.0010842514
17	0xbd4599fa	-0.048242547
18	0x3c8c29c4	0.01710976
19	0xbd5f45fb	-0.054510098
20	0xbd61f49c	-0.05516492
21	0xbd6942b4	-0.05694838
22	0x3d74ebd9	0.059795234
23	0x3aaf8cd7	0.0013393414
24	0xbcf4753b	-0.029841056
25	0xbd3e1b2a	-0.046412624
26	0xbc03ea2e	-0.008051438
27	0xbc5be281	-0.013420702
28	0xbdd01b5d	-0.10161469
29	0xbd063c67	-0.032772448
30	0x3c8f3ee6	0.017486047
31	0x3d0aa569	0.033849154
32	0x3c3e10a6	0.011600649
33	0xbd8836d8	-0.066510856
34	0x3d785ada	0.060633518
35	0x3d4bd690	0.04976517
36	0xbda9c8cb	-0.08290251
37	0xbdc53875	-0.09629909
38	0x3cd84e90	0.026404649
39	0x3d542bd2	0.051799603
40	0xbdd0ee7c	-0.10201737
41	0x3ca7236f	0.020402638
42	0xbcd53321	-0.026025357
43	0xbdb5cbc7	-0.08876758
44	0xbc0b4ccc	-0.0085021965
45	0xbcdbf602	-0.026850704
46	0x3b3e1127	0.0029001923
47	0x3cd4b709	0.025966184
48	0x3bf0849a	0.007340026
49	0x3c625deb	0.013816337
50	0xbdad3847	-0.08458
51	0xbc835cd4	-0.016035475
52	0x3d7a5629	0.061117325
53	0x3c9cd42b	0.019144138
54	0x3d55a809	0.052162204
55	0xbd9a3bab	-0.07530912
56	0x3c31db67	0.010855532
57	0xbc8438fa	-0.01614045
58	0xbbcd8684	-0.006272139
59	0x3d3a3040	0.04545617
60	0x3c29168e	0.010320319
61	0x3d9af465	0.07566146
62	0x3d9484d1	0.07251895
63	0xbc1b8763	-0.009492728
64	0x3c27cb29	0.010241308
65	0x3d5640de	0.052307956
66	0xbd8ab4e5	-0.06772784
67	0xbd98eada	-0.074666694
68	0x3d28ff0d	0.04125886
69	0x3ccdb143	0.025108939
70	0x3b999e10	0.004688032
71	0xbd16191b	-0.036645036
72	0xbc7e502d	-0.015522045
73	0xbca61c20	-0.020277083
74	0x3c0b4f52	0.008502798
75	0x3d8bbdd0	0.06823313
76	0xbb43a7e8	-0.0029854719
77	0xbd7cc329	-0.061709557
78	0xbdadb410	-0.0848161
79	0xbc0918e9	-0.008367755
80	0xbd5efe3d	-0.05444168
81	0xbd954767	-0.072890095
82	0x3d576b09	0.05259231
83	0x3d7a199e	0.061059587
84	0xbd023c93	-0.03179605
85	0x3d0cdd86	0.03439095
86	0xbd42ea7f	-0.047586914
87	0x3d362cdc	0.044476375
88	0xbc316683	-0.010827663
89	0x3c1b0754	0.009462196
90	0xbd3e449c	-0.04645215
91	0xbdc7f7e7	-0.097640805
92	0x3b1a7532	0.002356839
93	0x3d5dbd06	0.054135345
94	0xbd846969	-0.06465418
95	0x3bb16fc7	0.005414936
96	0x3ccecedd	0.025245124
97	0xbc57f4cf	-0.0131809255
98	0xbd6091bf	-0.054826494
99	0xbda01bb4	-0.07817784
100	0x3c471682	0.012151362
101	0xbd4040b2	-0.0469367
102	0x3d284c26	0.041088246
103	0xbdc413b2	-0.09574069
104	0xbd10226c	-0.035189077
105	0xbd439f51	-0.047759358
106	0x3d233716	0.039847456
107	0xbd2af057	-0.041733112
108	0x3d5e80bb	0.054321986
109	0x3d3037ce	0.04302197
110	0x3d6b5bd5	0.057460625
111	0x3cce8379	0.025209175
112	0xbdaf9710	-0.08573735
113	0xbdbcdaea	-0.09221442
114	0x3d7fabcb	0.062419694
115	0xbdcee218	-0.10101718
116	0x3cea9213	0.028634107
117	0x3d696a1f	0.05698597
118	0x3cb0bff4	0.021575905
119	0xbc81799f	-0.015805064
120	0xbd990697	-0.0747196
121	0x3d076a07	0.0330601
122	0xbc2ec3c5	-0.010666792
123	0xbd90431a	-0.070440486
124	0xbbd792a7	-0.0065787616
125	0x3d926d92	0.07149805
126	0xbd506c0d	-0.050884295
127	0xbd9bca51	-0.07606948
128	0x3d43a51a	0.047764875
129	0x3ac7b8f9	0.0015237621
130	0x3bfeb199	0.007772636
131	0x3dd1023d	0.10205505
132	0x3ca3399c	0.019924931
133	0xbc1ece5f	-0.009692757
134	0xbd780e78	-0.060560673
135	0xbdbb5e51	-0.09148849
136	0x3d5bd03f	0.053665396
137	0xbc10d840	-0.0088406205
138	0x3ce15bc9	0.027509587
139	0xbda3df98	-0.080016315
140	0xbd1341af	-0.035951313
141	0xbd026b8d	-0.03184085
142	0xbddc7721	-0.107649095
143	0x3d89e9c7	0.067340426
144	0x3c72d381	0.014820934
145	0x3d00367c	0.03130196
146	0xbd19e045	-0.037567396
147	0x3d0952a2	0.03352607
148	0xbd92e98f	-0.07173454
149	0x3d2cf918	0.04222974
150	0xbd15668e	-0.036474757
151	0xbb79b744	-0.003810362
152	0x3daa99be	0.08330105
153	0x3c61dde3	0.013785812
154	0x3ca123f0	0.019670457
155	0xbd405338	-0.046954364
156	0xbd734ca0	-0.059399247
157	0x3c8d8c09	0.017278688
158	0xbdd116cb	-0.102094255
159	0x3c65cc2b	0.014025728
160	0x3c66e3e8	0.014092423
161	0x3cde7933	0.027157402
162	0xbda6bdb8	-0.08141655
163	0xbcd267c6	-0.025684249
164	0xbda80b1b	-0.08205243
165	0x3bea259d	0.007145597
166	0x3caf2ab0	0.02138266
167	0xbc1228ea	-0.0089208875
168	0xbd796475	-0.06088682
169	0xbc17c464	-0.009263132
170	0x3db19003	0.08670046
171	0x3c0f064a	0.008729527
172	0x3cdfa2f9	0.027299391
173	0xbd5e9dd7	-0.054349747
174	0x3cb1d3fd	0.02170753
175	0x3ccd22ee	0.02504107
176	0x3c23a49a	0.009987975
177	0xbbb0b3ef	-0.0053925435
178	0xbd87e577	-0.06635564
179	0xbd8733f4	-0.06601706
180	0xbb18bf50	-0.002330739
181	0x3db240e1	0.08703781
182	0xbd360f4e	-0.04444819
183	0xbd338dc5	-0.043836374
184	0x3b2936e8	0.002582008
185	0x3cc4933e	0.023995992
186	0xbcda406a	-0.026642043
187	0x3d4047c9	0.04694346
188	0x3d7f117a	0.062272526
189	0xbc890bd6	-0.016729277
190	0x3d9ef112	0.07760824
191	0xbd5d3cb9	-0.054012988
192	0xbd8cfc2b	-0.06884035
193	0x3d8dacf8	0.06917757
194	0x3bfa6e9d	0.0076425807
195	0x3cfe0708	0.031009212
196	0x3cfa0f47	0.030524863
197	0xbcda1e85	-0.026625881
198	0xbb9f0624	-0.004853027
199	0xbdc29a27	-0.095020585
200	0x3bb41652	0.005495825
201	0x3c2fb2fe	0.010723827
202	0x3bfd9e82	0.007739843
203	0x3d5fdca1	0.054653767
204	0x3d85017a	0.06494422
205	0xbbf8dae6	-0.007594454
206	0xbd9de1e1	-0.077090986
207	0xbd87bf02	-0.06628229
208	0xbd8fec3a	-0.070274785
209	0xbdd9d450	-0.106361985
210	0xbc61aef7	-0.013774625
211	0x3cb36314	0.02189783
212	0xbcdbba34	-0.026822187
213	0x3d35a745	0.044348974
214	0x3d52d0e6	0.051468752
215	0x3d6c50e9	0.05769435
216	0x3d006ebb	0.0313556
217	0xbc602e67	-0.013682938
218	0xbcd81db7	-0.026381357
219	0x3cf2918c	0.029610418
220	0xbac8c6b8	-0.0015318012
221	0xbd2c7fe5	-0.042114157
222	0xbd29ddd4	-0.041471317
223	0x3d74f21b	0.059801202
224	0x3ce640de	0.028107103
225	0xbca3b137	-0.019981964
226	0x3cdad166	0.026711177
227	0xbc4e77de	-0.012601821
228	0xbbc71b7d	-0.006076275
229	0xbcb707a3	-0.022342509
230	0x3c5bcf3a	0.013416106
231	0xbd0e10de	-0.034684055
232	0x3d68e354	0.056857422
233	0x3dbb5045	0.091461696
234	0x3d332960	0.04374063
235	0xbd9f12e6	-0.077672765
236	0xbb99a0f5	-0.004688377
237	0x3d67d54d	0.056599904
238	0xbd642f71	-0.055709306
239	0xbd791245	-0.06080844
240	0xbd89d4b4	-0.06730023
241	0xbd9cab88	-0.076499045
242	0x3d2a7e2f	0.041624244
243	0xbd840c16	-0.06447618
244	0xbcc55277	-0.024087174
245	0x3d9a4e24	0.075344354
246	0x3d5957ea	0.053062357
247	0x3d8af3b5	0.06784765
248	0xbd60f382	-0.054919727
249	0x3d9df38b	0.07712468
250	0x3d521715	0.051291544
251	0xbd33d84b	-0.043907445
252	0xbdbe87da	-0.093032554
253	0xbc1a3e48	-0.009414263
254	0xbd37b391	-0.044848982
255	0x3d7ad761	0.061240558

network.6.bias f4 [7]
0	0x3d6c1ba6	0.057643555
1	0x3cbb606c	0.022873126
2	0xbd83fc0b	-0.06444558
3	0x3ab38ed8	0.0013699187
4	0x3d7a9c20	0.06118405
5	0x3d08a5b3	0.033361148
6	0xbc5323f5	-0.012886991

exp_avg f4 [256, 45]
0	0xb8ac49f3	-8.215373e-05
1	0xb923db79	-0.00015626651
2	0x3882ca92	6.236615e-05
3	0xb912c39c	-0.00013996515
4	0xb990a156	-0.00027586025
5	0xb7f0ba84	-2.8697083e-05
6	0x395bf02f	0.00020974943
7	0xb9ea9c26	-0.00044748298
8	0x399edf09	0.00030302283
9	0x371e09bc	9.4198e-06
10	0x3931824a	0.00016928572
11	0xb941f630	-0.00018497626
12	0xb9609ad9	-0.0002141999
13	0xb8afa996	-8.376238e-05
14	0x384ddea9	4.9083177e-05
15	0xb93d7df7	-0.0001807137
16	0xb9cf8411	-0.00039580514
17	0xba32ca07	-0.00068202656
18	0xb5e38734	-1.6952167e-06
19	0x38326648	4.2533764e-05
20	0x39024b48	0.0001242581
21	0x39ac410d	0.00032854863
22	0x38049e18	3.161849e-05
23	0xb9165079	-0.00014335093
24	0x381e1eef	3.7698945e-05
25	0xb703f2e3	-7.86476e-06
26	0x372fd5c6	1.0480586e-05
27	0x37cb1e23	2.421352e-05
28	0x37a8d16a	2.0124677e-05
29	0xb75d11c7	-1.3176766e-05
30	0xb9594446	-0.00020720167
31	0x375332d9	1.2588419e-05
32	0x37c40f45	2.3372131e-05
33	0xba093afd	-0.0005234925
34	0x37eaf2bd	2.8008008e-05
35	0xb99d3d64	-0.00029991113
36	0xb967d324	-0.00022108533
37	0x39244ad5	0.00015668136
38	0xb814e276	-3.5496858e-05
39	0xb9515875	-0.00019964746
40	0x39237744	0.00015589321
41	0xb995940a	-0.00028529792
42	0x3788d1df	1.6310192e-05
43	0xb7d135fe	-2.4939884e-05
44	0xb94e91da	-0.00019700025
45	0xb9252b01	-0.00015751646
46	0x3865b1a8	5.476331e-05
47	0x391cd980	0.00014958344
48	0xb72ea15a	-1.0408776e-05
49	0xb6fc613e	-7.5215057e-06
50	0xb8ee8b38	-0.00011374656
51	0xb89e6c76	-7.5542295e-05
52	0x38df73f8	0.000106550695
53	0x38dcd9ac	0.00010530962
54	0xb948a801	-0.00019136073
55	0xb98ca606	-0.00026826578
56	0x3807e46c	3.2399243e-05
57	0xb9045d84	-0.00012623338
58	0x37e6dbad	2.7520431e-05
59	0x39380d0c	0.00017552468
60	0x38ae29c6	8.3047475e-05
61	0xb9a4dd78	-0.00031445525
62	0xb8a4e2a8	-7.8623474e-05
63	0xb5b285e1	-1.3300997e-06
64	0x37c02c2e	2.2908756e-05
65	0xb80f5ca7	-3.4180146e-05
66	0xb73aadb3	-1.1126906e-05
67	0xb78b6c42	-1.6620503e-05
68	0xb912aee7	-0.00013988801
69	0xb7ccd267	-2.4416671e-05
70	0x36f03b10	7.159433e-06
71	0xb52571b2	-6.163274e-07
72	0x38749de8	5.8321195e-05
73	0x37d8e953	2.5857857e-05
74	0x358e5252	1.0603783e-06
75	0x379c8674	1.8659259e-05
76	0xb86e2cdc	-5.67854e-05
77	0x38e88183	0.000110867455
78	0xb94d9800	-0.00019606948
79	0x394a9b9b	0.00019322189
80	0xb927f529	-0.0001601769
81	0xb984d03e	-0.00025332154
82	0xb8e3d6b2	-0.000108641936
83	0x3966d8de	0.00022015299
84	0xb8e46e98	-0.00010892487
85	0xb950967b	-0.00019892484
86	0xba0dd54e	-0.0005410508
87	0xb924ef54	-0.00015729415
88	0x39b7bcec	0.00035045238
89	0xb932ab24	-0.00017039158
90	0x37ae1fb8	2.0757187e-05
91	0xb718ecd0	-9.115043e-06
92	0xb70e7ef8	-8.493422e-06
93	0xb815b510	-3.5692996e-05
94	0xb7a273a2	-1.936575e-05
95	0x36b74649	5.4620073e-06
96	0x38da5ca4	0.00010412306
97	0x38c85f36	9.5544776e-05
98	0x370ac89c	8.272149e-06
99	0x3763a120	1.3567769e-05
100	0xb78ff617	-1.7161523e-05
101	0xb8633b08	-5.4175995e-05
102	0xb84a82a9	-4.828224e-05
103	0xb6dd22ea	-6.590378e-06
104	0xb82e0c22	-4.1496132e-05
105	0x38ecf1b0	0.00011298375
106	0xb789f26c	-1.644456e-05
107	0x38b30c2a	8.537651e-05
108	0x3502ec92	4.877303e-07
109	0xb7a4b14a	-1.963288e-05
110	0x361f51a0	2.3740358e-06
111	0x3902cfcf	0.00012475181
112	0xb7663a5a	-1.3722654e-05
113	0xb9091f84	-0.00013077079
114	0xb6c0dd48	-5.7478064e-06
115	0xb8931e51	-7.015153e-05
116	0x362284f9	2.4217281e-06
117	0x37a381a0	1.9491476e-05
118	0x36ede472	7.089745e-06
119	0x350bbbea	5.2054986e-07
120	0xb8eb6114	-0.000112237554
121	0xb839d7fc	-4.430859e-05
122	0x380d53de	3.3695127e-05
123	0xb80e492e	-3.3923592e-05
124	0xb80b096a	-3.314895e-05
125	0x37deaa2b	2.6543703e-05
126	0xb868b326	-5.5479955e-05
127	0x392decd2	0.00016586788
128	0xb8fa1560	-0.0001192491
129	0xb91e07d5	-0.00015070972
130	0x387efd96	6.079449e-05
131	0x39216013	0.00015389947
132	0xb72eda00	-1.0421965e-05
133	0xb81c3d06	-3.725013e-05
134	0x396bbc7e	0.00022481565
135	0x38d001f9	9.91858e-05
136	0xb9596dd5	-0.00020735648
137	0x36f83e58	7.3982337e-06
138	0xb72eceae	-1.041933e-05
139	0x378b0816	1.6573857e-05
140	0xb834c9bc	-4.3103224e-05
141	0x39d31941	0.00040263872
142	0x3915b9b8	0.00014278933
143	0x3990c56e	0.00027612917
144	0xb844bbe8	-4.6905043e-05
145	0x3926275d	0.00015845658
146	0x38880143	6.4852204e-05
147	0x387aade0	5.976658e-05
148	0xb780b35d	-1.5342312e-05
149	0x3869337a	5.559947e-05
150	0x3906db8b	0.00012861022
151	0x39844d1c	0.00025234453
152	0x39dcfc48	0.00042149634
153	0x362d2e8d	2.5806105e-06
154	0x39266b12	0.0001587088
155	0x3908e84e	0.00013056511
156	0x3895be0b	7.140272e-05
157	0xb819d6d6	-3.6678124e-05
158	0xb865f686	-5.4827447e-05
159	0x373c895d	1.1237656e-05
160	0x3815d4b8	3.5722478e-05
161	0x35fa8bce	1.866714e-06
162	0x380de8ef	3.3833956e-05
163	0x37b50926	2.1581141e-05
164	0x3607a1aa	2.0210668e-06
165	0x33cdab80	9.577252e-08
166	0x36a50129	4.9175183e-06
167	0x3983ef0e	0.00025164377
168	0x39c345d1	0.00037245316
169	0x3890cda3	6.904758e-05
170	0xb842d8ef	-4.645524e-05
171	0x36c205b6	5.7823154e-06
172	0x399ef965	0.00030321922
173	0x39f1b566	0.00046102254
174	0xb9a7d638	-0.00032012328
175	0x387bfe42	6.007986e-05
176	0x38a0a5fd	7.660312e-05
177	0xb8c6563b	-9.4574374e-05
178	0x3a142b6c	0.00056522223
179	0x393d8f2d	0.00018077782
180	0x3723944c	9.750085e-06
181	0xb7585a20	-1.2895587e-05
182	0x385695b8	5.1161012e-05
183	0x3779a628	1.4880243e-05
184	0x390d8a54	0.00013498339
185	0xb928b925	-0.000160907
186	0xb7366ddc	-1.0873624e-05
187	0x39a0865e	0.0003061769
188	0xb7156cfd	-8.906468e-06
189	0xb88dfb86	-6.770254e-05
190	0xb7d52960	-2.5410845e-05
191	0xb6ea6142	-6.9850657e-06
192	0xb748fe00	-1.1980068e-05
193	0x38041cb8	3.1498e-05
194	0x371a2074	9.186671e-06
195	0x37b92a57	2.2073435e-05
196	0xb8d3518d	-0.00010076454
197	0xb8041d50	-3.1498552e-05
198	0x3556f74f	8.0081094e-07
199	0x38b7b930	8.760614e-05
200	0xb86ad214	-5.5985598e-05
201	0x39173a00	0.00014422089
202	0xb84fe683	-4.9567327e-05
203	0xb72cf77d	-1.0309622e-05
204	0xb6cb32a3	-6.0557663e-06
205	0x37d94bde	2.5903744e-05
206	0xb751d332	-1.25065435e-05
207	0xb771d557	-1.4414391e-05
208	0xb77249c4	-1.4441499e-05
209	0x351c88c3	5.8313543e-07
210	0x389dbc18	7.5213786e-05
211	0xb8809e10	-6.132957e-05
212	0x3902d005	0.0001247526
213	0xb8726b64	-5.779731e-05
214	0x395a35e3	0.00020810174
215	0xb920b9ca	-0.00015328001
216	0x37bd7718	2.2586013e-05
217	0x37f36e17	2.9019122e-05
218	0x38b49ffa	8.612867e-05
219	0x388255e6	6.214883e-05
220	0xb7fb03fd	-2.9923389e-05
221	0xb807c730	-3.2372016e-05
222	0xb92a096e	-0.00016215976
223	0xb8936dd4	-7.029963e-05
224	0x3929a67a	0.00016179113
225	0x39431d2a	0.00018607514
226	0x3751e6d2	1.2511113e-05
227	0x37396880	1.105119e-05
228	0x393b385e	0.00017854708
229	0x37fb6fda	2.9973617e-05
230	0x3969344a	0.00022240091
231	0x372dcba4	1.0359017e-05
232	0x3931f27e	0.00016970371
233	0x38a33b13	7.783449e-05
234	0xb999d6b4	-0.000293424
235	0x37a97746	2.0201911e-05
236	0x38219d12	3.8531674e-05
237	0x389e80b3	7.557999e-05
238	0xb7613c30	-1.3425059e-05
239	0x38555145	5.0858845e-05
240	0x388bc161	6.664056e-05
241	0x3894d778	7.097324e-05
242	0x396f5b44	0.00022826815
243	0x35b80f88	1.3713588e-06
244	0x393373d7	0.00017113924
245	0xb8874d4a	-6.451698e-05
246	0xb84b40ea	-4.8459427e-05
247	0x36ccf461	6.108123e-06
248	0x38519c9a	4.997533e-05
249	0x37136105	8.784472e-06
250	0x37d46b60	2.532237e-05
251	0x357ca517	9.4117553e-07
252	0x37d16da5	2.4965799e-05
253	0xb65f5dac	-3.3284114e-06
254	0x358065a0	9.56632e-07
255	0x38f43c9e	0.000116461175

exp_avg_sq f4 [256, 45]
0	0x35bd79db	1.4117062e-06
1	0x34fcd570	4.7093954e-07
2	0x34b91f31	3.448163e-07
3	0x34c18c9a	3.6051352e-07
4	0x3525d78a	6.178094e-07
5	0x33aca743	8.039799e-08
6	0x35aaa1c2	1.2713065e-06
7	0x35b722ed	1.3644727e-06
8	0x358ee53d	1.0646542e-06
9	0x35c074d6	1.4339118e-06
10	0x34e1bf58	4.2048737e-07
11	0x35f622a2	1.8338508e-06
12	0x35229dcb	6.057932e-07
13	0x35571668	8.0126347e-07
14	0x34a42afc	3.0578656e-07
15	0x349beab4	2.904177e-07
16	0x36c8154f	5.962945e-06
17	0x36a63d36	4.9543114e-06
18	0x2ee078d0	1.0207801e-10
19	0x34ff050d	4.7501126e-07
20	0x34fd08ff	4.7131468e-07
21	0x35a92dfa	1.2604862e-06
22	0x34e672ba	4.2924313e-07
23	0x34bbf1b4	3.5007326e-07
24	0x32c69a61	2.3120437e-08
25	0x338fc3c8	6.694569e-08
26	0x30e91af2	1.696064e-09
27	0x33e6894e	1.0735185e-07
28	0x334617f0	4.612224e-08
29	0x30d935de	1.5804138e-09
30	0x352895b9	6.280275e-07
31	0x3505929e	4.9759717e-07
32	0x3601dfb1	1.9352703e-06
33	0x361007c6	2.1462197e-06
34	0x35876ede	1.009055e-06
35	0x360f6016	2.136459e-06
36	0x35012ccd	4.812144e-07
37	0x35cb46e0	1.5145306e-06
38	0x356ff183	8.9385884e-07
39	0x3731c3e0	1.0595628e-05
40	0x3492fbe6	2.73779e-07
41	0x35874d56	1.0080792e-06
42	0x36039d22	1.9611984e-06
43	0x36ce376b	6.14573e-06
44	0x370b01fe	8.2855095e-06
45	0x3514de6f	5.545798e-07
46	0x34ed91f7	4.4250893e-07
47	0x35282271	6.2634996e-07
48	0x348aa089	2.5821308e-07
49	0x354834fe	7.458292e-07
50	0x350c4ca7	5.226561e-07
51	0x350ef1c7	5.3250955e-07
52	0x35afa134	1.3085432e-06
53	0x3501e082	4.8382947e-07
54	0x35a13324	1.2010319e-06
55	0x354e11bd	7.676679e-07
56	0x35993ed7	1.1417677e-06
57	0x352c261d	6.4130455e-07
58	0x3483c534	2.4544136e-07
59	0x34ac715a	3.211997e-07
60	0x344cb771	1.9065716e-07
61	0x3634bbeb	2.6931473e-06
62	0x36e5f3f4	6.8531317e-06
63	0x2eb09138	8.0293494e-11
64	0x344ddad6	1.9171725e-07
65	0x34d8ac9f	4.0358734e-07
66	0x3563c021	8.4843674e-07
67	0x3494c390	2.770944e-07
68	0x342c0cdf	1.6023431e-07
69	0x32a236ab	1.8884142e-08
70	0x33b5b05f	8.460551e-08
71	0x2fccd24b	3.7256806e-10
72	0x34149202	1.3836691e-07
73	0x33451435	4.5886015e-08
74	0x30252112	6.0073646e-10
75	0x358f4cc4	1.0676672e-06
76	0x350b8be2	5.198509e-07
77	0x35f3c43a	1.816202e-06
78	0x359ca432	1.1670693e-06
79	0x35637805	8.473874e-07
80	0x358af893	1.0354146e-06
81	0x352cc051	6.435485e-07
82	0x357984f5	9.2953206e-07
83	0x361725e9	2.252282e-06
84	0x3698122d	4.532069e-06
85	0x35aca4b1	1.286293e-06
86	0x368cc84c	4.1956428e-06
87	0x3601817c	1.9297868e-06
88	0x364391c8	2.914212e-06
89	0x36aca8a6	5.1456327e-06
90	0x330c1b59	3.2621163e-08
91	0x332c512e	4.0120703e-08
92	0x340592d6	1.2440009e-07
93	0x332000ba	3.7253564e-08
94	0x342840e6	1.5669829e-07
95	0x33c6a8ee	9.2508216e-08
96	0x330bb4aa	3.2527772e-08
97	0x34cd3532	3.822293e-07
98	0x325deee3	1.291821e-08
99	0x33ceea9f	9.6353e-08
100	0x34304aeb	1.6418532e-07
101	0x348e0d41	2.6459205e-07
102	0x341d1c58	1.4632076e-07
103	0x329e33ae	1.8417122e-08
104	0x33150eb9	3.4705156e-08
105	0x3346972e	4.6237965e-08
106	0x34bbfa4e	3.5013585e-07
107	0x359631b8	1.1190341e-06
108	0x2e04149f	3.003164e-11
109	0x337bfc58	5.8669997e-08
110	0x339130ba	6.760952e-08
111	0x34168a12	1.4020068e-07
112	0x330e43df	3.312368e-08
113	0x3324b347	3.8347277e-08
114	0x3103a72d	1.9158037e-09
115	0x328d90cc	1.6480406e-08
116	0x300d052d	5.1302856e-10
117	0x3328bab0	3.928534e-08
118	0x31f6958d	7.1765442e-09
119	0x2f31ceb3	1.617149e-10
120	0x34956d45	2.7832917e-07
121	0x33cb425e	9.464996e-08
122	0x348cad96	2.6203332e-07
123	0x33d22ce4	9.7870526e-08
124	0x33f3225b	1.13218185e-07
125	0x33d6ce2b	1.0002653e-07
126	0x340caf2e	1.3102246e-07
127	0x344a440c	1.8837471e-07
128	0x354e0492	7.674763e-07
129	0x33d9063f	1.0105986e-07
130	0x33824d44	6.067651e-08
131	0x358fae60	1.070508e-06
132	0x33ed0c34	1.1038392e-07
133	0x32942a19	1.7248611e-08
134	0x35c709af	1.4829474e-06
135	0x35819e90	9.657397e-07
136	0x34dd8507	4.1261248e-07
137	0x351e4124	5.895438e-07
138	0x347e2308	2.3668338e-07
139	0x3584174d	9.841548e-07
140	0x350551e4	4.966553e-07
141	0x35427198	7.243593e-07
142	0x3593c6f7	1.101026e-06
143	0x35126da7	5.4548804e-07
144	0x35d20119	1.5646539e-06
145	0x357717d6	9.2049356e-07
146	0x35e6679e	1.7166492e-06
147	0x34ab6898	3.1927334e-07
148	0x34f57165	4.5717312e-07
149	0x345638f5	1.9951024e-07
150	0x3428e75f	1.5730392e-07
151	0x368231b4	3.880088e-06
152	0x36f44fef	7.281072e-06
153	0x2fd99323	3.9576617e-10
154	0x350a1dd2	5.14524e-07
155	0x348666bc	2.5034194e-07
156	0x353a92a5	6.9503795e-07
157	0x349ecf14	2.9580463e-07
158	0x345d3792	2.0602445e-07
159	0x3270fd1f	1.4027392e-08
160	0x339dc768	7.347154e-08
161	0x2f3be86d	1.7090125e-10
162	0x340835de	1.2685584e-07
163	0x3366816b	5.3668753e-08
164	0x2f933b79	2.6781402e-10
165	0x3595854f	1.1140163e-06
166	0x350f97f8	5.3492795e-07
167	0x35ff41e0	1.9018153e-06
168	0x35eec775	1.7790431e-06
169	0x35879514	1.0101671e-06
170	0x35894e2d	1.0230048e-06
171	0x352e248e	6.4873245e-07
172	0x35a5107a	1.2298253e-06
173	0x360368e3	1.9581573e-06
174	0x36d22737	6.263053e-06
175	0x360a1964	2.0578382e-06
176	0x36a2b40f	4.848938e-06
177	0x35a724c2	1.2453168e-06
178	0x368abc45	4.134638e-06
179	0x3694292a	4.415536e-06
180	0x33914a71	6.7656295e-08
181	0x33f47645	1.13836485e-07
182	0x3445c9cd	1.842047e-07
183	0x33c3ec80	9.123414e-08
184	0x34a1ef52	3.0162715e-07
185	0x33da67b9	1.0170283e-07
186	0x32a2aed7	1.893879e-08
187	0x350f490c	5.337795e-07
188	0x3301c05a	3.0210096e-08
189	0x33e2642f	1.05421684e-07
190	0x34ba46d8	3.4696745e-07
191	0x346f1ca7	2.2269033e-07
192	0x336c6a21	5.5044556e-08
193	0x3359d8d6	5.072146e-08
194	0x331e56c9	3.6866172e-08
195	0x32f60fe1	2.864539e-08
196	0x35025ffd	4.8568455e-07
197	0x35c77f42	1.4863692e-06
198	0x2e1c0328	3.5473097e-11
199	0x33ccb630	9.53263e-08
200	0x33395a94	4.315605e-08
201	0x34342e77	1.678071e-07
202	0x3395725e	6.9591565e-08
203	0x33107e2b	3.3642362e-08
204	0x31852e9e	3.876109e-09
205	0x32e5ae8b	2.6738482e-08
206	0x30eeaacd	1.7365324e-09
207	0x33517941	4.8771884e-08
208	0x32551f19	1.2405303e-08
209	0x2f86c660	2.4515412e-10
210	0x34d70874	4.005302e-07
211	0x3401ebda	1.2099864e-07
212	0x3496140f	2.7954272e-07
213	0x341f01fd	1.4808752e-07
214	0x3485de11	2.4934755e-07
215	0x343c5cc1	1.7542608e-07
216	0x34581bef	2.012673e-07
217	0x341fb763	1.4874745e-07
218	0x346a511c	2.1822456e-07
219	0x34e8113b	4.3225904e-07
220	0x33825ff3	6.07105e-08
221	0x35fa467c	1.8646965e-06
222	0x351fb276	5.949181e-07
223	0x335f794a	5.2031545e-08
224	0x35d7ac7e	1.606895e-06
225	0x34228fd2	1.5139747e-07
226	0x34054633	1.2412129e-07
227	0x340af1dd	1.2940241e-07
228	0x33c354b2	9.095801e-08
229	0x3459d8bc	2.0288547e-07
230	0x3431bd1a	1.6553204e-07
231	0x33d0738e	9.706774e-08
232	0x34ceff9c	3.855647e-07
233	0x33f4ffae	1.1408643e-07
234	0x34bf0373	3.5579032e-07
235	0x3450df0e	1.9452656e-07
236	0x3502791f	4.860503e-07
237	0x33e5b659	1.0696812e-07
238	0x33868cb5	6.265456e-08
239	0x33d928d9	1.011228e-07
240	0x33823aa6	6.064265e-08
241	0x35816297	9.639942e-07
242	0x35db4a23	1.6338348e-06
243	0x2f9eb7bc	2.8870584e-10
244	0x33de2176	1.0343767e-07
245	0x3400d353	1.1997808e-07
246	0x3469c209	2.1770406e-07
247	0x33b9a57f	8.6448374e-08
248	0x336b6364	5.4805597e-08
249	0x31bc5995	5.4817044e-09
250	0x32b99467	2.160432e-08
251	0x2ea0813a	7.298913e-11
252	0x33360e5a	4.238823e-08
253	0x327bd3c6	1.4658275e-08
254	0x2e7691ab	5.6063303e-11
255	0x3481efb1	2.420252e-07
