models/regression_models/ML_including_industry_feature/single_dimension/shutting_down/version_best/checkpoints/epoch=59-step=1860.ckpt (torch, 247539 bytes, 21 tensors)

network.0.weight f4 [64, 45]
0.07316823 0.03202476 -0.088069044 0.09741655 0.067856185 0.16442545 -0.06163692 0.05362548
-0.07811351 0.12155667 0.029700704 0.06975213 -0.070278406 0.020842807 -0.13234888 -0.1399391
0.0023225474 -0.042122684 -0.004570659 -0.12853335 0.090942055 0.09755026 0.08059729 0.103100546
-0.07737176 -0.057734728 -0.0045240074 -0.08345181 -0.030274505 -0.0045758053 -0.10188142 0.078807436
-0.035946883 -0.10655726 0.12733027 -0.04166821 -0.012804319 0.07539331 0.034925636 0.129931
-0.063036025 0.055773545 0.09208702 -0.072074145 0.13284168 -0.08935106 -0.12004324 0.082083225
-0.09864539 -0.0062905555 0.085989185 0.11780625 0.07353554 0.081365556 -0.10165929 0.035356466
0.080467075 -0.09357462 -0.05471024 -0.041538663 0.019764777 0.09446956 0.10957978 0.0021559442
-0.09776597 0.046108615 -0.096323185 0.051538568 -0.005281657 -0.08098857 0.054510657 0.010931729
-0.025532654 0.043764412 0.021999802 -0.05672811 -0.0066494537 0.04307435 -0.064758785 0.09874061
-0.05523815 0.10764403 0.025600504 -0.11259807 -0.080334805 0.13582613 0.049460057 0.007612932
-0.061157487 -0.007961601 -0.036955573 -0.08291008 -0.051240005 0.08408889 0.07761684 -0.037634525
-0.1193427 -0.0065957666 -0.03939627 -0.0037184607 0.10188056 -0.011934538 0.07275972 -0.03638818
-0.011648832 -0.049961016 0.02244834 0.005283377 -0.0024157227 0.027649652 -0.08768154 0.011490571
0.061738335 -0.034480654 0.046368927 0.086692706 0.014591059 -0.011760275 0.0028228892 -0.0037886212
-0.09278589 0.064649075 -0.04799128 0.10513706 0.12447402 0.10711994 -0.017176524 0.12164964
0.0109678935 0.105926216 -0.054465566 0.0063516386 0.07886805 0.0063676573 0.04576407 0.080837
0.06713246 -0.06823881 -0.050131813 -0.027922764 -0.0022573983 -0.04032383 0.039873462 -0.042874515
-0.011272633 -0.0068062623 0.036609504 -0.004587367 -0.0068308813 -0.021906722 -0.045745846 -0.08751249
0.10796194 0.0014762005 0.03939102 0.040256705 -0.06624156 0.024868915 -0.0046727024 -0.004806181
-0.0017642254 0.014206038 -0.035209097 0.00093230366 -0.0032765786 -0.047424212 -0.02955037 0.10351862
0.0495746 0.028459195 -0.034875315 -0.01068125 0.03330404 -0.024629408 -0.0697492 0.04768734
-0.057916425 -0.0109646935 -0.060557175 -0.0023478162 -0.16025372 -0.0031545812 0.00695848 0.007070092
-0.027192105 0.117890306 -0.08896071 -0.09369787 -0.068597674 -0.09657878 0.07095747 0.023177905
0.032586943 -0.084308185 -0.1144779 0.023450878 0.12776023 0.014094606 -0.005680602 0.059834722
0.0067780507 0.0994128 -0.0614956 -0.019270796 0.061337166 -0.007274959 -0.006239687 -0.07946282
-0.055857208 -0.0056891795 -0.052640233 -0.07303662 0.04942465 0.11699968 0.0028099632 -0.007956387
-0.09423261 -0.038468547 0.06803332 -0.021431895 0.025358317 -0.14671105 0.042772543 -0.08381505
0.02380488 -0.032314625 0.09113312 -0.15301806 -0.0888068 -0.07521922 0.025451094 -0.05454541
-0.005957711 -0.1468624 -0.10362516 -0.079047464 0.09041394 -0.078467555 0.049531847 -0.100782454
-0.016819188 -0.054110907 0.09791499 -0.00227146 -0.06572615 0.04147557 0.033564545 -0.11291196
0.07834361 0.047453903 -0.07999833 -0.004323144 -0.0351374 -0.046908274 -0.004322115 0.029779749
00000000: 3ad9 953d 652c 033d 8b5d b4bd 5482 c73d
00000010: 2ff8 8a3d 255f 283e ff76 7cbd 64a6 5b3d
00000020: faf9 9fbd b4f2 f83d e44e f33c 34da 8e3d
00000030: 20ee 8fbd 89be aa3c 7786 07be 324c 0fbe
00000040: e135 183b d688 2cbd 77c5 95bb 3f9e 03be
00000050: d43f ba3d 6ec8 c73d 3110 a53d 6126 d33d
00000060: 1675 9ebd 407b 6cbd 203e 94bb c8e8 aabd
00000070: 3d02 f8bc a3f0 95bb 35a7 d0bd cb65 a13d
00000080: 0a3d 13bd b13a dabd de62 023e 49ac 2abd
00000090: 35c9 51bc cf67 9a3d 2f0e 0f3d a20c 053e
000000a0: 0819 81bd cd72 643d 1f98 bc3d 9c9b 93bd
000000b0: a607 083e b0fd b6bd 3bd9 f5bd 401b a83d
000000c0: 9806 cabd 0121 cebb 191b b03d 6744 f13d
000000d0: cd99 963d fca2 a63d bf32 d0bd f1d1 103d
000000e0: eccb a43d 0da4 bfbd d817 60bd 7224 2abd
000000f0: bee9 a13c 4279 c13d 5d6b e03d be4a 0d3b
00000100: 8639 c8bd 63dc 3c3d 1745 c5bd 1b1a 533d
00000110: c011 adbb 56dd a5bd 9146 5f3d ff1a 333c
00000120: db29 d1bc 5042 333d ee38 b43c bc5b 68bd
00000130: a9e3 d9bb bb6e 303d 41a0 84bd 8438 ca3d
00000140: 6641 62bd 7974 dc3d 26b8 d13c d199 e6bd
00000150: 9386 a4bd 0116 0b3e a196 4a3d e775 f93b
00000160: 4680 7abd 6071 02bc ba5e 17bd c3cc a9bd
00000170: 0ae1 51bd cc36 ac3d 94f5 9e3d a926 1abd
00000180: f269 f4bd 4d21 d8bb fc5d 21bd 6bb1 73bb
00000190: c1a6 d03d 1589 43bc 0c03 953d c60b 15bd
000001a0: beda 3ebc eca3 4cbd 95e5 b73c 2e20 ad3b
000001b0: 1a51 1ebb 8681 e23c 6192 b3bd f342 3c3c
000001c0: 56e1 7c3d 963b 0dbd 58ed 3d3d f28b b13d
000001d0: 560f 6f3c 2bae 40bc 3900 393b 844a 78bb
000001e0: 8706 bebd bc66 843d 8192 44bd 1952 d73d
000001f0: 3cec fe3d b361 db3d c8b5 8cbc 7223 f93d
00000200: aeb2 333c d8ef d83d 4917 5fbd 6821 d03b
00000210: 9285 a13d c8a7 d03b 1b73 3b3d de8d a53d
00000220: be7c 893d cac0 8bbd 0457 4dbd 48be e4bc
00000230: dcf0 13bb 9a2a 25bd 5b52 233d 309d 2fbd
00000240: dab0 38bc 1107 dfbb d9f3 153d a051 96bb
00000250: 96d5 dfbb ba75 b3bc ff5f 3bbd c039 b3bd
00000260: 261b dd3d 127d c13a 7a58 213d 37e4 243d
00000270: a8a9 87bd e5b9 cb3c 781d 99bb 2b7d 9dbb
00000280: 953d e7ba 71c0 683c 6a37 10bd d765 743a
00000290: debb 56bb e43f 42bd 9e13 f2bc 9201 d43d
000002a0: bc0e 4b3d 4223 e93c 6bd9 0ebd 6900 2fbc
000002b0: d169 083d 9dc3 c9bc abd8 8ebd cd53 433d
000002c0: c639 6dbd 42a5 33bc cd0a 78bd d2dd 19bb
000002d0: 8d19 24be 17bd 4ebb f603 e43b 3bac e73b
000002e0: fac1 debc 7970 f13d 0831 b6bd abe4 bfbd
000002f0: f07c 8cbd 18cb c5bd 2652 913d 97df bd3c
00000300: e379 053d c5a9 acbd 6473 eabd 0e1c c03c
00000310: 94d3 023e 10ed 663c 5824 babb 4115 753d
00000320: 691a de3b f098 cb3d cfe2 7bbd cadd 9dbc
00000330: ae3c 7b3d c762 eebb 4a76 ccbb 67bd a2bd
00000340: 87ca 64bd 4c6c babb 499d 57bd 3994 95bd
00000350: 8071 4a3d 879d ef3d 5c27 383b 815b 02bc
00000360: 07fd c0bd 3291 1dbd 0e55 8b3d f191 afbc
00000370: 3fbc cf3c 6c3b 16be 4332 2f3d 3aa7 abbd
00000380: 7402 c33c 575c 04bd 00a4 ba3d c4b0 1cbe
00000390: 57e0 b5bd 890c 9abd d07e d03c 026b 5fbd
000003a0: e738 c3bb 1963 16be 6e39 d4bd a3e3 a1bd
000003b0: f22a b93d 99b3 a0bd e8e1 4a3d 0867 cebd
000003c0: 65c8 89bc 66a3 5dbd a787 c83d c6dc 14bb
000003d0: 6f9b 86bd 4ae2 293d fa7a 093d 633e e7bd
000003e0: 9d72 a03d 065f 423d 2ad6 a3bd 29a9 8dbb
000003f0: 3cec 0fbd e422 40bd 87a0 8dbb a9f4 f33c

network.0.bias f4 [64]
0.0072301677 0.011342944 -0.05578757 -0.03828355 0.13526551 0.0058832727 0.031337786 -0.04135805
-0.091710545 -0.022914693 0.07795849 0.07337067 -0.062822245 0.026192687 -0.10217234 -0.040186893
-0.04084473 -0.054263055 -0.06722117 -0.04495341 0.13682574 -0.11233239 0.07231752 -0.019117717
-0.10877332 0.064606756 0.0002482154 0.09825614 0.100495175 -0.053741407 -0.10060586 0.13706201
-0.09214705 0.137021 -0.08334987 -0.04020354 0.09768397 -0.010237388 -0.023716846 -0.0039211255
0.07652224 -0.009562187 0.015785357 0.12595524 0.03178553 0.105749674 0.112817064 -0.1036997
-0.06686466 0.10215348 0.14143486 -0.100327164 -0.08997878 -0.106954016 -0.09896833 0.11878114
0.012965978 0.06264654 -0.04793725 0.01249963 0.030475661 0.0036544607 -0.03101945 0.07037014
00000000: 0beb ec3b c1d7 393c 8281 64bd 36cf 1cbd
00000010: 0b83 0a3e 78c8 c03b 0d5c 003d 0f67 29bd
00000020: bdd2 bbbd 98b7 bbbc b3a8 9f3d 5d43 963d
00000030: f3a8 80bd 0c92 d63c bb3f d1bd 039b 24bd
00000040: ce4c 27bd f042 5ebd 41ab 89bd 1121 38bd
00000050: 0c1c 0c3e 860e e6bd 351b 943d c29c 9cbc
00000060: 8cc4 debd 8c50 843d e822 8239 843a c93d
00000070: 6ad0 cd3d f31f 5cbd 720a cebd fc59 0c3e
00000080: 98b7 bcbd 3c4f 0c3e 56b3 aabd 78ac 24bd
00000090: 890e c83d b8ba 27bc d549 c2bc c97c 80bb
000000a0: b1b7 9c3d b8aa 1cbc 4b50 813c 69fa 003e
000000b0: 8b31 023d 4993 d83d a20c e73d 8260 d4bd
000000c0: 57f0 88bd d835 d13d 4dd4 103e 5478 cdbd
000000d0: cb46 b8bd b50a dbbd e8af cabd 8743 f33d
000000e0: 416f 543c d44c 803d da59 44bd 40cb 4c3c
000000f0: 18a8 f93c ad7f 6f3b 801c febc 381e 903d

network.3.weight f4 [128, 64]
-0.04538839 0.044741366 -0.0069295615 -0.012793653 0.031481475 -0.061725713 -0.0344566 -0.013362333
0.03960428 0.0003099599 -0.05081954 -0.029502308 0.00051152834 0.037298642 -0.029709503 -0.010427304
-0.06207217 0.015857022 -0.037973415 -0.035600536 0.009796824 -0.012502975 -0.03860103 -0.0151388515
-0.014930183 0.059537325 0.005485847 0.051403552 -0.0021205929 -0.02067378 -0.019451687 0.021463506
-0.031907503 0.065109834 -0.014308723 0.018033952 -0.0774376 -0.032797825 0.017245803 -0.0011604901
0.034689087 -0.032262076 -0.007703952 -0.08103338 0.073401876 -0.026966417 -0.037092958 -0.019599112
0.003491829 -0.027407423 0.08085302 0.03315306 -0.01186957 0.019116772 0.026178412 0.023220599
-0.038306665 -0.033207964 -0.03810222 -0.016644869 -0.037540115 -0.005993954 0.04409321 -0.07150822
-0.0003242548 -0.07489611 -0.0864452 -0.030136304 0.039354984 0.08371486 0.026778262 0.08184196
0.010681008 0.0052024247 -0.032735035 -0.0030621595 -0.032448683 -0.0012069179 0.08934516 -0.03696733
-0.03057999 0.015161907 0.077802874 -0.032421555 -0.09874137 -0.025283985 -0.11028801 0.056400586
-0.011275561 -0.042379677 -0.04735125 0.102726504 0.095792055 -0.0867852 0.015747098 -0.005595042
-0.08408852 -0.085672244 -0.09999846 -0.05183569 -0.072629765 -0.048178524 0.014351122 0.11517316
0.09608818 -0.021650946 -0.03525539 0.089338616 0.045903176 -0.09407789 0.04418992 -0.04857262
-0.0061071683 0.023703428 -0.017323038 -0.03694826 0.027076002 0.06831294 0.030627336 -0.065071374
0.01878332 0.093652904 -0.069704376 -0.015838558 0.023914266 0.09323867 -0.07805622 -0.10195374
-0.10173175 -0.011225751 -0.061254643 -0.035268027 0.07702288 0.058313794 0.03934087 -0.068492234
-0.102838345 6.942163e-05 0.035363264 0.06720101 0.030612059 0.09336767 0.10214749 -0.06781285
-0.089737326 0.07038499 0.021496074 -0.04625819 -0.0086618485 0.07118556 0.07327895 0.022535695
0.026931345 -0.047862835 0.028806904 0.01686207 0.05016539 0.007986428 0.022139672 -0.07009112
-0.021059787 -0.019496076 0.10482606 -0.014020488 0.05908683 0.03897213 0.04663668 0.04310302
-0.05313179 0.08928833 -0.062109046 0.06974367 -0.0641136 0.10669219 0.05791094 0.037662182
0.032233402 -0.0063184686 0.0051205987 -0.04724968 0.01667963 -0.02835328 0.05984861 -0.031343307
0.099350676 -0.03919403 0.099406056 -0.031223569 -0.0041982606 -0.0104889525 0.03991265 -0.10812671
0.030804494 -0.060691148 0.00027970254 -0.05174007 -0.06542058 0.018012531 0.050772257 -0.021033054
-0.050689276 0.011143794 -0.016975181 -0.07223477 0.059475448 -0.07933683 0.07515258 -0.045169048
-0.08683929 -0.036414936 -0.057339244 -0.02813087 0.018356193 0.0067311577 -0.06297714 0.060327865
-0.002757701 -0.06560856 0.0159758 -0.08364288 -0.071666814 0.0040255804 0.053038206 -0.018974306
0.047326703 0.061703116 0.073661715 0.0024834133 -0.054901548 0.068344206 -0.026798787 0.008977324
-0.07013808 -0.00625398 0.021075422 -0.089950815 -0.07975713 0.10265907 0.012205198 -0.017625937
0.015807979 0.039591555 -0.07886487 -0.008384802 0.03693344 0.031183327 -0.00042867605 0.0807539
-0.002410393 -0.070172936 0.062042303 -0.037453264 -0.06755514 -0.052999835 0.018802786 0.082447454
00000000: 2de9 39bd b942 373d 6011 e3bb 789c 51bc
00000010: b8f2 003d 1ad4 7cbd 5d22 0dbd b0ed 5abc
00000020: 1938 223d 1d82 a239 2628 50bd d3ae f1bc
00000030: 1618 063a 76c6 183d 5861 f3bc 48d7 2abc
00000040: 633f 7ebd 96e6 813c 038a 1bbd ded1 11bd
00000050: dc82 203c 47d9 4cbc 1d1c 1ebd f208 78bc
00000060: ba9d 74bc 69dd 733d 9fc2 b33b 888c 523d
00000070: a5f9 0abb 0f5c a9bc 2559 9fbc 3cd4 af3c
00000080: 71b1 02bd 4e58 853d 226f 6abc f0bb 933c
00000090: 9b97 9ebd 0357 06bd 1247 8d3c 961b 98ba
000000a0: 2516 0e3d 3d25 04bd 6f71 fcbb d4f4 a5bd
000000b0: b953 963d ade8 dcbc c9ee 17bd 518e a0bc
000000c0: 2bd7 643b 8885 e0bc 4596 a53d 81cb 073d
000000d0: 9678 42bc c79a 9c3c 1c74 d63c 2039 be3c
000000e0: 73e7 1cbd 1305 08bd 1311 1cbd d25a 88bc
000000f0: aac3 19bd ee68 c4bb 159b 343d e772 92bd
00000100: be00 aab9 2263 99bd 2e0a b1bd 69e0 f6bc
00000110: b132 213d b272 ab3d 165e db3c c29c a73d
00000120: 65ff 2e3c 1a79 aa3b 2c15 06bd 83ae 48bb
00000130: e9e8 04bd 7231 9eba 98fa b63d 0e6b 17bd
00000140: e382 fabc a669 783c 1d57 9f3d 77cc 04bd
00000150: ea38 cabd 5c20 cfbc aede e1bd 4d04 673d
00000160: 21bd 38bc 5096 2dbd 62f3 41bd 4662 d23d
00000170: a02e c43d 70bc b1bd 0f00 813c 9d56 b7bb
00000180: 9a36 acbd ee74 afbd fecb ccbd a951 54bd
00000190: eabe 94bd d856 45bd f820 6b3c e8df eb3d
000001a0: e1c9 c43d 535d b1bc f567 10bd 2af7 b63d
000001b0: f804 3c3d e9ab c0bd 7d00 353d 15f4 46bd
000001c0: a41e c8bb b12d c23c 0be9 8dbc 0f57 17bd
000001d0: 7ece dd3c a8e7 8b3d 2ee6 fa3c 2444 85bd
000001e0: 7adf 993c 18cd bf3d 2bc1 8ebd ddbf 81bc
000001f0: dae7 c33c eaf3 be3d f1db 9fbd 1fcd d0bd
00000200: bc58 d0bd 36ec 37bc 26e6 7abd 3575 10bd
00000210: 2cbe 9d3d 72da 6e3d e423 213d a845 8cbd
00000220: e99c d2bd 7496 9138 12d9 103d afa0 893d
00000230: 24c6 fa3c 8d37 bf3d b432 d13d 77e1 8abd
00000240: 34c8 b7bd 0126 903d 8918 b03c 3a79 3dbd
00000250: 6dea 0dbc bcc9 913d 4613 963d c79c b83c
00000260: 209f dc3c d20b 44bd 75fc eb3c 5322 8a3c
00000270: 397a 4d3d 82d9 023c 425e b53c ef8b 8fbd
00000280: 9385 acbc 3cb6 9fbc 0caf d63d 30b6 65bc
00000290: 0805 723d 3da1 1f3d 1a06 3f3d cb8c 303d
000002a0: b8a0 59bd cddc b63d 0e66 7ebd c5d5 8e3d
000002b0: fe4d 83bd 6f81 da3d 0634 6d3d a943 1a3d
000002c0: 2c07 043d 280b cfbb b2ca a73b e188 41bd
000002d0: b8a3 883c 2345 e8bc d123 753d d761 00bd
000002e0: 5e78 cb3d eb89 20bd 6795 cb3d 92c8 ffbc
000002f0: 9091 89bb dbd9 2bbc 727b 233d 8971 ddbd
00000300: b559 fc3c 4897 78bd 0aa5 9239 65ed 53bd
00000310: 3afb 85bd 048f 933c 92f6 4f3d 834d acbc
00000320: 8f9f 4fbd 7694 363c 890f 8bbc d3ef 93bd
00000330: 879c 733d 597b a2bd 99e9 993d 2e03 39bd
00000340: ccd8 b1bd d427 15bd 8edc 6abd b672 e6bc
00000350: ba5f 963c 0b91 dc3b 29fa 80bd 5a1a 773d
00000360: 8cba 34bb c85d 86bd aedf 823c f54c abbd
00000370: 0dc6 92bd 04e9 833b 973e 593d 0170 9bbc
00000380: a5d9 413d 68bc 7c3d f4db 963d c3c0 223b
00000390: 72e0 60bd 0cf8 8b3d 2189 dbbc a015 133c
000003a0: 8ea4 8fbd 30ee ccbb 5da6 ac3c 2238 b8bd
000003b0: b557 a3bd eb3e d23d 50f8 473c 4564 90bc
000003c0: bc7f 813c c12a 223d e883 a1bd 6960 09bc
000003d0: 8547 173d 2d74 ff3c edbf e0b9 4d62 a53d
000003e0: aff7 1dbb d4b6 8fbd 1220 7e3d 9868 19bd
000003f0: 595a 8abd 5b16 59bd 4d08 9a3c 36da a83d

network.3.bias f4 [128]
0.035477087 0.064303845 0.022774758 0.10091432 0.022901071 -0.035129886 -0.034909613 -0.032061733
0.10955523 -0.072501935 0.06146737 -0.016402258 0.059852455 0.048873533 -0.010918108 0.075384475
-0.0026446283 0.098975085 0.09727965 0.07964758 0.0743687 -0.08854281 0.053423557 -0.09024612
0.069248326 0.102356344 0.06712518 0.09951194 -0.016476061 0.010247371 -0.061960135 0.0704986
0.01670384 -0.08026113 0.1113356 -0.09598925 -0.050551046 -0.0052275285 -0.03965644 0.082122296
0.025661208 -0.02489899 -0.011762482 0.05851646 -0.046744138 -0.036068074 -0.06497639 0.07720817
0.11381097 0.029287703 -0.015459983 -0.075106665 -0.03379134 0.08570293 0.04704851 -0.013839856
0.09310544 -0.009344373 0.07159314 -0.036354773 0.017342402 -0.08605503 -0.018201472 -0.0766202
-0.024074487 0.10268303 -0.01055551 -0.014585209 -0.04043152 0.092508525 -0.06478403 0.07808487
-0.030085994 0.08349373 -0.097896345 -0.03207059 0.0885535 0.075718306 0.024787629 -0.05202234
0.013337471 0.059659578 -0.100898035 0.09868352 0.07827517 -0.031754903 -0.06550003 0.0054018893
0.06672249 0.10393055 -0.08883365 0.0051655546 -0.08152869 -0.033902228 0.04070567 -0.013495729
0.014917373 -0.016013205 0.08762825 -0.03512284 -0.012539789 0.11011203 0.056516442 0.072728604
-0.0038244869 0.09023142 0.044120673 -0.03257566 -0.10862329 0.043023176 -0.00080320134 0.03269829
-0.07111965 -0.10096735 -0.069601744 -0.08705445 0.03695849 0.021298805 0.082224295 -0.09212878
0.07010267 -0.008495883 -0.0324432 -0.07948389 -0.114904925 -0.0579677 0.05680432 -0.008682724
00000000: 6c50 113d bcb1 833d 2192 ba3c 2bac ce3d
00000010: 079b bb3c 5be4 0fbd 62fd 0ebd 2a53 03bd
00000020: 7e5e e03d e57b 94bd 35c5 7b3d 075e 86bc
00000030: d927 753d 9d2f 483d dde1 32bc 2d63 9a3d
00000040: 8051 2dbb 73b3 ca3d 8e3a c73d 451e a33d
00000050: 9e4e 983d ef55 b5bd a9d2 5a3d f5d2 b8bd
00000060: 11d2 8d3d 34a0 d13d ed78 893d eacc cb3d
00000070: cef8 86bc 97e4 273c e9c9 7dbd 9261 903d
00000080: 7ed6 883c f35f a4bd eb03 e43d 0396 c4bd
00000090: 9d0e 4fbd b04b abbb cb6e 22bd bc2f a83d
000000a0: 7437 d23c f7f8 cbbc 6db7 40bc f5ae 6f3d
000000b0: c876 3fbd 1ebc 13bd 5712 85bd 511f 9e3d
000000c0: ba15 e93d c4ec ef3c de4b 7dbc 86d1 99bd
000000d0: ca68 0abd 0585 af3d f0b5 403d 90c0 62bc
000000e0: 11ae be3d 2419 19bc 6d9f 923d bee8 14bd
000000f0: a711 8e3c 9f3d b0bd 411b 95bc 0deb 9cbd
00000100: dc37 c5bc 7b4b d23d 05f1 2cbc cdf6 6ebc
00000110: 869b 25bd 1c75 bd3d 7dad 84bd f6ea 9f3d
00000120: e776 f6bc c3fe aa3d e17d c8bd 735c 03bd
00000130: 8a5b b53d 3312 9b3d 6d0f cb3c 6115 55bd
00000140: 6885 5a3c 9a5d 743d a1a3 cebd 961a ca3d
00000150: bb4e a03d 6e11 02bd e124 86bd 5502 b13b
00000160: cda5 883d 8ad9 d43d 6bee b5bd d043 a93b
00000170: 84f8 a6bd 10dd 0abd fdba 263d 311d 5dbc
00000180: ff67 743c 202e 83bc 7176 b33d f8dc 0fbd
00000190: b073 4dbc 6a82 e13d c97d 673d bcf2 943d
000001a0: 3ea4 7abb 40cb b83d e1b7 343d 0e6e 05bd
000001b0: e375 debd 1239 303d ee8d 52ba a4ee 053d
000001c0: 2ea7 91bd f8c7 cebd 5c8b 8ebd 9a49 b2bd
000001d0: c961 173d d57a ae3c 3665 a83d 04ae bcbd
000001e0: fd91 8f3d 5132 0bbc 29e3 04bd 73c8 a2bd
000001f0: 4653 ebbd 8a6f 6dbd a6ab 683d fc41 0ebc

network.6.weight f4 [64, 128]
-0.012596008 0.026852302 -0.016995419 0.0017036357 0.0036745255 0.028065484 2.3895075e-06 -0.0012211716
-0.0310684 2.7974065e-06 -0.021957543 -0.00012009176 -0.012141594 0.00027998764 -1.5877799e-08 -0.01486723
-0.018868966 -0.012085135 -0.010159528 -0.009700253 0.04312315 1.7053021e-06 -0.044653192 0.0003732709
0.051483292 -0.03442062 0.0053200372 -0.018254515 3.4349217e-31 -0.020486347 -0.0016966475 0.0025956586
0.013872253 0.00043034568 -0.0123630045 -0.00023003008 -0.035694312 -0.015156087 -0.0028386817 0.02457542
-0.023213433 0.017296916 -0.011813937 -0.027146278 1.8475293e-12 0.040778797 -0.0010177265 0.03851851
0.041976366 -0.01666626 -0.0024391597 0.004100162 -0.0031384125 0.023553472 -0.01073196 0.019274037
-0.018627185 5.6821603e-10 -0.009008315 -0.0030363363 0.015941571 0.0016809221 0.0030979393 -0.0023129806
-0.00860086 -0.04464816 8.877482e-19 1.6618808e-18 -0.0005445367 -0.005597616 1.6300716e-29 0.04212623
-0.006072059 -0.005672686 0.003640408 -1.2184832e-10 0.011425108 -0.03069241 -0.0063610007 -0.012452176
-0.01837103 -0.005882131 0.00010659812 -0.052845716 -0.005400298 0.012536022 0.01722434 0.045345895
0.036823906 0.041615836 -0.00020654747 0.00069302495 0.00024081081 -0.00050399353 -0.02477445 -0.0011327751
-0.012459715 -3.8959545e-25 -0.027142594 -0.0020076297 0.0469269 0.05836183 -0.023342129 0.0067083053
-0.008160045 0.020277597 0.01229264 -0.0078520775 0.012335722 0.07181107 -3.757502e-05 -0.03042791
0.0014099745 -0.0057024965 1.5491441e-10 -0.016186576 -0.0037852956 -0.017384728 -0.02632073 -0.026432088
-0.031142982 0.032539517 -0.0027355873 -0.003956482 0.0019083809 -0.02563329 0.031645905 -0.030553417
-0.033254035 0.06663075 -0.020737648 -0.008871144 0.03278773 0.028877802 -1.098696e-05 -0.011284717
0.007366054 -0.00087616214 -0.020231577 -0.0038766374 0.04436373 0.06964255 2.1602866e-18 -0.03162696
0.0011632639 0.053733997 -0.03509321 -0.0053718495 0.028284084 -3.4574692e-05 0.026944501 0.0027515744
0.037310198 0.016553618 0.037372604 -0.03745339 0.0013147712 -0.046435528 -0.00016538236 0.026223117
0.044349745 -0.0003215719 0.01775984 -0.0035684472 0.053978633 -0.016104668 -0.013268664 -0.042637344
0.022982663 -0.0153298825 0.002028001 0.05388633 -9.928432e-11 0.063662 0.0071867295 0.02918546
0.039107036 -0.052579742 0.006281509 0.0016420756 0.014155362 -0.013271285 0.0023167664 0.024341369
0.07208199 -1.029268e-34 2.5376567e-05 0.004114287 -0.009247076 -0.016057836 0.0128956605 0.0013447896
-0.031412147 0.004577822 0.00010074029 -5.6663435e-28 0.00078531 -0.036513302 -7.7029246e-05 -0.034025483
0.026524302 0.043048494 -0.003102467 5.2724697e-10 -0.05282182 -0.026187493 -0.013570742 0.0049990094
0.046734247 -0.024480535 -0.0043539614 0.034544792 0.044258144 0.025240395 -0.036445808 -0.028815249
0.03654277 0.079843685 0.0021074917 -0.002980719 0.0038523518 -8.767005e-05 -0.04930628 -7.7239314e-08
-0.007972301 4.6627844e-22 0.03989157 0.031462252 0.047710355 -0.0061493246 0.023401497 0.019513726
0.020474927 -0.012419305 0.0033935432 0.010858457 -0.0058745565 -0.017305445 0.000112809044 -0.014548075
0.005249408 -0.009458944 -8.112225e-07 -0.0074235634 0.014848874 -0.040283315 -0.06023807 0.046911992
0.0026097354 -0.033263616 0.009780075 -0.0253476 0.021965154 0.027677225 -0.048959196 0.006597333
00000000: 7d5f 4ebc 5cf9 db3c fa39 8bbc 874c df3a
00000010: 4fd0 703b 96e9 e53c 6d5b 2036 b80f a0ba
00000020: 2883 febc 14bb 3b36 4ee0 b3bc c6d9 fbb8
00000030: 89ed 46bc 4ecb 9239 a663 88b2 af95 73bc
00000040: 1793 9abc bb00 46bc 2674 26bc cfed 1ebc
00000050: e6a1 303d bce1 e435 44e6 36bd 92b3 c339
00000060: 25e0 523d a3fc 0cbd b553 ae3b 7e8a 95bc
00000070: 6df0 de0c fcd2 a7bc 0b62 deba ed1b 2a3b
00000080: 7248 633c 05a0 e139 338e 4abc 3b34 71b9
00000090: 3334 12bd 3d51 78bc 2d09 3abb 6452 c93c
000000a0: 192a bebc 43b2 8d3c 3e8f 41bc df61 debc
000000b0: 2102 022c ab07 273d 3c65 85ba 96c5 1d3d
000000c0: 69ef 2b3d ae87 88bc 4fda 1fbb a75a 863b
000000d0: d3ad 4dbb 36f3 c03c 1ad5 2fbc 96e4 9d3c
000000e0: 0a98 98bc a630 1c30 9d97 13bc 45fd 46bb
000000f0: e697 823c 6352 dc3a cc06 4b3b 6095 17bb
00000100: 9fea 0cbc fde0 36bd 2e02 8321 1540 f521
00000110: 3dbf 0eba 356c b7bb 144f a50f 8e8c 2c3d
00000120: 1ff8 c6bb f0e1 b9bb e993 6e3b 41f9 05af
00000130: 6030 3b3c a66e fbbc f16f d0bb 3604 4cbc
00000140: d87e 96bc e4be c0bb 6e8d df38 c074 58bd
00000150: fcf4 b0bb e363 4d3c 0f1a 8d3c 9ebc 393d
00000160: aad4 163d 5e75 2a3d aa94 58b9 1eac 353a
00000170: 2982 7c39 6f1e 04ba caf3 cabc a079 94ba
00000180: d523 4cbc dd25 f196 255a debc 7092 03bb
00000190: 6c36 403d d00c 6f3d fe37 bfbc 58d1 db3b
000001a0: b6b1 05bc 341d a63c 1267 493c 00a6 00bc
000001b0: c51b 4a3c af11 933d df99 1db8 f443 f9bc
000001c0: e5ce b83a 02dc babb 8854 2a2f b699 84bc
000001d0: b912 78bb 6b6a 8ebc 929e d7bc 1b88 d8bc
000001e0: 911f ffbc 2848 053d 8a47 33bb 60a5 81bb
000001f0: a322 fa3a e8fc d1bc 239f 013d 294b fabc
00000200: 6235 08bd b475 883d 00e2 a9bc 4658 11bc
00000210: 6d4c 063d 2491 ec3c a254 38b7 89e3 38bc
00000220: f15e f13b 3fae 65ba b1bc a5bc 2f0f 7ebb
00000230: beb6 353d c1a0 8e3d a966 1f22 458b 01bd
00000240: a978 983a 2e18 5c3d e6bd 0fbd 5706 b0bb
00000250: 06b4 e73c 4b04 11b8 b7ba dc3c c253 343b
00000260: 94d2 183d 749b 873c 0414 193d ba68 19bd
00000270: 6754 ac3a 2e33 3ebd 7d6a 2db9 ddd1 d63c
00000280: 14a8 353d a698 a8b9 157d 913c 9cdc 69bb
00000290: b318 5d3d f0ed 83bc cf64 59bc 7fa4 2ebd
000002a0: 2346 bc3c 302a 7bbc 36e8 043b eab7 5c3d
000002b0: 1a54 daae 3961 823d a87e eb3b 5916 ef3c
000002c0: b32e 203d db5d 57bd 1ed5 cd3b ea3a d73a
000002d0: e4eb 673c ce6f 59bc e4d4 173b 8d67 c73c
000002e0: b99f 933d 2dd0 0887 c3df d437 24d1 863b
000002f0: 0c81 17bc b98b 83bc 5248 533c a743 b03a
00000300: 06aa 00bd 8e01 963b 8844 d338 d792 3392
00000310: 43dd 4d3a f98e 15bd c38a a1b8 4e5e 0bbd
00000320: 7e49 d93c 9e53 303d c252 4bbb b5ed 1030
00000330: b15b 58bd 2787 d6bc d157 5ebc bbce a33b
00000340: 696c 3f3d 678b c8bc adab 8ebb d77e 0d3d
00000350: 0748 353d f2c4 ce3c 3348 15bd f50d ecbc
00000360: dfad 153d 1685 a33d d81d 0a3b 2b58 43bb
00000370: bd77 7c3b 80db b7b8 62f5 49bd c3de a5b3
00000380: 419e 02bc 8cec 0c1c 5865 233d 90de 003d
00000390: ef6b 433d 4680 c9bb 7fb4 bf3c 40db 9f3c
000003a0: 09bb a73c 577a 4bbc 3566 5e3b abe7 313c
000003b0: 5a7f c0bb 26c4 8dbc e593 ec38 0d5b 6ebc
000003c0: 3a03 ac3b b0f9 1abc c9c2 59b5 5d41 f3bb
000003d0: b148 733c 1e00 25bd 32bc 76bd ca26 403d
000003e0: 1808 2b3b 6e3f 08bd 9c3c 203c c5a5 cfbc
000003f0: 44f0 b33c 59bb e23c 7089 48bd 712e d83b

network.6.bias f4 [64]
-0.015166556 -0.039395437 0.056572173 -0.03215462 -0.033079397 -0.058422077 0.013202748 0.049148176
0.060057435 -0.0029813626 -0.0021817724 0.06086747 -0.024825001 0.05552825 -0.083082154 -0.048751384
0.012265922 -0.04438193 -0.0012882196 0.0042290366 -0.07127102 0.0761036 0.019075543 -0.03857566
0.023586938 -0.03155107 0.04211985 0.003628305 -0.06526102 -0.022904754 0.053460326 0.06056766
-0.040733196 0.047738727 -0.037890445 0.024451373 0.07641143 -0.01101179 0.06608121 0.013636544
0.012776974 0.040262103 -0.00072447315 0.05235888 -0.047800433 0.05767841 -0.022423053 0.06581464
-0.0716627 0.039186303 -0.060888432 -0.036503844 0.057126995 0.024179013 -0.02733078 0.013423925
-0.016025458 0.07053908 0.01829174 0.0019594657 0.08413728 0.07452269 -0.059094477 -0.0011369778
00000000: 267d 78bc 1c5d 21bd 39b8 673d 90b4 03bd
00000010: 437e 07bd fd4b 6fbd 5750 583c 994f 493d
00000020: c9fe 753d f762 43bb 11fc 0ebb 2b50 793d
00000030: cd5d cbbc 9771 633d fa26 aabd 88af 47bd
00000040: 01f7 483c d4c9 35bd 7ad9 a8ba bb93 8a3b
00000050: 8af6 91bd 34dc 9b3d 5044 9c3c 8301 1ebd
00000060: 6539 c13c b23b 01bd dd85 2c3d dbc8 6d3b
00000070: 92a7 85bd c0a2 bbbc 37f9 5a3d cb15 783d
00000080: dad7 26bd af89 433d 0333 1bbd 3f4e c83c
00000090: 997d 9c3d cb6a 34bc 9655 873d d06b 5f3c
000000a0: 8356 513c e0e9 243d 92ea 3dba 4476 563d
000000b0: 63ca 43bd 3240 6c3d 8db0 b7bc d3c9 863d
000000c0: e5c3 92bd d181 203d 2666 79bd 0e85 15bd
000000d0: fffd 693d 1113 c63c cde4 dfbc 06f0 5b3c
000000e0: d247 83bc cb76 903d 8fd8 953c 616a 003b
000000f0: 2b50 ac3d 5a9f 983d 0d0d 72bd a506 95ba

network.9.weight f4 [1, 64]
0.019078713 -0.033133477 -0.07219501 -0.10724772 -0.07416413 -0.11164655 0.0553896 -0.009325154
0.11442953 -0.04802572 0.042157207 -0.00443552 -0.010783134 -0.057835132 0.022862855 0.021111423
0.052552577 -0.019600336 -0.020474715 0.107982926 -0.044254106 0.0319818 -0.054374784 0.03724372
0.008974505 -0.03330961 -0.06564459 -0.0424851 0.01714857 -0.11012167 -0.05885991 0.10497368
-0.037854116 -0.079340346 0.016536826 -0.03779906 -0.044177238 0.10344246 0.10606817 0.072552204
-0.06598208 0.054868694 0.00022858518 -0.06383303 0.007381592 -0.07118127 -0.10673252 0.058388155
0.032733817 0.003160666 -0.0851476 0.105705075 0.06741184 0.09432898 0.08467292 0.08751912
-0.11839743 -0.028742846 -0.14219047 0.030061489 0.115671754 -0.063840866 0.037900623 0.010358631
00000000: f64a 9c3c f8b6 07bd fada 93bd b1a4 dbbd
00000010: 5de3 97bd f2a6 e4bd 35e0 623d 88c8 18bc
00000020: 085a ea3d 9eb6 44bd 09ad 2c3d d757 91bb
00000030: beab 30bc 88e4 6cbd e24a bb3c ddf1 ac3c
00000040: 5f41 573d e290 a0bc 97ba a7bc 2726 dd3d
00000050: cb43 35bd 59ff 023d 18b8 5ebd df8c 183d
00000060: cd09 133c a86f 08bd ac70 86bd db04 2ebd
00000070: 287b 8c3c 7887 e1bd 1717 71bd 71fc d63d
00000080: eb0c 1bbd 317d a2bd 3d78 873c 30d3 1abd
00000090: 31f3 34bd a4d9 d33d 453a d93d 4096 943d
000000a0: 9d21 87bd ffbd 603d 5eb0 6f39 e4ba 82bd
000000b0: 48e1 f13b 7cc7 91bd 9496 dabd 6b28 6f3d
000000c0: e513 063d 2d23 4f3b dd61 aebd e77b d83d
000000d0: 380f 8a3d 8d2f c13d ff68 ad3d 393d b33d
000000e0: 5a7a f2bd 1e76 ebbc 619a 11be 8343 f63c
000000f0: 50e5 ec3d 00bf 82bd af3d 1b3d 3fb7 293c

exp_avg f4 [64, 45]
-0.0003743149 -0.00028864975 -7.17745e-05 -0.00022992492 0.00022386764 0.000195611 0.00028698763 -9.2831055e-05
0.00011638603 0.00083623844 -0.00035141612 -0.0014458535 -7.981829e-05 -2.162469e-05 -0.00032369283 -0.00012807724
-0.0005390857 -0.00057691097 -9.029997e-06 2.0852925e-05 0.0005075942 -0.0006742507 0.00028090575 -0.00021947006
-0.00011192633 -0.00029274568 -8.981854e-06 -0.000112152215 -0.00022380486 -9.035326e-06 -0.00018352651 -0.0006237123
-0.00070943293 -0.00025313484 0.0007855649 -0.000363372 -0.0008160004 0.00023713741 -0.0003365853 0.0001547166
-0.00018147894 -0.0005504177 0.0007171243 0.00017921308 -0.0015813723 -0.00031673917 0.00023817239 -0.00056838
-1.1500915e-05 0.00015064132 0.00015560613 -0.00023086982 -0.00011342066 -9.0364347e-07 -0.00079157046 0.0001476775
0.0004377935 0.000114679984 -0.00021145605 -0.00018287328 -0.00019609334 -5.4420198e-05 -0.0010596672 -3.8731628e-07
-0.0001936606 -0.00053687644 0.0003466988 0.00014667351 0.0001349199 -0.00017256555 0.00015800171 8.454559e-06
-7.5187636e-05 5.8053458e-05 1.958207e-05 0.000189674 -8.624856e-05 -4.3975277e-05 -0.00022278963 -0.0009077614
-0.00018704747 0.00033032568 -0.00033018054 -0.00019403697 -0.001641016 -0.00046094804 0.0006564826 5.3063748e-05
1.566378e-05 0.0001518261 -0.00030866207 -0.0006541191 0.0008642127 7.176972e-05 0.00021788581 1.5936035e-05
2.645423e-05 8.679055e-05 7.69625e-06 0.0015649837 -5.2330706e-06 -0.00026408074 -0.0001641197 -0.00049781345
-2.149196e-06 -7.128859e-05 -0.00024219057 0.0007321791 3.7525595e-06 0.00033967418 0.0006473001 -0.00026823225
8.509889e-05 -0.0001071109 5.144558e-05 0.000112852584 2.0832655e-05 -2.9072076e-05 -0.00016982321 2.3020468e-06
-0.00037381964 0.00062236335 0.00031647473 -0.00018260186 0.0010552072 -3.4016004e-05 0.00014313334 -0.00014193743
1.3077636e-05 0.0027980236 -2.8851548e-05 -0.0004282072 0.0005154157 -0.0004067889 -0.0012234407 -0.00053842535
5.80367e-05 -0.00016744703 -7.9356236e-05 -3.6616708e-05 -3.1486965e-05 3.61011e-06 6.4201104e-06 -1.8684676e-05
-0.00018883456 -0.00013020246 -0.0009725366 -6.744179e-05 -2.7317577e-05 -0.00011721681 -2.082929e-05 -0.00030300717
-0.0015836356 -3.7520583e-06 2.6886864e-05 -9.4586314e-05 -9.732458e-05 -4.6955014e-05 -3.1257645e-05 -3.3616598e-05
-1.4584392e-05 9.096317e-06 -1.3589417e-05 -3.2169867e-06 -8.582059e-06 -9.502924e-05 -0.00047759787 -0.0008066202
9.788872e-05 -0.00022645024 -0.00035476073 -4.6602454e-05 -0.00022244867 -0.0010467441 -9.275241e-05 8.7829985e-06
-6.282122e-05 -8.992854e-05 -9.673192e-05 -0.0010218233 0.00045753518 -0.00039411976 0.0011890057 -0.00013046995
-5.1033956e-05 -0.0002275076 0.00044895397 -2.899308e-05 -0.00018499128 0.0010254341 0.0006491519 -0.0016947833
-6.0988277e-05 -0.00035598536 -0.00027126496 0.00026665028 0.00043239447 -8.227304e-06 -3.4964041e-06 -0.00010668899
0.00072294404 0.00025240684 -3.4995097e-05 -5.1156407e-05 4.6783673e-05 -3.510538e-05 -4.0665645e-06 5.1672658e-05
-3.887168e-05 -3.5051848e-06 -0.00021036938 -0.00031540025 0.000253685 0.0006076077 0.0014454653 -0.00044734057
-0.00039486928 5.5813543e-05 -0.0017438726 0.0031119753 -0.0005391212 -0.00024361192 -1.448707e-05 0.00028457757
0.00014414509 0.00020011433 -0.0012052384 0.00043811504 -0.00030174508 9.087184e-05 0.00041930858 -6.6704956e-07
0.000109260836 -0.00025450057 0.00037826947 -0.00055853376 -0.0023595146 -0.0004858633 -0.0005184096 -0.00054370693
-0.0002238952 -0.0017252637 -0.0016572053 -9.664238e-06 6.3209874e-05 0.00030352164 -0.00054707844 5.643768e-05
-0.00020035663 1.01907e-05 -0.00032602416 -1.17687305e-05 -2.7310585e-05 -0.00016077042 -1.1767639e-05 -0.00014087415
00000000: b23f c4b9 ea55 97b9 a485 96b8 0018 71b9
00000010: 03be 6a39 ee1c 4d39 d476 9639 4bae c2b8
00000020: 4614 f438 0337 5b3a 463e b8b9 cb82 bdba
00000030: 1e64 a7b8 ab66 b5b7 51b5 a9b9 794c 06b9
00000040: 6e51 0dba d73b 17ba 8b7f 17b7 51ed ae37
00000050: 1210 053a 33c0 30ba 8846 9339 8c21 66b9
00000060: feb9 eab8 a97b 99b9 c5b0 16b7 4333 ebb8
00000070: 29ad 6ab9 6e96 17b7 0671 40b9 a080 23ba
00000080: 3df9 39ba 2fb7 84b9 5eee 4d3a f782 beb9
00000090: dce8 55ba 17a8 7839 b777 b0b9 6c3b 2239
000000a0: 624b 3eb9 e849 10ba 66fd 3b3a 25eb 3b39
000000b0: 0d46 cfba 0310 a6b9 eabd 7939 56ff 14ba
000000c0: 0ef4 40b7 79f5 1d39 342a 2339 a515 72b9
000000d0: 41dc edb8 e891 72b5 6581 4fba e1d9 1a39
000000e0: a687 e539 5980 f038 4dba 5db9 acc1 3fb9
000000f0: 689e 4db9 3e41 64b8 88e4 8aba 58f0 cfb4
00000100: 5f11 4bb9 2bbd 0cba 20c5 b539 5fcc 1939
00000110: 4979 0d39 b6f2 34b9 43ad 2539 0ed8 0d37
00000120: 0eae 9db8 6d7e 7338 2d44 a437 3ae3 4639
00000130: 58e0 b4b8 1872 38b8 a39c 69b9 d6f6 6dba
00000140: 2c22 44b9 902f ad39 151c adb9 6776 4bb9
00000150: 5c17 d7ba 66ab f1b9 cd17 2c3a c490 5e38
00000160: b665 8337 8233 1f39 ecd3 a1b9 3179 2bba
00000170: 558c 623a 1383 9638 4778 6439 60ae 8537
00000180: 07ea dd37 5203 b638 241f 0137 2420 cd3a
00000190: bc97 afb6 5174 8ab9 8c17 2cb9 b27f 02ba
000001a0: e83a 10b6 c580 95b8 89f4 7db9 b5ef 3f3a
000001b0: 7bd4 7b36 4c16 b239 93af 293a 86a1 8cb9
000001c0: 1e77 b238 baa0 e0b8 45c7 5738 45ab ec38
000001d0: c9c1 ae37 cfdf f3b7 9212 32b9 dd7c 1a36
000001e0: 39fd c3b9 1926 233a 85ec a539 d078 3fb9
000001f0: e14e 8a3a 68ac 0eb8 1016 1639 0ad5 14b9
00000200: 0568 5b37 0c5f 373b 3a06 f2b7 ff80 e0b9
00000210: f61c 073a 4846 d5b9 dc5b a0ba 1d25 0dba
00000220: 6f6c 7338 b894 2fb9 0e6c a6b8 e494 19b8
00000230: df10 04b8 3845 7236 546c d736 09bd 9cb7
00000240: e401 46b9 f586 08b9 d4f1 7eba 896f 8db8
00000250: 0d28 e5b7 4cd2 f5b8 8fba aeb7 efdc 9eb9
00000260: fe91 cfba dfcb 7bb6 1a8b e137 a45c c6b8
00000270: bc1a ccb8 90f1 44b8 a41a 03b8 8cff 0cb8
00000280: 7daf 74b7 629c 1837 1afe 63b7 69e3 57b6
00000290: aafb 0fb7 6f4a c7b8 1a66 fab9 5e73 53ba
000002a0: 9b49 cd38 4673 6db9 2eff b9b9 0177 43b8
000002b0: 1c41 69b9 e732 89ba 1284 c2b8 b15a 1337
000002c0: e3be 83b8 0498 bcb8 8edc cab8 b3ee 85ba
000002d0: 55e1 ef39 dca1 ceb9 69d8 9b3a c3ce 08b9
000002e0: 4b0d 56b8 1b8f 6eb9 9561 eb39 2a36 f3b7
000002f0: 38fa 41b9 dc67 863a d92b 2a3a 7e23 deba
00000300: aacd 7fb8 8ca3 bab9 9138 8eb9 32cd 8b39
00000310: 01b3 e239 0008 0ab7 c4a3 6ab6 37be dfb8
00000320: f483 3d3a 7955 8439 b3c7 12b8 c690 56b8
00000330: 9639 4438 1d3e 13b8 8673 88b6 18bb 5838
00000340: 260a 23b8 9e3a 6bb6 9a96 5cb9 4e5c a5b9
00000350: 0601 8539 dd47 1f3a c475 bd3a 0989 eab9
00000360: 7506 cfb9 5619 6a38 a892 e4ba 48f2 4b3b
00000370: d053 0dba 1472 7fb9 7e0d 73b7 5b33 9539
00000380: a725 1739 c8d5 5139 17f9 9dba ceb2 e539
00000390: 8a33 9eb9 7392 be38 a5d6 db39 4c0f 33b5
000003a0: f722 e538 7d6e 85b9 7852 c639 916a 12ba
000003b0: 16a2 1abb 78bb feb9 e1e5 07ba 8e87 0eba
000003c0: 69c5 6ab9 3e22 e2ba 9536 d9ba 9623 22b7
000003d0: 8b8f 8438 fc21 9f39 d069 0fba 7fb7 6c38
000003e0: d316 52b9 b9f8 2a37 39ee aab9 5072 45b7
000003f0: 0919 e5b7 7b94 28b9 a06d 45b7 9eb7 13b9

exp_avg_sq f4 [64, 45]
2.750528e-06 3.4915934e-06 2.7454378e-06 1.8124871e-06 1.8647847e-06 6.3003286e-06 1.9072331e-06 4.854712e-06
4.0521155e-07 6.812312e-06 4.0673217e-06 5.9466392e-06 4.0722287e-07 1.3560252e-07 1.6205178e-06 6.792802e-07
1.9013138e-05 1.9545127e-05 4.15023e-10 1.1406055e-06 2.5349684e-06 6.4363576e-06 2.4722945e-06 3.3167882e-07
1.8521722e-07 4.9160644e-07 4.5142604e-10 2.5239143e-07 2.6044282e-07 4.1040332e-10 2.408914e-06 3.2771943e-06
7.85694e-06 6.540327e-06 3.944789e-06 5.6618383e-06 2.2625115e-06 5.685794e-06 1.6027709e-05 3.5031317e-05
2.3953837e-06 9.815657e-06 6.6615644e-06 5.56701e-07 3.168507e-05 1.2019098e-06 9.3037795e-07 1.6956867e-06
5.835531e-07 6.866197e-07 2.7873205e-06 1.2612369e-06 2.660071e-06 6.730199e-07 1.7693814e-06 1.754872e-06
2.7951896e-06 2.5805488e-07 3.6642635e-07 7.0349563e-07 4.189102e-07 6.8555432e-06 1.2214511e-05 2.306485e-10
4.6565683e-07 7.343685e-07 9.574719e-07 1.1164072e-06 2.9350608e-07 1.3474211e-07 2.2017166e-07 1.7416224e-09
1.8237101e-07 1.0694445e-07 3.2235061e-09 1.2803674e-06 9.618841e-07 3.0281278e-06 2.7176043e-06 2.1147112e-06
1.9466331e-06 8.5447346e-07 2.4918195e-06 4.8091993e-06 9.096104e-06 4.18765e-06 6.2037716e-06 3.5231935e-06
5.97747e-06 1.1071201e-05 7.341113e-07 1.3853652e-06 1.6118496e-06 8.7603087e-07 1.0482127e-06 2.989348e-06
7.0047497e-07 2.4990875e-06 3.613976e-07 2.610101e-06 2.2300712e-06 2.2227136e-06 2.5452292e-07 4.0231038e-07
6.930005e-07 2.9664915e-07 8.5621305e-06 9.768096e-06 1.6677588e-10 4.981942e-07 6.596876e-07 2.709685e-06
1.0550702e-06 1.232731e-07 5.6300276e-08 1.7662333e-07 2.7469678e-09 5.6496848e-08 5.3822227e-08 6.8699196e-10
6.6795246e-07 1.4018525e-06 2.4745593e-06 3.7123536e-06 1.8347491e-06 2.6542757e-06 1.0424895e-06 2.8448464e-06
5.557501e-06 1.6628686e-05 2.550475e-07 2.061168e-06 3.5163644e-06 3.150772e-06 1.4158628e-05 4.589794e-07
3.9888224e-07 1.978344e-07 7.867844e-08 4.9731963e-08 5.292499e-07 3.908038e-08 3.3500115e-07 3.3346055e-08
5.213515e-07 1.9027529e-07 7.4096783e-07 4.2778602e-08 4.6778634e-09 2.4309142e-07 5.97904e-08 4.660516e-07
4.446981e-06 6.1410094e-10 1.1826864e-08 1.5610308e-07 1.3478605e-07 7.506125e-08 2.435223e-08 1.03075415e-08
3.9453796e-09 2.3336626e-09 2.7601448e-08 4.496026e-09 8.7437935e-10 8.144539e-08 1.5914125e-07 1.2521446e-06
5.473828e-07 3.371355e-07 9.746987e-08 1.1106121e-07 4.2431643e-07 2.1674077e-06 6.8019347e-07 1.4023498e-06
1.150788e-07 9.249041e-07 4.2590352e-07 2.3650477e-06 2.7036326e-06 2.8574336e-06 4.468576e-06 1.0321636e-06
1.4866011e-06 5.088128e-06 2.0975833e-06 3.8984263e-06 1.0565246e-06 6.461962e-06 2.8920533e-06 5.076788e-06
6.148005e-07 7.8513074e-07 2.0395782e-06 8.359965e-07 1.527819e-05 2.5697826e-05 3.29294e-10 7.6410186e-07
1.9931208e-06 4.804945e-06 1.6483272e-06 2.8966568e-07 2.125237e-07 4.096162e-07 7.913701e-10 4.562658e-07
1.9625477e-07 3.2533296e-10 1.5564459e-06 2.1374296e-06 9.470625e-06 6.9271696e-06 3.6678227e-06 4.7414987e-06
1.6231705e-06 5.7649136e-06 1.3991184e-05 2.4476496e-05 1.23284735e-05 4.812515e-06 6.81411e-06 1.0661116e-05
2.3258452e-05 1.9461554e-06 3.7874504e-06 2.0511584e-06 1.1034006e-06 1.916671e-06 4.9950377e-06 8.2064173e-07
3.6213064e-06 3.584381e-07 3.902484e-06 2.9050657e-06 7.198565e-06 4.3542553e-07 7.669073e-07 1.3601011e-06
5.6974034e-07 1.3592541e-05 2.2571498e-05 8.2100327e-10 6.049301e-07 1.6742891e-06 5.2770515e-06 9.963798e-07
3.4017907e-07 1.6207717e-07 3.7231422e-07 3.4261927e-10 2.0346666e-07 1.5386712e-07 3.4304773e-10 2.2330344e-06
00000000: b695 3836 1e51 6a36 433e 3836 9544 f335
00000010: 8449 fa35 6967 d336 08fc ff35 a9e5 a236
00000020: da8b d934 5195 e436 077a 8836 3e89 c736
00000030: 49a0 da34 239a 1134 9180 d935 c857 3635
00000040: 677e 9f37 d7f4 a337 4b29 e42f e816 9935
00000050: 6d1e 2a36 e4f7 d736 b2e9 2536 9711 b234
00000060: 1fe0 4634 f0f6 0335 912c f82f 6a80 8734
00000070: fdd2 8b34 229f e12f d4a8 2136 c5ed 5b36
00000080: 4dd1 0337 fb74 db36 7b5d 8436 d2fa bd36
00000090: a7d5 1736 99c8 be36 3e73 8637 97ee 1238
000000a0: 61c0 2036 edad 2437 6786 df36 3470 1535
000000b0: 96e5 0438 4e51 a135 16bf 7935 5a97 e335
000000c0: 77a5 1c35 2650 3835 cd0d 3b36 c547 a935
000000d0: ac83 3236 93a9 3435 7b7b ed35 f188 eb35
000000e0: fe94 3b36 cb8a 8a34 41b9 c434 dad7 3c35
000000f0: 94e6 e034 ab08 e636 edec 4c37 c899 7d2f
00000100: 63ff f934 6b21 4535 7c82 8035 76d7 9535
00000110: 2b93 9d34 a1ad 1034 5368 6c34 e45d ef30
00000120: c3d1 4334 55a9 e533 8584 5d31 17d9 ab35
00000130: 161a 8135 d736 4b36 1660 3636 76ea 0d36
00000140: e7a2 0236 f85e 6535 2239 2736 b55e a136
00000150: 789b 1837 a483 8c36 fe29 d036 0170 6c36
00000160: 1492 c836 72be 3937 bf0f 4535 c9f0 b935
00000170: bb56 d835 6228 6b35 50b0 8c35 9c9c 4836
00000180: 4608 3c35 ffb5 2736 1c06 c234 3229 2f36
00000190: 55a8 1536 ee29 1536 5da5 8834 1efd d734
000001a0: a206 3a35 2643 9f34 12a6 0f37 a7e1 2337
000001b0: 3d5f 372f a5bb 0535 6315 3135 09d8 3536
000001c0: f09b 8d35 0d5d 0434 cfce 7133 daa5 3d34
000001d0: 2bc5 3c31 f1a6 7233 2a2a 6733 c3d6 3c30
000001e0: 584d 3335 4927 bc35 9b10 2636 c021 7936
000001f0: 8041 f635 1c20 3236 abeb 8b35 17ea 3e36
00000200: 927a ba36 d57d 8b37 76ed 8834 9952 0a36
00000210: aefa 6b36 da71 5336 d88a 6d37 a669 f634
00000220: f525 d634 4e6c 5434 eef5 a833 df98 5533
00000230: c711 0e35 55d9 2733 35da b334 6038 0f33
00000240: 01f3 0b35 794e 4c34 ece6 4635 92bb 3733
00000250: ecba a031 3b82 8234 1f66 8033 a535 fa34
00000260: 4737 9536 83cd 2830 192f 4b32 4a9d 2734
00000270: b5b9 1034 5c31 a133 1f2f d132 0c15 3132
00000280: ed8f 8731 3a5e 2031 3a18 ed32 777b 9a31
00000290: fa58 7030 14e7 ae33 6ae0 2a34 5c0f a835
000002a0: dcef 1235 8dff b434 a150 d133 8c80 ee33
000002b0: 9bcd e334 c873 1136 8a96 3635 5f38 bc35
000002c0: 3d21 f733 ed46 7835 bca7 e434 36b7 1e36
000002d0: 0e70 3536 56c2 3f36 c7f0 9536 df88 8a35
000002e0: 3a87 c735 b0ba aa36 35c4 0c36 3acf 8236
000002f0: e9cd 8d35 d5d3 d836 1915 4236 4759 aa36
00000300: c508 2535 c6c1 5235 b0df 0836 3e69 6035
00000310: aa29 8037 a991 d737 0308 b52f ae1c 4d35
00000320: 8ec1 0536 2a3a a136 173c dd35 5983 9b34
00000330: 1232 6434 39e9 db34 b887 5930 b2f4 f434
00000340: 1aba 5234 8bda b22f 13e7 d035 c370 0f36
00000350: 06e4 1e37 ef6f e836 b724 7636 2a19 9f36
00000360: b7db d935 3b70 c136 adbb 6a37 e052 cd37
00000370: 64d6 4e37 307b a136 c2a4 e436 25dd 3237
00000380: 251b c337 b29a 0236 e72b 7e36 a2a6 0936
00000390: 8e18 9435 28a0 0036 0c9b a736 124a 5c35
000003a0: 9205 7336 5b6f c034 15f2 8236 a6f4 4236
000003b0: 348b f136 6ec4 e934 78dd 4d35 b88c b635
000003c0: 42f0 1835 850b 6437 ec57 bd37 f8ac 6130
000003d0: 7b62 2235 23b8 e035 8711 b136 59bb 8535
000003e0: dba1 b634 6f07 2e34 7ae2 c734 605b bc2f
000003f0: 7d78 5a34 ac36 2534 ad97 bc2f 3ddb 1536

exp_avg f4 [64]
-0.0019019864 -0.0013384987 0.0009837466 -0.0022615925 0.0012269233 -0.0041307015 -0.00079281593 -0.0017433246
-0.001268141 -2.3087334e-05 0.00037688983 0.002846626 -0.00048852246 0.00023718955 0.0020396034 -0.0013483246
-0.0038026664 0.0021297182 -0.0001753651 8.628542e-05 -0.0010065809 -0.0012526526 -0.0023208628 -0.00053876644
-0.004147553 -0.000167222 0.00070066255 0.00011628229 0.00012367486 0.001201847 0.0012931369 -0.0017171802
-0.0003481495 0.00052433624 0.0011000169 -0.00026370748 -4.4492772e-05 0.0011833281 -0.00029865865 -0.0015571298
0.0032314896 0.00015757888 -4.552405e-05 0.00032208062 0.0006437971 -0.0005744471 0.0022362592 0.00062127016
-0.0005001979 0.00047990127 0.00021335622 0.00014577011 -0.00049397897 -0.003023977 -0.0010532212 0.0008859094
-0.00027404964 -0.0015952452 0.00059636345 0.00013574911 0.00093056075 0.0005856503 -0.0014830994 -0.00062408077
00000000: 134c f9ba 9070 afba 0ff1 803a 3a37 14bb
00000010: b7d0 a03a d65a 87bb fad4 4fba 4480 e4ba
00000020: c037 a6ba acab c1b7 4c99 c539 768e 3a3b
00000030: 3010 00ba 16b6 7839 deaa 053b 44ba b0ba
00000040: 2836 79bb be92 0b3b 36e2 37b9 22f4 b438
00000050: 40ef 83ba 0c30 a4ba 9e19 18bb 013c 0dba
00000060: 32e8 87bb 5058 2fb9 abac 373a 94dc f338
00000070: b8ae 0139 4b87 9d3a 797e a93a 0213 e1ba
00000080: d687 b6b9 9c73 093a 712e 903a 3842 8ab9
00000090: c09d 3ab8 e719 9b3a 4995 9cb9 9b18 ccba
000000a0: 66c7 533b c23b 2539 14f1 3eb8 eedc a839
000000b0: 7ec4 283a 7e96 16ba 348e 123b bcdc 223a
000000c0: b61f 03ba 429b fb39 60b8 5f39 ded9 1839
000000d0: 5e7e 01ba ea2d 46bb 3d0c 8aba 603c 683a
000000e0: 52ae 8fb9 8c17 d1ba 4655 1c3a e057 0e39
000000f0: e0f0 733a 5486 193a 8f64 c2ba 5a99 23ba

exp_avg_sq f4 [64]
0.000100041216 4.5635774e-05 4.5559333e-05 8.499517e-06 0.00010121288 8.989471e-05 3.3537347e-06 1.7032999e-05
0.00042063394 3.7899923e-09 1.8203787e-05 0.00011256972 2.3070828e-05 2.2266217e-05 2.0990508e-05 2.587499e-05
5.346819e-05 1.236462e-05 6.017062e-06 9.342893e-06 8.703517e-05 2.2231608e-05 4.3876596e-05 1.07145825e-05
4.487447e-05 0.00019296868 1.4914052e-05 1.6226797e-05 2.1037491e-05 1.1394016e-05 1.974277e-05 0.0001075396
1.9376836e-05 2.3905779e-05 2.1618109e-05 2.2974127e-05 3.015879e-05 1.7299823e-05 3.5981452e-06 1.1962597e-05
2.353964e-05 1.2814978e-05 7.3497854e-06 3.588336e-05 1.291675e-05 5.3269898e-05 1.3989561e-05 1.0046672e-05
6.7310566e-06 0.00012354527 4.199458e-05 2.9632802e-06 2.8279499e-06 1.6545153e-05 2.2009067e-06 0.000105231105
8.288478e-06 2.0234687e-05 0.000127881 1.2442058e-05 0.00017582397 1.0120199e-05 1.1872557e-05 7.81258e-05
00000000: 38cd d138 0a69 3f38 f616 3f38 2699 0e37
00000010: 4042 d438 db85 bc38 b910 6136 16e2 8e37
00000020: 8888 dc39 2039 8231 56b4 9837 6913 ec38
00000030: 3a88 c137 56c8 ba37 c614 b037 1e0e d937
00000040: 0843 6038 a371 4f37 2be6 c936 6bbf 1c37
00000050: a786 b638 047e ba37 2308 3838 c8c2 3337
00000060: 9837 3c38 a357 4a39 5e37 7a37 c81e 8837
00000070: ab79 b037 ed28 3f37 479d a537 e286 e138
00000080: 708b a237 4589 c837 8958 b537 90b8 c037
00000090: 82fd fc37 161f 9137 aa77 7136 f6b2 4837
000000a0: fe76 c537 e9ff 5637 2d9e f636 7781 1638
000000b0: 05b5 5837 1e6e 5f38 b5b4 6a37 218e 2837
000000c0: 56db e136 ee8b 0139 5623 3038 c4dc 4636
000000d0: cfc7 3d36 72ca 8a37 4ab3 1336 85af dc38
000000e0: be0e 0b37 a9bd a937 cb17 0639 3bbe 5037
000000f0: 635d 3839 ecc9 2937 3e30 4737 78d7 a338
