data/models/regression_models/ML_including_industry_feature/single_dimension/having_a_problem/version_best/checkpoints/epoch=59-step=1860.ckpt (torch, 480459 bytes, 15 tensors)

network.0.weight f4 [128, 45]
000000 a3 90 a1 3d 01 79 0a be b6 ea ac 3d 99 4e ea bd
       0.078889154 -0.13522722 0.08443205 -0.114407726
000010 e3 9b 5e bc 45 39 b4 bd 5b 79 1f 3d 61 80 d7 3d
       -0.013586971 -0.08799986 0.038934093 0.10522533
000020 c0 eb e7 bd 59 7d c4 bd 93 fa e5 3d ab 23 b6 3d
       -0.113242626 -0.09594221 0.11229434 0.08893522
000030 f9 2f 48 39 2a 6a f1 bd d7 2e 39 3d dc c5 9b 3d
       0.00019091358 -0.11787827 0.045210686 0.07606098
000040 f7 37 f7 bc c7 01 b9 3d 0d 9d 60 3b fd e2 6c 3c
       -0.030178053 0.09033542 0.0034273297 0.014458415
000050 ba 30 e5 bd a8 cf ba 3d 9c 38 01 bd 18 2f de bd
       -0.111909345 0.091216385 -0.031548128 -0.10848826
000060 8c 1e b8 bb 3b d6 08 bd 78 37 68 3a 88 d9 7a bd
       -0.005618876 -0.03340743 0.0008858363 -0.06124261
000070 4b 54 81 bd 13 58 c7 ba 17 82 00 3e 3f c7 96 bd
       -0.06314906 -0.0015208743 0.12549625 -0.07362222
000080 be 63 85 3c 6f ad 01 3e 64 94 e2 bc f0 a4 ab 3d
       0.016282912 0.12663816 -0.027658649 0.08381069
000090 83 61 94 3d 24 8d 13 3c 1c ae b5 bb 6a 26 03 bd
       0.072451614 0.0090058185 -0.005544437 -0.032019056
0000a0 5a cf f1 3d 9e c6 c9 bd b0 17 a0 bc 4e 15 98 3d
       0.11807127 -0.09852336 -0.019542545 0.074259385
0000b0 b7 85 e4 3d 3f d3 38 bd 49 ce ca 3b 42 61 bf 3d
       0.111583166 -0.045123335 0.006189142 0.09344722
0000c0 aa b1 a2 bd ef 56 ba bd 52 dd 08 39 df 8d b7 b9
       -0.07944043 -0.090986125 0.00013052419 -0.00035010182
0000d0 6a 0d 1e bb b8 75 9a 3c b8 20 67 bd ed 41 b4 bd
       -0.0024116882 0.01885496 -0.056427687 -0.08801637
0000e0 68 1e 32 bd 19 72 af bc ad 18 ba 3c 53 13 97 bd
       -0.04348603 -0.02141671 0.022716844 -0.07376733
0000f0 13 34 d9 ba 68 0b 6e bd ff cc 9c 3a 95 a7 19 bc
       -0.0016571305 -0.058116347 0.0011962949 -0.009378334
000100 36 cf 54 3d e4 d1 dc bc 91 4f 1f 3d c7 ff 96 3c
       0.051955424 -0.026955552 0.03889424 0.018432511
000110 49 e7 29 ba 31 5e 81 bd 63 47 86 bd 7e c5 97 bd
       -0.00064813026 -0.06316794 -0.06556585 -0.074107155
000120 33 67 82 bd 1b e2 94 3c 4a 6b 8e bd da 0d 56 bb
       -0.0636734 0.018174222 -0.069540575 -0.0032662065
000130 d3 8a d4 bb 8c 74 6c bd fd cf 52 bd e4 63 7e bd
       -0.0064862757 -0.057728335 -0.051467884 -0.062106982
000140 a4 05 8c bd 59 9e a1 bd e9 bd 87 bd 73 e3 4a ba
       -0.06837013 -0.078915305 -0.06628019 -0.0007739581
000150 fb 50 5e b9 7a 42 8d 3d 5b de 0a 21 62 a0 cf 39
       -0.00021201737 0.06897445 4.7050504e-19 0.0003960161
000160 a7 c6 35 32 65 3a a3 3d 87 b0 e0 3d e2 4e 28 3d
       1.0580755e-08 0.07970122 0.1097117 0.041090854
000170 be b2 69 bc c0 77 3a 3d fa b8 97 3c de 90 07 be
       -0.014263807 0.04552436 0.01852082 -0.13238856
000180 03 47 f0 3d 90 69 9b bc 42 a5 e9 bd 56 d7 52 3d
       0.117322944 -0.018971235 -0.114084736 0.05147489
000190 c9 dd 91 3d 2c 91 7a 3d c8 7b 07 3e 44 73 96 bd
       0.0712238 0.061173603 0.13230813 -0.07346204
0001a0 0c 0f ea 3a b4 eb dc bc f6 35 07 bb 8f e7 d7 3d
       0.0017857268 -0.02696786 -0.0020631528 0.10542213
0001b0 2c a0 81 3c a1 23 3d bd e5 8a ee bd 16 fb 06 bd
       0.015823446 -0.046176556 -0.11647586 -0.032954298
0001c0 83 60 73 bc e6 5b 87 3d 21 15 bf 3d e1 ff ec 3d
       -0.014854553 0.06609325 0.09330202 0.115722425
0001d0 54 99 9c 3a 9b 52 06 3d be 0d ea bd 2a cd 41 3d
       0.0011947551 0.032793622 -0.11428402 0.0473148
0001e0 c2 27 81 3d 8d 27 3c bd 86 9a ac 3b 31 69 69 3d
       0.06306411 -0.045936156 0.005267444 0.056985084
0001f0 54 e9 0b bc fd 1e f1 3c 61 12 92 3d 85 76 a7 3d
       -0.0085395165 0.029433722 0.07132412 0.08176903
000200 ab e0 90 3d 1e de 2f 3d e8 69 0d 3e 86 62 3d bd
       0.07074102 0.042936437 0.13809931 -0.046236537
000210 e2 dd 13 3e 8f d0 9c bd eb 2c 09 be d4 db 49 3c
       0.1444011 -0.07656967 -0.13396041 0.0123204775
000220 84 e3 bf bd 9e 20 ce bd cc 9c 20 bc 16 ac ab bc
       -0.09369567 -0.10064815 -0.009803008 -0.02095608
000230 82 f5 8b bd cb 49 81 3d 2f 78 03 3e 77 76 f0 bc
       -0.06833936 0.06312903 0.12838815 -0.029353363
000240 b4 c1 a0 3c df 44 13 bd 8c b6 3e 3d 4e dd e3 3d
       0.019623615 -0.035954352 0.04656081 0.11126195
000250 7a b5 46 bc f8 7a 8e bd 74 22 b5 3d 7e ce 00 3e
       -0.012128228 -0.06957048 0.08844462 0.1257877
000260 5b 22 04 be a0 93 f4 3c 94 2a c4 bd e7 d8 fc 3a
       -0.1290373 0.02985555 -0.09578434 0.0019290716
000270 c7 ec f1 3d 6d 38 fe bc 0f d1 32 3c cd 3b c4 3d
       0.1181274 -0.031032765 0.010914101 0.095817186
000280 38 21 61 bd 23 76 62 3c 56 a4 64 3d 42 14 68 bd
       -0.05496332 0.013822111 0.055820785 -0.056659944
000290 3a 7a 03 3a 07 8d ab 3d e0 bf 2b 3d 13 e9 8c b9
       0.00050154666 0.08376508 0.041931033 -0.00026876535
0002a0 7d 31 e4 bd 20 3f a2 3d 1d 42 9f bd 93 84 d1 bd
       -0.11142252 0.079221964 -0.07776282 -0.10230365
0002b0 49 f6 91 bc 77 0f 00 bd e7 65 bb bc 81 58 81 bd
       -0.017817633 -0.03126475 -0.02287574 -0.06315709
0002c0 24 9d af 3d d7 b2 bf bd 9e ee 15 3e 53 a1 26 3c
       0.08574894 -0.09360283 0.14641806 0.010170299
0002d0 50 36 f7 3d 83 c8 ff 3a 62 b9 85 bd 0b 53 3d 3d
       0.12070906 0.0019514713 -0.065294996 0.046221774
0002e0 20 94 b4 bd 51 41 a6 3d e0 ab fe 3c 75 5a a5 bb
       -0.08817315 0.08117927 0.031087816 -0.0050461837
0002f0 02 91 d0 3d 2f a7 a1 3d 58 37 ce 3d b4 b4 42 bb
       0.10183908 0.07893216 0.1006915 -0.0029709758
000300 7e 4b 14 bd 00 1b d2 3c 1c 2b c6 3d cb 93 cc 3d
       -0.036204807 0.02564764 0.09676191 0.09989127
000310 77 fe c2 3d 96 7d 80 bd 32 09 8c 3d b2 ec 6e 3d
       0.095211916 -0.062739536 0.06837691 0.0583312
000320 9c 4f 84 3d 33 fe 78 3d a6 17 48 3d 02 55 39 3d
       0.06460497 0.0607893 0.048850678 0.045247085
000330 e1 9a d8 bd 84 16 f5 3d e0 1e a0 bb 5a 3d 85 bd
       -0.10576416 0.11967185 -0.004886493 -0.065058425
000340 95 24 a1 3c 37 5d 56 bd ad a1 66 3c 3d c5 01 3e
       0.019670764 -0.05233499 0.014076632 0.12672897
000350 51 b3 f4 3d a3 ce 00 be 3e 6b 9d bd da b6 fb bd
       0.119482644 -0.12578826 -0.076864704 -0.122907355
000360 15 8f d0 bd 78 2d 0d be be 1a a6 3d f5 d9 71 3d
       -0.10183541 -0.13786876 0.081105694 0.05904575
000370 59 82 a1 bd 7b 16 fb 3d 17 ac d3 bd e9 a5 12 3e
       -0.0788619 0.12260147 -0.10335558 0.14321102
000380 ae 13 87 3a af 67 94 3c 3e 04 b5 bc 76 fa 98 bd
       0.0010305548 0.018115846 -0.02209675 -0.07469647
000390 7e 2c 92 bc 8c a8 0c 3e 96 1a 81 bd 1f 93 ed 3d
       -0.017843481 0.1373617 -0.06303899 0.11600327
0003a0 34 2d cc bd 0f c0 07 3e 9d 9e 9e 3d 1f 89 f1 3c
       -0.09969559 0.13256858 0.07745097 0.02948433
0003b0 8d 27 8e 3d 9f d7 c2 3d a2 7f 00 be 63 10 57 bd
       0.069411375 0.09513783 -0.12548688 -0.052505862
0003c0 61 fa c7 3d 10 b0 63 bd 3b db 04 3c 08 e2 4c bb
       0.09764553 -0.05558783 0.008108909 -0.0031262655
0003d0 cb 3d c0 3d 6f 4e b1 bd f0 e2 79 bd 8f e7 14 bd
       0.09386786 -0.08657538 -0.06100744 -0.036353644
0003e0 d1 f1 fd 3d 9a ab 1f 3d 8a b5 c0 bd 5b 03 77 bb
       0.123996384 0.03898201 -0.09409626 -0.003769121
0003f0 95 1b c6 3d 76 78 c7 3c d1 e6 0a bd e7 a3 f7 3d
       0.096732296 0.024349432 -0.03391153 0.12091809

network.0.bias f4 [128]
000000 33 92 a5 bd c7 c7 84 bd dd 4c ec 3d 0a 0c ca bd
       -0.08084526 -0.06483417 0.11538098 -0.098655775
000010 89 7d c2 3d 5e 00 06 3e a5 07 5f 3d bd 6f 45 3d
       0.094966 0.13086078 0.05445065 0.048202265
000020 06 a2 ba 3d 45 e2 d1 3d bb 72 97 3d f0 c5 b0 3d
       0.09112935 0.102482356 0.0739493 0.086315036
000030 c1 6b e3 3b 52 52 11 be 7d 80 04 3e 82 19 9d 3d
       0.0069403355 -0.14191559 0.1293964 0.07670881
000040 c0 34 e2 bd 91 f4 b7 3c 07 97 d3 bd 3f 86 a3 3d
       -0.110452175 0.022455486 -0.103315406 0.0798459
000050 35 14 96 3d 52 24 bb 3d 21 67 9b 3b 29 36 96 bd
       0.07328073 0.09137787 0.0047425185 -0.07334549
000060 d3 84 98 bc 1d c8 d0 3d 72 67 dc 3d b4 31 fe bd
       -0.018618023 0.101944186 0.10761918 -0.12411824
000070 c7 78 fb bd 42 15 cf 3d a3 f3 c7 bd a1 09 98 3d
       -0.12278896 0.101114765 -0.09763267 0.074237116
000080 ad 36 c7 3b 14 e4 c8 3d 93 a1 ad 3d 0f bc a8 3d
       0.006079516 0.098091274 0.084780835 0.08238994
000090 e6 a4 d9 bd e0 c1 55 bd ce cb 89 3b d7 bb f7 3d
       -0.10627155 -0.052186847 0.0042052036 0.120963745
0000a0 dc 52 51 3c 90 58 d6 bd 0f c8 eb bd 59 22 cd bd
       0.012776103 -0.10466111 -0.115127675 -0.10016317
0000b0 d1 b9 72 bb 6e 51 c4 bc 16 29 c9 bd ab 27 ab bd
       -0.0037037025 -0.02396461 -0.0982229 -0.083571754
0000c0 ca e4 f3 3d 0b 57 14 3e 93 34 e3 bd 08 58 e4 3d
       0.119088724 0.1448633 -0.11094012 0.11149603
0000d0 4d d2 3f 3c c2 e5 c1 bd 92 a2 e0 3c 29 a6 d0 bd
       0.011707854 -0.09467651 0.02742127 -0.101879425
0000e0 fd 9e d0 bc 08 a2 0b 3e 56 43 c9 bd f6 40 bc 3d
       -0.025466437 0.13636029 -0.098272964 0.09192078
0000f0 0d cf 2f bd f1 ff ad bd ac 0b a9 3d 04 7c 05 be
       -0.04292207 -0.084960826 0.08254179 -0.1303559
000100 86 29 c7 3c 8d 43 a5 bd d9 b8 b3 bd 1e 59 89 bd
       0.024311792 -0.08069525 -0.08775491 -0.06706451
000110 12 db 9b 3d de 4d 34 3d 18 b8 e0 3d 72 6e de 3d
       0.07610144 0.044019572 0.10972613 0.108609095
000120 21 6f bd 3d 6f 2f 9b bc 7e bb d5 3d 12 2a c4 bd
       0.09249712 -0.018943517 0.10436152 -0.09578337
000130 bb 6f 0e 3e 75 9e b2 bb 4b 99 87 3d f7 eb e6 bd
       0.1390981 -0.0054510185 0.06621035 -0.112754755
000140 47 5d a5 bd 4b b0 b1 bc cd e1 d0 3d d8 f4 4a bd
       -0.08074432 -0.021690508 0.10199318 -0.049549907
000150 02 73 04 be 29 7e 46 bd fb dc 11 be 5f 38 f0 3d
       -0.12934497 -0.04846016 -0.14244454 0.11729502
000160 a1 30 38 3c 5e 7d 80 bd 77 02 00 be aa 67 ba 3d
       0.011242063 -0.06273912 -0.1250094 0.091018036
000170 b0 84 ae bd 6f 06 04 3d 37 fc 87 bd 07 36 24 3b
       -0.08521402 0.032232698 -0.06639903 0.0025056617
000180 f9 69 0f 3e 2d bc 8a bd 9b a8 54 bc 97 10 e9 bd
       0.14005269 -0.06774173 -0.012979652 -0.113801174
000190 61 86 9d 3c 46 25 b2 bd 43 24 1c 3e 9f bb 52 bd
       0.019229116 -0.086985156 0.15248208 -0.05144846
0001a0 25 4b dd 3c d2 84 0e bc 05 4f 54 bc 3b 29 c2 bd
       0.02701337 -0.008698659 -0.012958293 -0.0948052
0001b0 82 1e b9 3d de 7e 8c 3c 16 8e 5d bd bc 11 b6 3d
       0.09039022 0.017150339 -0.05409058 0.08890101
0001c0 e2 f6 46 3d cc dc f1 bd b1 f3 49 bc cf 16 08 3e
       0.04857529 -0.11809692 -0.012326167 0.13289951
0001d0 8d 03 db bc b7 a3 09 be 4b cc 06 3e 29 ad f7 bd
       -0.026735092 -0.13441359 0.13163869 -0.120935746
0001e0 3e 36 89 3d ad 71 97 3d d1 46 ca 3d 90 26 0d 3e
       0.06699799 0.07394729 0.098767884 0.13784242
0001f0 f9 6d 9a bd f2 4a bc bd 97 f7 61 bd 62 43 c3 bd
       -0.07540507 -0.09193982 -0.05516776 -0.095343366

network.3.weight f4 [256, 128]
000000 01 51 4e 3d 39 4f 59 3b 80 fb ba 3b cb 71 41 bd
       0.05037022 0.0033158793 0.0057062507 -0.047227662
000010 ab f8 25 3d 4f 05 7f bd 02 0d 54 bd 95 68 a3 3d
       0.04052035 -0.062260922 -0.051770218 0.07978932
000020 86 9d 80 ba 20 80 b3 bd 7c 80 91 bd b3 c9 99 bd
       -0.0009812571 -0.08764672 -0.071045846 -0.07509174
000030 0b d7 a6 bb bc 44 b9 3c d6 ed bc bd 4b a7 c3 3c
       -0.005091553 0.022615783 -0.09225051 0.023883482
000040 76 03 6f bd 58 1f b2 bb 99 26 be bc 40 dc 93 bd
       -0.05835291 -0.0054358654 -0.023211764 -0.07219744
000050 f7 f1 2b 3d 15 3a b4 bd e3 c0 91 3d 0f 95 84 bd
       0.041978803 -0.08800141 0.07116868 -0.06473743
000060 f9 a3 08 bd 64 0d 92 3d d6 c1 26 bd b6 26 1e 3d
       -0.0333595 0.0713146 -0.0407122 0.038611136
000070 c8 2c 03 bd d3 5c 96 3d 8f 9d 09 3c 44 49 07 bd
       -0.03202513 0.073419236 0.008399381 -0.033028856
000080 0a 49 83 3d 5c 32 59 3c 4c e7 9a 3d 6e 21 96 3d
       0.064104155 0.0132566355 0.07563648 0.07330595
000090 d0 05 27 bd 31 65 f7 3c 32 2e fc 3c c2 0b 82 3c
       -0.040777028 0.030199619 0.030783746 0.015874747
0000a0 29 7c ba bd ff d7 25 bd cb 36 e3 bc 8f 9b b0 3c
       -0.09105713 -0.040489193 -0.027736088 0.021558551
0000b0 34 42 21 3d 32 07 6b 3d 9d 0d 59 bd a3 46 94 bb
       0.039369777 0.05737991 -0.0529915 -0.004525022
0000c0 4d 01 58 3d f8 6f 82 bd e9 e5 67 bd 52 37 e4 3c
       0.052735616 -0.063690126 -0.056615744 0.02785841
0000d0 b5 95 9b bc 0a 8b df bc 63 22 9e bd 8f e0 5d 3c
       -0.018992284 -0.027287979 -0.077214025 0.0135423085
0000e0 84 83 4d 3d 07 a5 8d bd b2 c1 9a bd 67 44 68 3d
       0.05017425 -0.06916242 -0.07556476 0.05670586
0000f0 f8 9b a1 3a ae 8e 04 3b ad d4 2d 3d 7a c7 a1 bd
       0.0012329808 0.0020226645 0.04243915 -0.07899375
000100 d8 82 99 bd d0 92 20 bd b2 47 c9 38 51 81 55 bc
       -0.074956596 -0.03920251 9.597781e-05 -0.01303132
000110 8b 46 27 3b 71 9d 67 3d 6a b7 f6 bc d3 67 04 bd
       0.0025524225 0.056546632 -0.030116756 -0.032325577
000120 b6 28 f9 3c f3 44 b5 bc ea 43 06 bd e8 62 80 ba
       0.03041492 -0.022127604 -0.03277961 -0.0009795101
000130 d1 39 86 bd fb fd 04 3d eb e5 77 3d 76 0f 20 bd
       -0.06553996 0.032468777 0.060522 -0.039077245
000140 fd 22 a3 3d 69 ab 6b 3d 60 b5 43 3d 8c df 5c bd
       0.07965658 0.057536516 0.047780395 -0.05392413
000150 84 75 49 bd d0 1e 5e bd c7 39 73 bd 7e f0 7a bd
       -0.049184337 -0.054228604 -0.059381273 -0.061264507
000160 5d 56 73 3c 76 1a 62 bd fb 9d 1d bd b8 30 0c 3d
       0.014852134 -0.055201016 -0.03848074 0.03422615
000170 72 a4 06 3d 50 86 8a bb e0 27 94 bd 1a c4 28 3a
       0.03287167 -0.004227437 -0.07234168 0.0006437913
000180 fc e1 f5 3c d6 9e e7 3c c4 01 8e 3d 8f c3 0c 3d
       0.030014984 0.028273981 0.069339305 0.034366187
000190 ff b5 09 bc 17 88 cc bc cb f6 8b 3c 2a 5f dd 3c
       -0.008405208 -0.024967236 0.017085453 0.027022917
0001a0 be 7a 45 bc a5 5f 72 3d ef 46 50 3d d2 3b ca 3c
       -0.01205319 0.059173245 0.050848898 0.024686728
0001b0 cd 00 8a bd 16 1d 86 3c 91 07 8d bd 8e 0e ad bd
       -0.06738434 0.016371291 -0.06886209 -0.08450042
0001c0 f5 18 2d bb 8a 25 c2 3c d5 fe 71 3c 7c 20 a2 3c
       -0.002641258 0.02369954 0.014770229 0.01979088
0001d0 8f 91 6e bb 0c 51 88 3c da 3e 73 bd 14 40 8a 3d
       -0.0036402678 0.016640209 -0.05938611 0.06750503
0001e0 3a 9c 3d bd d4 7c 2b 3c b3 eb 9a 3d 4f 7d 52 bd
       -0.046291567 0.010466773 0.07564487 -0.051389035
0001f0 10 2c 96 3c d8 4b 50 3d d9 04 32 bd a5 b8 79 3d
       0.018331558 0.05085358 -0.043461654 0.060967106
000200 d2 5c d2 bb 03 80 c0 bc f7 63 5e bd 55 80 57 3d
       -0.0064197564 -0.02349854 -0.054294553 0.05261262
000210 47 3b 33 3d ba 01 78 3b e7 3d 33 bc 2a 74 a4 3c
       0.043757703 0.0037842826 -0.010940052 0.020074923
000220 26 40 f1 3b 31 f9 5f 3b d0 f4 af 3b 6e 4d 66 bd
       0.0073623834 0.003417563 0.00536976 -0.056226186
000230 35 1c 9c bc 88 bf 65 ba 34 4f 6e bd e3 d1 35 bd
       -0.019056419 -0.0008764197 -0.058181003 -0.044389617
000240 37 5d 67 3d 13 ed 46 bd a6 9e 53 3d a8 8c 23 3d
       0.05648538 -0.048565935 0.05166497 0.039929062
000250 28 db 2f bd 0c 69 39 bc e7 e3 e9 3a 4a 73 3b bd
       -0.042933613 -0.011316549 0.001784441 -0.045764245
000260 f6 9d 8d 3d cc 9d 6e bd 47 21 54 3c e6 f0 d7 bc
       0.06914894 -0.058255956 0.012947387 -0.026359987
000270 d6 20 2d 3d 0f 32 76 bd 2e 10 13 3b 69 67 d0 3b
       0.042267643 -0.060106333 0.0022440064 0.0063599837
000280 91 42 10 bd 79 ea 17 3d 13 6c 64 3c b2 e0 d8 3b
       -0.035219733 0.037088845 0.0139417825 0.0066185826
000290 bd 42 55 bd 8b b7 5a ba 56 e5 83 3d 76 c8 6d bd
       -0.0520656 -0.000834339 0.06440227 -0.058052503
0002a0 9f 5e 78 3d c0 30 cd bc 8b ea bd 3c d2 65 d2 bc
       0.060637113 -0.02504766 0.023183128 -0.025683317
0002b0 7b 7e 92 bc a1 b5 19 bd 01 e3 9c 3c 5e d4 77 bd
       -0.017882576 -0.03752673 0.019151213 -0.060505264
0002c0 b6 ee f4 3b f5 df 20 3d c4 db 40 bc 6f 89 5b 3c
       0.0074747456 0.039276082 -0.011771146 0.013399466
0002d0 9d 63 f5 bb cc ad 8d 3c 95 d8 c5 bc 9a 24 06 3d
       -0.0074886815 0.017294787 -0.024151126 0.03274975
0002e0 78 20 f2 39 5c 66 87 bc 3a 27 38 bc 6c db 57 bd
       0.00046182028 -0.016528301 -0.011239821 -0.05269949
0002f0 5f 55 da b8 0d d5 1d b7 71 fd 91 3d 3c 79 01 3b
       -0.00010410952 -9.407534e-06 0.07128418 0.00197561
000300 30 cb e2 3c 0b 6d bd 3c 91 76 c2 bc 4b ad 92 3b
       0.027684778 0.023123285 -0.023738177 0.0044762245
000310 a6 7e 2e bd a8 bb 0e bd fa fc d4 bc e8 1d ac bc
       -0.04260125 -0.03484693 -0.025999535 -0.021010354
000320 0e 89 4d 3d 3f 76 ca 3c f2 23 f2 bc c7 bd 04 3d
       0.050179534 0.024714587 -0.029558156 0.03240755
000330 2e 96 d8 bc b6 6d 06 bd 68 bc 0f bd a0 d2 43 39
       -0.026438799 -0.032819472 -0.035091788 0.00018675113
000340 60 fc 56 bd f2 81 3e 3c 32 fc d3 bc ad 44 d6 3c
       -0.052486777 0.011627661 -0.025877092 0.026155794
000350 b2 2e 0a 3d 5b ac d6 3b ea ab c2 3c 51 07 ec 3c
       0.03373594 0.006551308 0.023763616 0.028812082
000360 08 d1 6b 3d 39 6e 3b 3d ba 98 0a bd 10 8e dc 3c
       0.057572395 0.045759413 -0.033837058 0.02692321
000370 ab e7 3b bc 66 c1 bc 3c 8f 70 3d 3d 45 30 0b bc
       -0.011468808 0.023041438 0.046249922 -0.008495395
000380 f7 20 df bc 0d d5 68 3d 5b fe 1e bd be 3d ee bb
       -0.027237399 0.056843806 -0.03881679 -0.007270544
000390 fc c7 b1 3c a4 f8 3c 3c 2c 76 13 3d f5 91 18 bd
       0.021701805 0.01153389 0.03600137 -0.03724857
0003a0 86 29 e5 bc 99 93 49 bd e5 96 88 3c 60 9d b8 bc
       -0.027973901 -0.049213026 0.016673515 -0.02253598
0003b0 61 73 5d bd 90 d8 18 bd be 12 50 bd 66 15 63 3d
       -0.054065112 -0.037315905 -0.050799124 0.05544033
0003c0 b5 e2 3e 3a 62 ef 71 bb 70 de c7 3c ab c1 cc 3c
       0.0007281707 -0.0036916365 0.024398059 0.024994692
0003d0 ea ba 4a 3d 27 e9 8f 3c 47 0d 20 3c 81 33 3e 3b
       0.04949466 0.01756723 0.009768791 0.0029022398
0003e0 bb b4 ab bc 00 97 1e 3d 34 9f fb bc d2 b7 8c 3c
       -0.020960202 0.038718224 -0.030715562 0.017177496
0003f0 51 d5 22 3c 5c e0 4a 3b 53 15 a0 3a 28 0d 60 bc
       0.009938554 0.0030956483 0.0012213386 -0.013675012

network.3.bias f4 [256]
000000 d7 9b 87 3d 4d 20 51 bd 72 cf a3 3d e1 b8 79 bd
       0.06621521 -0.051056195 0.079985514 -0.06096733
000010 91 b0 a6 3d 19 d9 46 bd d2 59 56 bd 99 78 2d bd
       0.08139146 -0.048546884 -0.052331753 -0.04235134
000020 23 ab 82 3d cc 0f 91 bd ab 0a 5a bb 25 92 c0 3c
       0.06380298 -0.07083091 -0.0033270519 0.023507187
000030 a7 c8 80 3b cc 3f 8e bd 4f 79 d8 bc b3 7e 8c 3c
       0.0039301696 -0.06945762 -0.026425032 0.017150259
000040 1b 52 12 bd 82 46 e4 3b 35 e8 20 bd 5c b7 aa 3d
       -0.035722833 0.006966413 -0.03928395 0.08335754
000050 da 47 a9 3d fe 67 61 3d 18 f5 09 3d fc df 65 bd
       0.08265658 0.055030815 0.033681005 -0.05612181
000060 71 ec ec 3c 60 6c 6e 3d f3 a7 af bd 81 1b 2f 3d
       0.028921338 0.058208823 -0.08576956 0.04275084
000070 03 b9 a6 bd 0a a6 4e 3c 18 02 35 3d 0c 2a 20 bd
       -0.08140757 0.012612829 0.04419145 -0.0391026
000080 cd 58 ab 3c 68 b7 5e 3d 62 9f a7 bd c3 be ae 3d
       0.020916367 0.05437413 -0.08184697 0.08532479
000090 ec 25 a2 3d 4e 9b 90 3d 0d 11 21 3b b2 3e cf bc
       0.07917389 0.07060872 0.0024576813 -0.02529845
0000a0 27 d0 ef 3a e1 ed ea 3c ec f6 13 3d fc 64 6e bc
       0.0018296287 0.028677883 0.036124155 -0.014550444
0000b0 af 30 9e 3d 88 db b2 bc e6 e1 76 3b 97 a8 36 bd
       0.077241294 -0.021833196 0.0037671267 -0.044594374
0000c0 7c 13 8e 3c e5 33 ba 3c 94 19 16 3d b5 15 a0 3d
       0.017343275 0.022729823 0.036645487 0.0781664
0000d0 1c 1d 94 3d e6 f6 13 bc d1 07 3b bd ec 02 37 3d
       0.07232115 -0.009031033 -0.04566175 0.04468052
0000e0 44 5f 94 3d 74 06 16 bd e2 ab 48 3d 12 18 86 3d
       0.07244733 -0.036627248 0.048992045 0.0654756
0000f0 d7 26 82 3d fa 26 af 3d 45 e3 37 bd 8a 30 62 bc
       0.06355064 0.08552356 -0.044894475 -0.013805518
000100 f0 d6 c5 bc 98 7d 65 b9 8a 58 5f bd f7 3e ec 3b
       -0.024150342 -0.00021885929 -0.054527797 0.0072096544
000110 6a 62 42 bd e0 2b 2b 3d f7 39 49 bd 4a 39 8a bd
       -0.047457136 0.04178989 -0.049127545 -0.06749208
000120 50 10 80 bd 9d 8e 8b bc ba 14 a7 3d 62 35 93 3c
       -0.06253111 -0.017035777 0.0815825 0.01796979
000130 50 28 76 bc 09 a1 b7 3c af ed cc 3c f8 39 9f 3d
       -0.01502426 0.022415655 0.02501568 0.077747285
000140 3a b7 d2 bb a8 34 83 bd 62 5c 21 bd c1 6a af bc
       -0.0064305337 -0.06406528 -0.039394744 -0.021413209
000150 a9 a6 3c bd f6 aa 43 bd 7a 22 5a 3d ef e5 91 bb
       -0.046057377 -0.047770463 0.053255536 -0.004452459
000160 19 bd 0b 3b 83 f9 a4 3c 8a e6 18 bc 7e 98 29 bc
       0.0021322428 0.020138508 -0.009332309 -0.010351298
000170 99 db 2e 3d 9c 93 0b 3c c7 9d 8f 3d 15 40 0b bd
       0.042689893 0.00851908 0.070125155 -0.03399666
000180 da d0 5d 3d a3 4f 00 bd 69 fb 9c 3d a3 15 d6 3c
       0.054154254 -0.031325947 0.0766514 0.026133364
000190 dd ac 2e bd b8 d9 17 bd 68 76 22 bd 16 15 67 bd
       -0.042645324 -0.037072867 -0.039663702 -0.056416593
0001a0 01 c3 48 3d bb 43 2f bc 5b be a5 bd 9d 84 5a bd
       0.049014095 -0.010697301 -0.08092948 -0.053349126
0001b0 7e b6 47 bd 6d 4f dc 3a b5 05 9d 3d 11 06 28 3b
       -0.048758022 0.0016808339 0.07667104 0.0025638381
0001c0 c7 d0 3c bd 80 ea 4e bc c7 9e a9 3c 3f ec 15 3b
       -0.046097543 -0.012629151 0.020705594 0.002287641
0001d0 24 9d 65 bd aa 39 6b bd 07 4c 88 3b 36 af bb 3b
       -0.056058064 -0.05742804 0.004159454 0.005727674
0001e0 2c 87 28 bd 29 f2 6b bc 14 07 7e bd 50 c5 cd 3c
       -0.041144535 -0.014400997 -0.06201847 0.0251185
0001f0 17 69 41 3c 91 b5 99 bc 0e 17 7f bd 26 83 93 3d
       0.0118048405 -0.018763335 -0.062277846 0.07202749
000200 98 fb 48 3c e7 c4 0f 3d 6d 8a 18 3c c9 4a 67 3d
       0.012267016 0.03509989 0.009310347 0.056467805
000210 35 90 27 bd e5 f1 0c bd 07 01 c4 bb f1 f0 0e bd
       -0.04090901 -0.034410376 -0.005981568 -0.03489775
000220 ed 0e f6 bc 6b 4e 17 bd 16 90 a1 3d 23 6e b3 bd
       -0.030036414 -0.03694002 0.0788881 -0.08761241
000230 7b 3d 63 3d f6 6c 36 3c 90 9f a3 3a 93 bc 45 bd
       0.055478554 0.011134377 0.0012483466 -0.04827554
000240 86 80 f0 bc 3d a4 13 bd e2 12 f4 bc f8 13 5f bc
       -0.02935816 -0.0360453 -0.02979416 -0.013615601
000250 61 f6 80 3c e6 e9 5f 3d 14 63 6f bc e1 db 71 3d
       0.015742483 0.054666422 -0.014611024 0.059047583
000260 96 ee 8f bc 0d c6 ae bc 8b 9d 80 bc 9e 9d 1a bd
       -0.017569821 -0.021334672 -0.015700122 -0.03774797
000270 a6 a3 9b 3c 45 28 54 bd 0a ba 06 3d 5d 68 29 bd
       0.018998932 -0.051796217 0.032892264 -0.041359294
000280 ed 5c b3 3c 03 96 2c 3c ae c5 14 bd e4 88 9a 3d
       0.021894896 0.010533812 -0.036321335 0.07545641
000290 fb 55 90 3d ab ad 55 3d 89 0b 99 bd 52 92 a1 3d
       0.070476495 0.052167576 -0.07472903 0.078892365
0002a0 ad 54 2c bd c4 45 1e 3c 2e 21 39 bd b5 fc 27 3c
       -0.04207294 0.009660188 -0.04519766 0.010253121
0002b0 46 5a 49 3d 86 12 96 bd 0d 94 ec 3c a6 72 93 bd
       0.049158357 -0.07327752 0.02887919 -0.07199602
0002c0 f3 74 fe bc d4 44 18 39 77 24 57 3c 74 3b 5d 3d
       -0.031061625 0.0001452149 0.0131312525 0.054011777
0002d0 51 41 64 bd ee 1a 9a bd 2b f3 53 3d ae e5 4d 3d
       -0.055726353 -0.07524668 0.051745575 0.050267868
0002e0 1f b7 4d 3b 75 08 79 3d d3 bf 89 3d d3 a5 73 3d
       0.0031389666 0.06079908 0.06726041 0.059484314
0002f0 ef 9c 3c bd d6 78 e5 bc f6 50 0a bd 61 8b 48 3d
       -0.0460481 -0.02801172 -0.033768617 0.048961047
000300 84 06 40 3c 7c e1 3a bc 3c c6 b5 3c 20 c5 51 3d
       0.011720303 -0.011406299 0.022189252 0.051213384
000310 8d f1 b0 3d 94 a1 62 bc a2 e9 e2 b9 f9 59 42 ba
       0.08639822 -0.013832469 -0.0004328015 -0.00074139197
000320 83 e1 00 3d da 8f 23 3d 1f 98 5e bc a9 0a 0b bd
       0.031465065 0.03993211 -0.013586073 -0.033945713
000330 f8 1b 2d 3d 86 86 17 3d 58 68 43 bd a0 b4 a9 bc
       0.042263 0.036993526 -0.04770693 -0.020716012
000340 74 06 4a 3d a0 6c da 3b 60 bd 65 3d 10 dd 8e bd
       0.04932256 0.006665781 0.056088805 -0.06975758
000350 d1 c8 78 3d 3e d6 54 3d 35 5b 01 3d cc 17 35 3d
       0.06073839 0.05196213 0.031581122 0.044212148
000360 16 ed 79 3d 33 9a 6d 3d 6b 93 42 3d 07 9a 43 3b
       0.06101712 0.058008384 0.04750387 0.0029846446
000370 2e b1 16 3d 4c 5b 97 3d b5 b5 ef bc 71 f8 5f 3d
       0.036790065 0.0739046 -0.02926145 0.05468029
000380 d9 aa 81 bc 56 c4 e6 bc eb 55 57 3d 2a 62 49 bc
       -0.015828537 -0.028169792 0.052572172 -0.012291471
000390 c4 1f 7a bd 2d 1e fa bc f2 d0 2c 3d 5a 85 5c bc
       -0.06106545 -0.030531967 0.042191453 -0.013459528
0003a0 57 a0 7d ba d5 51 be b9 0e 36 ba 3c fa 1b 2f bd
       -0.00096750766 -0.00036300594 0.022730853 -0.04275129
0003b0 a1 45 93 3b af 64 76 3d cf b8 2c bd 4a 23 63 3c
       0.0044943844 0.060154613 -0.042168435 0.013863394
0003c0 c1 b6 1a 3d 67 9e 7d 3d e7 fd 96 3d 1d 45 21 bd
       0.037771944 0.061918642 0.07372647 -0.039372552
0003d0 f8 c9 bb 3c 53 cf c9 3c 5f 31 94 3c 29 11 9c bc
       0.022923455 0.024634993 0.018089948 -0.019051151
0003e0 65 07 44 bd 6f d5 86 3c b1 df 4e bd 68 fb d1 bc
       -0.047858614 0.016459195 -0.050506297 -0.025632575
0003f0 1a 59 9a 3d a3 af 07 bd b5 c7 be bb f4 21 3d bd
       0.07536526 -0.033126485 -0.005822147 -0.04617496

network.6.weight f4 [1, 256]
000000 4c 68 60 3d 05 c1 10 bd 48 4f c6 bc 37 56 85 bd
       0.054786965 -0.035340328 -0.024207726 -0.06510585
000010 7f 1c 95 bb d3 23 2c 3d be c9 69 bd a4 fa 96 bc
       -0.004550516 0.042026352 -0.057077162 -0.018430062
000020 2d d2 b6 bc 4a b3 8f bc 5a 10 c6 3c 1b c4 fc bc
       -0.022317016 -0.017541546 0.024177719 -0.03085523
000030 e8 36 5b bd 92 19 04 3d 77 ec fe 3c 64 f6 70 bb
       -0.05351916 0.03225095 0.031118615 -0.0036767954
000040 1c 17 d5 3c bd 5d 2a 3d 46 63 31 3d 6a 3c ce bc
       0.026011996 0.041593302 0.043307565 -0.025175292
000050 ee aa 17 bc 01 46 86 bd 8c 52 ae 3b 83 61 67 bd
       -0.009257061 -0.06556321 0.005319899 -0.05648948
000060 ef 3a 06 bd f0 24 25 bd df 04 f5 bc 57 d2 a3 bc
       -0.032771047 -0.04031843 -0.02990955 -0.019997759
000070 6a e8 ce bc 83 b4 7f 3d 97 12 5f 3c a0 e9 72 bd
       -0.025257308 0.06242801 0.013615272 -0.059304833
000080 1c 2d 69 3c 04 a9 0a bd be ba ef 3c 89 da 8c bc
       0.014231946 -0.033852592 0.02926385 -0.01719405
000090 12 3a 47 bd 4c f2 e1 3b ac 84 40 bc 2e 8e 5c 3d
       -0.048639365 0.006895339 -0.011750381 0.05384653
0000a0 53 a8 6c 3d 19 c7 23 3c 56 f5 74 3d 9a ef 9d 3c
       0.057777714 0.009996199 0.059804283 0.01927929
0000b0 8e e2 a4 3b f1 4d ae ba 41 85 20 bd e0 c7 4f bd
       0.0050318902 -0.0013298375 -0.03918958 -0.050727725
0000c0 c5 3b 61 3d 9a 2f 87 3d 69 b6 11 3d 53 51 c7 bc
       0.05498864 0.06600876 0.03557435 -0.02433077
0000d0 05 df 44 bd 36 16 0f bd a9 0a 92 3c 1b da 0e 3d
       -0.04806425 -0.03493329 0.017827349 0.03487597
0000e0 c4 4b 42 bd d1 b2 7b 3c d5 23 6b bd 3f d6 86 bd
       -0.047435537 0.015362457 -0.05740722 -0.06583833
0000f0 1d 4b 1f bb 70 55 ff bc 8b 86 5e 3d 19 4f 32 3d
       -0.0024306246 -0.03116867 0.05432753 0.043532465
000100 aa 40 f8 3c b1 4f b9 bc 8c ce 71 3d 83 1f c8 bc
       0.030304272 -0.022621008 0.05903487 -0.024429088
000110 46 48 19 bd c9 e6 8d bd 25 bb e8 bb bb 48 f7 3c
       -0.03742244 -0.069287844 -0.0071023875 0.030186048
000120 0a 9a 55 3d c0 ea d5 3c 57 ad 14 bd e2 bf 27 bd
       0.052148856 0.026112914 -0.036298122 -0.040954478
000130 3e 4f 30 3c 60 82 02 3c 6b 79 66 bc 9a ea 64 bd
       0.01076108 0.007965654 -0.014067034 -0.055887796
000140 ae d6 6b bc c0 86 86 ba 59 53 60 bd 25 19 eb 3c
       -0.014394445 -0.0010263547 -0.054766987 0.028698513
000150 77 5e fb bc 35 a0 74 bc 25 9a 4c bd 61 ea 1a 3d
       -0.030684693 -0.014930774 -0.04995169 0.037821177
000160 8c 9d 39 3d ae fb 72 bd 36 4d d4 bc 8d 8a 15 bd
       0.045316264 -0.05932205 -0.025915723 -0.036509085
000170 50 74 36 bc e8 76 1c 3d 43 7f 4f 3c 30 ac 45 3d
       -0.0111361295 0.038199335 0.012664619 0.048259914
000180 b6 58 ea 3c 56 23 2c 3d 03 18 4d 3c fb 1f 7a 3d
       0.028606754 0.042025886 0.012517932 0.061065655
000190 c5 50 63 3d 25 ab 70 3c 70 5e 21 bc 09 d3 76 bd
       0.05549695 0.014689242 -0.009849176 -0.060259853
0001a0 4c 84 09 bb b4 f3 da bc 36 3e 50 3d 34 f0 c9 3c
       -0.0020983396 -0.026727535 0.05084058 0.02465067
0001b0 cc ab e4 bb be 52 45 3c 9d 0d 43 3d 7b 3c 19 bd
       -0.0069784876 0.012043653 0.047620405 -0.037411194
0001c0 4d 0f 8a 3c 65 71 5f bc 75 01 20 bd e8 a6 1a bd
       0.016853 -0.013637875 -0.03906389 -0.03775683
0001d0 37 92 5f bd 31 e5 3f bd 76 4a 15 3d 51 7b 42 3d
       -0.0545828 -0.046849433 0.036447965 0.047480885
0001e0 03 e4 66 3b 87 11 67 3d eb 2a 67 3d 5d ea de 3c
       0.003523112 0.0564132 0.056437414 0.027211362
0001f0 1e 45 38 bd e0 71 a7 bc 3e a5 6a bd 5e c3 34 bc
       -0.04498779 -0.020440042 -0.057286493 -0.011032907
000200 a7 1e fb bb 88 c1 8e bc 02 b4 93 3c ec 7f 16 bc
       -0.007663566 -0.017426267 0.01803017 -0.009185772
000210 21 ee 3c bd 6c 15 e4 bb a9 cd 1a 3d e2 b9 05 3d
       -0.046125535 -0.0069605615 0.03779379 0.032647975
000220 5c ea 8e 3b 03 77 1a bd 75 aa 0d 3c c0 79 23 3d
       0.004361434 -0.037711155 0.008646597 0.03991103
000230 3f cb 66 bd 02 bc 65 3d 89 bf e4 bc b1 d2 8e 3c
       -0.056346174 0.0560875 -0.027923362 0.01743445
000240 9a ee cf 3c b9 fd 63 bd 51 72 67 3d 35 ad 71 bd
       0.025382329 -0.05566189 0.056505505 -0.059003074
000250 57 81 25 3c 4d 86 da 3c 07 87 0f bd f1 5f 37 3d
       0.010101638 0.026675368 -0.03504088 0.04476923
000260 00 e3 a7 bc e4 cd d6 bc fc ab 37 bd 2d 5f 3b 3d
       -0.020493984 -0.026221223 -0.04484175 0.045745064
000270 59 e7 b4 3b e1 e8 7e 3c 46 89 4e bc 43 8e d9 3b
       0.005520743 0.015558452 -0.012605971 0.0066392734
000280 ca 92 60 bc e5 59 88 bc 44 13 47 bd ff 39 b1 bc
       -0.013706872 -0.016644428 -0.048602358 -0.0216341
000290 7f ec 6b bd 1a c4 1d bd 05 b8 ec 3c e1 7f 56 bd
       -0.057598587 -0.038517095 0.028896341 -0.05236805
0002a0 4c 0d 3c bd 55 0c 00 3d 9b b5 26 bd b1 5e c9 3c
       -0.04591112 0.03126176 -0.040700536 0.024581285
0002b0 9f 2f 83 bd 57 06 51 bd e8 d6 f8 3c 95 a1 ef 3c
       -0.064055674 -0.051031437 0.030375913 0.029251853
0002c0 a8 f7 6e 3d b1 ab 49 3d 94 a0 fc bc ff 1b a3 3c
       0.058341652 0.049236003 -0.030838288 0.01991081
0002d0 2f 47 4f bc 75 2c ff bc 59 4e 2c 3d 84 02 36 bd
       -0.012651249 -0.031149128 0.042066906 -0.044435993
0002e0 01 4d 6e 3d 8b 23 16 bd d6 e1 93 bc 16 81 f4 3b
       0.058178905 -0.03665499 -0.018052023 0.0074616773
0002f0 4d f9 4d bd 62 a4 e3 bb aa c8 0f bd cc ac 17 bd
       -0.05028658 -0.006947086 -0.035103478 -0.037030026
000300 b8 a9 d6 bc 62 4e 17 3d 47 fa 05 bd ad ab 1f 3d
       -0.026203975 0.036939986 -0.032709386 0.038982082
000310 ac 6e 69 bd 48 07 2b 3d 76 bb 4e 3d c0 92 86 3c
       -0.05699031 0.04175499 0.050471745 0.016427398
000320 df 11 be 3c 82 52 22 3d 2c 30 65 bd 21 cd 23 3d
       0.023201881 0.039629467 -0.055954143 0.039990548
000330 fa aa 42 bc 20 3a 4c 3d d4 6a 2e 3c c6 64 3a bd
       -0.011881584 0.04986012 0.010645587 -0.04550626
000340 5e 56 c3 bc 64 7b 80 3b 51 d5 f0 3c 42 3f 67 3d
       -0.023844894 0.0039209593 0.029398592 0.05645681
000350 0d ce 9f bc fa ac db 3c 40 88 04 bd 37 34 80 bc
       -0.019507432 0.02681588 -0.0323565 -0.015649898
000360 cc 33 ed bc 28 da a0 3c 3d db df 3b dc f1 40 3c
       -0.028955363 0.019635275 0.006831555 0.011776414
000370 ed fb a6 bb 5b 75 79 3c 68 b6 ac bc cd 5c 66 3d
       -0.00509595 0.015225734 -0.021083072 0.056240845
000380 d2 5f 36 bd 8b 77 bf bb 15 5e 34 3c 1f 09 75 bd
       -0.044524975 -0.005843108 0.011008759 -0.05982315
000390 ca e9 53 3d 07 a9 5a bd 94 d3 7d bd 7c 4d 02 bd
       0.05173663 -0.053383853 -0.061969355 -0.031812176
0003a0 8d af 50 3d 0a f2 c5 3c 4b b5 5f bd 06 22 bf 3c
       0.05094867 0.024163265 -0.054616254 0.023331653
0003b0 cb 81 6e bc 3b 04 ce 3c ea 51 94 3b e1 18 0d bd
       -0.014557312 0.025148502 0.0045263665 -0.034447554
0003c0 fa 2a 18 3d 76 4a 7e 3d fd 9c 99 3c 20 c2 ea 3c
       0.03715036 0.06208273 0.018751616 0.02865702
0003d0 09 00 19 3c 0d be 27 3c 6c d0 0b bc 83 52 8e ba
       0.009338387 0.010238183 -0.008533578 -0.0010858331
0003e0 b8 be 3c bd 04 dd f5 3c 95 e7 43 3d 35 e7 ee bc
       -0.04608032 0.030012615 0.047828276 -0.029162982
0003f0 5b a4 c1 bc f7 0a db bc 93 8f c3 ba f4 5a 51 3d
       -0.023637941 -0.026738627 -0.0014920108 0.05111213

exp_avg f4 [128, 45]
000000 8e cb 5b b9 51 ca a3 39 ee 28 4a 38 1a b6 d4 b8
       -0.00020961298 0.0003124052 4.819867e-05 -0.00010142867
000010 2b c0 b0 38 21 a5 ac 38 ce 38 73 38 e1 45 79 39
       8.428128e-05 8.232357e-05 5.798862e-05 0.00023772522
000020 5e b2 bf b7 ca b5 c1 b9 ae c6 36 3a 55 32 26 39
       -2.2852033e-05 -0.00036947272 0.00069723546 0.00015849744
000030 7e 5c 5d 36 9c b5 27 37 ea cf be b7 d9 2b a9 39
       3.2985404e-06 9.99626e-06 -2.2746583e-05 0.0003226686
000040 a9 1c a4 39 b6 d1 61 3a 47 9f 8e 36 be 96 16 b8
       0.0003130187 0.0008614318 4.250472e-06 -3.5903176e-05
000050 18 6f af b8 85 d0 9a 39 36 a7 be b7 8f 40 c8 b8
       -8.365343e-05 0.00029528528 -2.2727629e-05 -9.548768e-05
000060 57 65 14 37 be f1 17 37 8f 44 e5 35 13 86 04 b9
       8.845082e-06 9.056586e-06 1.7081783e-06 -0.00012638448
000070 52 05 23 b8 5d c6 3b b5 43 ae a4 39 d2 00 e4 38
       -3.8867183e-05 -6.9951585e-07 0.00031410353 0.0001087204
000080 d5 04 3c 39 74 ef d3 39 e6 80 f8 38 a2 71 c1 39
       0.00017930877 0.00040423463 0.00011849571 0.00036896492
000090 d0 33 0d 39 1b 05 2a 38 43 2f 0f b9 56 34 14 39
       0.0001346611 4.0535913e-05 -0.00013655149 0.00014133877
0000a0 7e 6a 89 b9 a2 4c 72 38 09 a9 0f b9 24 fa ea 39
       -0.0002621002 5.7768666e-05 -0.00013700513 0.00044818327
0000b0 39 ff b3 3a 39 a6 3a b8 53 89 d2 36 c3 72 32 39
       0.0013732678 -4.4500663e-05 6.2744743e-06 0.00017018155
0000c0 a0 6e a6 b8 36 a5 be b8 a8 6d 0b 35 e6 8e 2b 35
       -7.936102e-05 -9.090679e-05 5.1941106e-07 6.391041e-07
0000d0 1f e4 0b b6 d5 e3 9e 37 64 c8 6d b8 d6 6a b8 b8
       -2.0845398e-06 1.894116e-05 -5.669183e-05 -8.7937035e-05
0000e0 a4 bc 38 b8 29 fc b2 b7 68 49 bf 37 f0 ec 89 b8
       -4.4044704e-05 -2.1336675e-05 2.2803157e-05 -6.576802e-05
0000f0 7c 58 77 35 65 ea 75 b8 47 0a 32 38 ca cf 1b b7
       9.214343e-07 -5.863085e-05 4.244808e-05 -9.2871e-06
000100 08 53 5a 38 56 35 b0 b7 58 92 88 38 43 75 fb 37
       5.205258e-05 -2.1005671e-05 6.512244e-05 2.9976136e-05
000110 51 ee 14 b5 9d 48 84 b8 a9 b3 80 b8 90 39 9b b8
       -5.548109e-07 -6.307776e-05 -6.13698e-05 -7.401698e-05
000120 fb 57 85 b8 0d 45 99 37 e6 a5 91 b8 66 6d 57 b6
       -6.358322e-05 1.8271176e-05 -6.94504e-05 -3.2101175e-06
000130 d4 30 bf b5 5e 5a e4 b7 07 47 5c b8 fb ad 63 b8
       -1.424482e-06 -2.7221799e-05 -5.2518237e-05 -5.428305e-05
000140 bb 21 86 b8 1b c3 a7 b8 84 b9 bd b7 0c ef 4f b5
       -6.395901e-05 -7.999522e-05 -2.2616943e-05 -7.746137e-07
000150 1f e9 63 b4 0b a8 90 38 50 41 0f 1c 60 d2 d4 34
       -2.1225831e-07 6.8977555e-05 4.7399145e-22 3.9641145e-07
000160 1d b8 3a 2d 29 54 31 39 7b e0 7f b9 20 e9 86 39
       1.0613757e-11 0.00016911388 -0.0002440232 0.00025732163
000170 dd ef 1a 39 c6 e0 76 b8 f3 6d df b8 2d 2d 8f b9
       0.0001477594 -5.8860307e-05 -0.00010653948 -0.00027308744
000180 3e 77 01 b8 4e a6 c7 b9 63 20 85 b9 8a 57 84 ba
       -3.086705e-05 -0.00038080144 -0.00025391867 -0.001009689
000190 e2 c7 bf 39 dd aa 09 39 aa fe 28 b8 2a d0 4e b9
       0.00036579283 0.0001312899 -4.0291496e-05 -0.00019723238
0001a0 10 ef 14 b9 58 8b 9a b7 18 0e aa ba 6c 2e f1 b8
       -0.00014203438 -1.8423118e-05 -0.0012974171 -0.00011500422
0001b0 e6 b2 62 37 1e 73 29 b9 17 db 1f b8 fa 6c 84 39
       1.3512303e-05 -0.0001615998 -3.8112597e-05 0.00025258196
0001c0 45 be 8d b9 85 18 c0 b8 96 63 a7 38 ca 03 5d b9
       -0.00027035378 -9.1598406e-05 7.98173e-05 -0.00021077614
0001d0 83 1c 96 b5 60 63 b1 b6 9d c2 34 b9 f9 c2 3c 38
       -1.1184169e-06 -5.28658e-06 -0.00017238637 4.5004275e-05
0001e0 7a e8 f7 38 34 b4 ab b9 54 5a a0 39 56 d9 18 ba
       0.0001182118 -0.00032749923 0.00030584878 -0.00058307254
0001f0 17 3d 18 b9 50 48 bd b9 db 26 c9 b8 e3 e3 4c ba
       -0.00014518607 -0.00036102766 -9.591664e-05 -0.000781594
000200 c6 a3 a3 ba e8 72 85 ba c3 e0 e2 b9 34 91 36 39
       -0.0012484721 -0.001018134 -0.0004327354 0.00017410965
000210 22 48 87 b9 f1 92 c7 b9 06 a1 9a 3a 73 21 be 37
       -0.0002580295 -0.00038065718 0.0011797256 2.2665341e-05
000220 07 84 af b8 32 6f b4 b8 d2 f8 12 b8 69 e4 06 b8
       -8.369242e-05 -8.6037806e-05 -3.5040845e-05 -3.2160813e-05
000230 64 c7 03 b9 02 b9 74 38 e3 d3 9c b9 9d 11 8c 37
       -0.00012567412 5.8346435e-05 -0.00029912507 1.6697502e-05
000240 53 d2 0c b8 08 6f 95 b8 d3 fd e6 37 1a 2a 7c 39
       -3.357448e-05 -7.125555e-05 2.7536333e-05 0.00024048277
000250 62 86 99 b9 bf 10 e7 b8 74 cb 86 38 79 24 13 b9
       -0.00029282557 -0.000110180576 6.427514e-05 -0.000140326
000260 bd 16 d0 b9 d0 b4 ea 37 14 46 4d b8 c0 c6 07 b8
       -0.00039689793 2.7979171e-05 -4.8941074e-05 -3.237161e-05
000270 05 2c c8 b8 9b dd 0d b7 7b 24 91 37 cc 52 84 38
       -9.5449424e-05 -8.4558515e-06 1.7302335e-05 6.3096726e-05
000280 b1 e2 5d b8 4b 68 48 37 11 ca 85 38 40 1e bf b8
       -5.290163e-05 1.1945212e-05 6.379572e-05 -9.113224e-05
000290 cc fe b8 b5 be 5e 1a 39 2c 28 85 b9 20 3a fe b7
       -1.3783224e-06 0.00014721879 -0.00025397667 -3.0306226e-05
0002a0 be f3 7c b9 7d 27 a6 38 9a e0 93 b8 d6 ba b6 b9
       -0.00024123394 7.922852e-05 -7.0513415e-05 -0.0003485295
0002b0 9d ee 22 b9 ec 15 03 b8 f9 15 8b b8 2e 75 84 b8
       -0.00015538414 -3.125325e-05 -6.632129e-05 -6.316077e-05
0002c0 11 07 2b 39 30 65 87 b8 b4 a0 cd b9 dc 60 94 b9
       0.00016310463 -6.456149e-05 -0.0003922038 -0.00028300926
0002d0 60 10 1f 37 a1 ef 87 38 45 5e 6f b9 98 33 55 b8
       9.480951e-06 6.481936e-05 -0.00022827934 -5.0831208e-05
0002e0 6e 13 0e b9 93 24 bb 38 78 33 05 b9 c6 2a 67 39
       -0.00013549413 8.923667e-05 -0.00012703042 0.00022045811
0002f0 a0 a1 16 b9 b0 7f ac ba 82 c8 d8 38 05 bd 97 39
       -0.00014365325 -0.0013160612 0.0001033703 0.00028941795
000300 13 38 97 b8 3c 8c 4d 39 6a 0e 9a b9 3c e1 4d 38
       -7.210686e-05 0.00019602565 -0.00029383908 4.9085575e-05
000310 c1 48 af b9 a4 f9 ee b9 c4 29 8b 38 9e 08 40 b9
       -0.00033432807 -0.00045580894 6.635816e-05 -0.00018313757
000320 90 86 c6 b9 a1 9e bc 39 d9 4e ad 38 9d 23 46 b9
       -0.0003786576 0.00035976342 8.263969e-05 -0.00018896018
000330 d5 eb e6 b8 55 fa a5 b9 5d e3 e7 b6 c3 59 2f b9
       -0.00011011182 -0.00031657764 -6.910805e-06 -0.0001672274
000340 9b 54 3b 38 9b 01 64 b8 24 7a 1c 38 00 1a fc b8
       4.466307e-05 -5.436093e-05 3.730705e-05 -0.00012021139
000350 fe 2d 64 b9 0c cc 15 ba d8 45 b7 b9 4e 87 2b b9
       -0.00021760908 -0.0005714304 -0.00034956518 -0.00016358236
000360 e0 64 80 b8 6c 6e 4f ba c7 33 06 ba 7c 84 c3 ba
       -6.122305e-05 -0.00079128775 -0.000511941 -0.0014916803
000370 77 8e 83 b9 20 18 91 b9 c2 57 cd b9 74 82 c2 39
       -0.00025092412 -0.0002767453 -0.00039166032 0.0003709976
000380 0b 47 5d 3a 5f 1d 1b 38 d3 02 bb b9 db b5 14 39
       0.0008441067 3.6982234e-05 -0.00035669524 0.00014182126
000390 8e 74 c3 b8 8c cb 6e 39 0d 64 20 b9 e3 fb 68 39
       -9.3200346e-05 0.00022773276 -0.00015296061 0.00022219079
0003a0 64 9e 48 36 2a f5 54 39 ee cc 86 38 1d 0f 06 b8
       2.9894518e-06 0.00020309226 6.427789e-05 -3.1962165e-05
0003b0 fb c2 aa b9 32 af 3f b8 06 8c a4 b8 12 6a 8b 38
       -0.00032570199 -4.5701112e-05 -7.846211e-05 6.6477936e-05
0003c0 ed d5 40 39 44 e8 03 39 3f dd fb b9 bc a0 ff b5
       0.0001839024 0.00012579659 -0.00048039292 -1.904576e-06
0003d0 e2 7c b1 39 55 c4 91 b9 d8 36 77 37 74 1b 80 b9
       0.00033853116 -0.00027802834 1.4735117e-05 -0.00024434517
0003e0 ba dc 97 38 ef 05 a4 38 0e 41 1a b9 46 f8 2a b6
       7.2413546e-05 7.8212346e-05 -0.00014710819 -2.5476488e-06
0003f0 02 b3 46 39 87 8d 04 39 c8 1f 09 b8 e2 02 7a b8
       0.00018949437 0.00012641224 -3.2692944e-05 -5.960733e-05

exp_avg_sq f4 [128, 45]
000000 54 84 58 35 a9 ab 02 35 a9 54 36 35 12 5e 8a 33
       8.0658833e-07 4.867857e-07 6.792348e-07 6.443237e-08
000010 e2 b0 2e 34 79 0c da 34 bf 2a 12 35 8a e1 68 35
       1.6269362e-07 4.061474e-07 5.445144e-07 8.675494e-07
000020 41 a5 87 34 17 a7 c0 35 1a a4 1f 35 85 52 c1 35
       2.5265948e-07 1.4353744e-06 5.9470915e-07 1.4403637e-06
000030 34 83 49 34 32 a8 27 34 3b 9f a0 34 da cb d5 34
       1.8767315e-07 1.5614276e-07 2.9918178e-07 3.9822663e-07
000040 a6 11 0d 36 d3 7d d1 36 d7 1d f6 2e e0 72 01 34
       2.102091e-06 6.2433332e-06 1.11920855e-10 1.2055852e-07
000050 1b e3 33 34 db 89 7c 35 3b e1 63 34 1f e2 27 33
       1.6753295e-07 9.407792e-07 2.1222961e-07 3.9088373e-08
000060 b9 b5 ad 32 5f 4a 23 33 0c df b0 2e 34 a4 c8 33
       2.0222489e-08 3.8019035e-08 8.0431745e-11 9.343094e-08
000070 13 d2 87 32 04 fd a2 2e ce 84 26 35 1e 5e eb 34
       1.58116e-08 7.411852e-11 6.2033075e-07 4.384064e-07
000080 70 da cc 35 7e 73 9f 35 9c 79 3a 35 56 10 78 35
       1.5262758e-06 1.1880036e-06 6.9467364e-07 9.241097e-07
000090 82 8a 99 34 c3 26 a6 35 5d 19 18 36 9f 5c bb 35
       2.8599248e-07 1.2379245e-06 2.2664528e-06 1.3959542e-06
0000a0 96 f0 6d 36 c9 3d 6a 35 d0 2a 26 35 83 86 94 36
       3.5455791e-06 8.72617e-07 6.190212e-07 4.426403e-06
0000b0 16 67 a7 36 fd 39 11 31 80 b0 d5 2e 47 f6 3d 33
       4.9889886e-06 2.113324e-09 9.717471e-11 4.422898e-08
0000c0 06 6e cd 31 16 db 04 32 3b 99 4f 2d 1b 20 76 2d
       5.9787935e-09 7.733226e-09 1.1800612e-11 1.399061e-11
0000d0 7a c1 22 2e 10 50 00 30 a9 12 58 31 69 77 f9 31
       3.7006377e-11 4.6679904e-10 3.1442744e-09 7.260429e-09
0000e0 ef 21 45 31 4f 88 2f 30 2a 15 2e 30 67 5b c0 31
       2.8686562e-09 6.3858335e-10 6.3330907e-10 5.5983267e-09
0000f0 e6 c6 a7 2e 9f d8 7b 31 f3 c8 d6 32 30 51 34 2f
       7.629612e-11 3.6648442e-09 2.500426e-08 1.6399748e-10
000100 04 78 59 31 13 a3 97 30 3f 1c e0 31 d3 1d 28 31
       3.1645877e-09 1.1033044e-09 6.5224692e-09 2.446417e-09
000110 6d 4a 8c 2d 07 9b 85 31 82 c7 90 31 fd 30 b4 31
       1.5949209e-11 3.888434e-09 4.213633e-09 5.244259e-09
000120 f6 9a 87 31 11 f8 f1 2f 8c e6 9f 31 72 20 58 2e
       3.946634e-09 4.4013906e-10 4.653719e-09 4.914153e-11
000130 5c c0 62 30 82 19 07 32 88 e4 4f 31 26 b9 98 31
       8.249168e-10 7.863834e-09 3.025237e-09 4.444831e-09
000140 c9 30 a0 31 83 0f 1e 32 bb 12 20 32 48 2c 9c 2d
       4.662159e-09 9.200337e-09 9.317485e-09 1.7754812e-11
000150 b4 6b 2d 2d 78 f6 da 31 f2 6e 81 2a a4 c7 60 2d
       9.857826e-12 6.3726553e-09 2.2991987e-13 1.2777255e-11
000160 05 a5 b7 2b 98 ef 6e 33 a9 ee 68 35 2b cb 62 35
       1.3048734e-12 5.5631602e-08 8.677403e-07 8.448721e-07
000170 a1 39 1b 35 db 9c 72 34 28 f9 d6 34 92 b7 71 35
       5.782586e-07 2.259507e-07 4.004189e-07 9.0046626e-07
000180 6e d3 01 35 06 73 af 35 59 ae ea 34 e0 56 f4 35
       4.8363916e-07 1.3071992e-06 4.371275e-07 1.8204701e-06
000190 a9 30 60 35 d4 3e c5 35 64 f6 89 34 5d f5 6b 34
       8.351731e-07 1.4695929e-06 2.569751e-07 2.1975343e-07
0001a0 ce 4b 06 35 b0 69 a2 34 b3 a4 4c 36 7d 3e ea 36
       5.00292e-07 3.025175e-07 3.0494236e-06 6.981018e-06
0001b0 d2 4f eb 2f 02 bc 91 34 25 02 10 35 92 db 98 35
       4.2802967e-10 2.7145148e-07 5.36473e-07 1.1388786e-06
0001c0 32 3a 0a 35 d6 87 90 33 ef bf 54 33 13 df 06 34
       5.149369e-07 6.730231e-08 4.953466e-08 1.2560876e-07
0001d0 5e ab c9 2e a7 25 22 34 5b 3d 02 34 a5 07 23 31
       9.170863e-11 1.5101124e-07 1.2129514e-07 2.3723967e-09
0001e0 fe 34 b7 35 4f 38 19 35 cb 2e 21 36 4c a8 b7 35
       1.3649985e-06 5.707888e-07 2.4018107e-06 1.3683543e-06
0001f0 73 86 5d 35 5a bd 84 35 e8 f7 29 35 4a a1 d5 35
       8.2524565e-07 9.889875e-07 6.3318157e-07 1.5916678e-06
000200 6b bb 49 36 c1 ed 8f 36 0b ba 4a 36 97 d8 4c 36
       3.0060426e-06 4.2894103e-06 3.0208637e-06 3.052444e-06
000210 2c 61 1b 36 00 f3 87 36 43 52 cd 36 1e 45 f0 34
       2.3153361e-06 4.0516024e-06 6.1190526e-06 4.4753773e-07
000220 1b b2 92 32 67 11 03 33 58 97 db 33 86 07 8c 33
       1.707763e-08 3.051664e-08 1.02255115e-07 6.5206265e-08
000230 3b e9 0c 32 b1 f4 02 34 7d ea 58 35 3c 52 8c 34
       8.202103e-09 1.2196212e-07 8.0807496e-07 2.6136865e-07
000240 fc 6b 68 33 13 36 c1 33 09 3d 5e 34 aa 83 46 34
       5.411492e-08 8.997099e-08 2.0697566e-07 1.8488086e-07
000250 76 c9 09 33 5c ff 5a 33 eb 07 69 33 8d db 40 35
       3.2081026e-08 5.098933e-08 5.425674e-08 7.184506e-07
000260 cf b1 12 35 88 64 87 30 4e df 86 33 d7 68 52 33
       5.4647984e-07 9.851115e-10 6.28048e-08 4.8989786e-08
000270 43 5a 80 35 e6 96 72 33 92 46 86 32 e6 c5 9e 32
       9.563013e-07 5.6482257e-08 1.5631745e-08 1.8483615e-08
000280 f0 dc 96 32 3d 1a 9a 2f 5a ea 9a 33 92 f3 9b 32
       1.7562769e-08 2.803108e-10 7.213812e-08 1.8155138e-08
000290 26 73 4a 2d fe ea 04 35 05 60 35 34 41 33 04 35
       1.1507939e-11 4.951579e-07 1.689187e-07 4.9248416e-07
0002a0 eb 17 71 34 8e ba 69 34 27 7b 66 34 96 87 4a 33
       2.2453575e-07 2.1767684e-07 2.1465222e-07 4.7155105e-08
0002b0 94 ef e6 34 9b e5 83 32 95 45 56 34 1f a3 85 31
       4.3015154e-07 1.535482e-08 1.9955617e-07 3.889354e-09
0002c0 b8 c1 8a 35 f5 93 58 34 b4 69 43 36 2f eb a3 35
       1.0338181e-06 2.0170394e-07 2.9118792e-06 1.2212894e-06
0002d0 1a 23 58 35 aa 69 74 35 f9 19 14 35 1b 8f 70 34
       8.051735e-07 9.1050845e-07 5.517209e-07 2.2403803e-07
0002e0 62 e2 b3 34 f1 22 b4 35 c6 8e eb 34 63 4c 45 35
       3.3506063e-07 1.3421214e-06 4.3876042e-07 7.3499376e-07
0002f0 8c 97 f1 34 7a f2 c6 35 d8 2c 92 35 98 8d a2 35
       4.5000013e-07 1.482272e-06 1.0890899e-06 1.211115e-06
000300 a3 29 22 34 f5 10 83 34 88 c0 05 35 c4 da e5 34
       1.5102573e-07 2.441299e-07 4.982653e-07 4.2813747e-07
000310 4f c8 3f 36 75 99 c8 36 66 f3 9c 31 bf 43 82 34
       2.8577813e-06 5.978329e-06 4.5678687e-09 2.426368e-07
000320 1f 7a 1c 35 48 35 91 35 bf e4 da 34 0a 98 a5 33
       5.829224e-07 1.0818849e-06 4.07721e-07 7.711067e-08
000330 b4 0e da 32 1e 78 0e 34 44 c6 13 2f d8 ff d8 33
       2.5385226e-08 1.3268479e-07 1.344001e-10 1.01048215e-07
000340 d1 46 bd 33 52 bc 41 31 ad 44 52 35 7a 5b 1d 35
       8.81388e-08 2.8192244e-09 7.833103e-07 5.8620174e-07
000350 c1 9f 1a 36 e3 3a 9a 35 a3 f0 5b 35 fb 5c 90 35
       2.3040777e-06 1.1491032e-06 8.193403e-07 1.0755897e-06
000360 4d ab 38 35 d1 80 9d 35 d6 da 40 36 31 79 a6 36
       6.8794617e-07 1.1734902e-06 2.8737609e-06 4.961294e-06
000370 81 46 0f 36 92 17 31 36 a9 0f 9d 35 8f 74 8a 36
       2.13497e-06 2.6388775e-06 1.1701969e-06 4.1262897e-06
000380 d9 04 ce 36 15 ab 54 35 b7 d7 bc 35 25 d7 64 35
       6.1398428e-06 7.922511e-07 1.4069873e-06 8.5249695e-07
000390 36 c5 e2 34 c2 61 47 35 e6 27 cf 35 96 1c e4 35
       4.223927e-07 7.4275533e-07 1.5434314e-06 1.6995643e-06
0003a0 0f f3 b7 35 62 55 8c 35 14 17 58 36 1a 36 c1 35
       1.3705302e-06 1.0455663e-06 3.2199941e-06 1.4395366e-06
0003b0 9d e1 2a 36 be 6a 12 35 a4 c0 0c 33 b2 f2 1a 35
       2.5463298e-06 5.454457e-07 3.2771496e-08 5.772264e-07
0003c0 31 1c 58 35 d2 9f 91 36 d8 c0 55 37 4d 56 02 2f
       8.0507294e-07 4.3399423e-06 1.2740689e-05 1.1854091e-10
0003d0 ef 7e 2b 35 34 fe 79 35 c3 09 a4 35 9e 21 72 35
       6.3887177e-07 9.312964e-07 1.2221793e-06 9.0200945e-07
0003e0 1a c8 37 34 7d a9 84 33 16 18 32 34 97 9a fc 2e
       1.7116e-07 6.177559e-08 1.6586304e-07 1.1487094e-10
0003f0 dc 17 8e 34 ca 59 56 34 ee e9 a1 30 ef 20 e9 35
       2.646692e-07 1.9962968e-07 1.1780779e-09 1.7369438e-06
