models/regression_models/ML_including_industry_feature/single_dimension/playfulness/version_best/checkpoints/epoch=59-step=1860.ckpt (torch, 247539 bytes, 21 tensors)

network.0.weight f4 [64, 45]
000000 80 a1 86 3d 15 9a e7 3d 36 65 e4 bc d2 99 d3 bd
       0.065737724 0.11308686 -0.027880292 -0.10332073
000010 1a b4 e4 3d 8f 0b f1 bd 5b ca d4 3d 6d 81 05 be
       0.11167164 -0.11769783 0.10390159 -0.13037653
000020 8c 13 68 bc 0d f7 97 bd 20 89 2c 3d 53 a8 9f bd
       -0.014164817 -0.07420168 0.04212296 -0.07795777
000030 8e 40 c1 bd 70 86 46 bc ce e2 45 bd 7a 90 69 bd
       -0.09436141 -0.012117013 -0.048312 -0.05702255
000040 f3 a2 98 3d d3 7d 7c 3b 48 ea f2 3c 3f d6 e7 bb
       0.07452955 0.0038527146 0.02965273 -0.0070751007
000050 ac 5e f3 3d ec 19 7a bd 76 1a 81 3d 50 a8 82 bd
       0.118832916 -0.061059877 0.06303875 -0.06379759
000060 bd 8d c6 bc c4 d4 7e b9 17 bd 84 3c 86 25 a8 bd
       -0.024237508 -0.00024302589 0.016203446 -0.08210282
000070 af e6 a5 bd e9 f0 b1 3b 25 41 71 bd 55 fb 97 3d
       -0.0810064 0.00543033 -0.058900017 0.07420985
000080 09 dc 3a bd d2 f4 06 be 25 68 3b 3d 2c f3 c3 bd
       -0.045619998 -0.13179329 0.045753617 -0.09567866
000090 6f ac 8d 3d db 12 d3 3d a6 28 01 bd 48 ea df ba
       0.06917655 0.10306331 -0.031532906 -0.0017083371
0000a0 a5 9c eb 3b 51 2a d7 3d 03 99 1a bd 7e 86 51 3d
       0.0071903043 0.10506118 -0.03774358 0.051153652
0000b0 9c 08 78 bd 6b 40 ab bc 56 d6 d2 3d ea 6a bc bc
       -0.060555086 -0.02090474 0.102947876 -0.0230002
0000c0 90 ab 50 bd 16 af ac 3c 0c 79 f5 bc f1 7f 60 bc
       -0.050944865 0.021079581 -0.029964946 -0.013702379
0000d0 09 8a e3 bc a5 b7 4f 3d d6 9e ca 3c d3 28 e9 bd
       -0.027775781 0.050712246 0.024733942 -0.1138474
0000e0 6c d9 b0 bd 79 0c 84 bd 8c 6e d0 3d 9d d9 83 bd
       -0.0863522 -0.064476915 0.10177335 -0.06437991
0000f0 7b d2 5b bd f4 c7 0c 3e d9 0a a4 bd 02 d3 33 3d
       -0.053667527 0.13748151 -0.080098815 0.043902405
000100 33 f6 91 3d fc b0 ec bc 95 80 d3 bc 76 10 f6 bd
       0.07127037 -0.028892986 -0.025818149 -0.120148584
000110 0a 6b ae bd c5 0c 2a bd 4d e2 56 bc 5d 7c dc 3a
       -0.0851651 -0.041516084 -0.013115478 0.0016821731
000120 7f d4 ca 3d b9 bd 39 3d 3a 6f 31 bc a8 f2 46 3c
       0.09903812 0.04534695 -0.010829741 0.012142815
000130 56 11 3f bc e9 c2 e2 3c 82 c5 0d bd 27 0c b3 bd
       -0.011661848 0.027680831 -0.034612186 -0.08742552
000140 6c e7 25 bd 41 71 6f 3d d0 b7 17 be 19 a2 c3 bd
       -0.040503904 0.058457617 -0.14816213 -0.09552402
000150 5d a9 90 bc 8b 74 0e 3e dc ed 8c 3d 95 29 bd 3d
       -0.017658884 0.13911645 0.068813056 0.09236447
000160 ed f4 c1 3d 11 2a 01 be 0c f8 36 3d 10 3c a3 bd
       0.09470544 -0.12613703 0.04467015 -0.079704404
000170 03 dc b1 bd 3a 67 61 bc 3c 26 08 3d 21 41 1a 3d
       -0.08684542 -0.013757521 0.03323959 0.037659768
000180 69 b1 0f 3e 8b 69 32 3d 86 55 2c 3d ee a7 8c 3d
       0.1403252 0.043557685 0.04207375 0.068679675
000190 36 3d 93 bd 19 2a 06 be cd d1 d3 3c 1b 0e 81 3d
       -0.071894094 -0.13101996 0.025856877 0.063015185
0001a0 f2 9a bf bd 63 03 b2 3d 09 e0 8f 3d fb 85 0f 3c
       -0.09355725 0.08692052 0.07025153 0.008759971
0001b0 8e 5d 0b 3b dc 90 ba bd 06 3b dd bd 93 ee 11 bb
       0.002126548 -0.09109661 -0.108022735 -0.0022267445
0001c0 44 50 dc bd d9 a0 71 3c ac 51 c8 3b d5 61 ab 3c
       -0.10757497 0.014747822 0.0061132517 0.020920673
0001d0 74 e0 0b 3b 78 ac 55 bd ea 41 94 3c 69 08 0c 3b
       0.0021343501 -0.052166432 0.018097837 0.0021367318
0001e0 d8 2a 3f 3d 97 98 05 bd 32 b8 3a bc ed 8f 73 3d
       0.04667172 -0.032616224 -0.011396455 0.05946343
0001f0 d9 45 c6 3d a6 c0 80 bc 13 3f 76 3d 75 0d ad 3d
       0.09681291 -0.015716862 0.060118746 0.08449832
000200 ec 98 d1 3d e0 61 ea 3d a7 45 7e bc 43 58 a6 3d
       0.10234246 0.114444494 -0.015519536 0.08122303
000210 36 94 0f 3d d4 48 b4 3d b8 40 ef bb 5a 7e f1 3c
       0.035053454 0.08802953 -0.0073014162 0.029479194
000220 85 75 88 bd 61 20 aa bd 90 04 df 3d 2d e8 bb 3d
       -0.0666304 -0.08306957 0.10889542 0.091751434
000230 bc 4b bd bd 3f 7a 20 3e a0 13 82 3d 69 0e 8c 3d
       -0.09242961 0.15671633 0.063513994 0.06838686
000240 97 eb 93 bd 2f 0f bd bd 1f d6 ec bd 9c 5a 9f bd
       -0.072226696 -0.09231412 -0.11564278 -0.07780954
000250 24 de ca 3d 76 be dd bc bd 1e 61 3d 0c 3c 1e 3d
       0.09905651 -0.027068358 0.054960955 0.038631484
000260 fd 34 2e 3c 2f a1 1e 3d 14 79 87 3d 8c 43 fc 3d
       0.010632751 0.038727935 0.06614891 0.12317571
000270 6e f5 ac 3d 16 ae ae bc 0b 89 8b 3c da c1 a6 3d
       0.084452495 -0.021323245 0.01703312 0.08142443
000280 f3 cd 30 3d d1 d8 d3 3b c3 3e 74 3d b8 22 12 3d
       0.04316516 0.0064650555 0.059630167 0.03567764
000290 d0 6c 34 3b 51 84 7c 3d 7b 8d 1b bd 0b 3f c2 bd
       0.0027530678 0.061649624 -0.037976723 -0.09484681
0002a0 21 c2 d4 3d fb ae 77 bd af 6e ff bd 42 5b 97 bd
       0.1038859 -0.06046961 -0.12472283 -0.07390453
0002b0 81 cc 0c bd dc cd 3a bd 84 5d 23 3d ee ca 76 bd
       -0.034374718 -0.04560648 0.039884105 -0.060252123
0002c0 cb 49 82 bd 26 28 26 3d cb 59 74 bb 3f fd 8c 3d
       -0.06361731 0.040565632 -0.0037284966 0.0688424
0002d0 8c 1a 6d 3d aa 19 17 bd fe 76 81 bd 91 42 7f bc
       0.057886645 -0.03688971 -0.06321524 -0.0155798355
0002e0 29 c3 01 bd f7 f7 d7 bd fe fb 3c ba 56 ad 90 3d
       -0.03168026 -0.105453424 -0.00072091806 0.07064311
0002f0 23 da f2 bd 74 8d df bd ae bf ef 3d b0 60 c0 3d
       -0.118580125 -0.10915652 0.11706482 0.09393442
000300 f9 eb bc 3d 21 d1 8d bd 1b e9 a6 3d 77 be d5 3c
       0.09224696 -0.06924654 0.0814993 0.026091797
000310 1e bd ec 3d b6 cb 5c bc 3a d0 de 3a a3 07 d4 bd
       0.11559509 -0.013476303 0.0016999312 -0.10353019
000320 71 6a e3 3d e7 2b ea 3d 9b 99 9d bd 2e 41 f6 3d
       0.111042865 0.11434155 -0.076953135 0.12024151
000330 f3 f8 cf 3c ad f4 86 bd 55 b3 2c 3c e9 a5 fa bd
       0.025387263 -0.06589637 0.010540803 -0.12238676
000340 43 4a 18 bd 6e f6 9d bb 68 9f b3 ba 19 08 13 be
       -0.037180196 -0.0048206365 -0.0013704123 -0.14358558
000350 ae c9 f4 3d d3 6c 03 3e ef b5 3e 3d c5 06 e4 bc
       0.1195253 0.12834482 0.046560224 -0.02783526
000360 ca 26 93 bc e0 02 aa bd 36 4d 81 3d 97 03 6b bb
       -0.017962832 -0.083013296 0.06313555 -0.0035860294
000370 26 a6 07 3e 27 3f 13 3d a3 21 b2 bc 07 89 17 bd
       0.13246974 0.0359489 -0.021744555 -0.036995914
000380 aa ce bc 3c ee dc e8 3d eb 8e e6 3c 55 24 a2 bc
       0.023047764 0.11370264 0.02814432 -0.019792715
000390 ff 0e 82 bd 68 e0 60 bd 08 0b e6 3c 0d 45 fb bc
       -0.063505165 -0.05490151 0.028081432 -0.030672574
0003a0 0a a9 57 3d ba 25 4a bd c3 b4 73 bd 99 aa cf bd
       0.052651443 -0.049352385 -0.05949856 -0.10139961
0003b0 0d 79 99 3d d8 fe b1 3d e4 a1 ae bd a0 33 c9 3d
       0.07493792 0.08691186 -0.08526972 0.098243
0003c0 f2 05 2d bd d6 b6 54 3d d9 40 4f bd fd aa f3 3a
       -0.042241998 0.05193218 -0.050598953 0.0018590387
0003d0 c7 d2 5a 3d 4e 38 43 bc c7 5c 54 3c 44 4e 9b bd
       0.05342367 -0.01191528 0.012961573 -0.07583287
0003e0 11 6e d6 3d 7a a9 2a bd f3 fe be ba 98 a8 47 3c
       0.10470212 -0.04166553 -0.001457183 0.012186192
0003f0 fa 34 f9 bc 02 55 88 bb b7 2e 00 3b 9c 21 f0 3d
       -0.030420769 -0.0041605243 0.0019559094 0.117251605

network.0.bias f4 [64]
000000 d3 ed eb 3c d0 06 0d 3d ac df 8f 3d 5a b7 10 3c
       0.028799927 0.034430325 0.07025084 0.008832777
000010 a0 0a f4 3d 2b 2e 17 bd 10 5d 06 3d 4b 5e 96 bd
       0.11916089 -0.036909264 0.032803595 -0.07342204
000020 bd 09 d3 bd 95 d7 04 3e 81 c0 e0 3d 95 9d e0 3d
       -0.10304592 0.12972863 0.10974217 0.109675564
000030 38 1a fd 3b 33 83 0c 3e 22 3e 84 bd 34 68 f7 39
       0.007724073 0.13721924 -0.064571634 0.0004718915
000040 39 7f db 3d 36 ec d3 bc ee 72 24 3d d0 2b ae b9
       0.10717625 -0.02586947 0.040148668 -0.0003322051
000050 ba 28 a3 3d 49 44 dd bb 88 50 cd 3d cd db a0 3d
       0.07966752 -0.006752525 0.10025126 0.07854424
000060 77 6d f2 bc 0b bb 60 bd cc cf f8 bd 1a fd a2 bd
       -0.029593213 -0.054865878 -0.12149009 -0.079584315
000070 bd ff 9f 3c 5a f5 95 bd c1 f1 93 3c b4 46 c9 bd
       0.019531125 -0.07322188 0.018059613 -0.09827939
000080 c6 80 d2 bc da 58 b2 3d ec fe 87 bd a8 ca 11 bd
       -0.02569617 0.08708353 -0.06640419 -0.03559366
000090 2e 63 46 bd a4 8c 0e 3e 9f bf 0e bc 35 2a 9f 3d
       -0.04843443 0.13920838 -0.008712678 0.07771722
0000a0 da f9 c3 bd 54 42 07 3e dc ca 8e 3c 06 50 89 3c
       -0.0956914 0.13208896 0.017430715 0.016761791
0000b0 5d 15 d7 3d 35 ea 0f bd 9d cc eb bd b5 e9 6d bd
       0.105021216 -0.035135467 -0.11513636 -0.05808421
0000c0 b4 76 04 3c 97 c8 e6 bd 7e 23 5f bc 84 56 1a be
       0.008084942 -0.11268728 -0.013619302 -0.15072066
0000d0 25 82 ea bd 73 17 f0 bd 9a 4c 9a 3d 12 3c d1 bd
       -0.11450604 -0.117232226 0.07534142 -0.10216536
0000e0 d3 ab 60 bc 81 6d 4a bd bd e0 f3 3d 1d e1 01 3c
       -0.013712841 -0.049420837 0.119081 0.007927206
0000f0 37 b4 dd 3d 5f de 2e 3b d7 9b 42 bd 82 1d d1 bd
       0.10825389 0.0026682836 -0.0475119 -0.10210706

network.3.weight f4 [128, 64]
000000 dd f8 9a 3d bc af 3d 3d 00 9e c5 3d 4b e1 e4 3d
       0.07566998 0.04631017 0.09649277 0.11175784
000010 8f 70 95 3d 6d 4b 5c bd 2d f2 e6 bd f2 91 3d bd
       0.072968595 -0.05378287 -0.1127666 -0.046281762
000020 3e 3f 94 3d 79 84 0f 3d 7f 78 b3 bd ae 90 c1 bb
       0.07238625 0.035038445 -0.08763217 -0.0059071397
000030 1e 6b e0 bc 04 8d 97 bd c9 af 2c bc cb 8e 03 bd
       -0.027394827 -0.073999435 -0.010539957 -0.0321186
000040 89 d7 a7 3d 6a 28 a7 bd f6 ee bd 3c 16 6c 7a bc
       0.08195407 -0.08162005 0.023185235 -0.015284559
000050 8d 97 41 bc 80 e8 02 bd 33 4d 37 3d 5c 03 df bb
       -0.011815918 -0.03196001 0.044751357 -0.0068058204
000060 d3 25 11 bd 90 b4 1f bd 39 8d 21 3d 39 f5 83 3b
       -0.035436463 -0.038990557 0.03944132 0.0040270356
000070 a1 7e 2d bd ab dc 42 bc 6a 5d c0 3c 61 c1 bf 3d
       -0.04235709 -0.011893432 0.023482043 0.09363056
000080 df 5d 89 bd e9 b8 c8 3d 81 72 1f 3d f2 7d a4 3c
       -0.067073576 0.09800894 0.03892756 0.020079587
000090 ea 70 b6 bd 7e cd bd 3d c6 3e c7 bb 69 ff a8 3d
       -0.089082554 0.0926771 -0.006080481 0.082518406
0000a0 48 a4 dd 3b bd fd b8 bb 94 22 57 3d b0 3a 8f 3c
       0.0067639686 -0.0056454823 0.05252321 0.017484039
0000b0 0b 2c ad 3d e3 e1 a7 bc 40 ec a6 3d 7f c1 38 bd
       0.08455666 -0.020493453 0.0815053 -0.045106407
0000c0 bc 1a 86 bd 1b ce 04 3d 69 d9 84 bd ca e5 af 3d
       -0.06548068 0.03242312 -0.0648678 0.08588751
0000d0 67 ed 65 bd b7 88 84 3d a5 f6 94 3d 26 77 64 bd
       -0.056134608 0.06471389 0.07273606 -0.05577769
0000e0 a6 27 ee 3c be 6b e3 3d 6f b9 8b 3c bf c2 32 3c
       0.02907164 0.111045346 0.017056195 0.010910689
0000f0 5d f4 4b bd 31 fa 6a bd 6f b2 ca bd 40 37 df bc
       -0.04979359 -0.057367507 -0.09897315 -0.027248025
000100 b6 57 a4 3c d1 85 b7 3c 63 3e 68 bd 13 2f 54 bd
       0.020061355 0.022402676 -0.05670012 -0.051802706
000110 37 8e db 3d 99 57 ab 3d 77 69 d0 bc 90 8c 9f 3d
       0.10720485 0.08366317 -0.025440915 0.07790482
000120 c7 bb 0f bd 04 92 78 bd b2 44 2a bd 0f 47 bc 3c
       -0.035091188 -0.060686126 -0.04156942 0.022983102
000130 69 30 76 3d 7f b8 ab 3d 23 00 0d 3b 9f 2f 1d 3d
       0.06010476 0.08384799 0.0021514974 0.038375493
000140 fa 1e 66 bd 83 95 22 3d 56 17 b3 bd 81 42 9e 3d
       -0.056181885 0.039693367 -0.08744685 0.07727528
000150 d7 af ae 3d 0d 5b d7 bd 9f 06 ae bd 2e 96 b5 bd
       0.085296325 -0.105154134 -0.084973566 -0.08866535
000160 7f eb ef bc 10 58 81 3d a6 d8 eb bb c3 37 bf 3b
       -0.029287098 0.06315625 -0.0071974574 0.0058355047
000170 c0 24 4c 3c 6b 73 a1 3d bb b1 38 bc 7b 77 97 3d
       0.012459934 0.07883342 -0.011272843 0.07395836
000180 d2 de 0c 3d ba 84 a5 bc c5 76 61 3a 95 c0 97 bb
       0.034392186 -0.02020489 0.0008600767 -0.004631112
000190 d5 cf 96 3d c3 8b 67 bd 8a f6 c5 bd 98 c2 d7 3c
       0.073638596 -0.05652977 -0.09666164 0.026337907
0001a0 05 4a 13 3d be 9c 95 bd 78 49 8d 3d b3 15 89 3d
       0.035959262 -0.07305287 0.06898779 0.06693592
0001b0 fb cd 35 bd 9d f2 6a 3c 04 90 24 3d 26 3a 6b bd
       -0.04438589 0.01434007 0.040176407 -0.0574285
0001c0 d6 ff 95 bd 5d bf d3 bc 41 b0 a9 bd 73 c0 4c 3c
       -0.073241875 -0.025848085 -0.08285571 0.012497055
0001d0 9c a7 8c 3d a6 18 34 bd c7 c5 70 bd c4 d9 87 3c
       0.068679065 -0.04396882 -0.058782365 0.01658333
0001e0 78 44 9b bd 6e f0 63 bd 61 f4 7f 3d cc d5 1d bd
       -0.07581419 -0.055649213 0.062488917 -0.03853397
0001f0 e4 3c 98 3d 35 5d 3a bd a0 0b 9c 3d 33 20 1d bd
       0.07433489 -0.045499045 0.07619405 -0.038360786
000200 f0 47 fa 3c 9b a8 b1 bc d6 e0 84 bc b1 57 22 3c
       0.03055188 -0.021686843 -0.016220491 0.009908603
000210 50 50 23 bd 79 c6 bf bc 8d 49 7b bd a2 0f 92 bc
       -0.039871514 -0.023410069 -0.06134944 -0.01782972
000220 c1 f4 e6 3c 93 8d bb bc 99 ae 3a bd 3f 13 79 3d
       0.02819288 -0.022894656 -0.045576666 0.06080937
000230 40 53 4f 3d a2 5a 0a bd 02 8a f4 3a 41 74 25 bd
       0.050616503 -0.03377784 0.0018656852 -0.04039407
000240 53 9d 95 bd 57 14 0a 3d a4 47 00 bd ff d9 96 3d
       -0.07305398 0.033710804 -0.03131832 0.07365798
000250 cc 47 c7 3d ac 19 79 bb cd 34 95 3d 48 68 10 bc
       0.09730491 -0.0038009686 0.072854616 -0.008813925
000260 4c 1c db bb ca c6 6e bb 05 1a cf bc 97 3a a1 bc
       -0.006686723 -0.0036434405 -0.025280962 -0.019681258
000270 12 c6 85 b9 aa d3 68 bb 7b c2 8b 3d 2b e1 81 bc
       -0.0002551531 -0.0035526552 0.068242036 -0.015854439
000280 04 36 ac bc 6c 09 1b 3d 39 b4 e9 3b 8c 64 08 3c
       -0.02102185 0.037850782 0.00713208 0.0083247535
000290 45 85 4b 3d a2 58 d9 ba 74 d3 3f bd b8 64 0f bd
       0.049687643 -0.0016582201 -0.046832517 -0.035008162
0002a0 fa 86 3d bb a8 40 b5 3d fc dd b1 bd a3 44 2f 3d
       -0.0028919564 0.08850223 -0.08684918 0.042790066
0002b0 a3 00 87 3c 8f 32 46 3d c9 dc 79 bc 51 c4 f5 3a
       0.016479796 0.04838806 -0.015250393 0.0018750523
0002c0 2f 78 88 bc e3 d1 47 3c 3e ae 46 3c 4f 8b 44 bd
       -0.01665887 0.012196037 0.0121265035 -0.047984418
0002d0 fe c8 38 3d 3e c0 08 3d 3b 18 6b bd 83 54 45 3a
       0.045113556 0.03338646 -0.057396155 0.0007527547
0002e0 ef 79 8b bc c0 9b 5b bc 28 22 8c 3d 76 62 0d 3c
       -0.017025916 -0.013403833 0.06842452 0.008629432
0002f0 2e 09 ad bd db 0c 06 3d 40 22 8d bd f0 c2 b2 38
       -0.084490165 0.032727104 -0.06891298 8.524011e-05
000300 69 55 82 3d 68 74 2c 3c 12 bc 89 3d ca 2f 8a 3c
       0.06363947 0.0105258 0.06725325 0.01686849
000310 18 c8 68 3c 1f 4a 8f 3c 35 91 de 3c 96 ea f7 bc
       0.014207862 0.017491398 0.02716885 -0.030263226
000320 05 08 8f bd 80 d4 32 3c 4b b4 0f bd e3 b6 44 bd
       -0.069839515 0.010914922 -0.03508405 -0.048025977
000330 2b 57 0b 3d 7e fe 5d bd 23 52 f8 bc 29 75 42 3d
       0.034018677 -0.05419778 -0.030312603 0.047475014
000340 ff e4 03 3c a4 b7 4b bd be dd 45 bd cd b3 06 3c
       0.008050202 -0.04973568 -0.048307173 0.008221579
000350 bc 34 e3 3c 91 fe 87 3d ad 13 8c 3d 3a 96 ed 3c
       0.027735107 0.066403516 0.0683969 0.029002298
000360 e9 ed 58 bc 3c 51 cf bd cc 30 1f 3c 2c 0e 22 3d
       -0.013240316 -0.10122916 0.009716224 0.039564297
000370 5d cd e4 3c 76 10 9b 3b 67 32 93 bd 07 70 ec 3b
       0.027929956 0.004732187 -0.07187348 0.007215503
000380 23 5b 8d 3d 92 46 c0 3d 24 2c d3 bc 9c b6 61 3d
       0.069021486 0.0938846 -0.025777884 0.05510579
000390 7b 1f ae 3d 59 ce cf bd ef 89 dd bc 73 58 5f 3c
       0.08502098 -0.101467796 -0.02704331 0.013631928
0003a0 45 d7 49 bc cd c2 19 bd ad e2 b2 3d 54 e3 76 3d
       -0.012319391 -0.037539292 0.08734641 0.06027539
0003b0 27 e0 d7 3b d4 9f ac 3d 27 65 05 3d ec d8 4d bd
       0.0065880003 0.08428922 0.03256717 -0.0502557
0003c0 e6 c1 b6 bd 94 c8 81 3c b6 75 5a 3d c5 d7 1d 3d
       -0.08923702 0.015842713 0.053334914 0.038535852
0003d0 4f b3 35 3d 7a ae 00 3c e4 22 a3 3d ae d4 35 3c
       0.044360455 0.007854098 0.07965639 0.01109807
0003e0 4c 86 dd bc c3 27 2f bd 61 fe a4 3d 8a 0c 16 bc
       -0.027041577 -0.04276253 0.080563314 -0.009158263
0003f0 95 c7 f5 bc a7 fd 80 3c c8 c7 d7 bc 4c 35 8b 3b
       -0.030002395 0.01574595 -0.02634038 0.004248297

network.3.bias f4 [128]
000000 e8 dc 96 3d 05 f2 f6 3d b4 6e c9 bb 84 05 6a 3d
       0.07366353 0.1205788 -0.00614723 0.057134166
000010 7e d8 34 3c d4 0b 56 3d a4 95 0a 3d 51 06 b0 3d
       0.011037944 0.052257374 0.033834115 0.08594955
000020 ca f1 e3 bc 94 c5 f9 bc 0c 6c 2d bd 26 15 d4 3d
       -0.027825255 -0.03048972 -0.04233937 0.10355596
000030 a5 23 cd 3d ad 62 f9 bc 0f 76 95 bc b9 4b 9f 3d
       0.10016564 -0.03044256 -0.018244771 0.07778115
000040 8e c8 a9 3b 2c 08 14 bd 2b 51 e6 3b cc c5 30 3d
       0.0051813787 -0.036140606 0.007028719 0.043157384
000050 78 46 1e bd d6 6b 8d bd 47 a2 8c bd 58 3d ac 3d
       -0.038641423 -0.06905334 -0.068668894 0.08410138
000060 36 3f 23 3d 3f c6 cd bc a1 5e 70 3d 34 96 2e 3d
       0.039855205 -0.025118945 0.058683995 0.042623714
000070 95 ca 9d 3c c9 32 8a 3d 3f 61 3d bd d3 9a a2 bc
       0.019261638 0.06747968 -0.04623532 -0.019849217
000080 b7 68 36 bd ca 1c 0d bc 60 b5 94 bd 1b 06 b2 3d
       -0.044533458 -0.008612821 -0.07261157 0.08692571
000090 69 29 98 3d 06 5b 79 3d 61 1c 9c 3c 83 97 2a bd
       0.07429773 0.060877822 0.0190565 -0.0416484
0000a0 f1 f7 cc bc bd 75 9d bd 29 60 08 3d 33 64 fb 3d
       -0.025020571 -0.076884724 0.03329483 0.12274971
0000b0 c9 56 4a 3d 39 43 97 bb 47 ab 7d bd e1 3c 00 3d
       0.04939917 -0.004616168 -0.06193092 0.03130806
0000c0 d3 07 f5 3d b5 b2 4b bc 63 ab cd 3d d3 f4 9d 3b
       0.11964383 -0.012432744 0.10042455 0.004820445
0000d0 26 8a bc 3b be 52 37 3d 8b 98 fe bc 99 a4 0f bd
       0.0057537733 0.044756643 -0.031078598 -0.035069082
0000e0 a9 ff 8c 3d 31 b0 75 bd 44 1d b2 3c 51 62 1f bd
       0.06884701 -0.059982482 0.02174247 -0.03891212
0000f0 07 62 51 bd e0 c3 7f bd 78 b6 0b bd c0 d9 f5 3c
       -0.051118877 -0.06244266 -0.034109563 0.030011058
000100 ff 8c ae bc 30 00 99 3d aa 3f bb bd 84 1c 49 3d
       -0.021307467 0.07470739 -0.09143002 0.04909946
000110 c6 50 65 bd 79 63 0a 3d e4 bd 75 3d 88 fa 59 3d
       -0.055985235 0.03378627 0.059995547 0.05321744
000120 34 8e 47 bd 61 94 93 3d 99 25 7f bd d2 bf ac bc
       -0.0487196 0.072060354 -0.062291715 -0.02108756
000130 d4 1c 1a bd 6b bf ad bc 5f 54 bd bc 36 54 d5 3d
       -0.03762515 -0.02120944 -0.02311152 0.104164526
000140 30 93 51 bd 02 87 23 3d 03 78 0e bd ff d3 e9 3d
       -0.05116576 0.039923675 -0.03478242 0.11417388
000150 ec a1 88 bd 5e 26 9b 3d 4d 99 1c bd 23 e6 2a 3d
       -0.06671509 0.07575677 -0.038232137 0.04172338
000160 54 05 8b 3d 1a 0e 31 3d dd 1f 90 bd 3b e8 6e 3d
       0.06788126 0.04322634 -0.070373274 0.05832694
000170 94 24 ef bc 99 79 4e ba 81 61 d5 3d e8 36 6c bd
       -0.029192246 -0.0007876396 0.10418988 -0.05766955
000180 56 ec a5 3d 09 af db 3d 53 8e b8 3d d4 bc 92 bd
       0.08101718 0.10726745 0.09011521 -0.07164922
000190 66 80 de 3d 04 ee 1e bd c7 f8 5c bd 2a fc b3 3d
       0.10864334 -0.03880121 -0.05394819 0.08788331
0001a0 5e 12 e7 3d 7e ce 2e 3d f5 61 24 3d 12 b3 a5 3d
       0.112828 0.042677395 0.04013248 0.080907956
0001b0 6b 29 83 3d b7 10 db 3d 95 c1 ad bc c5 63 c3 3d
       0.06404384 0.106965475 -0.021210471 0.09540514
0001c0 cc 16 d4 3c b7 f9 85 3d 1b 93 cc 3d 59 36 a2 3d
       0.025889777 0.0654177 0.09988996 0.07920522
0001d0 81 bc cb 3c c1 c5 ba 3d 9a 09 bc bd c3 22 30 bd
       0.02487016 0.0911975 -0.09181519 -0.0430019
0001e0 3c 0c bc 3d 04 ad 78 bd d9 d6 29 bd 90 5f a7 3d
       0.09182021 -0.060711876 -0.04146466 0.08172524
0001f0 6f 43 e5 3d 8d dd eb 3c f4 ba 0d bd 88 07 76 bd
       0.111945026 0.028792167 -0.03460212 -0.060065776

network.6.weight f4 [64, 128]
000000 dd 45 1a 3d 47 99 da 3c 06 82 1a bd 91 c4 19 bd
       0.037664283 0.026684416 -0.037721656 -0.037540976
000010 0a b4 91 3d 56 dd 51 ba 02 3d 29 3d d2 3d 7a bd
       0.07114418 -0.0008005699 0.041317947 -0.061094113
000020 89 a5 8d 3d 57 28 0c 3c d0 4c e9 bc 64 82 0a 3d
       0.06916339 0.00855454 -0.02847901 0.033815756
000030 17 07 2f bd 68 1b 0b bc 5f ac 0d b9 91 b8 22 bd
       -0.04273137 -0.008490421 -0.00013511021 -0.039726797
000040 ed 28 a5 bc ea d6 7b bd bc da 6d bd 74 73 89 3c
       -0.020161116 -0.061484255 -0.05806993 0.016778685
000050 3e d3 83 bd 13 36 e8 bb f0 20 6f ba f7 7e c9 3b
       -0.064367756 -0.0070865243 -0.00091220345 0.0061491686
000060 7a 94 96 3d 2a 1a 09 bb 9a da 1c 3d 8a 8c 97 bc
       0.073525384 -0.0020920136 0.038294412 -0.018499631
000070 3c ef 2c 3d 1f ad d6 3c b7 6e 7e 3c 07 d7 53 bd
       0.04222034 0.026205597 0.015529326 -0.051718738
000080 4a 7a 8b 3c c4 ec e3 3c cc c3 00 bb 57 bb 6e 3d
       0.017026085 0.02782286 -0.0019647954 0.05828413
000090 a7 22 26 3d 20 1d 67 bd 08 1d 2d bd d3 04 6b 3d
       0.04056039 -0.05642426 -0.042264014 0.057377648
0000a0 f9 c9 04 36 77 44 ac bb a2 43 40 bd 1c 30 ba 3d
       1.9787096e-06 -0.005257185 -0.0469395 0.090912074
0000b0 cf 71 54 bd cd f0 b7 3c b5 41 98 bb 2c 88 63 3c
       -0.05186635 0.02245369 -0.0046465048 0.013887446
0000c0 7e ee fd 3c 66 27 3a bb f5 4c 0e bd 30 57 6e 3c
       0.030997511 -0.002840483 -0.03474136 0.014547154
0000d0 fc 00 a3 bc e7 b6 a0 bc cf ef 1f bc 75 81 c6 3b
       -0.01989793 -0.019618465 -0.009761765 0.006057913
0000e0 b5 70 cb bb 5e ec dc ba ba 06 6a 3a 2b 9c 0d 3c
       -0.006208504 -0.0016855111 0.0008927394 0.00864319
0000f0 15 1c e6 bc ed c7 0b bd 11 d7 84 3a 08 38 da 3b
       -0.028089562 -0.03412621 0.0010134896 0.0066595115
000100 67 bd 6d 37 9c 41 e4 bc f8 5c 3b bd 35 21 45 3d
       1.41703995e-05 -0.027863316 -0.04574296 0.04812737
000110 5c 13 19 3d 9c d5 9a 3d f9 4b 8e 3d 30 f8 f7 3c
       0.03737198 0.07560274 0.069480844 0.030269712
000120 a3 a8 8d bc 3f b6 59 bd 54 74 4e bd a3 02 9b bc
       -0.017292326 -0.05315232 -0.050403908 -0.018922156
000130 44 75 65 3b 9a 49 4b bd 32 bf d8 bc 23 8b 41 3c
       0.0035012523 -0.04963074 -0.026458357 0.011812958
000140 c2 4d 04 3d e4 a1 1d bd 30 69 c9 3b 0d 1f 20 bd
       0.032300718 -0.03848447 0.0061465725 -0.039092112
000150 7b 7f 5a 3d 17 2d ce bc 4a b4 04 b8 9c f6 66 3d
       0.05334423 -0.025167985 -3.163916e-05 0.05638753
000160 26 cf 82 3d 96 25 ea 3c a8 2f 13 bb 50 09 57 bd
       0.06387167 0.028582375 -0.0022458825 -0.052499115
000170 84 7f 01 bd 37 26 3d 3d 93 95 94 bc 2c 39 02 ba
       -0.03161575 0.046179023 -0.018137729 -0.0004967626
000180 7b a2 8b 3d c2 6a 9b 3d 4f 64 84 3d 13 78 0b 3b
       0.068181 0.07588722 0.06464445 0.0021281287
000190 4a 94 ab bc 53 90 ca 3c c2 c2 01 3d 94 c2 c0 3b
       -0.020944733 0.024727022 0.031679876 0.0058825705
0001a0 4f 62 5b 3d 92 95 56 3b d3 9b 52 3d 70 ee e4 bc
       0.05356055 0.003274296 0.051418137 -0.027945727
0001b0 95 64 aa ba 93 7c 7b 3d 8c 2d 4e bd 3a 84 7d 3d
       -0.0012999946 0.0613981 -0.050336406 0.06189368
0001c0 14 0a 58 bd 4b 7f aa bc 37 31 84 bd 87 30 b4 3c
       -0.052743986 -0.020812651 -0.064546995 0.021995796
0001d0 d5 c5 dc bc bd 26 3e bd 34 42 92 bb 44 d8 2c 3d
       -0.026949802 -0.046423662 -0.0044634584 0.042198434
0001e0 53 0f fa 3c 52 e4 19 bd 34 7e f8 3b 96 5e 30 3d
       0.030524885 -0.03757126 0.007583404 0.043058954
0001f0 d4 96 73 3d 68 15 ef bb ca f2 1e 3d 04 2e 9a bc
       0.059470013 -0.007296253 0.03880576 -0.01882077
000200 f9 41 b0 3d c4 c7 37 3d e8 fb 87 3d 57 be b6 3a
       0.08606333 0.044868246 0.06639844 0.0013942224
000210 dd 16 d8 bc d4 39 98 bd 9e 2a 97 3d 08 14 54 bd
       -0.02637809 -0.07432905 0.073811755 -0.051776916
000220 8e f7 38 bb 85 9f 4c 1b 29 5b b9 bc f6 25 b5 bb
       -0.0028223726 1.6926028e-22 -0.022626476 -0.005528207
000230 ad 04 a7 3d 0c a3 85 3d a8 a1 c9 ba ab 89 20 bd
       0.08155189 0.06525239 -0.001538326 -0.03919379
000240 c8 f9 5e 3d 54 d6 aa bc f1 43 df 3c da 1c be 3c
       0.05443743 -0.020854153 0.027254077 0.023207117
000250 87 96 c9 3b 98 72 00 3d 53 47 32 bc 28 18 ce 3c
       0.0061519775 0.031359285 -0.010881263 0.025158003
000260 99 2b 3a 3c 90 4a 3f ba a8 30 51 bd 70 e5 b9 bc
       0.011362934 -0.00072971825 -0.051071793 -0.022692412
000270 c4 f8 61 bc 0a 8a b0 bd dd cb 69 3d 95 cd 4c bc
       -0.0137922205 -0.08620079 0.057079185 -0.012500186
000280 34 a1 11 3d 00 b0 34 bd 6d 87 a8 bc e8 dc 9b 3d
       0.035554126 -0.04411316 -0.020572389 0.07610494
000290 b2 36 26 3d ec 89 15 bd 7a 8b b4 3c b1 07 ac bc
       0.040579505 -0.036508486 0.022039164 -0.020999761
0002a0 df f2 49 39 88 40 de bb 7d 47 6c bd d5 73 8c bd
       0.0001925933 -0.006782595 -0.057685364 -0.06858031
0002b0 c4 01 5e bc 42 2b ed bc 43 f8 af bc 2f b0 40 bd
       -0.013550226 -0.028951291 -0.021480685 -0.04704302
0002c0 5b 6c 88 bd c2 38 8e bd 2b e6 d8 3c 63 82 a8 bd
       -0.06661292 -0.069444194 0.02647694 -0.08227994
0002d0 46 4e e0 3c 9f 6a 9a bd bb 32 8e bd 32 fc ed b8
       0.027381074 -0.075398676 -0.0694327 -0.00011348016
0002e0 20 55 06 3d f2 14 02 3d d0 7e 85 3d ac 11 61 bb
       0.032796025 0.031758256 0.06518328 -0.0034342809
0002f0 8f 76 aa bc 39 42 85 3a d6 f1 a9 3b 2e 6f 0f bd
       -0.020808486 0.0010166831 0.0051863 -0.03501814
000300 7d 7b 0e 3a c1 89 96 bd c4 3a 06 bd 05 8b 80 bc
       0.00054352713 -0.07350493 -0.032770887 -0.01569129
000310 98 06 97 3d 1d 61 16 bd 06 d8 2c bd b6 58 c5 bc
       0.073743045 -0.03671371 -0.042198204 -0.024090152
000320 61 02 bd 3c 0e 5a 23 bd df 84 9c 3d 1d fa cc bb
       0.023072423 -0.039880805 0.07642531 -0.0062554018
000330 64 7c 07 bb 6d 3b db 3c e5 65 40 bd 5e 4d 6d 3d
       -0.0020673508 0.026761735 -0.046972174 0.05793511
000340 74 f0 b8 3c 2a 7d ed 3c 3b 97 66 3d bd 23 1a 3d
       0.022575594 0.028990347 0.05629657 0.03763174
000350 de d9 c5 3c 25 07 af 3d 45 24 de 3a 28 f4 b5 3c
       0.024151739 0.085462846 0.0016948065 0.02221115
000360 86 70 71 3c 0e fd 99 3d 2e 7b e4 bb cc 0c 6f bc
       0.0147363 0.075189695 -0.006972692 -0.014590453
000370 69 f3 1c 3d ae 19 c3 3c d6 c5 6a 3c 8e ca 99 3c
       0.03831807 0.023815956 0.014329394 0.018773343
000380 15 17 8d bc 96 04 f3 3c 79 9e 3a 3d 5d ff ed 3c
       -0.01722292 0.029665273 0.045561288 0.02905243
000390 fe a7 34 bd de 5e 6d 3c ac e3 3f 3d ed 31 3d bc
       -0.044105522 0.01448795 0.046847984 -0.011547548
0003a0 59 60 f9 3b cf 98 8f bd e5 de 8b 3d 24 4a 28 bd
       0.0076103625 -0.07011568 0.06829623 -0.04108633
0003b0 3b fa e9 3c bf e5 86 3c ae 76 82 bc c9 40 3d bd
       0.028561702 0.016466973 -0.015925732 -0.046204362
0003c0 4f 4e 2b ba 3d da 82 3d 8c 19 7f bd 08 2f 89 3d
       -0.0006534801 0.06389282 -0.062280223 0.066984236
0003d0 8d 32 91 bd 06 80 69 bd 10 cd 12 3d e3 0f 58 3d
       -0.0708972 -0.05700686 0.035840094 0.052749526
0003e0 57 f6 0c bd c0 87 b8 bc c7 81 24 bd cc 25 b8 bc
       -0.034414615 -0.022525668 -0.040162828 -0.02247896
0003f0 87 70 97 3d 6a de 4c bd 71 95 4a 3d 6a 92 17 3d
       0.0739451 -0.050016798 0.049458925 0.037004866

network.6.bias f4 [64]
000000 81 17 ec 3c 38 e4 af 3d aa 24 a6 bd 03 8c 4f 3d
       0.028819801 0.08588451 -0.08112462 0.050670635
000010 7b b1 40 bd e1 4f 00 bd 0b 5c 84 bd 43 b2 6e bd
       -0.04704426 -0.03132618 -0.06462868 -0.058275472
000020 2f 42 c0 3c 72 f7 07 bd 45 10 e3 3b 9d 5b 47 bd
       0.023469059 -0.033194967 0.0069294297 -0.048671354
000030 b5 6f 3b bb e9 f8 81 3d db 4f 45 bc 20 47 92 3d
       -0.0028600518 0.06346304 -0.012042965 0.07142472
000040 74 8e 29 3d c7 4d 9a bd 66 7c 84 3d 90 a8 80 bd
       0.04139562 -0.07534366 0.064690396 -0.06282151
000050 19 06 ac 3c 8c ad ac 3d 38 4c 8f 3d 85 35 5c bd
       0.020999001 0.08431539 0.069969594 -0.053761978
000060 a3 47 03 3b e4 56 95 bd 90 93 60 3c 19 52 a9 bd
       0.0020031712 -0.07291964 0.013707057 -0.08267612
000070 05 c8 3f bd de bd b4 3d 0e 8a 0a 3d 05 41 01 3d
       -0.046821613 0.08825277 0.033823065 0.031556148
000080 16 a6 a2 bc 30 34 96 bc db e9 18 bc 27 77 a1 3c
       -0.019854587 -0.018335432 -0.009333099 0.019710137
000090 46 ca be 3c 5b 4d f7 bc 1f ad 2c 3c 6c 10 59 bd
       0.02328981 -0.030188253 0.010539322 -0.052994177
0000a0 d7 b0 a5 3a 7c f7 91 3c 52 3b 85 3d bd e3 aa 3d
       0.0012641203 0.017818205 0.06505455 0.08344219
0000b0 87 ec 3e bd fa ca 0e 3d c7 b5 41 3d c6 a2 a4 bc
       -0.04661229 0.034861542 0.047292497 -0.020097148
0000c0 42 c5 8c bd 38 cd 3e bd 4b 61 e6 bc 75 55 6b bd
       -0.068735614 -0.04658243 -0.028122565 -0.057454545
0000d0 60 88 85 3d 79 2e 13 3c e3 74 22 bd ff 63 a4 3d
       0.06520152 0.008983248 -0.039662253 0.08026885
0000e0 55 fc e2 bb 60 42 e7 3b f4 3f 52 bd 15 e4 53 bc
       -0.006927053 0.007057473 -0.05133052 -0.012932797
0000f0 e8 0c 06 bc f3 f6 97 3c 38 90 bd 3d 32 b1 9e bc
       -0.008181788 0.018550372 0.09256023 -0.019371603

network.9.weight f4 [1, 64]
000000 74 e3 0c bd 9a 3c e4 bd c0 85 bf bd 17 85 d2 3d
       -0.034396604 -0.11144371 -0.09351683 0.10279291
000010 95 56 68 bc da b4 da bc a7 de 8b 3d 68 f5 b6 3d
       -0.014180799 -0.026697565 0.06829577 0.08933526
000020 0b 58 99 bd b6 d2 54 bc 8d 91 ce bd 79 3b 42 3d
       -0.07487496 -0.0129896905 -0.10086355 0.04742
000030 b5 92 74 3d 59 b4 c0 3d 63 f5 64 3d 46 65 e4 bd
       0.059710223 0.094093986 0.05589808 -0.11152129
000040 aa 50 01 3d a1 ee 95 3d 83 77 a8 bd 12 52 d4 bd
       0.031571068 0.073209055 -0.0822592 -0.10367216
000050 71 0b cd bd d0 c7 59 bd 1c 26 20 bd 45 3d 5d 3d
       -0.10011948 -0.05316907 -0.039098844 0.05401351
000060 9e a3 5a bd d2 09 a8 bd 39 80 bf bc 83 ac 5a 3d
       -0.053378694 -0.08204998 -0.023376571 0.053387176
000070 0e 4a 88 bd 0c 9f 86 bd f9 49 c4 3d 58 2e 48 3d
       -0.0665475 -0.065733045 0.09584422 0.04887232
000080 75 01 e4 3c 79 e8 a4 bd 27 57 57 3d 18 b0 b1 3c
       0.027832726 -0.08052153 0.05257335 0.021690413
000090 d1 56 34 bd af fc 06 3d 40 7c ef bd d4 b6 41 3d
       -0.044028107 0.03295582 -0.11693621 0.0472935
0000a0 62 60 98 3c b3 f0 01 be dc 4d fb 3c b8 a0 20 bd
       0.018600646 -0.12689476 0.030676775 -0.039215773
0000b0 89 b8 2e 3d 06 31 d4 bd 92 dc 9c 3b 1a 7d 82 bd
       0.042656455 -0.10360913 0.004787036 -0.063715175
0000c0 70 52 a8 3d ed d4 9b bd df 3c d1 ba a5 4b bd 3c
       0.08218849 -0.07608972 -0.0015963576 0.02310736
0000d0 e6 10 a2 3d dc a3 5a 3c ba 17 d1 3c 62 54 9f 3c
       0.07913379 0.013344731 0.025524009 0.019449417
0000e0 ad 46 c5 b7 07 6b f0 3d bc 2a 1e 3b eb cf d3 ba
       -2.3517141e-05 0.11739164 0.0024134358 -0.0016159987
0000f0 f9 37 3d 3d 96 66 1f bd 49 1d d1 bc 2b f7 ae bd
       0.046195958 -0.038916193 -0.02552666 -0.08543237

exp_avg f4 [64, 45]
000000 9e 01 57 38 a0 5e 14 39 5c db b4 b7 12 f7 0e b9
       5.12615e-05 0.0001414963 -2.155982e-05 -0.00013634216
000010 72 16 76 39 f0 f2 82 38 74 0a 23 b8 4a 86 85 b9
       0.0002346875 6.244134e-05 -3.8871964e-05 -0.0002546779
000020 c1 29 75 b8 f2 7e a8 36 bc bd 2f 39 06 06 21 38
       -5.845144e-05 5.0215685e-06 0.00016759982 3.8391e-05
000030 9f 30 b8 b8 d7 e0 0f b8 14 20 6e b8 96 33 ec b7
       -8.78286e-05 -3.4303255e-05 -5.6773497e-05 -2.8157414e-05
000040 95 3b 15 39 ce 36 15 39 00 f0 fa 37 1a 52 93 b5
       0.00014231943 0.00014230164 2.9914081e-05 -1.0976248e-06
000050 27 49 2c 39 68 b3 1a b9 b8 0d db 38 bc 6b 1c b8
       0.0001643045 -0.00014753419 0.00010445289 -3.7293634e-05
000060 82 7b e9 b7 96 c4 f8 37 45 14 8a 37 7a 4c 91 b8
       -2.7833277e-05 2.9655446e-05 1.646032e-05 -6.928384e-05
000070 9c 53 67 b8 70 99 be 36 dc d2 c9 b8 57 5d 19 39
       -5.515256e-05 5.6803037e-06 -9.6237025e-05 0.00014625989
000080 04 03 8d b8 8c d4 b7 b8 36 28 38 38 74 45 3e b9
       -6.7239656e-05 -8.76571e-05 4.3906468e-05 -0.00018145685
000090 d0 d2 9a 39 4e 7f 5e 39 8a f4 0c 39 03 51 96 b8
       0.00029530236 0.00021218995 0.00013442538 -7.167647e-05
0000a0 4d cf ac 37 d3 dd 05 b9 27 bf ea 37 1d 17 37 39
       2.060053e-05 -0.00012766504 2.7983986e-05 0.0001746085
0000b0 d7 1d 3b 39 b5 f8 ad b8 5e ae ea 39 48 56 09 b8
       0.00017844826 -8.295608e-05 0.00044761872 -3.27437e-05
0000c0 53 ee cb 37 6b f4 42 39 f0 10 80 b8 80 e0 99 37
       2.4310464e-05 0.00018592335 -6.1066705e-05 1.8343562e-05
0000d0 60 e9 44 38 a9 75 db 39 fe df 3d 39 f2 f4 21 b9
       4.694739e-05 0.000418586 0.00018107888 -0.00015445406
0000e0 29 e1 90 b9 b0 01 b4 39 ba b9 b8 37 79 ae dc 39
       -0.00027633578 0.00034333533 2.2020995e-05 0.00042091662
0000f0 70 be 0f b9 4c 4e 2a b9 6e 3f 00 3a d4 64 35 38
       -0.00013708486 -0.00016241631 0.0004892264 4.3247666e-05
000100 65 48 81 39 d4 cf 35 b9 9f 79 9e 3a 1b 4a c6 b8
       0.00024658735 -0.00017338927 0.0012090689 -9.455179e-05
000110 b0 6b fb b8 90 c5 bb b8 19 c5 25 b8 3a 55 87 35
       -0.00011988671 -8.953654e-05 -3.9522627e-05 1.0083088e-06
000120 fe cd bc 39 3b 97 5e b8 90 38 41 b7 bc 35 c2 39
       0.0003601163 -5.306977e-05 -1.1516866e-05 0.000370426
000130 88 aa 85 38 ae 04 fe 38 ec 8e 38 ba a4 da b8 39
       6.373698e-05 0.000121125355 -0.000704034 0.00035258115
000140 f0 c8 80 39 f6 eb fc 39 61 35 ef 39 c8 b0 06 b9
       0.00024563773 0.0004824099 0.00045625403 -0.00012845092
000150 54 fd 9b 38 0a 52 97 b8 c3 db 08 b9 26 41 f8 3a
       7.438162e-05 -7.215522e-05 -0.00013051838 0.0018940314
000160 6a e7 7c 39 a7 e8 e7 b8 c7 8d 03 b7 74 84 a7 38
       0.00024118801 -0.00011058273 -7.841219e-06 7.987852e-05
000170 78 03 83 b9 37 88 32 b9 f4 40 10 39 14 94 42 3a
       -0.00024988852 -0.00017026147 0.00013757107 0.0007422578
000180 82 61 87 38 80 db 33 37 12 39 6c 39 6c 67 29 b9
       6.455464e-05 1.0720338e-05 0.00022527974 -0.00016155624
000190 e7 48 47 39 f1 f0 16 b9 28 ea ef 39 96 59 89 b7
       0.00019005277 -0.00014394872 0.00045760092 -1.637339e-05
0001a0 f7 01 83 38 26 a9 c9 38 4e 17 2a ba 91 ab ba 3a
       6.246933e-05 9.615933e-05 -0.0006488458 0.0014241805
0001b0 e4 dd 23 34 ba c9 d3 38 a1 76 6d b9 44 11 b9 39
       1.5261281e-07 0.000100988385 -0.00022646274 0.00035298814
0001c0 ec cb c0 38 db e0 81 b8 85 4f 49 b7 3a 3e b1 38
       9.193257e-05 -6.193082e-05 -1.1999048e-05 8.451608e-05
0001d0 90 50 2c 34 77 64 c5 b8 c7 61 a8 b7 9c e5 2e 34
       1.6048057e-07 -9.412405e-05 -2.0072692e-05 1.6288544e-07
0001e0 49 c0 a3 39 53 21 44 39 ac e6 56 38 18 c5 89 b7
       0.00031233046 0.00018704431 5.1236406e-05 -1.6423452e-05
0001f0 f6 e4 21 3a c5 88 18 b9 54 e7 b1 38 04 e5 d3 39
       0.00061757804 -0.000145468 8.483106e-05 0.00040415686
000200 6a b0 e4 b7 aa 87 68 3a df e0 ba b9 43 0b 84 39
       -2.7261867e-05 0.0008870313 -0.00035644227 0.00025185393
000210 43 6b 9d 3a ed 61 50 b9 b0 20 1f b9 00 ee b9 b7
       0.0012010116 -0.00019872906 -0.00015175599 -2.2164546e-05
000220 af 57 df 38 90 f1 8c b9 a0 ee 48 b7 b7 b2 70 b7
       0.00010649801 -0.0002688286 -1.1976488e-05 -1.4346725e-05
000230 d7 81 e6 b8 20 d4 72 38 c2 3d 8c b9 54 1f eb 39
       -0.00010991439 5.7894853e-05 -0.00026748894 0.00044846034
000240 8c 7d 7f b8 c2 83 74 37 5d a6 d6 38 90 45 85 39
       -6.0913662e-05 1.4574211e-05 0.00010235303 0.00025419565
000250 ea e1 21 38 84 b0 12 39 06 a4 e3 37 9a 9f 40 ba
       3.859579e-05 0.00013989402 2.7136888e-05 -0.0007348001
000260 d8 8b 62 ba ff 2c 16 38 81 05 9f 39 fe 2c 8a b7
       -0.0008642054 3.5804693e-05 0.00030330944 -1.6471833e-05
000270 7c 46 11 3b 50 ee 93 b8 0c 0c f9 b8 79 0d 34 38
       0.0022167256 -7.0538954e-05 -0.00011875489 4.292789e-05
000280 e8 e4 e8 38 76 d1 6c 36 3f 8c e0 38 00 84 29 b8
       0.00011105259 3.5288663e-06 0.00010707275 -4.0415674e-05
000290 50 be 48 b4 2a a4 ff 39 46 e2 ea b8 22 4d 53 b9
       -1.8695687e-07 0.00048759702 -0.00011200136 -0.00020151262
0002a0 7b 57 91 b9 55 3c be 39 34 16 f8 b8 7f 36 16 b9
       -0.00027721733 0.00036284575 -0.00011829697 -0.00014325416
0002b0 fd be 07 39 00 39 82 39 ea e8 71 3a 88 5e 51 ba
       0.00012945752 0.00024838 0.00092281273 -0.00079868035
0002c0 eb dd 82 ba 03 e3 65 3b 49 4c a5 ba 11 aa a4 ba
       -0.000998435 0.0035077936 -0.0012611236 -0.0012562891
0002d0 98 48 36 b8 1c fd 84 39 a8 55 19 39 04 f7 23 b8
       -4.345979e-05 0.00025365583 0.00014623126 -3.909228e-05
0002e0 af be 91 b9 2c 78 13 39 6f c4 63 b9 18 1b 04 b9
       -0.00027798626 0.0001406378 -0.00021721584 -0.00012598594
0002f0 68 07 aa b8 10 03 83 b9 3c a8 a2 39 8d e7 e4 39
       -8.107611e-05 -0.0002498855 0.00031024392 0.00043660068
000300 26 de dc 38 cb 74 00 b9 9a 1e 80 39 70 8d 61 39
       0.00010531796 -0.0001225054 0.00024436862 0.00021510362
000310 b4 a9 b6 b9 1f 48 74 3a 24 6a 31 b6 25 e6 be 38
       -0.00034840184 0.0009318608 -2.6436837e-06 9.102774e-05
000320 db 7d 0f 39 ea b4 86 37 25 88 af b8 5a 92 c1 38
       0.00013684428 1.605829e-05 -8.370009e-05 9.230217e-05
000330 3d b9 e9 b7 6c 5f 20 38 5f 4a d0 36 a6 dc 8a b7
       -2.7862023e-05 3.823584e-05 6.207541e-06 -1.655363e-05
000340 6f 6b 36 b8 6e dd 19 b7 73 97 b9 38 65 20 7a b9
       -4.3492237e-05 -9.171066e-06 8.849697e-05 -0.00023853926
000350 b2 bd 0d 39 08 f1 85 b8 70 0c 09 3a 6e db 21 b8
       0.00013517475 -6.38683e-05 0.00052279886 -3.858975e-05
000360 62 6f d8 b8 a8 8d de 39 f7 a4 2c 38 be c0 dd b9
       -0.00010320429 0.00042448682 4.116163e-05 -0.0004229601
000370 14 56 13 3a d7 93 22 b8 32 af 57 3a f1 d4 06 3a
       0.00056204316 -3.8761496e-05 0.0008227705 0.0005143425
000380 7b 1a 18 ba d3 d1 6c b8 06 92 fb b7 76 ba fe 36
       -0.0005802286 -5.64622e-05 -2.998953e-05 7.591497e-06
000390 8f b3 32 b9 fc 98 04 3a ae 18 8b b9 c1 64 2a b8
       -0.00017042294 0.0005058197 -0.00026530534 -4.0624993e-05
0003a0 32 a0 c7 b9 4c 30 27 39 84 10 3b 3a 4f 62 58 b9
       -0.00038075593 0.00015944353 0.0007135945 -0.00020635988
0003b0 8d 5e 30 38 6e a3 1e b8 8a 8c 47 b9 4e ba fc 38
       4.2049727e-05 -3.782234e-05 -0.00019030474 0.00012050998
0003c0 21 72 cd b8 d4 3d 09 3a 4c 41 ea b9 64 50 9c 34
       -9.79642e-05 0.00052353484 -0.00044680608 2.9115756e-07
0003d0 55 86 18 39 89 e9 5e 38 84 ef 22 38 dd 83 b4 b8
       0.00014545892 5.314642e-05 3.8846876e-05 -8.60763e-05
0003e0 5d ff 7c b8 6d cd 98 b8 d0 aa 32 37 40 58 32 37
       -6.0319308e-05 -7.286188e-05 1.0649397e-05 1.0630174e-05
0003f0 7b f2 23 38 c9 19 17 b8 08 a4 d0 34 06 25 b8 38
       3.9088056e-05 -3.602522e-05 3.8862368e-07 8.7807e-05

exp_avg_sq f4 [64, 45]
000000 9e 28 c6 34 b0 5a b9 34 af 6a 8d 34 27 4f a1 33
       3.6909927e-07 3.452492e-07 2.634092e-07 7.5115445e-08
000010 9a c5 a6 34 19 eb 96 34 f7 74 f7 34 e9 56 5a 34
       3.1063684e-07 2.8110733e-07 4.6092438e-07 2.033445e-07
000020 b8 80 81 34 36 7b 88 34 38 f6 b0 34 8c 86 83 34
       2.4121778e-07 2.5421622e-07 3.2961702e-07 2.4498547e-07
000030 36 c3 36 33 0a 50 de 33 83 47 fe 33 ff 5b aa 33
       4.255272e-08 1.03522396e-07 1.18408046e-07 7.932976e-08
000040 b3 a2 b0 35 44 02 3f 36 56 66 1a 31 57 a9 d0 33
       1.3160374e-06 2.8462537e-06 2.246812e-09 9.7165575e-08
000050 1a d8 73 34 ed df 24 34 11 0f f7 33 03 1e 1e 33
       2.2709756e-07 1.5355154e-07 1.15045744e-07 3.6814537e-08
000060 ce 57 f0 31 f0 ed a7 32 01 00 9e 30 be 43 22 33
       6.9949015e-09 1.954956e-08 1.1496014e-09 3.7780175e-08
000070 01 b7 07 33 1d c8 00 30 9d ae 8c 34 52 85 ad 34
       3.1598578e-08 4.6850507e-10 2.620408e-07 3.2320764e-07
000080 d5 03 19 35 63 1f e9 34 c5 2c bf 34 48 19 93 34
       5.700252e-07 4.342247e-07 3.5609096e-07 2.7399278e-07
000090 54 24 79 34 19 25 45 35 ad a3 a3 35 93 da 16 36
       2.3203148e-07 7.3442203e-07 1.2192082e-06 2.2478969e-06
0000a0 ae 56 3d 35 66 1d c9 35 90 87 c3 34 2d b2 ed 35
       7.053412e-07 1.4984223e-06 3.6420215e-07 1.7709732e-06
0000b0 a3 89 34 35 af ae 0d 36 d9 71 09 36 5e bd c6 35
       6.7255513e-07 2.1112317e-06 2.048086e-06 1.4807263e-06
0000c0 54 ab 4b 35 95 65 df 35 10 d1 37 36 96 fd d8 35
       7.587271e-07 1.6644359e-06 2.7390815e-06 1.6167057e-06
0000d0 f7 74 10 36 64 aa 1e 36 ad 05 e1 36 5a a7 7d 35
       2.1525755e-06 2.3643015e-06 6.7061833e-06 9.4493373e-07
0000e0 eb 02 b4 35 68 8b 67 35 3d 67 9e 35 aa 5e aa 35
       1.3411894e-06 8.625707e-07 1.1801964e-06 1.2693538e-06
0000f0 5d 69 dc 34 9f f9 29 37 d0 31 83 37 b6 c1 76 31
       4.1054855e-07 1.0131304e-05 1.5639613e-05 3.5907823e-09
000100 86 18 b1 35 61 b7 25 35 da c2 ee 35 7d 73 45 35
       1.3194665e-06 6.173414e-07 1.7789091e-06 7.3556276e-07
000110 d2 1e a3 34 18 15 e5 33 25 f1 15 34 8a de 20 2f
       3.038354e-07 1.06674804e-07 1.3964434e-07 1.4630977e-10
000120 2e 31 18 35 51 93 7b 34 36 3c 87 30 9c 62 e1 35
       5.669598e-07 2.342979e-07 9.839656e-10 1.6792505e-06
000130 9a 64 c8 35 78 75 c0 36 38 46 8a 36 6b 89 f4 35
       1.493044e-06 5.735721e-06 4.120895e-06 1.821941e-06
000140 33 18 48 36 9a 24 c5 35 69 04 5a 36 3e 55 aa 34
       2.9816408e-06 1.4688296e-06 3.2487098e-06 3.172699e-07
000150 0f b3 2b 37 04 4e 33 37 f2 e2 4c 37 3b b3 0d 37
       1.0234085e-05 1.0687396e-05 1.2212187e-05 8.445985e-06
000160 50 24 ad 37 79 ad ec 35 87 c5 f5 35 79 ac 82 35
       2.0640116e-05 1.7633857e-06 1.831141e-06 9.735951e-07
000170 6b fc a6 35 ee 1c d1 34 2e 2a 0e 36 09 93 3b 36
       1.2441427e-06 3.8950333e-07 2.11842e-06 2.7950757e-06
000180 bf d5 98 35 84 12 1e 36 fa bd 7a 35 54 9d 50 36
       1.1387091e-06 2.3554612e-06 9.340871e-07 3.1085992e-06
000190 33 58 93 35 12 7b b1 35 71 5b 10 35 c6 24 d5 34
       1.0978023e-06 1.3223346e-06 5.3777245e-07 3.9701098e-07
0001a0 ac 19 16 35 eb 03 b4 34 39 c8 cc 36 02 21 4c 37
       5.591671e-07 3.3530463e-07 6.1029828e-06 1.2167033e-05
0001b0 da 5a 22 2f 7a 22 19 35 6a 6b 46 35 2c 4f b3 35
       1.4766091e-10 5.704711e-07 7.3917056e-07 1.3359581e-06
0001c0 7f bb 18 35 a3 5b 88 34 0b 0f 48 33 90 4e 14 34
       5.6897255e-07 2.5398649e-07 4.657981e-08 1.3812155e-07
0001d0 1e 58 1e 2f ce cf 4c 34 42 2a 41 34 2e e9 1c 2f
       1.4401322e-10 1.907458e-07 1.7989899e-07 1.427096e-10
0001e0 46 81 e2 35 ac fc 9e 35 5d c9 64 36 7c 74 1b 36
       1.6875936e-06 1.1845455e-06 3.4091856e-06 2.3164603e-06
0001f0 65 25 05 36 f4 56 f5 35 e1 f4 80 35 b3 c2 22 36
       1.984031e-06 1.8279229e-06 9.608012e-07 2.425321e-06
000200 5e ae fa 36 64 5a 2f 37 a5 6c 6e 36 39 83 cf 36
       7.4708796e-06 1.04518585e-05 3.5528003e-06 6.184357e-06
000210 14 50 3d 36 f8 a0 c7 36 13 cc 01 37 1a bf 2c 36
       2.8209806e-06 5.9494014e-06 7.736514e-06 2.5741233e-06
000220 86 e8 92 35 f0 0e 31 35 34 ac 29 35 dc b2 89 35
       1.0945521e-06 6.5959375e-07 6.3207995e-07 1.025935e-06
000230 ce 86 34 35 d6 cc 35 36 0f 39 65 36 e4 ca ee 35
       6.725139e-07 2.7090332e-06 3.4156872e-06 1.7791431e-06
000240 04 af b2 35 31 54 2d 35 04 33 87 35 77 1d 78 35
       1.331297e-06 6.4570037e-07 1.0073131e-06 9.2430076e-07
000250 a6 cc 34 35 01 30 40 35 87 3d 2c 35 3e 7e 0a 37
       6.735303e-07 7.159543e-07 6.416453e-07 8.254834e-06
000260 9d 44 2c 37 a5 2a 4f 31 e9 44 3e 35 03 27 79 35
       1.0267974e-05 3.0146705e-09 7.0880793e-07 9.28165e-07
000270 3f 83 61 36 19 2f 04 35 3b 7d a6 34 20 f2 28 33
       3.3604008e-06 4.924237e-07 3.1011027e-07 3.933576e-08
000280 d9 90 d5 33 3f da 09 30 aa 72 04 35 aa 9a 1a 34
       9.944933e-08 5.0150456e-10 4.934069e-07 1.4398634e-07
000290 7a 71 8c 2f ea 38 bf 35 cc f1 89 35 77 d0 7c 36
       2.5546482e-10 1.4247173e-06 1.0277668e-06 3.7672269e-06
0002a0 96 db 61 36 6e 31 eb 35 af 15 22 36 01 c6 59 35
       3.3655429e-06 1.752325e-06 2.4152503e-06 8.1126933e-07
0002b0 c6 11 42 36 a6 1b 89 36 46 34 40 37 6c 1a ed 35
       2.8918598e-06 4.086137e-06 1.1456263e-05 1.7665566e-06
0002c0 b0 e7 42 36 df d9 d8 36 91 ec ed 36 72 29 87 37
       2.9043113e-06 6.462665e-06 7.0906904e-06 1.6112554e-05
0002d0 1a 4c 51 36 21 92 d3 35 a9 db fd 35 20 59 15 35
       3.1187724e-06 1.5763254e-06 1.8913898e-06 5.563652e-07
0002e0 c4 10 1f 36 56 ea ee 35 5f 3b bc 35 70 74 46 36
       2.3702605e-06 1.7800583e-06 1.4024371e-06 2.9572075e-06
0002f0 c4 ef 4f 35 ed 64 8d 36 a8 e1 d3 35 bd e1 48 36
       7.7462414e-07 4.2138768e-06 1.57864e-06 2.993372e-06
000300 61 36 0a 35 99 f0 dc 34 0c 17 5b 35 12 64 d4 34
       5.148814e-07 4.115325e-07 8.1617395e-07 3.9560888e-07
000310 5c f6 10 37 aa 77 5c 37 82 35 4f 2f 7a 36 66 35
       8.640429e-06 1.3140883e-05 1.884555e-10 8.576095e-07
000320 6c ae a5 35 1d d2 28 36 8c ab 66 35 e3 d9 c5 34
       1.2344221e-06 2.5156253e-06 8.593131e-07 3.6852643e-07
000330 0d 1e 8a 33 2b 28 3a 34 c2 5c 55 30 5d f8 f4 34
       6.431592e-08 1.7337213e-07 7.7620765e-10 4.562925e-07
000340 25 a5 7d 34 25 61 32 30 b7 a9 06 36 3b a3 b6 35
       2.362254e-07 6.4894073e-10 2.0066343e-06 1.3607563e-06
000350 cb d2 b1 36 5d 2d 6b 36 87 09 4c 36 8e a3 17 36
       5.2995506e-06 3.5044134e-06 3.0403914e-06 2.2595955e-06
000360 ed cb 9b 35 67 ee 53 36 ad c1 20 37 ae ae 2d 37
       1.160775e-06 3.1580219e-06 9.581837e-06 1.0352274e-05
000370 9a 8d eb 36 34 09 fa 36 d6 8b b0 36 82 cf c0 36
       7.0200304e-06 7.451652e-06 5.261488e-06 5.746203e-06
000380 35 cd 5c 37 5b 0f 87 35 c7 d8 23 35 15 56 da 34
       1.31608e-05 1.0062753e-06 6.1037684e-07 4.0668297e-07
000390 81 9e 6e 34 61 14 f1 34 b0 ad 4f 35 78 f0 c0 34
       2.222314e-07 4.4904576e-07 7.736626e-07 3.593775e-07
0003a0 fd 0f b7 35 71 f0 e7 34 84 ea af 35 0f ce 50 35
       1.3639216e-06 4.3202047e-07 1.3106769e-06 7.7785893e-07
0003b0 bb 7b 89 35 bf 88 c0 34 43 56 bb 34 f2 c0 fd 34
       1.0243306e-06 3.5862283e-07 3.4894228e-07 4.7265308e-07
0003c0 d9 59 60 34 4e f6 86 36 61 12 9f 36 c8 cc aa 2e
       2.0894312e-07 4.022185e-06 4.740709e-06 7.7670814e-11
0003d0 f8 c0 ff 34 50 58 7f 34 1c 61 b1 35 61 5e 96 34
       4.7637855e-07 2.3780854e-07 1.321579e-06 2.8008347e-07
0003e0 e8 f3 01 34 a0 04 e2 32 0f 48 8d 33 59 a4 59 30
       1.2102794e-07 2.6311966e-08 6.5789315e-08 7.917769e-10
0003f0 a7 de 58 34 93 a0 dc 33 a9 c0 18 2f 43 2f 59 35
       2.0197568e-07 1.02737566e-07 1.3892766e-10 8.0907574e-07

exp_avg f4 [64]
000000 94 ee ae 39 58 d4 d7 3a b1 77 a7 3a c8 40 d0 39
       0.0003336562 0.0016466482 0.001277676 0.00039721117
000010 05 55 58 3a 20 f4 7b 38 ae c3 9f 3a c8 dd 5d ba
       0.0008252415 6.0070422e-05 0.0012189054 -0.0008463529
000020 e5 af 68 ba ca 44 3d 3a 1d f5 ed 39 f4 0f 72 39
       -0.0008876308 0.0007220028 0.00045386786 0.00023084861
000030 3a 6f 43 ba e8 3c 51 ba 46 16 02 b8 3c b3 63 ba
       -0.0007455234 -0.0007981793 -3.101516e-05 -0.0008686071
000040 40 cb 6f 3a 88 0f 5a bb 6f 11 05 ba 5a f6 0e 3a
       0.0009147413 -0.0033273418 -0.0005076145 0.00054535794
000050 6f f6 cc ba 67 ef 12 3b 12 7e 82 b9 60 4f a8 3b
       -0.0015637408 0.0022420527 -0.00024889462 0.0051364154
000060 3e 92 96 ba 5f 5d be 39 bf c5 bd b9 2d f8 91 3a
       -0.0011487675 0.0003630919 -0.00036196221 0.0011136584
000070 57 fa ca 39 0a cd ea 39 af 1e ee ba 3b 32 19 ba
       0.0003871496 0.00044784724 -0.0018167103 -0.0005843972
000080 f2 55 ea 3a 22 cd 77 3b 0c 28 54 39 24 7a 99 3a
       0.0017878397 0.0037811478 0.00020232814 0.0011709374
000090 d2 ad 8d b8 78 e5 ce 38 fe 11 98 3a e0 c1 15 b9
       -6.7557805e-05 9.865587e-05 0.0011602042 -0.00014281971
0000a0 78 a2 2c b8 bf 64 77 3a a8 a1 3c 3b c8 0b 87 b8
       -4.1159306e-05 0.00094373146 0.0028782878 -6.439496e-05
0000b0 35 3b 0a bb 34 c8 6d 3b f4 1f 12 3a 84 96 82 3b
       -0.002109242 0.003628266 0.00055742194 0.003985228
0000c0 b6 21 d5 3a e2 42 91 b9 ed 7a 20 3a eb d0 24 3b
       0.0016260657 -0.00027706387 0.0006121833 0.002514894
0000d0 d1 e9 d5 b9 0b 69 3c ba cd 66 cd 39 b0 79 57 b8
       -0.00040800733 -0.00071872835 0.0003917724 -5.1373325e-05
0000e0 e8 6c 42 39 49 1c d5 39 20 fe 6b b8 64 01 de ba
       0.00018541852 0.000406476 -5.626504e-05 -0.001693767
0000f0 7c c2 f7 b8 c9 76 81 bb 77 d0 3e ba 25 c3 ef 39
       -0.00011814103 -0.003950928 -0.00072789885 0.00045731026

exp_avg_sq f4 [64]
000000 5d 38 16 37 c1 38 86 38 30 d3 38 38 45 91 4f 38
       8.95382e-06 6.400189e-05 4.4065702e-05 4.948794e-05
000010 7e a3 73 38 b0 95 b7 37 33 87 c5 37 8e c9 88 36
       5.808798e-05 2.1885004e-05 2.3547187e-05 4.07658e-06
000020 d9 25 d3 36 43 78 94 38 0a 23 bc 36 25 1b e9 37
       6.292696e-06 7.0795904e-05 5.6069157e-06 2.7788405e-05
000030 4a da 98 36 05 21 33 38 15 38 cc 34 11 3a 0f 37
       4.555365e-06 4.2707677e-05 3.8038766e-07 8.536984e-06
000040 d4 5d 92 37 75 64 da 38 c1 d9 e6 36 29 fa 8c 37
       1.7448248e-05 0.000104137616 6.879884e-06 1.680579e-05
000050 f4 84 98 38 e2 51 ea 38 a4 7b 69 37 aa a8 87 38
       7.272689e-05 0.000111732414 1.391667e-05 6.468718e-05
000060 27 cb 3b 37 f5 a0 71 38 6a 3c 12 36 52 db fb 37
       1.1193369e-05 5.760878e-05 2.179086e-06 3.002366e-05
000070 b7 f4 b5 37 a2 76 d8 36 45 be a0 38 35 66 96 37
       2.1690836e-05 6.4511123e-06 7.664835e-05 1.7928987e-05
000080 85 09 e7 36 a1 fb 35 39 37 1f b4 35 f2 8e b8 37
       6.8854447e-06 0.00017355244 1.342013e-06 2.2001073e-05
000090 24 27 e3 37 ab 6f 45 37 b3 70 68 38 3a 27 89 38
       2.7078735e-05 1.1768115e-05 5.541807e-05 6.5399756e-05
0000a0 ee 52 0e 36 39 44 02 38 40 4a dc 38 96 47 08 38
       2.120792e-06 3.1057953e-05 0.000105042476 3.2491596e-05
0000b0 aa a7 3d 38 9a fe a5 37 6a b0 72 37 b0 43 0d 39
       4.521726e-05 1.978809e-05 1.4465399e-05 0.00013472023
0000c0 36 e3 65 38 f7 3d c5 35 6e 31 c0 38 ea f9 32 37
       5.480946e-05 1.4695678e-06 9.1644804e-05 1.0667814e-05
0000d0 06 00 51 36 25 58 c8 36 60 37 93 37 dc 06 96 34
       3.114344e-06 5.970726e-06 1.7549552e-05 2.7944668e-07
0000e0 80 5f 6d 38 5c a0 a6 37 a8 b1 96 37 6a 37 0d 38
       5.6594145e-05 1.9863415e-05 1.7964121e-05 3.3668628e-05
0000f0 cc 01 28 38 23 9e c8 37 c1 fb 98 38 d1 4e 22 37
       4.0055995e-05 2.3915496e-05 7.2948176e-05 9.674303e-06
