data/models/regression_models/ML_including_industry_feature/single_dimension/having_news/version_best/checkpoints/epoch=59-step=1860.ckpt (torch, 548043 bytes, 15 tensors)

network.0.weight f4 [256, 45]
0	0x3d5eb0c0	0.05436778
1	0x3bbf0624	0.0058295894
2	0x3cd1e8e0	0.025623739
3	0x3dccf694	0.100079685
4	0xbdaf3a02	-0.08555986
5	0x3cd199ed	0.025586093
6	0x3c5caebc	0.013469394
7	0x3d5bb8a0	0.05364287
8	0xbde6aa0e	-0.11262904
9	0xbdcdf0d4	-0.100557
10	0x3d48185e	0.048851363
11	0x3d27fe44	0.04101397
12	0xbd415117	-0.047196474
13	0x3c7195f3	0.014745223
14	0x3dc9239f	0.09821247
15	0x3c953dcb	0.018217942
16	0xbdf89902	-0.12138559
17	0xbdcc940d	-0.09989176
18	0xbd06d685	-0.032919426
19	0x3de72dc8	0.11288029
20	0x3ad45ad2	0.0016201383
21	0xbd0c0d1a	-0.034192182
22	0x3d057fe8	0.032592684
23	0xbcd3a63f	-0.025836108
24	0x3bd54bed	0.006509295
25	0x3da9f5af	0.082988136
26	0xb8e8d4f7	-0.0001110229
27	0x3d9c6f76	0.07638447
28	0x3cdee501	0.027208807
29	0xb97f2331	-0.00024331805
30	0xbd160397	-0.036624517
31	0x3dbd8cb9	0.09255356
32	0xbd6424ea	-0.055699266
33	0x3a67875d	0.00088321214
34	0x3cb6d142	0.022316579
35	0x3bece40a	0.007229333
36	0xbba2b706	-0.0049656658
37	0xbd535095	-0.05159052
38	0xbcf476e7	-0.029841853
39	0x3da4f911	0.08055318
40	0x3d343c17	0.04400262
41	0xbdaf94ad	-0.085732795
42	0x3ddf20e8	0.10894948
43	0x3e0ba05b	0.1363539
44	0x3cf951ff	0.030434607
45	0xbd158715	-0.036505777
46	0x3df5aed4	0.119962364
47	0xbbfe42b8	-0.0077594183
48	0x3da63ff4	0.08117667
49	0xbcc7697a	-0.024342287
50	0xbdab7042	-0.08371021
51	0xbdfc54df	-0.123208754
52	0xbdfe0f76	-0.12405293
53	0xbc6d16b0	-0.014470741
54	0xbce7f250	-0.028313786
55	0xbdbe9b82	-0.093070045
56	0xbd99a4c0	-0.07502127
57	0xbd3f257a	-0.0466666
58	0x3d72c700	0.059271812
59	0x3ceeab2e	0.02913436
60	0x3d0acd4f	0.033887204
61	0x3d499cf0	0.049221933
62	0x3e0950d2	0.13409737
63	0xb8d93513	-0.00010357252
64	0x3d3144d8	0.043278545
65	0x3dbb6d2c	0.09151682
66	0x3d4e006c	0.05029337
67	0x3d3457eb	0.044029158
68	0x3d75c9d0	0.060006917
69	0x3a705f6a	0.0009169491
70	0x3d07540f	0.03303915
71	0x3bec9ae8	0.0072206147
72	0x3daa4a7b	0.08314987
73	0x3bc5739c	0.0060257446
74	0xb8b4eb2e	-8.6268745e-05
75	0x3dc30d54	0.095240265
76	0x3d93903b	0.07205244
77	0xbd85cf14	-0.06533638
78	0x3db91bf8	0.09038538
79	0xbcdd76a6	-0.027034115
80	0xbd421bfa	-0.04738996
81	0xbda3f7e2	-0.08006264
82	0x3e1712ac	0.14753217
83	0x3c3aa049	0.011390754
84	0xbc4b06eb	-0.012391786
85	0xbdd436ce	-0.10362016
86	0xbc55a209	-0.0130391205
87	0x3c542f37	0.01295071
88	0xbdc77535	-0.09739152
89	0xbd83acab	-0.06429418
90	0xbc9b53f9	-0.01896094
91	0xbd4759c5	-0.048669595
92	0xbb6f9a15	-0.0036560346
93	0xbd82a199	-0.063784786
94	0xbcd23ef8	-0.025664791
95	0xbd92b348	-0.071631014
96	0xbc313af6	-0.01081728
97	0x3d12d6d2	0.0358494
98	0x3de36d87	0.11104875
99	0xbdb0aa7c	-0.08626267
100	0xbddc8121	-0.10766817
101	0x3dc4e2b6	0.09613554
102	0x3cea88b3	0.028629636
103	0x3d86f394	0.065894276
104	0xbc4d6622	-0.012536557
105	0xbbf9120e	-0.0076010292
106	0x3dd524fb	0.10407444
107	0x3bfe7387	0.007765237
108	0xb90c6bea	-0.00013391642
109	0xbbb19973	-0.005419904
110	0xbda752ba	-0.08170076
111	0xbd99c1a4	-0.07507637
112	0xba6aad01	-0.0008952171
113	0x3c9df4c5	0.019281754
114	0x3c6007b1	0.013673709
115	0x3cb8a2c0	0.022538543
116	0xb90b6952	-0.00013295308
117	0xbd1888e4	-0.037239924
118	0xb9a77ab8	-0.00031944155
119	0x3ac4a3f9	0.0015002481
120	0xbd6a0650	-0.057134926
121	0xbca862e2	-0.020554963
122	0xbd1d1033	-0.038345527
123	0x3d96d92d	0.07365642
124	0x3dbd3a43	0.09239628
125	0x3df99b0f	0.12187778
126	0xbd88e7e3	-0.06684854
127	0x3da34748	0.0797258
128	0xbda519ca	-0.080615595
129	0xbca6fd27	-0.020384384
130	0xbdeb537b	-0.11490532
131	0xbc7d498b	-0.015459429
132	0xbd7b261f	-0.061315652
133	0x3d031b8b	0.03200869
134	0xbdc3b8ef	-0.09556758
135	0x3dd3e353	0.10346093
136	0xbda5572e	-0.08073269
137	0x3d145a1f	0.03621876
138	0x3dae7ee7	0.085202985
139	0x3dd38646	0.10328345
140	0x3c1294aa	0.008946577
141	0xbdbd1a42	-0.09233524
142	0xbdce4c11	-0.10073102
143	0xbd240375	-0.04004236
144	0xbde3970b	-0.111127935
145	0xbda986bd	-0.082776524
146	0x3d3d22ee	0.04617589
147	0xbdac3539	-0.08408589
148	0x3d6c414f	0.05767947
149	0xbdb45fa1	-0.08807302
150	0xbd84c9b5	-0.06483785
151	0xbde7d0a1	-0.1131909
152	0x3dd3f4f2	0.10349454
153	0xba868b94	-0.0010264986
154	0x3cd28a69	0.025700765
155	0x3bcc80d1	0.006240942
156	0xbd8ba586	-0.068186805
157	0x3deb0274	0.11475077
158	0x3c49b5e9	0.012311437
159	0x3ab1c089	0.0013561408
160	0x3da86033	0.082214735
161	0xba8716ac	-0.0010306439
162	0x3da4fbad	0.08055816
163	0x3d5c7d48	0.053830415
164	0xba8587ee	-0.0010187605
165	0x3dd08657	0.10181873
166	0xbde5c526	-0.11219244
167	0x3daba38d	0.08380804
168	0x3dbc4e71	0.09194649
169	0x3da8dadc	0.08244869
170	0xbdf84b1f	-0.12123703
171	0x3de86ea8	0.11349231
172	0x3d412f75	0.0471644
173	0x3de6afe7	0.112640195
174	0x3de7977e	0.11308192
175	0x3d53625a	0.051607467
176	0xbdd5311c	-0.104097575
177	0xbdf25db0	-0.11834276
178	0xbd5234e5	-0.051319975
179	0x3b38746b	0.0028145562
180	0x3d358e40	0.044325113
181	0x3c068417	0.008210204
182	0x3db127df	0.08650183
183	0xbd7f5b13	-0.062342715
184	0x3cae2b47	0.02126087
185	0xbbcce073	-0.0062523424
186	0xba98cbb6	-0.001165739
187	0x3d1ae797	0.037818518
188	0x3ae28624	0.0017282409
189	0x3defc9a8	0.11708385
190	0x3c22c1f7	0.00993394
191	0xbd8bc4ed	-0.0682467
192	0xbcd7c10d	-0.026337171
193	0xbcdcd045	-0.02695478
194	0x3dc4668e	0.09589873
195	0xbcb8159f	-0.022471247
196	0x3d0b5215	0.034013826
197	0x3d3f635d	0.04672562
198	0x39a50970	0.00031478284
199	0x3b6169e3	0.0034395389
200	0x3dda509f	0.106599085
201	0xbd6ec733	-0.05829544
202	0xbd0faafb	-0.03507517
203	0x3c63c7eb	0.013902645
204	0x3d12e527	0.035863068
205	0x3c663ab6	0.014052084
206	0x39969ea9	0.0002872844
207	0x3cd38f41	0.025825145
208	0xbaed3b9d	-0.0018099431
209	0x399c1d67	0.00029776545
210	0x3abcf660	0.0014416687
211	0x3d87cd48	0.06630951
212	0xbdd3ce2f	-0.10342061
213	0x3d35c584	0.04437782
214	0xbd51729f	-0.0511347
215	0x3d11f6e9	0.035635862
216	0xbd9a64a4	-0.07538727
217	0x3de916e8	0.11381322
218	0x3cc6cf27	0.0242687
219	0xbc0ed125	-0.008716856
220	0xbd6ee65e	-0.058325164
221	0xbc339427	-0.010960615
222	0x3e0ef799	0.13961639
223	0xbc0f1d6d	-0.008735043
224	0x3baf2f73	0.0053462326
225	0xbc426f4c	-0.011867356
226	0x3d3bfada	0.045893528
227	0xbd2a3b80	-0.04156065
228	0xbd6a5e3a	-0.057218768
229	0x3d90d2e2	0.07071473
230	0x3c96fce7	0.01843114
231	0xbd687d77	-0.056760278
232	0xbd51c2e4	-0.051211253
233	0xbd31b03d	-0.043380965
234	0x3def8c32	0.11696662
235	0xbd6ee049	-0.058319364
236	0xbda99590	-0.0828048
237	0x3dbeb7fa	0.093124345
238	0x3ca35943	0.019940024
239	0xbc824658	-0.015902683
240	0xbd779295	-0.060442526
241	0x3dea7e6f	0.114498965
242	0x3d73fe4b	0.059568685
243	0xba249aae	-0.00062791526
244	0x3d29aecb	0.04142646
245	0x3d87b686	0.066266105
246	0x3b2ac21e	0.0026055644
247	0x3d1b2332	0.03787536
248	0xbd4a8830	-0.049446285
249	0x3cd5336c	0.026025496
250	0x3a957255	0.0011401871
251	0xba28b79b	-0.0006436051
252	0xbbb69bb1	-0.005572759
253	0x3cf9fb3e	0.03051531
254	0x3a1d9359	0.0006011031
255	0xbd224e60	-0.039625525

network.0.bias f4 [256]
0	0xbc8cd95c	-0.017193489
1	0xbd95f26f	-0.07321631
2	0xbcbe2f9b	-0.02321606
3	0xbcc12e81	-0.023581745
4	0xbdfa8088	-0.12231547
5	0x3bb72e58	0.0055902414
6	0x3d31bcdd	0.043393005
7	0xbdf42ea7	-0.11922961
8	0x3ad5db49	0.0016315962
9	0x3d95725e	0.072972044
10	0x3d2acb69	0.041697893
11	0xbcd7b889	-0.02633311
12	0x3da9d60e	0.08292781
13	0xbd705ba4	-0.058681145
14	0xbd1243a2	-0.03570903
15	0x3d8a27c8	0.06745869
16	0x3dbcaf85	0.09213165
17	0xbdf7a7ac	-0.12092528
18	0xbcaa6539	-0.02080022
19	0xbda01b29	-0.078176804
20	0xbd0d7756	-0.034537636
21	0xbdd1c7a7	-0.10243159
22	0x3dab48f4	0.08363524
23	0xbda36b1f	-0.07979416
24	0xbd8d67e0	-0.06904578
25	0x3db20e38	0.08694118
26	0x3de5bab2	0.1121725
27	0x3cd7713f	0.026299117
28	0x3e0a6e41	0.13518621
29	0x3d934fac	0.071929306
30	0x3d5fded0	0.05465585
31	0xbdfffdc6	-0.12499575
32	0x3e0c3bac	0.13694638
33	0xbe025a0a	-0.1272966
34	0x3dc9b297	0.098485164
35	0xbd8ff821	-0.07029749
36	0x3d86a7b1	0.06574953
37	0xbd9a5fd5	-0.0753781
38	0x3cb6ced5	0.022315422
39	0xbd116c0d	-0.035503436
40	0x3de42d5f	0.11141466
41	0xbde688b6	-0.11256544
42	0xbd349040	-0.04408288
43	0xbd522e21	-0.051313523
44	0xbcea3fc0	-0.028594851
45	0x3ded64b8	0.11591476
46	0xbdc333dd	-0.095313765
47	0xbda1edcc	-0.07906684
48	0x3c77bf33	0.015121269
49	0x3de21909	0.11039931
50	0xbc58f7f1	-0.013242708
51	0xbdd141a0	-0.10217595
52	0xbda1705f	-0.07882761
53	0xbc763e46	-0.015029496
54	0xbda31dfd	-0.07964704
55	0xbe02c44b	-0.12770192
56	0xbd86617a	-0.06561561
57	0x3df80d05	0.12111858
58	0xbd9f3487	-0.07773691
59	0xbc0023a2	-0.0078209955
60	0xbc824d10	-0.015905887
61	0x3bae20ba	0.00531396
62	0x3dd2374a	0.10264452
63	0x3dcae725	0.099073686
64	0x3cb8a620	0.022540152
65	0xbdd91309	-0.10599334
66	0xbb86eaa1	-0.0041173254
67	0xbe0a3189	-0.13495459
68	0xbe02da40	-0.12778568
69	0xbc9007a8	-0.017581776
70	0xbcfa4727	-0.030551506
71	0xbd89923b	-0.067173444
72	0xbb1368d1	-0.0022492895
73	0x3c4bb8ff	0.012434243
74	0x3ddf791d	0.109117724
75	0x3c1448db	0.009050573
76	0x3e0bd76c	0.13656396
77	0x3dbf7162	0.09347798
78	0x3d9eced1	0.07754291
79	0x3d44756d	0.04796355
80	0xbc89c50a	-0.016817588
81	0x3d2ec1ff	0.042665478
82	0xbcf964fa	-0.030443657
83	0xbdf2f1c5	-0.1186252
84	0x3c91ac40	0.01778233
85	0x3e04d6ed	0.12972613
86	0xbd55c6e3	-0.052191626
87	0x3d9e6d4d	0.07735691
88	0x3d885dd6	0.06658523
89	0xbc53d21a	-0.01292851
90	0xbdcaebb3	-0.09908237
91	0x3d9ba234	0.07599297
92	0x3dda0b17	0.106466465
93	0x3dbced1d	0.09224913
94	0xbbdd7ba2	-0.006759123
95	0xbd5052cb	-0.050860208
96	0xbdafc626	-0.08582716
97	0x3c1c9102	0.009556057
98	0x3e0d9b54	0.13828784
99	0x3d1827f4	0.037147477
100	0xbc310d57	-0.010806403
101	0xbdbd0372	-0.09229173
102	0x3dccbfe7	0.0999754
103	0x3d8e9e58	0.069637954
104	0xbd80363d	-0.06260345
105	0x3db0da32	0.086353675
106	0xbd50d389	-0.050982986
107	0x3d9f0a0a	0.07765587
108	0xbde2a92e	-0.11067425
109	0x3a8bd45e	0.0010668149
110	0xbdeb083e	-0.114761814
111	0x3d9fdc6c	0.07805714
112	0x3cbcaee6	0.023032617
113	0xbdc96814	-0.098343045
114	0xbd8f5bd9	-0.069999404
115	0xbdd7da32	-0.10539664
116	0xbdda9513	-0.10672965
117	0x3c950774	0.01819203
118	0xbde09c7b	-0.10967346
119	0xbb099c98	-0.0020997878
120	0x3dbe31af	0.0928682
121	0xb90593a6	-0.00012738872
122	0x3d298430	0.04138583
123	0x3dcc66e8	0.09980565
124	0xbe0846a1	-0.13308193
125	0xbe0295aa	-0.12752405
126	0x3d44184a	0.047874726
127	0xbd759986	-0.059960864
128	0xbce748d1	-0.028232964
129	0xbd0018c1	-0.031273607
130	0xbd72f730	-0.059317768
131	0xbe0f1a9b	-0.13974993
132	0x3d2ca023	0.042144906
133	0xbde25ab9	-0.1105246
134	0x3b67ebcd	0.003538835
135	0xbca07cce	-0.019590762
136	0xbdfc5eb7	-0.12322753
137	0xbcb7b3be	-0.022424575
138	0xbc07a12d	-0.008278173
139	0xbdbe7c21	-0.093010195
140	0xbd37f9dd	-0.044916023
141	0xbd198205	-0.037477512
142	0x3db47864	0.08812025
143	0x3dc43704	0.09580806
144	0xbdb476b3	-0.088117026
145	0xbd86cb0b	-0.06581696
146	0xbc878872	-0.016544554
147	0x3e10acf2	0.14128473
148	0xbce1926a	-0.027535636
149	0x3dc0c9ac	0.09413466
150	0x3c28466a	0.010270694
151	0xbbed0649	-0.0072334153
152	0xbdc5f470	-0.096657634
153	0x3d752377	0.059848275
154	0x3d88fb73	0.06688585
155	0x3d66f1f0	0.056383073
156	0x3da09723	0.07841327
157	0x3d33c127	0.043885376
158	0xbda1a8d9	-0.07893533
159	0x3d5caddc	0.053876743
160	0xbd400780	-0.046882153
161	0xbda4cb9f	-0.0804665
162	0xbd6e09e3	-0.058114897
163	0x3ca62d67	0.020285321
164	0xbd953c8c	-0.07286939
165	0xbe02a246	-0.12757215
166	0x3e060f2f	0.1309173
167	0x3d8dca50	0.06923354
168	0xbda2fce1	-0.07958389
169	0x3dde0fc7	0.10842853
170	0x3d139c80	0.036037922
171	0xbde60ee1	-0.11233307
172	0xbdf7fc7d	-0.12108705
173	0xbd13605d	-0.03598057
174	0x3d9e0da5	0.07717446
175	0xbdeb5004	-0.11489871
176	0xbde7c6d6	-0.11317222
177	0xbe005c97	-0.1253532
178	0x3d1c505c	0.038162574
179	0xbc77e094	-0.015129227
180	0xbc49f522	-0.012326511
181	0xbdfb25b3	-0.1226305
182	0x3d40136a	0.046893515
183	0x3c00a1dc	0.00785109
184	0x3c926ea5	0.017875025
185	0x3ce833ad	0.028344953
186	0xbd5e5de3	-0.054288756
187	0x3c67ced9	0.014148437
188	0x3e093892	0.13400486
189	0x3dcd2da5	0.10018472
190	0x3ce1bf88	0.02755715
191	0x3d68c69b	0.05683003
192	0xbe0fec29	-0.14054932
193	0x3cc06fcd	0.02349081
194	0x3dc946b6	0.0982794
195	0xbda75a1d	-0.081714846
196	0xbc64aa07	-0.013956553
197	0x3dbac06f	0.09118735
198	0xbd90fdb0	-0.07079637
199	0xbde3afa8	-0.11117488
200	0x3e06a48c	0.13148707
201	0x3d1ef6ff	0.038809773
202	0x3db7efb9	0.0898127
203	0x3ca02880	0.019550562
204	0xbd115322	-0.035479672
205	0x3bcb55ec	0.006205311
206	0x3c9c83a3	0.019105738
207	0x3dd6b2cf	0.10483324
208	0xbdcbce74	-0.09951487
209	0x3dae928e	0.08524047
210	0xbd7ece38	-0.062208384
211	0x3dde223d	0.10846374
212	0xbd866cba	-0.06563707
213	0xbb789f59	-0.0037936775
214	0xbcf94a58	-0.030430958
215	0x3c57756d	0.013150555
216	0xbd932e0b	-0.071865164
217	0x3d3ab810	0.045585692
218	0xbcdf68b6	-0.02727161
219	0x3de372f4	0.1110591
220	0xbd27dfd4	-0.040984944
221	0x3c2209ce	0.009890033
222	0xbc37aac2	-0.011210145
223	0x3deb7e0a	0.114986494
224	0xbddebea1	-0.10876203
225	0xbddb8886	-0.10719399
226	0xbe064139	-0.13110818
227	0x3dec7b76	0.11546986
228	0xbcac0b9e	-0.021001633
229	0xbdceea9a	-0.101033404
230	0x3dec14f0	0.11527431
231	0x3d6646ab	0.056219738
232	0xbde1d471	-0.11026848
233	0x3dc34036	0.09533732
234	0xbc2e3d79	-0.010634773
235	0x3a54dc7a	0.0008120012
236	0x3de2c82e	0.110733375
237	0x3d9aa51c	0.07551023
238	0x3a8ef62c	0.0010907105
239	0xbd0f6a14	-0.035013273
240	0x3d9651d2	0.07339825
241	0x3dfb7dd9	0.12279863
242	0xbda2b61f	-0.07944893
243	0x3e03c4ae	0.12867996
244	0xbd9dec9d	-0.07711146
245	0x3dc7b5f6	0.09751503
246	0x3d152568	0.036412627
247	0x3db4005d	0.08789132
248	0x3d3d02e4	0.046145335
249	0xbdeccd2c	-0.11562571
250	0xbd7dacd9	-0.06193242
251	0xbd833037	-0.064056806
252	0x3d506489	0.050877128
253	0x3d0c0a65	0.0341896
254	0x3c319ee1	0.010841102
255	0xbd5477a4	-0.05187191

network.3.weight f4 [128, 256]
0	0xbd1141c4	-0.03546311
1	0xbc89e85b	-0.016834429
2	0x3c8509f8	0.016240105
3	0x3cd3df02	0.025863174
4	0xbb8601d0	-0.0040895715
5	0x3b7cc7e2	0.0038571288
6	0x3d08bbf8	0.033382386
7	0x3cdc7557	0.02691142
8	0x3bd947a8	0.0066308565
9	0xbcaeb3f0	-0.021326035
10	0x3d3765a5	0.04477467
11	0xbd2b052a	-0.04175297
12	0xbd1b474f	-0.037909802
13	0x390a2882	0.00013175796
14	0x3cb1ce8d	0.021704936
15	0xbd29d710	-0.041464865
16	0x38a611b6	7.918796e-05
17	0x3c830a39	0.015996085
18	0xbd177502	-0.03697682
19	0x3c1da9f6	0.009623041
20	0xbd1a4375	-0.03766199
21	0x3c1a77b3	0.009427953
22	0xbc6d7955	-0.01449426
23	0xbc56ed0f	-0.013118043
24	0x3cc6ae79	0.024253117
25	0xbd24c35f	-0.040225383
26	0x3d3cde90	0.04611069
27	0xba6b9558	-0.00089867925
28	0xbc4398dc	-0.0119383
29	0x3caa763a	0.020808328
30	0xbcdf89bc	-0.027287357
31	0xba30b222	-0.0006740411
32	0x3c2d0670	0.010560617
33	0xbb86443b	-0.004097489
34	0x3d080f3d	0.033217657
35	0x3d2a3806	0.041557334
36	0x3cfe7c72	0.0310652
37	0xbb1bf722	-0.0023798426
38	0xbce5195c	-0.027966194
39	0x3d090c0c	0.033458754
40	0xbd4f7cd3	-0.05065615
41	0x3b2c3afa	0.002628027
42	0xbbed7aac	-0.0072472896
43	0xbcb8bbeb	-0.022550544
44	0x3cbda7bc	0.023151271
45	0x3d4ae389	0.0495334
46	0x3cf1abf2	0.029500935
47	0xbcae72d1	-0.021294983
48	0x3c5c57c8	0.013448663
49	0x3cd1eb05	0.025624761
50	0x3cf4231c	0.029801898
51	0xbd18fd6a	-0.03735105
52	0x3cb60b2f	0.02222213
53	0xbd0efb03	-0.034907352
54	0x3d453119	0.048142526
55	0xb9a35a81	-0.00031157213
56	0x3be51931	0.0069915284
57	0xbce7dd4f	-0.02830377
58	0x3a65baff	0.00087635213
59	0xbb2cf4ec	-0.0026391102
60	0xbb24d401	-0.0025150778
61	0xbce70430	-0.028200239
62	0xbcf9fa81	-0.030514957
63	0x3d60f548	0.05492142
64	0xbc64df03	-0.013969186
65	0xbcffd5f9	-0.03122996
66	0x3bd943fe	0.0066304198
67	0xbcdc21d9	-0.026871609
68	0xbb36ebbf	-0.0027911512
69	0xbd2c001d	-0.041992296
70	0x3cec07e1	0.02881235
71	0xbaca68bd	-0.0015442591
72	0xbc805147	-0.015663756
73	0x3c668405	0.014069562
74	0x3d4b95c2	0.049703367
75	0x3ca13687	0.019679321
76	0xbcfc5ca8	-0.0308059
77	0xbcb67aa9	-0.022275286
78	0xbb1b4570	-0.002369251
79	0xbc56e25b	-0.013115491
80	0xbc252bfa	-0.010081286
81	0x3ce2bb31	0.02767715
82	0x3c16b320	0.00919798
83	0xba883336	-0.0010391239
84	0xbcc2f985	-0.02380062
85	0xbb05b925	-0.0020404544
86	0x3d3cc410	0.046085417
87	0x3d3e7fae	0.046508484
88	0x3cab501a	0.020912219
89	0xbd146112	-0.036225386
90	0x3d36acfc	0.044598565
91	0x3b4d14ff	0.0031293032
92	0xbd16f350	-0.036853135
93	0xbd19e2a4	-0.037569657
94	0x3d2ba385	0.04190399
95	0x3ce4fcf8	0.027952656
96	0xbca18c95	-0.019720355
97	0xbd5b8555	-0.053593952
98	0xbc1e50d1	-0.009662823
99	0x3c150b60	0.00909695
100	0x3cbd38fe	0.023098465
101	0xbbede5eb	-0.0072600744
102	0xbc4a9260	-0.012364
103	0x3d4994b9	0.0492141
104	0x3a43bb9d	0.0007466616
105	0x3d3b6ada	0.0457562
106	0x3ced6290	0.028977662
107	0x3ccc2d08	0.024923816
108	0xbaffd73a	-0.0019519099
109	0x3d101038	0.035171717
110	0xbc9f724d	-0.019463683
111	0x3ca2ba75	0.0198643
112	0xbcfd5d62	-0.030928317
113	0xbb8912dc	-0.0041831564
114	0x3b5b11ae	0.0033427286
115	0x3cffa6ef	0.03120753
116	0x3cc05de6	0.023482274
117	0x3cba76c6	0.022761714
118	0xbadddb91	-0.0016926398
119	0x3c8085ac	0.01568874
120	0xbd1fab53	-0.038981747
121	0x3caecda8	0.021338299
122	0x3cd9f4c7	0.026605977
123	0xbbc3d6ae	-0.0059765195
124	0x3b8e37ed	0.004340163
125	0x3c4073ba	0.011746341
126	0xbca7d2af	-0.020486204
127	0xbd25f765	-0.040519137
128	0xbb837383	-0.004011573
129	0x3d1d397b	0.038384896
130	0xbbfba6d0	-0.0076797977
131	0xbc3bf8d3	-0.011472899
132	0xbd3841fe	-0.04498481
133	0x3c28544b	0.010274003
134	0x3cee5832	0.02909479
135	0x3bb3262e	0.005467198
136	0xbb3d9c75	-0.0028932367
137	0xbc4001bd	-0.011719164
138	0xbcb870e6	-0.022514772
139	0xbc85e4f0	-0.016344517
140	0x3cca8046	0.024719369
141	0x3d4d68a9	0.05014864
142	0xbd19ea53	-0.037576985
143	0x3ce1e735	0.027576068
144	0xba513cc9	-0.0007981775
145	0x3c1ba231	0.009499119
146	0xbc8ac6f9	-0.01694058
147	0xbc46ac02	-0.012125971
148	0xb5e3032b	-1.691374e-06
149	0x3b76b91b	0.0037646953
150	0xbc59fd9d	-0.013305095
151	0xbb01fc00	-0.0019834042
152	0xbced282b	-0.028949818
153	0x3d72ee9b	0.059309583
154	0xbd06913c	-0.03285335
155	0xbd061edf	-0.032744285
156	0xbbd1625d	-0.0063898996
157	0x3c75f666	0.015012359
158	0x3d3f4d19	0.046704385
159	0xbaa752c0	-0.001276575
160	0xbc1a2cfc	-0.009410139
161	0x3c8c5405	0.017129907
162	0x3cf574e9	0.029962974
163	0xbb51dbd8	-0.0032021906
164	0xbc741df0	-0.014899716
165	0xbd0afb5d	-0.033931125
166	0xbd489210	-0.04896742
167	0xbd0268bf	-0.031838175
168	0xbbc615b8	-0.0060450695
169	0x3d5575b2	0.052114196
170	0xbce0863e	-0.027407762
171	0x3d2be525	0.041966576
172	0xbcf47080	-0.0298388
173	0x3d0bdf89	0.034148727
174	0x3d173760	0.036918044
175	0xbd21a139	-0.039460395
176	0xbc2bc6f1	-0.010484443
177	0x3d4330d9	0.047654007
178	0xbd230718	-0.039801687
179	0x3bece97d	0.0072299824
180	0x3d28c2ea	0.04120151
181	0xba848fee	-0.0010113695
182	0x3d16752a	0.03673283
183	0xbb86a231	-0.00410869
184	0x3cfed890	0.031109124
185	0xbc902ba1	-0.017598929
186	0xbc5ca89b	-0.013467933
187	0xbce13caa	-0.027494747
188	0x3cebcf83	0.028785473
189	0xbb874fc9	-0.004129384
190	0x3d271ac8	0.040797025
191	0xbd52e213	-0.051485132
192	0x3c69f07d	0.014278528
193	0xbd20205b	-0.039093357
194	0xbd500d0b	-0.05079369
195	0xbc29d415	-0.010365506
196	0xbcf09e71	-0.029372426
197	0xbcb67ccb	-0.022276303
198	0x3cf20f97	0.02954845
199	0x3b3212ea	0.0027171918
200	0xbc84cbf8	-0.016210541
201	0x3cd3d372	0.02585766
202	0xbd1021bc	-0.03518842
203	0xbbc59c48	-0.006030593
204	0xbd1dcd1f	-0.038525697
205	0x3be487e2	0.0069742063
206	0xbc0c4bd7	-0.0085630035
207	0xbc745504	-0.014912847
208	0xbc0b16bd	-0.008489308
209	0xbd20a9f3	-0.039224576
210	0x3708bffb	8.150931e-06
211	0x3cb8b4f9	0.022547232
212	0x3cfa6627	0.030566288
213	0xbd3ab748	-0.045584947
214	0x3c551593	0.013005632
215	0xbc5ac20b	-0.0133519275
216	0xba649744	-0.000872005
217	0x3bb3dd25	0.005489009
218	0x3c38cf15	0.011279841
219	0x3c86846c	0.016420566
220	0xbd0934a9	-0.033497486
221	0x3d010cfe	0.03150653
222	0x3be577a3	0.007002787
223	0xbc43150f	-0.011906876
224	0x3aa09608	0.0012251744
225	0x3b7534ee	0.0037415582
226	0xbca3e48a	-0.020006437
227	0x3c7a1512	0.015263813
228	0x3b3b6b31	0.0028597827
229	0xbcc95412	-0.02457622
230	0xbd3122e8	-0.04324618
231	0x3d4d488b	0.05011801
232	0x3c551845	0.013006275
233	0xbcc0ec15	-0.023550073
234	0x3d140ceb	0.036145132
235	0x3c102a76	0.008799186
236	0xbd6a2a3b	-0.05716918
237	0x3d039356	0.032122932
238	0x3d50dc07	0.050991084
239	0x3c1e5db0	0.0096658915
240	0xbcfa6559	-0.030565904
241	0x3d0be03d	0.034149397
242	0xbc24017a	-0.010010118
243	0xbcc03b71	-0.023465844
244	0x3c779dcd	0.015113306
245	0xbc4ac2a7	-0.01237551
246	0xbc875006	-0.01651765
247	0x3d1b0fd7	0.037856903
248	0x398cc4c5	0.00026849486
249	0xbb330dd5	-0.0027321477
250	0xbc1a1075	-0.009403338
251	0xbb17718a	-0.0023108446
252	0x3cdcffde	0.026977476
253	0x3cfc94fc	0.03083276
254	0xbd28f3b0	-0.041248024
255	0x3a6a1b06	0.00089304184

network.3.bias f4 [128]
0	0x3c95b97e	0.018276926
1	0xbc29a50f	-0.010354294
2	0xbccd71f9	-0.02507876
3	0x3ccd8607	0.025088323
4	0x3cfa2258	0.030533955
5	0x3d0dba04	0.034601226
6	0x3d4c349f	0.04985487
7	0xbd265ebd	-0.040617693
8	0xbd7442d6	-0.059634052
9	0x3d30b490	0.043140948
10	0xba9b7a73	-0.0011862054
11	0x3d3f27ff	0.046669003
12	0xbd35f453	-0.04442246
13	0xbc73cbf0	-0.014880165
14	0x3b67b46c	0.0035355343
15	0x3d4ace23	0.049512994
16	0x3cbcbad0	0.023038298
17	0xbd344242	-0.0440085
18	0x3d0c317f	0.03422689
19	0x3ce772f1	0.02825305
20	0xbccff56b	-0.02538558
21	0x3c08ab8a	0.008341679
22	0x3c9d0408	0.019166961
23	0xbb9bfc60	-0.00476031
24	0xbcdf481e	-0.027256068
25	0x3d0c3bbc	0.034236655
26	0x3d1ef57f	0.038808342
27	0x3c7eb2a4	0.015545521
28	0x3cb501d1	0.022095593
29	0x3bbbfff8	0.005737301
30	0x3d10a2aa	0.03531138
31	0x3c2520d4	0.010078628
32	0x3d71425e	0.058901183
33	0x3d236b1f	0.03989708
34	0x3bc96247	0.006145749
35	0xbd0f252d	-0.034947563
36	0xbcbf3202	-0.023339275
37	0x3d1b0325	0.037844796
38	0xbcfa9812	-0.03059009
39	0xbd4449b1	-0.04792184
40	0x3d4bf600	0.04979515
41	0x3d78550f	0.060627993
42	0xbd342c5d	-0.04398762
43	0xbd4c5cd9	-0.049893234
44	0x3caa43b5	0.020784238
45	0xbd630101	-0.05542088
46	0x3d12344e	0.035694413
47	0xbd0d8c2a	-0.0345575
48	0x3d4880b9	0.048950884
49	0xbb58e385	-0.0033094597
50	0x3ce3a16e	0.027786937
51	0x3c2c52c6	0.010517782
52	0xbd546a81	-0.051859383
53	0xbd28c32c	-0.041201755
54	0x3c9852c3	0.018594151
55	0xbc01ce50	-0.007922724
56	0xbc6fdd00	-0.014640093
57	0xbd49e8b6	-0.049294196
58	0xbcfcd3e6	-0.03086276
59	0x3ce3f553	0.02782694
60	0xbcb7e028	-0.022445753
61	0x3d777e3d	0.060423125
62	0xbd62b7bc	-0.055351004
63	0xbd1dbd95	-0.038510878
64	0x3d3930c6	0.04521253
65	0x3ac6fa6d	0.0015180834
66	0xbd267f9d	-0.040649045
67	0xbd1ada6c	-0.03780596
68	0xbc5d1cba	-0.0134956185
69	0x3cfa608a	0.030563612
70	0x3bdcf30b	0.00674284
71	0x3ca17c7c	0.01971268
72	0xbac4eb9c	-0.001502383
73	0x3d436594	0.047704294
74	0xbc57e896	-0.013178011
75	0x3d75c0d0	0.059998333
76	0xbcab1c0f	-0.020887403
77	0x3d4f6aba	0.05063889
78	0xbd1f53bc	-0.038898215
79	0xbd05a5ca	-0.032628812
80	0xbcd7745f	-0.026300607
81	0xbb8ad209	-0.004236464
82	0x3d072e6b	0.033003252
83	0xbca0367a	-0.019557226
84	0x3ca4da45	0.02012361
85	0x3d48c8e8	0.049019724
86	0x3d0bf598	0.034169763
87	0x3d6210b4	0.05519171
88	0xb93e8a7b	-0.000181714
89	0xbcefed6e	-0.02928802
90	0xbc8a1573	-0.01685593
91	0xbd2def29	-0.04246441
92	0x3c8f7193	0.017510211
93	0x3d628e46	0.055311464
94	0xbd18134b	-0.037127774
95	0xbcb69d9d	-0.022291953
96	0x3d5a1490	0.053242266
97	0x3cc1373b	0.023585906
98	0x3ce285e8	0.027651742
99	0xbc92d0a9	-0.017921763
100	0xbd210e54	-0.039320305
101	0xbd06c1ae	-0.03289955
102	0x3d03a013	0.03213508
103	0xbc5d7542	-0.013516726
104	0x3c98e6f7	0.01866482
105	0xbd6ae092	-0.057343073
106	0xbd102bd6	-0.035198055
107	0x3d0cb8e4	0.034356013
108	0x3c961d26	0.018324446
109	0xbc950c02	-0.018194202
110	0xbcac74b7	-0.021051748
111	0xbc77f3f2	-0.015133845
112	0xbd4bbae3	-0.049738776
113	0xbc5d1044	-0.013492648
114	0xbd54f80b	-0.051994365
115	0x3d0b0511	0.03394038
116	0x3d804985	0.06264023
117	0x3d0e3d11	0.034726206
118	0x3b576c97	0.003287112
119	0x3b8043fd	0.003914355
120	0x3c8f4d63	0.017492956
121	0x3c2d9e6c	0.010596853
122	0x3c5d431e	0.0135047715
123	0x39b84546	0.00035146828
124	0xbcd1fbd8	-0.025632784
125	0xbcf325e7	-0.02968116
126	0xbcb730fb	-0.022362223
127	0xbc295051	-0.01033409

network.6.weight f4 [1, 128]
0	0x3cb79f62	0.022414867
1	0xbd27d9c3	-0.040979158
2	0x3cf6b0f2	0.030113671
3	0x3c9d487c	0.019199602
4	0x3cb42e34	0.021994688
5	0x3d9781fb	0.07397839
6	0x3d2b2fa5	0.041793484
7	0x3c772713	0.015085
8	0x3cdbdb6e	0.02683803
9	0xbd3b4d34	-0.045727924
10	0xbd665e49	-0.05624226
11	0x3cb1b988	0.021694914
12	0xbd093c9f	-0.03350508
13	0x3d2e36a1	0.042532567
14	0x3c89bc9d	0.01681357
15	0x3d820e67	0.06350403
16	0xbdac0fe6	-0.0840147
17	0x3d2f97e6	0.04286947
18	0xbd97bfb3	-0.074096106
19	0x3d41309b	0.047165494
20	0x3c9e14b7	0.019296987
21	0xbd8437ab	-0.0645593
22	0xbd8f8354	-0.07007471
23	0xbca02bcb	-0.019552132
24	0x3d02fe5c	0.031980857
25	0x3d4fa7b8	0.05069706
26	0xbcb1299f	-0.021626292
27	0x3cb73fd2	0.0223693
28	0xbcd39df4	-0.025832154
29	0xbc8aa099	-0.016922282
30	0x3d3ba4c2	0.045811422
31	0x3d02bc2e	0.031917743
32	0xbd6690db	-0.05629049
33	0x3c8dd6a4	0.017314263
34	0x3ccb846a	0.024843413
35	0xbd8d795c	-0.06907913
36	0x3d68bb91	0.056819502
37	0xbc951751	-0.018199595
38	0xbcad5867	-0.021160318
39	0xbd8aefbe	-0.067840084
40	0x3d01e3e6	0.03171148
41	0x3ce160d2	0.027511988
42	0x3d1f0484	0.038822666
43	0xbd975831	-0.07389868
44	0xbd75a0e5	-0.059967894
45	0x3cdf3844	0.02724851
46	0xbd4989e7	-0.04920378
47	0x3d4887f9	0.0489578
48	0xbd7aa466	-0.06119194
49	0x3d6d5add	0.057947982
50	0x3d350022	0.04418958
51	0xbc8d14f1	-0.0172219
52	0xbd0b55cb	-0.034017365
53	0x3da4176d	0.080122806
54	0x3c9f6242	0.019456033
55	0x3d244a72	0.04011006
56	0x3cba9f4a	0.022781033
57	0x3dab031a	0.08350201
58	0x3dad9aac	0.08476767
59	0x3a878d82	0.0010341855
60	0x3d995a78	0.07487959
61	0xbd313153	-0.04325993
62	0x3ca0c7a0	0.019626439
63	0xbd8c11d9	-0.06839342
64	0xbd970061	-0.07373119
65	0xbc90aa02	-0.017659191
66	0x3d956e08	0.072963774
67	0xbd6cb94e	-0.057793908
68	0x3d87bbe9	0.06627638
69	0xbcdebba3	-0.027189082
70	0xbd63d1a7	-0.055619862
71	0xbdb01625	-0.08597974
72	0xbd2a94f4	-0.04164596
73	0xbda61132	-0.081087485
74	0xbcaef1bc	-0.021355502
75	0xbd976b5a	-0.073935226
76	0xbc2a1d1c	-0.010382917
77	0xbc047f5b	-0.008087005
78	0x3d517218	0.0511342
79	0xbd5737ff	-0.052543636
80	0xbd834295	-0.06409184
81	0x3c3347d0	0.010942414
82	0x3d941667	0.072308354
83	0x3d0df95b	0.034661632
84	0x3d96add6	0.07357375
85	0xbd545ef6	-0.051848374
86	0xbc2e6ec8	-0.0106465295
87	0x3c8d54a1	0.017252268
88	0xbd24ed39	-0.040265296
89	0xbdb46e24	-0.0881007
90	0x3c2f47bc	0.010698255
91	0x3d5a4031	0.053283874
92	0xbda66aaf	-0.08125817
93	0xbda41652	-0.0801207
94	0xbc1d694a	-0.009607622
95	0xbd17b9db	-0.03704248
96	0xbd3fe93e	-0.046853296
97	0x3cceaafd	0.025228018
98	0xbd02992c	-0.031884357
99	0x3c916bed	0.017751658
100	0x3d9aa620	0.07551217
101	0x3d419108	0.047257453
102	0x3d899c57	0.067192726
103	0xbda1c8bc	-0.07899615
104	0xbd531a82	-0.05153895
105	0xbd9c35d8	-0.076274574
106	0xbce838da	-0.028347421
107	0xbd0509d5	-0.03248008
108	0x3d2c425d	0.042055476
109	0x3d8d58f5	0.06901733
110	0x3d3baf69	0.04582158
111	0xbda57858	-0.080795944
112	0xbdacd7b0	-0.084395766
113	0xbd04fb32	-0.03246612
114	0x3d9716a6	0.07377367
115	0xbc2aca63	-0.010424229
116	0xbdbd0abe	-0.092305645
117	0xbd2be5be	-0.041967146
118	0x3d4ab6b2	0.049490638
119	0x3dad93c3	0.08475449
120	0x3cb6a1ba	0.022293914
121	0xbd99a12f	-0.075014465
122	0xbda198ac	-0.07890448
123	0xbd4bb0b4	-0.049729064
124	0xbd979e7a	-0.07403274
125	0xbd96d810	-0.073654294
126	0x3d6cb49b	0.057789426
127	0xbd196b46	-0.03745582

exp_avg f4 [256, 45]
0	0x382ef3de	4.171195e-05
1	0xb6993693	-4.5661086e-06
2	0xb854d803	-5.0745915e-05
3	0x394bf0d7	0.00019449308
4	0xb81b4b77	-3.7025162e-05
5	0x374ca8da	1.2198661e-05
6	0x389b682c	7.4103795e-05
7	0x38de66c3	0.00010604926
8	0xb7b4a264	-2.1533291e-05
9	0xb9152d3b	-0.00014226597
10	0x38066689	3.2043583e-05
11	0x391dc5af	0.0001504633
12	0x37fad7ba	2.9902778e-05
13	0x3833cfcd	4.2870455e-05
14	0x38cf2403	9.877237e-05
15	0x38619500	5.3782947e-05
16	0xb79b54a4	-1.8516854e-05
17	0xb857611e	-5.1350442e-05
18	0xb809232f	-3.2696113e-05
19	0x38fa8d94	0.000119473
20	0xb851f290	-5.0055387e-05
21	0x390e0963	0.00013545672
22	0x389b5d01	7.408299e-05
23	0xb72f9785	-1.0466091e-05
24	0x35690c9e	8.6817624e-07
25	0x38e79619	0.00011042896
26	0x343cb601	1.7575077e-07
27	0x39263ada	0.00015852918
28	0x3788204c	1.6227503e-05
29	0x33322841	4.1480465e-08
30	0x389b619e	7.4091586e-05
31	0x3904cfcd	0.00012665913
32	0xb8b4e9c4	-8.626611e-05
33	0x381e89cd	3.7798472e-05
34	0x3687b212	4.0440436e-06
35	0x39407793	0.00018355092
36	0x36301638	2.6238977e-06
37	0x3874086e	5.8181984e-05
38	0xb7fa7906	-2.9858678e-05
39	0x39735190	0.0002320467
40	0x3787ccce	1.6188624e-05
41	0xb8885137	-6.500113e-05
42	0xb8af2bbd	-8.352797e-05
43	0x3a0e6c09	0.00054329686
44	0x38cdb615	9.809077e-05
45	0x3848142a	4.7702495e-05
46	0xbacdd848	-0.0015704716
47	0x396d9798	0.00022658554
48	0x39b9686a	0.00035363744
49	0x39907c55	0.00027558455
50	0xb7eedb94	-2.847406e-05
51	0x3900b4be	0.00012274363
52	0xb7a52b4f	-1.96897e-05
53	0x38b6bab6	8.713214e-05
54	0xb85580df	-5.0903178e-05
55	0xb985768d	-0.00025456064
56	0xb9001413	-0.0001221451
57	0x3a162191	0.00057270477
58	0xb92cb03a	-0.00016468848
59	0x3a2ca629	0.0006586039
60	0xb8afb2ec	-8.377977e-05
61	0xba90d372	-0.0011049344
62	0x3a8de577	0.0010825832
63	0xb69cacda	-4.669285e-06
64	0xb44a3010	-1.8830201e-07
65	0x3a1fd4da	0.0006097086
66	0xb88de651	-6.766304e-05
67	0x397165b5	0.0002302144
68	0x3952ac8d	0.00020091441
69	0xb754b2ba	-1.2677798e-05
70	0x37d99d42	2.5941645e-05
71	0x3634464a	2.6863004e-06
72	0xb91ddcee	-0.0001505499
73	0x393c6cb5	0.00017969574
74	0xb69c14da	-4.6515897e-06
75	0x3a0c263a	0.00053462724
76	0x396f4a40	0.00022820476
77	0xb87cc9d0	-6.0269434e-05
78	0xba8ecb2c	-0.001089429
79	0x3982ab10	0.00024922984
80	0x398faf71	0.000274058
81	0x392c2b88	0.00016419415
82	0x398cc197	0.00026847117
83	0x3b1b3262	0.0023681154
84	0x38fd4548	0.00012076885
85	0xb88884a9	-6.509695e-05
86	0xb9bb15a9	-0.00035683558
87	0x38e95be1	0.000111274196
88	0xb916a666	-0.00014367103
89	0xbafb4f27	-0.001917337
90	0x37a18d64	1.9258536e-05
91	0xb6d3a583	-6.307558e-06
92	0xb8338ecb	-4.2809912e-05
93	0x36d64a3d	6.3863395e-06
94	0x38ebfe89	0.00011253084
95	0xb7ca5592	-2.4120123e-05
96	0xb96fa5de	-0.00022854607
97	0x3950a545	0.00019897993
98	0xb8518b20	-4.9959053e-05
99	0xb7f63b38	-2.9353061e-05
100	0xb722fd47	-9.714923e-06
101	0xb94d07d6	-0.00019553243
102	0x397d7c99	0.00024174376
103	0x38d80c5b	0.00010301984
104	0xb7b37a64	-2.1395455e-05
105	0xb91654c8	-0.00014336698
106	0x392ae178	0.00016296457
107	0xba2f51a5	-0.0006687886
108	0xb38ae9dc	-6.4686645e-08
109	0x3652773d	3.1361844e-06
110	0xb862ca85	-5.407121e-05
111	0x38dd9b3e	0.00010567017
112	0x39bb5d2f	0.00035736847
113	0x378c3c83	1.6717479e-05
114	0x37ee1290	2.8380455e-05
115	0x3830a2eb	4.21134e-05
116	0xb38931b8	-6.3886034e-08
117	0x38156efb	3.5627727e-05
118	0xb74a7839	-1.206813e-05
119	0x35d2a11b	1.5693107e-06
120	0xb6d64e51	-6.386814e-06
121	0xb80dbe34	-3.379416e-05
122	0x391ba47e	0.0001484323
123	0x371b74f0	9.265947e-06
124	0xb9039eb3	-0.00012552254
125	0x3a0b59ff	0.00053158397
126	0xb865e052	-5.480677e-05
127	0xb974d830	-0.0002335019
128	0xb8aeb3f2	-8.330484e-05
129	0x396d9c5c	0.0002266033
130	0x39654970	0.000218665
131	0xb8a2e122	-7.766696e-05
132	0xb9c846db	-0.00038199764
133	0xb72f13c0	-1.0435411e-05
134	0xb94f3268	-0.00019759836
135	0x395d4046	0.00021100146
136	0xb87acddc	-5.9796366e-05
137	0x3a028064	0.0004978238
138	0x390563dc	0.00012721069
139	0xb9491d52	-0.00019179776
140	0xb98d53c7	-0.00026956035
141	0x390cf320	0.00013442012
142	0xb945f4a3	-0.00018878518
143	0xb92f41d6	-0.00016713826
144	0xb75f2680	-1.33008e-05
145	0xb84652f9	-4.7284153e-05
146	0x399bf066	0.00029743015
147	0xb97dc9b0	-0.00024203095
148	0x3818448a	3.6303456e-05
149	0xb86397f4	-5.4262535e-05
150	0xb9c49af1	-0.00037499474
151	0x39dcd816	0.00042122666
152	0xb9954a58	-0.00028474885
153	0x35d0728f	1.5530549e-06
154	0x38db2b18	0.000104507606
155	0x39104e79	0.00013762143
156	0xb95f674a	-0.00021305415
157	0xb86dd548	-5.6703837e-05
158	0x38d75b48	0.00010269001
159	0x372d3295	1.0323381e-05
160	0x391a7638	0.00014730624
161	0x35cfe5d0	1.5489586e-06
162	0xb826a5bf	-3.9731847e-05
163	0xb82339ba	-3.891599e-05
164	0x35d1792b	1.5606978e-06
165	0xb9780fdd	-0.00023657033
166	0xb88a2d3a	-6.588777e-05
167	0xb833c510	-4.2860454e-05
168	0xb9ab5dd2	-0.00032685563
169	0x3a0ba360	0.0005326774
170	0xb92113a7	-0.00015361478
171	0x38102373	3.436529e-05
172	0x3a0ee242	0.0005450585
173	0x3a01f061	0.0004956779
174	0x39d57481	0.00040713328
175	0x39ea22cc	0.00044657884
176	0xba049f59	-0.0005059145
177	0x3a00d596	0.0004914639
178	0xbad39f54	-0.0016145506
179	0x39956f67	0.00028502496
180	0x39bc9c1c	0.00035974465
181	0xb3e8d7f8	-1.0842626e-07
182	0x39b6cab5	0.00034864774
183	0x3766d13d	1.3757785e-05
184	0x380d68d8	3.3714663e-05
185	0xb8292a78	-4.0332292e-05
186	0xb508e999	-5.100388e-07
187	0x394bdfe8	0.00019443
188	0xb899c90c	-7.3330564e-05
189	0xb9c47c7f	-0.0003747679
190	0xb94a33c7	-0.0001928351
191	0xb8f3406a	-0.00011599141
192	0xb8429524	-4.6392102e-05
193	0xb57b185c	-9.3540234e-07
194	0x3965bdc3	0.00021909834
195	0x37ceb0f5	2.4639516e-05
196	0xb9bba62d	-0.0003579123
197	0x39d4a48f	0.00040558397
198	0x34e1a1f6	4.2027358e-07
199	0x36158c3e	2.2284362e-06
200	0x3958c98f	0.00020674452
201	0xb7a685e1	-1.9851084e-05
202	0xb866ee77	-5.505836e-05
203	0x378f650c	1.7093982e-05
204	0x3898f193	7.2929215e-05
205	0x377693db	1.4697168e-05
206	0x34d3aa0b	3.9425535e-07
207	0x37e49101	2.724724e-05
208	0x373b69a3	1.1170664e-05
209	0x34d70920	4.005351e-07
210	0xb98831a0	-0.00025976915
211	0x38eb924c	0.00011232923
212	0x39cfbd98	0.00039623375
213	0xb81acf12	-3.690931e-05
214	0x3951809d	0.00019979705
215	0xb9d4a7ad	-0.0004056072
216	0xb8b62879	-8.685975e-05
217	0x39843e4d	0.0002522342
218	0xb8a8b448	-8.044444e-05
219	0x393eb29d	0.0001818635
220	0xb81883dd	-3.636243e-05
221	0xb802c3bd	-3.117671e-05
222	0x3a558ba0	0.0008146111
223	0xb90aeb8c	-0.00013248454
224	0xba0173d3	-0.00049382186
225	0xb9424aec	-0.00018529192
226	0xb9ff8a7f	-0.00048740578
227	0xb82a8e2a	-4.066356e-05
228	0x373f8431	1.1415265e-05
229	0x38aca3f8	8.232141e-05
230	0xb80048c0	-3.0585332e-05
231	0xb8aee9a0	-8.3404826e-05
232	0x387ced04	6.030222e-05
233	0xb8144f06	-3.5359546e-05
234	0x3918df51	0.00014579041
235	0xb9177141	-0.00014442673
236	0xb92dd721	-0.00016578707
237	0xb7bbefa8	-2.2403736e-05
238	0xb804dd76	-3.1677504e-05
239	0xb9dbb6ec	-0.00041907222
240	0xb99a7c42	-0.00029465748
241	0xba3e32c0	-0.0007255487
242	0xb9d1131c	-0.00039877824
243	0xb653288c	-3.1465052e-06
244	0x382b7a11	4.088326e-05
245	0xb91580ee	-0.00014257777
246	0xb8a39ccd	-7.801652e-05
247	0x388b6514	6.646864e-05
248	0xb7bbf92a	-2.2408163e-05
249	0x3882a92d	6.2303945e-05
250	0xb812fcb2	-3.5044453e-05
251	0xb65429fe	-3.1614904e-06
252	0xb8312f49	-4.2244126e-05
253	0x38aa0b3e	8.108326e-05
254	0xb600ae1c	-1.9174831e-06
255	0xb923b2b2	-0.0001561146

exp_avg_sq f4 [256, 45]
0	0x35534911	7.870995e-07
1	0x34506835	1.940942e-07
2	0x348ae6c6	2.5872413e-07
3	0x3484cc2b	2.4735468e-07
4	0x33eed2ee	1.11211065e-07
5	0x34dbbf5d	4.0931164e-07
6	0x34ac7234	3.212059e-07
7	0x35d2734a	1.5679773e-06
8	0x34f37d74	4.5353556e-07
9	0x339b4741	7.230711e-08
10	0x346fb51d	2.2324498e-07
11	0x359b4cd6	1.1570762e-06
12	0x33cc61c0	9.517271e-08
13	0x34548453	1.9792178e-07
14	0x350598f2	4.9768926e-07
15	0x340edbbe	1.3304722e-07
16	0x35f94f23	1.8574978e-06
17	0x3619d8ae	2.29249e-06
18	0x317fe2c7	3.7236292e-09
19	0x3498eb1d	2.8483274e-07
20	0x34b9ac07	3.4584102e-07
21	0x3571a463	9.001871e-07
22	0x34c5fb43	3.6876926e-07
23	0x34138bec	1.3741345e-07
24	0x3310dab0	3.3726508e-08
25	0x339e2589	7.364276e-08
26	0x2e7651ab	5.600646e-11
27	0x33b36e82	8.355438e-08
28	0x3354428d	4.9420624e-08
29	0x2f415c68	1.7586077e-10
30	0x34972434	2.8152283e-07
31	0x34f45c81	4.5515847e-07
32	0x35e5a0a7	1.7108586e-06
33	0x355c62ff	8.2100445e-07
34	0x34c02595	3.579013e-07
35	0x3544e1db	7.334435e-07
36	0x34591731	2.0218137e-07
37	0x351ee093	5.9186385e-07
38	0x33314ab4	4.1278966e-08
39	0x36808e65	3.831274e-06
40	0x3433c141	1.674098e-07
41	0x33e00256	1.0431238e-07
42	0x362958cf	2.5234656e-06
43	0x36a977c1	5.0505337e-06
44	0x363c3b3d	2.8048664e-06
45	0x360fc460	2.1422966e-06
46	0x36217972	2.406156e-06
47	0x356e1e8f	8.870638e-07
48	0x35419332	7.21123e-07
49	0x355208d7	7.824396e-07
50	0x350cffec	5.252648e-07
51	0x358103ff	9.612412e-07
52	0x35b5b2de	1.3537608e-06
53	0x34e75cb3	4.309455e-07
54	0x357248cd	9.0257964e-07
55	0x35b66bd7	1.3591442e-06
56	0x35b70687	1.3636462e-06
57	0x34e7343d	4.306511e-07
58	0x346211c0	2.1054348e-07
59	0x35d04034	1.5515893e-06
60	0x350adfbe	5.1734594e-07
61	0x36719e42	3.6003917e-06
62	0x377d3eff	1.5094643e-05
63	0x2ed8915e	9.848365e-11
64	0x341384c6	1.3738745e-07
65	0x355ac24b	8.149406e-07
66	0x3566fd54	8.605032e-07
67	0x3421aea7	1.5057832e-07
68	0x341de573	1.4705238e-07
69	0x302279bd	5.9108257e-10
70	0x32f95c6a	2.902944e-08
71	0x308725e7	9.833315e-10
72	0x34662e79	2.1437326e-07
73	0x33e14ead	1.049169e-07
74	0x2ee53ad1	1.0424162e-10
75	0x365b1a05	3.2648688e-06
76	0x35a00833	1.1923315e-06
77	0x35e317a0	1.6919694e-06
78	0x36082ee6	2.0292878e-06
79	0x35cc2e35	1.5212632e-06
80	0x3554acd8	7.9227675e-07
81	0x34caebe4	3.7797065e-07
82	0x3678e757	3.7089537e-06
83	0x37287098	1.0039796e-05
84	0x37007973	7.657672e-06
85	0x35558797	7.954599e-07
86	0x370ba6b6	8.323861e-06
87	0x36adb633	5.1770126e-06
88	0x35628c4a	8.439571e-07
89	0x36c5f00e	5.8990036e-06
90	0x350bb385	5.204277e-07
91	0x34432087	1.8172624e-07
92	0x34a4a5e0	3.066807e-07
93	0x342edd86	1.6285603e-07
94	0x34643b8e	2.125582e-07
95	0x349417e6	2.7584537e-07
96	0x35737671	9.069691e-07
97	0x35906ea7	1.076104e-06
98	0x357157d4	8.9907303e-07
99	0x350e732b	5.3066714e-07
100	0x33fbfc8a	1.1734035e-07
101	0x35acfb46	1.2888129e-06
102	0x346d456c	2.20976e-07
103	0x34a8585b	3.1356726e-07
104	0x33c04891	8.9538965e-08
105	0x345104e0	1.9466415e-07
106	0x36887ba7	4.067511e-06
107	0x36572df5	3.2064247e-06
108	0x2dd61a6c	2.4340717e-11
109	0x32cc7776	2.380305e-08
110	0x33de647c	1.03559586e-07
111	0x34d22ef2	3.9149705e-07
112	0x34324df8	1.6605907e-07
113	0x32c81e3a	2.329681e-08
114	0x330d6923	3.2924742e-08
115	0x326ad2c4	1.3668515e-08
116	0x2ddbf693	2.5006918e-11
117	0x33759136	5.7175576e-08
118	0x33016833	3.012992e-08
119	0x2fdbf8f5	4.0012763e-10
120	0x3464d1a7	2.1310426e-07
121	0x3441aa4c	1.803648e-07
122	0x3542a005	7.250349e-07
123	0x35a98fda	1.2633348e-06
124	0x35488664	7.470137e-07
125	0x35fbe192	1.8766607e-06
126	0x33d6644f	9.9833976e-08
127	0x3590c8ea	1.078731e-06
128	0x343e8efe	1.7747149e-07
129	0x36874303	4.0311147e-06
130	0x34ca9dd6	3.7740273e-07
131	0x3539fd98	6.92869e-07
132	0x35b75a3e	1.3660826e-06
133	0x3702ea3e	7.803143e-06
134	0x36037d53	1.959347e-06
135	0x36166ec4	2.2416216e-06
136	0x358770a5	1.0091068e-06
137	0x359843e8	1.1344646e-06
138	0x34e28147	4.2189842e-07
139	0x36286fb8	2.509898e-06
140	0x3650db7e	3.1122177e-06
141	0x36363645	2.7151702e-06
142	0x34df0129	4.153783e-07
143	0x34e630f1	4.2876448e-07
144	0x35d1add3	1.5622303e-06
145	0x353c311a	7.010691e-07
146	0x36823eb3	3.881601e-06
147	0x35294bb5	6.3067574e-07
148	0x33a66f20	7.750191e-08
149	0x353b5634	6.978837e-07
150	0x34d032a4	3.8779865e-07
151	0x3631370f	2.6407104e-06
152	0x378cbd86	1.6777554e-05
153	0x2f0ec8de	1.2986187e-10
154	0x349b3022	2.890602e-07
155	0x350c60cc	5.229492e-07
156	0x35c4ac63	1.4653309e-06
157	0x36340408	2.6824437e-06
158	0x34834590	2.4451265e-07
159	0x30dc3127	1.6021077e-09
160	0x3376bdcd	5.744896e-08
161	0x2f0d6e5c	1.2863083e-10
162	0x33f41f66	1.1367847e-07
163	0x33ab1d1c	7.968103e-08
164	0x2f116609	1.3223923e-10
165	0x35ba83c0	1.3896424e-06
166	0x354e4fa0	7.685685e-07
167	0x3687a76c	4.042804e-06
168	0x35d518b9	1.5876932e-06
169	0x35ff321b	1.9013563e-06
170	0x353f2c59	7.121758e-07
171	0x35f7bd1d	1.8457973e-06
172	0x368f59b4	4.272175e-06
173	0x374e90fa	1.2312312e-05
174	0x371df47e	9.4148545e-06
175	0x36c7add6	5.9508993e-06
176	0x3681782c	3.8584894e-06
177	0x35fa333f	1.8641366e-06
178	0x3611202c	2.162541e-06
179	0x370087e6	7.661036e-06
180	0x35a00ebb	1.1925216e-06
181	0x313fc085	2.7903593e-09
182	0x357e6163	9.476409e-07
183	0x348d34bd	2.630167e-07
184	0x34a8be34	3.143083e-07
185	0x32b36371	2.0883563e-08
186	0x34d74667	4.0098095e-07
187	0x353fa039	7.13862e-07
188	0x342c116c	1.6025086e-07
189	0x364aa4aa	3.0196193e-06
190	0x343f0835	1.7791247e-07
191	0x35243613	6.117345e-07
192	0x330a6788	3.222479e-08
193	0x31e1e4f7	6.574392e-09
194	0x35643c84	8.502468e-07
195	0x33b49153	8.4083375e-08
196	0x36537875	3.1511565e-06
197	0x36baac79	5.5633104e-06
198	0x2ece5f93	9.384773e-11
199	0x340b021f	1.2946155e-07
200	0x3588f74e	1.0204765e-06
201	0x34bceaeb	3.5188654e-07
202	0x33f88576	1.1572676e-07
203	0x335807fa	5.0298674e-08
204	0x3326abd1	3.8806153e-08
205	0x3244eaa7	1.1462055e-08
206	0x2ea6870a	7.572794e-11
207	0x3231d058	1.0350128e-08
208	0x3299881a	1.7873436e-08
209	0x2f114b19	1.3214353e-10
210	0x348741ba	2.5193532e-07
211	0x350197ef	4.827734e-07
212	0x35761c32	9.168317e-07
213	0x359b5c50	1.1575266e-06
214	0x351594a1	5.572311e-07
215	0x361a6a04	2.3009497e-06
216	0x34054806	1.2412792e-07
217	0x35cef4cc	1.5419441e-06
218	0x358db465	1.055782e-06
219	0x35d5cc1a	1.5929138e-06
220	0x359d8a89	1.1737731e-06
221	0x3490cb89	2.6970181e-07
222	0x372e10b2	1.0375095e-05
223	0x3417365c	1.4082747e-07
224	0x3694854c	4.4262615e-06
225	0x34564bdd	1.9957902e-07
226	0x35b52f77	1.3499365e-06
227	0x3414daff	1.3863244e-07
228	0x3431a272	1.6543507e-07
229	0x35931b3a	1.0960277e-06
230	0x34885ef1	2.5401053e-07
231	0x3420c18c	1.4971573e-07
232	0x3583566e	9.785415e-07
233	0x33ed0fef	1.1039071e-07
234	0x366de0e8	3.5446665e-06
235	0x345d7661	2.0625295e-07
236	0x34a9dcc2	3.1639325e-07
237	0x35139ffa	5.4994564e-07
238	0x35126ffe	5.455221e-07
239	0x3493a60a	2.7501693e-07
240	0x33e308a1	1.0572081e-07
241	0x36bfb027	5.7127504e-06
242	0x36a07e21	4.783055e-06
243	0x2eac8fb9	7.847185e-11
244	0x33591e21	5.055165e-08
245	0x341df30f	1.4710189e-07
246	0x34d690f9	3.9966088e-07
247	0x347bdcb6	2.3456491e-07
248	0x338ad102	6.464144e-08
249	0x3336337f	4.2422013e-08
250	0x32964382	1.7492997e-08
251	0x2e96f276	6.86428e-11
252	0x32da8c63	2.544238e-08
253	0x33c4c63e	9.163021e-08
254	0x2fd7f561	3.9282624e-10
255	0x34f99171	4.6485687e-07

exp_avg f4 [256]
0	0x39d69bd4	0.00040933362
1	0x39a2bf60	0.00031041633
2	0x37e4f660	2.7294445e-05
3	0xb7ce10b8	-2.4564899e-05
4	0x379209e2	1.7409158e-05
5	0xbac7572e	-0.0015208477
6	0x3a15bc2e	0.000571194
7	0x3856161f	5.1042178e-05
8	0xba435288	-0.0007450958
9	0x3abd5998	0.0014446257
10	0x3b25cb47	0.0025298165
11	0xb8f9c580	-0.000119100325
12	0x3b25f73a	0.002532436
13	0xb88352eb	-6.2620114e-05
14	0xbb3dd1ee	-0.002896424
15	0x3ba00af2	0.0048841173
16	0x3b04648f	0.002020154
17	0xb9a33560	-0.0003112955
18	0xbb4c60c1	-0.00311856
19	0xbb0c949b	-0.002145088
20	0xba001eac	-0.0004887383
21	0x385b0bc2	5.222462e-05
22	0x3b5704aa	0.0032809176
23	0x38843a18	6.305071e-05
24	0xb9dc65da	-0.00042037555
25	0x3b7c9015	0.0038538028
26	0xb9e3e3d1	-0.0004346655
27	0xbaa6f6dc	-0.0012738365
28	0xba244711	-0.0006266693
29	0xbad76a60	-0.00164349
30	0x3a911330	0.001106834
31	0xba3fa198	-0.0007310151
32	0x3a36fab6	0.0006980108
33	0xbaac1364	-0.0013128337
34	0x37ca8580	2.4142442e-05
35	0x3ab54a8c	0.0013831421
36	0xb8c44245	-9.358352e-05
37	0xb9b62479	-0.0003474092
38	0x3a4ab684	0.00077328854
39	0xbb085c47	-0.0020806955
40	0x39e5a752	0.00043802947
41	0xb86b1475	-5.604742e-05
42	0xbbcd2f91	-0.006261774
43	0xba060a14	-0.0005113196
44	0x3b6db93b	0.0036273736
45	0x3ae64ca2	0.0017570446
46	0xb936074c	-0.00017359591
47	0xba074e73	-0.0005161531
48	0x39da8e2c	0.00041686126
49	0xb8ab2490	-8.160726e-05
50	0x3af221fd	0.0018473264
51	0xba5805dd	-0.000824062
52	0x3aa7ac7a	0.0012792491
53	0x3a5656ee	0.00081764057
54	0x3a692cbf	0.00088949123
55	0xba9ee096	-0.0012121375
56	0xbb810b38	-0.003938105
57	0x3ac03eb1	0.0014667121
58	0xb8a9a617	-8.0894846e-05
59	0x3b0a7eb2	0.0021132645
60	0x3b072bdb	0.0020625505
61	0xbb46b488	-0.0030320007
62	0x397b468d	0.00023963508
63	0x3b24c2dc	0.002514056
64	0x3ab11d92	0.0013512841
65	0xbafb8db8	-0.0019192016
66	0xb972c211	-0.00023151214
67	0xba9d3512	-0.0011993966
68	0xb87464ad	-5.8267895e-05
69	0xbaa157d8	-0.0012309505
70	0xbb0c98a6	-0.002145329
71	0xba3caf1b	-0.00071977236
72	0x3aee8072	0.0018196239
73	0xbbba4fc5	-0.005685779
74	0x3a8e5784	0.0010859822
75	0xb92d8149	-0.00016546728
76	0xba0e2b5c	-0.0005423331
77	0x3b9a8d3e	0.0047165444
78	0xbae87374	-0.0017734603
79	0x3b721492	0.003693853
80	0xb9ecba7d	-0.00045152372
81	0xbae9861e	-0.0017816459
82	0x3ba5faa5	0.0050652795
83	0x3b71e5aa	0.0036910572
84	0xba3e09b2	-0.00072493695
85	0x3b1b9fde	0.0023746411
86	0xba4c3b63	-0.0007790832
87	0xbb268d55	-0.002541383
88	0x3b260406	0.0025331988
89	0xbaf02a1c	-0.0018323096
90	0xbb23a4de	-0.0024970095
91	0xba913a70	-0.0011080038
92	0xbb09fd73	-0.0021055609
93	0x39a5dc04	0.00031635177
94	0x38fb1100	0.00011971779
95	0x3a477650	0.00076088775
96	0x3ad245e6	0.001604256
97	0xba3c3013	-0.00071787945
98	0x3b3531fd	0.0027648204
99	0x3a88f79c	0.001044977
100	0x3abec1b1	0.0014553574
101	0x3a0d9bbc	0.00054019294
102	0x3aa026d8	0.0012218608
103	0xba3a900c	-0.00071168016
104	0x397ce142	0.00024116508
105	0xbaadb09f	-0.001325149
106	0x3a781964	0.0009464233
107	0x3b39d169	0.0028353578
108	0xb8f32a95	-0.000115950745
109	0xba9f673e	-0.0012161506
110	0xb7b9d46c	-2.2152635e-05
111	0x3a2c7d04	0.0006579908
112	0x3bd11142	0.006380231
113	0xb9f467c1	-0.0004661661
114	0xb9ca1d13	-0.00038550104
115	0xbacf4e74	-0.0015816228
116	0x3ad9de93	0.0016622118
117	0x3ac92e99	0.001534897
118	0x3978ca3b	0.0002372646
119	0x389b8c70	7.4171345e-05
120	0x3a041fb7	0.0005040126
121	0x3a60576c	0.0008557949
122	0x3b079752	0.002068956
123	0xb973b24c	-0.00023240707
124	0xba9c9548	-0.0011946345
125	0xba1eff3e	-0.0006065256
126	0xba0dc55a	-0.0005408131
127	0x3b25767b	0.0025247622
128	0x3a65c424	0.0008764884
129	0x39abddc5	0.00032780893
130	0xb9e62809	-0.00043898847
131	0x3b1a1e50	0.0023516603
132	0x3bcc29a8	0.0062305517
133	0x3abf3fdd	0.0014591176
134	0x3a055268	0.0005085827
135	0xb8e37572	-0.000108460794
136	0x38c3db53	9.339177e-05
137	0xb84d3720	-4.8927148e-05
138	0xbab35014	-0.0013680481
139	0x39e716cc	0.00044076738
140	0xbaf288e8	-0.0018503936
141	0xbb2a4094	-0.0025978433
142	0xba411d78	-0.0007366757
143	0xbacb3d00	-0.001550585
144	0xb811ca14	-3.4758894e-05
145	0x3a4e6183	0.0007872807
146	0x39b12734	0.0003378928
147	0x39cf5cac	0.00039551163
148	0xb7e774cf	-2.759174e-05
149	0x3a4e55fa	0.0007871088
150	0x3ab99555	0.0014158884
151	0xbab25f70	-0.0013608765
152	0xbb0b4d46	-0.0021255775
153	0x3b1bb113	0.0023756668
154	0x3a08b55d	0.00052150135
155	0x3ac5ba30	0.0015085395
156	0x3abc0983	0.0014346096
157	0x3b0ae39e	0.00211928
158	0xba39acda	-0.0007082947
159	0x39808b26	0.00024517736
160	0x392fba18	0.00016758626
161	0x3ab7e8d0	0.0014031176
162	0xbac1bae4	-0.0014780429
163	0x3b2c3025	0.0026273814
164	0xb7f5ed8e	-2.9316896e-05
165	0xba7237f6	-0.0009239906
166	0xb85fc060	-5.3346506e-05
167	0x3b2ee7de	0.0026688497
168	0xbacd9994	-0.0015686029
169	0x39e64e9a	0.0004392758
170	0x3a9a1ca5	0.0011757804
171	0x3a01ebf7	0.0004956121
172	0xbae05550	-0.0017115269
173	0xba7d0534	-0.00096519594
174	0x3acb16f3	0.001549451
175	0xbb7c06dd	-0.003845624
176	0xbb21e55a	-0.0024703355
177	0xbaace3ea	-0.0013190482
178	0xba8e96bd	-0.0010878664
179	0x38515a7a	4.9913746e-05
180	0xba13a230	-0.0005631773
181	0x3a7d6f46	0.0009667765
182	0xbac521c0	-0.0015039966
183	0x3b3b4154	0.0028572874
184	0x3a831cc0	0.0010003075
185	0x3abc0624	0.0014345092
186	0xbb257e4f	-0.0025252288
187	0xba0ec71a	-0.00054465386
188	0x3b0b17bd	0.0021223866
189	0xba0639ce	-0.0005120308
190	0x3a746d41	0.00093241414
191	0x3a88f9ce	0.0010450424
192	0x39a36fb1	0.00031173
193	0x3b4dc60e	0.0031398567
194	0x380adc27	3.3106797e-05
195	0x3b5089ab	0.0031820338
196	0x3a4a9914	0.0007728499
197	0x3a0a93c4	0.0005286301
198	0x38c6b50f	9.4751005e-05
199	0xb96bc25a	-0.00022483748
200	0x3ade7202	0.0016971233
201	0xb72d0dd7	-1.0314826e-05
202	0x3ab15b0b	0.0013531161
203	0x39f1308f	0.0004600328
204	0xbac2a3c8	-0.0014849836
205	0x3b453ebd	0.003009721
206	0x3a396b94	0.00070732203
207	0xbb0c9345	-0.0021450084
208	0xbb0b307e	-0.002123862
209	0x39e21fc0	0.00043129735
210	0xb8830848	-6.248109e-05
211	0xba2498b3	-0.00062788575
212	0x3a800245	0.0009766301
213	0xba84e163	-0.0010137971
214	0x3af01a48	0.0018318379
215	0xbb2d1e54	-0.0026415782
216	0xba0c3094	-0.0005347815
217	0xba1b9004	-0.0005934241
218	0xba1bd956	-0.00059451663
219	0xba9a30ce	-0.0011763813
220	0xba1ec5c8	-0.00060566934
221	0xb80da196	-3.376751e-05
222	0x3b3c7cfa	0.0028761015
223	0x3b478c93	0.003044878
224	0xb7b5d317	-2.1675178e-05
225	0xba4440b5	-0.0007486449
226	0x3980d411	0.00024572064
227	0xba83a177	-0.0010042627
228	0x3a98c9c0	0.0011656806
229	0x3a96388b	0.0011460943
230	0xb9c6ddfe	-0.000379309
231	0xbac95092	-0.0015359095
232	0x3b18b1aa	0.0023299255
233	0xba895251	-0.0010476803
234	0xbad3750c	-0.0016132905
235	0xbafac94c	-0.0019133477
236	0x3b6bbe6b	0.0035971652
237	0x3baca061	0.005268142
238	0x3acba2c6	0.0015536181
239	0xb99f5c61	-0.0003039567
240	0x3af0fe00	0.0018386245
241	0xb91e96b9	-0.00015124203
242	0xb90cef2a	-0.00013440536
243	0x38444a34	4.679915e-05
244	0xb98845ec	-0.00025992037
245	0xba8ca5ab	-0.0010730525
246	0xba8f7c7b	-0.0010947132
247	0x39fd3e3c	0.0004830229
248	0xba6d70b4	-0.00090576266
249	0x389cb96d	7.473198e-05
250	0x391374e0	0.00014062552
251	0xb80b669a	-3.3235738e-05
252	0xba6f2691	-0.00091228733
253	0x3ba3cffc	0.004999159
254	0x3b387916	0.0028148345
255	0xba2c3f31	-0.00065706956
